runs/testrun-load-pretrained-15r-20bs-30ep/0/LocalModel-0-Round10.pt (torch, 167767 bytes, 6 tensors)

linear.weight f8 [128, 95]
-0.07958066731622813 0.08141463515343067 -0.043060038474421004 0.016053744791981045 0.10028051187997555 0.09648712271473035 -5.974102711081723e-05 -0.00932448556931278
0.08008597595323994 -0.045573242936504034 0.05675630235759984 -0.07796716609848994 -0.06983302057538598 -0.010668354355576875 0.02349733215683273 0.024083349345637387
-0.05532636296169878 0.000243070933889045 0.08430059099798848 0.09086430620625376 -0.031554260411624464 -0.057656142261266564 0.08895592776775485 -0.054953995520002
0.011636279154154812 0.016501821608691552 -0.06197873137724995 0.024733546410950793 0.005573893397850777 0.057801355753010535 -0.05617372226102811 0.05702244455293636
0.057630146542007224 -0.07993468566107624 -0.02069670738772533 0.032534549823143924 -0.07564878277808453 -0.09189511712858955 0.061416476584349705 -0.08754058466310922
0.07961357184347727 -0.08384142729361561 -0.08681348775949244 -0.00937138183190688 -0.06504179803062168 0.058582478549993516 -0.03067152489426412 0.021195283881491025
-0.09985845877548682 0.03352158057312044 -0.09787928770391935 0.07587787090416853 0.04589374502320752 0.04554976357560106 -0.0807589488249205 0.08958000515103785
-0.05052096951799822 0.008960727727258913 0.06993858260079075 0.09475717358131834 -0.0017123059215385962 -0.060044631163139885 -0.0033275876513853284 0.03885452730779981
-0.03958968884472581 0.08128038494045334 -0.08279430726023977 0.04972474563381524 0.041416211813411596 0.052759420301213285 0.03673488667766313 0.0508378685020696
-0.01005418196457571 0.06675277507723233 -0.06732421128130803 0.06580000729441533 -0.04372255597297669 0.10136253407941538 -0.1016709574500217 -0.02455069201040431
-0.024164379047377227 0.06883316594901152 0.006316597425618332 -0.012048321930888497 -0.017605038701240156 -0.04948435778305045 -0.000623610386307057 0.07391078066961239
0.03023299082887509 -0.01593445679483831 0.020301086497491305 0.07332956798081491 0.07455795620596747 0.04653433837550277 0.029289732893670588 -0.06255358884549221
0.011879143629686837 0.0728513223024645 -0.034573628988065125 -0.09675740186060264 0.07834792330779387 -0.09811560216692303 -0.07690255540861239 -0.09105124350916019
-0.08183736447617776 0.09381447752383414 0.07385152613813392 -0.06757896544651645 -0.0778615665781018 -0.007180091495564557 0.025988427824532135 0.094085465435761
0.09106156516850203 0.04919352337511351 0.01647134803798658 -0.01416000897616717 0.0353952039689585 -0.03511626903480225 -0.01968171122718068 0.088505018357565
-0.0879497200304055 0.10061118349802237 0.019509905963342906 -0.0895856025622324 -0.029426957553874287 -0.06922145694747142 -0.0882931905810436 -0.008066668181182523
-0.07440540978624338 -0.07676597878601332 0.08429550118467986 -0.0008167599000467209 -0.02628965021914189 -0.02896482285641765 -0.08596158224838522 0.021852881328492592
0.03672913728852182 0.0357630151621938 0.0047697272405394925 0.06648352053125806 -0.0007298583653827252 0.017481688630500876 0.00768673036551495 0.05308290981699496
-0.060167915877186076 0.030164229239772588 0.07603737003497262 -0.08339046016858072 -0.02989159140290102 -0.04552132702087882 0.06543704404944604 0.05510534797203394
-0.033484622114904466 -0.03447584598115622 0.06620285867664297 0.07062923752260078 0.052734441262387265 0.08709050966074035 0.07888157097054832 -0.0725233895256785
-0.05183464773720471 0.0008265111303472635 0.061896104644368205 -0.05226125186677706 0.008797901384866033 -0.0862701871815623 -0.09819697721737583 0.07656939991859915
0.007471739177774873 -0.08349666435594054 -0.051561299760104796 -0.04177459960127796 0.00792514347666033 -0.02875695958817087 -0.056975200011649324 -0.0799750262730439
-0.017825432790894376 -0.07538190665741669 0.035802221460052054 -0.050404583031955295 -0.03996257590757188 -0.04510994130862098 -0.013924812191354378 0.03328378386563146
0.0019885734940948145 0.09935821665894147 -0.1025210244243958 0.09592196382988132 0.027361668849822458 -0.020497296273066252 -0.07678886502981186 0.08214327692985535
0.06848134100437164 -0.026313312351703644 0.08078187704086304 0.031196370720863342 0.03392195701599121 0.02975645661354065 0.006555058062076569 -0.05918541178107262
-0.07547368109226227 0.06276574730873108 -0.09928613901138306 0.0513530969619751 0.08303895592689514 -0.04186059907078743 0.007965922355651855 -0.052911803126335144
-0.0862942487001419 -0.018631786108016968 -0.06637520343065262 -0.0745135173201561 0.034697532653808594 -0.017332173883914948 0.10206423699855804 -0.03341997414827347
-0.06161715090274811 0.02812059223651886 -0.05999066308140755 -0.0585753507912159 -0.03842607140541077 -0.07205244898796082 0.0028657764196395874 -0.06406636536121368
0.061439335346221924 -0.008525103330612183 0.07358814775943756 0.032777607440948486 0.05089184641838074 0.044711366295814514 -0.09293922781944275 0.08427774906158447
0.06045198440551758 0.009179800748825073 0.09615109860897064 0.07762311398983002 -0.0138922780752182 0.05665142834186554 -0.04363004118204117 -0.06568238884210587
0.0527389794588089 0.05310872197151184 -0.04296475648880005 0.03464764356613159 -0.0291537344455719 0.06873640418052673 -0.02762194722890854 0.04011961817741394
-0.06395456194877625 -0.00884196162223816 -0.007826738059520721 0.03209438920021057 0.07008685171604156 -0.05268140509724617 -0.07215557992458344 -0.10036734491586685
00000000: c75d 840b 665f b4bf 7456 66eb 96d7 b43f
00000010: 3537 0622 f70b a6bf b886 7093 6470 903f
00000020: c85c f3ce fbab b93f ef7e 8b4c 61b3 b83f
00000030: eb80 b50f 4e52 0fbf 4de9 9344 b718 83bf
00000040: 5e60 96b7 8380 b43f 154b f847 6055 a7bf
00000050: bb80 ef7c 290f ad3f 4e08 8efc a7f5 b3bf
00000060: 885b 8dab 93e0 b1bf 3688 7948 4ad9 85bf
00000070: 2a9c a044 af0f 983f 8147 4537 4ea9 983f
00000080: eee2 0daf bc53 acbf a6e9 5e6c 1bdc 2f3f
00000090: 58ad 5e39 b994 b53f 3193 8717 e242 b73f
000000a0: f1e7 0849 e127 a0bf 8df0 d91a 1b85 adbf
000000b0: 983f 8cd0 d0c5 b63f 1dfc 151b ee22 acbf
000000c0: 5753 50f3 c2d4 873f 6bf7 8880 dae5 903f
000000d0: de2e a020 adbb afbf 37e9 cb33 c053 993f
000000e0: a1bb ae9d a6d4 763f f74d 3fa9 2398 ad3f
000000f0: 7eeb 0258 cdc2 acbf df54 fcbc 0b32 ad3f
00000100: 5abe 52d5 b281 ad3f 0bf9 ba7c 9976 b4bf
00000110: ffec 7585 8431 95bf 3a02 f656 5ea8 a03f
00000120: d19a 03f8 b75d b3bf c0b8 ba3a 7086 b7bf
00000130: c40c bbfc fa71 af3f e165 334c 0f69 b6bf
00000140: e7ae 6217 8e61 b43f 9daa 46bc a176 b5bf
00000150: f459 c7a2 6839 b6bf 3b15 e493 4d31 83bf
00000160: 6e20 6a4b 94a6 b0bf dc4f fbca 85fe ad3f
00000170: 3275 5b31 5b68 9fbf b7d9 666c 37b4 953f
00000180: 2870 abee 5290 b9bf e926 8b98 bd29 a13f
00000190: 4ce4 a4f3 9d0e b9bf 0005 066e bb6c b33f
000001a0: 3e68 ee8b 627f a73f 64a4 cb71 4c52 a73f
000001b0: 8ff7 0f54 9eac b4bf d3cc 7f18 b7ee b63f
000001c0: 9f1c af6f e2dd a9bf dba5 4b84 005a 823f
000001d0: debd ffb4 7ee7 b13f 2bd9 9791 0142 b83f
000001e0: 10a6 c27b ee0d 5cbf 75c9 4a7e 2bbe aebf
000001f0: 428b 6404 7542 6bbf 0055 2d98 bde4 a33f
00000200: a19e b185 1945 a4bf 4223 2093 cace b43f
00000210: e34a faf9 0132 b5bf e02a 9998 8575 a93f
00000220: 408f 8676 8134 a53f 71cf 7f61 4803 ab3f
00000230: a23f ce41 eace a23f debe 3acd 6b07 aa3f
00000240: 2a9d ce75 4997 84bf a1bb dfb9 b516 b13f
00000250: 76a5 aed5 283c b1bf 8df4 67ef 44d8 b03f
00000260: efbf 0088 cd62 a6bf 8528 e920 e5f2 b93f
00000270: f56a 339d 1b07 babf 2a8c 1d0d d123 99bf
00000280: e04f f206 8cbe 98bf bd92 a1e4 0c9f b13f
00000290: 2828 d7b5 6edf 793f 9b9a 5165 caac 88bf
000002a0: 15d7 dd25 0e07 92bf cafb ae84 0356 a9bf
000002b0: aa26 791b 396f 44bf 8d3d cc21 d1eb b23f
000002c0: 5f2c 7bab 65f5 9e3f 45e0 404b 1f51 90bf
000002d0: 83e9 51da cec9 943f 58b2 4e00 bac5 b23f
000002e0: ceac 8fef 3a16 b33f db74 ed4a 59d3 a73f
000002f0: 0e2d 8cb3 20fe 9d3f dfbc 5612 8303 b0bf
00000300: 1fe5 26ab 1754 883f b06a c25e 62a6 b23f
00000310: fc94 9d7b a2b3 a1bf b620 a3d4 17c5 b8bf
00000320: 8b05 5108 9c0e b43f a6c6 88a6 1a1e b9bf
00000330: 1b75 75c8 e2af b3bf 22c9 2161 224f b7bf
00000340: 9a19 0424 4bf3 b4bf 932f dbc0 3904 b83f
00000350: a6e1 8501 efe7 b23f 7284 7de6 da4c b1bf
00000360: 657a 1152 bcee b3bf 9be6 7d22 df68 7dbf
00000370: fdc2 52de b59c 9a3f 0f56 132d fc15 b83f
00000380: fe3f 528c cf4f b73f 606a 24bc e42f a93f
00000390: 87a5 9374 dddd 903f acaa b53b ecff 8cbf
000003a0: 06bf f6f6 511f a23f 30c0 1f76 c2fa a1bf
000003b0: 2842 3348 7127 94bf caab 60cf 43a8 b63f
000003c0: 1b13 3973 df83 b6bf 6261 bc8e a7c1 b93f
000003d0: 220c 3ea0 67fa 933f 737e 3201 15ef b6bf
000003e0: e938 42b1 1922 9ebf 3257 c555 7fb8 b1bf
000003f0: c24c 01ee 619a b6bf 86f7 34e0 4185 80bf
00000400: ac69 ada1 3b0c b3bf d0d3 5468 efa6 b3bf
00000410: d7c2 c9d4 6394 b53f 9bec 9987 7ac3 4abf
00000420: 0671 a88f aceb 9abf bd69 9c5b f4a8 9dbf
00000430: 5f1f 7808 9401 b6bf ba58 840a 9a60 963f
00000440: 55d2 ed56 29ce a23f ad52 0ea9 874f a23f
00000450: 90b0 24e8 6b89 733f 489a 6762 1005 b13f
00000460: 0b17 afe7 7eea 47bf b294 c943 b8e6 913f
00000470: 9b66 87f8 1e7c 7f3f 05f1 47e3 ae2d ab3f
00000480: 5207 ec3d 54ce aebf 831f 6028 5fe3 9e3f
00000490: 73f5 9261 2f77 b33f 25f2 38c3 1359 b5bf
000004a0: 0ae0 00be e69b 9ebf 0b80 a645 924e a7bf
000004b0: ffa7 236c 7bc0 b03f b2c9 bfa6 c436 ac3f
000004c0: b40b ce79 e524 a1bf 3864 fb6d d1a6 a1bf
000004d0: eefa eaa8 abf2 b03f 720d 4df9 c114 b23f
000004e0: d387 3039 0200 ab3f 0dec c84a 904b b63f
000004f0: 0c5b 9327 9531 b43f 3036 3592 e490 b2bf
00000500: 8275 a929 128a aabf 07cc 2623 4715 4b3f
00000510: bc0b 65a2 d8b0 af3f 9a4d 3b9f fcc1 aabf
00000520: 857e c555 a204 823f 2f8a 9090 cd15 b6bf
00000530: aef5 b6e5 6f23 b9bf 9a54 865c 0d9a b33f
00000540: 74c4 9ab6 af9a 7e3f d3dd bb92 0960 b5bf
00000550: 4df5 6a20 3e66 aabf 6395 2ef6 7a63 a5bf
00000560: 970c 63c0 0e3b 803f b0b6 dae3 7672 9dbf
00000570: ec57 7779 da2b adbf 22e7 564a 3e79 b4bf
00000580: 6fe9 7e8b d440 92bf 35c1 cd87 3a4c b3bf
00000590: cd13 9734 ab54 a23f e3ab 6127 a1ce a9bf
000005a0: 3c83 2c89 f975 a4bf 4c3e 4a75 a618 a7bf
000005b0: dced b7a7 9c84 8cbf 3f4a 6176 920a a13f
000005c0: 8138 ee43 574a 603f dd97 2343 8a6f b93f
000005d0: 6721 0e5f d13e babf 3b10 9e81 578e b83f
000005e0: d5f1 7e83 b204 9c3f f5d2 9844 3efd 94bf
000005f0: 0000 0060 6fa8 b3bf 0000 0080 5707 b53f
00000600: 0000 0040 fe87 b13f 0000 0080 e0f1 9abf
00000610: 0000 0000 1fae b43f 0000 0000 f1f1 9f3f
00000620: 0000 0000 385e a13f 0000 0000 7a78 9e3f
00000630: 0000 0000 7ad9 7a3f 0000 00e0 8c4d aebf
00000640: 0000 0040 3e52 b3bf 0000 0080 6a11 b03f
00000650: 0000 0000 d16a b9bf 0000 0000 f44a aa3f
00000660: 0000 0080 0a42 b53f 0000 00a0 c06e a5bf
00000670: 0000 0000 7050 803f 0000 0080 4117 abbf
00000680: 0000 0040 6117 b6bf 0000 0000 3614 93bf
00000690: 0000 0020 f7fd b0bf 0000 0060 5113 b3bf
000006a0: 0000 0000 e0c3 a13f 0000 0080 86bf 91bf
000006b0: 0000 00c0 e120 ba3f 0000 0040 6c1c a1bf
000006c0: 0000 0080 488c afbf 0000 0000 a5cb 9c3f
000006d0: 0000 00a0 18b7 aebf 0000 00a0 96fd adbf
000006e0: 0000 0000 95ac a3bf 0000 0080 0772 b2bf
000006f0: 0000 0000 f879 673f 0000 0040 a766 b0bf
00000700: 0000 0000 fa74 af3f 0000 0000 9c75 81bf
00000710: 0000 0040 acd6 b23f 0000 0000 3ac8 a03f
00000720: 0000 0000 7f0e aa3f 0000 0080 68e4 a63f
00000730: 0000 0080 ddca b7bf 0000 0000 3a93 b53f
00000740: 0000 0000 90f3 ae3f 0000 0000 dccc 823f
00000750: 0000 00c0 5b9d b83f 0000 00c0 1bdf b33f
00000760: 0000 0000 8e73 8cbf 0000 0080 6a01 ad3f
00000770: 0000 0040 ad56 a6bf 0000 00a0 8fd0 b0bf
00000780: 0000 0080 9a00 ab3f 0000 0000 1131 ab3f
00000790: 0000 0000 7aff a5bf 0000 0000 56bd a13f
000007a0: 0000 0000 7ada 9dbf 0000 0080 b598 b13f
000007b0: 0000 0080 ed48 9cbf 0000 0000 8f8a a43f
000007c0: 0000 0080 535f b0bf 0000 0000 bc1b 82bf
000007d0: 0000 0000 7707 80bf 0000 0000 ad6e a03f
000007e0: 0000 0040 36f1 b13f 0000 00a0 0ef9 aabf
000007f0: 0000 00c0 c978 b2bf 0000 00a0 acb1 b9bf

linear.bias f8 [128]
0.06768666260440324 -0.06508355269646725 -0.01189488172531128 0.03161898562646408 -0.0003210529685020447 -0.02857557445802261 -0.05856584649497721 0.0651743075478158
-0.08746273070573807 0.021543195650917463 -0.020575800799673298 0.09524125744434275 0.042997389956033194 -0.059156248824566854 0.02574936611725867 -0.07339042203100331
-0.0984501859001767 -0.03209111456766656 0.08979006111621857 -0.09066570438223015 -0.07627737652156048 -0.04827528033909665 0.009572557276573872 -0.0581744841696024
-0.04214455743473667 0.0952860563993454 -0.06656334100344985 -0.044347756957808515 -0.013898147550217123 -0.09598547220230103 0.06654787784445958 0.025817730921527393
-0.04396679336669752 -0.048892128809098434 -0.014983558508722149 -0.027565188705921173 -0.0950511172413826 0.005399246220564075 0.007831715784378867 0.025895174934260287
0.09753749081546907 -0.06011870503425598 -0.08616616249275896 -0.014024497608249177 0.05813199648195863 -0.0032665770009374143 0.00202741292495727 0.06710179504592402
0.047339160702192934 -0.08255107700824738 0.0929282721862989 -0.02584328668310543 -0.017498284476784615 -0.024401311281133778 -0.0526420958340168 -0.0780564397573471
-0.04488990544585903 -0.03107051453337399 0.03596705198287964 0.06068254610263666 0.08503379079636256 -0.05608517982785005 0.0064991062069130285 0.043723987796157514
-0.007315205152841886 0.028134914842619686 -0.015243434329077106 -0.03559039368101233 0.03114713728427887 -0.08646573140136615 -0.09902966022491455 0.034744992852211
-0.037825047969818115 -0.005982346832752228 -0.08164571068990853 -0.04967590048909187 -0.08019751825798163 0.0898475270920304 0.04935923939451973 0.09565259678142995
0.056745126843452454 -0.01944865964992929 0.09762869775295258 0.01850465675796389 0.033698350323696474 -0.041177421005609 -0.07539103925228119 -0.056845684747839055
-0.05840996735478858 0.006139137921311679 -0.01662445691626034 0.06422275198593477 -0.06740106759887489 -0.07701265364092476 0.07256144300255168 -0.014030583202838898
0.06719207260488955 -0.0619699489409868 0.01740206219487099 -0.004158263149534962 0.07761908843269018 0.007156992749116097 0.015473056702600315 -0.03683515981578027
0.09890776023931891 0.021361589697181528 0.02362056076526642 -0.03342695907249696 0.09390231572371745 -0.04915316653231871 0.06375359218420916 -0.07327635595222054
0.09066484376546022 0.08708378527539379 0.039198442629293846 -0.0010357774683599948 0.07144143747723178 0.011732392013072968 0.09541202633555772 -0.09775398209031225
-0.05776194873781319 -0.0327483470386881 -0.08504533767700195 -0.040501600282533655 -0.028916971735442387 -0.021446128198540956 0.09567003542814269 0.05915506184101105
00000000: 6fe4 42c2 e953 b13f dfbc 56d2 50a9 b0bf
00000010: 0000 0000 585c 88bf 168f 651a 5d30 a03f
00000020: 0000 0000 600a 35bf 1fe6 0b57 ea42 9dbf
00000030: 218b b7b6 57fc adbf 9512 756f 43af b03f
00000040: 0000 0020 f563 b6bf 658c 1663 6b0f 963f
00000050: 8e2c 189e d211 95bf f80f f425 bb61 b83f
00000060: e05a 59ff c003 a63f 7471 1c54 ba49 aebf
00000070: 2826 77b5 0a5e 9a3f df79 76f6 b6c9 b2bf
00000080: fef3 b908 0834 b9bf e0e1 1e1f 3f6e a0bf
00000090: 0000 0040 7bfc b63f 74c3 301b de35 b7bf
000000a0: 2db4 9505 ea86 b3bf 3df7 859c 89b7 a8bf
000000b0: 6928 89e3 c69a 833f 86b2 f0c5 0bc9 adbf
000000c0: d1ee c5af f893 a5bf 0000 00c0 aa64 b83f
000000d0: 80e9 b88c 4b0a b1bf f8c9 91cb bfb4 a6bf
000000e0: 0115 a0c9 a176 8cbf 0000 0000 8192 b8bf
000000f0: d7cc f51e 4809 b13f a00b dc97 f66f 9a3f
00000100: d16a 3dc7 d082 a6bf c0a6 889c 6308 a9bf
00000110: 8c6a 2e2e b3af 8ebf 0000 0080 0c3a 9cbf
00000120: 0000 0020 4555 b8bf edc5 0b1f 851d 763f
00000130: 26e4 5219 130a 803f 1c0d dec5 4384 9a3f
00000140: fbb3 2f8d 37f8 b83f 0000 0000 e1c7 aebf
00000150: ee9f ed51 fc0e b6bf b4e4 8f34 e0b8 8cbf
00000160: 7c7e 7b1f 7ac3 ad3f 8bcd 712c 82c2 6abf
00000170: 6167 a906 cb9b 603f ada2 394f 952d b13f
00000180: 846f 12a6 d63c a83f 0000 0040 1122 b5bf
00000190: fcf7 e9b1 25ca b73f a117 809c a976 9abf
000001a0: 886d 41fe 11eb 91bf 645a ba47 a8fc 98bf
000001b0: 0000 00a0 e7f3 aabf 0000 00c0 81fb b3bf
000001c0: 71f9 9e47 cffb a6bf 2cb6 29ef f2d0 9fbf
000001d0: 0000 0000 466a a23f edcd e55d c811 af3f
000001e0: f278 8646 c6c4 b53f 1842 4d5a 32b7 acbf
000001f0: cb6e ca89 ce9e 7a3f e338 4593 fd62 a63f
00000200: 73dd 516e 8cf6 7dbf aaca 7f2c 66cf 9c3f
00000210: 247b 601f f337 8fbf 0ccc d271 e738 a2bf
00000220: 0000 0000 09e5 9f3f 60f5 9740 9e22 b6bf
00000230: 0000 0000 025a b9bf 0000 0080 18ca a13f
00000240: 0000 0000 ce5d a3bf 0000 0000 f280 78bf
00000250: f696 45b9 bbe6 b4bf 0000 00a0 1e6f a9bf
00000260: ca6d 2316 d387 b4bf 4a9b 7c5e 3f00 b73f
00000270: 45e8 e83d 9d45 a93f c426 f446 b07c b83f
00000280: 0000 0080 b20d ad3f 4a05 9774 59ea 93bf
00000290: 0000 00c0 31fe b83f 478a 657e e2f2 923f
000002a0: fc8b 2301 e940 a13f 57fd 1af9 3415 a5bf
000002b0: 0000 00c0 d34c b3bf 9546 d2a9 e01a adbf
000002c0: 9636 1947 e9e7 adbf 5c0b 9049 5a25 793f
000002d0: bc8e 136b 0006 91bf 3a4f 70fb e670 b03f
000002e0: a97a 0d45 3241 b1bf 1d15 c4ec 19b7 b3bf
000002f0: d482 a500 6393 b23f 0000 0000 11bc 8cbf
00000300: fe71 63ea 7f33 b13f 9a99 1270 86ba afbf
00000310: cc2a 0aa0 d8d1 913f 1f42 c443 4108 71bf
00000320: d11d 5d36 d8de b33f 99fc b89c a650 7d3f
00000330: abf8 0d84 56b0 8f3f 16e0 80dd 0edc a2bf
00000340: 7069 8cdb 0452 b93f 0a53 8f04 d0df 953f
00000350: 0000 0000 fd2f 983f 44ce 0aa0 561d a1bf
00000360: 0952 0d6f fb09 b83f cf96 8095 9a2a a9bf
00000370: ef06 6fc9 2752 b03f 0485 6240 3dc2 b2bf
00000380: 2e9e deaa cf35 b73f 3c0b c579 1f4b b63f
00000390: f13c 4b7a d111 a43f 5003 9096 5df8 50bf
000003a0: 9a3f 8b6d fc49 b23f 0000 0000 2707 883f
000003b0: 9b9d c12c ec6c b83f 86b4 21ac 6706 b9bf
000003c0: 2674 9061 f992 adbf 6df6 0e2f 64c4 a0bf
000003d0: 0000 0000 88c5 b5bf eb5c 4c31 a0bc a4bf
000003e0: 60c1 9c1f 699c 9dbf 3c48 f44c f9f5 95bf
000003f0: 19fc 5ed9 d47d b83f 0000 0080 9249 ae3f

linear2.weight f8 [64, 128]
0.055976921416421604 -0.05033017208400256 -0.07980796694755554 -0.015493903443998445 0.012645073235034943 -0.037149959074724126 0.06916029388557719 -0.0003902511270991999
-0.02128402143716812 0.06402125498131775 0.004822868567998406 0.029472663744565628 -0.036797119722305746 -0.06713680885812205 -0.07935464242373705 0.07146174192998157
0.010051057985010884 -0.040597557158655664 0.033761732280254364 0.0205938287936234 -0.044553152841731954 0.080199382774724 -0.062157309603985904 -0.06594323758713289
-0.02384327372064387 0.06412609666585922 -0.05251759377457384 0.017009411260671726 0.022401568203375972 -0.010331541299819946 0.062128882591967034 -0.07112998416169518
0.0031975942031339014 -0.036479547888010826 0.004377596667762372 -0.01091136783361435 0.02793172001838684 0.04153291950061719 0.019826553761959076 -0.09223666192469282
-0.020667569961324038 -0.06621591001749039 -0.021898820781995534 -0.009184137842240798 0.01673882679103862 0.0780969279674791 -0.04817987705281311 0.004297244668557928
0.07840346975521321 0.054075874388217926 -0.040629804134368896 0.0010464755276442584 0.039798932012952884 0.012182320988654727 0.08742479234933853 0.04201667755842209
0.024249288919228933 0.013903122195173236 -0.041871629655361176 0.0693712210931892 0.006189488006186924 -0.05051130628163366 0.055693503140546864 -0.0642001043631545
-0.035926151920511684 -0.06500693480081798 -0.03434338142445057 -0.06672092369396206 -0.032105445861816406 -0.014511917890618125 -0.06390675902366638 0.04647260159254074
-0.025155968964099884 -0.057003673166036606 -0.08259627320024224 -0.01077357679605484 0.015757901261434868 0.032465400884426086 -0.09042780677723536 0.054019007240310495
-0.07438834011554718 -0.03926657552425687 -0.06292207539081573 -0.0212070263754076 0.0025210837373035016 -0.03310427177086241 -0.001781851053237915 -0.038075917769967084
-0.018214869691017616 0.02292887658846071 0.05594824441406038 -0.004447916055470422 -0.002533760787705642 -0.03731716664822839 -0.057446977503271206 0.08714691549539566
0.03166633440395526 0.05913903790163911 -0.04667352303595346 -0.08057699180276641 0.06549081417874153 -0.08581868758007728 -0.08794480232952545 0.002521771608222538
-0.0846431143502215 -0.07808215004506219 0.05557020753622055 -0.07170577712115951 0.024052292200231026 -0.014775870652171529 -0.06576499179710313 0.07871728024334905
-0.037269573709993814 -0.08462207834555849 -0.060494349853797875 -0.034431589838483594 -0.06727354529187178 0.00560973584651947 0.0668961805980913 0.005703175244083523
0.00861892003097373 -0.04087174724404606 -0.01024780422449112 -0.06502249433311573 0.025806008063690232 -0.04689025206811166 -0.0310285370423518 0.005564071238040924
0.01851677390995208 0.015718515432613305 -0.08217309415340424 0.03463444255562356 -0.009131655097007751 0.04505983353404407 -0.012360706763573698 -0.06558345990709978
0.013390041887760162 -0.07556985880766104 0.06329909913887351 0.041144651426718915 0.044661972134185254 0.032265965190679424 0.0057164444771603765 -0.06006310703637142
-0.04913230873265746 0.01418321190460028 0.019219204783439636 0.005154360215948712 0.07867468841137236 0.05267702580293704 -0.0933383344379555 0.00832579788960373
-0.026997305032856803 -0.007650382816791534 0.04890724999853618 0.04285712298245617 0.08818940240560327 -0.08683203160762787 -0.03400817680268212 -0.019896196454438336
0.06979962558715808 -0.0008047189163262338 -0.07711669785370473 0.012824788689613342 -0.07124398648738861 0.09130498103164747 -0.07236576199486824 0.0748979808844005
0.07745396716397356 0.034773439168930054 -0.031279758808684915 -0.042031865438960356 0.06142184652297169 0.013343754562957586 0.012494042724761102 0.07085718059579274
-0.06425459466915538 -0.059433504939079285 -0.02827151085778271 0.006141966572171637 0.011458273990476924 -0.08362675278526407 -0.04425780475139618 0.012031197547912598
-0.024914270540066754 -0.06055721406047874 -0.02699265256524086 0.01623317591006118 -0.07624238726107233 0.012651291388016687 -0.048025261681641285 -0.03431387305359156
0.07898603610262968 -0.08174036995734446 0.018064867029653795 -0.024746389657938305 0.023402750492095947 -0.015526637434295828 0.010933749377727509 -0.03474554419517517
-0.08632754534482956 0.017101630568504333 -0.03511099609297779 -0.00850774347782135 0.05669449487625081 0.011120487841183644 -0.03671272157937338 0.054678636346234294
0.008723720908164978 0.08315779159260507 0.03519096225500107 -0.04918529444740348 0.06734888874574436 0.06179777590643136 0.003091752529144287 0.022000476903708297
0.06750622514273162 -0.016156248800449344 -0.03069751487972643 0.04963823473748356 -0.00784610600986573 0.035441189153171 -0.04818576283454338 -0.0796065479516983
-0.04907701473713769 0.0676595797647091 0.01354515114084763 0.08200458960274166 0.021110484329497442 0.0043978376391425366 0.06240742752699428 0.06982143851261838
0.011977014412490602 -0.05715876455902423 -0.07709164917469025 -0.06112564763817562 0.04469505226379665 -0.07231649739498884 0.07694544305395087 0.06163282868634643
-0.018388979728316924 -0.08111144349987619 0.05167818906737125 0.02682380521140552 -0.037394194416943645 -0.027879782021045685 -0.06175567700456302 0.025171325698300297
-0.032420626921327016 0.017620321007132393 -0.03702879697084427 -0.049365510877893475 0.031017856000397373 -0.03469689719975206 0.030044177519305555 -0.034904595464468
00000000: fcea a0cd 01a9 ac3f dca7 3456 e0c4 a9bf
00000010: 0000 0080 4b6e b4bf ec84 a284 44bb 8fbf
00000020: 0000 0000 a9e5 893f 981f 8cc6 5105 a3bf
00000030: f798 6b30 7db4 b13f f78d ffd3 5393 39bf
00000040: 0000 0080 7acb 95bf 62c5 646c b263 b03f
00000050: 80fe 5bec 24c1 733f 6cba a2fb 142e 9e3f
00000060: 76ae 9673 12d7 a2bf ab47 67be e02f b1bf
00000070: d2e7 fef9 9550 b4bf 7924 8114 514b b23f
00000080: 22c3 af2a a695 843f 427c 96f8 33c9 a4bf
00000090: 0000 00c0 3749 a13f 8911 ac74 8c16 953f
000000a0: 9921 c7bc abcf a6bf 6d44 2d5e f287 b43f
000000b0: efb5 e937 15d3 afbf 7c3f d4f0 a7e1 b0bf
000000c0: 1e60 7003 5f6a 98bf 0000 0060 916a b03f
000000d0: baeb 7307 96e3 aabf 2dee 5a44 ea6a 913f
000000e0: b21d 40cb 6ff0 963f 0000 0000 b428 85bf
000000f0: 0132 bd5d 5bcf af3f 7b4e bd1b 9335 b2bf
00000100: cb27 e850 d731 6a3f 37c2 4d82 72ad a2bf
00000110: f2b0 5e28 3eee 713f 0000 0000 b358 86bf
00000120: 0000 0000 229a 9c3f 8cd3 ec85 cd43 a53f
00000130: 0000 0080 694d 943f 9071 7566 d29c b7bf
00000140: 2666 4924 e129 95bf 0000 00a0 86f3 b0bf
00000150: 178c 51fc a46c 96bf 7721 651d 22cf 82bf
00000160: 334d 90a6 fb23 913f f5d3 8907 29fe b33f
00000170: aec5 8868 08ab a8bf 56a5 07d5 fc99 713f
00000180: 43d7 7df2 3f12 b43f 0000 0040 d5af ab3f
00000190: 0000 0000 6ecd a4bf 1afc b48a 3c25 513f
000001a0: ca9d d28e 8660 a43f 9a9a e271 0bf3 883f
000001b0: 0000 00a0 7861 b63f 0000 00c0 3583 a53f
000001c0: bbf7 6f3b ced4 983f 54de 1f79 3d79 8c3f
000001d0: 0000 00c0 3270 a5bf 33fb e0f5 4fc2 b13f
000001e0: 9685 0c09 265a 793f 4b9f 1d31 9edc a9bf
000001f0: 8d38 2ddd db83 ac3f 99b8 a304 6b6f b0bf
00000200: 08b3 239f e964 a2bf 6093 fb62 4ba4 b0bf
00000210: cda8 1aa8 7495 a1bf 6d77 3959 9f14 b1bf
00000220: 0000 0000 2070 a0bf 8385 f0a5 6cb8 8dbf
00000230: 0000 0080 315c b0bf 0000 00c0 41cb a73f
00000240: 0000 0080 7cc2 99bf 0000 00e0 952f adbf
00000250: 2aa1 2a84 0725 b5bf 0000 0000 7510 86bf
00000260: c92c 49da d622 903f e3ab 1916 4e9f a03f
00000270: 06da c1d8 4626 b7bf 4f46 eb1a 61a8 ab3f
00000280: 0000 0040 1d0b b3bf d6ba 67a3 bf1a a4bf
00000290: 0000 0040 a91b b0bf 7d40 e972 4bb7 95bf
000002a0: bc63 7886 18a7 643f 733d 3a09 0bf3 a0bf
000002b0: 0000 0000 a031 5dbf ada4 2ccb af7e a3bf
000002c0: 45cb 7e36 eba6 92bf f069 53dc aa7a 973f
000002d0: 78d3 0d90 3fa5 ac3f d7c7 e55f fa37 72bf
000002e0: 35ba 0277 aec1 64bf 83c3 aa54 3c1b a3bf
000002f0: afdd 42b3 b069 adbf 0000 00a0 424f b63f
00000300: 4e62 4cdd 9136 a03f f1ac 68d3 7847 ae3f
00000310: 889a 0e8e 97e5 a7bf 655a 9a98 b1a0 b4bf
00000320: 2c0b 1689 01c4 b03f 51c5 8aa8 36f8 b5bf
00000330: 6cc6 dbf1 8c83 b6bf 0ac1 bad2 89a8 643f
00000340: fd3d f7cf 2bab b5bf d44b d818 31fd b3bf
00000350: 0000 00c0 b273 ac3f dd6d ab4f 4f5b b2bf
00000360: af47 9301 2aa1 983f 2c9d c4c9 cf42 8ebf
00000370: 1682 fd78 f9d5 b0bf db76 46d0 d026 b43f
00000380: 2cc9 7060 ff14 a3bf 6283 03e3 caa9 b5bf
00000390: 1100 6e8c 1df9 aebf 0f74 9c70 04a1 a1bf
000003a0: df20 eacc d638 b1bf 0000 0000 3cfa 763f
000003b0: 9667 e5ab 1b20 b13f 31d3 8172 365c 773f
000003c0: b26a 47dd cba6 813f 5eb3 7c43 24ed a4bf
000003d0: 0000 0000 cdfc 84bf 8342 aa6e 50a5 b0bf
000003e0: d608 b2e2 e36c 9a3f 0a79 44c6 ff01 a8bf
000003f0: cdc6 5bdf f1c5 9fbf 0000 0000 5aca 763f
00000400: fa90 7ba9 0ff6 923f ab23 e6b6 8318 903f
00000410: 0000 00c0 4b09 b5bf 64e5 2e0c 9bbb a13f
00000420: 0000 0000 9eb3 82bf 2faa c81e 1512 a73f
00000430: 3da1 70fa 9150 89bf 27a3 75df 13ca b0bf
00000440: 0000 0000 3d6c 8b3f f469 24d8 8b58 b3bf
00000450: edef aaa8 5e34 b03f 88ef 9068 e910 a53f
00000460: 86e3 611b efdd a63f a822 8922 2a85 a03f
00000470: 9ac7 4261 206a 773f 91b0 d570 97c0 aebf
00000480: 0a13 5eb6 de27 a9bf 4d8d 427a 160c 8d3f
00000490: 0000 0000 33ae 933f eee7 f208 bd1c 753f
000004a0: 27f5 bf3d 0624 b43f a8f8 25ae 7bf8 aa3f
000004b0: f2c6 df65 05e5 b7bf b60e 31ad 1d0d 813f
000004c0: 61f7 c878 2ea5 9bbf 0000 0000 0256 7fbf
000004d0: 67e0 8ffe 5e0a a93f 2479 386b 5ef1 a53f
000004e0: da93 2fa7 9493 b63f 0000 00c0 9f3a b6bf
000004f0: a505 540e 8569 a1bf abae 5824 ab5f 94bf
00000500: d47d 2b65 63de b13f 87c6 cbb6 785e 4abf
00000510: 3cd6 417f ebbd b3bf 0000 0000 e243 8a3f
00000520: 0000 00c0 0b3d b2bf dc29 7e63 c35f b73f
00000530: 6a3a 1e05 9086 b2bf ca57 6f9a 832c b33f
00000540: 5f2b eaef 05d4 b33f 0000 0000 d3cd a13f
00000550: 0c5b 388a e603 a0bf 9681 e65e 3385 a5bf
00000560: e3f5 262c af72 af3f 9249 a16b f853 8b3f
00000570: 9470 2e07 7a96 893f 827f 5839 b223 b23f
00000580: 27c5 b836 fd72 b0bf 0000 0080 116e aebf
00000590: c9b5 2bfa 34f3 9cbf 3a3a f898 5128 793f
000005a0: 762e 7680 6f77 873f fe8b 4818 9068 b5bf
000005b0: 0000 0080 f5a8 a6bf 0000 0000 d0a3 883f
000005c0: 1771 b164 2083 99bf ed6e daeb 5a01 afbf
000005d0: 0000 0040 f6a3 9bbf d061 93fe 6d9f 903f
000005e0: 26f3 daff 9e84 b3bf c20d 1c96 ebe8 893f
000005f0: 48e6 9b60 c496 a8bf 2fe8 2085 9691 a1bf
00000600: b9c6 e6c9 6d38 b43f f0cf bad7 efec b4bf
00000610: 9953 65b4 987f 923f 0384 1919 1e57 99bf
00000620: 0000 0000 e4f6 973f be29 faff 6dcc 8fbf
00000630: 0000 0000 6f64 863f 0000 0000 2bca a1bf
00000640: 0000 00e0 8f19 b6bf 0000 0000 1783 913f
00000650: b70d e687 11fa a1bf 0000 0000 826c 81bf
00000660: 35a6 b692 0f07 ad3f 6562 bf9c 56c6 863f
00000670: d7a5 0f85 02cc a2bf 743d cb95 d6fe ab3f
00000680: 0000 0000 bedd 813f 193e 4c3b d449 b53f
00000690: 0000 00c0 8c04 a23f 4e03 319e d02e a9bf
000006a0: f5bc 95da c63d b13f 36a2 f744 f5a3 af3f
000006b0: 0000 0000 e053 693f 79fa 3003 4b87 963f
000006c0: afb2 4385 1648 b13f 2c58 e580 438b 90bf
000006d0: 0d58 e859 2b6f 9fbf 8546 a8c5 2e6a a93f
000006e0: 5be2 b485 9e11 80bf 863d b0f8 5825 a23f
000006f0: 95ac 03e7 cdab a8bf 0000 0040 1861 b4bf
00000700: b508 905a 9f20 a9bf 44bc 5962 2352 b13f
00000710: 38c3 5a69 8fbd 8b3f 9d36 77b6 40fe b43f
00000720: d80f 319f fc9d 953f 45ee 548d 7703 723f
00000730: 5609 83c8 ddf3 af3f c2ab f85a d1df b13f
00000740: de97 a4a9 6787 883f 6eea ebe0 e943 adbf
00000750: 0000 0040 47bc b3bf 7f06 1b63 dc4b afbf
00000760: 6e33 8817 45e2 a63f b3d2 457f 5583 b2bf
00000770: ee31 7e51 b2b2 b33f 6dba 228f 568e af3f
00000780: ede2 288a 8fd4 92bf 57cf 2935 b8c3 b4bf
00000790: 66f6 eb47 9075 aa3f 2b8e 8c18 b377 9b3f
000007a0: e97d 29f4 5425 a3bf 0000 0080 848c 9cbf
000007b0: 5764 27aa 709e afbf a745 af12 83c6 993f
000007c0: c792 afb8 6f99 a0bf 7ef3 e1b9 0f0b 923f
000007d0: 0000 0040 70f5 a2bf 67b1 8aad 6f46 a9bf
000007e0: 5479 7414 25c3 9f3f 79c0 7dad cac3 a1bf
000007f0: 62c5 859f e6c3 9e3f 0000 00e0 03df a1bf

linear2.bias f8 [64]
-0.03574425027963344 0.006740267642547004 0.023853330812220196 -0.0198393209718609 -0.07138480404351215 -0.07566982585245524 0.025787781825119933 -0.05607062090784668
-0.06302325089469513 -0.037183498756811414 0.038683292121202646 -0.07989840633410457 -0.0412282062559943 -0.030634121660693486 -0.04749851675899598 -0.07845457184773337
0.043640461096653094 0.008270641533789693 -0.07972580300364784 -0.009794165405700094 -0.02437809657773596 0.0492719293537738 0.022717158230494736 -0.016017854595569092
0.0404114306032572 -0.08280584157857593 -0.026667801515654333 0.0845666841278172 -0.07288684604494962 -0.012343147104511067 -0.0358699127991582 -0.013095889351037955
0.012674558514001904 0.0787958619172864 -0.006595412575000604 0.06273872010568703 0.02370340209125503 -0.08147584830639831 0.03801656957528839 -0.0010006043549623705
0.012977976979926772 0.019286992064740303 0.057206979466112695 -0.03497721068294734 0.041082420508366656 0.07060970958966883 0.014206706420663073 0.07689115718520456
-0.07980139873585719 -0.06445226064931577 0.07608916163291458 0.02312744876195649 -0.037231701491247125 -0.051083080251714735 -0.048678379829211055 0.026680094092324105
0.028790159438564045 -0.02656503858901936 -0.054747105640492635 0.06168554940857569 0.010431455702922561 -0.04571980535421766 0.07502472138765558 0.06019750238393316
00000000: 5d2f f103 124d a2bf 19d8 74d1 ae9b 7b3f
00000010: 03e5 f4ee 016d 983f 1bf7 fe4a c250 94bf
00000020: 535a cc46 4646 b2bf 3c8f 5403 195f b3bf
00000030: 7214 4dbe 1c68 9a3f 5598 21d6 49b5 acbf
00000040: 24f6 7ab1 4a22 b0bf 6604 392e b709 a3bf
00000050: 09d6 1fe5 4bce a33f 9d1e 35d2 3874 b4bf
00000060: 3ca0 150b dd1b a5bf 688c b21a 8d5e 9fbf
00000070: 3242 2dc0 b951 a8bf 3dc5 4e4c 9915 b4bf
00000080: 708d 62e2 0a58 a63f 1b8d 3cb7 32f0 803f
00000090: 204a 8c04 e968 b4bf f96d dfa0 f60e 84bf
000000a0: 6911 295e 92f6 98bf 23dd 5e9a 2b3a a93f
000000b0: 2cd3 a1ae 2a43 973f f069 8f06 fc66 90bf
000000c0: 39b0 a699 ceb0 a43f ee6b 7f7d c332 b5bf
000000d0: cdbc 76dd cd4e 9bbf c0fe a886 29a6 b53f
000000e0: 5d57 125c b6a8 b2bf a113 2629 5d47 89bf
000000f0: a2f8 c38c 8a5d a2bf e445 cc83 04d2 8abf
00000100: 4394 7872 1ef5 893f 41b0 fe31 f72b b43f
00000110: 6717 0395 ca03 7bbf 9ffc 0b0f a50f b03f
00000120: 4cbd 2463 b445 983f 68cc e3e7 99db b4bf
00000130: ab5e 1066 e876 a33f 4f67 c5be d664 50bf
00000140: 8b82 9395 3294 8a3f 8905 a020 f8bf 933f
00000150: 18de d1b3 3b4a ad3f 9f24 fa6f 88e8 a1bf
00000160: c343 0c49 c108 a53f 38ba 7759 7a13 b23f
00000170: 205a afdb 6718 8d3f d848 768d 23af b33f
00000180: 2ddd be4d dd6d b4bf 495f a47f f17f b0bf
00000190: f91d cb4c 947a b33f 5f42 4ad0 b8ae 973f
000001a0: c305 8f98 0810 a3bf f4bf 1ebe 8f27 aabf
000001b0: 4c07 c762 5fec a8bf 27ac 52ce 0652 9b3f
000001c0: 8de7 f0e4 2a7b 9d3f 9cc7 d38f dd33 9bbf
000001d0: fa9a 8d08 d007 acbf baf5 b092 3f95 af3f
000001e0: f1f2 bf48 165d 853f 483c 8d19 9668 a7bf
000001f0: cf61 c0f4 d134 b33f 7e6a 1400 35d2 ae3f

linear3.weight f8 [3, 64]
-0.05446584832666111 0.07744796118529094 0.12651095394269443 -0.014675928893118658 -0.048456780399358544 -0.05541628180450986 0.05340592441173294 0.023792370377409083
-0.23293836801123588 0.19298456305114906 0.06710398648377898 0.12268011332779719 0.012806211839305266 0.15074947151795995 -0.14446691457001254 0.0927947457910136
0.027252494486182176 -0.17428870943102395 0.03578552160290928 -0.14318108634431453 0.1171615732187114 0.09307354128231492 -0.0895011487941498 0.12082714833581154
-0.11890843052786094 -0.05367785116148645 -0.03861214373708202 -0.05847529390715077 -0.058622544586510734 0.12652923859917395 -0.16638812113946314 0.005350022768418534
-0.15029306672056184 0.10506244154494418 0.09918329701275756 0.060447657769300785 0.06867935227388647 0.04626664709278437 -0.07390200157899662 -0.09775163734000457
0.09862653283699836 -0.08634521938518008 0.12482013129594025 -0.09637274178237651 0.05511332879008635 -0.14266530451755288 0.018190026625488118 -0.14900047499459307
-0.11386116421303367 0.03449114247078954 0.111003301481644 -0.019968338674970214 0.011160954435593626 0.08467355660728783 0.13513862583030778 0.10915075584575401
-0.09551782036051429 -0.09956473922535777 0.04233705220412474 0.0036414558409239915 0.158370797005875 0.0022543835390644875 0.13230972735136146 0.10528423516636423
0.0682926993541325 0.08928867560816747 0.073174981021516 -0.10578680042276292 -0.0037830798804085407 0.07084226529733341 0.0014986390609411037 0.008960229629943302
0.034962964616931325 0.15846168126658658 -0.07544559249999608 0.06582568198516651 -0.12252960627814528 0.12693836900130911 -0.054894247099566654 -0.031725100371900676
0.01669997301748449 0.02349691858195307 -0.04813183406035669 0.09965697222804436 0.08593735827950721 -0.0001867784820237533 0.14577570437077264 0.0786371097709714
0.10393798549502418 -0.017613074031078823 0.08627459225256551 -0.11774894549269883 -0.10028266536924357 0.01798669765990335 0.0023692369978011614 -0.06884043603129546
-0.023669373089326352 0.0946749203583494 0.038443784844694795 -0.0784776749797065 -0.041573593150744007 0.1026973848309764 0.09870911546482417 -0.0783550021856264
0.030531218785275694 -0.09674149214210483 0.09363632480857688 0.10678125085801683 -0.026504776871751304 0.055965349858939806 0.14605880662194698 0.097210013290568
-0.006530094000161628 -0.15743826931531224 0.008070540843382011 -0.11811103075047792 0.0240165550173732 0.07789657089308374 0.04685308219465179 0.06215151466183321
-0.09785412944782121 -0.010760932332993987 -0.01729321730616512 0.09648549471484637 0.08338396498807743 -0.07697553595883318 -0.002613339176042306 -0.1402601646628436
-0.07241535581873046 0.021534766519224365 -0.09048428017237876 -0.03894454361903184 0.08720130739947954 -0.06233200771042887 0.12659380014140803 0.07017246217221339
0.029041236962877113 -0.13744551261111626 0.04447128927236651 -0.10347106726273182 -0.025863224938296046 -0.001954026875812752 0.13826218374618637 -0.035371967091552485
0.004720610914111386 0.0026524481833986417 0.032747954183940976 0.07499643944128251 -0.04130298752276959 -0.09856261509902792 0.16040041302365032 -0.07584646001680198
0.12112975954604284 0.19030214850875868 0.10901086367171216 0.10560310654920309 0.1247592139812131 0.08854992222423669 0.04704554363034078 0.06188378496411781
-0.0962783587826795 -0.26406007194052455 -0.030892820940742114 0.09360666532651768 0.03692736174744749 -0.11933214901780098 0.14976960074906784 0.11861326577399045
0.009539008316919166 0.06032978332179439 0.02218272384047502 0.08982135027647148 0.09800698727481767 0.09814966419325846 -0.10852208156229251 0.11441651062656456
-0.06772053876194077 0.08933058402836035 -0.17651057676296772 -0.02538453602823355 -0.11652850654330682 0.07411383722893708 -0.16746209238432094 -0.1318884309289585
0.09402063311788998 -0.010823853487996759 -0.18218780026146195 -0.10786314170929663 -0.2138331598640158 0.038824016685210974 -0.051583040883372885 0.010284332869243839
00000000: 1eb2 9f9a f2e2 abbf 8fc5 6e2c a1d3 b33f
00000010: 6583 e2cc 8231 c03f 8b2e 13d5 690e 8ebf
00000020: a35d 2bbe 53cf a8bf 2057 08dc 855f acbf
00000030: 2ba7 8575 0558 ab3f 1842 a9f2 065d 983f
00000040: 6bc2 4ba8 ecd0 cdbf 2701 78d9 b7b3 c83f
00000050: dd09 6113 ba2d b13f 5aca 9cc2 f667 bf3f
00000060: 6aa1 48a8 243a 8a3f bd8a 0739 c24b c33f
00000070: 4e53 b750 e47d c2bf ccbc 697e 65c1 b73f
00000080: a3d5 35f2 13e8 9b3f e1bd 88a9 174f c6bf
00000090: 22db e8d9 7a52 a23f 2e96 a001 c253 c2bf
000000a0: 9c80 5205 4dfe bd3f df31 eee7 aad3 b73f
000000b0: 467a 061b 8ce9 b6bf 883d 922a 87ee be3f
000000c0: 51fa 556c c870 bebf ea2a 84ce a97b abbf
000000d0: 548f 288d f8c4 a3bf 0e10 e945 79f0 adbf
000000e0: 015f 9d2f c603 aebf c3b7 e22e 1c32 c03f
000000f0: 1952 5eb9 344c c5bf 61e1 2bcd e7e9 753f
00000100: 9baf 309f cd3c c3bf d233 7946 5fe5 ba3f
00000110: 03b0 fa98 1364 b93f 4957 7ad2 fef2 ae3f
00000120: 2243 ed53 f894 b13f 3e73 5110 43b0 a73f
00000130: f006 e4d7 3deb b2bf 477a 8155 4006 b9bf
00000140: dd82 0da5 963f b93f 0ce0 6c65 b81a b6bf
00000150: ce69 cc4d 36f4 bf3f 7e60 2e4e e2ab b8bf
00000160: 9048 7471 d037 ac3f 6ca0 9650 db42 c2bf
00000170: ec1d e105 68a0 923f e259 9893 7212 c3bf
00000180: d557 9458 0126 bdbf cfd2 d3b1 d2a8 a13f
00000190: ac97 9c5d b66a bc3f eefe 4186 9472 94bf
000001a0: 451b 58f2 8ddb 863f c1dc 768c 2aad b53f
000001b0: f80b 2ff5 384c c13f 1cf2 b0ce 4df1 bb3f
000001c0: 6234 a21a db73 b8bf 1ec4 ce22 137d b9bf
000001d0: ad63 40bd 33ad a53f cf1e e4b7 afd4 6d3f
000001e0: 590e e488 7e45 c43f 0362 55f2 c877 623f
000001f0: db58 f56f 86ef c03f 9aeb d25a e8f3 ba3f
00000200: 4714 485e a17b b13f 42e6 a365 9fdb b63f
00000210: e971 5f76 98bb b23f 020c 2a00 d814 bbbf
00000220: 7311 aa8b b1fd 6ebf 0969 a0fc b722 b23f
00000230: e604 5670 bf8d 583f 5e53 cda9 bd59 823f
00000240: 78ac 336b aae6 a13f edc5 5aed 7848 c43f
00000250: 0a32 6a00 6750 b3bf cbf9 5caf f3d9 b03f
00000260: cba2 c1ab 195e bfbf 12ee bb37 843f c03f
00000270: 0af7 0f48 191b acbf ef87 1eb9 453e a0bf
00000280: 1f14 d137 cc19 913f af0d 7783 930f 983f
00000290: 1e18 5f5a bca4 a8bf 47af 898c 1e83 b93f
000002a0: 98ab 509f fdff b53f 1260 9bf1 3e7b 28bf
000002b0: 5a73 693d c7a8 c23f 79e1 b7c6 8f21 b43f
000002c0: 6f64 8308 ae9b ba3f e333 c863 2909 92bf
000002d0: 3854 3378 1716 b63f b595 077e cb24 bebf
000002e0: 58da 1df0 1fac b9bf a06b d9d8 1a6b 923f
000002f0: 6843 816d a668 633f 4b94 65dd 869f b1bf
00000300: da87 57bd c83c 98bf 9cc5 b096 9d3c b83f
00000310: e0eb 485d e7ae a33f 5103 81e7 1c17 b4bf
00000320: ea57 eb4d 2249 a5bf 5cd8 3b35 604a ba3f
00000330: d60e bd26 0045 b93f 9782 ddcb 120f b4bf
00000340: ad55 c268 9343 9f3f 11a5 eae8 0cc4 b8bf
00000350: 993d c5d8 8cf8 b73f 01db 421c 0456 bb3f
00000360: 5465 6877 1124 9bbf 98e9 b486 7da7 ac3f
00000370: 5ef5 dd12 0eb2 c23f 303d ed63 c1e2 b83f
00000380: 385e bac2 4cbf 7abf c08e ecec ef26 c4bf
00000390: ccea dda7 4987 803f 59c2 5e46 863c bebf
000003a0: 3de5 72b9 cb97 983f b6d2 7498 07f1 b33f
000003b0: 2154 7c8f 20fd a73f ff26 bdc5 52d2 af3f
000003c0: fec6 c1dd f70c b9bf 6cb3 8ee3 d309 86bf
000003d0: 9024 172b 50b5 91bf 81b1 56fc 45b3 b83f
000003e0: 4075 a2ca a658 b53f d506 8931 abb4 b3bf
000003f0: b231 6cc9 9168 65bf 5749 148a 0bf4 c1bf
00000400: 063b f810 d089 b2bf 5f50 b5b7 350d 963f
00000410: c978 2450 fa29 b7bf 3a1c 670a 8af0 a3bf
00000420: 42ff 722b d352 b63f cb7a 381d fbe9 afbf
00000430: 22ea bdc3 3934 c03f 2705 1c8e d2f6 b13f
00000440: e9b9 f66b fcbc 9d3f 10c7 d286 d097 c1bf
00000450: 6b50 12da f0c4 a63f 29c4 f971 147d babf
00000460: 59c5 1da5 e37b 9abf 7d2c de30 e401 60bf
00000470: 2051 bb42 93b2 c13f a7f1 b443 461c a2bf
00000480: 2259 e457 eb55 733f 580b 7746 96ba 653f
00000490: d53c 7600 57c4 a03f 1e7d b776 f732 b33f
000004a0: 2c58 4649 aa25 a5bf 3c64 7548 663b b9bf
000004b0: cac9 1930 0088 c43f 0a1f 4a71 ac6a b3bf
000004c0: c595 d223 5c02 bf3f 5311 1a20 d25b c83f
000004d0: adf3 60ce 22e8 bb3f dd1d fc20 ce08 bb3f
000004e0: b589 ec47 38f0 bf3f 6c35 042c 35ab b63f
000004f0: a534 a17e 5a16 a83f 9cac 2541 3baf af3f
00000500: e5be 48d2 b2a5 b8bf 537e 4a37 5ce6 d0bf
00000510: 6997 7c1e 5ea2 9fbf bcd7 433e 9bf6 b73f
00000520: 81d1 10a6 24e8 a23f 1092 643d 8d8c bebf
00000530: 0f7c 9378 a62b c33f d0fc 5e61 705d be3f
00000540: 9c3c 0f06 3089 833f ff09 af9c 8be3 ae3f
00000550: 7b62 b965 11b7 963f 7c85 eb31 88fe b63f
00000560: ddf4 1f65 fc16 b93f 22cc d21d 5620 b93f
00000570: 3232 3467 1ac8 bbbf c976 4383 664a bd3f
00000580: 5b02 401b 2256 b1bf 0734 ef80 5ede b63f
00000590: 662a 4c09 e697 c6bf 63f7 4260 67fe 99bf
000005a0: d0bc a7ec cfd4 bdbf 6a50 14db 1ff9 b23f
000005b0: 3b21 0ed9 656f c5bf c7c2 c758 b8e1 c0bf
000005c0: 37fb 6378 bc11 b83f 862b fb05 d12a 86bf
000005d0: 5334 ed09 ee51 c7bf 75d2 153a eb9c bbbf
000005e0: ea48 358e e25e cbbf c2b7 ecd3 bde0 a33f
000005f0: 66a0 3ea3 1769 aabf 5938 adca f30f 853f

linear3.bias f8 [3]
-0.139934950767701 0.001571659080496283 0.08047447091980167
00000000: b7ac 8e72 63e9 c1bf 11f2 7916 04c0 593f
00000010: 8a71 c394 f999 b43f
