runs/testrun-cnn-lite-fl-20r-20bs-50ep/1/LocalModel-1-Round16.pt (torch, 144143 bytes, 8 tensors)

conv1.weight f8 [6, 1, 5]
-0.9105921056406152 -0.7472568120812497 -0.39612490891343055 0.039600580025752896 0.12685849667338728 -0.9318829414119474 -0.19469144172799716 -2.019314507012789
0.18598950662839922 -0.24044057149345327 0.24609083770481904 -0.6509122365600263 0.2122416907989211 -0.08016540126751827 -0.7372875496381216 0.14978547930513686
-0.11330675868175873 -0.2989477358431866 0.06414842258384422 0.026689298775693555 -0.8375169398543965 -0.0252222539774039 -0.7870388461934655 0.07402393132404254
-0.013645575062156974 -0.720266499558965 -0.16894318959317223 -0.4914879587185989 0.10121166889054636 -0.01831234937133927
00000000: 6c1c 370e 9223 edbf 1a45 331e 87e9 e7bf
00000010: a681 3a4a 1c5a d9bf 88fa 39f8 8646 a43f
00000020: 4249 3733 e63c c03f 3011 a22c fcd1 edbf
00000030: 0534 842f a6eb c8bf 95aa 3f5d 8e27 00c0
00000040: 891f 2f10 81ce c73f 4a14 99b3 c1c6 cebf
00000050: e2ca e491 e77f cf3f cded 12e6 45d4 e4bf
00000060: 4920 6a58 bc2a cb3f 19f7 b640 b885 b4bf
00000070: dd32 2e0f dc97 e7bf ecff 83ab 2b2c c33f
00000080: f533 f4f6 ab01 bdbf 1339 2aaf f521 d3bf
00000090: df6c 16f1 076c b03f 5540 9485 7054 9b3f
000000a0: 04a9 5053 f0cc eabf 0e80 dbcf dcd3 99bf
000000b0: e9a3 2217 6c2f e9bf 137a 287c 3bf3 b23f
000000c0: 2441 0415 36f2 8bbf 2d53 8054 6c0c e7bf
000000d0: 0ca1 1731 ee9f c5bf 5fbf 44e9 8974 dfbf
000000e0: 2ac5 db07 02e9 b93f 78bc a6f6 78c0 92bf

conv1.bias f8 [6]
0.19815869132906025 0.3652899505778686 0.0728601264816303 0.048822853489428455 0.7340998938832265 0.6034460180761925
00000000: a796 5695 435d c93f 9085 d219 e960 d73f
00000010: 57c8 6b14 f6a6 b23f 4aa9 111e 4fff a83f
00000020: 8737 870f bf7d e73f cc3c 1106 6e4f e33f

conv2.weight f8 [8, 6, 3]
0.19843555986881256 -0.03092285990715027 -0.22620196640491486 -0.16618356108665466 0.16630499064922333 0.09183122217655182 -0.23378649353981018 0.1705787032842636
0.10555537045001984 0.18778572976589203 0.12225528061389923 -0.18926328420639038 -0.0061834752559661865 -0.19155630469322205 -0.12202021479606628 -0.10775172710418701
0.16581107676029205 0.14135615527629852 0.14520366489887238 -0.0030955523252487183 -0.19313472509384155 -0.03172008693218231 -0.15798704326152802 -0.21081086993217468
0.03435187041759491 0.025940045714378357 0.03158913552761078 -0.035385534167289734 -0.21717271208763123 0.04940183460712433 0.1454872041940689 -0.08343583345413208
0.1616162210702896 -0.10072916746139526 0.19762419164180756 0.2315882295370102 0.03553791344165802 -0.1283184438943863 0.16412131488323212 -0.039938271045684814
0.1391114741563797 0.010012686252593994 0.029809340834617615 0.009403690695762634 0.13036732375621796 -0.03916023671627045 -0.08347976207733154 0.1968400925397873
-0.2332153171300888 0.22799097001552582 -0.11809774488210678 0.19377277791500092 0.11607314646244049 0.1952238231897354 0.08690492808818817 0.032018378376960754
-0.22410303354263306 -0.21128380298614502 -0.005704998970031738 0.15768994390964508 -0.01567438244819641 -0.20456723868846893 0.08860288560390472 -0.2236340492963791
-0.1801774650812149 0.022953107953071594 -0.1625157743692398 -0.15190139412879944 -0.06778581440448761 -0.19411815702915192 0.033021166920661926 -0.1342003345489502
-0.08132217824459076 -0.22556965053081512 0.09549783170223236 0.013142570853233337 -0.22415050864219666 -0.09575115144252777 -0.17409268021583557 0.19346101582050323
0.03171508014202118 0.2261030226945877 -0.030054017901420593 -0.03937813639640808 0.07000820338726044 0.09034772217273712 0.04843069612979889 0.06528981029987335
0.17611505091190338 0.0394810289144516 0.006832867860794067 -0.19512799382209778 -0.009997427463531494 -0.1349007934331894 0.22060172259807587 -0.017273470759391785
0.0195133239030838 -0.04030418395996094 0.20486433804035187 -0.19752971827983856 -0.17148198187351227 -0.22011560201644897 0.06816501915454865 0.22549457848072052
-0.024963155388832092 0.03365631401538849 0.12276695668697357 0.00453948974609375 -0.11328940838575363 -0.1788216531276703 -0.21888171136379242 -0.04415617883205414
0.11473537981510162 -0.0011038482189178467 0.1297796219587326 -0.006517425179481506 0.08206517994403839 -0.14437761902809143 -0.017202377319335938 -0.19549205899238586
0.20857833325862885 0.17401622235774994 -0.22147859632968903 0.23426054418087006 0.09085904061794281 -0.16520553827285767 0.10142232477664948 0.16537781059741974
0.12006480991840363 0.1707947999238968 0.11874707043170929 0.06825046241283417 0.12543319165706635 0.0008032917976379395 -0.16668292880058289 -0.059662967920303345
0.21736879646778107 0.13783575594425201 0.07180579006671906 -0.14091965556144714 0.10090301930904388 0.10748480260372162 0.01004628837108612 -0.15984757244586945
00000000: 0000 0020 5666 c93f 0000 0000 3eaa 9fbf
00000010: 0000 00a0 2ff4 ccbf 0000 00c0 8045 c5bf
00000020: 0000 0060 7b49 c53f 0000 0040 4082 b73f
00000030: 0000 0040 b7ec cdbf 0000 00e0 85d5 c53f
00000040: 0000 0040 ad05 bb3f 0000 00e0 5c09 c83f
00000050: 0000 0040 1f4c bf3f 0000 0080 c739 c8bf
00000060: 0000 0000 d853 79bf 0000 00c0 ea84 c8bf
00000070: 0000 0080 b73c bfbf 0000 0000 9e95 bbbf
00000080: 0000 0020 4c39 c53f 0000 0060 f517 c23f
00000090: 0000 00a0 0896 c23f 0000 0000 d85b 69bf
000000a0: 0000 0080 a3b8 c8bf 0000 0080 9d3d a0bf
000000b0: 0000 0060 eb38 c4bf 0000 00c0 d9fb cabf
000000c0: 0000 0080 9196 a13f 0000 0000 0790 9a3f
000000d0: 0000 0080 732c a03f 0000 0080 0d1e a2bf
000000e0: 0000 00c0 50cc cbbf 0000 0080 324b a93f
000000f0: 0000 0020 539f c23f 0000 0000 0d5c b5bf
00000100: 0000 0020 d7af c43f 0000 0000 63c9 b9bf
00000110: 0000 00e0 bf4b c93f 0000 00e0 aea4 cd3f
00000120: 0000 0080 0632 a23f 0000 0020 bd6c c0bf
00000130: 0000 0060 ed01 c53f 0000 0000 ca72 a4bf
00000140: 0000 00a0 67ce c13f 0000 0000 8881 843f
00000150: 0000 0000 5786 9e3f 0000 0000 3e42 833f
00000160: 0000 0060 e0af c03f 0000 0080 cf0c a4bf
00000170: 0000 0000 ee5e b5bf 0000 0060 0e32 c93f
00000180: 0000 00e0 ffd9 cdbf 0000 00e0 ce2e cd3f
00000190: 0000 0060 a73b bebf 0000 00e0 8bcd c83f
000001a0: 0000 0040 f8b6 bd3f 0000 0020 18fd c83f
000001b0: 0000 00c0 663f b63f 0000 0080 b664 a03f
000001c0: 0000 0080 68af ccbf 0000 0000 590b cbbf
000001d0: 0000 0000 205e 77bf 0000 0020 2f2f c43f
000001e0: 0000 0000 f20c 90bf 0000 0060 422f cabf
000001f0: 0000 00c0 adae b63f 0000 0060 0aa0 ccbf
00000200: 0000 0020 0e10 c7bf 0000 0000 0581 973f
00000210: 0000 0020 51cd c4bf 0000 0040 8171 c3bf
00000220: 0000 0040 695a b1bf 0000 0020 ddd8 c8bf
00000230: 0000 0080 26e8 a03f 0000 0000 7a2d c1bf
00000240: 0000 00c0 87d1 b4bf 0000 0060 77df ccbf
00000250: 0000 00c0 8b72 b83f 0000 0000 7eea 8a3f
00000260: 0000 00c0 f6b0 ccbf 0000 00c0 2583 b8bf
00000270: 0000 0040 ab48 c6bf 0000 00a0 54c3 c83f
00000280: 0000 0080 f53c a03f 0000 00a0 f1f0 cc3f
00000290: 0000 0000 7bc6 9ebf 0000 0000 5f29 a4bf
000002a0: 0000 00c0 0eec b13f 0000 0040 0721 b73f
000002b0: 0000 0080 e8cb a83f 0000 0040 d5b6 b03f
000002c0: 0000 0020 f08a c63f 0000 0080 db36 a43f
000002d0: 0000 0000 c8fc 7b3f 0000 0040 f4f9 c8bf
000002e0: 0000 0000 8879 84bf 0000 00e0 6d44 c1bf
000002f0: 0000 0060 ad3c cc3f 0000 0000 23b0 91bf
00000300: 0000 0000 4dfb 933f 0000 0000 c0a2 a4bf
00000310: 0000 00a0 fe38 ca3f 0000 0060 a748 c9bf
00000320: 0000 0020 1ff3 c5bf 0000 0080 bf2c ccbf
00000330: 0000 0040 4373 b13f 0000 00a0 01dd cc3f
00000340: 0000 0000 f18f 99bf 0000 0080 663b a13f
00000350: 0000 00c0 a76d bf3f 0000 0000 0098 723f
00000360: 0000 00e0 8800 bdbf 0000 00c0 a0e3 c6bf
00000370: 0000 00e0 5004 ccbf 0000 0080 a39b a6bf
00000380: 0000 0040 4c5f bd3f 0000 0000 e015 52bf
00000390: 0000 0060 9e9c c03f 0000 0000 04b2 7abf
000003a0: 0000 0040 3902 b53f 0000 0040 f77a c2bf
000003b0: 0000 0000 809d 91bf 0000 0040 e205 c9bf
000003c0: 0000 00e0 b1b2 ca3f 0000 00e0 2946 c63f
000003d0: 0000 0020 6959 ccbf 0000 00e0 3ffc cd3f
000003e0: 0000 00c0 8942 b73f 0000 0080 7425 c5bf
000003f0: 0000 0040 d0f6 b93f 0000 00a0 192b c53f
00000400: 0000 0040 91bc be3f 0000 00a0 9adc c53f
00000410: 0000 0040 3566 be3f 0000 00c0 dc78 b13f
00000420: 0000 00e0 310e c03f 0000 0000 8052 4a3f
00000430: 0000 00c0 dd55 c5bf 0000 0000 258c aebf
00000440: 0000 00a0 bdd2 cb3f 0000 0020 9aa4 c13f
00000450: 0000 0040 dd61 b23f 0000 00c0 a709 c2bf
00000460: 0000 00c0 c7d4 b93f 0000 00c0 1f84 bb3f
00000470: 0000 0000 2693 843f 0000 00a0 e275 c4bf

conv2.bias f8 [8]
-0.20587024092674255 -0.18975600600242615 0.1307300180196762 0.07972098886966705 -0.16032934188842773 -0.14550217986106873 0.035017892718315125 0.20011313259601593
00000000: 0000 00c0 f459 cabf 0000 00c0 ec49 c8bf
00000010: 0000 00e0 c2bb c03f 0000 0040 9868 b43f
00000020: 0000 0000 ac85 c4bf 0000 00c0 d09f c2bf
00000030: 0000 0080 dded a13f 0000 00a0 4e9d c93f

fc1.weight f8 [64, 270]
-0.8021082419285428 0.04366067051887512 1.7346845960299895 2.1620376600962556 -0.6051963920951433 -0.8576850349037368 0.021120011585838726 -0.018842976540327072
0.29185755769283733 -1.4376633869342303 0.04073629528284073 0.43925531210084207 -0.009622044402482873 0.04353663903875358 -0.07638100512254675 -0.018983541340360503
-0.003412216901779175 0.01439213752746582 0.032957807183265686 -0.0060835666954517365 -0.16908578283492348 0.23660047426668013 -0.26506322061680626 0.0227762935176102
-0.05676593909188414 -0.023537427186965942 0.03142033517360687 -0.027647733688354492 -0.27475975560799826 -1.2121267707838712 0.10540519693747974 0.02569652253408177
-0.053920878352124 0.05501861017257227 0.047097377479076385 -0.6073002304094544 -0.5564326261336392 0.1479013858753616 -0.18618724665872613 0.010801821947097778
0.016478396952152252 -0.01256847009062767 0.5806705644364488 0.20039133541108164 -0.20285544728565125 0.41179762997692726 2.329488811735057 1.0922457743186502
0.1198471300399578 -0.07976708216336331 -0.761711374038049 1.0632262834782864 -0.17188030250669303 -0.7446719504940844 0.1581905085624554 0.2694730667658419
0.42444666510359175 1.1945987969046283 -0.004531841422249586 0.21732403286932045 -0.15691188569159498 0.003555186092853546 -0.020604286342859268 0.060445137321949005
-0.04244490712881088 -0.00804508584157132 -0.12408913304177677 -0.23388032411366047 0.046200357377529144 -0.013552604654153033 -0.0622047860482249 -0.33870549846403275
-0.02989424765110016 -0.40954376977326645 2.1010093616042194 0.1577162678430255 -0.16191672905715607 -0.061453642239194625 -0.020530633628368378 -0.544300555659915
-0.7230952260779822 -0.3149795340477814 0.15540452205912988 0.021939248603910028 0.041652850806713104 -0.03382105007767677 -0.03118675180864703 0.17326667474589344
-0.01155256834279043 0.050332057192826074 -0.13241930522709539 0.3350014583092219 -0.6141047634334196 -0.6323109504743644 -0.40944677536632734 -0.11525681284100701
0.07030451990231215 2.2613967896550964 -0.455914595903279 -0.21650543932556135 0.27185167890136247 -0.6466472826932336 1.0744597785471095 -0.032695249281160854
0.019209244596068126 0.03144590812530775 -0.7052780382787844 -0.061488761096485135 0.12387610997240484 0.02107046762224959 -0.5037112056686112 -0.1850882849858444
-0.7009674285369234 -0.03542167410902538 -0.042229902664929375 -1.845935782665476 -0.3636474403703799 -0.0855779465437994 -0.3151086262502747 0.46467365964334206
-0.034942677138828676 0.07325589309785852 -0.7569402407919962 -0.16633487218365525 -0.6479327536862194 0.5817245029818499 1.8526386154984213 0.003171654975738138
0.05217849626695085 0.01901905452831812 1.4436686350691341 0.01183797904549298 -0.060608335328973736 0.3205801969093572 -0.20940491385144303 -0.40782045617821816
0.03801236352453318 0.36611060701350895 0.2983810885995892 -0.2912421400274355 -0.6860829945504865 0.14248439127250365 0.5315627274172648 2.688778371937327
-0.16966510150204736 -0.19168566503702494 -0.7939654312118397 -0.04980207250668878 0.0281423335184228 -0.07730883149434939 -0.13925064149623206 0.040469320929592933
0.40653199204024254 -0.08057485583706342 -0.03946850529661279 -0.47549176561955436 0.08346441689378294 0.007812771164611177 -0.13285439417666126 -0.46613639363340587
0.4215844872778351 -0.37544186734319235 0.9014565957290654 -0.7295924500103765 -0.2495653265090514 -0.5054004428986455 0.12921105070876343 -0.5678084119125756
-0.47155472488746886 -0.21939225687616562 -0.2986791201729733 -1.7578722029803762 -0.006602346315929992 0.04737130135709561 0.5795803466076499 -0.25201373549716943
0.04651519496406774 0.24703473251511646 -0.19488936286973801 0.026170310213327646 0.33325829697373777 -0.044263978600451157 0.11804821393492011 0.05214022223447728
-0.04276970740162205 0.03962256575254513 -1.0564431009801336 0.44498393275419584 0.26470660936710594 0.0631879564173191 0.018607992703970906 0.04519099097036016
0.04115913434553842 -0.0032628695835538644 0.13152625172976226 -0.030746188618696168 -0.01959086910398222 -0.006218556314706802 0.004839129745960236 0.0067148889649633675
0.013035947413146969 -0.11458229784049441 -0.19776710922253454 -0.8690269633409666 0.013292363683495097 -0.05855120154074532 2.5324929586498732 0.2112210703544092
0.03247092254574173 0.1628166387606908 0.06584216472430805 0.5353428951709861 -0.04523996267866654 0.6480200385476478 1.264644689710511 0.2980420678410088
0.36486444813630026 -0.1070713378794093 0.051898161835625456 -0.011315695941448212 0.008367225527763367 0.036841996014118195 0.19073975519038663 0.09008540720889785
-0.037946460293504895 0.34559762030910424 0.0023547233412328124 0.07103176972380254 0.1540488577922226 -0.13851111782084208 -0.1757040048131574 -0.6913000678631807
0.47716628489715857 0.5347088139004312 0.12532828599227414 0.017504913918787234 -0.022862561944676816 -0.005501448326217175 -0.038145788897789544 -0.09977731728009359
-0.07915335573503236 0.0244701915873586 0.014787659049034119 -0.0445338673889637 -0.06518049596660405 -0.10029562638406549 -0.07392325795494652 -0.2665987630722092
-0.1750789668626516 -0.09664900712483773 0.4635571850480999 2.563974662413419 0.6025039473265833 0.6720096352563747 -0.057109103676106936 -0.04050624678298555
00000000: baec 5de7 deaa e9bf 0000 0000 b15a a63f
00000010: 302e 8da2 44c1 fb3f 96ab 9666 da4b 0140
00000020: 3096 f6d2 c45d e3bf f0c3 e5e2 2772 ebbf
00000030: f692 35fc 7ba0 953f 0000 00c0 924b 93bf
00000040: 1565 5852 cbad d23f 35a0 d852 ab00 f7bf
00000050: 0000 0040 63db a43f 1d50 0450 c21c dc3f
00000060: 1e0e 3cf0 b8b4 83bf cdca b231 6f4a a63f
00000070: 5875 099f b48d b3bf fe5e e0e4 6b70 93bf
00000080: 0000 0000 f0f3 6bbf 0000 0000 a079 8d3f
00000090: 0000 0080 d8df a03f 0000 0000 15eb 78bf
000000a0: 904d bf59 9aa4 c5bf fac3 98a1 ec48 ce3f
000000b0: c1fb fab9 cbf6 d0bf 9601 212f ab52 973f
000000c0: 364d dad7 6c10 adbf 0000 0000 321a 98bf
000000d0: 0000 0080 5316 a03f 0000 0000 b04f 9cbf
000000e0: b6f8 25f1 a995 d1bf 0df7 710a df64 f3bf
000000f0: 38c7 acc1 d5fb ba3f 0e86 9e6f 3050 9a3f
00000100: 701c 3072 849b abbf e2a2 b936 662b ac3f
00000110: 0000 00c0 251d a83f a6c7 8ee4 006f e3bf
00000120: e87b 75cb 4bce e1bf 9412 afbf 6eee c23f
00000130: 0d6f aad3 fbd4 c7bf 0000 0000 441f 863f
00000140: 0000 0080 b6df 903f 0000 0080 7fbd 89bf
00000150: 1d24 806f da94 e23f bb05 ff5b 6ca6 c93f
00000160: 3223 f4d3 2af7 c9bf bc8e 5472 e45a da3f
00000170: 5766 b607 cba2 0240 e848 7eb4 d679 f13f
00000180: 1584 0a30 4dae be3f ac61 3091 9d6b b4bf
00000190: 3482 0f88 f05f e8bf 0097 3c90 f902 f13f
000001a0: f7e1 0b7b 2c00 c6bf 26dc 3345 5ad4 e7bf
000001b0: fb1b 682a 963f c43f 1960 3af6 0b3f d13f
000001c0: 4609 6158 222a db3f bfbd c8a0 131d f33f
000001d0: 6a01 30eb fa8f 72bf e87e e71e 46d1 cb3f
000001e0: 6815 b34c b015 c4bf 0000 0000 c41f 6d3f
000001f0: 0000 0040 4a19 95bf 0000 0040 aaf2 ae3f
00000200: 0000 00c0 56bb a5bf 201c aa24 f179 80bf
00000210: 9c13 3430 4ec4 bfbf a17e 9f5b caef cdbf
00000220: 0000 00c0 92a7 a73f a023 1fce 77c1 8bbf
00000230: e3ae 7643 4ed9 afbf b037 b8d3 59ad d5bf
00000240: 0000 0000 999c 9ebf 1c3b 5d12 f735 dabf
00000250: 8f70 05ff ddce 0040 986b 37f2 0b30 c43f
00000260: 4de6 fcf7 afb9 c4bf 965c 460f da76 afbf
00000270: 0000 0080 fb05 95bf 7620 b8ff e86a e1bf
00000280: d2c1 7c99 9823 e7bf 2340 69eb 9f28 d4bf
00000290: 1b7e f29d 4be4 c33f 78ab 020d 3e77 963f
000002a0: 0000 00c0 8553 a53f 0000 0020 fe50 a1bf
000002b0: baaf 587c 6bef 9fbf 9598 c236 9a2d c63f
000002c0: 9699 bc79 dfa8 87bf 40cc 2a97 1fc5 a93f
000002d0: f69a a7a4 1df3 c0bf 023a e3f4 a970 d53f
000002e0: 9675 6808 bfa6 e3bf 0f15 a62c e43b e4bf
000002f0: 8caa 693f 6034 dabf e316 cb71 7881 bdbf
00000300: 2acd bd1d 7aff b13f c4c8 3633 5717 0240
00000310: e61c cb69 b42d ddbf 5d9a a742 73b6 cbbf
00000320: 6f9e 8f95 0466 d13f ddde 66a4 55b1 e4bf
00000330: c4a2 9bbc fc30 f13f b057 cb84 6ebd a0bf
00000340: 48ae 4895 96ab 933f db80 fb95 ad19 a03f
00000350: 40d2 9f3f a391 e6bf 7d40 f673 747b afbf
00000360: 5051 1641 58b6 bf3f 575d 6525 7f93 953f
00000370: 9936 5ff6 661e e0bf e886 7111 f9b0 c7bf
00000380: de12 a43e 536e e6bf bb54 bc27 ca22 a2bf
00000390: 88e0 b765 289f a5bf b707 91f5 f388 fdbf
000003a0: 968d eae9 ff45 d7bf b319 aab1 6fe8 b5bf
000003b0: b8ac 1b5f bd2a d4bf 40c5 de96 36bd dd3f
000003c0: 8c87 17af 01e4 a1bf 0836 18f1 e5c0 b23f
000003d0: af4b 67bd da38 e8bf 2748 1b0a 764a c5bf
000003e0: 7add 6278 ddbb e4bf 44d8 72b4 7c9d e23f
000003f0: 82f5 8d63 68a4 fd3f 1ec4 a34c 71fb 693f
00000400: 15c2 0ace 23b7 aa3f 28c4 cc24 bb79 933f
00000410: 5120 5e48 4419 f73f f61a cfa6 823e 883f
00000420: 06b5 3444 0e08 afbf b523 5ecd 6284 d43f
00000430: ed8b 4ebc c7cd cabf 4437 7bf8 ba19 dabf
00000440: eff1 5c44 5b76 a33f e4de f52e 5b6e d73f
00000450: 63ed 51fe ac18 d33f 01a2 a812 b6a3 d2bf
00000460: 6af4 fd52 64f4 e5bf fb59 5ab4 ed3c c23f
00000470: 6df3 40d6 8f02 e13f b54d 2d3c 9e82 0540
00000480: efa5 1c07 96b7 c5bf 9a17 39e7 2789 c8bf
00000490: 51b3 2631 2a68 e9bf 40e5 6041 a87f a9bf
000004a0: 4906 6108 58d1 9c3f 06d0 f5f6 82ca b3bf
000004b0: ea2f 960b f7d2 c1bf 7892 c413 65b8 a43f
000004c0: f7cb a5c2 9e04 da3f e439 b3c2 8da0 b4bf
000004d0: fa20 f146 3735 a4bf 319c b603 756e debf
000004e0: 0942 f08c ec5d b53f ed24 2565 2400 803f
000004f0: 0530 0f6f 5f01 c1bf 0660 88bd 2dd5 ddbf
00000500: 9ffd 5680 3dfb da3f 9171 7253 3d07 d8bf
00000510: 3e6f ad80 bbd8 ec3f a67f 0644 d258 e7bf
00000520: 4035 c9b1 c1f1 cfbf 6f46 b48c 3d2c e0bf
00000530: 4ab8 89da fc89 c03f d9dc f18b 7c2b e2bf
00000540: 069f 6ade f32d debf 7dae 23a4 0b15 ccbf
00000550: b905 4907 8f1d d3bf 2f92 659a 3e20 fcbf
00000560: 4781 0fd8 0f0b 7bbf e803 321c 0d41 a83f
00000570: c6b1 4215 ec8b e23f cc99 0638 fe20 d0bf
00000580: 2e85 46f2 d6d0 a73f c573 9088 d59e cf3f
00000590: 0c91 ee77 22f2 c8bf 2b3c f8c9 63cc 9a3f
000005a0: eedc a79b 1a54 d53f eea5 f5a8 c4a9 a6bf
000005b0: 2da2 3362 6838 be3f d743 9b8a 1fb2 aa3f
000005c0: 4752 193d e9e5 a5bf 277c 2eb0 6849 a43f
000005d0: 45b6 8ce1 30e7 f0bf d92e 9be3 9d7a dc3f
000005e0: b712 91fd f3f0 d03f d73e 50fe 152d b03f
000005f0: 1259 6e40 f90d 933f 2f43 9508 4623 a73f
00000600: 603a e45f cf12 a53f 6b17 e1c4 bbba 6abf
00000610: 5b55 df2a dad5 c03f c333 60ca ed7b 9fbf
00000620: 9f43 68f8 a00f 94bf 0000 0000 a178 79bf
00000630: 0000 0000 32d2 733f 473b 0348 1281 7b3f
00000640: 09a7 7e3e 97b2 8a3f 9dea ecf5 4355 bdbf
00000650: 56e9 2ac1 6e50 c9bf 5688 5ca2 11cf ebbf
00000660: d10a 75da 0639 8b3f 6e9c 844f 6cfa adbf
00000670: 0b03 16ab 8b42 0440 95fb b2c2 4a09 cb3f
00000680: 5650 cf5c 07a0 a03f 5e64 5cf5 2cd7 c43f
00000690: c951 3038 08db b03f 8ff8 5c6c 8721 e13f
000006a0: 39b1 5a40 b129 a7bf b2df 1685 94bc e43f
000006b0: 0ede f511 fc3b f43f ed65 8d09 1f13 d33f
000006c0: defb 0d6a f059 d73f 83f1 87f6 0669 bbbf
000006d0: 10f1 9c57 6592 aa3f 0000 0000 af2c 87bf
000006e0: 0000 0000 d622 813f 0000 0040 f4dc a23f
000006f0: 277d 4b09 296a c83f 7c1e cf55 d60f b73f
00000700: 3f4c ebeb b76d a3bf d064 337b 451e d63f
00000710: 6831 bc77 364a 633f 00d4 f057 232f b23f
00000720: 8214 1a7b dfb7 c33f 3a22 9678 bbba c1bf
00000730: 3c70 3905 787d c6bf f63c e651 211f e6bf
00000740: 7dc6 1875 e489 de3f ccba 92a8 551c e13f
00000750: e6de ccdc c10a c03f b3b2 33e3 ceec 913f
00000760: 59af 6b8f 4869 97bf b58d 44ca af88 76bf
00000770: d39d 9747 d887 a3bf 14c2 999a 018b b9bf
00000780: 8128 40f2 6443 b4bf 36d4 60c2 b60e 993f
00000790: 0000 0000 fe48 8e3f 0000 00a0 24cd a6bf
000007a0: e27c 8342 abaf b0bf 7d5b 4063 f9ac b9bf
000007b0: 638c 5477 a2ec b2bf f225 2342 f40f d1bf
000007c0: 493f 72d2 fc68 c6bf bac3 ca44 fdbd b8bf
000007d0: cbdf 66c1 ebaa dd3f cab4 d625 0583 0440
000007e0: 8b50 af5b b647 e33f 90bc c059 1a81 e53f
000007f0: 477d 2f89 673d adbf e2e9 6e1a 3cbd a4bf

fc1.bias f8 [64]
-0.43551866768679864 0.03965917810921852 0.10479359181240816 -0.28505466831672827 -0.007208483542256143 -0.4432571186769107 -0.05828341354855963 -0.23350037008094018
-0.09018079826460357 -0.3119199173563479 -0.025033041149518473 -0.11486786311100672 -0.21234732948148527 -0.18893473820663853 -0.07035212777826627 0.1959139264710673
-0.523448283162306 -0.24286850635888052 -0.3112324564499365 -0.2685249735329916 0.07856941357816241 -0.24355663503742342 -0.044578371841294324 0.11696191275984724
-0.0626611373380844 0.18377809594929748 -0.2771597557267849 0.18688524569622167 0.08577398181509865 0.019684033564928607 0.30509077412586416 -0.04800634829923231
-0.30071344388218096 0.2646576025657016 -0.0017144795685108175 0.21978467575796268 0.05086409017606981 -0.4854844650855193 -0.008322073171422407 -0.05435933576352543
0.1928218660301035 -0.23515136735579173 0.06669628690640104 0.3937348658773112 -0.15803982439072975 -0.5094756811080263 -0.32547926845114533 -0.019676400790493168
-0.14274152215673605 -0.05354185569792607 0.19435377175982488 -0.05035274022769177 -0.34644653618881127 -0.0088481722445279 -0.03710377174464011 0.2753574913521207
-0.15130585434991148 -0.09642796475361068 -0.1727879464915708 -0.48863068063626586 0.12761468188825456 -0.02972288153627822 -0.5170428826214851 -0.007470472303590445
00000000: 65c9 a0b0 89df dbbf 1540 ee31 354e a43f
00000010: 9427 aab9 c0d3 ba3f b784 7fef 553e d2bf
00000020: 1e7b 1591 a486 7dbf fbef 1b1b 535e dcbf
00000030: b53c 2ed6 52d7 adbf 19ff 8c12 57e3 cdbf
00000040: a80d 46bb 1616 b7bf f10e 01f5 7ef6 d3bf
00000050: 6cf6 39f4 42a2 99bf 7055 6cf3 fa67 bdbf
00000060: 8809 c281 322e cbbf bc81 d674 032f c8bf
00000070: 98fc 02d8 9802 b2bf 6c18 8321 b513 c93f
00000080: de8a 2a9d 16c0 e0bf da16 05b2 5016 cfbf
00000090: 89ff 7989 3beb d3bf 15f1 de5e 832f d1bf
000000a0: 2abb c805 201d b43f 40d2 1a23 dd2c cfbf
000000b0: 91a6 55f2 f9d2 a6bf c85f 2e46 37f1 bd3f
000000c0: 86e4 986f 8f0a b0bf 9b64 e967 0a86 c73f
000000d0: f949 a745 fcbc d1bf 9c62 2f11 dbeb c73f
000000e0: 2059 be9e 48f5 b53f 34b0 a821 0d28 943f
000000f0: 68a4 4b74 9b86 d33f 1c24 e4bf 4994 a8bf
00000100: 8341 bc99 e33e d3bf ba13 ea70 26f0 d03f
00000110: 965e 4a6b 0c17 5cbf d06d 457d e721 cc3f
00000120: eaab b1a7 db0a aa3f f588 106f 2d12 dfbf
00000130: fa73 d9c0 290b 81bf 1a5a aca2 fcd4 abbf
00000140: 4fc8 460c 63ae c83f 328f 33a4 7019 cebf
00000150: 7712 0703 0213 b13f 5c3b 0fb9 f332 d93f
00000160: 69a4 9c22 a63a c4bf eaeb 8ef1 9f4d e0bf
00000170: df83 61ff a6d4 d4bf 64b6 97e7 0c26 94bf
00000180: 6fe3 b8ac 5a45 c2bf 1726 618e d669 abbf
00000190: 6e06 c89a 95e0 c83f 8176 1599 d5c7 a9bf
000001a0: 4694 af17 2e2c d6bf e862 5b93 fd1e 82bf
000001b0: 2428 67fc 43ff a2bf b538 0407 759f d13f
000001c0: 9f27 1080 fd5d c3bf 865e 09cb 80af b8bf
000001d0: 7c82 a959 ea1d c6bf 3beb 499e b945 dfbf
000001e0: 1d89 998a ad55 c03f ff95 90d0 ac6f 9ebf
000001f0: 9fa4 ef83 9d8b e0bf 8a6b aca3 5b99 7ebf

fc2.weight f8 [3, 64]
0.21873093323753823 0.5251190933163865 0.19302773306225213 -0.42531958731465536 0.026344018341285157 0.5273956221236942 -0.0026788311298338806 0.1508417257470345
0.1939412994503427 -0.5641950755797158 0.4534069398823382 0.13978652780015957 -0.13486511694681833 -0.37777152381148144 0.027062273749497514 0.5315400824598323
0.3152148970652064 0.1817878848134442 -0.9343178737003759 -0.43901401123478145 -0.4515477958649345 -0.28823152537972974 0.025196062428090395 0.1510617520731045
-0.8368080988021289 -0.17936204839702136 -0.44755381901858854 -0.2166849796797153 0.007639416281934073 -0.026147089574730612 -0.18156847982321853 0.6782394703323511
-1.0264868485512713 0.352341308633084 -0.20137711082250395 0.7025326114136723 -0.31298964782034355 0.25506586632948713 -1.0028757928661753 0.016401023869698182
0.2298507319094035 0.036959377224029984 -1.0892047186247227 0.5199686448015151 0.14871427193961637 0.37237024274219754 -0.4088072221296668 -0.036204223099766904
0.10556832948162873 0.10124718821146676 0.39519961693668576 -0.4312774556941305 -0.768741910600897 -0.021395348186167423 0.06591961216003477 0.3875324826632876
-0.06800598431406639 -0.3050677384604612 0.16300797649782386 0.49770574503100795 -0.571856620934473 -0.0471894416766 0.2756399346306243 -0.9534513416792328
-0.1203843842479393 -0.08630620167699316 0.34796797923835115 0.20783952975577472 0.04737669987067383 -0.391062773946459 -0.032495615356318605 0.2816770841642108
0.17397886631687687 -0.2543427148447065 -0.4293333337312401 0.18317399513436414 0.3729815083956596 0.19120485991725295 0.07101906110191997 -0.513671216461484
-0.17196191741287425 0.1729559545085697 -0.09884518658359963 -0.4843329588420286 -0.04739001274938213 -0.45483825739299094 -0.004465959354479959 0.22715899742843826
0.23006375056249811 0.20171571759664964 -0.15527113323750086 0.18126076939645153 0.25113281550759053 0.3194715491276082 0.25095210666756407 -0.46699014591981314
-0.006765968867056921 -0.18377158540519542 0.15232776834565928 -0.5516357277358558 0.24690615520856252 -0.1785064367590706 0.02258359670621829 0.09873022795554123
0.2407932005618162 -0.09741352763742604 -0.009188330944075304 -0.6843698860241059 0.1817847388146279 -0.15958779234967257 -0.346099466523201 0.2639604027639671
0.042076058281865676 0.11344341192143137 -0.35869891993808095 0.35974350596023036 -0.15634116742967896 0.0413704027104307 -0.06070379054785684 -0.5006052096059506
0.22976770047900483 -0.03821077622134656 0.18520289837997692 -0.3197376246698838 0.3058232503996872 0.09726127381941685 -0.04374849030721144 0.20761018109911503
-1.3951181778532402 -0.13514180117890948 6.0084999208254856e-05 -0.11760260561065872 -0.09309813664725419 -0.36041398112302403 -0.005624332628032332 -0.11942503876303055
-0.4432209982545473 0.10688325196517061 0.03146211134638417 -0.4478706097927125 -0.6186336225477462 0.20609022899338203 0.05822896045520897 0.22018918425426096
-1.1976713505059982 -0.47633866564061816 0.3469002558379088 0.15032894556817503 0.51591483803211 0.13770197727541786 0.0023560196138308577 -0.6761975896681226
0.2032043228579076 0.2649531407098627 0.07327485031156068 0.30729693658875123 0.274291884874164 0.34320562975005575 0.30309650482315154 0.09883158063026164
0.3825261447172822 -0.49125247320708165 0.11537929199081637 -0.9220072301796138 0.3546260603024845 -1.5042397586185496 0.30091700071894734 -0.01828073462103607
-0.1802462699829128 0.042162290431979506 0.3341324533879965 -0.7393540108727525 -0.25145829558775995 -0.8142285834587616 0.09361272182566328 0.27851203144714093
-1.0549423787768464 0.10794910515636763 0.035100805504983505 0.3864133352978324 0.45478123615472 0.004059818736322203 -0.03746030630230407 0.08513110465067392
-0.3052526217590809 0.07523556314799071 -0.4008504447637093 -0.551476496382446 0.13458583141861136 -0.11280656136533579 -1.19670016306871 0.20335719639820704
00000000: 107c 700e 60ff cb3f d691 898e c6cd e03f
00000010: 1298 5cfc 21b5 c83f 9c56 77a5 6f38 dbbf
00000020: 5659 e224 edf9 9a3f 1865 a2c8 6ce0 e03f
00000030: b338 0383 eaf1 65bf d954 7a1b c84e c33f
00000040: c9d1 3d89 11d3 c83f 6abb c5d4 e20d e2bf
00000050: bdbd a48a 9e04 dd3f b15a a962 86e4 c13f
00000060: cb32 5499 4243 c1bf 7158 089d 682d d8bf
00000070: d784 d672 36b6 9b3f 2fb3 d558 6002 e13f
00000080: 33da 861a 7b2c d43f d097 0a4e d344 c73f
00000090: 5e90 f398 eee5 edbf 724e 2f39 ce18 dcbf
000000a0: 9f87 f4b9 28e6 dcbf 12a8 cba3 6272 d2bf
000000b0: ea6b 7720 ffcc 993f fd4b 6ad2 fd55 c33f
000000c0: 3242 2cc7 21c7 eabf 921f 01ea 55f5 c6bf
000000d0: 979f f8c5 b8a4 dcbf 6b20 a15a 55bc cbbf
000000e0: 6486 7631 824a 7f3f f1aa 6f7a 4dc6 9abf
000000f0: d39e 69cd a23d c7bf c6e1 fd42 23b4 e53f
00000100: 3cd4 4479 7d6c f0bf d8f8 668f c28c d63f
00000110: bfa3 92a4 b9c6 c9bf 78a5 ccab 257b e63f
00000120: e8fe 57bb 0508 d4bf ec81 8dc8 ff52 d03f
00000130: f6f6 c47c c70b f0bf d6a8 9014 6ecb 903f
00000140: 4b9b 41b0 bf6b cd3f 615c eae8 56ec a23f
00000150: e745 52ed 616d f1bf 3ac6 8b48 95a3 e03f
00000160: d7ec 36bb 1109 c33f 5834 a5ff e9d4 d73f
00000170: fc97 5ac4 e529 dabf 9194 6124 5c89 a2bf
00000180: 4ef0 9daa 8606 bb3f 0322 2ef2 55eb b93f
00000190: 73a0 8855 f34a d93f 1756 edc1 0c9a dbbf
000001a0: 960d a3a2 8899 e8bf 6807 fc82 a9e8 95bf
000001b0: 4371 6492 1be0 b03f e54b cb0a 55cd d83f
000001c0: 13ab 8f16 d768 b1bf b426 f0d5 3a86 d3bf
000001d0: 11cc 0504 72dd c43f aa20 7c32 69da df3f
000001e0: a744 9d41 a64c e2bf b05b 6fe9 3629 a8bf
000001f0: 6e72 2dae 15a4 d13f 39de 5a63 ac82 eebf
00000200: 6143 4bd1 82d1 bebf d408 a5c9 2918 b6bf
00000210: 3b92 b87c 1b45 d63f 31fc 8e57 7c9a ca3f
00000220: 50eb 1241 c241 a83f 051e 3228 2c07 d9bf
00000230: 6e04 70ea 43a3 a0bf ae25 2152 ff06 d23f
00000240: a058 8382 f044 c63f b2f7 8eaa 2647 d0bf
00000250: 4755 dd84 327a dbbf 7b35 4ad7 3e72 c73f
00000260: 689d 24d5 edde d73f 8226 179e 6679 c83f
00000270: 944b d320 4e2e b23f d127 739e fe6f e0bf
00000280: 440e b91d d902 c6bf 78a2 21b4 6b23 c63f
00000290: 275b be0b eb4d b9bf c77d a6aa 4fff debf
000002a0: 0dcc d4f5 8043 a8bf df3d 1eec 111c ddbf
000002b0: b9cf f6d5 e54a 72bf d040 79c8 8b13 cd3f
000002c0: aa9c 549e ba72 cd3f 1c59 1515 d2d1 c93f
000002d0: 5c4b a2ab ecdf c3bf e482 4d8a 8d33 c73f
000002e0: 21ae 635f 8f12 d03f ae5a e0cb 3872 d43f
000002f0: aaf7 bf6c 990f d03f 50e9 11a3 2ae3 ddbf
00000300: edfd 27f0 a1b6 7bbf dbeb 9fca d385 c7bf
00000310: 539c a8ef 797f c33f f9c7 3df8 ffa6 e1bf
00000320: e0a3 e6f2 9e9a cf3f cbba 0086 4cd9 c6bf
00000330: 90f6 1d85 2720 973f ba17 325c 6246 b93f
00000340: c48e c1c4 4fd2 ce3f 5707 64cb 17f0 b8bf
00000350: 2beb 46e7 54d1 82bf b0e7 daac 5be6 e5bf
00000360: 0974 0fea b844 c73f 8cc8 7d6e 5f6d c4bf
00000370: 1e55 7860 7e26 d6bf c1da 532c bae4 d03f
00000380: b1c8 873c fe8a a53f 4032 26a0 a00a bd3f
00000390: 33a7 8f50 ecf4 d6bf 650b 43a0 0906 d73f
000003a0: d480 90c4 fc02 c4bf e2c9 535d 802e a53f
000003b0: 16e5 4a36 9114 afbf 80df 6e37 f504 e0bf
000003c0: 6f02 9e2b 0769 cd3f 396f 73e4 5c90 a3bf
000003d0: ff4c d583 bab4 c73f 0181 50cc 9476 d4bf
000003e0: 45ad b4ae 9b92 d33f 18c1 3866 1de6 b83f
000003f0: 66d9 3cbe 3366 a6bf 3d94 116d f892 ca3f
00000400: daf4 3e70 6752 f6bf d366 3198 534c c1bf
00000410: 336d 46da 7880 0f3f a0ac 0551 341b bebf
00000420: 58ef 378c 47d5 b7bf 8073 7ccd 0511 d7bf
00000430: 2206 304b 8a09 77bf 378d cfab a392 bebf
00000440: 1ad7 199b bb5d dcbf 9337 ae67 b35c bb3f
00000450: 1a77 9746 cd1b a03f c38d 797d e9a9 dcbf
00000460: f48d 21bd d8cb e3bf fc9e c624 2a61 ca3f
00000470: 4f9f abb1 2fd0 ad3f 3909 a7c0 282f cc3f
00000480: 7c78 1c6f a929 f3bf 7dca af2b 557c debf
00000490: ff0f 7321 9d33 d63f c5c1 6d98 fa3d c33f
000004a0: 41cf 9bd5 5f82 e03f c308 7fe8 37a0 c13f
000004b0: 769c 1566 ee4c 633f 9146 a820 69a3 e5bf
000004c0: 154f 8a68 9902 ca3f f190 9404 fef4 d03f
000004d0: 591b b5fd 23c2 b23f acd1 33c5 c0aa d33f
000004e0: 50ef c58c ff8d d13f be17 e5be 14f7 d53f
000004f0: 74d4 efe1 ee65 d33f 3774 9ec6 064d b93f
00000500: 823e 5bf0 4e7b d83f de39 a036 ae70 dfbf
00000510: 0477 bc4d 7f89 bd3f e880 894e 1581 edbf
00000520: 61be d380 31b2 d63f f1c0 89b5 5d11 f8bf
00000530: 8a7d 3961 3942 d33f 3e77 6055 2fb8 92bf
00000540: 7fbb 664d 4f12 c7bf b142 0fb5 4b96 a53f
00000550: 2b5b f515 6d62 d53f 44ad 1bbe c9a8 e7bf
00000560: 7fde f688 e417 d0bf ab8f 2d1a 290e eabf
00000570: b113 bbda 00f7 b73f 5fe9 a620 24d3 d13f
00000580: 0e2d 8042 0be1 f0bf bc70 4774 8da2 bb3f
00000590: ff10 6a97 bbf8 a13f 12eb 75ff feba d83f
000005a0: 4a9d 07c2 221b dd3f 6efc 334b 07a1 703f
000005b0: 28de ee4c ff2d a3bf dcd4 58ee 26cb b53f
000005c0: ff4d de4a 4289 d3bf c67d 374b a342 b33f
000005d0: 4b38 b69f 88a7 d9bf 6535 8f09 b2a5 e1bf
000005e0: f454 39c8 1b3a c13f 149d d60b e4e0 bcbf
000005f0: b6f7 f711 af25 f3bf d0e0 f7cd 9b07 ca3f

fc2.bias f8 [3]
0.24274789928748833 0.8977842853110367 0.9743030723661351
00000000: 3965 4ef8 5c12 cf3f a0c1 081c a6ba ec3f
00000010: 4f8e 06a3 7d2d ef3f
