runs/testrun-cnn-lite-fl-20r-20bs-50ep/1/LocalModel-1-Round5.pt (torch, 144143 bytes, 8 tensors)

conv1.weight f8 [6, 1, 5]
-0.8120753744912811 -0.6660048187683537 -0.04861882771687984 0.002661939146466151 0.12064695769164502 -0.8608786640096114 -0.19504752700207012 -1.327342449782705
0.27920490082681737 -0.21204573463634724 0.22150910249470673 -0.6010211396355424 0.17496332829236502 -0.061477536026140554 -0.6196950763573579 0.1101203229857729
-0.10893225959830162 -0.23447648285812114 0.07654771099316199 0.05588263953466082 -0.8664775360717546 -0.026172016249309035 -0.7851379927843481 0.08287278755422503
-0.009859855342452354 -0.7300574846628263 -0.13295776855307123 -0.49529461855013596 0.1164447692245044 -0.012400584574479408
00000000: d376 ea7e 85fc e9bf e1d4 7256 e94f e5bf
00000010: 4c18 0726 91e4 a8bf ca17 7fb2 7dce 653f
00000020: 48c3 a511 b8e2 be3f c1da 7769 518c ebbf
00000030: 5edd d13e 51f7 c8bf 408c c66f cb3c f5bf
00000040: 5cc8 7b3b 7ede d13f e47b c28b 5024 cbbf
00000050: f293 7d07 695a cc3f c70e 5eaf 903b e3bf
00000060: 27ec 81c6 3265 c63f db84 57cd fb79 afbf
00000070: 704e cec4 8ad4 e3bf 584e d971 d830 bc3f
00000080: 153f 740c fce2 bbbf 1743 c74c 5303 cebf
00000090: 4c9e 4c7b a198 b33f 4759 6e3a a69c ac3f
000000a0: f7b2 0419 2fba ebbf afd4 7147 d6cc 9abf
000000b0: 3363 3bb6 d91f e9bf a214 46a8 2637 b53f
000000c0: b5b9 e961 6731 84bf a475 9a83 a15c e7bf
000000d0: 42a0 d799 c204 c1bf 31b0 2333 e8b2 dfbf
000000e0: 1709 9c0b 53cf bd3f e4e0 9649 7a65 89bf

conv1.bias f8 [6]
0.11627516429307991 0.29175182490453516 0.09166107391003155 0.02255583898126137 0.7193568719660649 0.5977588793846544
00000000: 5ece f98b 35c4 bd3f dbd9 a0d8 0fac d23f
00000010: d983 c2a2 1977 b73f 678f 08bb e018 973f
00000020: 4fe8 e7b3 f804 e73f ee38 bb3a d720 e33f

conv2.weight f8 [8, 6, 3]
0.19843555986881256 -0.03092285990715027 -0.22620196640491486 -0.16618356108665466 0.16630499064922333 0.09183122217655182 -0.23378649353981018 0.1705787032842636
0.10555537045001984 0.18778572976589203 0.12225528061389923 -0.18926328420639038 -0.0061834752559661865 -0.19155630469322205 -0.12202021479606628 -0.10775172710418701
0.16581107676029205 0.14135615527629852 0.14520366489887238 -0.0030955523252487183 -0.19313472509384155 -0.03172008693218231 -0.15798704326152802 -0.21081086993217468
0.03435187041759491 0.025940045714378357 0.03158913552761078 -0.035385534167289734 -0.21717271208763123 0.04940183460712433 0.1454872041940689 -0.08343583345413208
0.1616162210702896 -0.10072916746139526 0.19762419164180756 0.2315882295370102 0.03553791344165802 -0.1283184438943863 0.16412131488323212 -0.039938271045684814
0.1391114741563797 0.010012686252593994 0.029809340834617615 0.009403690695762634 0.13036732375621796 -0.03916023671627045 -0.08347976207733154 0.1968400925397873
-0.2332153171300888 0.22799097001552582 -0.11809774488210678 0.19377277791500092 0.11607314646244049 0.1952238231897354 0.08690492808818817 0.032018378376960754
-0.22410303354263306 -0.21128380298614502 -0.005704998970031738 0.15768994390964508 -0.01567438244819641 -0.20456723868846893 0.08860288560390472 -0.2236340492963791
-0.1801774650812149 0.022953107953071594 -0.1625157743692398 -0.15190139412879944 -0.06778581440448761 -0.19411815702915192 0.033021166920661926 -0.1342003345489502
-0.08132217824459076 -0.22556965053081512 0.09549783170223236 0.013142570853233337 -0.22415050864219666 -0.09575115144252777 -0.17409268021583557 0.19346101582050323
0.03171508014202118 0.2261030226945877 -0.030054017901420593 -0.03937813639640808 0.07000820338726044 0.09034772217273712 0.04843069612979889 0.06528981029987335
0.17611505091190338 0.0394810289144516 0.006832867860794067 -0.19512799382209778 -0.009997427463531494 -0.1349007934331894 0.22060172259807587 -0.017273470759391785
0.0195133239030838 -0.04030418395996094 0.20486433804035187 -0.19752971827983856 -0.17148198187351227 -0.22011560201644897 0.06816501915454865 0.22549457848072052
-0.024963155388832092 0.03365631401538849 0.12276695668697357 0.00453948974609375 -0.11328940838575363 -0.1788216531276703 -0.21888171136379242 -0.04415617883205414
0.11473537981510162 -0.0011038482189178467 0.1297796219587326 -0.006517425179481506 0.08206517994403839 -0.14437761902809143 -0.017202377319335938 -0.19549205899238586
0.20857833325862885 0.17401622235774994 -0.22147859632968903 0.23426054418087006 0.09085904061794281 -0.16520553827285767 0.10142232477664948 0.16537781059741974
0.12006480991840363 0.1707947999238968 0.11874707043170929 0.06825046241283417 0.12543319165706635 0.0008032917976379395 -0.16668292880058289 -0.059662967920303345
0.21736879646778107 0.13783575594425201 0.07180579006671906 -0.14091965556144714 0.10090301930904388 0.10748480260372162 0.01004628837108612 -0.15984757244586945
00000000: 0000 0020 5666 c93f 0000 0000 3eaa 9fbf
00000010: 0000 00a0 2ff4 ccbf 0000 00c0 8045 c5bf
00000020: 0000 0060 7b49 c53f 0000 0040 4082 b73f
00000030: 0000 0040 b7ec cdbf 0000 00e0 85d5 c53f
00000040: 0000 0040 ad05 bb3f 0000 00e0 5c09 c83f
00000050: 0000 0040 1f4c bf3f 0000 0080 c739 c8bf
00000060: 0000 0000 d853 79bf 0000 00c0 ea84 c8bf
00000070: 0000 0080 b73c bfbf 0000 0000 9e95 bbbf
00000080: 0000 0020 4c39 c53f 0000 0060 f517 c23f
00000090: 0000 00a0 0896 c23f 0000 0000 d85b 69bf
000000a0: 0000 0080 a3b8 c8bf 0000 0080 9d3d a0bf
000000b0: 0000 0060 eb38 c4bf 0000 00c0 d9fb cabf
000000c0: 0000 0080 9196 a13f 0000 0000 0790 9a3f
000000d0: 0000 0080 732c a03f 0000 0080 0d1e a2bf
000000e0: 0000 00c0 50cc cbbf 0000 0080 324b a93f
000000f0: 0000 0020 539f c23f 0000 0000 0d5c b5bf
00000100: 0000 0020 d7af c43f 0000 0000 63c9 b9bf
00000110: 0000 00e0 bf4b c93f 0000 00e0 aea4 cd3f
00000120: 0000 0080 0632 a23f 0000 0020 bd6c c0bf
00000130: 0000 0060 ed01 c53f 0000 0000 ca72 a4bf
00000140: 0000 00a0 67ce c13f 0000 0000 8881 843f
00000150: 0000 0000 5786 9e3f 0000 0000 3e42 833f
00000160: 0000 0060 e0af c03f 0000 0080 cf0c a4bf
00000170: 0000 0000 ee5e b5bf 0000 0060 0e32 c93f
00000180: 0000 00e0 ffd9 cdbf 0000 00e0 ce2e cd3f
00000190: 0000 0060 a73b bebf 0000 00e0 8bcd c83f
000001a0: 0000 0040 f8b6 bd3f 0000 0020 18fd c83f
000001b0: 0000 00c0 663f b63f 0000 0080 b664 a03f
000001c0: 0000 0080 68af ccbf 0000 0000 590b cbbf
000001d0: 0000 0000 205e 77bf 0000 0020 2f2f c43f
000001e0: 0000 0000 f20c 90bf 0000 0060 422f cabf
000001f0: 0000 00c0 adae b63f 0000 0060 0aa0 ccbf
00000200: 0000 0020 0e10 c7bf 0000 0000 0581 973f
00000210: 0000 0020 51cd c4bf 0000 0040 8171 c3bf
00000220: 0000 0040 695a b1bf 0000 0020 ddd8 c8bf
00000230: 0000 0080 26e8 a03f 0000 0000 7a2d c1bf
00000240: 0000 00c0 87d1 b4bf 0000 0060 77df ccbf
00000250: 0000 00c0 8b72 b83f 0000 0000 7eea 8a3f
00000260: 0000 00c0 f6b0 ccbf 0000 00c0 2583 b8bf
00000270: 0000 0040 ab48 c6bf 0000 00a0 54c3 c83f
00000280: 0000 0080 f53c a03f 0000 00a0 f1f0 cc3f
00000290: 0000 0000 7bc6 9ebf 0000 0000 5f29 a4bf
000002a0: 0000 00c0 0eec b13f 0000 0040 0721 b73f
000002b0: 0000 0080 e8cb a83f 0000 0040 d5b6 b03f
000002c0: 0000 0020 f08a c63f 0000 0080 db36 a43f
000002d0: 0000 0000 c8fc 7b3f 0000 0040 f4f9 c8bf
000002e0: 0000 0000 8879 84bf 0000 00e0 6d44 c1bf
000002f0: 0000 0060 ad3c cc3f 0000 0000 23b0 91bf
00000300: 0000 0000 4dfb 933f 0000 0000 c0a2 a4bf
00000310: 0000 00a0 fe38 ca3f 0000 0060 a748 c9bf
00000320: 0000 0020 1ff3 c5bf 0000 0080 bf2c ccbf
00000330: 0000 0040 4373 b13f 0000 00a0 01dd cc3f
00000340: 0000 0000 f18f 99bf 0000 0080 663b a13f
00000350: 0000 00c0 a76d bf3f 0000 0000 0098 723f
00000360: 0000 00e0 8800 bdbf 0000 00c0 a0e3 c6bf
00000370: 0000 00e0 5004 ccbf 0000 0080 a39b a6bf
00000380: 0000 0040 4c5f bd3f 0000 0000 e015 52bf
00000390: 0000 0060 9e9c c03f 0000 0000 04b2 7abf
000003a0: 0000 0040 3902 b53f 0000 0040 f77a c2bf
000003b0: 0000 0000 809d 91bf 0000 0040 e205 c9bf
000003c0: 0000 00e0 b1b2 ca3f 0000 00e0 2946 c63f
000003d0: 0000 0020 6959 ccbf 0000 00e0 3ffc cd3f
000003e0: 0000 00c0 8942 b73f 0000 0080 7425 c5bf
000003f0: 0000 0040 d0f6 b93f 0000 00a0 192b c53f
00000400: 0000 0040 91bc be3f 0000 00a0 9adc c53f
00000410: 0000 0040 3566 be3f 0000 00c0 dc78 b13f
00000420: 0000 00e0 310e c03f 0000 0000 8052 4a3f
00000430: 0000 00c0 dd55 c5bf 0000 0000 258c aebf
00000440: 0000 00a0 bdd2 cb3f 0000 0020 9aa4 c13f
00000450: 0000 0040 dd61 b23f 0000 00c0 a709 c2bf
00000460: 0000 00c0 c7d4 b93f 0000 00c0 1f84 bb3f
00000470: 0000 0000 2693 843f 0000 00a0 e275 c4bf

conv2.bias f8 [8]
-0.20587024092674255 -0.18975600600242615 0.1307300180196762 0.07972098886966705 -0.16032934188842773 -0.14550217986106873 0.035017892718315125 0.20011313259601593
00000000: 0000 00c0 f459 cabf 0000 00c0 ec49 c8bf
00000010: 0000 00e0 c2bb c03f 0000 0040 9868 b43f
00000020: 0000 0000 ac85 c4bf 0000 00c0 d09f c2bf
00000030: 0000 0080 dded a13f 0000 00a0 4e9d c93f

fc1.weight f8 [64, 270]
-0.7402889520443606 0.04366067051887512 1.2749405932257398 1.4709321684764012 -0.5011757150302323 -0.724175815424137 0.021120011585838726 -0.018842976540327072
0.13407186768502122 -0.7851074937925488 0.04073629528284073 0.2901362373895406 -0.029937071448558495 0.11371411947851517 -0.07638100512254675 -0.018983541340360503
-0.003412216901779175 0.01439213752746582 0.032957807183265686 -0.0060835666954517365 -0.22833111258920397 0.1439973994848149 -0.12699443907106767 -0.08875869947750602
-0.05676593909188414 -0.023537427186965942 0.03142033517360687 -0.027647733688354492 -0.012186885469925402 -0.6340192450792349 -0.3302831400275294 0.02569652253408177
-0.053920878352124 0.05501861017257227 0.047097377479076385 -0.1978368093465653 -0.20185871686884208 0.18400977525020687 0.14141031578001803 0.010801821947097778
0.016478396952152252 -0.01256847009062767 0.3026556995044648 0.1981449116815049 -0.1878032484556673 0.35542761731235994 1.5118076687290989 0.8281184007597083
0.11232948422766009 -0.009446084937179713 -0.4096384346502817 0.8065642909260382 -0.016049559746937166 -0.3214778727637328 0.3413192013046063 0.24997485739728834
0.28470709502292474 0.6361625797160184 0.01137428488042876 0.028382125287889262 -0.22138327997511162 0.003555186092853546 -0.020604286342859268 0.060445137321949005
-0.04244490712881088 0.07672067209505695 -0.04550881826681764 -0.17333566250352828 0.046200357377529144 -0.013552604654153033 -0.0622047860482249 -0.13689371056012772
-0.02989424765110016 -0.16861801599434068 1.3289910097043587 -0.06524178211697773 -0.14882837343404196 -0.061453642239194625 -0.020530633628368378 -0.2100018599482465
-0.2962905546085358 0.061520481492074966 0.0108488224126123 0.021939248603910028 0.041652850806713104 -0.03382105007767677 -0.03118675180864703 0.15467015150041571
-0.011866796177094447 0.13021634925160136 -0.11525659524071365 0.22682828569983896 -0.5735774272993635 -0.6410911473706611 -0.30064211371895827 0.027935628100269744
-0.153705708588689 1.2498197355264717 -0.4061401523225229 -0.22205160720643216 0.13529804480247873 -0.23631829339909097 0.8859774396984116 0.059846787148039746
0.019209244596068126 0.02663334857572694 -0.36027473459344533 -0.061488761096485135 0.025614086775416222 -0.041837564241136674 -0.37631004424475345 -0.20678713554461983
-0.30283193896692934 -0.03542167410902538 -0.042229902664929375 -1.2865719486780969 -0.055101927344335416 -0.11422690284540701 -0.3379986906939249 0.8021626673577504
0.03613425124093284 0.016614449266178503 -0.2650489034471852 -0.23153740157860916 -0.6551004336028782 -0.04181489609888217 0.35714831124433444 0.003171654975738138
0.05217849626695085 0.01901905452831812 0.8068318744884242 0.06885696212166395 -0.18024178856575204 0.334244344052811 0.03339421273954344 -0.2674187946539153
-0.014450717370460985 0.28111282090515227 0.2977142045610783 -0.30585083625352727 -0.3875564626297526 -0.05903982531939312 0.30170511909370246 1.777178956036331
-0.203132509254536 -0.2824966648929654 -0.37302683116668084 -0.03701083693928463 0.009204866534309826 0.08132453939221186 -0.10891883587046843 -0.08967419833934251
0.29556359977657476 -0.12793509466403954 0.006237139501098715 -0.3126057736973329 0.39736540508101653 -0.16286261645025302 -0.07997931694375508 -0.37926866074796317
0.14812391149021525 -0.6687595096695045 0.6265617599995345 -0.6815882797452143 -0.5772491367235539 -0.5015389187493896 0.016930139109643305 -0.4921218439408143
-0.17884352490827554 -0.26431026180548234 -0.489624462642273 -1.0503430006494243 -0.04812142613884382 0.11999223457438364 0.1760529727312018 0.10147467883201476
0.040095652060657336 0.04849437869722025 -0.18643784838809221 -0.07966446370614726 0.21293511999277318 -0.025718190254137914 0.1633604856894843 0.0892632273828712
-0.0484871051231019 -0.034069020081699944 -0.9387851487552208 0.5387285651757359 0.2753173256573819 0.26160856204282346 -0.09041386425415383 0.0609481905781713
-0.007307555297370369 0.026241008448652722 0.09393390653490855 -0.05157706844898246 -0.01959086910398222 -0.006218556314706802 0.004839129745960236 0.0067148889649633675
0.024036385175831124 -0.09232093326221076 -0.08982014313541072 -0.3747884965519361 0.013292363683495097 0.04266341464730398 2.121860039827876 0.4057018950487023
0.5112465294394967 0.22516574822652025 0.10282264782100804 0.6511236234483224 -0.04523996267866654 0.4508539131260567 0.9729948657880368 0.4377020579113348
0.4876432908812046 0.062325543970054936 0.051898161835625456 -0.011315695941448212 0.008367225527763367 0.036841996014118195 0.24161788771266718 0.029252459094368702
-0.08966962782922516 0.29735169463978767 -0.09475771856808052 0.07497910121697877 0.30587286528033175 -0.14566507809144366 -0.28827070782264064 -0.653304716131986
0.4653372598166288 0.6445456782803497 0.17335395804834497 -0.09955597706651932 -0.04966543484662942 -0.02989769473482651 -0.014404023031383145 0.08232891964210022
-0.09274959996986473 0.0244701915873586 0.014787659049034119 -0.0445338673889637 -0.06518049596660405 -0.07758211957565764 -0.04827398630434762 -0.14719201056138045
-0.1192100520836634 -0.09664900712483773 0.20245164424904843 2.2371831848262906 0.7362141426263469 0.9722306779100344 -0.10765206345821102 -0.06070054165444991
00000000: 4bdc d374 72b0 e7bf 0000 0000 b15a a63f
00000010: 51f5 831b 2866 f43f 1cd9 632b f088 f73f
00000020: 2056 33a7 a109 e0bf 29a0 79c2 722c e7bf
00000030: f692 35fc 7ba0 953f 0000 00c0 924b 93bf
00000040: c0a9 8257 4429 c13f 66df 35c0 991f e9bf
00000050: 0000 0040 63db a43f 933e be94 9791 d23f
00000060: fd00 3ddb d2a7 9ebf d0ef 4058 5e1c bd3f
00000070: 5875 099f b48d b3bf fe5e e0e4 6b70 93bf
00000080: 0000 0000 f0f3 6bbf 0000 0000 a079 8d3f
00000090: 0000 0080 d8df a03f 0000 0000 15eb 78bf
000000a0: 2e6e 9d32 f439 cdbf a787 bfbc 816e c23f
000000b0: ccc3 4a91 5a41 c0bf 1fcb 7ddf e3b8 b6bf
000000c0: 364d dad7 6c10 adbf 0000 0000 321a 98bf
000000d0: 0000 0080 5316 a03f 0000 0000 b04f 9cbf
000000e0: 7a75 4414 70f5 88bf 2bcc 54ba e249 e4bf
000000f0: cba8 35e5 5b23 d5bf 0e86 9e6f 3050 9a3f
00000100: 701c 3072 849b abbf e2a2 b936 662b ac3f
00000110: 0000 00c0 251d a83f 7b53 0b71 b752 c9bf
00000120: 1d9e aea5 81d6 c9bf 8306 6cdf a18d c73f
00000130: 8bcd cbb4 bb19 c23f 0000 0000 441f 863f
00000140: 0000 0080 b6df 903f 0000 0080 7fbd 89bf
00000150: a275 d402 b65e d33f 4a3b c5fd cf5c c93f
00000160: 3f8e 19d5 ef09 c8bf 1eea 1c7a 53bf d63f
00000170: 2489 f03c 5d30 f83f 1352 0f29 f27f ea3f
00000180: a064 2205 a0c1 bc3f 4e1c 0b0f 7858 83bf
00000190: 687c 0020 8437 dabf acc2 74ea 5fcf e93f
000001a0: afc5 e9b8 4b6f 90bf bb1a 7aed 1793 d4bf
000001b0: 7168 c67d 2cd8 d53f a5fb ab16 2dff cf3f
000001c0: 1102 841b a438 d23f a437 5aa0 715b e43f
000001d0: 6a58 9dac 664b 873f 341e 9c2f 3410 9d3f
000001e0: 97e9 af8d 4956 ccbf 0000 0000 c41f 6d3f
000001f0: 0000 0040 4a19 95bf 0000 0040 aaf2 ae3f
00000200: 0000 00c0 56bb a5bf 084e 9349 f7a3 b33f
00000210: f16b 458c ee4c a7bf 6071 d7ec dc2f c6bf
00000220: 0000 00c0 92a7 a73f a023 1fce 77c1 8bbf
00000230: e3ae 7643 4ed9 afbf 9e21 f1ac bb85 c1bf
00000240: 0000 0000 999c 9ebf 0826 1b70 4695 c5bf
00000250: 59bb b513 8c43 f53f 0072 8678 afb3 b0bf
00000260: e3db 4ee2 ce0c c3bf 965c 460f da76 afbf
00000270: 0000 0080 fb05 95bf 90d7 4948 57e1 cabf
00000280: 3e12 8aa8 6cf6 d2bf 4ad4 15d0 9c7f af3f
00000290: b8c0 b24b e837 863f 78ab 020d 3e77 963f
000002a0: 0000 00c0 8553 a53f 0000 0020 fe50 a1bf
000002b0: baaf 587c 6bef 9fbf 934a 2e45 3bcc c33f
000002c0: 174e e96b 9e4d 88bf 9256 b8e8 edaa c03f
000002d0: 6109 35cb 7481 bdbf 19bc 7192 b508 cd3f
000002e0: ca2f 7f0c bf5a e2bf 92c9 f694 d183 e4bf
000002f0: 8b49 8e6b b83d d3bf e5e3 5544 289b 9c3f
00000300: 0f68 ccef a0ac c3bf 7eb4 9ffa 42ff f33f
00000310: 1a55 f443 33fe d9bf 1de9 7ce3 2f6c ccbf
00000320: 7fd7 d142 7251 c13f 8d3d cc86 ad3f cebf
00000330: a1f3 0f5c ed59 ec3f 269c 24f3 3ca4 ae3f
00000340: 48ae 4895 96ab 933f 187e 76c4 c545 9b3f
00000350: f3d9 a9c2 bd0e d7bf 7d40 f673 747b afbf
00000360: 03bc 1144 943a 9a3f 0ae9 51b4 bb6b a5bf
00000370: 7a00 4cb9 7615 d8bf 91e6 3238 0078 cabf
00000380: cf05 8336 9961 d3bf bb54 bc27 ca22 a2bf
00000390: 88e0 b765 289f a5bf ea5f b877 cc95 f4bf
000003a0: 24ee c7df 5136 acbf 4e5d 0b6c f93d bdbf
000003b0: 2fc2 a742 c5a1 d5bf 10f5 cb0a 51ab e93f
000003c0: 21c5 b046 3080 a23f e107 f5d0 6003 913f
000003d0: 575d 09ad 8ff6 d0bf 695c ca7f 04a3 cdbf
000003e0: d96e 3d2f 95f6 e4bf b8ee 7516 c368 a5bf
000003f0: 4a6d 2797 84db d63f 1ec4 a34c 71fb 693f
00000400: 15c2 0ace 23b7 aa3f 28c4 cc24 bb79 933f
00000410: 848a 4914 91d1 e93f e219 6a20 9ca0 b13f
00000420: 0598 a1b5 2912 c7bf 5e1b a563 4264 d53f
00000430: 5d1b 2fd7 0b19 a13f a1f4 57b8 631d d1bf
00000440: 3936 1474 5698 8dbf 2388 11a1 c0fd d13f
00000450: 3f3f 09e1 bf0d d33f 1071 ca62 0f93 d3bf
00000460: 7549 169f b9cd d8bf c112 d1cd 773a aebf
00000470: 66c4 e2fc 224f d33f 230c 7533 536f fc3f
00000480: d156 00fe 3e00 cabf 5b70 3ce4 6c14 d2bf
00000490: d30c 19ee abdf d7bf 0eee 809c 15f3 a2bf
000004a0: 71cc d445 00da 823f a943 0d5d afd1 b43f
000004b0: dd67 fbd5 1ae2 bbbf 2e99 2965 e3f4 b6bf
000004c0: 426b bb96 83ea d23f 0dde cb5b 2d60 c0bf
000004d0: f94d d862 1d8c 793f 5888 a4a5 bb01 d4bf
000004e0: e19f d84e 6f6e d93f bc89 b2a5 aed8 c4bf
000004f0: a33d a146 8679 b4bf a8da 930f f045 d8bf
00000500: ce93 cd6d b9f5 c23f b06c dd57 7a66 e5bf
00000510: 13e9 833f cb0c e43f 89f6 5a39 92cf e5bf
00000520: 94e6 7b2e d378 e2bf 0165 b658 9b0c e0bf
00000530: 10ac 2b67 2256 913f 73df 579e ec7e dfbf
00000540: 3e8c 4a39 58e4 c6bf 62e9 9c96 75ea d0bf
00000550: 50b0 97d7 0156 dfbf d4f2 5576 34ce f0bf
00000560: 3ca5 011f 5fa3 a8bf 355c 45a3 cfb7 be3f
00000570: 643e 1f60 e788 c63f a7a2 f49a 3efa b93f
00000580: 2ee8 9fd4 6a87 a43f 9bbb 1655 41d4 a83f
00000590: 891f c806 32dd c7bf b372 45ea e364 b4bf
000005a0: 49f7 4440 7541 cb3f c21e 3788 de55 9abf
000005b0: 865c bf13 ffe8 c43f a947 5872 f4d9 b63f
000005c0: 7918 9045 4dd3 a8bf ba86 1d9e 7e71 a1bf
000005d0: 30f9 fb26 870a eebf ac39 1bb0 433d e13f
000005e0: ea1e 6e8f cc9e d13f fcf5 94d6 31be d03f
000005f0: 5d9a 13ee 5c25 b7bf c836 91ea 9934 af3f
00000600: 7d32 41f0 86ee 7dbf 9c72 6744 ecde 9a3f
00000610: 528e 8d70 0d0c b83f 7f82 6c3c 4f68 aabf
00000620: 9f43 68f8 a00f 94bf 0000 0000 a178 79bf
00000630: 0000 0000 32d2 733f 473b 0348 1281 7b3f
00000640: b11d fa80 fe9c 983f cdee 183d 58a2 b7bf
00000650: 85e3 49f1 73fe b6bf 7fe2 e6e3 88fc d7bf
00000660: d10a 75da 0639 8b3f e5ad 4aa5 fad7 a53f
00000670: f8ff adc1 91f9 0040 9f33 ca14 05f7 d93f
00000680: 415b 84ae 215c e03f 9cf8 6732 3bd2 cc3f
00000690: 39ea adc5 9552 ba3f 50a2 8b35 01d6 e43f
000006a0: 39b1 5a40 b129 a7bf 3c9a 095f cada dc3f
000006b0: 7189 f720 c622 ef3f cbbf 077e 4f03 dc3f
000006c0: aeb5 9c34 8c35 df3f 5c14 1d3a 22e9 af3f
000006d0: 10f1 9c57 6592 aa3f 0000 0000 af2c 87bf
000006e0: 0000 0000 d622 813f 0000 0040 f4dc a23f
000006f0: 7260 edbe 55ed ce3f 6433 8d4c 5bf4 9d3f
00000700: 5894 f8b6 96f4 b6bf 15d6 f866 cf07 d33f
00000710: 5c21 4bb6 0a42 b8bf 0543 9c93 d431 b33f
00000720: c038 47c8 6b93 d33f 7f38 493d 27a5 c2bf
00000730: 868d 9ffb 0673 d2bf 9080 c34a dfe7 e4bf
00000740: 8573 21ee 15c8 dd3f 6dc0 1f42 1ea0 e43f
00000750: f892 3966 7630 c63f 213d 9f21 807c b9bf
00000760: 3dd7 d074 bf6d a9bf 618e 7254 809d 9ebf
00000770: 9612 ce3e db7f 8dbf a1b9 6011 8213 b53f
00000780: 5670 9612 70be b7bf 36d4 60c2 b60e 993f
00000790: 0000 0000 fe48 8e3f 0000 00a0 24cd a6bf
000007a0: e27c 8342 abaf b0bf 90f1 54fa 6bdc b3bf
000007b0: 8c75 d930 5eb7 a8bf 99fb cb13 30d7 c2bf
000007c0: 3fc5 0dcb 8c84 bebf bac3 ca44 fdbd b8bf
000007d0: 7619 897b efe9 c93f 9beb 2f4c c0e5 0140
000007e0: d2d9 2df6 108f e73f 0754 b982 831c ef3f
000007f0: 0262 e6eb 158f bbbf fcbc 8232 2414 afbf

fc1.bias f8 [64]
-0.3091059886410906 -0.1341423969211736 0.09472160592613328 -0.17506049015580086 -0.007208483542256143 -0.2751730622452026 -0.064996564898118 -0.12386964145202319
-0.003087877463389178 -0.1642005607854691 -0.00403811847400426 -0.041415318860892225 -0.20102140527343695 -0.14395900171847523 -0.04420731650098316 0.13618595274260287
-0.29463679082506566 -0.16473438679893254 -0.18512945079478796 -0.1682107062383392 0.08961197019058774 -0.12702910202497117 -0.044578371841294324 0.12048776284766674
-0.05513552489996068 0.16274643347487544 -0.14497656261185807 0.13523695810096695 0.10382801865024281 0.030802362130051886 0.2552178892965989 -0.072604062730466
-0.27861809505286517 0.17849187477053097 0.0028776936659378172 0.12870620688612514 0.04712030405717282 -0.23921808862004018 -0.04903720223507742 -0.05435933576352543
0.14359426883513687 -0.13665275698077944 0.023348489602322903 0.3178699155545373 -0.0731079766409861 -0.292371566784179 -0.19343258104881822 0.005873321567710665
-0.10035973531429626 -0.05354185569792607 0.055375383968323 -0.04528173504872511 -0.2521086457199533 -0.0088481722445279 -0.03710377174464011 0.1438593744013117
-0.07234909393368127 -0.0743796268582735 -0.08395145200134428 -0.333236712878383 0.011503093292150825 -0.02972288153627822 -0.29991201572478976 -0.029235874632049175
00000000: d284 0d7c 64c8 d3bf 7549 e4fb 932b c1bf
00000010: 4d66 add7 ac3f b83f 093c 05d4 6168 c6bf
00000020: 1e7b 1591 a486 7dbf 1355 c579 6f9c d1bf
00000030: 68fa 9668 9da3 b0bf 89f1 00bb ebb5 bfbf
00000040: 829a 0497 bf4b 69bf 497b 4723 8604 c5bf
00000050: 8013 882c 468a 70bf 1034 1f80 6334 a5bf
00000060: 0102 b9c4 11bb c9bf 8d3e 2ca2 3f6d c2bf
00000070: ab35 3b65 57a2 a6bf 521f 9a92 8a6e c13f
00000080: f2b0 3245 54db d2bf defc e931 0416 c5bf
00000090: bd53 5864 52b2 c7bf c3bb 10ad ed87 c5bf
000000a0: af77 4c61 cff0 b63f 2733 6b57 7d42 c0bf
000000b0: 91a6 55f2 f9d2 a6bf 0aba ff38 49d8 be3f
000000c0: 7414 9638 b93a acbf 7259 a808 e0d4 c43f
000000d0: db5d 8d8d 978e c2bf d188 20d4 714f c13f
000000e0: a7e2 8218 7994 ba3f 30d6 f387 a78a 9f3f
000000f0: bd83 f869 7d55 d03f edec fb0a 2e96 b2bf
00000100: 24db 94fd e0d4 d1bf 44de 5e5e d2d8 c63f
00000110: fb07 dc05 f692 673f 791e afea 7179 c03f
00000120: 7f67 ce09 2720 a83f ba0a 9ec5 b29e cebf
00000130: 4a24 c677 671b a9bf 1a5a aca2 fcd4 abbf
00000140: ea1c 4508 4c61 c23f ea01 1269 d67d c1bf
00000150: 550b 039d aae8 973f e518 ec0e fb57 d43f
00000160: bff0 bf50 34b7 b2bf b392 673b 37b6 d2bf
00000170: 18f3 ca18 66c2 c8bf d9d8 d5c0 9f0e 783f
00000180: 2497 02f5 2cb1 b9bf 1726 618e d669 abbf
00000190: b376 4b8e 295a ac3f fee3 47e6 2a2f a7bf
000001a0: b8fc 194d 8c22 d0bf e862 5b93 fd1e 82bf
000001b0: 2428 67fc 43ff a2bf 6069 23e6 fb69 c23f
000001c0: 0024 5760 7885 b2bf d14f d810 8b0a b3bf
000001d0: 2328 cca4 d77d b5bf 9be8 e813 c053 d5bf
000001e0: 41e5 f00b ef8e 873f ff95 90d0 ac6f 9ebf
000001f0: 46c9 cd2a c231 d3bf cd8e a855 02f0 9dbf

fc2.weight f8 [3, 64]
0.19113774211175252 0.3610961062343674 0.14806447368537837 -0.4257993912532769 0.026344018341285157 0.37289895994865674 -0.0026788311298338806 0.10594028998600982
0.15780369038565403 -0.38249271345121133 0.30498087002683866 0.1390181844163194 -0.02764485308544486 -0.2455540564701749 0.046673853371189164 0.4372852312482069
0.2868054565803543 0.166978581586607 -0.6120407644103428 -0.09855000490746672 -0.10088285490708179 -0.1108757903496427 0.025196062428090395 0.14702238118624378
-0.6625073530315632 -0.11059801480291234 -0.262270357040227 -0.15442160499399302 0.11450065235271949 -0.10821879588854064 -0.11373921919094468 0.38150762863171805
-0.5649443596792648 0.5043792365018838 -0.30905805653256535 0.7353490140012163 -0.17833864763100726 0.23472780838059357 -0.7942771641420616 0.016401023869698182
0.20776710737400755 0.052505788485971115 -0.8934165038484009 0.6574779794674246 0.1490703287991617 0.27592154379398176 -0.21376403350580303 -0.04137285780165856
0.17001807271147623 0.10124718821146676 0.3080407020529571 -0.3960168174856159 -0.30377839173417936 -0.021395348186167423 0.06591961216003477 0.36373640758442943
0.07494262565403231 -0.11372718869839818 0.16012068154288525 0.38924595030113013 -0.5707851366554235 -0.0471894416766 0.22108861226418822 -0.6911365339980137
-0.14363709443774864 -0.061535017366444705 0.3246954880250897 0.03610959965500758 0.04737669987067383 -0.25339974993585884 -0.03698278147992333 0.20610894501358512
0.170984294297206 -0.07533821789213413 -0.25592915123352494 0.13798637044756348 0.17435133697440736 0.15578289862046574 0.08834184533308306 -0.4058991785773261
-0.17703544814655262 0.16458901683659002 0.0488550696905807 -0.29971109384252553 -0.13914701017712502 -0.35501594346453635 -0.004465959354479959 0.18814787468568786
0.14326363331922104 0.20488303123419774 -0.04663919829743282 0.1863953430582707 0.22544314518120265 0.2855021833135568 0.2573124402160838 -0.17924618758719246
-0.03348957526604192 -0.15798098272381955 0.0957192926214212 -0.42296052288889974 0.21475640162278292 -0.20280510046865463 -0.07152036315114794 0.09873022795554123
0.20673326151808225 -0.07251303272007728 -0.11381276770506012 -0.5090283847791284 0.16606868844100958 -0.10016396943311813 -0.27919265697851914 0.250382046781002
-0.09248005903548127 0.11344341192143137 -0.29510213611706837 0.2869920586879273 -0.08890854946586031 0.0413704027104307 -0.06070379054785684 -0.42692387004732935
0.17727427817742394 -0.005331597790687775 0.16131596422513297 -0.2002355938600491 0.16496890213463433 0.09726127381941685 -0.016116451378590507 0.14160430030529123
-0.8010323134235567 -0.10567165470104545 0.04031301597565113 -0.0198810863297236 -0.09309813664725419 -0.3215437823766674 -0.0011360887841944944 -0.11635415920604368
-0.36547204205708855 -0.09651475924031089 -0.1557448135999808 -0.4235441849172844 -0.3868265497820907 0.14289369430559049 0.042410742827637765 0.2097876839179395
-0.5331266478348993 -0.46711428790747445 0.15698637644826202 -0.12514817934598438 0.4623835955017297 -0.036052230719645424 0.0023560196138308577 -0.5304983149230382
0.14258734095964232 0.2597262660301283 -0.06921325736098638 0.2740118710777072 0.23242739903633577 0.3230838295139586 0.25743085240741775 0.02383969771271499
0.3249870128171147 -0.27687033394440597 0.09720478336920337 -0.47418418871858004 0.3408876087560771 -0.8944927694852988 0.2322903106316937 -0.01828073462103607
-0.23512236984425672 -0.054977619144858526 0.25688045527029596 -0.33120837292098154 -0.21570351002543336 -0.39527321419494116 -0.04081491734256597 0.2523869723328758
-0.9042735869080959 0.10794910515636763 -0.020396088056139294 0.3577535859510851 0.33483969602107794 0.004059818736322203 -0.03746030630230407 0.09831916060937032
-0.3490272535453757 -0.025061636664397466 -0.4324131806687216 -0.5156182254189177 0.1178554481756121 -0.11280656136533579 -0.7788973510319875 0.13288394465125497
00000000: 755c b397 3377 c83f c854 bfd7 321c d73f
00000010: b5cd 16d4 c6f3 c23f e8ba 0517 4c40 dbbf
00000020: 5659 e224 edf9 9a3f 0048 6c99 93dd d73f
00000030: b338 0383 eaf1 65bf 4294 d120 e71e bb3f
00000040: c57e b24c e932 c43f d5cc ceb7 c27a d8bf
00000050: 01f0 aa7b ce84 d33f 9806 cf0d 59cb c13f
00000060: 656c 9eaf ee4e 9cbf cb42 f8b8 506e cfbf
00000070: 1678 9da3 a2e5 a73f b707 cf31 7bfc db3f
00000080: 12ed 1446 055b d23f 4a02 86dd 8d5f c53f
00000090: abc2 5e83 d695 e3bf 3b24 19b8 923a b9bf
000000a0: 5693 8d72 75d3 b9bf 4249 7815 5b62 bcbf
000000b0: ea6b 7720 ffcc 993f 94cb 7c1f a1d1 c23f
000000c0: b329 d49e 4233 e5bf 8abe 94c8 2650 bcbf
000000d0: 55ac 8c9b 09c9 d0bf 275d 9f4f 16c4 c3bf
000000e0: a3c0 392d ea4f bd3f 365e 271d 3ab4 bbbf
000000f0: 5a9b b272 031e bdbf 9c74 09f9 9e6a d83f
00000100: 313a 9c31 0614 e2bf 46d3 b1ec df23 e03f
00000110: 1cda 5771 9bc7 d3bf 87fe c8a7 fa87 e73f
00000120: d411 9801 cdd3 c6bf 736b 3a92 8f0b ce3f
00000130: 9664 7ef1 b76a e9bf d6a8 9014 6ecb 903f
00000140: 928d add1 1c98 ca3f b3be cbe8 09e2 aa3f
00000150: 8b89 3735 de96 ecbf 50e3 7442 0f0a e53f
00000160: f088 7f8d bc14 c33f d1d8 b6d5 b2a8 d13f
00000170: e6f6 7bae 9e5c cbbf 407e 66be d22e a5bf
00000180: b22a 03f7 26c3 c53f 0322 2ef2 55eb b93f
00000190: 8ee0 4959 f0b6 d33f f611 f1eb 5658 d9bf
000001a0: abb4 6eec 1a71 d3bf 6807 fc82 a9e8 95bf
000001b0: 4371 6492 1be0 b03f 3d23 bc11 7547 d73f
000001c0: 28ac 429e 702f b33f 022a 209c 391d bdbf
000001d0: ffe8 51a1 d57e c43f f133 a9d8 67e9 d83f
000001e0: 3e4b df30 df43 e2bf b05b 6fe9 3629 a8bf
000001f0: d1aa 98b3 a14c cc3f cdf3 525d ca1d e6bf
00000200: cc21 8d47 b362 c2bf ac9b 4b8e 8481 afbf
00000210: 4d7f 8e95 cfc7 d43f be08 2e1b f57c a23f
00000220: 50eb 1241 c241 a83f 7b80 b295 b337 d0bf
00000230: 6659 f139 68ef a2bf 608a 1f25 c761 ca3f
00000240: 016d 1138 d0e2 c53f c852 fc8d 5d49 b3bf
00000250: 9906 a9a9 2461 d0bf f1d9 2e92 89a9 c13f
00000260: 86d3 2805 2551 c63f 0aed 6cab b1f0 c33f
00000270: eee9 9238 929d b63f d19f 5d8c 40fa d9bf
00000280: b9d5 02fa 18a9 c6bf 7906 4cbe 4011 c53f
00000290: 5b33 211d 8803 a93f 8754 9370 772e d3bf
000002a0: d701 06b9 91cf c1bf fc47 afca 94b8 d6bf
000002b0: b9cf f6d5 e54a 72bf b520 4bc4 3a15 c83f
000002c0: daf5 e775 7656 c23f 35ff 536f 9b39 ca3f
000002d0: 245b ccce 17e1 a7bf beee 4777 cddb c73f
000002e0: 0790 d42b 52db cc3f 362c 11f3 aa45 d23f
000002f0: 1040 e598 ce77 d03f 7051 cf00 8af1 c6bf
00000300: d295 0cad 8b25 a1bf d428 1889 b838 c4bf
00000310: 00bf 673f 0f81 b83f fca3 5303 c911 dbbf
00000320: 8eca c944 237d cb3f 68c8 fc7c 84f5 c9bf
00000330: 0773 bb94 284f b2bf ba17 325c 6246 b93f
00000340: 1498 9b4a 3c76 ca3f ca06 11d0 3690 b2bf
00000350: 1915 2963 d522 bdbf 0096 2be5 f549 e0bf
00000360: 2e33 df20 bd41 c53f c9e9 f38c 58a4 b9bf
00000370: b663 c0e0 4ade d1bf 3b84 9b6b 4206 d03f
00000380: 2fec 16ed c5ac b7bf 4032 26a0 a00a bd3f
00000390: 2a90 e611 f4e2 d2bf e4af 91f0 135e d23f
000003a0: 3d69 4af0 b5c2 b6bf e2c9 535d 802e a53f
000003b0: 16e5 4a36 9114 afbf ca0a ef7e b852 dbbf
000003c0: 61d6 986d ecb0 c63f d3c6 57e2 95d6 75bf
000003d0: 29b7 5563 00a6 c43f d9e0 8fe7 51a1 c9bf
000003e0: 583c c373 b31d c53f 18c1 3866 1de6 b83f
000003f0: bbfc 64be d480 90bf 4b60 64f7 1620 c23f
00000400: 5130 a684 0ea2 e9bf 4021 0e2d 4c0d bbbf
00000410: 69e5 6f5a e8a3 a43f f765 611e b55b 94bf
00000420: 58ef 378c 47d5 b7bf 2d8e 625f 2c94 d4bf
00000430: 8018 1a0b 1a9d 52bf 1b25 8bdc 62c9 bdbf
00000440: b933 0fd9 e463 d7bf 14b9 84f6 30b5 b8bf
00000450: 077e 7730 72ef c3bf 9a5d a811 591b dbbf
00000460: 5978 2225 c4c1 d8bf d76e ec2f 574a c23f
00000470: ec35 e362 dcb6 a53f 3efc c3a4 52da ca3f
00000480: cc76 a29d 5f0f e1bf c2a4 8353 33e5 ddbf
00000490: 6aa4 612c 2118 c43f faf3 b804 db04 c0bf
000004a0: b0c1 385d b197 dd3f c906 c71f 7075 a2bf
000004b0: 769c 1566 ee4c 633f 8eae 259a d7f9 e0bf
000004c0: d864 1f4f 4d40 c23f 01be a0ea 5a9f d03f
000004d0: 48a8 d0c4 f5b7 b1bf 3aa6 3f16 6989 d13f
000004e0: 7b17 c756 2ec0 cd3f c33f 68cc 67ad d43f
000004f0: 8f8f 0441 bf79 d03f 202e 1708 6f69 983f
00000500: c126 eb53 96cc d43f 4e86 6159 3eb8 d1bf
00000510: e1e2 95a5 69e2 b83f e8e6 b4a3 0859 debf
00000520: 0104 ce42 1ad1 d53f 9554 ee4c af9f ecbf
00000530: 849f ab5b b0bb cd3f 3e77 6055 2fb8 92bf
00000540: 3401 8564 7d18 cebf bd6c 7ac8 0626 acbf
00000550: 5185 97b8 ba70 d03f e3d8 769a 8432 d5bf
00000560: ce87 9830 2c9c cbbf cdee fc05 284c d9bf
00000570: 36bc 595e b1e5 a4bf 4dcb 06b0 1b27 d03f
00000580: 3505 4d29 cfef ecbf bc70 4774 8da2 bb3f
00000590: 3079 ab4c b6e2 94bf d6f1 eb4b 6fe5 d63f
000005a0: 030a f479 036e d53f 6efc 334b 07a1 703f
000005b0: 28de ee4c ff2d a3bf c22d 63cb 712b b93f
000005c0: 37f7 d867 7656 d6bf cc68 6ef7 c1a9 99bf
000005d0: 4637 5555 a8ac dbbf 74aa ecca f17f e0bf
000005e0: 57d6 914f c62b be3f 149d d60b e4e0 bcbf
000005f0: 0bf3 3323 baec e8bf 0c66 3852 5702 c13f

fc2.bias f8 [3]
0.22377106737097 0.6229239790839624 0.7572147487624513
00000000: 351d 13c4 87a4 cc3f efe9 c144 feee e33f
00000010: 8779 bf6c 1a3b e83f
