runs/testrun-trial-longerrun-20r-40bs-100ep/1/LocalModel-1-Round19.pt (torch, 167767 bytes, 6 tensors)

linear.weight f8 [128, 95]
-0.07770042137470637 0.08139478231069429 -0.043043197228475716 0.01589005186038182 0.10016531444650352 0.0965099104228352 -0.00021646682271035268 -0.009420652687265703
0.08010454403412234 -0.045711302937666363 0.0568820827107994 -0.07791611066230548 -0.06982977732768351 -0.011024384032921495 0.023637607070547653 0.023589707836141435
-0.05580817299224278 0.000332290411419389 0.08380370624079074 0.09085254406431882 -0.03154923493905787 -0.05777313675228283 0.08886264400242627 -0.0549394189444329
0.011526549354467572 0.016332627862670954 -0.06195221122456183 0.02448870155411423 -0.0008824494200005525 0.03683919097094975 -0.05734923797203733 0.048205955608499974
0.06232034594482254 -0.09497204984795307 -0.02772809566946732 0.022481075988374413 -0.08094115144003616 -0.09654004980424565 0.05716855338692501 -0.08627065038791451
0.07929682739707983 -0.08333963745758362 -0.08719955994862574 -0.008462212870791748 -0.06507196382914612 0.059942162029441914 -0.03075820338794797 0.021207197884605733
-0.10014330820188848 0.033343673087110046 -0.0981184254855079 0.07554840290635603 0.046571589151250606 0.04427641593775292 -0.08161431823868932 0.0895300181028889
-0.05253877545031358 0.008200082140382139 0.07007985594362123 0.09342057884736361 -0.0014209190581956598 -0.05994152658316798 -0.0033076545779086733 0.03652289648425492
-0.04043052726781134 0.07299859428079798 -0.08541732494712755 0.04878080263075802 0.033114488080279565 0.05291639517131104 0.03755633950684669 0.05040199991745082
-0.010290504890437008 0.067116993470457 -0.06778001413896657 0.06494061288655291 -0.042964349027389014 0.1002182757644444 -0.10297240417732707 -0.023126672104777174
-0.024808051137907083 0.06875482009578524 0.0053241583053840694 -0.013608139404314502 -0.017264712580222726 -0.05138598618816613 -0.0010825276552243399 0.0769910617475795
0.02426099450216313 -0.01574274484725638 0.01330517115381289 0.07643641027102535 0.05472017728958848 0.045451682643551844 0.02836476138605296 -0.06254945444708959
0.011879796001320147 0.07285062025094467 -0.0345702171502897 -0.09675580271517718 0.07834882518638134 -0.09811163065507866 -0.07690154551811133 -0.09105074295845612
-0.08183534507266114 0.09380212319619571 0.07384929170782373 -0.06759098166116238 -0.07784753481973801 -0.007176365167175988 0.02600542045461545 0.09411185152176332
0.09106752592720052 0.04922253221984278 0.016472564023711188 -0.014160537881113213 0.035398895226630755 -0.03511507993193178 -0.019681513349481535 0.08850603128087069
-0.08794776225226543 0.10061155371721532 0.019512364762436105 -0.08944110923095218 -0.02901133180495264 -0.06918575014344341 -0.08802217199728378 -0.008089155873225654
-0.07402393585874838 -0.07651221280860376 0.08461518650285937 -0.0005786639555126176 -0.0262054699637915 -0.028821406807455357 -0.08583895936249536 0.0218552712690242
0.03672121902836832 0.035764760229101154 0.0048233617794335975 0.06651132994519224 -0.0006994961821764774 0.01748176640775847 0.007687029383111081 0.05308944104545941
-0.0601633278343568 0.030170342208559443 0.07605664895652912 -0.08337995048613535 -0.02984492029213325 -0.04552748182951841 0.0654374254648033 0.05512375023978603
-0.03349153635620415 -0.03447615274004123 0.06622575866880173 0.07064106434994363 0.05273803799174417 0.08708453434027796 0.07889924437401663 -0.07250813900990602
-0.05178243095960945 0.0008323577064728239 0.06190775843078407 -0.052203059768719404 0.008842846554394304 -0.08625267433173602 -0.09814026068507732 0.07657631417435636
0.007470891322573536 -0.08346326437994078 -0.05159294959328657 -0.041780000952318 0.008005066582882633 -0.02870724115961908 -0.05688619160571542 -0.07991619452618119
-0.01780707488249697 -0.0753458366474036 0.03583067796219094 -0.05040425538781129 -0.03996700854697533 -0.04511303328375583 -0.013918317875969146 0.0332783164704688
0.0019718807649761077 0.09912702531957857 -0.10250006756445267 0.09647233190405932 0.02740677231452849 -0.020420836558296424 -0.07678886502981186 0.08214327692985535
0.06848134100437164 -0.026313312351703644 0.08078187704086304 0.031196370720863342 0.03392195701599121 0.02975645661354065 0.006555058062076569 -0.05918541178107262
-0.07547368109226227 0.06276574730873108 -0.09928613901138306 0.0513530969619751 0.08303895592689514 -0.04186059907078743 0.007965922355651855 -0.052911803126335144
-0.0862942487001419 -0.018631786108016968 -0.06637520343065262 -0.0745135173201561 0.034697532653808594 -0.017332173883914948 0.10206423699855804 -0.03341997414827347
-0.06161715090274811 0.02812059223651886 -0.05999066308140755 -0.0585753507912159 -0.03842607140541077 -0.07205244898796082 0.0028657764196395874 -0.06406636536121368
0.061439335346221924 -0.008525103330612183 0.07358814775943756 0.032777607440948486 0.05089184641838074 0.044711366295814514 -0.09293922781944275 0.08427774906158447
0.06045198440551758 0.009179800748825073 0.09615109860897064 0.07762311398983002 -0.0138922780752182 0.05665142834186554 -0.04363004118204117 -0.06568238884210587
0.0527389794588089 0.05310872197151184 -0.04296475648880005 0.03464764356613159 -0.0291537344455719 0.06873640418052673 -0.02762194722890854 0.04011961817741394
-0.06395456194877625 -0.00884196162223816 -0.007826738059520721 0.03209438920021057 0.07008685171604156 -0.05268140509724617 -0.07215557992458344 -0.10036734491586685
00000000: a295 b0c0 2ce4 b3bf 97e7 16d8 49d6 b43f
00000010: c0ba d208 c209 a6bf 5bd0 4954 7b45 903f
00000020: 1dc5 bd1d 6fa4 b93f 0987 019d dfb4 b83f
00000030: 6d0d 32d9 6b5f 2cbf 571a 9799 224b 83bf
00000040: 4e36 e33c bb81 b43f c382 59ce 7867 a7bf
00000050: bd47 f1f9 a51f ad3f 5549 206b 4ff2 b3bf
00000060: 03cc e841 5de0 b1bf 3f1f 0ac7 f393 86bf
00000070: 2778 4bf5 7434 983f 5cb4 b67e e627 983f
00000080: 98cf b38b e392 acbf 6372 2773 e8c6 353f
00000090: 3b79 96e1 2874 b53f fdbf 83c1 1c42 b73f
000000a0: a8dc 8da8 3827 a0bf b574 e0c9 7094 adbf
000000b0: 4096 d3c5 b3bf b63f 7252 41ff 0421 acbf
000000c0: e5f7 1a44 3b9b 873f 7994 1c1a 80b9 903f
000000d0: 5dae 3f42 33b8 afbf 088a 2ff1 9013 993f
000000e0: 637e 1bb3 85ea 4cbf fbd6 dc20 96dc a23f
000000f0: 27b2 141b e15c adbf e532 9f75 73ae a83f
00000100: e6b5 6acf 73e8 af3f da8b 2198 1650 b8bf
00000110: 9fa8 5200 c164 9cbf b488 9878 4705 973f
00000120: dce5 552e 8fb8 b4bf 9dd7 a944 d9b6 b8bf
00000130: 391d 5056 3245 ad3f 624f 0556 d515 b6bf
00000140: f4d5 5800 cc4c b43f dd3f 5719 bf55 b5bf
00000150: e276 34da b552 b6bf c435 41fc a254 81bf
00000160: 8e5d 8864 8ea8 b0bf 10cf 2233 bdb0 ae3f
00000170: 1a31 8a16 147f 9fbf b0ae 6af5 56b7 953f
00000180: 9bee a3e9 fda2 b9bf 0e14 e002 6c12 a13f
00000190: 9363 9804 4a1e b9bf d271 bfdf 2357 b33f
000001a0: 029d a738 3bd8 a73f a59c dffc 65ab a63f
000001b0: 2573 b80b ade4 b4bf 431f c373 70eb b63f
000001c0: cd76 a9c4 5ce6 aabf 3b8c f064 34cb 803f
000001d0: eae0 62e1 c0f0 b13f ad3d ec3a 69ea b73f
000001e0: 7056 a738 c447 57bf c0ac b1e0 a7b0 aebf
000001f0: a277 a287 a718 6bbf b5fe e80b 21b3 a23f
00000200: 7b25 c060 4fb3 a4bf 3d0a 172f 09b0 b23f
00000210: 43e3 28e9 e8dd b5bf 7187 f11f ccf9 a83f
00000220: f93b a8d6 61f4 a03f 4ab1 5d95 db17 ab3f
00000230: 53f6 e0a3 953a a33f e9cd 987a 4ace a93f
00000240: 30c5 b52f 3013 85bf 2322 f64b 942e b13f
00000250: 8d9d 0cf0 075a b1bf 35aa 87b0 f29f b03f
00000260: a3e1 ee53 6cff a5bf 17ab dea8 e7a7 b93f
00000270: 6505 5544 665c babf 88dc 6bb1 84ae 97bf
00000280: a35c 4221 4867 99bf 7ef6 c077 ea99 b13f
00000290: 3a3d cedc c8ce 753f 4786 9b8d 95de 8bbf
000002a0: 72a9 a03f d7ad 91bf 4e40 4d94 434f aabf
000002b0: 60ba 1338 73bc 51bf 9e48 4aac afb5 b33f
000002c0: e226 d2c7 dfd7 983f 28ad 12b9 dd1e 90bf
000002d0: 3456 c9d7 bd3f 8b3f 0273 562a 5691 b33f
000002e0: c5bb c777 4804 ac3f c423 0165 7145 a73f
000002f0: 493a 0cea a60b 9d3f c89e 3bb5 3d03 b0bf
00000300: 7677 783a 6f54 883f 7f9b 7897 56a6 b23f
00000310: 3af8 2600 30b3 a1bf 5323 5c00 fdc4 b8bf
00000320: f203 db29 ab0e b43f c052 0505 d81d b9bf
00000330: d71b 03d7 d1af b3bf 5d77 48fb 194f b7bf
00000340: cb73 be42 29f3 b4bf 464b 6c7b 6a03 b83f
00000350: 20c6 b784 c9e7 b23f 0f3e bd7f a44d b1bf
00000360: bdff 1fe8 d0ed b3bf 63a0 27db f664 7dbf
00000370: ce36 7c39 2aa1 9a3f 0cb5 73dc b617 b83f
00000380: d4bf 958d 3350 b73f 8697 381c b233 a93f
00000390: 966b 0d0f 2fde 903f a1c5 be38 3300 8dbf
000003a0: b035 a0d2 cd1f a23f a5e2 ce8f 9afa a1bf
000003b0: 1fef af00 6427 94bf ab9f d9cd 54a8 b63f
000003c0: b93e a19a be83 b6bf 19b0 d0c4 adc1 b93f
000003d0: 1cd2 16a2 0cfb 933f 819d 10cf 9ce5 b6bf
000003e0: a240 4385 25b5 9dbf 001f 3746 28b6 b1bf
000003f0: cf1c 0dfe 9e88 b6bf 7508 6c1f 0c91 80bf
00000400: 4b70 a28f 3bf3 b2bf 80ee c1eb 4d96 b3bf
00000410: 2854 c642 57a9 b53f e59a d461 2ff6 42bf
00000420: 0818 e251 9bd5 9abf 5ba3 a6de 5b83 9dbf
00000430: 5441 2fc3 8af9 b5bf a0f6 616d 3a61 963f
00000440: be99 97a5 1fcd a23f e308 1137 c24f a23f
00000450: 3e52 9751 a9c1 733f be95 edf2 e206 b13f
00000460: 8ca8 f19c cceb 46bf c693 fd7b bde6 913f
00000470: 1e95 dc3c 6f7c 7f3f dd38 1b0a 8a2e ab3f
00000480: 4926 ef4a bacd aebf 2a2b 6164 f9e4 9e3f
00000490: 9361 e9d3 7278 b33f 99e4 7a70 6358 b5bf
000004a0: 5dfe 6cb2 aa8f 9ebf 04d5 0dcb 604f a7bf
000004b0: cc46 4ed2 81c0 b03f 9587 0621 2e39 ac3f
000004c0: 4e75 af7a cd25 a1bf 4050 05b9 dba6 a1bf
000004d0: 7ea2 a2db 2bf4 b03f 563c 2365 8815 b23f
000004e0: c307 dce8 7a00 ab3f 1098 fa0a 2c4b b63f
000004f0: b0f8 43aa bd32 b43f 4eca bdb5 e48f b2bf
00000500: 7232 f50e 3a83 aabf c32f 5e90 5246 4b3f
00000510: ba63 a8ab 5fb2 af3f 8e62 ea04 5cba aabf
00000520: 5590 09c6 321c 823f 3185 72bf a714 b6bf
00000530: d935 105a b81f b9bf d5ee 065d 819a b33f
00000540: a653 701e cc99 7e3f 28e3 ed36 d95d b5bf
00000550: c628 6a1e 646a aabf ca21 6f33 3064 a5bf
00000560: 1e01 68d9 f564 803f dd7b c157 6e65 9dbf
00000570: 53c1 14d9 2f20 adbf 1b25 e941 6375 b4bf
00000580: f8ee 0791 043c 92bf d254 4a60 dd49 b3bf
00000590: 6c0d 150c 6658 a23f 4894 f028 96ce a9bf
000005a0: f1a4 4145 8e76 a4bf 7178 2735 0e19 a7bf
000005b0: 61af bd00 3581 8cbf 172e d001 db09 a13f
000005c0: e5ba b56c 5527 603f fcb8 e583 6360 b93f
000005d0: fbf0 06c6 713d babf c62d 7f26 69b2 b83f
000005e0: a288 1e5b 8510 9c3f 650a b324 33e9 94bf
000005f0: 0000 0060 6fa8 b3bf 0000 0080 5707 b53f
00000600: 0000 0040 fe87 b13f 0000 0080 e0f1 9abf
00000610: 0000 0000 1fae b43f 0000 0000 f1f1 9f3f
00000620: 0000 0000 385e a13f 0000 0000 7a78 9e3f
00000630: 0000 0000 7ad9 7a3f 0000 00e0 8c4d aebf
00000640: 0000 0040 3e52 b3bf 0000 0080 6a11 b03f
00000650: 0000 0000 d16a b9bf 0000 0000 f44a aa3f
00000660: 0000 0080 0a42 b53f 0000 00a0 c06e a5bf
00000670: 0000 0000 7050 803f 0000 0080 4117 abbf
00000680: 0000 0040 6117 b6bf 0000 0000 3614 93bf
00000690: 0000 0020 f7fd b0bf 0000 0060 5113 b3bf
000006a0: 0000 0000 e0c3 a13f 0000 0080 86bf 91bf
000006b0: 0000 00c0 e120 ba3f 0000 0040 6c1c a1bf
000006c0: 0000 0080 488c afbf 0000 0000 a5cb 9c3f
000006d0: 0000 00a0 18b7 aebf 0000 00a0 96fd adbf
000006e0: 0000 0000 95ac a3bf 0000 0080 0772 b2bf
000006f0: 0000 0000 f879 673f 0000 0040 a766 b0bf
00000700: 0000 0000 fa74 af3f 0000 0000 9c75 81bf
00000710: 0000 0040 acd6 b23f 0000 0000 3ac8 a03f
00000720: 0000 0000 7f0e aa3f 0000 0080 68e4 a63f
00000730: 0000 0080 ddca b7bf 0000 0000 3a93 b53f
00000740: 0000 0000 90f3 ae3f 0000 0000 dccc 823f
00000750: 0000 00c0 5b9d b83f 0000 00c0 1bdf b33f
00000760: 0000 0000 8e73 8cbf 0000 0080 6a01 ad3f
00000770: 0000 0040 ad56 a6bf 0000 00a0 8fd0 b0bf
00000780: 0000 0080 9a00 ab3f 0000 0000 1131 ab3f
00000790: 0000 0000 7aff a5bf 0000 0000 56bd a13f
000007a0: 0000 0000 7ada 9dbf 0000 0080 b598 b13f
000007b0: 0000 0080 ed48 9cbf 0000 0000 8f8a a43f
000007c0: 0000 0080 535f b0bf 0000 0000 bc1b 82bf
000007d0: 0000 0000 7707 80bf 0000 0000 ad6e a03f
000007e0: 0000 0040 36f1 b13f 0000 00a0 0ef9 aabf
000007f0: 0000 00c0 c978 b2bf 0000 00a0 acb1 b9bf

linear.bias f8 [128]
0.06752389268047151 -0.06507941829806463 -0.01189488172531128 0.03159649331651872 -0.0003210529685020447 -0.02859460452274854 -0.058590398211008615 0.06527623304712481
-0.08746273070573807 0.021513648185674927 -0.02055897538534569 0.09508869479681496 0.042955943526140926 -0.05913487836384933 0.02584959004702308 -0.07338421638008323
-0.0984501859001767 -0.0321827025076887 0.08979006111621857 -0.0905242564195503 -0.07625118049467575 -0.04837297231663348 0.009708220343590767 -0.05820095609099384
-0.042271714221637856 0.0952860563993454 -0.06669452802009515 -0.04432600122156699 -0.014043994079955584 -0.09598547220230103 0.06643408496850771 0.02570326378189559
-0.04391458501910615 -0.048991181351584846 -0.015027853476243528 -0.027565188705921173 -0.0950511172413826 0.005314470992563973 0.00783427751471457 0.02601243250852613
0.09761969110426265 -0.06011870503425598 -0.0862188437180712 -0.014035418288408692 0.05818457490869 -0.0033424628213900944 0.0019860885257637242 0.06710055897901603
0.04726554023018631 -0.08255107700824738 0.0929283511732437 -0.025843107753946288 -0.017494874070241046 -0.024302750261045582 -0.0526420958340168 -0.0780564397573471
-0.04501411188754898 -0.03108747880344102 0.03596705198287964 0.060579529023920636 0.08501162903845146 -0.056132788803709095 0.006725148191586948 0.04385564997006478
-0.00739808392879053 0.028112535460491497 -0.015278682044590215 -0.03559849292202398 0.03114713728427887 -0.08634658363782342 -0.09902966022491455 0.034744992852211
-0.037825047969818115 -0.005982346832752228 -0.08170336981086847 -0.04967590048909187 -0.08014536786283537 0.08976763762033042 0.049299706166376064 0.09557152218106757
0.056745126843452454 -0.019485873156957805 0.09762869775295258 0.01855644396515163 0.03364717636240092 -0.04121828029423891 -0.07539103925228119 -0.05677090204122649
-0.05845177758435701 0.006181915902914397 -0.016589195458786822 0.06421426685566203 -0.06760423630865896 -0.07697111151936394 0.07266829756980367 -0.014030583202838898
0.06719738884172902 -0.06180365571949703 0.01741476138669997 -0.004232449407440041 0.07751116696458667 0.007198142793564085 0.015474032260996685 -0.0368338851446509
0.09902295158457419 0.02127756445445707 0.02362056076526642 -0.03350844829721015 0.09383193707157848 -0.04917538636962941 0.06367075703201144 -0.07321492896367444
0.09066558453907128 0.08711710598168042 0.03924161147363865 -0.0011966982455320577 0.07144393774496954 0.011732392013072968 0.09518133669767655 -0.0978150190184543
-0.05790879652867453 -0.03292710437740669 -0.08504533767700195 -0.04057602314034616 -0.028926086619044784 -0.021433357952871903 0.09565607378197578 0.05915506184101105
00000000: 8ee0 c2ee 3e49 b13f c89e 3b75 0ba9 b0bf
00000010: 0000 0000 585c 88bf 02eb ec62 6a2d a03f
00000020: 0000 0000 600a 35bf 42ac 116d e747 9dbf
00000030: 6c0f 5a88 8fff adbf cfba 2476 f1b5 b03f
00000040: 0000 0020 f563 b6bf 6320 807d ac07 963f
00000050: 8364 ad7b 690d 95bf 2b24 5f92 bb57 b83f
00000060: 8b29 3a49 52fe a53f ee57 4041 ed46 aebf
00000070: 4ec7 779f 5078 9a3f ab21 65d9 4ec9 b2bf
00000080: fef3 b908 0834 b9bf 4beb 884d 407a a0bf
00000090: 0000 0040 7bfc b63f 5f12 d100 992c b7bf
000000a0: e28a 8186 3285 b3bf 3b73 389c 57c4 a8bf
000000b0: 0651 0647 e7e1 833f cf74 0306 84cc adbf
000000c0: 0b6e 415c a3a4 a5bf 0000 00c0 aa64 b83f
000000d0: 7a20 ab80 e412 b1bf 28da 37cb e5b1 a6bf
000000e0: b6a0 3afa 18c3 8cbf 0000 0000 8192 b8bf
000000f0: 7388 47fe d201 b13f a3f3 5fd5 f451 9a3f
00000100: 0eee f2f4 f87b a6bf bd19 6543 5f15 a9bf
00000110: 6226 ad59 ecc6 8ebf 0000 0080 0c3a 9cbf
00000120: 0000 0020 4555 b8bf 6bd6 bc71 a0c4 753f
00000130: cc38 b5ed 6a0b 803f 9d73 a7cb 00a3 9a3f
00000140: c309 bda4 9afd b83f 0000 0000 e1c7 aebf
00000150: c86b 112a 7012 b6bf 3771 46f4 99be 8cbf
00000160: e09d ba5c 5eca ad3f 55e0 3010 a761 6bbf
00000170: a7d4 7b28 2145 603f 89b2 5b92 802d b13f
00000180: 8868 085b 3033 a83f 0000 0040 1122 b5bf
00000190: 6f08 2905 27ca b73f 0554 859a 9d76 9abf
000001a0: d5d3 ea1f 2dea 91bf c7d2 4bf6 d1e2 98bf
000001b0: 0000 00a0 e7f3 aabf 0000 00c0 81fb b3bf
000001c0: 6dbd d4f4 160c a7bf 4b7e 1a63 65d5 9fbf
000001d0: 0000 0000 466a a23f 24fd edaf 4704 af3f
000001e0: 0df5 7f76 52c3 b53f 6158 4ad8 6fbd acbf
000001f0: 58aa b238 d48b 7b3f 5585 bb6c 3f74 a63f
00000200: b07c 6f08 744d 7ebf 574d a451 88c9 9c3f
00000210: 64f4 a8fd 6d4a 8fbf 4e22 c635 f739 a2bf
00000220: 0000 0000 09e5 9f3f 0f85 d848 cf1a b6bf
00000230: 0000 0000 025a b9bf 0000 0080 18ca a13f
00000240: 0000 0000 ce5d a3bf 0000 0000 f280 78bf
00000250: 5188 4f15 83ea b4bf 0000 00a0 1e6f a9bf
00000260: 8b92 e525 6884 b4bf 1d89 d10b 03fb b63f
00000270: c6bd 5fa3 cf3d a93f f055 3212 6077 b83f
00000280: 0000 0080 b20d ad3f fbc5 c5cf 1af4 93bf
00000290: 0000 00c0 31fe b83f 986e d7df 7500 933f
000002a0: 4594 28e4 333a a13f 60e4 b8fb 8f1a a5bf
000002b0: 0000 00c0 d34c b3bf 5252 435f 1311 adbf
000002c0: ab5a 3c32 64ed adbf 0601 136a 3552 793f
000002d0: 2a8a d90f c2fc 90bf 52e9 14a0 5870 b03f
000002e0: 7749 04e0 824e b1bf 4562 b6f6 60b4 b3bf
000002f0: 82af 84b9 639a b23f 0000 0000 11bc 8cbf
00000300: 92aa 731b d933 b13f a84d 2d90 baa4 afbf
00000310: 067c 7eda 2cd5 913f 7243 977c 0b56 71bf
00000320: cd0c 3097 c5d7 b33f d6a6 3ebe cc7b 7d3f
00000330: da5f fc73 d9b0 8f3f 2e6b 2918 e4db a2bf
00000340: 70f0 9b72 9159 b93f 25b7 e12d c9c9 953f
00000350: 0000 0000 fd2f 983f e506 27f3 0428 a1bf
00000360: 4bf2 0aad 5e05 b83f e691 7328 842d a9bf
00000370: 42ff 290b ba4c b03f 995a 7aad 36be b2bf
00000380: 1ad1 7718 dc35 b73f 3f0d 1d81 4e4d b63f
00000390: 1ade d7fb 7917 a43f 68b4 f9f4 509b 53bf
000003a0: dcb2 1c60 264a b23f 0000 0000 2707 883f
000003b0: 9d5b 4ed8 cd5d b83f cceb bdb3 670a b9bf
000003c0: 9095 7bc6 38a6 adbf c6e7 e748 d2db a0bf
000003d0: 0000 0000 88c5 b5bf f36f c768 61c6 a4bf
000003e0: 32c8 1ed0 cc9e 9dbf 17df cd4d a0f2 95bf
000003f0: 6dae 8e9c ea7c b83f 0000 0080 9249 ae3f

linear2.weight f8 [64, 128]
0.0587327960664255 -0.04978239259285463 -0.07980796694755554 -0.02097481736499071 0.012645073235034943 -0.03678184715359263 0.06914245830634054 -0.0005283737660985445
-0.02128402143716812 0.06231274304988669 0.005827625272637171 0.029172082696380552 -0.03659438171474945 -0.06605785927963852 -0.08029007315353985 0.0715080499308024
0.010051057985010884 -0.03885571038544738 0.033761732280254364 0.017213284328589464 -0.04563122008102117 0.08187853379017702 -0.06214007074415615 -0.06587447023878086
-0.027325136150262393 0.06412609666585922 -0.05345720891445302 0.0146011125006403 0.021983201672051096 -0.010331541299819946 0.061688892197382016 -0.06999637579856784
0.0005288424701591302 -0.03369003825282414 0.004869327864196078 -0.01091136783361435 0.02793172001838684 0.041377159953755474 0.019826553761959076 -0.09181509738258388
-0.02151445320391044 -0.06621591001749039 -0.02189403963114708 -0.009175272325038758 0.01520054571831889 0.07702965651295127 -0.048533084992184075 0.0021371830480255483
0.07664098269567665 0.054075874388217926 -0.040629804134368896 -0.0003927269244185119 0.03982750793483092 0.011979879193164912 0.08742479234933853 0.04201667755842209
0.02536827413290359 0.010838899109030877 -0.041871629655361176 0.06980103258216114 0.006448489341938477 -0.05211112096630842 0.05879717756131453 -0.06524550995574374
-0.035793866357893216 -0.06476020650515475 -0.03432439376400143 -0.06649432136804166 -0.032105445861816406 -0.016230657561970754 -0.06390675902366638 0.04647260159254074
-0.025155968964099884 -0.057003673166036606 -0.08324307330767292 -0.01077357679605484 0.015311886407472483 0.028861734997821204 -0.089967356878512 0.051395105125372945
-0.07438834011554718 -0.03838549509963425 -0.06292207539081573 -0.020128727099249785 0.0025235829858147063 -0.03336949954254696 -0.001781851053237915 -0.038253065048747585
-0.01784197760676226 0.02056070409142713 0.05522622780206371 -0.004445543591305817 -0.0021641656216772834 -0.042984137135085185 -0.05737151883899537 0.08714691549539566
0.03166628652936568 0.06013267364613467 -0.0472134930702548 -0.08092186821685954 0.06561983564014226 -0.08569169065529034 -0.08795330133484015 0.002741016803452535
-0.08457060786572537 -0.07637837536605661 0.05557020753622055 -0.07123857196521295 0.024553054042556758 -0.015501720976837087 -0.06601647749688697 0.07644772212125288
-0.037261524418277625 -0.08288912140129813 -0.06076833860328217 -0.035310202280999 -0.06727296796806821 0.00560973584651947 0.0681613123084766 0.004413610181750859
0.0043524745098758285 -0.0398935527032406 -0.01024780422449112 -0.06553260796293729 0.025432570712527153 -0.048750990075423765 -0.03104124253984543 0.005564071238040924
0.02126560127944147 0.01572686811620334 -0.08217309415340424 0.023962798961369724 -0.009131655097007751 0.04631442386216116 -0.012208806024661806 -0.0594588560252347
0.013390041887760162 -0.08113521905554819 0.06690191141094344 0.04176741149045082 0.04777333924560544 0.03372511988090237 0.009071867093573147 -0.06091000493811801
-0.04913230873265746 0.013478933754133325 0.019219204783439636 1.797829171203536e-05 0.07351587873594312 0.054625747802445626 -0.09377964430485519 0.008378875722258858
-0.02959771005472599 -0.007650382816791534 0.04072758941857274 0.03779393698998347 0.08155773568251119 -0.08683203160762787 -0.0352350234135373 -0.018374755833506333
0.06587080663677382 -0.0015603714578055297 -0.07696266829184742 0.012824788689613342 -0.07124398648738861 0.08911967504998936 -0.07236564474116117 0.074390760276682
0.0743025821480261 0.034773439168930054 -0.030781140699554423 -0.041801028499426116 0.05942813978483684 0.00921454493624616 0.012189359469199803 0.06619447381446945
-0.06557811695023186 -0.059433504939079285 -0.02828627102499987 0.004688645102827724 0.011463214409107546 -0.08387925491827436 -0.04425780475139618 0.012031197547912598
-0.02729527078969909 -0.061527528472118655 -0.02699265256524086 0.01644683310624313 -0.07672356879046312 0.0034417382291443413 -0.04635303333950091 -0.04110812364282235
0.08238903723421727 -0.08183910870210788 0.018145558963431764 -0.023416362095316147 0.023402750492095947 -0.015796519197118244 0.010933749377727509 -0.03474554419517517
-0.08632754534482956 0.017101630568504333 -0.03700545374430781 -0.00850774347782135 0.06165038084855203 0.012565632957800422 -0.0370976535881719 0.055606792810020816
0.008723720908164978 0.09052091108109862 0.03519096225500107 -0.0513329280348038 0.06738267990478605 0.06107642231044402 0.003091752529144287 0.021408004551661232
0.06788909844731682 -0.017522177778030848 -0.037796609723069224 0.04963060666572772 -0.009074283230913879 0.0367036950653989 -0.048654599399133934 -0.0796065479516983
-0.04907756452277232 0.06630434611476083 0.016435824139194383 0.08722926922008671 0.021693185002706422 0.004443145269274258 0.06233052251395714 0.06991302001017202
0.008211720698735377 -0.05466124926861125 -0.07709164917469025 -0.06081524341753598 0.03848681282298256 -0.0738160286682059 0.07650137547350538 0.062061979553537636
-0.018384973129106304 -0.07535748079982894 0.051704158267716245 0.023607116364088146 -0.0373916301291835 -0.027879782021045685 -0.060174463282081966 0.030763925503701894
-0.0392744066385477 0.012681537874977004 -0.03702879697084427 -0.04981411781853163 0.03041281791900958 -0.039023718768731785 0.030044019638436933 -0.034904595464468
00000000: a7a9 9d9c 3912 ae3f fbb4 34e8 137d a9bf
00000010: 0000 0080 4b6e b4bf 1824 7d2a 6c7a 95bf
00000020: 0000 0000 a9e5 893f cae8 38fd 11d5 a2bf
00000030: b5d6 30f5 51b3 b13f 018e d105 5250 41bf
00000040: 0000 0080 7acb 95bf e5ef 0bb3 74e7 af3f
00000050: a65f 593f b5de 773f 3074 8c54 49df 9d3f
00000060: ea47 5db1 7fbc a2bf 0bf4 3ff9 2ae9 b0bf
00000070: 7f4d 63e6 e38d b4bf 0881 daff 594e b23f
00000080: 22c3 af2a a695 843f 9797 bc4a e5e4 a3bf
00000090: 0000 00c0 3749 a13f 7afe fdf4 5ba0 913f
000000a0: 8160 d9ab f95c a7bf bd8c dfd8 fdf5 b43f
000000b0: bd0b 3cc7 d2d0 afbf a51f 5137 26dd b0bf
000000c0: 721a 7fd8 1efb 9bbf 0000 0060 916a b03f
000000d0: acc8 0b48 be5e abbf 2c5b 6725 30e7 8d3f
000000e0: f2a8 f8b0 c382 963f 0000 0000 b428 85bf
000000f0: 8b48 07bd af95 af3f 35b4 e450 48eb b1bf
00000100: d0d2 998e 4054 413f 9265 fe18 d23f a1bf
00000110: 3b32 e23e dcf1 733f 0000 0000 b358 86bf
00000120: 0000 0000 229a 9c3f d200 9b19 632f a53f
00000130: 0000 0080 694d 943f 6989 89b8 3181 b7bf
00000140: c2c4 9b83 e207 96bf 0000 00a0 86f3 b0bf
00000150: 37bd c520 646b 96bf b021 8b34 7cca 82bf
00000160: 92a8 eeb5 7621 8f3f ca94 8b2f 37b8 b33f
00000170: 9a7e a119 54d9 a8bf cdac 7f69 ff81 613f
00000180: 6013 3652 be9e b33f 0000 0040 d5af ab3f
00000190: 0000 0000 6ecd a4bf 2359 f04b ddbc 39bf
000001a0: 0060 1f68 4564 a43f 87e4 c12a e888 883f
000001b0: 0000 00a0 7861 b63f 0000 00c0 3583 a53f
000001c0: 4df2 060f 24fa 993f ee5c 9569 b432 863f
000001d0: 0000 00c0 3270 a5bf 8cdb 2a00 7bde b13f
000001e0: bdd0 502d bb69 7a3f aecb 9d10 4fae aabf
000001f0: a026 72e5 a91a ae3f d883 7803 eeb3 b0bf
00000200: a720 cfda 9253 a2bf b597 05f9 1f94 b0bf
00000210: 61c3 5789 f792 a1bf 673c a597 c505 b1bf
00000220: 0000 0000 2070 a0bf 6759 affd c49e 90bf
00000230: 0000 0080 315c b0bf 0000 00c0 41cb a73f
00000240: 0000 0080 7cc2 99bf 0000 00e0 952f adbf
00000250: aa98 7905 6b4f b5bf 0000 0000 7510 86bf
00000260: 389c e19a d65b 8f3f 6593 af3f ee8d 9d3f
00000270: 7132 80c7 1908 b7bf 223c 608f 7550 aa3f
00000280: 0000 0040 1d0b b3bf 1af9 2f7c 43a7 a3bf
00000290: 0000 0040 a91b b0bf efd1 6702 a09c 94bf
000002a0: 45f3 914c 56ac 643f 4e31 709a ce15 a1bf
000002b0: 0000 0000 a031 5dbf df56 b6de e795 a3bf
000002c0: d09d 44d9 2a45 92bf 9024 9f7e dd0d 953f
000002d0: 8826 95b4 9c46 ac3f 2dd0 6685 7d35 72bf
000002e0: b4f3 2e92 95ba 61bf 7ee3 7b4e 0402 a6bf
000002f0: 5e4a 45ba cc5f adbf 0000 00a0 424f b63f
00000300: 540c 0f42 9036 a03f 785e 76b5 b5c9 ae3f
00000310: 6055 55f1 5d2c a8bf 50cb 85a9 4bb7 b4bf
00000320: 1e16 0b28 76cc b03f 9646 e700 e4ef b5bf
00000330: 71f1 ce88 1b84 b6bf 366a ea30 5474 663f
00000340: 1273 fc5a 6ba6 b5bf 879e 5180 888d b3bf
00000350: 0000 00c0 b273 ac3f b5e8 cde8 b03c b2bf
00000360: 91d0 8490 6f24 993f 7492 04c5 5dbf 8fbf
00000370: cea3 d8b3 74e6 b0bf 5b4e 5df2 1392 b33f
00000380: 781c 8d49 f113 a3bf 21dd 9cb1 3838 b5bf
00000390: 37e0 dd15 071d afbf 7e29 06c8 2d14 a2bf
000003a0: b5e4 531d cd38 b1bf 0000 0000 3cfa 763f
000003b0: 33a4 370f 0573 b13f cce3 3476 0114 723f
000003c0: 5d50 d37a e6d3 713f f403 5d80 ed6c a4bf
000003d0: 0000 0000 cdfc 84bf 53bc 05b8 bec6 b0bf
000003e0: c5a2 daed fe0a 9a3f a70a 0bc8 e3f5 a8bf
000003f0: 44b3 2486 46c9 9fbf 0000 0000 5aca 763f
00000400: 8993 1958 a6c6 953f 930f e940 b41a 903f
00000410: 0000 00c0 4b09 b5bf b356 7037 b489 983f
00000420: 0000 0000 9eb3 82bf 8762 a42f 86b6 a73f
00000430: ca04 cb34 ee00 89bf 5f02 2c24 6471 aebf
00000440: 0000 0000 3d6c 8b3f 66ba 6518 47c5 b4bf
00000450: adc5 8cd1 7b20 b13f 10b6 c7c4 8962 a53f
00000460: 1e76 5c43 bf75 a83f 2762 e23d 6b44 a13f
00000470: 582d d863 4594 823f 6bb5 6a9e 982f afbf
00000480: 0a13 5eb6 de27 a9bf 3989 45dd d79a 8b3f
00000490: 0000 0000 33ae 933f 9d14 8fcc 02da f23e
000004a0: 0057 e8c6 efd1 b23f 1a7f a9f0 e7f7 ab3f
000004b0: b8e2 5159 f101 b8bf 5882 a2a9 f128 813f
000004c0: fdda e2b2 dc4e 9ebf 0000 0000 0256 7fbf
000004d0: d803 3221 3fda a43f 32d7 b716 ba59 a33f
000004e0: ad00 7ebf f7e0 b43f 0000 00c0 9f3a b6bf
000004f0: a949 7832 530a a2bf bef0 81fd d4d0 92bf
00000500: 091e 44c0 e8dc b03f 2a72 6018 ac90 59bf
00000510: b28d 534f d3b3 b3bf 0000 0000 e243 8a3f
00000520: 0000 00c0 0b3d b2bf fc14 c509 8cd0 b63f
00000530: f269 840d 8e86 b2bf 0f4f 83da 450b b33f
00000540: 4089 5578 7e05 b33f 0000 0000 d3cd a13f
00000550: 077a 8d62 1785 9fbf de3a b0c4 f166 a5bf
00000560: 1e0d ad79 5d6d ae3f 7389 3049 13df 823f
00000570: a136 3c22 bcf6 883f eb85 35fc 1ef2 b03f
00000580: 306f a23b bac9 b0bf 0000 0080 116e aebf
00000590: 91a4 e983 13f7 9cbf 702f 1196 6634 733f
000005a0: 6c06 f497 067a 873f 74d4 af60 1c79 b5bf
000005b0: 0000 0080 f5a8 a6bf 0000 0000 d0a3 883f
000005c0: 6746 829d 4af3 9bbf a5d3 2e45 8980 afbf
000005d0: 0000 0040 f6a3 9bbf 539f 4149 70d7 903f
000005e0: 0596 c9e2 27a4 b3bf 7e92 5624 d931 6c3f
000005f0: 8ff0 86b4 95bb a7bf 60ac 4abd 1f0c a5bf
00000600: ad4a 78ac 7217 b53f a9ca 6867 68f3 b4bf
00000610: 2a27 43d9 bf94 923f 9a0d 9075 75fa 97bf
00000620: 0000 0000 e4f6 973f 2779 5e75 f62c 90bf
00000630: 0000 0000 6f64 863f 0000 0000 2bca a1bf
00000640: 0000 00e0 8f19 b6bf 0000 0000 1783 913f
00000650: 99fc 35fb 60f2 a2bf 0000 0000 826c 81bf
00000660: 839a 0f83 a390 af3f 34bc dbb4 02bc 893f
00000670: 57cd d6b1 76fe a2bf c4e5 1b59 7e78 ac3f
00000680: 0000 0000 bedd 813f 998b b2e0 602c b73f
00000690: 0000 00c0 8c04 a23f 5c1c 3c3e 4f48 aabf
000006a0: 3e05 82c6 fd3f b13f d894 c2a8 6845 af3f
000006b0: 0000 0000 e053 693f da21 b0dd faeb 953f
000006c0: ef0d 9611 2e61 b13f d49c 0b72 55f1 91bf
000006d0: 540d 52c5 135a a3bf e016 05d1 2e69 a93f
000006e0: 0bfb b0ad 8995 82bf 5a80 e5a3 d3ca a23f
000006f0: 0b43 7072 41e9 a8bf 0000 0040 1861 b4bf
00000700: 1d6e 2fcd b120 a9bf 9443 2556 52f9 b03f
00000710: b580 a47c 8dd4 903f 73e3 8d4a a854 b63f
00000720: f8e2 8700 bd36 963f 8870 f7b9 f932 723f
00000730: 36e6 7a47 c9e9 af3f cc1e 82d6 d1e5 b13f
00000740: 9e77 c27e 4ed1 803f 6e33 ef2b 8ffc abbf
00000750: 0000 0040 47bc b3bf a237 27f3 2c23 afbf
00000760: c9d0 cd24 8bb4 a33f 5ff0 0c75 9be5 b2bf
00000770: 14fa c119 9895 b33f 6ed2 0379 96c6 af3f
00000780: ef34 4fa9 82d3 92bf 8f51 8bbb a04a b3bf
00000790: 0173 a7a9 f778 aa3f d44d f2c2 762c 983f
000007a0: c712 19e9 fe24 a3bf 0000 0080 848c 9cbf
000007b0: 7ea8 b3ef 2fcf aebf 636b bd17 9480 9f3f
000007c0: 182c 2a68 c61b a4bf a2f3 7c33 c7f8 893f
000007d0: 0000 0040 70f5 a2bf 21c2 d16d 3c81 a9bf
000007e0: 928a 5da9 8924 9f3f f08f c2b7 eafa a3bf
000007f0: 1c5e 2607 dcc3 9e3f 0000 00e0 03df a1bf

linear2.bias f8 [64]
-0.03663535778670311 0.0041514616166696576 0.023335151675784944 -0.017767468001656635 -0.07138093469245214 -0.0796509142286292 0.026851329857395103 -0.05539026639692117
-0.06426575386084478 -0.03885013054518601 0.03936743122566627 -0.0786975887901553 -0.0385649552647346 -0.03499923661468883 -0.04459350278115065 -0.07877736260314966
0.0445431700682555 0.012248215916684544 -0.07856137172482103 -0.011885352329937178 -0.02715294426314726 0.049114619550556377 0.021854487539178142 -0.017495385209532407
0.041452521412971115 -0.07609172707316464 -0.025897396668686543 0.0917306180390333 -0.06391999370372181 -0.013781951833594444 -0.03394111585653357 -0.012447271787997757
0.01257632842434479 0.07555597531213956 -0.007483947236597947 0.06040928670937141 0.02918057467157799 -0.08074878758710366 0.040820162851986336 0.004848887174924461
0.014712480661620396 0.025462251605520736 0.05550141985295086 -0.0346079756992854 0.041961078844380974 0.07431007015163933 0.014100752398292444 0.07855890235237471
-0.082128398806411 -0.05172284148547443 0.0731614055327137 0.028180429059622224 -0.03701987795774017 -0.050637106511649536 -0.055474007991009454 0.026411205529620136
0.028432047265981687 -0.027277244274839758 -0.053919894951987575 0.06200935539991135 0.008770483912163974 -0.03876506478219055 0.06829690531733464 0.054769003132427725
00000000: 9e6d 249f dec1 a2bf 63b4 fc7d 1f01 713f
00000010: c5c4 2d85 2be5 973f 82d6 ff97 a231 92bf
00000020: d3de 0f5c 0546 b2bf dd5d b597 0064 b4bf
00000030: b7d1 5d3e ea7e 9b3f d60c 62ed 1c5c acbf
00000040: 09ca 156f b873 b0bf 5b18 4610 2ae4 a3bf
00000050: 8895 48cb f727 a43f bfb5 2072 8625 b4bf
00000060: 5379 442b c9be a3bf 8e44 4a81 6beb a1bf
00000070: e845 1ea8 f5d4 a6bf 74b0 0bd4 c02a b4bf
00000080: 031a 68c5 5cce a63f f23e 5fb6 9715 893f
00000090: 3079 491a 991c b4bf 11d8 77fc 5857 88bf
000000a0: 76bc 663e fbcd 9bbf 2c43 7329 8d25 a93f
000000b0: f5a5 01d5 0561 963f 5c34 396d 4fea 91bf
000000c0: 0764 9ccf 4339 a53f 9c80 4657 bf7a b3bf
000000d0: a964 f9de d884 9abf fbfe 8464 a87b b73f
000000e0: 609c 848a 0f5d b0bf 08e3 3343 b639 8cbf
000000f0: ede6 2fdd ba60 a1bf feee 078a f47d 89bf
00000100: 1660 4a3a 9ec1 893f 62a7 fbea a257 b33f
00000110: f8d2 04ca 7ca7 7ebf 5137 954d f7ed ae3f
00000120: e457 9237 83e1 9d3f b6d5 e0d9 f3ab b4bf
00000130: 14f0 ee60 61e6 a43f 61a7 693d 6ddc 733f
00000140: 9f0c 47ba 9321 8e3f 4083 b6c7 c612 9a3f
00000150: 5ecb 4c9e ae6a ac3f 9d4e 9ef7 22b8 a1bf
00000160: 45d8 ae2a ec7b a53f e593 1019 fc05 b33f
00000170: bd80 32f3 dae0 8c3f 5fc1 69ac 6f1c b43f
00000180: 0146 f2e2 5d06 b5bf bcc9 4591 6a7b aabf
00000190: 73a7 17b4 b4ba b23f d615 cb94 54db 9c3f
000001a0: 7cc4 42fa 44f4 a2bf 1ffb dc58 1bed a9bf
000001b0: 43e8 32d4 1667 acbf b598 fdff 890b 9b3f
000001c0: ddb1 a964 4a1d 9d3f 957d 57e0 90ee 9bbf
000001d0: 7157 d872 639b abbf ad31 fab2 b0bf af3f
000001e0: 4d2c 956c 42f6 813f 5004 efba 03d9 a3bf
000001f0: a586 c1ee e77b b13f e19b 93ca ae0a ac3f

linear3.weight f8 [3, 64]
-0.0563686742355914 0.08372000355775776 0.12843264887580041 0.004223667923550027 -0.04641301371929561 -0.04891584902327056 0.046435400274876415 0.018970850368369038
-0.218724055678317 0.20318350588493847 0.08828070664385042 0.1320705545566134 0.03073737806837332 0.14769548737353239 -0.1377180625879319 0.09308373909597235
0.02965676922204389 -0.2073519121292839 0.048657304592380234 -0.13838220849141206 0.11325314696927063 0.09399382266489945 -0.0825395594248746 0.1346405616476382
-0.11678763879393961 -0.025728066727978356 -0.03758932161103475 -0.04459023412266556 -0.025410027284630213 0.1294634298957545 -0.1751630786049087 0.006372497342082137
-0.1396647825744645 0.11902226838963816 0.130090276698009 0.07362422164923665 0.09829314097465423 0.06809977449609277 -0.08661872573784828 -0.06393762839127123
0.12303967750224676 -0.06153613052678959 0.09930453721663694 -0.0862090746729522 0.05565867862509842 -0.15745335395074886 0.014738404751379827 -0.15342024316666855
-0.10973477089752091 0.09027715346362863 0.14777659240103083 0.01614005224552345 -0.01831508636260798 0.11307398085087053 0.1931057116635574 0.11820225360737684
-0.09598306118673355 -0.0862989252421908 0.04616180558144958 0.004546597052830664 0.1492520215168384 0.021512403354418296 0.1574472566710175 0.13512411084157055
0.06694721252981232 0.08023690082570292 0.07174704213931925 -0.11195523031611222 -0.004525006892019334 0.012739911969822021 0.025721825273414305 0.0395629739885446
0.02588239691699204 0.1670154391694973 -0.09107161303763561 0.05639990116024169 -0.13664769794034504 0.13047309568876866 -0.08367767834765033 -0.029708457012292286
-0.005965636425599017 0.028139942436599626 -0.05473151416052275 0.09215689333801727 0.09417371107415048 -0.0018930949505193027 0.1521586872073979 0.07783196481666126
0.11263934512240123 -0.07277897916281911 0.09672420599163026 -0.1404588068898161 -0.15092566948190608 0.026575263280962765 0.026234562656232478 -0.03187119213660487
-0.05128326529643241 0.10907558962695899 0.009422872687177768 -0.07198131130818335 -0.08589565534661958 0.09705026604405151 0.1333851294817782 -0.1303088258815212
-0.0004173406318390857 -0.13852379902556505 0.09334392052302147 0.09483569275962145 -0.02167388412163851 0.08768772524448873 0.1720047897882668 0.11033619094168692
-0.01776526786098306 -0.2299429437840549 -0.03722625049048258 -0.14405442800956939 0.070994747296499 0.04975075061337286 -0.0118611591051883 0.06675692471809566
-0.09514162422442844 -0.019636703465925096 -0.0056291942334248295 0.09464454732692971 0.1213308810516613 -0.10672881240621712 -0.02292353776519073 -0.15857745115053667
-0.06916704308548063 0.024314498929222432 -0.09097803622328846 -0.05167571054235162 0.08589946773102729 -0.010730087164156828 0.1093411380657921 0.044391237822652224
0.02390749232989896 -0.156198213347817 0.03892058964993465 -0.10343572766662218 -0.02967629950516404 -0.0024347694188453406 0.1602967630121885 -0.037677603756119254
0.02498194562133328 0.031072627027012353 0.02647585129463562 0.07769764047840706 -0.04563091406797245 -0.09777658001311731 0.1470558408177507 -0.0888547283743178
0.1103076081847453 0.21751826920699055 0.0975384278065998 0.11442790816183433 0.14218970079199603 0.0770271653065971 0.031955175437353385 0.023892066495763285
-0.07929275072166997 -0.29242056805382716 -0.032778888468476895 0.07393373777505917 0.05163563524255526 -0.1355181576341843 0.1278103108909664 0.1367530805211514
0.01607442306878542 0.07730300134686535 0.04799072220533471 0.09160324126544216 0.09263074468969286 0.08121533824090534 -0.13101644285450362 0.10571010114752201
-0.060611758216631936 0.10604924750426448 -0.16798707634849183 -0.035549529689635526 -0.13403065802422956 0.07385923326506498 -0.16671493691773004 -0.1455453387468444
0.09177336872071698 -0.01521389633823304 -0.19767657671152708 -0.10692733553328591 -0.24266130043856254 0.04931927331724123 -0.05641037161387973 -0.001238256318268695
00000000: 4ab3 b8d8 5adc acbf e733 4d95 ac6e b53f
00000010: e481 5425 7b70 c03f 9eec 9c39 d64c 713f
00000020: 2efc 1050 72c3 a7bf 183e 9f87 7f0b a9bf
00000030: a851 1d7b 61c6 a73f 0f48 a337 186d 933f
00000040: 4051 fe5c 26ff cbbf 3f64 6ec8 ea01 ca3f
00000050: 0d32 e77b 9099 b63f 17e9 4a1c b0e7 c03f
00000060: 0918 4686 9e79 9f3f 029f 048c afe7 c23f
00000070: 661b 71d7 bea0 c1bf 99e3 34ff 55d4 b73f
00000080: 6aa0 a717 585e 9e3f 16de ade8 818a cabf
00000090: 0b1f df37 9ce9 a83f add0 e819 82b6 c1bf
000000a0: f4ef 6682 28fe bc3f 1a2c 5faa fa0f b83f
000000b0: 6328 5b04 5021 b5bf 4eef 7ee4 e63b c13f
000000c0: a870 3271 cbe5 bdbf a56f be54 7558 9abf
000000d0: bb16 ff55 e83e a3bf f93f 8efa 87d4 a6bf
000000e0: b139 b610 1605 9abf 9212 b7f6 4192 c03f
000000f0: be91 0967 be6b c6bf 9774 d93a 0c1a 7a3f
00000100: 1db7 c71c 89e0 c1bf d9ae 3a4e 3e78 be3f
00000110: 7007 f955 cca6 c03f 104b 2d78 09d9 b23f
00000120: 0742 e841 bd29 b93f a360 53a0 fc6e b13f
00000130: 8be7 4312 a52c b6bf a69f ec66 375e b0bf
00000140: 8887 fb3e 877f bf3f fa17 45e8 a981 afbf
00000150: 5b9b b0ab 056c b93f 6db8 5644 cc11 b6bf
00000160: eee2 dd58 4b7f ac3f db96 ee76 6e27 c4bf
00000170: de16 3833 2b2f 8e3f 9bfc 7847 46a3 c3bf
00000180: df28 3df4 9317 bcbf 30c7 b34d 671c b73f
00000190: 2106 bde7 57ea c23f f075 3392 0487 903f
000001a0: f0a2 cda3 30c1 92bf f273 c899 6af2 bc3f
000001b0: 3c05 221e b0b7 c83f 73a3 8ebd 8042 be3f
000001c0: 4c59 c48c 5892 b8bf 4c5c 98b5 af17 b6bf
000001d0: b4e0 972a 85a2 a73f f963 66da 739f 723f
000001e0: 356b a3b3 b01a c33f 835c 76f3 5807 963f
000001f0: aa9b 1f51 3b27 c43f 9699 7b32 bf4b c13f
00000200: 43b8 5fd8 7323 b13f f291 fad0 678a b43f
00000210: 57b7 929f 035e b23f d1e7 d214 19a9 bcbf
00000220: 33ab d849 d088 72bf b04b 1d0a 6217 8a3f
00000230: 6bf7 5e79 d256 9a3f c39b d31e 9941 a43f
00000240: 28c9 3341 ea80 9a3f 1e7d 940c c360 c53f
00000250: 5c32 971f 7850 b7bf a934 f6a5 72e0 ac3f
00000260: b01d ddf8 ab7d c1bf addd 7ea7 57b3 c03f
00000270: a48a e87b e66b b5bf fc31 21cd e46b 9ebf
00000280: 977b 9055 6c6f 78bf 52f4 e791 b7d0 9c3f
00000290: 2990 c2de c405 acbf d2dc fc1a 9897 b73f
000002a0: 8ed8 34b1 c41b b83f cc1e a539 3704 5fbf
000002b0: 28d5 ad94 ef79 c33f 5392 78af cbec b33f
000002c0: 6e27 8b9f eed5 bc3f d42f 57a7 a4a1 b2bf
000002d0: d232 77e5 eac2 b83f c272 03df 8dfa c1bf
000002e0: d79d 4647 8851 c3bf 2f82 b2ba 8b36 9b3f
000002f0: 2195 88b2 3bdd 9a3f 668f d2bf 6b51 a0bf
00000300: 697f 8fd6 cc41 aabf 5a5d 3dba 60ec bb3f
00000310: b6d6 3490 4c4c 833f 63e9 fd01 5e6d b2bf
00000320: 480c 95f6 41fd b5bf 5e30 ba46 49d8 b83f
00000330: adcf 7290 c312 c13f 0e49 c5a8 f5ad c0bf
00000340: 2e51 735d d059 3bbf 4228 44d9 25bb c1bf
00000350: cb42 ed1d 63e5 b73f 6065 e5e6 2647 b83f
00000360: a03e ebbd ad31 96bf de8a 2fe8 b372 b63f
00000370: d7ae 72c1 4004 c63f d2e5 a81b fe3e bc3f
00000380: 17d3 def1 0e31 92bf 44ce bf37 c56e cdbf
00000390: 4393 d1b0 510f a3bf 3592 9220 6070 c2bf
000003a0: f784 d335 b62c b23f 90f9 ab2d ee78 a93f
000003b0: 1972 98d3 a94a 88bf fe1c 7258 fb16 b13f
000003c0: fb40 8894 335b b8bf 4ce5 bfdc a41b 94bf
000003d0: 3590 2a52 a30e 77bf 1f8e 8303 a03a b83f
000003e0: bd9b 1c66 8a0f bf3f f05b d356 9452 bbbf
000003f0: 9e5b 0a94 4479 97bf 408c 4913 444c c4bf
00000400: 9a5e 036c eeb4 b1bf 9ee8 e066 e6e5 983f
00000410: 56bb 3b2a 564a b7bf 0cce 8d1d 3d75 aabf
00000420: a708 a6ec 81fd b53f d152 a0eb a7f9 85bf
00000430: 7499 19e4 c7fd bb3f 74c0 5ac5 72ba a63f
00000440: fdc1 bea6 347b 983f 6fe1 0295 4dfe c3bf
00000450: b600 6047 66ed a33f 3cec 908b c37a babf
00000460: 002a 5dbf 7663 9ebf e929 dfe0 14f2 63bf
00000470: a760 65b5 9a84 c43f fc2d d997 7a4a a3bf
00000480: a37e bcfd dd94 993f cffc 86b3 80d1 9f3f
00000490: 69e1 c64d 7c1c 9b3f 8dc4 d418 fee3 b33f
000004a0: fb90 3767 ef5c a7bf ca97 78cd e207 b9bf
000004b0: 28bf 7fcd b9d2 c23f c570 76f8 2ebf b6bf
000004c0: 5a49 a791 1e3d bc3f ef65 437e a3d7 cb3f
000004d0: ae58 8845 47f8 b83f 6705 4ebb 254b bd3f
000004e0: 1d65 5da9 4533 c23f 453a e563 0db8 b33f
000004f0: f1fb e1c2 6d5c a03f a9c1 ee70 2977 983f
00000500: e8d1 289b 874c b4bf f302 1ec2 04b7 d2bf
00000510: 7353 f1fb 64c8 a0bf 879e d049 52ed b23f
00000520: 5794 5969 fc6f aa3f 84c8 86b3 a858 c1bf
00000530: 3c24 af98 165c c03f c798 3bfc 1f81 c13f
00000540: 6eae 8745 d075 903f bcdc aa26 21ca b33f
00000550: 4c44 c46c 3d92 a83f ef52 715d 4f73 b73f
00000560: 05de 0b03 a6b6 b73f e1a2 ad45 87ca b43f
00000570: 3330 a694 25c5 c0bf d913 4933 d10f bb3f
00000580: c644 961e 8108 afbf 70d5 cb21 0b26 bb3f
00000590: 77a1 88bb 9980 c5bf de71 cf46 8c33 a2bf
000005a0: f50d 70a6 ea27 c1bf 138f 614f 70e8 b23f
000005b0: 467e e840 ea56 c5bf 4860 00cb 3aa1 c2bf
000005c0: 429a 4ca1 757e b73f d653 bd99 7628 8fbf
000005d0: a5a3 1450 774d c9bf 27f4 2901 975f bbbf
000005e0: f2b8 b186 860f cfbf e889 eb33 6040 a93f
000005f0: 7f40 79fa d1e1 acbf 3aa0 0699 9f49 54bf

linear3.bias f8 [3]
-0.14215873283141872 -0.034182626496222335 0.11845253856023813
00000000: fa05 2de2 4132 c2bf 780a c99d 6280 a1bf
00000010: 1c91 3ed3 e752 be3f
