runs/testrun-debuging-20bs-50ep/0/LocalModel-0-Round3.pt (torch, 167767 bytes, 6 tensors)

linear.weight f8 [128, 95]
00000000: f38b 31cc e4d8 c63f fb92 82b2 b828 cc3f
00000010: 43c4 eb40 1ce9 d3bf 17a5 bb6b 53f1 c43f
00000020: 5c79 fa84 263c a53f e7ef 4036 b87b c83f
00000030: 87a6 3ea4 bde8 a43f f6ed 881e 2182 983f
00000040: e7a0 5c32 3bab c2bf 6423 2660 0665 bb3f
00000050: 3a23 a106 4465 b23f 8fbc 9891 9cc3 a03f
00000060: 5aa9 25d8 16d5 b93f 14f1 67dd 7941 d4bf
00000070: f183 2e2c f95f be3f 7c80 4fb1 ce49 a03f
00000080: 2dc6 ef35 01b6 d43f 5f89 d8c0 dcc6 d23f
00000090: b0f4 bec8 b3ca c6bf 41bd 1520 7876 d2bf
000000a0: 5eb2 9e5a a336 d33f 5a4e 2089 2606 be3f
000000b0: 0088 50e0 6e15 cdbf df00 d1ea 7dbb c8bf
000000c0: 5771 3e81 7ad5 d13f f194 29f8 6707 cb3f
000000d0: 70b4 5c24 6863 b3bf 7442 6679 f28f d43f
000000e0: 0b45 7e6f 7a0b b53f f76f 7ed4 aba0 c4bf
000000f0: 82f1 44bb 67af b93f ee8d 6625 b4a3 aa3f
00000100: 8a34 83f9 c283 d4bf 9524 67da 80fe be3f
00000110: b9b6 395b c41e b5bf 9c6d accc 8dc8 a23f
00000120: f19e f18c 308b 783f a90e 6e4d ccdd c43f
00000130: a65e a9e9 b883 d5bf d7de cf28 24bc c7bf
00000140: 30ae e37b ccd5 b13f acea 21cd 1592 b73f
00000150: a672 6010 97d6 d13f f764 965b 5ecd cebf
00000160: 62e6 66aa 96f4 c0bf a663 4f7c f1d6 d23f
00000170: 1e5f ca4a 461a cc3f e76c 920f f0c8 c53f
00000180: ac3b 5c99 faa4 cebf 1372 067b dc15 853f
00000190: a760 f150 eb48 b2bf 8336 0d2e 94e8 d13f
000001a0: 0250 2333 1235 c83f 753d af41 cf69 cabf
000001b0: 27c6 ef1e e657 b73f 7194 a94b 6ab7 c83f
000001c0: 7f3b da79 845d b6bf 9573 be32 b73d c6bf
000001d0: 9f1c fa1e 0ba1 bebf 3dcd 0278 33d1 8f3f
000001e0: 0222 9d71 4b97 c03f 6dee bf31 280e d3bf
000001f0: 6e0a 662a 5447 aebf ae7e 18ac e09f b6bf
00000200: 0af1 1f2a d84e d5bf e68f a8a6 94ce d73f
00000210: 989e 5686 d5a2 c53f a002 6031 28b3 d1bf
00000220: 0d51 f572 8cf1 d53f f69c 5614 16db 67bf
00000230: ab9c c52b fe69 cb3f 0e88 3154 5bb5 b6bf
00000240: e120 b36c 455a c2bf 44dd d1c0 4571 cfbf
00000250: 3b2d e753 c89b 843f 9470 dd04 2599 bcbf
00000260: b6d4 32da 6e1b b93f 6cce 9c7c 57fc d1bf
00000270: 8d1b 86f1 9635 d4bf 539b b5e0 c136 d03f
00000280: 5351 f66b 5bf9 cebf 2ffc 45c9 aaef ba3f
00000290: 6cdf 3f2f 5d32 c0bf 6953 a83e 9d42 d2bf
000002a0: 0355 1a19 fd46 a8bf 6a8d 139a 2646 b43f
000002b0: 2f90 ae59 8762 d2bf ade0 f24b 5622 d1bf
000002c0: 62d9 ca5f 4a33 c73f df20 08b1 7b61 cb3f
000002d0: 35a7 0da7 8307 d03f 4a36 b814 238a b2bf
000002e0: 00b4 7be4 6054 c9bf a51c 21eb 3313 d0bf
000002f0: ecbf 385a d081 d3bf 611e dd66 1f7d d4bf
00000300: a5e3 ea35 5958 d5bf 802b 80de 28f8 b3bf
00000310: b630 27eb 62fa bc3f 82ea 8ff7 3ae7 cdbf
00000320: 4c9a 1bd3 95cb c3bf b769 4d00 0517 bebf
00000330: db69 a197 8ee8 c43f b3fc 08eb 467b d53f
00000340: 7b84 2e48 84c5 ac3f 250c 842e 49a2 bbbf
00000350: 7827 dae4 c55f c83f 6db9 b75b a962 a4bf
00000360: 1716 e76e bd49 d1bf af4c 5a63 b57f d1bf
00000370: 97c2 33b1 d7e3 bfbf efec b9a5 723d d13f
00000380: 3f3f 711c 04c6 cd3f 8e06 2a09 dc99 d33f
00000390: 4dda 2b79 eabd babf b96a 10dd 319b c2bf
000003a0: 18ad 8994 1636 b93f eebb f053 0349 c13f
000003b0: 1f0e 37ac 4cb9 d03f e6b7 82ab d895 b5bf
000003c0: 4db2 dd93 7769 cdbf 8912 c4a6 43f0 d3bf
000003d0: 33ba 66a8 1d5c 95bf 4398 1081 28d0 753f
000003e0: cb7d 0899 c9d7 c4bf af42 1ff2 1ddd bebf
000003f0: 80bc 0003 7895 d2bf 13b8 b4d5 a6a0 ca3f
00000400: 1e04 2306 8fcd d5bf c86a f083 0f97 d13f
00000410: b285 99a9 0557 93bf caf2 05ff f1e3 c33f
00000420: 45fe 30c1 40fe cc3f 57d6 0c75 7b50 cbbf
00000430: 0f7a f624 2070 d53f dd70 2dae d661 c13f
00000440: b263 864a e2c6 d33f 2550 e30f 8a34 ca3f
00000450: 05fc db34 cc65 cbbf 2bb9 d502 e91f cd3f
00000460: cd7e dc23 ddf3 d1bf d93d 670d 428b c6bf
00000470: 6c00 c864 21ca d3bf f51d df52 0655 c83f
00000480: 86c3 41a1 031e cabf 6568 8e42 8794 ce3f
00000490: 9343 df6a a48b d23f 2791 5368 fcf4 c3bf
000004a0: 4d65 3734 93c5 b5bf bb5c 5277 5bbd 843f
000004b0: 1b26 7ff1 7bca 9fbf 99bd 2355 dacd c03f
000004c0: 5143 9eec fb8f ca3f 15b4 951d d9c5 ce3f
000004d0: 90b4 38a8 1447 c63f 64db 1bc6 5737 c3bf
000004e0: ca07 74f5 6770 d53f 6b6f 4dad e691 c0bf
000004f0: 9c07 1f2a 0963 d5bf 5542 a1d6 4379 c93f
00000500: 9102 1310 5bb0 cf3f 03e6 ee09 577b d53f
00000510: c1d2 6c24 a4b9 89bf 2ce4 c00e 1c25 b53f
00000520: 1bb8 5e87 2a53 d13f 92ef 8883 3b5e d43f
00000530: 789f 0b95 3676 d5bf 2fd6 7a95 b231 d2bf
00000540: 0409 4816 63f9 d33f 49c1 9fe7 d786 d53f
00000550: bbdd c915 1b6d d13f 36ff 9f2e 90a2 b53f
00000560: 6606 4141 40ed b3bf f8bf 8dd0 1090 d1bf
00000570: cfc4 faf4 50f3 c0bf f7f5 f8e4 ad7b b6bf
00000580: 7412 f83f 2c06 c83f f30d 80de 7eaf d53f
00000590: 7772 7a86 b0f2 cc3f 5bbc a8d9 e982 96bf
000005a0: 38db 1b30 30ea af3f 2f23 1607 b18f d3bf
000005b0: b742 ae92 66cb d43f d4f9 1205 bc3f d43f
000005c0: e32d 2c7e 34d2 bd3f d7d0 0c3e 2bda 8f3f
000005d0: d0c7 3470 d5da d4bf b474 e378 d4f5 d43f
000005e0: 8ea8 7dfd 1f50 91bf c1bc b0ba a6c1 c6bf
000005f0: 0000 004b 8c39 d3bf 0000 00c8 b38b bc3f
00000600: 0000 00fc cbbf c43f 0000 0000 d4cd b53f
00000610: 0000 0050 e0e0 aebf 0000 009a 0d95 d43f
00000620: 0000 0088 eb7f a8bf 0000 001c 5185 bfbf
00000630: 0000 00ee 4015 c0bf 0000 0050 d409 ba3f
00000640: 0000 00a4 9e35 ce3f 0000 00ac f7db c03f
00000650: 0000 00fd 59e5 c4bf 0000 00c0 05b6 a13f
00000660: 0000 0080 eb5f cfbf 0000 009c b564 c63f
00000670: 0000 0068 5a5a cf3f 0000 005a 451e d23f
00000680: 0000 008c 13cd c73f 0000 00a0 1723 a03f
00000690: 0000 00b0 7b5f aabf 0000 008b 9d18 c3bf
000006a0: 0000 00c5 a1b2 d3bf 0000 0032 90b7 ccbf
000006b0: 0000 0020 76d9 bd3f 0000 0088 d23e a53f
000006c0: 0000 00e0 8967 c3bf 0000 00a0 f1b2 a8bf
000006d0: 0000 00c5 271d d4bf 0000 0006 286b d5bf
000006e0: 0000 00ae dd37 c8bf 0000 00d8 53f6 b9bf
000006f0: 0000 00d8 82a1 d23f 0000 0006 72ce cfbf
00000700: 0000 00c4 4111 c33f 0000 00ec 725b c53f
00000710: 0000 00d8 880a a0bf 0000 00a0 cd5b 953f
00000720: 0000 00ae 1ec5 d33f 0000 0028 5ef0 b3bf
00000730: 0000 0009 3f56 d3bf 0000 0038 cee4 ca3f
00000740: 0000 004b 7423 d1bf 0000 0006 906e d03f
00000750: 0000 007c 0d4f d23f 0000 0058 4ffd ce3f
00000760: 0000 0010 2e75 d03f 0000 00f0 883f b13f
00000770: 0000 0006 7af3 d3bf 0000 00e0 18cf af3f
00000780: 0000 0010 8e0e b43f 0000 0046 8939 d2bf
00000790: 0000 00b4 a451 ccbf 0000 00cd e7a3 d0bf
000007a0: 0000 00f0 c325 aa3f 0000 00d0 35b0 b6bf
000007b0: 0000 00f1 4354 c3bf 0000 00e4 c3b6 cfbf
000007c0: 0000 00b0 a241 aabf 0000 006c a443 c23f
000007d0: 0000 0074 5b84 c23f 0000 0050 d359 9cbf
000007e0: 0000 0000 1e54 75bf 0000 00d4 c470 cd3f
000007f0: 0000 0078 b3d6 c83f 0000 00e8 b6ca b43f
0.17849407167804507 0.21999272075949947 -0.3111029275888237 0.1636146808662395 0.04147453664085063 0.1912756218824818 0.0408381712907842 0.023933904160214646
-0.14585056265901317 0.10701026770960947 0.07185769235469489 0.03274239804556444 0.10090773369816955 -0.316496340004748 0.1186519368043404 0.03181310572085835
0.32360868708846874 0.29338759262659225 -0.17806098272368365 -0.2884807885484016 0.30020984506226067 0.11728134963805684 -0.22721658661708943 -0.19322179761548505
0.27865469571567786 0.21116351716333484 -0.07573557746646187 0.3212858377019423 0.08220639440539317 -0.16115329623869432 0.10033272096638338 0.05203021008062679
-0.32054209104973863 0.12107091266729449 -0.08250071742232991 0.03668635486084357 0.005992116594917483 0.16301873951680548 -0.336164692101628 -0.1854291152264895
0.06966856026308998 0.09207283266179428 0.27872253989498075 -0.24064235183758573 -0.13246424980552535 0.29436909808787914 0.21955183650856552 0.17019463310575775
-0.23940975654883567 0.010295603279524312 -0.07142515875000531 0.27982048508861385 0.18911960122079569 -0.2063540526128055 0.09118498091972836 0.19309738821462788
-0.08736446356691195 -0.1737584111951064 -0.1196448279025497 0.015535738086646428 0.12961714789913975 -0.2977390752637124 -0.05913794534264559 -0.08837703897051583
-0.3329372798323368 0.3719836833499798 0.16903180179109678 -0.2765598756960035 0.34286795832055433 -0.002912085651320613 0.21417214524556036 -0.08870478444580973
-0.14337985808948076 -0.24564430155781214 0.010062756596104996 -0.11171180123114005 0.09807484461892355 -0.2810267178458392 -0.3157708510047364 0.25334212250020477
-0.2419847752722811 0.10521953023815976 -0.12653698737244257 -0.28531581038378434 -0.047416600527109075 0.07919541608457839 -0.28726371534344514 -0.26772077004307954
0.1812527625786045 0.21391245025757308 0.25045863450815214 -0.07242030387734491 -0.19788752705008505 -0.2511720462975496 -0.304798210246189 -0.3201368813065298
-0.33351736321815856 -0.07800536567826377 0.1131955932716576 -0.23361908996578867 -0.15465042884825875 -0.11753875024206804 0.16334707645258004 0.33564923241278705
0.05619443303226831 -0.10794503579749966 0.19042276071951014 -0.039815227933888454 -0.2701257308038704 -0.2734197111360101 -0.12457035137391369 0.2693754785938855
0.23260547055041944 0.3062658395284438 -0.10446038683208166 -0.14536116880556962 0.09848157049571105 0.13504067991877328 0.26130978410603406 -0.0843177241065117
-0.22978110046405434 -0.31153956685765444 -0.020859206584356648 0.0053254682725648065 -0.1628353116256974 -0.120561477290958 -0.29037285130738866 0.20802770075664564
-0.34067130660338474 0.27484500775032616 -0.018886650539916956 0.15539383842760507 0.22650918420002789 -0.2133936234983362 0.3349686013188213 0.13579829697380932
0.3090139129431534 0.20472837234285737 -0.21404411870022969 0.22753632200642335 -0.28050926687317884 -0.17612481741387745 -0.30921206323546957 0.19009474798643536
-0.2040409600627095 0.23890772580927258 0.2897730868981451 -0.15591387838424817 -0.08504600548567005 0.010126795367155208 -0.031045853247439675 0.1312821307869683
0.2075190453874947 0.24041284508294383 0.17404421056690866 -0.15012643025667238 0.3349857232097945 -0.12945254766497824 -0.3341696654643955 0.199013213920369
0.24756944928050875 0.3356530758861426 -0.012561113702397876 0.08259749756042883 0.27070105762220614 0.3182514938850939 -0.33534016185011906 -0.28428330037727084
0.3120963780967403 0.33635518664870695 0.27228428962504453 0.08451176775269861 -0.07783891289820985 -0.2744180714280442 -0.13242542230503893 -0.08782469597004892
0.18768838046539182 0.3388364003041879 0.22615629736255347 -0.021983770284517905 0.062333589432390146 -0.3056452340320445 0.32491459202087064 0.31639004226226786
0.11648872452149521 0.015552842932813267 -0.3258565517199914 0.3275042706062081 -0.016907214972356636 -0.17778476825467318 -0.3003874523565173 0.11150668747723103
0.1621031742542982 0.08517193794250488 -0.06030941940844059 0.3215974811464548 -0.04785095248371363 -0.12312800344079733 -0.12564860936254263 0.10171248391270638
0.23601134307682514 0.13171287439763546 -0.1632492528297007 0.03459184616804123 -0.2451147437095642 0.1749484073370695 0.24494485929608345 0.2830975893884897
0.1859459336847067 0.03151773288846016 -0.05150972865521908 -0.1491887024603784 -0.30777782667428255 -0.22435190621763468 0.11659944802522659 0.041494921781122684
-0.15159724652767181 -0.04824023321270943 -0.31427950132638216 -0.3346653040498495 -0.18920489307492971 -0.10141490958631039 0.2911078557372093 -0.2484877137467265
0.1489641387015581 0.1668532993644476 -0.03133037220686674 0.02085801400244236 0.30890624038875103 -0.07788647152483463 -0.30213905218988657 0.21010759100317955
-0.2677889568731189 0.2567482050508261 0.2860749922692776 0.2421054057776928 0.25715209543704987 0.06737571582198143 -0.31173563562333584 0.062126901000738144
0.0783470906317234 -0.28476173244416714 -0.22124155797064304 -0.26000399608165026 0.05106937699019909 -0.08862625434994698 -0.15100907580927014 -0.2477650512009859
-0.0512820091098547 0.14268927834928036 0.14466422237455845 -0.0276864068582654 -0.005207173526287079 0.23000393249094486 0.19405215606093407 0.08121817745268345

linear.bias f8 [128]
00000000: 334a e4be 4739 cdbf 2fb6 c083 09f4 a1bf
00000010: 0000 00f0 6b05 a1bf 6038 c80b 7814 d1bf
00000020: 0000 002d 9472 c7bf a321 39bd 1d58 d53f
00000030: 6bc9 9f4b f19c ba3f 60df ee64 68c9 bdbf
00000040: 170c 565c bb87 d33f e54c 00d5 32c7 9a3f
00000050: 0000 0078 facf c73f 2223 85b2 703d c4bf
00000060: 04a5 6362 f64e d4bf 0000 003c f14c c33f
00000070: bbc3 e880 c441 b5bf 5298 db30 55f4 adbf
00000080: c4a6 9b38 db69 c6bf 19a1 b0d9 3dda d33f
00000090: 0000 0006 4319 d33f c0e3 fc8a bba7 bdbf
000000a0: 0000 0028 7b47 c83f 7e05 39e1 0538 b9bf
000000b0: 1cf1 7e77 20c6 c33f 3640 a317 7a53 d2bf
000000c0: 4bf6 617b 2501 c43f 0000 0058 2be7 c6bf
000000d0: 5e39 5659 a998 a6bf a8fb 2c7a 7e0d c13f
000000e0: d975 6950 fde3 d0bf 555f eabf a314 b03f
000000f0: 0000 0008 0f22 c23f ddca c096 9826 c9bf
00000100: 23f2 064a bf62 bbbf 84b8 a2ff d285 c9bf
00000110: 36af 7a18 65ec bf3f 39ec 78fe 5c08 cf3f
00000120: 0000 0054 84ad cf3f 40fd 55ec b8b5 bb3f
00000130: 43f6 0b3f 7ced 97bf e077 9896 6450 c33f
00000140: da61 bb09 5bb1 aabf 5d87 f52f d9f0 c43f
00000150: 3381 ef29 8167 d5bf c572 ac61 3023 cb3f
00000160: ddb2 7a1e 9f7c c4bf dd6a 54bc ee60 d2bf
00000170: e93a d67e 14a1 ccbf 8fd5 359c 5dc4 783f
00000180: 591f b366 2ec6 9fbf f5bc 8d6b 913b bcbf
00000190: 5fe9 4bd3 cbe2 cbbf 5c2b 0c2e 55a8 d4bf
000001a0: cb38 81bd d573 d1bf 421e 152e e45b 8c3f
000001b0: e755 cab4 0a56 ccbf 699d 7f6c e56a d1bf
000001c0: 8b5c a0ce a688 b83f a2eb a67c f684 d43f
000001d0: 2c5a 17e7 86d1 d4bf 38ea a27b 6941 b3bf
000001e0: 7e1d d9dc 76ca d1bf 0000 0014 93e1 c63f
000001f0: 2d0c a262 0c2f c6bf 7764 4f4c 9457 b4bf
00000200: aa4e 9dea 1acc d3bf c3dc 866c 84ae d5bf
00000210: 4e75 5a19 e078 d03f 0000 0082 731e d33f
00000220: fd9f 7bfc 4510 d0bf 0000 0034 4b3c d4bf
00000230: b6cc 9007 e74d d43f 9bdc d5d6 7b5f bfbf
00000240: 31d9 7947 1c2e ac3f 652c 796d 82b3 a9bf
00000250: dbea c465 0edc a3bf 0321 1253 7c24 c6bf
00000260: f83b 10fd 84b3 903f 0000 00f8 a535 ca3f
00000270: 8e13 0ab6 79db d03f 0b97 fb92 fa2e d2bf
00000280: bf0c c419 dfb3 d2bf bcc6 50ba 4dd6 c0bf
00000290: 0000 00e0 6954 ac3f d8e4 7c08 52be a33f
000002a0: 4cd3 3241 d47c b9bf 28ca 18f3 f306 d13f
000002b0: b644 3ae8 ca68 bb3f 0000 0074 80dd d53f
000002c0: 0e12 dccb 9892 d1bf 0000 00b0 ac0e 93bf
000002d0: 0000 0075 704f c9bf 9ec2 1b67 50d5 be3f
000002e0: 0000 0066 2bc7 d03f 4c98 2c01 b3c2 cbbf
000002f0: 2138 3c1d f1dd c23f 0000 0028 f97b bd3f
00000300: fb1a 55f5 6d80 d5bf 2cfc 4f3c 9d8a d43f
00000310: 5238 9928 2f7d bc3f 0000 008c b8c7 ca3f
00000320: 8cc3 ca8e 74f0 babf 3baa 3bdb 4bb4 d53f
00000330: c1ea 285a 1e0a c03f bc7e da9e c324 d13f
00000340: 7f11 d96c 2c59 d4bf d9c0 f9c2 43b8 cdbf
00000350: 8240 ed9e c6c0 863f 0000 00c0 2fda 8dbf
00000360: 48ba a998 1dad 9cbf a798 e045 3e1b d3bf
00000370: cdb5 1bad baf4 8d3f 6ab3 222f 74fc d43f
00000380: 17c8 81ec e3d7 d43f 0000 00a8 319c cd3f
00000390: 733f 7745 5d9d d23f 3584 c4b6 92ad b63f
000003a0: 0000 007c d52e d0bf e618 144b affc bebf
000003b0: f30e a4d5 1e4d 9fbf 9ce6 409b ddd8 aebf
000003c0: 0000 0018 2943 abbf e3cc 24da efd7 c5bf
000003d0: 0000 0074 9944 d43f 50b2 3cd3 c314 c5bf
000003e0: 6e9f cec2 a80f c8bf fb4f 8c9c 737b c1bf
000003f0: e32b 5a22 e6ef c6bf 0c92 da37 9e21 b23f
-0.2283105547035845 -0.03506498082456876 -0.03324448876082897 -0.2668743243274374 -0.18318416783586144 0.33350318411660335 0.10395725342076438 -0.11635448898493683
0.30515941636275684 0.026150507212219138 0.18603449687361717 -0.15812500683593905 -0.3173194847900762 0.15078559331595898 -0.08303478381345901 -0.05850473615082365
-0.175105478897697 0.3101954103353975 0.29841685853898525 -0.11584064620264112 0.18968142941594124 -0.09851109264947941 0.15448385081061466 -0.28634502704972264
0.1562849857763687 -0.17892972752451897 -0.04413346496140734 0.1332243057786091 -0.26391537525873116 0.06281493602216177 0.14166438952088356 -0.1964903579806422
-0.10697551305106194 -0.19939649088104627 0.12470084998738859 0.24244272637756284 0.24748281575739384 0.10824161310118985 -0.023366872165743634 0.15089089730548633
-0.052134365976318 0.16360010949852724 -0.3344424161459926 0.21201138276309997 -0.1600531481575648 -0.28716629401757904 -0.22366577332692053 0.006046643891172278
-0.03102943898991781 -0.11028393626996887 -0.21785877053464284 -0.322774214714334 -0.2726950026161716 0.013847143799139098 -0.22137578799872346 -0.27214942546421256
0.09583513779249324 0.32061540768671126 -0.3252885109663193 -0.07521685856310334 -0.2779824406356609 0.1787589881569147 -0.17331080261291856 -0.07946135390320018
-0.30933258925981966 -0.33877668951340584 0.2573776481238682 0.2987335938960314 -0.2509932485249918 -0.3161800391972065 0.31725478876905855 -0.12255071635250873
0.055039294934362444 -0.05019767366737752 -0.0387882708768836 -0.17298845344726752 0.016309812494053916 0.20476221665740013 0.26339571740418755 -0.2841173587206504
-0.292228484308179 -0.1315400275939761 0.0553315244615078 0.038561404739491045 -0.09956099120865963 0.2660493730537916 0.10706775827044876 0.34164439514279366
-0.274572562295618 -0.018610666505992413 -0.1977367945946753 0.1204424144486986 0.262156343087554 -0.21687924916585855 0.14739812781812225 0.11517293192446232
-0.33596371610876447 0.3209603394497573 0.11128515950369547 0.20921999774873257 -0.105231556760158 0.33912941369513633 0.12530879404387998 0.267868905191772
-0.31794272069625856 -0.23218581218998827 0.01110987827783583 -0.014576314017176628 -0.028004133646783808 -0.2985377962489885 0.014626940162510227 0.3279085598285777
0.3256768998754764 0.23132916167378426 0.29085475715418524 0.08858601533985751 -0.2528585158288479 -0.12104316313716232 -0.030567628659823275 -0.06024830360588604
-0.05324676912277937 -0.1706523718981777 0.3166869767010212 -0.16469619573890038 -0.1879778815466539 -0.13657994407606097 -0.17919613530497633 0.07082547057741112

linear2.weight f8 [64, 128]
00000000: a643 c05e 3f12 cf3f 030a 1076 ab87 d13f
00000010: 0000 0080 f4dd 9f3f 1494 d333 b212 d2bf
00000020: 0000 009e 5913 cc3f c640 4a18 1ec8 cabf
00000030: 02e9 62a2 713e d3bf 9467 4464 c51f 743f
00000040: 7f81 6fcd 2e33 bdbf 7082 ef51 2afd babf
00000050: 0000 005e 5ee4 c63f 4dfc 7df2 160c d43f
00000060: eade 7e3f 9f3f d3bf 0000 0060 084a c4bf
00000070: e1d2 273d 0390 cd3f eda3 9f9f aacd a8bf
00000080: 1cdc 2104 cfa0 c73f ccdd 6a6c 3fd5 72bf
00000090: 0000 007e f1eb cc3f e969 8934 38fc 923f
000000a0: 0000 0039 2345 c6bf 4940 b071 22d2 cc3f
000000b0: 34ca 6cad 120c ccbf d240 1e7e bbf4 a9bf
000000c0: d6a5 0872 372d abbf 0000 0020 d8d1 8abf
000000d0: 214f 360a 8a5d c33f 85e4 e681 7e24 cf3f
000000e0: 93c9 4213 9111 cebf 531d af25 fc17 d23f
000000f0: 0000 009a 72db babf fa9b ba4c 3b94 d13f
00000100: 16fa 2da9 d0db c9bf 2153 5afc 4379 65bf
00000110: 1d00 cdcf c883 953f 189a ed83 bf2d cdbf
00000120: 0000 00a0 2050 d0bf 0985 3b77 67f0 c3bf
00000130: 4a05 55c6 afdf a53f 5eef c72a fb6c d0bf
00000140: 6ea7 c1bc e16f b1bf d20e bba7 d08b 973f
00000150: 0e09 e94a ab78 d2bf 8be2 fad2 20b0 c43f
00000160: 3b4f 5fe0 ef71 cbbf 2d28 6de4 359b 503f
00000170: 9eb7 9018 e070 d4bf 75a3 14c2 e985 ba3f
00000180: 3b5c 4004 5c4c 563f 4553 9dd8 900f ccbf
00000190: c4e7 17ff 3b6c d1bf 3636 1d5b 9a43 c4bf
000001a0: 0ccf 30fa 30b9 cbbf b640 92e2 0977 c3bf
000001b0: 03b8 148e 931c c1bf 6a0d a291 902d b1bf
000001c0: c9ab 55dc ec4e b83f fefb b97a 21a1 ca3f
000001d0: b369 f1fc 7c49 d1bf 41ce 6f4f 4853 8d3f
000001e0: ba18 bda5 a8c5 a93f 0000 00a6 6690 c43f
000001f0: 1874 8d16 60e0 cb3f 57b7 8b78 8a46 c2bf
00000200: 5702 e998 5d3d ca3f adc5 5323 8556 a9bf
00000210: 54b0 70be c082 bebf 0000 0016 7077 c43f
00000220: 86cc 665f 5cfe cebf 0000 00a0 88fc 89bf
00000230: 40a9 c62a 268b c8bf b51e 4090 18ca cfbf
00000240: 72ca fa47 b15e d5bf 2ca8 b574 959b 963f
00000250: f1e9 eb9e a4e6 bfbf 50d4 4a82 b8c5 c5bf
00000260: 3d81 55f9 a6de bdbf 0000 0082 962d c13f
00000270: a361 eb47 3d21 cd3f 22d3 8f76 4e3f cd3f
00000280: 946e 4e5e f462 b5bf 8dcf c162 48db cf3f
00000290: 0000 0047 c70e d03f 0398 14bb 638e c2bf
000002a0: fbfb 25bc 597b b63f deb7 26ba 857e ba3f
000002b0: 3e3e 2880 14c0 babf 0000 00eb fb06 c8bf
000002c0: c6eb f2b5 166f c63f 0000 00d2 8487 d2bf
000002d0: 0000 0061 9652 d0bf 315c 2516 e208 c3bf
000002e0: 0000 0010 1d74 ccbf 4be1 7e2c 7977 c63f
000002f0: d6ab bbd3 f93c c9bf 0000 005f 0ddd d03f
00000300: 88b0 1ec6 ce2f 93bf 0642 a2d3 ec3d 6d3f
00000310: a632 9637 79f2 c9bf 0000 0080 1e04 65bf
00000320: 10ef edf2 f3b4 ad3f b057 e96f e7e0 b33f
00000330: 2955 10e8 fdf3 c43f fd2f cac9 a528 a1bf
00000340: 7238 28e4 faa2 acbf a339 be6c 9516 d0bf
00000350: 69b3 223c 9e65 d23f 0000 00b6 ff15 c3bf
00000360: 254c c9c3 0640 bb3f d653 a419 1647 b23f
00000370: f184 555a bd9f cd3f 8f57 9d6d a8d9 9a3f
00000380: 31e3 735f 74b9 d4bf 0000 00ca d191 c13f
00000390: a3a9 e0a9 da05 96bf b33e b257 1b74 cabf
000003a0: 0000 0052 6d80 c1bf c7d2 b516 898e b63f
000003b0: de23 c149 dcad ca3f 4b3e e78a ed12 d3bf
000003c0: 0000 00fc f2bb b23f bc70 57c6 3c39 c73f
000003d0: 0000 006e 1ad0 cf3f 76d1 4ba9 269d 85bf
000003e0: 796a 9323 2685 b2bf e289 b75a bed4 c03f
000003f0: 41be b69b 9b80 cb3f e6d1 6e15 c9da c13f
00000400: ec8c 8f07 5e0e c3bf 62b1 ef29 a867 bbbf
00000410: 0000 0012 2c77 c13f 94dd 19ee 7124 8c3f
00000420: 0000 0066 d6e0 cebf c13a b5ec 1102 c5bf
00000430: bcdb e09a e7ac ccbf 3b6f 5a1d 535b 8e3f
00000440: 91ab 4695 6eb9 c63f 2590 1d4e e24b c53f
00000450: 0000 0047 fdb1 d23f ae8f e8b7 bd7f a83f
00000460: 9ecf b45c 1085 a23f 0000 0062 dc08 ccbf
00000470: acbc 72a6 4597 c13f fd11 e722 a9cb 7d3f
00000480: b914 8396 735f aabf 42e9 54d4 f0ea d1bf
00000490: 0000 006e 1efe ca3f 020b e728 d198 d03f
000004a0: 0000 008c 97b7 d2bf 2746 67a3 136c d2bf
000004b0: 6a20 5a8c 6ee9 c1bf bd44 9a77 4863 c33f
000004c0: ac1e cc68 e4ed c6bf 0000 00aa 3af2 c3bf
000004d0: 5b12 c182 d78c c53f 34f6 5db8 4590 cbbf
000004e0: b5e3 a777 2173 d2bf ceb7 67d5 4646 7dbf
000004f0: 0000 00c5 76e2 d13f cfce f077 0736 c1bf
00000500: 29f9 bbbd 97bd 80bf 7f94 2e1f 426c b93f
00000510: 75fc 3e15 d865 c1bf 6b8e 5b8e 4932 c3bf
00000520: 0000 00fa e4d2 c73f e597 7688 78ed c43f
00000530: 5828 1400 7ed0 c5bf 665a bd88 6ed1 a63f
00000540: 1861 5529 a9fb 9d3f c51c 127c acc4 9c3f
00000550: 1c4c 55b1 cc42 d03f bc01 b2fb eb64 c23f
00000560: 7353 3661 9a01 c53f bbc6 f947 200b b1bf
00000570: 7863 030a d36d 9bbf 5119 d19b 2d4c bc3f
00000580: 5a5a 49e3 9096 b83f 1cde 2b5b 1e5d ae3f
00000590: 002e 6a03 77d0 ccbf b74b 7d19 6725 d0bf
000005a0: 249a 42d0 5fc4 b3bf cca0 fc63 a633 be3f
000005b0: 8247 353c 77a4 c1bf f6c4 93cb 15da c23f
000005c0: f2d2 d2fb e251 d3bf a5fa ddee a690 d0bf
000005d0: 3533 cfcf c8fc 9cbf 3215 8acf 9836 c43f
000005e0: 6335 4220 f5ec c63f 0000 0036 9372 d2bf
000005f0: 85d7 63a3 a509 b2bf a804 15e0 07c8 cc3f
00000600: ffd3 0d3e 160d d0bf 8bf4 1fd5 a0a0 66bf
00000610: 7060 d6dd ad60 bebf 0000 0074 7414 b23f
00000620: ecab 5d37 f910 8dbf 0000 005a 63e7 ce3f
00000630: 40e2 a366 c303 923f 064b 2f4e dc58 ac3f
00000640: ce82 c614 5a7f cdbf bece 33b6 e7a9 cebf
00000650: 250b 1277 9ec0 bd3f 1c82 a385 50c2 c53f
00000660: 92d7 2f50 64e9 c93f 0000 00a0 2f70 843f
00000670: 09b4 a0a3 3708 c9bf e535 4e88 7dd1 59bf
00000680: dd20 8db0 eaf5 a53f 1394 3b30 916b d13f
00000690: 0000 0054 7d58 c8bf bd0b dbd2 f58d c2bf
000006a0: 3bb3 fb49 a9c2 c93f 1cc9 dff7 a195 ca3f
000006b0: 63c3 5ceb effb c5bf 0000 00b0 09ae 93bf
000006c0: aeae 56e7 758f adbf 0000 00ac 95c7 b1bf
000006d0: 0000 00c0 79f0 a43f 2e62 1998 1099 c93f
000006e0: 0000 0028 c2d8 ae3f 40c0 8ca5 9886 c13f
000006f0: 9d56 5cb8 6df8 c3bf 0000 0030 29ca ae3f
00000700: 7b91 68a0 766c c2bf 962f 14c1 ff6e c7bf
00000710: 7aeb 08c7 5e94 c4bf 0000 0018 e0ef b13f
00000720: 3a4d bd86 3213 bb3f 25ef 084e 042a c3bf
00000730: 971b 90f6 9bf0 c6bf c42d e751 1c3d c8bf
00000740: be91 39f8 6bac ca3f 56aa da28 0eeb c53f
00000750: dc03 38e2 3934 843f 0000 00bc 8c0c b73f
00000760: 375a c50e 1cd0 d1bf a043 9824 ed41 bd3f
00000770: 5f3c 059f 8c5d d03f 4e21 ea8b a6d3 a1bf
00000780: 6aaa e1e2 2205 c73f 0000 004e d169 c93f
00000790: a699 12be a4c4 c83f 776d 4b8d 3fe9 b23f
000007a0: 0000 00eb bf7e d2bf 1168 bafb 1bd0 cfbf
000007b0: 13f2 1cd8 f2a6 b4bf fc2e 0bcd 4f31 c8bf
000007c0: 0000 0000 f0a9 7abf f991 0224 23ea c1bf
000007d0: 0000 00f0 38c9 93bf 686d 05ae 18ef ca3f
000007e0: 8dd8 db95 1622 cf3f b906 cc8e 97f7 c5bf
000007f0: a68c b84b e82c b63f 95e0 ca6e 29f9 713f
0.24274437071337934 0.2739056256251901 0.03112012892961502 -0.28239111958674923 0.21934051718562841 -0.20923210321462288 -0.3006862722210287 0.004913111745077265
-0.11406223788754309 -0.10542549610500784 0.17884425725787878 0.31323789292213605 -0.3007581825327025 -0.15850929915905 0.23095741735564615 -0.04844411085634435
0.18459499074717278 -0.00459790015036483 0.22595041897147894 0.018540266234006984 -0.17398491175845265 0.2251627974624191 -0.2191184374620022 -0.050695284981999614
-0.053079350156916824 -0.013095558620989323 0.15129209040298355 0.24330121367328075 -0.2349110931441599 0.28271392517168187 -0.10491100559011102 0.2746723412805633
-0.2020207239219906 -0.0026213004919760784 0.021010530169633158 -0.22795862142375323 -0.2548905909061432 -0.15577405282878257 0.04272221847578324 -0.256651679781262
-0.06811343057930028 0.022994289624661608 -0.2886150580926746 0.161625006692493 -0.21441458182982295 0.0010135675708675782 -0.31938936613993885 0.10360585201546064
0.0013609789466551131 -0.21922503067858137 -0.2722311011453906 -0.15831307839327885 -0.2165890905031279 -0.15207027018596414 -0.13368458211465403 -0.06710151248448928
0.09495430354370095 0.20804232113366078 -0.27011036588160237 0.014319004940239856 0.05033614180733666 0.16065676789730787 0.2177848920936476 -0.14277773748420472
0.20499772993391005 -0.0494882207511965 -0.11918263101023402 0.159894953481853 -0.2421374765232011 -0.012688701041042805 -0.1917464932315145 -0.2483549789760581
-0.3339045718122754 0.022077880142582426 -0.12461308364792224 -0.17009645807198348 -0.11667865359550418 0.13420373294502497 0.22757688533489526 0.22849446095610754
-0.08354117681886414 0.2488794786655685 0.250902003608644 -0.14497038492953615 0.08781967967478004 0.10349307818134387 -0.10449340943181881 -0.18771313643082976
0.17526515850280883 -0.2895214129239321 -0.25504073593765497 -0.14870859223694446 -0.22229350358247757 0.17552103684080075 -0.19717333639650175 0.2634919574484229
-0.01873705944278517 0.0035695672532443127 -0.20271220411486474 -0.002565440721809864 0.058021186260672875 0.07765051347936835 0.16369603949775893 -0.033513241655867866
-0.05593093905564296 -0.25137839908065923 0.2874522769223434 -0.14910885225981474 0.10644571571292312 0.07139719129584363 0.23143736754267466 0.026220924082131666
-0.3238192493586665 0.13726255763322115 -0.02150670682764545 -0.20666829855007549 -0.1367317819967866 0.08811241917085076 0.20843080140391995 -0.2980302673795207
0.07318037655204535 0.18143424687048604 0.24853830691426992 -0.010553648034581125 -0.07234419220496048 0.13149241857088528 0.2148622999497878 0.139489303078917
-0.14887595528771358 -0.10705042861781558 0.1364493453875184 0.013741388396040922 -0.24123649578541517 -0.16412567193989072 -0.2240266329042394 0.014822625478067777
0.1775339344870557 0.1663782960341688 0.2921136086806655 0.04784958715416053 0.03617144710224739 -0.21902041230350733 0.13742895724633308 0.0072743040931908505
-0.05150948726945032 -0.2799646447707752 0.21088009234517813 0.25932721132646475 -0.2924555651843548 -0.28784647900929133 -0.13993627408149517 0.15146737899752863
-0.17913489453370823 -0.1558297472074628 0.16836065182191615 -0.21534034254357126 -0.2882770222200251 -0.0071470992029229585 0.2794472621753812 -0.13446133953549697
-0.008174119451265742 0.09930814038541945 -0.13592053449062616 -0.14997214747482998 0.1861234875395894 0.1634970346760262 -0.17042517665714985 0.044566587631085494
0.02928032221584073 0.028094000885656074 0.2540771228570422 0.14370488920031999 0.16411142107667906 -0.06657602078646623 -0.026786134229812103 0.110537386456689
0.09604745434749287 0.05930418837482085 -0.22511184374558013 -0.25228288163378515 -0.07721518358685181 0.11797561589321787 -0.1378315967545483 0.14728043022436282
-0.30187296478406644 -0.2588288624464588 -0.02830804603927391 0.15791616567381933 0.17910636973503377 -0.28824310563504696 -0.07045970191015101 0.22485445443638707
-0.25079876003229623 -0.0027621403942235715 -0.11866270700409287 0.07062461692839861 -0.014192530634053534 0.24143640417605639 0.017592480792673948 0.05536545233157679
-0.23044897093224964 -0.23956009289360297 0.1162203827571316 0.16999250912978503 0.20243505397200728 0.009979602880775928 -0.19556327333103266 -0.0015758253004806097
0.042891820956869366 0.2721903773329483 -0.19020048715174198 -0.14495728297887736 0.2012530909772979 0.20769142726164425 -0.17175101272871549 -0.019218589179217815
-0.05773514222104602 -0.06945167016237974 0.0408971831202507 0.19998366762844583 0.060247485525906086 0.13692005237089866 -0.15601893903720035 0.06013611517846584
-0.14393503982968156 -0.1830749218719318 -0.16077789991853902 0.07006645761430264 0.10576167859590138 -0.14971975145623975 -0.17921781100468756 -0.18936494826480843
0.20838689442019914 0.1712358188136302 0.009865238395834135 0.09003524389117956 -0.27832700197669474 0.11428720611026089 0.2557097962316614 -0.03481789071980988
0.17984424665640414 0.19854179676622152 0.19350108414546446 0.0738715858419051 -0.28898618649691343 -0.24853849212087245 -0.08067243362615555 -0.18900487434290614
-0.006509721279144287 -0.1399578023748658 -0.0193222900852561 0.21042164322976054 0.2432277900440493 -0.17161840889462157 0.08662273262648287 0.004388009878930306

linear2.bias f8 [64]
00000000: 1e57 0195 ce54 53bf 5b38 b419 d95f c43f
00000010: ab30 31a7 ad85 cfbf 7b16 3184 89c9 bbbf
00000020: 00bd ec0a 1414 c2bf f72a d632 97b9 9f3f
00000030: bb19 1337 bed7 c03f 48c1 dc01 0e95 bb3f
00000040: 6de4 5d3b 0db2 b33f dc84 2028 eb20 c33f
00000050: 2236 5bc4 5c9f c23f 8a8d 832d e70c cebf
00000060: 3488 745b 1e5f afbf 6b79 356d 01f0 b73f
00000070: 6b17 e4e7 f5c8 b5bf 0784 1540 8b73 c0bf
00000080: 6c6c 67ae fc2a bcbf ce00 2f6f 156c d0bf
00000090: 71cf 67a1 d622 d13f 778e 2185 b499 a7bf
000000a0: ba7d d9cf 3d14 b13f 87de 499a 387b d3bf
000000b0: 23a8 18ba 02f4 c4bf 7cde a97a 828e ac3f
000000c0: effe 8866 5cd9 d0bf c783 93ba 4086 b1bf
000000d0: 3569 ae67 92bd b4bf d92a 091a 9894 c5bf
000000e0: f54c 3f6a d75e adbf 5fe7 ae68 6308 c73f
000000f0: 912e d65c 3707 b2bf d149 684a 1b36 cebf
00000100: 0f8e 08dd d9a4 c9bf cd54 a778 fb1f c9bf
00000110: 099d 48b0 f4c4 c9bf 91b7 f444 4c80 cabf
00000120: 8e1f d323 d1d0 d3bf 3604 fb6d 93e3 cc3f
00000130: ad5e f9bf 6b75 b3bf 50ae 3405 70c5 9d3f
00000140: cdb3 1c2c 6b48 b63f d3dd 5f9a cd9a c6bf
00000150: 0684 7545 db1d d3bf 5334 7d29 64db d03f
00000160: 8856 38ec 46cc b03f fdbc 6283 7039 c53f
00000170: 30a9 abe0 cc23 b8bf e8fd 52b4 439b d03f
00000180: 5182 82c8 6051 d23f 6835 c695 f2fa b5bf
00000190: 9daa b569 2005 8ebf fae9 f1dc b31c 9bbf
000001a0: 7d66 162a 3b7f bcbf 0e68 cc09 99c4 c4bf
000001b0: 3fbb b557 1fc7 cdbf d328 d3d0 0d8d c9bf
000001c0: 8cb7 dfe9 5cc9 b73f 8867 2592 691e cdbf
000001d0: 262a b181 c072 8abf db63 09e3 0f9f bdbf
000001e0: 2efe 4bc4 69d3 c83f 6d45 5a79 649e ca3f
000001f0: c421 e603 95e7 c6bf 2aa2 3217 6814 c0bf
-0.0011798875239227911 0.15917505030705822 -0.24626703895262855 -0.1085439632161868 -0.1412377408355283 0.03098140952856007 0.13158395470800408 0.1077431444689455
0.0769356031359096 0.1494420953686476 0.14548835361203866 -0.23476876947743747 -0.061272572196927305 0.09350594440681952 -0.08509766494179664 -0.12852612141708183
-0.11003093011770354 -0.25659690721296335 0.267751367209022 -0.04609455227980857 0.06671511005833156 -0.30439581935159093 -0.16369661413892897 0.05577476260526468
-0.2632666589088179 -0.06845478587230423 -0.08101763755113185 -0.16859723349838054 -0.057364207954060754 0.17994349109158755 -0.07042261139411667 -0.23602620251820253
-0.20034335415503832 -0.1962885226372805 -0.20132311446762 -0.20704034201611113 -0.3096201753473843 0.22569506521361554 -0.07601045071475694 0.029073477094398392
0.08704252078014392 -0.1765992168218263 -0.2986972978888506 0.26339057971637664 0.0656170202931553 0.16581541457478713 -0.09429626927491053 0.2594765912035357
0.2862169225791478 -0.08586040646169624 -0.014658215738298447 -0.02647667919198147 -0.11131639268423928 -0.16224968889656605 -0.23263923437795062 -0.19961712547803376
0.09291630468189122 -0.22749061237373902 -0.012914184530150651 -0.11570834439170545 0.1939518173676204 0.2079587547819232 -0.1789423245466094 -0.1256227601309246

linear3.weight f8 [3, 64]
00000000: f8fa c0bc bb8d dfbf d024 2716 6825 bfbf
00000010: 933a b0dc 36f7 b8bf 0d1c 58be a895 d0bf
00000020: 451c aa6e 917e d73f 7076 887e 0070 c5bf
00000030: cf19 c7f6 ed7f d93f be41 191c e79e d5bf
00000040: 946f 0de9 a26a d9bf d997 a4c0 4bd5 b33f
00000050: f3ff 0175 ccf4 d53f 51da 0a16 1436 d8bf
00000060: f2ed 8c34 80e0 a93f 165d 0f1d 6f4e aabf
00000070: 9133 446a f19f 7a3f 64dd fd03 30f7 cabf
00000080: b548 7b0e d485 d23f b536 5c82 e046 d4bf
00000090: 5cdf c3dd 4cd2 d53f 9b37 dbcb b286 d8bf
000000a0: 8ad1 f7aa 5c67 aabf 49fc 9c53 bddf ccbf
000000b0: ca22 e720 7e54 c5bf f71c c471 11a8 c13f
000000c0: 9e76 d2f2 99df b93f 7129 7be3 1144 d83f
000000d0: 2b70 354a 3c57 b9bf a2df e260 c239 cabf
000000e0: 1476 cf7c f092 d6bf 023a 6d0a c280 d6bf
000000f0: 9186 b7d7 30c7 ca3f 0631 dd30 9189 c0bf
00000100: f164 b88e a5c3 dbbf a99e c718 254c 8d3f
00000110: 5d68 0c0c 9c81 d23f bf9c 6d64 8135 d03f
00000120: d444 dcee 2435 cebf ed04 8c58 a801 c6bf
00000130: 2265 645d 2235 c7bf c34f adc4 93c6 cbbf
00000140: 5075 ac61 5426 db3f 9175 773f 1513 cebf
00000150: e8d2 8cb0 bdaa 79bf 8dc3 b6a0 b051 c23f
00000160: 3def 6c84 65f8 d4bf 011c abc0 95a1 ca3f
00000170: e4dd a6e6 2470 c23f d6ee 9a6a f50b b1bf
00000180: 4557 a7cb dcef d43f 9c07 432e 3ca3 d2bf
00000190: 3d5e 83d1 e337 d8bf 6d32 0216 552d 5f3f
000001a0: 28b3 c5e1 ff13 9cbf 8326 dbc2 6db2 bf3f
000001b0: 67e4 6944 b4c5 dd3f f97c f965 8ac1 c33f
000001c0: afad a5d2 54b0 c8bf 1071 0252 7492 cd3f
000001d0: 906a 70b9 7be0 d13f 7221 81eb 360f c23f
000001e0: cc42 7a5e babf d43f d0ad 44b4 1a92 d6bf
000001f0: 9b3e 9126 5d90 c63f ea1e fdc0 c660 d63f
00000200: b5d0 dba5 c16b cbbf 3181 1b8c b151 ad3f
00000210: 0394 84cf b7b2 c2bf cf3d e91f 4513 cf3f
00000220: 6cad 973c a56d d43f 199d 640e 782f c1bf
00000230: 9bb6 b56a 4021 d13f 712f cd7e d5f9 b83f
00000240: 3645 6364 78ce d2bf 65fd c55c a353 9cbf
00000250: 17ea 7e40 3166 32bf e502 c251 8f7b c0bf
00000260: 0de0 d8e0 18cf d1bf 7a55 e372 288b d5bf
00000270: 667f e5c1 34d7 c63f fe8e 82fd 66e3 cc3f
00000280: 6969 de1c dadd d6bf 7409 fb47 100e c3bf
00000290: fe9b 3cf2 b0ec d33f 4626 6331 0518 b63f
000002a0: b4b3 634d 5d59 843f 2eb7 b6dc 0c1c d23f
000002b0: 4d44 8b35 30f1 d0bf 61ae 92c1 e326 cdbf
000002c0: 60ed ad18 fb7b a23f 2ab7 3cb6 6959 bd3f
000002d0: 0ef8 fd49 60b4 af3f dbfa e44f 4b0c b33f
000002e0: 786d 2cc8 a2f0 d6bf cb1b 2c59 f178 c63f
000002f0: d882 04d2 542a db3f b889 b598 9575 b43f
00000300: 7da4 878f 22a6 c13f 76db 8ad3 445b 8dbf
00000310: 4a5b 5f2e e1ba dcbf ddee 0e2a 39e9 a53f
00000320: c30b 4e3c 14c3 c13f 1341 ae5d 89f3 d6bf
00000330: 726a 7d50 7a4e bc3f ebc1 c29a 2132 c3bf
00000340: ead1 d9d0 af70 bebf bf63 b8d2 011d bdbf
00000350: 9c80 785b 7be8 c23f 8c3b 0bf1 e459 b93f
00000360: b0fd 31ac 6244 b63f 31af 60d0 6056 d23f
00000370: 6984 0727 a09d b03f 148f 32bd 7dfd bf3f
00000380: b58f 8feb be4f d13f a59a 611d 3290 833f
00000390: 3c1b 5777 8cd0 d4bf c98f 5175 2e89 a4bf
000003a0: de1e 7945 3642 cb3f 966d d2ac c11d d33f
000003b0: 01a3 c3f3 0cb4 c4bf 990d bf70 83a2 bdbf
000003c0: 9fcf 5129 3f7a c0bf ee03 8cc9 cd6a cb3f
000003d0: ffe3 c9fd 0594 cc3f 5779 7825 c4b6 d6bf
000003e0: 918c a4e5 f20e d23f 1b0d ebf1 8bb9 90bf
000003f0: a4fd 3b41 0e96 c1bf 0795 1765 4262 bc3f
00000400: 80e3 ae65 f3f8 d43f dfb1 0c44 19ce cf3f
00000410: a6c5 7207 1913 a43f 4efa c628 d1b5 ce3f
00000420: cee4 a0f3 3f9d e2bf 4776 89ff 7af2 d4bf
00000430: f8a0 f902 468b c9bf a5c2 be4c 0fbd 8f3f
00000440: 484b 8f0c 7c5b d1bf 2dc6 5c12 beef d8bf
00000450: 22fd 702a 8d1b ab3f eadb eb22 f560 d33f
00000460: b9bd b84d 8685 d8bf 9f7d f582 bdcb c7bf
00000470: 812f 6413 5287 d13f 424e 7bae 332c c53f
00000480: a9be 3937 6265 c6bf 59bb 5906 a85b d33f
00000490: bd3d 001e 83b0 e2bf f4db 04a3 9225 c33f
000004a0: 66e4 9eb7 1589 ab3f fcc6 1731 5c27 d33f
000004b0: 7154 0234 9722 cebf ba6e 3174 88dc ccbf
000004c0: 5792 d650 c5d7 b73f 8cae 14d2 0c5b c2bf
000004d0: 0063 b210 465a dcbf 363b 1f36 96e8 b3bf
000004e0: 8f1c 0439 e0f7 d3bf 9157 ae03 2a55 c93f
000004f0: 0fba 1ff8 96df db3f f16b 8298 7df4 c43f
00000500: 8825 e95d 47c9 c53f f8e5 2922 7a9b dabf
00000510: 1a0d ad7d 0081 d0bf 37a9 f77a ef3b 94bf
00000520: 5e71 1c15 8b6c b03f 8743 f47b bf1d d13f
00000530: bb5f 4bd2 8455 bf3f 3fee 8f84 7632 c1bf
00000540: bc00 7685 42af d3bf 2dc3 6219 a39a 9fbf
00000550: d0e5 0b3a 823d c83f 3618 4f11 c530 e4bf
00000560: 4dbf 81dd 7143 ba3f 2c3d b6de 25a9 d6bf
00000570: eda7 8a8b bf77 e0bf ec2f b4e2 1fb2 c03f
00000580: 9d9c dbe4 39fb b1bf 3e24 05a8 2c1b 5abf
00000590: d9f2 b445 4fe0 c33f eb2f 941b a769 d13f
000005a0: 9897 bf6e a22c ce3f 38ba 497c 3c65 a3bf
000005b0: 1bda efea 4d5a cd3f f4f5 9979 76bc cdbf
000005c0: fc04 11a0 ccd1 b1bf f474 8e67 e219 cbbf
000005d0: 17c9 5565 d4ed 9fbf 49d1 6fbf 5b37 cd3f
000005e0: 6bcf 1e10 13bf d3bf c9e9 3576 2886 973f
000005f0: 0cbf aa56 7c30 c13f 99ef f32e 703f ba3f
-0.49302571709624443 -0.12166452923624438 -0.09752219093227614 -0.259134469874369 0.36710010344581107 -0.1674805276715463 0.39843319987667497 -0.3378236555481883
-0.3971335674193537 0.07747338727185084 0.3430663244871532 -0.3783006873376609 0.050540930189949665 -0.05137965421425343 0.00650018980765034 -0.2106685657015347
0.2894182340070402 -0.31682598810662493 0.3409607091593807 -0.3832213393005703 -0.05156983935367794 -0.22557798941304189 -0.16664101225457834 0.13794153265937556
0.1010681360080192 0.3791546555991295 -0.09898735820519337 -0.20488767367146205 -0.35271846951022323 -0.3516087629149355 0.20920382054378142 -0.12919821630419664
-0.4338163274529299 0.014305391138761907 0.2891607396755996 0.25326571280897875 -0.23599683440310193 -0.17192558597165633 -0.18130902824558698 -0.21699759581917819
0.42421445406383373 -0.23495736693341177 -0.006266346907797461 0.14311797950133745 -0.3276609223573706 0.2080561819804814 0.14404736769004878 -0.0665887246386164
0.3271400440984176 -0.29121307866818724 -0.3784112497355386 0.0019028979222951673 -0.02742004218582675 0.12381635672786655 0.4651919048406569 0.15434389094568937
-0.19288120542055995 0.23103193287250479 0.27932637318887377 0.14108931063880054 0.32420214868856756 -0.35266749958347265 0.17628063567325544 0.3496567616134444
-0.21422596548621234 0.057263897278746596 -0.14607904083928255 0.24277557428511762 0.3191922275279555 -0.1342611379888943 0.26765451832657455 0.09756216378917572
-0.2938519459103931 -0.02766280416244395 -0.00028074934425218037 -0.12877074710924954 -0.2782652087948925 -0.33661853045972345 0.17844256847001388 0.2256897676316995
-0.3572907716676555 -0.14886668696096772 0.31132148414548044 0.08630402045960137 0.009936074184645573 0.2829620509536309 -0.264720966614793 -0.22774931861691797
0.03610214878332374 0.11464558314466147 0.061923035652384426 0.07440634441898501 -0.3584372477359561 0.17556588033786932 0.4244586993172965 0.07991919496774968
0.13788253792089114 -0.014334237771760999 -0.44890622643054157 0.042794977554391635 0.138765840001808 -0.3586142935610194 0.1105724760540541 -0.14996738487890524
-0.11890696381471569 -0.11372386354959384 0.14771978346198444 0.0990279282079724 0.08698097900377522 0.28652210568792486 0.06490517571320854 0.12496171826438413
0.2704922962568575 0.009552375337262229 -0.3252288022453518 -0.04010911161529369 0.2129581298088316 0.2986911952700323 -0.16174470808552857 -0.11576100828738446
-0.12873067395741786 0.2141968950382131 0.22326731578849032 -0.35490516337622097 0.28216240335513826 -0.016332804337037304 -0.13739183602590999 0.11087431877202301
0.327694749164543 0.24847713301404803 0.03920820442125299 0.23992361537053103 -0.5816955335968943 -0.32729983286649084 -0.19956278939503824 0.01549732163388857
-0.27120877481973027 -0.38963271897509594 0.05294457572062529 0.3027928200748976 -0.3831496962547721 -0.18590515989761244 0.2738843144768382 0.16541143436062283
-0.1749689836174089 0.302469259454417 -0.5840468965488338 0.14958413085852806 0.053780249275811084 0.29927735132433475 -0.23543062247759708 -0.22548013375750547
0.09313615058506151 -0.14340362794733996 -0.4430098689131654 -0.07776774236047576 -0.31200414245581326 0.19791150264489635 0.43552183371403513 0.1637112612414451
0.17020504079327403 -0.4157395681027931 -0.25787365220112834 -0.019759885673843427 0.06415623917968591 0.2674406729211615 0.12239866384641022 -0.13435250733151524
-0.30757201226516506 -0.03086333124582834 0.18937709650326306 -0.6309533441606223 0.10259162576562382 -0.35407397031026977 -0.5146177030012474 0.1304359299614356
-0.07023965680456219 -0.001593392953582531 0.15528288749364696 0.2720735329937713 0.23573713691365294 -0.037881746456026766 0.22931837054757484 -0.23231392800873574
-0.06960753352997878 -0.21172742897480357 -0.03118068569660534 0.22825190398692488 -0.3085372598100011 0.02297270986080394 0.13429216605936067 0.10253049036322039

linear3.bias f8 [3]
00000000: 1268 4e7b cfb4 d7bf 6e0d d49b cf71 d1bf
00000010: 15ab 1389 e526 a43f
-0.370410795608792 -0.27257147042856544 0.039359257681857475
