runs/testrun-debug-plots-20bs-50ep/0/LocalModel-0-Round3.pt (torch, 167767 bytes, 6 tensors)

linear.weight f8 [128, 95]
000000 f9 23 b9 f6 8d bc d4 bf de cf 38 28 3a 00 a5 3f
       -0.32400845617354396 0.04101735821714646
000010 8a f0 ec 22 f2 69 d0 3f 41 e7 78 e0 e6 40 c4 3f
       0.2564664212293414 0.15823064766464692
000020 b2 06 5c 9f a2 f3 9e bf e9 42 a6 30 8d f9 b2 3f
       -0.03022626969960269 0.07412035405856056
000030 b6 fa 49 58 4a 5f c2 3f ae 4a ab 2d fb 32 c1 3f
       0.14353303252206268 0.134368321704263
000040 de b1 14 22 f9 56 7f bf 8a 3f 02 f0 c1 c1 c0 bf
       -0.007651303459436735 -0.1309130117338067
000050 44 d9 d2 f6 04 45 7b 3f c0 22 d5 ae 1c 68 b2 3f
       0.006657618895749732 0.07190112369893153
000060 4c 93 05 eb 84 59 b1 3f 50 5c a2 c8 a4 81 ca bf
       0.06777220475994489 -0.207081411329201
000070 eb b0 a0 0a 3f af d2 bf 29 2d 4e a9 ec f5 c4 3f
       -0.2919461826120499 0.1637550188719186
000080 dd 0c a7 57 be e6 c0 3f 93 19 a8 52 91 4b b3 3f
       0.13204173355015927 0.07537182109817868
000090 dd 8d 2d f7 e1 3c ab 3f 53 98 1b a8 2b 23 cd 3f
       0.05319887296971235 0.227635819515117
0000a0 0b ab 40 e6 a5 b3 bd 3f fb d8 dd d1 79 63 b8 3f
       0.11602246161843881 0.09526788114257904
0000b0 d8 12 1f b1 bc a7 be 3f fa a2 71 0a fb a9 b2 bf
       0.11974696468594048 -0.07290619854905947
0000c0 72 93 e9 15 29 b9 9d 3f a4 f9 6e e8 de 47 cd 3f
       0.029026643717219476 0.22875582074443657
0000d0 ea 53 f4 cc 69 5a d3 bf 9b 72 fc 78 26 fe ad bf
       -0.3023933888919702 -0.058579637783826764
0000e0 9c 5a 21 d1 8f 3c 8f bf 8d 3f b6 d3 8c bf bc 3f
       -0.01525223118748658 0.11229782265422568
0000f0 ec 48 88 3d 3b 10 d3 bf 2a 3e 5f ec fc f6 b6 bf
       -0.29786568650264544 -0.08970623751451315
000100 ba af f9 17 d2 11 d6 bf e4 99 62 d6 67 e5 d2 bf
       -0.3448376878866345 -0.29525180755663727
000110 31 45 fc d8 b7 97 cd 3f 5b c8 a5 2b f3 ec c6 bf
       0.23119257063857782 -0.17910613661985306
000120 39 7a 15 31 d0 cf c4 3f e3 93 44 a1 dd 58 a8 bf
       0.16259195706057186 -0.047552991806050014
000130 21 ac e2 d7 c3 62 c4 3f 02 a7 2e cd 2e 8c bb 3f
       0.15926406899720383 0.1076077700551217
000140 27 e2 a2 77 f1 05 bb bf ba 18 09 7c b8 99 c0 bf
       -0.10555943651969156 -0.12969118172094857
000150 07 9a 52 ce 55 83 d2 bf c6 67 f1 d3 df 3a c9 bf
       -0.2892660632009271 -0.19710920189646525
000160 91 bf c5 9d dc d9 ba bf fe a1 0b f0 56 73 d3 3f
       -0.10488680698267518 0.30391477052629046
000170 6c 8d e4 50 48 bc b2 bf b9 72 75 81 3d 58 a7 bf
       -0.07318546271249254 -0.045595094731401394
000180 78 b9 5c c8 9c 9c d4 3f 53 9e 69 aa 35 dc d5 3f
       0.3220588642751845 0.34156552926876776
000190 a9 72 70 69 5c 0b c4 3f 13 28 b3 e2 6e b3 d1 3f
       0.15659670971299036 0.27657673014312073
0001a0 02 03 ea ef d7 24 ce 3f 7b 16 7a 39 e4 c0 d2 3f
       0.23549937452846598 0.2930231629655748
0001b0 64 f9 c1 d8 1e f9 a6 3f 47 93 3b 99 4c 39 aa 3f
       0.04486938854187164 0.051218408303418665
0001c0 29 4d 45 92 c8 ac c1 3f f9 5d 34 37 cf b5 d2 bf
       0.13808543340801663 -0.29234676734037596
0001d0 79 4d 3b af cf f9 ab bf 65 32 86 60 b2 cc d4 bf
       -0.054640283718664535 -0.32499370027725255
0001e0 93 70 11 06 cd be 92 3f 7f 0b 83 8b c1 5d d0 3f
       0.018305972571724793 0.25572241424759307
0001f0 32 21 1e 5b 66 f4 c8 3f 88 63 3d b9 58 46 cd 3f
       0.19495849084001687 0.2287093071452342
000200 1e d6 1b ad 8c cb cb 3f ae e0 bb 96 71 4c d5 3f
       0.21714933826994892 0.3327907535563196
000210 33 65 c2 ce dd 3d d0 bf 0d bf 15 f6 5f dd c3 3f
       -0.25377602759688783 0.15519332424036528
000220 45 7f 99 8e 9a 73 a7 bf 50 da d1 9b 1a af b0 3f
       -0.045803861529519575 0.06517187408631142
000230 93 d2 09 f5 fa 08 9b bf 56 e5 d7 a3 0d 6b 91 bf
       -0.026401444631533776 -0.017009938359455155
000240 4b fd b1 2f b1 41 c7 bf 6e fd 2a 33 10 3f c1 3f
       -0.18169226483221687 0.13473703859743175
000250 e0 47 17 a7 3a 07 c2 3f cc 8b a2 81 b3 bd b6 bf
       0.14084561499345138 -0.08883211054721513
000260 c7 53 79 ab 67 cf c2 bf d1 97 ae 63 b9 0e c1 3f
       -0.14695449707747185 0.13326184623036721
000270 94 cc c4 4b 39 b0 d2 bf ad 35 98 e1 d1 33 b3 3f
       -0.29200584792415296 0.07500945813827427
000280 cc e8 3b 38 2f de c0 bf fa 86 c0 5a 3b c2 d1 bf
       -0.13178053136636547 -0.27747997152810877
000290 32 3a 4b 39 cb c8 d2 bf 3d 49 d1 d3 a5 7f d2 3f
       -0.2935054835806198 0.28904100117974335
0002a0 17 f4 ac d0 40 d2 c1 3f e5 53 2d 04 26 8c d1 bf
       0.13922891797292955 -0.2741789856711974
0002b0 3c 14 ae 2a cd 6d d4 3f a1 81 db 0c a7 58 cc 3f
       0.3192017475888098 0.22145546081357018
0002c0 d9 1e b3 20 1d 8e 79 bf 80 bd bf 61 df 8c bc 3f
       -0.006239045887191452 0.11152454506349407
0002d0 4a 91 d1 48 70 4d c4 3f 08 0b 5d f9 16 7a bf bf
       0.1586132388648685 -0.12295669162726253
0002e0 e4 9b 29 06 5e 77 c5 bf b0 0a 6d 02 62 ff d3 3f
       -0.16770530033974673 0.31246233212383867
0002f0 e8 bf dd 65 b4 2e d1 bf 47 72 12 0a 7a e6 c6 bf
       -0.2684756274020388 -0.17890859119224187
000300 56 6a db e8 07 29 9e 3f c4 3a 51 c3 ff b1 c0 3f
       0.029453395450085594 0.13043210064866717
000310 e0 d9 f7 6d 02 b8 c3 3f 0d 85 73 42 9f 87 7e 3f
       0.1540530240014979 0.007453558070865241
000320 a9 68 6a de 4b f5 d2 3f 2c 30 b6 02 e8 00 d3 3f
       0.29622170181540725 0.2969303156357934
000330 99 f4 a5 bd a8 ee ba 3f 3d d3 bb 09 e5 1b d0 3f
       0.10520414953312453 0.25170255613857134
000340 25 23 b9 24 aa e6 c8 3f d9 c0 20 5c b7 cb b3 bf
       0.19453932564854273 -0.07732721327988958
000350 ba bc 85 0c 8e b0 af 3f ed 7b 6b d1 b4 7f b6 bf
       0.06189388182507956 -0.0878861438063578
000360 d6 cd 0f 87 1a 91 c6 bf 6d 5e 3a b1 bb ed cc 3f
       -0.1763032111626745 0.22600504068099117
000370 8d 82 9b bc 23 4a d1 3f b4 b6 ff e9 a0 d5 d4 bf
       0.27015012186715454 -0.3255388531823471
000380 83 77 0c 61 c9 b5 d2 3f e0 c2 ec a7 89 a9 c8 3f
       0.29234537579929326 0.1926738805718946
000390 3b ef b3 88 08 4a bf bf b7 6a 02 cb 20 87 d5 3f
       -0.12222340905640021 0.33637256455555636
0003a0 92 20 72 3e 15 79 b5 bf c2 3b 0e 14 02 3b cc bf
       -0.0838788297134008 -0.2205507848670703
0003b0 06 16 63 4e 9d e2 bc bf 14 dd 9b 84 e4 96 c9 3f
       -0.11283286250826316 0.19991737818757171
0003c0 31 a6 44 96 e7 94 d1 bf 00 7b 03 34 f4 dd d0 3f
       -0.27471341776490293 0.26354699210598653
0003d0 75 76 99 18 5f 53 d4 3f 63 ea c2 c2 dc c8 c2 3f
       0.3175885906438006 0.14675483236154027
0003e0 e5 e9 ae c9 18 ec c2 3f f4 70 e0 2b 1b 8b c7 3f
       0.14783010337653404 0.18393268244188443
0003f0 0d 01 da 40 1e 86 d1 bf f8 50 d1 b8 92 b8 b1 bf
       -0.27381092389261213 -0.06922261249684769
000400 8c a3 f8 29 7d 29 b7 bf 62 2d 56 c0 14 0e db bf
       -0.09047682070435153 -0.42273443968652746
000410 0c 0c e0 25 fc 08 cb 3f 0e 9b 29 95 4d 29 bc 3f
       0.21121169900297365 0.11000523463881626
000420 e6 13 90 3a d8 92 c1 3f 12 3f 43 03 e2 2f c3 3f
       0.1372938428832235 0.14989876899061777
000430 f7 7e d8 bc 5d 73 d0 3f 53 34 40 d1 96 05 b0 bf
       0.2570413917728582 -0.06258528336202689
000440 e8 e4 90 d1 19 ed b6 bf 79 c8 e4 d7 bd 04 d5 3f
       -0.08955537191731688 0.3284144028031118
000450 4a 8f 43 09 14 55 a7 3f 93 0d 2f b6 a5 e1 c9 bf
       0.045570970660064505 -0.20219870944684412
000460 6f a4 63 6e 32 4d aa 3f e0 0d 9b be e5 bf cc 3f
       0.051370216346023116 0.22460624510686866
000470 f6 ee 29 50 81 3c 99 bf e4 e7 45 b0 19 ae a2 bf
       -0.02464487125187894 -0.03648453022738332
000480 6f 32 b5 09 ff 14 cf 3f 47 62 8d 03 24 c3 90 3f
       0.24282825445188247 0.016369402615369812
000490 15 c5 08 b4 0c 19 c5 3f 95 6d 84 9c 4f 49 a6 3f
       0.1648269537995836 0.04352806840526139
0004a0 d6 81 e6 e3 d1 77 ba bf fe 59 d7 e8 f6 9e c7 3f
       -0.10339080633139672 0.1845387112541203
0004b0 0b 83 ac cb 49 f4 d3 bf 4f 6d 9f b2 ef 7b bb 3f
       -0.31178517236735165 0.10735986815364139
0004c0 9f 8a ff f0 a0 30 bd 3f ca 83 29 92 b5 c4 a3 3f
       0.11402326472993217 0.038610147563992905
0004d0 ab bb 6e d8 a3 a4 d3 bf 2a c6 27 69 ea 80 c2 bf
       -0.30692382942191426 -0.14455919394053868
0004e0 ac cd ed 29 9d 92 c6 bf a8 4d ec 92 af 95 88 3f
       -0.17634930178938413 0.01200425307391735
0004f0 fd 9d 70 54 f7 83 c1 bf f6 2b 3b 0d eb b3 ce bf
       -0.13683978674929156 -0.2398656668286489
000500 9b 1f 1f 51 ff 26 9e bf 99 50 6e 23 7e a0 bd 3f
       -0.02944563801409537 0.11573017468464498
000510 0e 0e 95 6d 65 e1 98 3f 7a 54 a9 5a 60 76 d3 bf
       0.024297318280572404 -0.30410012105614437
000520 78 29 e4 6e c1 54 b8 bf 40 89 a9 d9 4f a7 c2 bf
       -0.09504326779657457 -0.1457309544376333
000530 cf 5a 44 2c 09 d3 bb bf 14 f2 83 88 bd fe b0 bf
       -0.10868890124070706 -0.06638702948470893
000540 c5 26 ba 03 6e 55 cd 3f 92 1d 70 e9 f2 47 97 bf
       0.22916960889806695 -0.022735400674745394
000550 47 10 b2 22 b2 59 c4 3f a2 88 49 ac 56 d9 d5 bf
       0.15898729986304458 -0.3413902933590497
000560 e2 98 4a a9 19 68 c3 bf 42 ee 23 ca c3 57 d5 bf
       -0.15161438718968784 -0.33348173847455
000570 7f 66 11 e9 53 af b1 3f b0 9c 0a 3b 4b fd a5 bf
       0.06908153953681938 -0.04294810386391512
000580 d7 ed c0 13 98 79 bb 3f b4 02 5c 97 d9 c4 bb bf
       0.10732412798181855 -0.10847244210527657
000590 90 30 51 97 21 b4 c0 bf 93 54 f5 ca 5f d9 c5 3f
       -0.13049716843159276 0.1706962338454657
0005a0 e1 0d 15 67 e9 98 c1 bf c3 a7 f9 e3 ed 5d c1 3f
       -0.13747899564087532 0.13567899352648113
0005b0 ad 8f d0 c4 91 a2 d4 bf 84 1a 9b b6 eb b8 af bf
       -0.3224224493044357 -0.06195770839763262
0005c0 74 2f b5 cf 9f 42 d3 3f d8 b8 52 a2 b6 66 d1 3f
       0.3009414223094986 0.2718941292940946
0005d0 1f 3c cb a0 4a 11 c7 bf b5 d1 e9 52 12 16 b7 3f
       -0.18021519519103976 0.09018053554775103
0005e0 f4 f9 9d 1b 1b 54 b1 3f cd 4f 9b 2a c1 3a d3 3f
       0.067689604036765 0.3004610935288355
0005f0 00 00 00 42 b7 8b d4 3f 00 00 00 a4 1f f0 d5 bf
       0.3210275787860155 -0.3427809812128544
000600 00 00 00 94 51 35 d5 3f 00 00 00 2c b9 88 c3 bf
       0.33137931302189827 -0.15260996483266354
000610 00 00 00 08 5d 29 b1 3f 00 00 00 78 67 90 ba 3f
       0.06703740544617176 0.1037659328430891
000620 00 00 00 f8 f3 4c be bf 00 00 00 78 5a 3d d4 bf
       -0.11836170963943005 -0.3162447139620781
000630 00 00 00 90 8c b9 b1 3f 00 00 00 a6 45 b9 d2 bf
       0.06923750415444374 -0.2925581093877554
000640 00 00 00 98 1a 31 b6 3f 00 00 00 50 ea ae c9 3f
       0.0866867657750845 0.20065049082040787
000650 00 00 00 80 26 ed 67 3f 00 00 00 80 1e 71 87 3f
       0.002920699305832386 0.011446226388216019
000660 00 00 00 fc 4b a4 c3 3f 00 00 00 10 a4 89 c0 3f
       0.1534514408558607 0.12920046597719193
000670 00 00 00 c8 81 ab b6 3f 00 00 00 b8 6d 16 bb 3f
       0.08855448849499226 0.10581098310649395
000680 00 00 00 50 6f 85 9e 3f 00 00 00 02 1f 69 c5 bf
       0.029805888421833515 -0.16727054212242365
000690 00 00 00 d0 bd ca 90 3f 00 00 00 50 f5 80 c8 bf
       0.016398397274315357 -0.19143549352884293
0006a0 00 00 00 56 21 f4 d2 3f 00 00 00 54 8d 96 be bf
       0.29615052603185177 -0.1194847421720624
0006b0 00 00 00 58 ba 04 b6 3f 00 00 00 7c 1b e4 b1 3f
       0.08600964210927486 0.06988689210265875
0006c0 00 00 00 24 ab b5 c4 3f 00 00 00 8f cd 32 d3 bf
       0.16179408319294453 -0.299975766800344
0006d0 00 00 00 3e e4 e7 c3 bf 00 00 00 f4 dd d9 c1 3f
       -0.1555142691358924 0.13946127332746983
0006e0 00 00 00 54 02 56 ca bf 00 00 00 56 b7 b3 d1 bf
       -0.20574978925287724 -0.276594003662467
0006f0 00 00 00 64 d3 b4 d3 3f 00 00 00 bf 73 f4 c1 bf
       0.3079117275774479 -0.14027258707210422
000700 00 00 00 1f 79 65 c4 bf 00 00 00 80 82 20 9c 3f
       -0.15934671415016055 0.027467764914035797
000710 00 00 00 18 40 fa af 3f 00 00 00 59 5a 4f c8 bf
       0.062456133775413036 -0.18992165895178914
000720 00 00 00 78 b3 51 bc 3f 00 00 00 30 f8 d3 ce 3f
       0.11062165908515453 0.24084379523992538
000730 00 00 00 c8 4c 90 d2 bf 00 00 00 90 05 bb c5 3f
       -0.29005736857652664 0.16976995021104813
000740 00 00 00 00 59 e7 59 bf 00 00 00 18 21 76 ba bf
       -0.0015810364857316017 -0.10336500965058804
000750 00 00 00 cc 7e af d4 bf 00 00 00 1c d2 23 d5 3f
       -0.323211383074522 0.3303113244473934
000760 00 00 00 60 ee f0 aa bf 00 00 00 f8 30 ce d1 3f
       -0.05261940881609917 0.2782099172472954
000770 00 00 00 70 81 b9 c5 3f 00 00 00 7f 90 b7 c7 bf
       0.16972368210554123 -0.1852894420735538
000780 00 00 00 38 85 ff b5 3f 00 00 00 54 3d 11 ce bf
       0.08593018166720867 -0.23490110971033573
000790 00 00 00 20 3b 6c a4 bf 00 00 00 88 a3 72 c0 3f
       -0.03988823667168617 0.12849849835038185
0007a0 00 00 00 8e 9a dd d1 bf 00 00 00 9c fe 1d c4 3f
       -0.27915061824023724 0.15716536156833172
0007b0 00 00 00 2c f4 47 cf bf 00 00 00 80 5b 6f a2 bf
       -0.24438335560262203 -0.036005839705467224
0007c0 00 00 00 1c 5d 2c b5 bf 00 00 00 d0 22 f9 ac bf
       -0.08270818646997213 -0.05658825673162937
0007d0 00 00 00 5c e2 26 c0 3f 00 00 00 1e 6e be c2 bf
       0.1261866521090269 -0.1464364668354392
0007e0 00 00 00 24 71 5c d4 3f 00 00 00 21 33 66 d5 bf
       0.31814220920205116 -0.33436277601867914
0007f0 00 00 00 90 a8 bf 99 bf 00 00 00 38 e3 41 d5 bf
       -0.025145181454718113 -0.33214645832777023

linear.bias f8 [128]
000000 7c 83 49 c5 42 53 d0 3f 61 2e 83 17 22 0d d1 bf
       0.25508183733295886 -0.266426585160593
000010 00 00 00 4c 5f 2c d3 bf c2 79 5e a8 6e 7f d5 3f
       -0.2995832674205303 0.335902847693344
000020 bd 5f d7 c6 f4 63 d4 3f 61 45 da 01 34 be bf 3f
       0.3186008397874465 0.12399601979475029
000030 c1 40 70 87 ff f8 c1 3f dd 6f e2 93 9c 6e c5 3f
       0.14041132081229615 0.1674380991070156
000040 00 00 00 93 bc cc c6 bf f8 28 e9 70 93 33 93 3f
       -0.17812306573614478 0.018751434103514847
000050 34 c3 7e b3 56 77 d3 bf 89 5b 87 0e 27 f6 bb bf
       -0.3041588547594529 -0.10922474007325723
000060 08 0a ce 7a fd e6 bb 3f 97 02 91 e1 6b 6b be bf
       0.10899338005223325 -0.11882662064545922
000070 36 5c b0 2a e5 bd ac 3f 00 00 00 39 23 ff d0 bf
       0.05613628526787588 -0.2655723625794053
000080 00 00 00 80 b6 f1 c6 bf 40 7c 45 e6 bc 1a bf bf
       -0.17925149202346802 -0.12150173780308737
000090 dc 43 c0 89 34 80 cc 3f 00 00 00 4e 71 b8 cb bf
       0.22266251302838114 -0.21656624134629965
0000a0 e3 0a de e1 40 a0 c0 3f 44 e7 43 1b 12 7d ca 3f
       0.1298905470722139 0.2069418557292072
0000b0 24 1b 6b 5b 2c a1 d1 bf 4f 68 67 80 39 7c d3 3f
       -0.2754622357137342 0.30445706881949247
0000c0 8e 9d 1f b5 9f 09 d4 3f ea 8f d0 f6 be e2 ce 3f
       0.3130873936447295 0.2412947373533137
0000d0 c9 e0 9e 30 64 8f bb 3f 91 bc fc c9 d5 99 c6 3f
       0.1076567286207847 0.17656967508944324
0000e0 49 2e f5 38 f8 81 b4 3f 67 1d 74 61 ba f0 bf 3f
       0.08010817900247348 0.1247669685291065
0000f0 b8 68 a9 06 94 e2 d1 3f 7d d8 9d 1c e6 1e b3 bf
       0.27945423746644904 -0.07469022940299115
000100 e1 15 1e 60 b4 3c c3 3f d6 b3 fa 63 d3 70 c2 3f
       0.15029005711782786 0.14406816846658782
000110 00 00 00 fc de 0d d4 bf ae 03 21 49 8c a7 d2 bf
       -0.31334662064909935 -0.29147631780147776
000120 cc ba fc f1 06 5e d2 bf 1c a2 a5 62 e9 98 b3 bf
       -0.2869889605671403 -0.0765519967877783
000130 00 00 00 b0 83 02 c8 3f 74 67 4b e9 c3 fc b5 3f
       0.18757673352956772 0.08588814206760081
000140 00 00 00 f8 40 43 ca 3f 39 c9 6a 2e 45 8c cf bf
       0.2051774226129055 -0.24646820799314087
000150 10 69 77 7b e8 71 d5 bf a1 61 83 67 0e 51 b5 bf
       -0.33507740075369075 -0.0832680704801363
000160 96 c6 c2 f5 f4 73 d3 bf 7b 49 44 5c a5 ec b3 3f
       -0.3039524459846715 0.07782968046766385
000170 dd db a6 fb 44 12 d6 bf 00 00 00 d6 a6 6a d2 3f
       -0.34486507964487406 0.2877595033496618
000180 00 00 00 a0 d1 ea b5 bf d6 44 1c b3 a5 9f d3 bf
       -0.08561430126428604 -0.30661909571888424
000190 cd 44 54 8a ef 07 91 3f 40 31 9b e8 82 73 d3 bf
       0.016631834810202407 -0.3039252540154571
0001a0 bb 6e dd 34 82 64 d3 bf 64 2e b8 27 80 b7 8e 3f
       -0.303009559274624 0.014998437130109461
0001b0 18 01 70 e0 c8 c0 b0 3f 6b 0b ba a4 f6 03 cf 3f
       0.06544166068488655 0.24230845492646877
0001c0 00 00 00 9e a8 90 d0 bf 21 3f 03 b0 e6 df a4 bf
       -0.25882926397025585 -0.04077073000519094
0001d0 0a 4a 1d 19 b7 5e d1 3f 1a e0 c4 45 f9 26 c8 3f
       0.2714059586770935 0.18868938357059123
0001e0 ff 55 1e c7 ef a2 b3 3f e1 d3 e8 b8 01 ce cd bf
       0.07670496569911477 -0.23284932640822745
0001f0 00 19 a8 c0 50 5a d5 bf 00 00 00 68 70 b5 d1 bf
       -0.33363741697429816 -0.27669916301965714
000200 00 00 00 00 c3 34 8a 3f 00 00 00 8c aa 9b c5 3f
       0.01279594749212265 0.16881305538117886
000210 6e 3e 0f 2f 8d c4 b3 bf 3e 3b 75 2f 02 e7 cd bf
       -0.0772178878680678 -0.2336123210647773
000220 61 09 81 3f 18 17 ae bf 00 00 00 98 07 18 d5 3f
       -0.0587699487228004 0.32959165424108505
000230 0d 11 31 a6 49 43 d5 bf cc 01 91 a8 78 62 c5 3f
       -0.33223191480307507 0.1670676062658586
000240 36 62 0d cf 44 57 cb 3f 00 00 00 14 87 d8 c9 bf
       0.21360073194479562 -0.2019203994423151
000250 db ab c1 df 8a 88 c9 3f 5a c8 02 03 e9 c0 a7 3f
       0.19947944570171114 0.04639366304162769
000260 00 00 00 e0 c3 f9 99 bf ad 4a 9f 78 a8 f3 c8 bf
       -0.02536684088408947 -0.19493585481412393
000270 45 64 f5 93 da 55 c8 bf 3f 2e dc 08 70 e4 c4 bf
       -0.19012005066432117 -0.16322136337872625
000280 e1 84 bd d3 77 67 c8 bf ee d1 7d ee 17 55 b3 bf
       -0.19065759505159632 -0.07551717350526818
000290 22 58 62 6b 13 6e c9 bf 99 d5 73 60 4f 82 d4 3f
       -0.1986717485748964 0.32045349520861915
0002a0 07 81 25 f3 82 33 d0 bf 57 0f 68 b0 4c e3 d4 bf
       -0.25314401383185764 -0.32637326457210264
0002b0 a6 dd d6 24 56 49 b6 3f 00 00 00 68 3f 13 b8 bf
       0.08705652617833567 -0.09404369629919529
0002c0 00 00 00 70 5d 55 a3 3f fa 0b 06 dc 32 83 cf bf
       0.03776065818965435 -0.24619136565533478
0002d0 a4 7f e9 44 58 ad d5 bf 00 00 00 59 00 48 d3 bf
       -0.33870512704560896 -0.30126961413770914
0002e0 6d 62 42 64 92 c2 cc 3f 5d 6c 35 d0 f1 de c0 3f
       0.2246878613994058 0.1318037287372559
0002f0 7b 0b 6c e8 43 0e d2 bf 9d e6 a6 31 a2 97 c7 bf
       -0.282120682692202 -0.18431498932277615
000300 00 00 00 58 fd 8c ba 3f 80 fa 92 1e 31 f8 d4 bf
       0.10371383093297482 -0.32764842973475794
000310 38 c7 fa 49 f5 74 d3 bf 84 fc 1c 34 6b 83 be 3f
       -0.3040135595757536 0.1191927911977349
000320 8d 2d d6 09 fa 5d cc 3f b9 dd d0 72 5d eb bf bf
       0.22161794166855167 -0.1246851353943076
000330 00 00 00 4c fb 22 c7 3f 85 5d 50 b2 48 6b d1 bf
       0.18075505457818508 -0.2721730939242309
000340 cb 9f c0 fb 2d 2f c7 3f 6e a0 9c c4 cc fd cf bf
       0.18112730782126926 -0.24993285751520794
000350 3c 3f da f9 1f 35 c2 bf 88 c9 02 0d e8 c2 c7 3f
       -0.1422462434752506 0.18563557277009246
000360 af f2 3c 1c 28 2c d4 bf 3e 54 65 5a eb ae bb bf
       -0.3151951099169236 -0.1081378074353134
000370 a3 5b 09 57 8b 71 b4 bf 4c 4d 49 ca cf 80 cf bf
       -0.07985754847446329 -0.2461185205198525
000380 00 00 00 e8 71 af aa 3f a4 da 28 70 2f 7d c3 3f
       0.05211978871375322 0.15225785233061118
000390 d1 bb 6f b0 cf 65 c2 3f a5 db 81 63 14 35 bf 3f
       0.14373203387319092 0.12190368108154688
0003a0 6e f7 8f 9a f3 5c d2 bf 2e b9 62 31 1d 45 c1 bf
       -0.2869233140371453 -0.1349216929570018
0003b0 10 76 1d cc a5 24 d3 bf 83 3a 83 44 ac b6 9d 3f
       -0.29911179478753613 0.029017154390027954
0003c0 00 00 00 fe 72 47 d1 bf e2 10 d3 90 fe 65 d3 3f
       -0.26998591236770153 0.303100243978646
0003d0 ca f1 3f aa 83 3d 9d 3f 0b b5 d7 ad b3 3c cc bf
       0.028554970995161168 -0.2206024741021014
0003e0 96 be 11 f8 40 f4 d0 3f b1 5f c1 33 5c db b5 bf
       0.26490806794661503 -0.0853784204822421
0003f0 a6 2c 3e 04 dc 74 ab bf b1 0a bb 88 a9 6d a3 3f
       -0.05362594177048523 0.037946031513930285

linear2.weight f8 [64, 128]
000000 df c5 53 92 10 e9 cc bf f4 1f 34 21 7e dd 90 3f
       -0.22586257119068784 0.01646992757471817
000010 00 00 00 ae 2e 6a c0 bf 1a 8b 3f 1c c0 59 b8 3f
       -0.12824042793363333 0.09511948289540975
000020 24 b7 bb 3c 02 22 d1 bf b8 63 62 01 82 24 ba bf
       -0.2677007287119173 -0.1021195653323862
000030 b3 d6 2e 3e 5d 3b d1 3f 95 3c d3 b3 98 ca a5 3f
       0.26924830505900416 0.04256131358271734
000040 00 00 00 2c c4 d9 bd bf 1d 53 7c f5 f8 32 c7 3f
       -0.1166040999814868 0.18124305712321923
000050 a3 8a 5f 75 65 30 b0 bf 4f 25 de 2a eb 32 ba 3f
       -0.06323846927220216 0.10233945652557462
000060 67 f4 b7 29 05 d5 cd bf 97 f7 9d 50 58 86 c0 bf
       -0.23306335961379718 -0.12909988342647402
000070 40 ba 0a 44 81 3f cf 3f 00 00 00 80 e5 6a 97 bf
       0.24412551710470787 -0.022868715226650238
000080 00 00 00 5e f4 ff d0 bf 6a ac a9 58 dc 22 ca 3f
       -0.2656222265213728 0.20418886498677874
000090 4a 58 5d a1 9b cb b5 3f 00 00 00 9c 73 8f b5 3f
       0.08513806047025799 0.08422014769166708
0000a0 c1 4d 06 0e a0 bb cc bf cf 5c db 44 1b 87 c1 bf
       -0.22447586712642756 -0.13693562376167853
0000b0 68 75 b5 b9 60 b1 68 3f 0d ce 13 c8 ad b3 cd 3f
       0.003014267842145802 0.23204586285974962
0000c0 8a 75 db 58 0c 39 be bf 8e 4c 47 15 1d fd b2 3f
       -0.11805798692099337 0.0741747071218006
0000d0 38 fb 98 9e 8e 7f b5 bf 85 fd be fb 08 37 b1 3f
       -0.083977616996873 0.06724601884979194
0000e0 67 b7 97 b1 9c dc b3 3f 61 5f 42 0a 13 dd cd 3f
       0.07758502326734416 0.23330915451947035
0000f0 86 34 15 7e b5 57 cc 3f 0b cc d6 64 c0 d9 a4 bf
       0.22142666489017787 -0.040723812398390256
000100 e8 40 67 71 c6 59 d2 3f 00 67 17 3e 4d 8d c8 3f
       0.28672944139999723 0.19181218654448884
000110 00 00 00 9e fd 3d c7 3f c2 53 c1 9b 46 42 c9 3f
       0.18157930579036474 0.19733507733567818
000120 7f 3a 40 02 5e 22 cd bf 28 0d 12 c2 b5 b3 80 3f
       -0.2276113043776213 0.008155269608556795
000130 00 00 00 e8 14 01 a7 3f a0 d7 d5 bc 32 64 b7 3f
       0.04493012744933367 0.0913726531051382
000140 00 00 00 28 b4 07 a3 3f 0c 4d fb 87 96 a0 c3 3f
       0.03716814983636141 0.1533382572148202
000150 fd 02 81 e5 01 84 cb 3f db 95 0f 8c 1a b0 b5 bf
       0.2149660463928952 -0.08471837920622909
000160 a0 90 6c ad ce 55 a2 3f 2b 25 e0 95 09 10 c1 bf
       0.03581090800278841 -0.1333019239248555
000170 66 b8 96 97 f1 97 77 bf 00 00 00 80 1a 87 8d bf
       -0.00576013919764593 -0.014417845755815506
000180 00 00 00 58 48 5a ad bf fd 2a 88 09 03 5e c6 bf
       -0.057329426519572735 -0.17474401441025825
000190 fa 1d 07 bb 5e c0 aa 3f 6c b2 db 06 d5 5d bd bf
       0.052248916941206106 -0.11471301476894674
0001a0 3e 0f b0 6f 3f 29 c8 3f e7 77 4f 93 bb b0 d2 bf
       0.18875878289702003 -0.2920369089678147
0001b0 a4 17 5e a6 d2 49 c3 bf aa 2d d9 70 11 10 d2 bf
       -0.15069039462485734 -0.2822307207140634
0001c0 00 00 00 5a 43 6f ca 3f 31 56 ac a2 43 5a be bf
       0.20652048010379076 -0.11856482240212853
0001d0 27 42 31 0e 89 63 d2 bf 39 4c 17 7b b0 2c bc bf
       -0.287325157031804 -0.11005690579558881
0001e0 ee b1 68 d0 db 7d c8 bf 10 2c f1 a5 f9 53 d1 bf
       -0.19134090114802355 -0.27075043874055016
0001f0 e1 de 3b 8c 80 4e ce 3f 00 00 00 72 5c 40 c8 bf
       0.23677069518429675 -0.18946414534002542
000200 00 00 00 4e 1e 45 c5 bf 00 00 00 a4 81 02 b1 3f
       -0.16617182549089193 0.06644449476152658
000210 1a 6e 35 6a c7 84 a1 3f 81 8e 14 63 05 ab c1 bf
       0.034216148104601454 -0.13803164804368254
000220 05 9f 44 93 6f c7 c4 bf 00 00 00 14 ee 70 ca bf
       -0.16233629885504555 -0.20657134987413883
000230 2a db 8f f8 a2 0f d5 3f 65 d5 69 3d a4 b7 c2 bf
       0.32907938264490844 -0.14622929571821
000240 8d a4 ad 01 6d c6 b8 3f 00 00 00 f8 d4 41 a8 3f
       0.09677773753141335 0.047377257607877254
000250 73 ec 88 c9 8e c1 bd bf f6 c2 43 63 3d b9 bc 3f
       -0.1162347070721113 0.1122015349717563
000260 00 00 00 00 73 c6 91 bf 23 0c c9 92 61 a1 83 3f
       -0.017358586192131042 0.009585153858216405
000270 a3 3e e5 dd a3 e4 b6 bf 36 53 d1 65 ba 64 c7 3f
       -0.08942627112741745 0.1827614781529065
000280 9b a5 3c f0 6e 8d b0 3f f4 26 8a 6a 0f 45 d1 bf
       0.0646581017032503 -0.26984010128272407
000290 b0 b1 64 7c 13 39 b0 bf 7e f1 2d 5e c7 87 c5 bf
       -0.06337091242739379 -0.16820613955122704
0002a0 e3 da 4c c9 89 15 cc bf 8d 2c ea fe 23 21 d2 3f
       -0.21940729455101068 0.28327274221437265
0002b0 c9 86 a8 50 05 b5 c8 3f 00 00 00 2e db de d1 bf
       0.19302431524652366 -0.2792270611971617
0002c0 00 00 00 58 56 cf b2 3f f2 b8 cc c6 45 ca be 3f
       0.07347621582448483 0.12027393439777592
0002d0 eb 7c 12 18 8f 57 c2 bf 00 00 00 60 15 fa c7 bf
       -0.14329708743478106 -0.18731944262981415
0002e0 03 e3 69 a0 4f e0 ce bf 0d 48 80 3d 49 f0 94 bf
       -0.24122042973228738 -0.02044786870835229
0002f0 bb f8 d8 8a f1 3f 80 bf 10 c2 6e 54 4b 27 9b bf
       -0.007934462594786465 -0.026517083195075897
000300 00 00 00 b5 2b dd d1 3f 31 61 8a 27 ca 25 ce bf
       0.2791241900995374 -0.2355282490796156
000310 52 40 2f 44 ce ab bf bf 5e c3 65 5d fc b7 ca bf
       -0.12371529736196976 -0.2087398010294476
000320 37 10 2e 2f 22 59 af bf a4 94 8e 66 ce 51 b6 bf
       -0.06122690988470974 -0.08718576434928821
000330 00 00 00 64 05 60 cb bf c2 93 47 2d 82 8f c8 3f
       -0.21386783011257648 0.19187953196447266
000340 45 e5 c7 3a 34 21 c1 bf 2b 84 64 97 f4 ae b6 bf
       -0.13382580633314425 -0.08860710807904641
000350 ac 0e ec bc e2 2b d0 3f e9 0d 25 f5 66 73 d1 3f
       0.2526785702650425 0.27266858997265203
000360 75 3e 9d 2d 7f 14 d3 bf 2e ed 8f 37 44 ca bf 3f
       -0.298126024766112 0.1241800914430555
000370 bc c6 55 45 71 27 c6 3f e6 e5 52 a9 39 3c c0 3f
       0.17307868848324925 0.1268379284645526
000380 00 00 00 c2 df fb cc bf f5 ce 04 f6 06 6b cf 3f
       -0.22643658611923456 0.24545371067653546
000390 d0 ce 92 e3 6a 4c c4 bf d0 86 21 6e 89 9c ac 3f
       -0.15858207809434655 0.05588178128597365
0003a0 95 bb 3f 63 6f 08 c9 3f b3 85 16 15 02 92 d1 3f
       0.19556991907253676 0.2745366292893678
0003b0 eb 8f ef 29 7c 00 b6 3f 1f af 47 ea 73 4f 94 3f
       0.08594490073988907 0.01983433835441339
0003c0 00 00 00 06 f3 38 c9 bf 27 de df f5 a0 e8 b5 bf
       -0.19705045502632856 -0.08558088305277832
0003d0 bc cc f6 62 d5 aa c9 bf ff ba 04 1a e8 e1 b5 3f
       -0.2005259259436566 0.08547831187454945
0003e0 7b af 7e 43 2f 42 bf bf ec ef 35 9b eb f9 c1 3f
       -0.12210364721130233 0.14043946341178015
0003f0 28 30 c1 e8 49 93 d0 bf 74 44 4e 98 45 67 cb bf
       -0.258989789294676 -0.21408910691073724
000400 4a 89 db df 6b 97 d1 bf 59 6b 8b 79 4b 28 bd 3f
       -0.27486702786531636 0.11389610021016718
000410 00 00 00 0f ae e5 d1 3f 01 4e dd 4e 4c 61 78 3f
       0.2796435495838523 0.005952165678383193
000420 70 87 f5 07 8e 4c d0 bf e5 5f b2 8a 72 75 d0 bf
       -0.25467253472571993 -0.25716842217070585
000430 a4 a2 01 c2 d5 7f 9e bf 00 6d a6 7b 46 5b 7b bf
       -0.02978452679272671 -0.0066788438074596446
000440 00 00 00 70 b0 42 bb 3f ec 60 66 9e bd 2b b8 3f
       0.10648634657263756 0.09441743008790454
000450 f0 4c 81 7a 93 3a a7 3f 58 e7 54 d0 ef 72 c2 bf
       0.04536877508567183 -0.1441325919384393
000460 0b e4 af 93 3c 2b b7 bf 2c 7e 96 d8 35 59 d2 bf
       -0.09050348859445038 -0.28669496680410833
000470 3f ca ec 75 0b b6 9a 3f 00 00 00 80 5a 0e 81 bf
       0.026085070679253027 -0.008328158408403397
000480 00 00 00 24 8c bb b5 3f 96 4d 39 d1 25 96 cb bf
       0.08489299658685923 -0.2155196448899061
000490 59 65 62 4c c2 ed 59 3f 00 00 00 e8 82 c0 c3 bf
       0.0015825650639612247 -0.15431248024106026
0004a0 9e 71 d1 4a 13 e9 cf bf 05 b8 46 f4 5d 2f bf bf
       -0.2493003955195378 -0.12181651319289706
0004b0 b6 d2 4b a3 86 a2 c1 3f 16 66 63 e4 1a 47 c6 bf
       0.13777239774176103 -0.17404495383998214
0004c0 e8 ee ff 27 24 85 cf bf 92 44 d8 98 79 59 c7 bf
       -0.24625064805137886 -0.18241805995106525
0004d0 93 29 cf 3f f4 5b ca bf e5 6c 38 f6 38 9a 8a 3f
       -0.2059312163895127 0.012989468587923667
0004e0 42 e2 c9 f8 c4 4b c1 3f c4 cc 2a 77 0d 44 c5 3f
       0.13512479923135073 0.16613930052480985
0004f0 d9 df 35 92 17 3b c6 bf 26 53 23 1f 5f ff c3 3f
       -0.1736783470075796 0.15623082180413767
000500 34 48 aa 45 81 b1 b4 3f ff f7 03 1b fc 5b c9 3f
       0.08083351088342355 0.19811965293041564
000510 00 00 00 ab 72 27 d2 bf 28 94 f2 e6 8f be 97 3f
       -0.28365771006792784 0.0231878742894375
000520 8d 58 e7 e3 c0 03 d0 bf 91 eb e0 32 e1 74 d1 3f
       -0.2502290940877934 0.27275876968968144
000530 00 00 00 bc 15 b2 b5 3f e0 ec ac 36 13 38 d2 bf
       0.08474860992282629 -0.2846725496235205
000540 00 00 00 c3 0a 9d c9 bf fa cc 58 e7 b7 f4 bf bf
       -0.20010504266247153 -0.12482785604588634
000550 87 96 b8 fe ed 3a bc 3f 26 b7 c7 da 59 a9 d0 3f
       0.11027419537330206 0.2603363644146718
000560 12 a8 b9 89 8a c1 ca bf 9a 05 03 ac 66 a5 ca 3f
       -0.20903140759338662 0.20817263983739737
000570 cf df 0c 4a e8 46 bd bf 00 00 00 34 47 4d d0 bf
       -0.11436321075313959 -0.2547166831791401
000580 00 00 00 c8 06 47 b1 3f 73 7b e6 5a e7 2e 9c 3f
       0.06749002821743488 0.0275226735335496
000590 61 40 3c 93 75 d1 c4 3f 01 93 86 dc 7b 96 a3 bf
       0.16264218987680848 -0.038257475537909265
0005a0 b2 30 14 80 56 6c cf 3f 22 c3 ca 5f d7 c4 c3 3f
       0.24549371007777193 0.15444461991639807
0005b0 bd dd 50 b1 ad f8 a9 3f 0e d8 fa 85 6c be cd bf
       0.05072539128780871 -0.2323737768362552
0005c0 00 00 00 8f 1b 2c d1 3f 17 ae dd a8 fc 70 d0 bf
       0.2683171173557639 -0.2568961762505934
0005d0 1f fa 44 80 a7 89 c9 bf 11 5e 00 02 e6 3b 8f 3f
       -0.19951337588459325 0.015250966011122665
0005e0 f8 77 a5 95 37 d9 be 3f 58 bf 9c 33 98 d1 a7 3f
       0.12050197032428389 0.046520954418496074
0005f0 f7 1b a9 40 80 11 81 3f 00 00 00 0a ea c5 c8 3f
       0.008334161732944862 0.19353986252099276
000600 00 00 00 2c 72 3c d0 bf 00 00 00 c8 f7 0e c3 bf
       -0.25368933007121086 -0.1488942839205265
000610 8d b6 59 86 65 40 cc 3f 34 e6 42 7b a5 2e c8 bf
       0.2207152277000443 -0.1889235355245532
000620 cf 4f a5 6e ce 8b c0 3f 00 00 00 91 0c ec d2 3f
       0.1292665519964644 0.29565729293972254
000630 f0 83 57 e5 a4 4c b0 bf f9 ed 43 50 75 e9 d2 bf
       -0.06366949652830534 -0.2954991611329372
000640 d3 f4 47 31 5d fc d0 bf 00 00 00 e2 4a 59 c0 3f
       -0.26540307819943826 0.1277249911800027
000650 99 0a 80 00 fb c5 d1 3f f1 08 da f7 e4 74 92 bf
       0.2777087693104164 -0.018024041774432346
000660 00 00 00 de 6c f4 c7 3f 2e f6 99 0a 01 db bd bf
       0.18714676704257727 -0.11662298687766601
000670 10 e3 ca 74 f7 26 8f bf e7 cb a8 99 66 95 c1 bf
       -0.015211041690564225 -0.13737185004137517
000680 b0 da 3a 0f 14 72 cf bf ad 27 de 02 bd 37 c5 bf
       -0.24566889518401558 -0.16576349868802023
000690 b6 47 2f da 6d bd bd 3f 19 3b 6f 51 90 6a d0 3f
       0.11617170883917435 0.25650413467967464
0006a0 ab 49 24 ae 50 8b ce 3f 50 24 a5 73 36 10 a7 3f
       0.23862656119361011 0.04504556810076876
0006b0 0e bc 16 46 7f ef b6 bf 00 00 00 60 be 2f a5 bf
       -0.08959193669464602 -0.04137988016009331
0006c0 00 00 00 20 3b f7 ac bf c1 a3 a8 d9 24 ac c3 3f
       -0.05657372251152992 0.15369091632717694
0006d0 0e f8 08 2b b4 1e cc bf 00 00 00 b6 18 7f c5 3f
       -0.21968700505561894 0.1679411781951785
0006e0 9f 4a 0b d0 0a e6 c4 bf c4 d1 81 d9 27 ef c6 3f
       -0.16327033193973237 0.17917345161880693
0006f0 07 11 ae d4 1b 36 b6 bf 6b c6 32 6c a0 b7 c7 bf
       -0.08676313345319296 -0.18529134066698147
000700 00 00 00 24 db ed c5 bf 20 e6 d8 62 8c a2 d0 3f
       -0.17132128961384296 0.2599211659722602
000710 5f b6 f6 ba 00 85 9a bf d8 14 d7 61 94 b8 c3 bf
       -0.025897990619048957 -0.1540704229102292
000720 43 63 8b b6 2b b1 be 3f 8a c4 0a db c8 d5 90 3f
       0.1198909111657374 0.016440523499742933
000730 00 00 00 32 12 d6 bb bf fc f1 0b 37 11 15 17 bf
       -0.10873521538451314 -8.8051963540843e-05
000740 ba 7c b1 fc 7a 89 c7 bf bc 4a 16 c5 ae d4 b2 bf
       -0.18388306940594196 -0.07355778037735211
000750 ac 1e a7 f2 08 ef 9b bf 52 3b 30 29 03 61 bc bf
       -0.027279033480026513 -0.11085529094291971
000760 33 cb 22 90 cf ca 9d 3f 81 24 e5 a2 34 f3 d1 3f
       0.02909397427783773 0.28046909244273627
000770 e3 c9 78 54 1f 31 bc bf 61 db 9b 73 f7 7f cf bf
       -0.11012454807568121 -0.24609273095094422
000780 00 00 00 0c aa 59 ba 3f 4e fd d6 34 21 55 ce 3f
       0.10293066781014204 0.2369729526526307
000790 14 15 19 3b fd 32 bd 3f b6 cf 98 93 99 45 c2 3f
       0.1140592831880734 0.14274902064209777
0007a0 1d ac a9 5f 2f a5 c4 bf 7f 3d 23 56 44 10 bb 3f
       -0.16129104777368833 0.10571696379633087
0007b0 0d ca 98 7b 40 22 b2 bf b5 57 06 9a 8f 31 c1 3f
       -0.07083514230252082 0.13432497997990614
0007c0 00 00 00 5a c1 fe c8 3f 8d 13 8d 45 c4 9c c0 bf
       0.19527451414614916 -0.1297841395954972
0007d0 45 e6 16 13 92 f2 bb bf 09 c1 17 48 f7 fe be bf
       -0.1091700836758714 -0.12107797155454504
0007e0 d2 96 73 f4 5f db 94 3f 77 0b 0f 01 c2 fd d1 bf
       0.02036809854043648 -0.2811131487216509
0007f0 55 bf aa 46 18 59 8f bf 74 5e eb b8 ab 5c cb 3f
       -0.015306653648934502 0.2137655880858237

linear2.bias f8 [64]
000000 64 5d 83 9e a9 9c b3 bf 79 18 29 63 91 34 d0 3f
       -0.07660923118543433 0.2532084911694095
000010 8f aa ab dd e4 e0 d3 3f 47 90 44 86 ee 96 c0 3f
       0.3106014408828423 0.12960607105299202
000020 24 b4 47 4d 46 12 c8 3f 8d 6b 4a 5b 98 cb d0 bf
       0.1880576970428659 -0.26242646136386655
000030 3e d1 0d 97 09 6d b5 3f 77 aa 5a 9e c7 a0 d0 bf
       0.08369502961960948 -0.25981321777604854
000040 31 b3 9c 17 71 0e b2 3f 81 e5 f2 b9 e6 cb bd 3f
       0.07053286386935721 0.116392536542568
000050 9a 27 0d 3d 1f 23 b4 3f 79 89 bd a9 e1 94 ce bf
       0.07866091957580892 -0.23891850269417228
000060 a2 f2 e9 af e3 5c d3 bf 07 42 61 2b 6e c5 a7 bf
       -0.3025445192250037 -0.046428149028205516
000070 f3 c8 44 09 87 9b 78 3f a0 62 35 47 57 00 d2 bf
       0.00600769756811047 -0.28127080873449906
000080 42 6d 84 7a 3e e8 9d 3f fd ea 79 5b 02 57 cc bf
       0.029206253269064016 -0.22140531031239866
000090 3f 5c f3 cd f0 b1 c4 3f 5e 74 35 ea d8 50 c5 3f
       0.16168031746085096 0.16652976451851748
0000a0 04 ef a9 9d cc 7a a1 bf 99 1e 35 82 91 9b d0 3f
       -0.034140009161061996 0.2594951411779021
0000b0 4a 64 27 2a b4 da ca 3f 4c e4 3c e6 e0 f7 a8 bf
       0.2097993093327964 -0.04876616297264799
0000c0 39 2a 74 26 71 a1 ac 3f d7 95 2c 3a c0 c4 bf bf
       0.055919204658568984 -0.12409593029277431
0000d0 d8 a9 9a 54 c2 f0 cd bf e8 d1 c2 41 dd 48 71 3f
       -0.23390988474905217 0.004219879421885932
0000e0 86 23 2e 67 68 74 90 3f fc e0 04 b1 dd 1a d1 3f
       0.016069060609456474 0.2672647694303263
0000f0 29 1a 3d ee aa 7c c6 3f f8 5f b6 fc 8d 1a aa 3f
       0.17567955620525424 0.05098384580486476
000100 b3 11 8c dc 70 58 b1 bf 22 d4 c9 71 5b 2a bc 3f
       -0.06775575050784859 0.11002131965672438
000110 4b 1d f5 2d 8d 22 b5 3f c7 ca 70 4d 19 06 c5 3f
       0.08255846378334757 0.16424862176207553
000120 27 1c 30 63 43 20 b5 bf e4 93 01 a9 70 1d c0 3f
       -0.08252354785518944 0.12589843990568206
000130 6f b5 67 72 80 3b c6 3f cc 3d 50 fa 41 8b a6 3f
       0.17369084917246932 0.04403120213111897
000140 b6 5c fd 50 9b 9c c0 bf 5a 25 87 97 87 6e b2 bf
       -0.12977925734114643 -0.07199904870426135
000150 59 6a d8 85 63 32 a1 bf d2 69 23 ad 13 8b af bf
       -0.033587560738131024 -0.061607947239923924
000160 6c 66 78 ee d7 58 c7 bf 38 6c 02 28 2c 09 c9 3f
       -0.18239878791864628 0.19559242204272365
000170 97 64 48 ae aa 0d c0 bf 85 b7 1a a7 b2 f5 a7 3f
       -0.1254170752515946 0.04679640092704943
000180 b7 c9 52 1a f3 cd d0 3f cc 99 e6 a1 bd 1b c3 bf
       0.2625701672615394 -0.1492840805560277
000190 e9 8f 41 ee 29 49 d1 3f ed ae a2 44 24 74 a5 3f
       0.27009056346127963 0.04190171563945264
0001a0 65 80 98 5e 81 0e d2 bf 16 20 af 55 93 78 c9 3f
       -0.2821353362833235 0.19899217304032452
0001b0 0e be 0c aa 9f cc ce 3f 8f 65 f4 bf 49 7e d5 3f
       0.2406196194001357 0.33583301301549623
0001c0 d5 05 21 41 da c2 d3 bf 55 46 b4 28 72 8f ce bf
       -0.30876785621884767 -0.2387526224852531
0001d0 9d ae cc 76 da 25 ca 3f f3 a6 eb f3 c4 c0 9c 3f
       0.2042801933360935 0.02807910670063669
0001e0 49 5c 43 90 d3 9b a9 3f 6a 53 29 fd 82 d8 c5 3f
       0.0500169862368059 0.17066991197011855
0001f0 e4 da fb 34 77 f2 cb 3f 95 88 de 24 ac b5 c0 3f
       0.21833696448421513 0.1305442028070202

linear4.weight f8 [3, 64]
000000 3c 11 11 88 26 87 ce 3f 98 aa 1c f2 b5 11 c7 bf
       0.23849946636085828 -0.18022798845170906
000010 38 ba 7d 0b 23 ae cb 3f 60 cc f9 98 34 cb c1 3f
       0.21625173626985528 0.13901383847732784
000020 58 cb 8b cf de 08 d6 3f f4 2f 19 55 c6 e3 c6 3f
       0.34429140346690223 0.17882613330073094
000030 42 cd 2b 16 e1 82 b0 bf f7 0e 36 58 eb 91 c2 bf
       -0.06449705878531112 -0.14507810408769448
000040 81 45 ed 43 6a 81 c8 bf ab e2 82 6f ff 11 9f bf
       -0.19144943539371798 -0.030342093640430317
000050 86 cb a4 14 38 97 2e 3f 36 ff 28 a8 a8 39 aa bf
       0.00023338851526374607 -0.05122115185485969
000060 3c a1 3a 61 1e fc b4 3f 05 19 4a 3d 41 88 ca bf
       0.08197202562098921 -0.20728316776894232
000070 4a a8 2e f1 4c cf ae bf 8a 23 1b 2f 10 3f d9 3f
       -0.060175327721780095 0.3944740734119071
000080 0e 1f ea 78 8e a6 c5 3f 7b a6 9f 12 e5 bd c0 bf
       0.16914540199308487 -0.13079512986523753
000090 cc c3 b5 b8 5d 42 e3 bf f6 a5 c4 87 36 81 cd 3f
       -0.6018513305299336 0.23050576810173568
0000a0 06 93 1f ac 30 94 c6 bf d8 d9 20 0a e6 5f a1 3f
       -0.1763974037595732 0.03393477319371002
0000b0 0f df 59 0e 86 5c 9c 3f e9 12 a7 60 ca bc cb bf
       0.0276966997393791 -0.21669892997137843
0000c0 71 43 22 04 22 09 9d bf b0 0c 25 57 ee e6 d4 bf
       -0.028355151655492464 -0.3265949107191757
0000d0 5d a2 cd 44 66 5a b0 3f e1 fd 87 0a ea 97 db 3f
       0.0638793867088991 0.4311471083492205
0000e0 d7 37 7f c4 9f 30 d5 bf 05 e4 64 1a 52 e2 d8 bf
       -0.3310927790561186 -0.3888135202174115
0000f0 45 fb 9b 07 70 d3 af bf 93 46 88 1f 93 eb bf 3f
       -0.06216001599204061 0.12468833465416145
000100 a8 24 11 7c f4 53 d5 3f dd 37 bb 77 f0 7f d8 3f
       0.3332492076484166 0.38280879681121666
000110 56 eb ac 1c 8f 41 d0 3f 53 5d 0c 62 21 28 b0 bf
       0.2540014057191703 -0.06311234134442616
000120 03 05 04 b7 9d c0 d5 bf af 0c f7 0a 39 41 d5 bf
       -0.33988135216357324 -0.33210588522724555
000130 b8 63 92 06 07 6d b4 bf 99 8f b2 50 5f b2 d2 3f
       -0.07978862677045029 0.2921369827329215
000140 7f ea da 2b ac 32 d5 bf 69 05 6c e5 84 c3 c3 3f
       -0.33121780665138795 0.1544042701935198
000150 6a 52 b9 48 ee 9d e0 bf 3a 7d e2 a4 0d c1 93 bf
       -0.5192786617649976 -0.01929112738491521
000160 f2 ca b8 5b 28 2d d2 3f 20 b7 91 5a 94 4a d3 bf
       0.2840062041970405 -0.30142697186134804
000170 db dd 90 c2 a2 97 bf 3f 9d 51 fa 9b 61 c2 b2 3f
       0.12340752840179141 0.0732785230450816
000180 23 9c 2a 31 49 02 c3 bf 10 fa 04 2f f9 d0 d3 3f
       -0.14850726032929726 0.3096297225164628
000190 81 41 43 cf c8 3f d2 3f 6d 16 cd 09 22 27 d1 bf
       0.2851430915880187 -0.26801348645344697
0001a0 f0 ce 1f 99 c4 21 d6 3f f7 93 18 9f a1 ec ae bf
       0.3458110328058259 -0.060399103804492364
0001b0 d8 b4 01 77 0c 0e d2 bf f4 e5 46 41 62 dc dc 3f
       -0.2821074640440435 0.45095116018964565
0001c0 72 46 9c f1 c1 88 d4 bf 1e ee b1 de 41 9f c2 3f
       -0.32084702105303287 0.14548514722615463
0001d0 25 41 3f 29 4c 35 d7 bf 85 9d bc 69 e4 59 c9 3f
       -0.3626280215076057 0.198055793408667
0001e0 6d 5c 1d 72 81 3d d0 bf c9 d9 9f 36 46 53 cf 3f
       -0.25375400680554244 0.24472882907111984
0001f0 2a a0 79 25 78 e2 ba 3f fc be 4e 9f 82 67 c1 bf
       0.10501814761084974 -0.13597138193789948
000200 a6 b9 8b d1 11 f5 9f 3f 61 18 21 38 bb 6f a8 3f
       0.03120830384698938 0.04772744236156324
000210 7b fb b6 d4 9b 19 ba 3f d7 37 c4 a0 05 ed b3 3f
       0.10195325797302061 0.0778354184623987
000220 2c f3 c0 a7 16 de d7 3f 86 3b d7 a6 aa 5f c8 3f
       0.3729302061290578 0.190419513192378
000230 f4 fc 9b 8f e4 b0 cd 3f 23 fb 42 f9 0f 53 cd 3f
       0.23196084034132236 0.22909736319521654
000240 c9 ea a5 19 07 c9 d9 bf 6f 4b 2d ac 06 20 be bf
       -0.4028947592229711 -0.11767617896593462
000250 da f4 02 21 cb 03 be bf 93 72 5d b2 fb 8d d4 bf
       -0.11724538379617702 -0.321165966209983
000260 fb 1a d9 11 30 e6 d2 bf 13 5f a5 4a dc 9f ae bf
       -0.29529954665160546 -0.05981338893133006
000270 a3 46 ce c2 60 26 d1 3f d6 93 ed 61 70 ae b2 bf
       0.26796740554810067 -0.07297422781773774
000280 c8 78 92 fd b5 92 d7 3f 02 d6 73 84 98 c1 cc 3f
       0.36832952273279007 0.22465807406813104
000290 5d b9 f1 d0 6b 10 b7 bf 58 f3 43 06 b5 12 d0 3f
       -0.09009431697061161 0.25114179241045553
0002a0 86 c6 24 6e b1 71 bc 3f 0f 49 b6 0d 65 e2 b1 bf
       0.11110981883100565 -0.06986075958983327
0002b0 f6 b8 f4 17 71 b6 59 3f 33 2c e2 38 42 9e c5 bf
       0.0015693764142486444 -0.1688921716452981
0002c0 8b 4f 2b fa 3b 5b cd bf dd ff 01 c4 8d d9 a8 3f
       -0.22934674945156205 0.048534803559050245
0002d0 02 b9 82 47 3b 94 98 bf 73 18 65 06 82 6e ce bf
       -0.02400295852628976 -0.23774743377925098
0002e0 21 5a 50 36 ab 41 99 3f 5e 5c 0f 2e 78 c0 cc 3f
       0.024664569082313407 0.22462370156310646
0002f0 c4 09 c4 6c 87 bc cf 3f ed 05 a8 3e 2a 52 9c bf
       0.2479409485895997 -0.02765718467163041
000300 44 2f af 4e 32 43 d3 3f 77 1e 73 e6 9d 30 d2 bf
       0.3009763496781839 -0.2842173338399116
000310 c1 ed fa bb 33 91 95 3f ba 83 f6 f0 45 8a 59 bf
       0.02106171450462369 -0.0015588458080417603
000320 fb 7a db 3e 4e fb d5 bf 65 65 6d a6 a1 b0 be 3f
       -0.34346347940838456 0.11988268197219083
000330 31 ca 07 2e c2 bf c6 bf 6a a7 a7 f5 cf 3d d5 3f
       -0.17772700545863665 0.33189772596107636
000340 ce b9 76 2e 16 a1 9a 3f 1a bb 7a cc 53 ab 41 bf
       0.026005121789859413 -0.0005392226384709237
000350 b0 ef 62 bf a5 0a bf bf e6 8f 1e cc 7a dc 95 3f
       -0.1212562172176479 0.021348875721414994
000360 31 2c 63 fb 06 a1 c1 bf 10 77 39 2f bc ac c3 3f
       -0.13772666239523937 0.15370895677454444
000370 64 bc e2 39 24 5f c9 3f 4c 2a 53 9b c9 2d d5 3f
       0.1982159884114224 0.3309196488232018
000380 b0 5a 1c a1 c0 86 cb bf d0 9a 73 73 03 da d2 3f
       -0.21504981867538708 0.29455648684090097
000390 1c 7a 2e 5c ef d9 cb 3f b0 0d 1d 86 d0 1e aa bf
       0.21758834839870722 -0.05101634633185925
0003a0 16 68 f9 3e d5 d4 bc 3f 31 60 ef eb c4 7a ca bf
       0.11262257373292103 -0.20687161941782642
0003b0 e8 55 5a c4 fe 0f d4 bf a8 9e 34 57 1f 76 dc 3f
       -0.3134762685307053 0.4447096206299457
0003c0 4f 1d 0a c6 ae 35 c7 3f d3 08 7e 99 c1 41 ce bf
       0.18132576627633987 -0.23638172144644062
0003d0 33 7f 87 16 1c 05 d7 bf c4 42 f4 3a a7 c7 c7 bf
       -0.35968687248349623 -0.18578043345089246
0003e0 bb 4c ed 70 b2 01 71 bf e5 4a 0e 6c 95 e1 d0 3f
       -0.004152009044292966 0.2637685351593702
0003f0 70 cb 85 a7 73 cd c7 3f 1b 23 1e 26 38 67 c3 3f
       0.18595739059272942 0.15158750401703788
000400 53 10 85 84 ee 25 b3 bf 95 c9 28 58 a5 ae bc 3f
       -0.0747975419554348 0.11203988458945553
000410 ce 9b ec 8e c7 d4 d5 bf a5 e8 5b 81 d8 ef c1 bf
       -0.3411120315308239 -0.1401320106159051
000420 1f 06 cd b2 4b 80 bc 3f 90 50 3e e0 32 74 a4 3f
       0.11133263697868089 0.03994902598711392
000430 a8 f4 bc 85 ff 22 d2 3f fc 13 f3 c2 2f d3 c4 3f
       0.2833861166034901 0.16269490260143005
000440 4b 72 63 46 c4 34 d4 bf 17 7f fc 07 64 d4 db bf
       -0.31572062372086823 -0.4348383024207449
000450 45 51 7c ce 48 d2 c5 3f 97 24 c5 ca 6c 4f cf 3f
       0.17047987062745498 0.24461135769732742
000460 7c 1a eb e8 ed 1b c7 bf 53 7b 64 20 42 3e 99 bf
       -0.18053983567206788 -0.024651559092599595
000470 4a 8e 57 1d 3b 48 d2 3f 2f eb fb 89 db 78 92 bf
       0.28565862527304786 -0.018039160057905675
000480 a3 77 f8 1f 4f 2a d6 3f 58 d0 2b 76 96 2d ce 3f
       0.3463323414051677 0.23576622743678644
000490 46 7d 02 16 45 f3 7b bf b1 b9 d9 51 c3 31 d1 3f
       -0.006823797099200951 0.2686622905083836
0004a0 cb 97 86 ea 2e 1c d2 3f f8 11 ad 6b 30 02 ca bf
       0.2829701700487674 -0.20319180734271902
0004b0 82 92 fd 3f 4f 18 db bf 13 c1 76 ba 5a 0e c0 bf
       -0.42335873841356186 -0.12543806175882163
0004c0 fb 33 a8 04 88 14 dc bf 7f 32 93 d2 a8 ef ba 3f
       -0.43875313238896724 0.10521941319457005
0004d0 0c 3d bb 0c 87 88 d2 bf ad 38 aa 4a 1d 90 b3 3f
       -0.28958297961521917 0.07641776154398157
0004e0 da 97 8c 46 37 f1 76 3f cb 35 5d 65 f4 77 d3 3f
       0.005601135177846184 0.3041964521297273
0004f0 6c 7a 91 e8 f6 c8 d8 3f 61 91 f7 dd 2b cb d6 bf
       0.38726589881654294 -0.3561505954405871
000500 d7 53 c0 d6 f7 50 d6 bf d0 e6 b7 40 3c 87 d6 3f
       -0.3486919018917524 0.35200411148217103
000510 a8 cb 26 5f 2e 74 c9 3f 2f f2 8b 53 2d e3 d2 bf
       0.1988580669982103 -0.29511578711370395
000520 2e 80 df a3 75 bf dd 3f 00 67 b7 36 5e 63 c1 3f
       0.46481076243617536 0.1358449713869092
000530 f3 ef 43 f5 8d 67 ab 3f ec c8 a5 e1 4c ca d5 3f
       0.05352443331682357 0.3404724315252128
000540 f9 7e f3 0c 7d dd d0 3f 45 55 fc 6c 1c 1d 9c bf
       0.26351858391534183 -0.027454799797017832
000550 dd 7c d2 42 cb c8 bb bf 62 09 9e d3 6b ee a5 bf
       -0.10853262311364938 -0.04283463438243264
000560 11 2d e3 1f 87 66 b8 3f c4 fb f4 d2 91 43 d8 3f
       0.09531445053578504 0.37912412263170503
000570 73 a9 a9 b1 8c 49 b7 3f 41 41 ae b1 cd 27 d7 3f
       0.09096602761716159 0.36180441238049715
000580 5a f6 46 e6 b0 6c c4 3f 52 4a 3c c7 f4 69 e2 bf
       0.1595669865036367 -0.575434102184156
000590 0f fd b4 56 ce cd c6 bf a1 3e 7a 6b e9 c4 ac bf
       -0.17815570100535935 -0.0561898177812712
0005a0 e0 28 de dc cb 94 d9 bf 3a 0a 6b 5f 98 6a b8 3f
       -0.3997068077957362 0.09537651376289427
0005b0 09 16 b8 6a 3f 52 c6 3f 00 85 7b c4 07 87 df bf
       0.17438500128643877 -0.4926165980123898
0005c0 7c 6f 2e e9 09 6a c9 3f 9e 94 cf 44 88 dd ae bf
       0.19854854474840156 -0.06028390731788956
0005d0 89 3f 39 42 10 99 d2 bf 84 2d 64 b9 8a 33 da bf
       -0.29059225527907323 -0.409395867391787
0005e0 08 73 f7 00 39 71 a2 bf 25 c8 a1 8e e3 95 d0 3f
       -0.03602007042693428 0.25914849213507046
0005f0 4b 64 bd 31 0b 53 c4 3f eb 63 cf 7a 02 4f ca bf
       0.15878429344846476 -0.20553618427837192

linear4.bias f8 [3]
000000 bb 55 81 bc 2b 3e c9 bf 00 33 e2 4c b5 a7 cf 3f
       -0.19720980362278148 0.2473055482299955
000010 bf 45 3e 67 97 d0 b3 3f
       0.07740160246455384
