runs/testrun-debug-loadsd-10r-20bs-50ep/1/LocalModel-1-Round8.pt (torch, 167767 bytes, 6 tensors)

linear.weight f8 [128, 95]
0	0xbfa4841e80000000	-0.040070489048957825
1	0xbf963ced00000000	-0.021716788411140442
2	0x3faf42ce80000000	0.06105656921863556
3	0xbfaf043760000000	-0.06057904288172722
4	0xbfb500bcc0000000	-0.08204250037670135
5	0xbfa3cf23c0000000	-0.03868972510099411
6	0x3f66dcd400000000	0.0027908459305763245
7	0x3fb1cac7c0000000	0.06950043141841888
8	0x3fb14470c0000000	0.06745056807994843
9	0x3fa0890880000000	0.032295480370521545
10	0x3fb85e7b00000000	0.09519165754318237
11	0x3fb9c8f580000000	0.10072264075279236
12	0x3fb96505c0000000	0.09919773042201996
13	0x3fa7d7e680000000	0.046569064259529114
14	0x3fb3552980000000	0.07551822066307068
15	0xbfa155d100000000	-0.03385785222053528
16	0xbfb465b200000000	-0.07967674732208252
17	0x3f69050800000000	0.0030541568994522095
18	0x3fab6caf80000000	0.05356357991695404
19	0xbfa5ec6520000000	-0.042819175869226456
20	0x3fb4a1fcc0000000	0.08059673011302948
21	0xbf9a13d700000000	-0.025466307997703552
22	0x3fb7eb1f80000000	0.09343144297599792
23	0x3f7c9da400000000	0.006986275315284729
24	0xbfa62c6bc0000000	-0.043307654559612274
25	0x3fb04aa680000000	0.0636390745639801
26	0xbfa3627500000000	-0.03786054253578186
27	0xbfa8d8d5c0000000	-0.04852931946516037
28	0xbf68b22800000000	-0.0030146390199661255
29	0x3f82ec5100000000	0.0092398002743721
30	0x3fb4be3580000000	0.08102735877037048
31	0xbfb69b8440000000	-0.08831049501895905
32	0x3fa902e980000000	0.04885034263134003
33	0xbfb7999140000000	-0.09218700230121613
34	0x3f79111800000000	0.006119817495346069
35	0x3fa61fd880000000	0.043211713433265686
36	0x3fb8bb5f00000000	0.09660905599594116
37	0xbfb04cb0c0000000	-0.06367020308971405
38	0x3fa0663b00000000	0.032029956579208374
39	0x3f5e673800000000	0.0018556639552116394
40	0x3f8dd0b700000000	0.014558248221874237
41	0xbfad2a1a20000000	-0.05696183815598488
42	0xbfa8d9b0e0000000	-0.048535849899053574
43	0xbfb5a93560000000	-0.08461316674947739
44	0x3f8f92bf00000000	0.015416614711284637
45	0x3fa0b4e480000000	0.03263010084629059
46	0x3f9fe17b00000000	0.031133577227592468
47	0xbfb4bc98a0000000	-0.08100274950265884
48	0xbfb997c800000000	-0.09997224807739258
49	0x3f99e57600000000	0.025289386510849
50	0xbf6baee400000000	-0.0033792927861213684
51	0xbfae0c2620000000	-0.05868643894791603
52	0x3fb0f2b640000000	0.06620348989963531
53	0xbfb59b5d00000000	-0.08440190553665161
54	0x3fa9dcdc80000000	0.05051316320896149
55	0x3faba15800000000	0.05396533012390137
56	0xbfb2284c20000000	-0.07092738896608353
57	0xbf9c01f900000000	-0.027351275086402893
58	0x3f745c5000000000	0.004970848560333252
59	0xbfb8609c60000000	-0.09522416442632675
60	0x3f83456900000000	0.00940973311662674
61	0x3f7fa56200000000	0.0077260807156562805
62	0x3fb0712540000000	0.06422646343708038
63	0xbfb7d6f320000000	-0.09312362223863602
64	0x3f82a54d00000000	0.009104348719120026
65	0xbf77e94800000000	-0.0058377087116241455
66	0x3f64fcc400000000	0.0025619342923164368
67	0xbfa96529c0000000	-0.049599938094615936
68	0xbfaea36900000000	-0.05984047055244446
69	0xbfa7c831a0000000	-0.04644923284649849
70	0x3f90889200000000	0.016145974397659302
71	0xbf8c109d00000000	-0.013703562319278717
72	0x3fa5bbbf80000000	0.042448028922080994
73	0x3fb1291f80000000	0.06703373789787292
74	0x3fa7991c00000000	0.046090006828308105
75	0x3fa63c2a00000000	0.04342776536941528
76	0x3fa79f5600000000	0.04613751173019409
77	0x3f9543a600000000	0.020765870809555054
78	0xbfb5ce8300000000	-0.08518236875534058
79	0x3fa0e99c00000000	0.03303229808807373
80	0x3fb7d46380000000	0.09308454394340515
81	0x3f84796400000000	0.009997159242630005
82	0xbfb96380c0000000	-0.09917454421520233
83	0x3fb3755240000000	0.07600893080234528
84	0xbf87050c00000000	-0.011240094900131226
85	0xbfb9f76a80000000	-0.10143151879310608
86	0x3fa05c8180000000	0.03195576369762421
87	0x3f8f4f5100000000	0.015288002789020538
88	0x3fababb480000000	0.05404438078403473
89	0x3f9003ff80000000	0.015640251338481903
90	0xbfb8543500000000	-0.0950348973274231
91	0xbf9fbbb980000000	-0.030989550054073334
92	0x3fabb2ef80000000	0.05409954488277435
93	0xbf9f716c00000000	-0.03070610761642456
94	0x3fb3fb9740000000	0.07805772125720978
95	0xbfb5dcb8833cc308	-0.08539918140446556
96	0x3fa205505d230608	0.035196792000999066
97	0x3f9966b2eae7cbb5	0.024805827701083156
98	0xbfb1e9ce403d0aa6	-0.06997384136506443
99	0xbfb0ae7a7b704028	-0.0651623298037981
100	0xbfb938c8557f0aa9	-0.09852268302260349
101	0x3f8298f5135ad8bd	0.009080805447734592
102	0x3fb3fe494fd39870	0.0780988521470094
103	0xbf6400ce160b7924	-0.002441790115297897
104	0xbfb6d00710752c0e	-0.08911174918937112
105	0x3fb4061e75b4f011	0.0782183682794655
106	0x3fb9b65f07a27b21	0.10043901382821875
107	0xbfb55e4544412c84	-0.08346970478412358
108	0xbfb903e2a77c7745	-0.0977155360128253
109	0xbfab693f7570f3b3	-0.05353735264404893
110	0xbfbb710bbd5578f1	-0.1071936928978834
111	0x3f96112f8b3a607c	0.02154993331222997
112	0xbfadb31a04b5e9f4	-0.05800706202986197
113	0xbfa06aa03228981a	-0.0320634900311207
114	0x3fb7a33c4c3b1120	0.09233452664472397
115	0xbfb82576524a99fe	-0.09432162770335847
116	0xbf451cae5cc69def	-0.0006442881945546967
117	0x3fa9032dba54766a	0.04885237597976018
118	0xbf5fb24748b30f54	-0.0019345947392119438
119	0x3fadbf097b76d0ed	0.05809812194948614
120	0xbf9a0dba0237eaee	-0.025442987809564714
121	0x3fa4f28afcab0493	0.040912955611483025
122	0xbf9412aa7543d7b1	-0.01960245457390614
123	0x3fb0ad81e8b91e33	0.06514751369206166
124	0xbfc1b37355166d95	-0.13828889517467916
125	0x3f9473a41e3dff95	0.01997238573630929
126	0xbf9ca13f6233e4d7	-0.027958860749070915
127	0x3fb5750b7d563def	0.08381721315367206
128	0x3fac0938c5012150	0.05475785641516728
129	0xbfb0bea013f9ea64	-0.0654087113161182
130	0xbfa0bafa47c0c541	-0.03267652631655916
131	0x3fa93ccc3ed4bf53	0.04929197566013834
132	0xbfc6d1a05cdc7499	-0.1782722905562977
133	0xbfcad5dd3244a61e	-0.2096516128015517
134	0xbf9a191a3b951d9e	-0.025486383329988642
135	0xbf9796ff5016ea08	-0.023036946547771137
136	0xbf8f11c9f9fdf1ef	-0.015170648519181788
137	0xbfb1d000b8f87f7e	-0.06958012119184606
138	0x3fb5cd2273923f14	0.08516135522426921
139	0xbf91d951202cd75d	-0.0174305606735382
140	0x3fb3e2b3f949c877	0.07767796360147537
141	0xbfb8fe30396a04eb	-0.09762860681259482
142	0x3faaa663c4143ae1	0.0520507027487065
143	0xbfa134b189a91a65	-0.0336051445524859
144	0xbfb09373fdf0fd4e	-0.06474995565166816
145	0xbf5fd84d81519f7d	-0.0019436604391333816
146	0x3fb1fed3cefc56e1	0.07029460719453652
147	0x3f9bbbe37c08ec5e	0.027083925672041757
148	0xbfb2cf6ad8d8aca8	-0.07347743791676697
149	0x3fb6bdcab0dc56e5	0.08883349244964796
150	0xbfb04783e4c6d36a	-0.06359123549812087
151	0x3fb24f57717d4477	0.07152315636382577
152	0x3faccdb08b48dbc0	0.05625678730250838
153	0xbfb1809e22862a7c	-0.06836880057213962
154	0xbfbaa896fe135052	-0.10413497641576555
155	0xbfac87191c47cfb4	-0.05571821661206347
156	0xbfa78542a576878f	-0.04593857068836293
157	0x3f94e22a63805948	0.02039400322254295
158	0xbfb0a39954063862	-0.06499632169126948
159	0xbf8477c2879351fd	-0.009994048845705978
160	0xbfb5be5208255c23	-0.08493530939937037
161	0x3f99c208e876bfb0	0.02515424650999848
162	0x3fb594d611c8d9d6	0.08430231031602572
163	0x3f9825fbfbea35d9	0.023582398653663936
164	0x3f85bda44f9f73f3	0.010615619354149763
165	0xbf9ae1ddf1f616c7	-0.0262522391253899
166	0xbfb6327f4ec7d759	-0.0867080275855562
167	0xbf97851617950e1d	-0.022968621434541803
168	0x3fb4258d6bff1299	0.07869800459509192
169	0x3fa8dca1825986f6	0.04855828014548351
170	0x3f7442b5f0250157	0.004946432776989993
171	0x3f9f21dd1a1039a8	0.030402617183477837
172	0xbfb894fe28aacee3	-0.0960234498295978
173	0x3fa617d0b8208a3a	0.04315044639249206
174	0x3fb25c552e026969	0.071721385700959
175	0x3fa9a67bd6eedcfd	0.05009829519934248
176	0xbfa19e20411c4626	-0.03440953059010736
177	0x3fb602794707a947	0.08597524627808638
178	0xbfbaa6af3799fb55	-0.1041059027429417
179	0x3f8976f1a8740106	0.012433898881227378
180	0xbf5ad8bf6be9555a	-0.0016385907507772885
181	0xbf9fc7968332155d	-0.03103480506662969
182	0x3fa0f0bb55b0bd04	0.03308663769746015
183	0xbfad56f284e7e7a0	-0.05730398056398589
184	0x3fb07bf9fe8622a5	0.06439173187221543
185	0xbf986007eace6ca7	-0.02380382891315649
186	0x3fc5dc1be81a1442	0.1707796939191742
187	0x3fabc09f5cdc131b	0.05420396812954761
188	0x3f8e7c2a724742ce	0.014885264980791926
189	0x3fa466be2a4bca3b	0.039846365607349964
190	0x3f96f8020be71c61	0.022430450417030182
191	0xbfa0a5f9a0e2f7a7	-0.0325162896055951
192	0x3f886b48fa491830	0.01192338002978141
193	0xbfa7b90f7837c599	-0.04633377401831779
194	0x3fb85730533102fa	0.09508039504090596
195	0xbfa975464f85eb15	-0.0497228595804328
196	0xbfa701d433137857	-0.04493582843291282
197	0x3fb974ba90d59217	0.0994373897170323
198	0x3fb68ca01a8a1444	0.08808327339109306
199	0x3fb0b4bb53885da2	0.06525774754879035
200	0x3f288a63fff53346	0.0001872298307525005
201	0xbf9bd8e81b94972d	-0.027194620784164392
202	0xbf64c6bba1c39117	-0.0025361694989546424
203	0xbf9f7c77a0d215c2	-0.03074824256011311
204	0xbfb916c0b4d87422	-0.09800342955755117
205	0xbfa6600db123b456	-0.0437015799269395
206	0xbfa3f190b4690028	-0.038952371618961756
207	0xbfb55695cdf34ea1	-0.08335243490301504
208	0x3fb6cc83e47c4263	0.08905815437561553
209	0xbfa078f3cd0d7a6a	-0.03217279317936035
210	0x3fadfc1c68b871e1	0.05856407907797113
211	0xbfa942b76d521e61	-0.049337131590672774
212	0x3f881ee506b0d90b	0.011777676836669323
213	0xbf9b4f0872b57918	-0.026668674470209458
214	0xbfb36e45e37d06d9	-0.07590138248363178
215	0x3fab6b75e3d99fee	0.05355423361180543
216	0xbfa9d21dbf798291	-0.050431184409494574
217	0xbfb6b095452fd3b8	-0.08863194407588437
218	0x3fb4a556c3e5a5b1	0.08064787180560164
219	0xbfad05163b4e4b3e	-0.05667943452785672
220	0x3f7ab7b5a59019a8	0.006522855336703527
221	0xbfa3ed2a6bc54ff9	-0.03891880574761326
222	0x3fb0154ec09bc169	0.06282512857774737
223	0xbfa975a13137e7ca	-0.04972556806383428
224	0xbf45b1ea2df736d2	-0.0006620782332278036
225	0x3fb63424724b7eeb	0.0867331294098183
226	0x3fb084b5cab6df8e	0.06452499579506663
227	0x3fc0af191e04b6cc	0.1303435703825272
228	0x3fb020adb1ada40c	0.06299863422249546
229	0x3f9422dd0d7d6001	0.01966424364886166
230	0x3fa703b3e4051b5f	0.04495012434431688
231	0x3f6b6dd4c51e515f	0.003348270002741113
232	0xbfa294fd8286f933	-0.036292955573559736
233	0x3fb11f29e0db8dd5	0.0668817686051207
234	0x3f4b804bbdc20eae	0.0008392686682019057
235	0x3fa8e88bc52076fe	0.04864918500264358
236	0x3f83afd199767798	0.009612691398441162
237	0xbf999d50a32de128	-0.025014171561879156
238	0xbfb42d7f6e580268	-0.07881924098911386
239	0xbfaae14a144d6553	-0.05250007150488991
240	0xbfb2cd33f25d4666	-0.07344364802454492
241	0x3fa352b55a496310	0.037740390082666164
242	0x3fb4a9f0c5476601	0.08071808639888191
243	0xbf89601aa07f613a	-0.012390335104939799
244	0x3fb1193022e8840f	0.06679058887722554
245	0xbf83e053b989f210	-0.009705213641830773
246	0xbf92327cc6f89bc3	-0.017770719188913164
247	0xbfb823c18d7496a9	-0.09429559424878654
248	0x3fb07a8782c4d7ec	0.06436964933968142
249	0x3fb6f829fdc703a8	0.08972418256509107
250	0x3fb942066654dc66	0.09866371153189987
251	0x3fab4747f618b15f	0.05327820662600646
252	0x3fa00951fbbb8d49	0.03132110784442916
253	0xbfbde852dd7b96b1	-0.11682622821134704
254	0x3fbc60a1da077941	0.1108494908616864
255	0xbfc0054d334f20bd	-0.12516179089857885

linear.bias f8 [128]
0	0x3fb7240dc0000000	0.09039388597011566
1	0x3fa6d26ab0386754	0.044574102412481637
2	0x3fa90cf3eb4ae39f	0.04892694709037148
3	0xbf8e7e5878fd34f5	-0.014889422600072847
4	0xbfa100efd5925107	-0.033210272618051255
5	0x3f9f3ba5710c018f	0.03050096991046441
6	0xbf920787eda06f7d	-0.01760685336931499
7	0x3f83b2fec1c3b1dd	0.009618749893399442
8	0x3fb06a90b24052a0	0.06412605621182843
9	0xbf6b83fc00000000	-0.0033588334918022156
10	0x3faba295ff248f7a	0.0539748071626311
11	0xbfba4414a4098ba4	-0.10260132794205262
12	0x3f8e56fd00000000	0.014814354479312897
13	0xbfb9b0ab676c0c85	-0.1003520133490828
14	0xbfb70cab20000000	-0.09003705531358719
15	0xbfaf8593765fefa8	-0.06156597919468193
16	0x3faebdfa7d15e5c1	0.06004317070887622
17	0xbfb8cf2b9dd7770a	-0.09691116908603817
18	0x3fa67beb907965d7	0.043914185892116535
19	0x3fa5c9585a71663f	0.04255176643409841
20	0x3fb5d997c717ed79	0.08535145388298372
21	0x3fa2130e00000000	0.03530162572860718
22	0xbf9b0e1f80000000	-0.026421062648296356
23	0xbf91db838d816573	-0.017438941489989767
24	0xbfa46bdac0000000	-0.03988536447286606
25	0x3f994d7000000000	0.024709463119506836
26	0x3fac9fae78884175	0.05590577336636474
27	0xbfa92e3746f8a555	-0.04918072453831238
28	0x3f9436f93ebcc236	0.01974095769327474
29	0x3fb622f3d4864f6e	0.08647083223905636
30	0x3fb4fe09c0000000	0.08200131356716156
31	0xbfb189a62cf0ee12	-0.06850660893626806
32	0xbf959d6a4de68865	-0.02110830402819665
33	0x3fb4f02240000000	0.08178915083408356
34	0xbfba016638034455	-0.10158385150431688
35	0xbfb43afe20000000	-0.07902515679597855
36	0xbfb821851143b65b	-0.09426147147652257
37	0xbf802fe0dee3444f	-0.007903820802683507
38	0xbf80ffddb291a0eb	-0.008300525676716982
39	0xbfb5a8734f4c2873	-0.08460159955953532
40	0x3f8682a200000000	0.010991349816322327
41	0x3f8537645c3ab2a3	0.010359558167089949
42	0x3fa4a0ccbe3dce8d	0.04028930494578473
43	0xbfad53eeb92a5d47	-0.05728097925492164
44	0x3fad051c057c46b1	0.05667960707627396
45	0xbfb0c9f657ed6209	-0.06558169981634178
46	0xbfba22454ddab773	-0.10208542967549565
47	0xbfb0632b2dad2f44	-0.06401319375180231
48	0xbfa095c28eab86ef	-0.03239257804467665
49	0x3f54cfb90ded6479	0.0012702281162176017
50	0xbfa2a14ed2bfed51	-0.03638693163517338
51	0x3fb886f0c0000000	0.09580902755260468
52	0x3fb0e6d440000000	0.06602217257022858
53	0x3f893f2d00000000	0.012327529489994049
54	0xbfb1bdc90f55c8f4	-0.06930214523689299
55	0xbfaeace140000000	-0.05991271883249283
56	0xbf5975fd2df30d00	-0.0015540096717792662
57	0x3fa8e8f8047bcf80	0.048652411029165954
58	0xbfa68ffdd0021f06	-0.04406731762088438
59	0x3fae551c706ea295	0.05924309608901016
60	0xbf9c25844bf98d3e	-0.027486865174421775
61	0xbfb199b6845d837e	-0.06875172359060674
62	0xbfaea49efa699e8a	-0.059849708621922806
63	0x3fae569f8fda912b	0.05925463324573096
64	0xbf6977313b435e07	-0.003108593135134677
65	0xbfb2f6f14f2013c4	-0.07408054525156077
66	0xbfb409597f7c5b82	-0.0782676635975417
67	0x3fb0d68c0f63db05	0.0657737290929213
68	0xbfb99916c0000000	-0.09999220073223114
69	0xbfa074f1664984d3	-0.03214220403311576
70	0xbf9f4a0651c32cea	-0.030555819263821705
71	0xbf7245322d2dc7f2	-0.00446052169978549
72	0x3fb828a677b8b218	0.09437027380835905
73	0xbfab1e681eef264f	-0.05296635987867814
74	0x3fb01a623e01d491	0.06290258420797758
75	0xbfa5b024647494cf	-0.04235948301565317
76	0xbfb2cd0b40000000	-0.07344122231006622
77	0xbfa4c437e1e7301b	-0.040559526754435825
78	0xbfb1abec30448488	-0.06902958086404187
79	0xbfb3b04e8f25b9e0	-0.07690897936638619
80	0xbfa2386b68969cfd	-0.03558669711792992
81	0x3fb7d6d600000000	0.09312188625335693
82	0xbfb9ca2ec0000000	-0.10074131190776825
83	0xbfa61aea4b4ebcea	-0.04317409676820623
84	0xbfb74d45271e426f	-0.09102279858621797
85	0xbfa2e6587bd3d513	-0.03691364776197239
86	0x3fa785dc14b1454c	0.04594314339250136
87	0x3fa88f8385099929	0.047969923009804134
88	0x3fa4a44aa3d1e040	0.04031594514611969
89	0x3faa1c9b414b1862	0.050999500007990375
90	0x3fa8e1fbcbac777f	0.048599117863189704
91	0x3fa06dd99663b884	0.03208808861551041
92	0x3f807e83656aeec7	0.008053804905436291
93	0xbfba64c6cf61c8fa	-0.10310022891079376
94	0x3fad2ff7e6289aa3	0.057006594510587115
95	0x3f9074be80000000	0.016070343554019928
96	0x3fad63259198e68d	0.0573970546942749
97	0xbfb0862d981810e4	-0.06454739535553561
98	0xbfadf63949db173d	-0.05851916338501304
99	0x3f9b833d00000000	0.0268678218126297
100	0xbfb61cf924e039be	-0.0863795962361342
101	0x3fa9905cb6ab587d	0.049929520891667224
102	0x3fb0690859c80291	0.06410267059255605
103	0xbfa442e91cbf3305	-0.03957298732675522
104	0xbf9802bba0e6814c	-0.02344792527731103
105	0xbfa80db0b5d0a302	-0.046979448503696744
106	0xbfb43bf23d695a57	-0.0790397071772103
107	0xbfb0ac9af95b566f	-0.06513374889194677
108	0x3f87b51400000000	0.011575847864151001
109	0xbfa298ea380bd720	-0.0363228982368311
110	0xbfa0492a3b5f828e	-0.03180820441025843
111	0x3fae054b54783995	0.05863414198039433
112	0xbfb89b2640000000	-0.09611739218235016
113	0xbf8544e000000000	-0.010385274887084961
114	0x3fad14db7811b521	0.05679975357711898
115	0xbf938585d0f5d2c2	-0.019064036253854118
116	0xbfa8665800000000	-0.04765582084655762
117	0x3fa2134afd846cad	0.03530344338124656
118	0x3fb3e15be841add4	0.0776574556381811
119	0x3fb46a691affd06a	0.07974869641458474
120	0xbfb2a107280bc3ae	-0.07276959159550131
121	0x3f9767d700000000	0.022857055068016052
122	0x3f97cafccddf841f	0.023235273423669264
123	0x3f874745d0cc0758	0.011366410669782986
124	0xbfb16534aecd1a02	-0.06795052783591163
125	0xbfaccefd1279127d	-0.05626669741153465
126	0xbf6947eb2c00cbd5	-0.003086051292507256
127	0xbf90391080000000	-0.015842683613300323

linear2.weight f8 [64, 128]
0	0xbfb69b3000000000	-0.08830547332763672
1	0xbfa294cc6f8ff2a5	-0.03629149305195271
2	0xbfaf90cd36d34877	-0.06165162367109727
3	0x3fb479276aaa8c4a	0.07997366289286947
4	0x3fb1a46c17ccb554	0.06891513424917167
5	0xbf9d6bc12b6ce9e8	-0.028731363559225814
6	0xbfb2160e833adca3	-0.07064905837875073
7	0xbfa4a3820bb4b937	-0.04030996697325622
8	0xbfacaa9098a4b432	-0.0559888063747639
9	0xbf99ec1a80000000	-0.025314725935459137
10	0xbfa2e0a739efb377	-0.0368702181075155
11	0xbfb43cc8dd5d1970	-0.0790524998129507
12	0x3fa6695d40000000	0.0437726154923439
13	0xbfa9bf9f40712ca7	-0.05029008542677476
14	0x3f97c22800000000	0.023201584815979004
15	0x3f8de0b0b3a8b01f	0.014588718874698313
16	0xbfad865edadb10b2	-0.05766579076365143
17	0xbf905e7c77fc76b5	-0.015985436271072035
18	0xbf8e700d5356cb4a	-0.014862159829908034
19	0xbfa610a5c4c3841b	-0.04309576060200745
20	0x3fa6fbe594c30fcd	0.044890570077341964
21	0xbfb60bc180000000	-0.08611688017845154
22	0xbf65133800000000	-0.0025726407766342163
23	0xbfb2566b43624e60	-0.07163114924542802
24	0xbfb2971d20000000	-0.07261831313371658
25	0x3f6b8a7400000000	0.003361918032169342
26	0x3fa8ee4010f21156	0.048692705219795115
27	0xbf8f192626dded50	-0.015184686719058732
28	0xbfa8d93ae3a39289	-0.04853233364864191
29	0x3f89c61e65219705	0.01258491274002039
30	0x3fb2b0e6a0000000	0.07301179319620132
31	0xbfad1964b4ef45d0	-0.05683436115908658
32	0xbf86ab8fc0f691e7	-0.011069415165203501
33	0xbfa115c9c0000000	-0.03336935490369797
34	0xbfb5311b841bb4f5	-0.08278057074831564
35	0xbfa886d0c0000000	-0.04790356010198593
36	0x3fa24e997ac88871	0.03575591682262392
37	0xbf9bf5a3386115e1	-0.027304220501056412
38	0x3fad7b53e22d9655	0.057581540450695336
39	0xbfb2286a294af6ea	-0.0709291792690824
40	0xbfb09b74c0000000	-0.06487207114696503
41	0xbfa08e20a390b4d1	-0.03233434673925618
42	0x3f9fba658ecfd8cf	0.030984484521433594
43	0x3f7c6504d21a8140	0.006932276564527051
44	0x3f9af9ffc369f347	0.026344295789829244
45	0x3fa9e980ec6b96eb	0.05060961614598888
46	0xbfa7729cc91f7765	-0.04579629855264392
47	0x3f796791b0442021	0.0062022868116926875
48	0x3f97f98e1ca2bdcf	0.023412914750847776
49	0x3fb12185e6dba7c2	0.066917771207641
50	0x3fa4cf9d87deca44	0.04064647944996527
51	0x3f990c4280000000	0.02446082979440689
52	0x3faa97d140000000	0.051939524710178375
53	0xbfa6bf76a0000000	-0.04442949965596199
54	0x3f9d58d601fd6fce	0.028659194823702987
55	0x3faacaff40000000	0.05232999473810196
56	0x3f9a2f1d9388b6f3	0.025570356492770462
57	0x3fa5ef711ff3e4fe	0.042842421675183914
58	0xbf8eeb2ad5f60b91	-0.015096983580183994
59	0xbf97ae99780865b9	-0.023126981688710056
60	0x3f52a9783fc341ff	0.001139037543044563
61	0xbf975849c2a93a2a	-0.02279772997490618
62	0xbfb65f144e3e9d5a	-0.08738829527157091
63	0x3f9f8843f409d31b	0.030793248910828113
64	0x3fb3dba5da2c3eff	0.07757031036839733
65	0x3fb33873491118f5	0.07508011373383623
66	0xbf8590b2210c9e92	-0.010529891618332319
67	0x3fb160d99f71bedc	0.06788406508143957
68	0x3fb1dac560000000	0.06974443048238754
69	0xbfa390a3d854a157	-0.038212890775244084
70	0xbf9528557378909a	-0.020661673710620755
71	0x3fad685e68285661	0.05743689557509125
72	0xbfb23009104216a0	-0.07104546210220031
73	0xbfb814c2fb9de3e3	-0.09406679766642827
74	0xbfaf88f0191c824a	-0.06159162813697046
75	0x3fa84ab7462081e8	0.04744503718416465
76	0x3f843cb200000000	0.009881392121315002
77	0xbfa32b03c8a91838	-0.0374375517317706
78	0xbfb1452aa61e4065	-0.06746164851779353
79	0x3fa4fb5e1b2b4fd3	0.040980282608557815
80	0x3fa89c20071f1034	0.04806614005022461
81	0x3fadf97fc0000000	0.05854415148496628
82	0xbfb29ea8a0000000	-0.07273343950510025
83	0x3fadc3f6566eff70	0.05813569836709476
84	0x3f9eceb66f98c432	0.030085421143841447
85	0x3fa03d337bba239a	0.031716927388578856
86	0xbfad1105517d2169	-0.056770483205187024
87	0x3fa8060814f5b460	0.04692101722580655
88	0x3fa99bdd3c891c8b	0.05001727451286183
89	0x3fad4f5bd09e1ea5	0.05724608346559749
90	0x3fa731278bd7b45c	0.04529689390242517
91	0xbfb5e1c08b6def8f	-0.08547595409430485
92	0xbfb1e7fb177c0281	-0.06994599650716717
93	0xbfa08fbc51613915	-0.032346615728430596
94	0x3f93b9f376e4f679	0.019264034396874827
95	0xbfa8723780000000	-0.04774640500545502
96	0x3f95e4a6f5086d43	0.021380051332113636
97	0x3fa98012e40adf3e	0.049805250489440386
98	0xbf967abefc627790	-0.021952613977752444
99	0x3f895e5a00000000	0.012386992573738098
100	0x3faf8a9d61950105	0.06160442176997275
101	0x3fa7d280c8b3d41f	0.04652788591366907
102	0x3fb24afed1ef6388	0.07145683884972531
103	0x3fb7a40df30a780c	0.09234702285399993
104	0xbf8908642309fbac	-0.012223036116891205
105	0xbfa3e5ac76605b58	-0.038861646127932914
106	0x3fa3cbc344905ec1	0.03866396152460317
107	0x3fb789565818c69a	0.09193935061264327
108	0xbf8d161900000000	-0.014202304184436798
109	0xbfaa2881f46b471c	-0.05109029873496082
110	0xbfb304efe6696564	-0.07429408431325651
111	0x3faa55a22b678bd5	0.051434581564329264
112	0xbfb0f32b80000000	-0.06621047854423523
113	0x3f9e606b00000000	0.02966468036174774
114	0x3fa570f58732e645	0.04187743449569984
115	0xbfa5041e1b45f322	-0.04104703982281978
116	0x3fb102d260000000	0.06644930690526962
117	0x3f8cf896ea7fb396	0.014146021872841346
118	0x3f799122751796ef	0.006241926764664048
119	0x3f9f042b00cfaa94	0.03028933708621169
120	0x3f95933e676c510f	0.02106950289005832
121	0xbfb5923180000000	-0.08426198363304138
122	0xbfa39817e059b0fa	-0.038269754539983894
123	0x3faaf164644b493d	0.05262292599003835
124	0x3f8ae175f922e5f7	0.013125344911133914
125	0x3fa053311cca53c3	0.031884703411527514
126	0xbfb655d8e75b246a	-0.08724742554035606
127	0x3f8cc80c00000000	0.014053434133529663
128	0x3fa39304c0000000	0.03823103755712509
129	0xbfb5bc6d0bfa9b7b	-0.08490640203909365
130	0x3fa0aa347a1cd920	0.03254856100686454
131	0xbfb18b3ffa66c03d	-0.06853103507342069
132	0x3fa7bc09d3b17500	0.04635649403710751
133	0x3f87978b3c56d9c1	0.011519515780361258
134	0x3fb4a7250fbea4f6	0.0806754268111439
135	0xbfb181803f40065d	-0.06838227791015457
136	0x3f927d836a9a83c9	0.01805692041546417
137	0xbfae835fc0000000	-0.05959605425596237
138	0x3fb39445cd9af28d	0.07648121137294535
139	0xbfa234203382f0bf	-0.035553938186667626
140	0x3fa6ae98c0000000	0.04430081695318222
141	0x3f8a7d4545da3467	0.012934247202134054
142	0x3fa0973380000000	0.032403573393821716
143	0x3fa5aaf3b3617fc1	0.04231988491733275
144	0xbfb5b0c8f01edfa4	-0.08472877371138893
145	0x3fab2127249cabb2	0.052987311572301535
146	0x3faf3b3f03e1b2d0	0.06099888727553593
147	0xbfada41e6f606651	-0.05789275273873485
148	0x3fb0ef2308a561e9	0.06614893876156426
149	0xbfa9d0bf40000000	-0.05042073875665665
150	0xbfaffb2680000000	-0.062463000416755676
151	0xbfa872420667ec00	-0.047746718675590216
152	0x3f93a2f300000000	0.019176289439201355
153	0xbfb1833180000000	-0.06840810179710388
154	0xbfa3f85cd4114b86	-0.03900423134532276
155	0xbf779cadd0d5c480	-0.005764655082530656
156	0xbfb09268a754f501	-0.06473402104616711
157	0x3fb006d5083a68c7	0.06260425043948024
158	0x3fb52aeb20000000	0.08268613368272781
159	0x3f866177584861dd	0.010928089505839839
160	0xbf770ebed4af9a50	-0.005629296715574286
161	0x3fb50838e0000000	0.0821567103266716
162	0x3f92ca0e58b02559	0.018348907626238063
163	0x3fb521f820000000	0.0825495794415474
164	0x3f91a264e2f05df8	0.017221046782735144
165	0xbf97463b39def2e0	-0.02272884884563353
166	0x3f8768b15e3f07a2	0.011430154503503879
167	0xbf992cc5b491566f	-0.024584855218867604
168	0x3fb2b44060000000	0.07306291908025742
169	0x3fb153981d863399	0.06768179627233763
170	0x3f981f244242323a	0.023556295913794247
171	0xbfa2d9a8e2c7ef72	-0.03681686180422518
172	0x3f79d11e8a7136ac	0.0063029473304376075
173	0x3f963c925524485d	0.021715437361372703
174	0x3fa9676752a1cb07	0.049617031895556045
175	0xbf9157c91047ceda	-0.016936437243159165
176	0xbfaaf8277b9032b9	-0.052674516518981425
177	0xbf6498bbe2a10ad1	-0.002514235461633298
178	0x3fb3470ab087d060	0.07530276117160062
179	0xbfb0bc53e0000000	-0.06537365168333054
180	0xbfa4cb5000000000	-0.040613651275634766
181	0x3f8eb5a300000000	0.014994882047176361
182	0xbfb32c899da95699	-0.07489833926350754
183	0xbfb16ad1c0000000	-0.06803618371486664
184	0x3fb1d6448a8eacc0	0.06967571623561053
185	0x3fb2a15f6bf17852	0.07277485261281072
186	0xbfb573415b74bb92	-0.08378990633785424
187	0xbfb7d78e836f78f2	-0.09313288411019352
188	0x3f9a171819901c15	0.0254787221529363
189	0x3f424bc823158df2	0.000558350299041553
190	0xbf90a25461db3afc	-0.016244238350561865
191	0x3fb3090282f5980c	0.0743562288022021
192	0x3fa628a51bbc3c0e	0.04327884639325684
193	0x3fa245f004d112ad	0.035689831340765955
194	0x3f8c813f31665e0a	0.01391839379793593
195	0x3fa597fd3942b658	0.042175210227793414
196	0xbf75dcba00000000	-0.005337454378604889
197	0x3faab6a63643f036	0.05217475330752601
198	0x3f6076aaea1cd7c5	0.002009710137737183
199	0x3fbed1a09dbc4875	0.12038616038288004
200	0xbfb1ca919f596cf0	-0.06949720516552182
201	0xbfbf37d555e8b8ef	-0.12194569919003916
202	0x3f9155b31d2bc573	0.01692848077340643
203	0x3f9363ce8cd3924b	0.018935420365681115
204	0xbf92a8b300000000	-0.0182216614484787
205	0xbfa05634d12b32b5	-0.03190770200089813
206	0xbfad16f6fd0a81be	-0.05681583250884924
207	0xbf877457732e2e4e	-0.011452372744108843
208	0x3fa341ec559cb7eb	0.03761232895918439
209	0x3fa80d99c0000000	0.04697876423597336
210	0xbf94205800000000	-0.01965463161468506
211	0x3fb31f7eabe67bd2	0.07469932266984294
212	0xbfa35eb430901366	-0.03783190815742081
213	0xbfb2ad7e80000000	-0.07295981049537659
214	0xbf8042857cf18491	-0.007939379573317392
215	0xbfb64b7b42520a96	-0.08708925599243353
216	0xbf5272bda8e2fcf7	-0.0011259891648903156
217	0xbfb7f1f115322ed5	-0.093535487818538
218	0xbfb5520d4070c053	-0.08328326056721495
219	0x3f7694061cb3a5c3	0.005512260318235321
220	0xbfb287fb6141a164	-0.07238741993353909
221	0x3fbb60f6b15d0300	0.10694829778823234
222	0x3f742abe19ce783d	0.0049235750019800935
223	0x3fb337d8a0000000	0.07507089525461197
224	0xbf92e2ee20ab22e7	-0.018443794959952433
225	0x3fa6370d488aaea3	0.04338876257437831
226	0x3fb6e7219f787526	0.08946428435634299
227	0xbf9afcd4c0000000	-0.02635509893298149
228	0xbfb287706a2a02c1	-0.07237913696190913
229	0x3fa11ced67490c12	0.03342382322127703
230	0xbf87a4bb125f4cd8	-0.011544667719056198
231	0x3faf7fc3be1f4a41	0.06152164169147457
232	0xbfa30e488fb7b19d	-0.037218349021574705
233	0xbf9f35b5538cdbaf	-0.0304783184285175
234	0x3f9bf929764693e5	0.027317664951301075
235	0xbf42ed7dcbe3b5c0	-0.0005776275864072741
236	0xbfa67a4ca0000000	-0.04390181973576546
237	0x3fb5beeb035d4e29	0.08494442779674984
238	0xbf98717edcb8156b	-0.02387045118486723
239	0xbfa6bc3218860478	-0.04440456914290619
240	0xbfb4ba2fe0000000	-0.08096598833799362
241	0xbfae8aaa80000000	-0.0596516877412796
242	0x3f966d37b30fbafa	0.021901006988566764
243	0xbfafe94ae85241f3	-0.062326756343399035
244	0xbfac05bfa0000000	-0.05473135784268379
245	0xbf60d85c09731f42	-0.0020562932582811897
246	0xbfb1940749702b88	-0.06866498511241848
247	0x3f9f42f55a2b795c	0.03052886355259808
248	0xbf8980a785286885	-0.012452419997363027
249	0xbfb1beea40000000	-0.06931938230991364
250	0x3fafb45e622b293e	0.06192297886225838
251	0xbfaa4693f54f6b16	-0.0513197171164476
252	0xbf74b616cd5de882	-0.0050564661704531905
253	0xbfb6fdfd8e2e56c4	-0.08981308671203708
254	0x3fb4969e0d9998e2	0.08042323905974372
255	0xbf9b96a340000000	-0.026941824704408646

linear2.bias f8 [64]
0	0x3fa05951c96d3b8a	0.031931453550547564
1	0x3fb13658043ce0af	0.06723547080480573
2	0x3fb6d9919bbc9dc9	0.08925733616035027
3	0xbfab28980acb3731	-0.0530440819908179
4	0xbfab53b38216a78e	-0.053372964506095064
5	0xbf9f225e8c662529	-0.03040454608848112
6	0xbf883635b0c57e7c	-0.01182214685167015
7	0x3fb6ef38efa8b6fa	0.08958774424601393
8	0x3fb19b04a25899c1	0.06877163852241265
9	0x3f9fa1236b3db334	0.030888131542656086
10	0x3fb00fc0f290ee70	0.06274038240456448
11	0xbf9fa667e248c6af	-0.030908225237175454
12	0x3fa54e3ca47f18c3	0.04161252506269044
13	0x3f8136bd90cb5fce	0.008405190449977253
14	0x3fa3336499acb4f3	0.037501472243414734
15	0x3fa5a3ec25e3264f	0.04226625406733985
16	0x3fa12f07fb5070ab	0.03356194441605117
17	0x3fb1c520001c778f	0.06941413881983592
18	0x3f9b1f6943eec1f6	0.026487011691360217
19	0xbfb18d11ae652615	-0.06855879314129994
20	0x3f96fdb7d3d4da7d	0.022452232650915328
21	0xbf70fe96df28a160	-0.004149045317298622
22	0xbfb437f0b53f2797	-0.07897858071296891
23	0xbfa4b2e9d96e6af8	-0.04042750148001589
24	0xbf8b6c51addb4ed5	-0.013390195959267196
25	0x3fa702bbd1a688a2	0.04494273122988203
26	0xbfa3de7ec272b2be	-0.03880687831528949
27	0xbfa322df27d1e2fe	-0.03737542496759792
28	0x3f91b0dac23f1803	0.017276208978522344
29	0xbfa481492f88f2d2	-0.04004887299786265
30	0x3fa83b9c1e3e4b04	0.047329786960423476
31	0xbf96ab47cde09d20	-0.022137758198508384
32	0x3fb4d8405b7bd604	0.08142473443498238
33	0x3f8a20707ba2e571	0.012757185719567162
34	0xbfa2c1abf3e0ff00	-0.03663384773289913
35	0x3f9f42ea55cfa78e	0.030528699386116957
36	0x3fa18ae926a73054	0.03426292988623972
37	0x3fa06c4d71cc3617	0.03207628263599476
38	0xbfa908ce8f2173b1	-0.04889531609726506
39	0xbfad35120c6f3cca	-0.05704552079952803
40	0x3f7af791f392a68b	0.00658375751769714
41	0xbf71a4b8e473417b	-0.004307481990693747
42	0x3f99dc34ac5554d2	0.025254080789939355
43	0xbf94c21c77ae912a	-0.020271725468448278
44	0x3fa1d36f62b0ca39	0.03481624679297508
45	0xbfac1f3f6a53270e	-0.054925901154616694
46	0xbf9bdb9e0575cdd1	-0.02720496090246433
47	0x3f80c3b06967ca01	0.008185747353285146
48	0x3fb3bf707325af37	0.07713988124095016
49	0x3f7d22851016fba3	0.007112998749504581
50	0xbfa9e222e22457af	-0.050553407769413077
51	0x3f827ee360e3bb5d	0.009031082529387719
52	0x3fb44b3f73585ef0	0.07927319112820519
53	0xbfa7e43991eecc75	-0.04666309267431582
54	0x3f9c85c805cc8df7	0.02785408530611552
55	0xbfb6525754974bcc	-0.08719392600259751
56	0x3f866f4c6b57cf4e	0.01095447256646023
57	0xbf96ec0acd3b13d1	-0.022384804512302573
58	0xbf8c483c348dd478	-0.013809652665921698
59	0x3f76d9374ff6dcfa	0.005578247131260422
60	0xbfb15cfdbac75943	-0.06782518205668446
61	0xbf94e812b3f6f432	-0.020416538461848606
62	0xbfa929b362091efa	-0.04914627620433794
63	0x3fa7ad71b909d2a7	0.04624514945763752

linear3.weight f8 [3, 64]
0	0x3fa84e527b079713	0.04747255088640947
1	0xbfa9b66036d2ceb5	-0.05021954220992823
2	0x3fb4a0d939bb1996	0.08057935389942936
3	0x3fc1146d39c963c9	0.1334358722840803
4	0xbfc110cc9e170b3f	-0.13332517356146842
5	0x3fc395c5328e6b77	0.15300812691279095
6	0x3fa604f7c1c94ef9	0.043006651311456374
7	0xbfb80266f8f1faaf	-0.09378665521397055
8	0xbfb96da8ef8f9d66	-0.09932952736527553
9	0xbfb54fb05b276ab1	-0.08324720597685588
10	0x3fbd3b97d676a289	0.11419056878970414
11	0x3fb0ddd39db51090	0.06588480568194854
12	0xbfac16a9eabd8fdd	-0.05486041059955913
13	0x3fcab5d6e4359a83	0.20867429869686668
14	0x3fa0765c16bf158c	0.03215301301637927
15	0x3fc4393ba5699060	0.15799661232734064
16	0xbf9d4437f2dff13f	-0.028580545615100702
17	0x3f7584ee3cadc46f	0.005253725636849101
18	0x3fc6b00ef39ce844	0.17724787612115922
19	0x3fc71b4f008a64b0	0.18052089239498548
20	0x3f79a64151a18c88	0.006262068893280966
21	0x3fb18cf5d958df14	0.06855713421179771
22	0xbfc59591e7909752	-0.1686270123183769
23	0x3fb70c08be99adae	0.09002737668350022
24	0xbfc73045d6e6ed18	-0.1811606692625467
25	0x3f9cbceb5162781a	0.02806441959602788
26	0xbfc267c8acafdc40	-0.1437922328184147
27	0xbfb7284a24315dbb	-0.09045852073301479
28	0x3fadb7580f00c595	0.05803942855016967
29	0xbfc47b87bf412ea7	-0.16001984442333603
30	0xbfb01c09f8e1ebaa	-0.06292784048302616
31	0xbf9be6516ff76a12	-0.02724578138245632
32	0x3fc5512f1869371a	0.1665400380319902
33	0x3fbc7510e137524d	0.11116128443183833
34	0x3f932d8ef10a14c0	0.018728478872181098
35	0xbfbff5a146629381	-0.12484176605592091
36	0x3fc0aa250ebd84cd	0.130192405888954
37	0xbfc88ba3c4c9a65d	-0.19176146610998304
38	0x3fb9d00c4f14fc7c	0.10083081179344505
39	0x3fce5e679d33be82	0.23725600410351794
40	0xbfa3c232a25a50af	-0.038590986555534605
41	0xbfb4aa3dc2effd1b	-0.08072267541136961
42	0x3fb6c7fd5f7c6532	0.08898910123061368
43	0xbf8378e400e129e3	-0.009507924343911739
44	0x3fb5c774e6d0ea27	0.08507471690328626
45	0xbfbcf06f2e3339bb	-0.113043736247369
46	0xbfc928bccbcb7e62	-0.19655570937082972
47	0xbfcaee59222f06ef	-0.21039880913854556
48	0x3fa5544bff593f53	0.041658759041296144
49	0x3f997ce5d3c333c2	0.02489050965305118
50	0xbfd3916e18bb9e65	-0.3057513467342459
51	0xbfbb02e314b3a90f	-0.10551280265250206
52	0xbfa97f581f841879	-0.049799684378783966
53	0x3fc4046e74e9012d	0.1563852377748928
54	0xbfb93d6b4e5fe0d9	-0.09859343207779449
55	0x3fc6f4bf774e409a	0.17934411359283758
56	0xbfacf4389bd6fbed	-0.05655075933781704
57	0xbfbc70b4074c90e4	-0.11109471491051043
58	0xbfb15398712b5d5b	-0.06768181574749603
59	0x3fa688a1b1198bfb	0.04401116644728372
60	0xbfc45745907d6202	-0.15891332202114944
61	0xbfa2aa19ce2fad42	-0.03645401613160938
62	0xbfb35f7d12f67c78	-0.07567578995666391
63	0xbfb73702c26b1cf9	-0.09068314787429078
64	0xbfb889179f94fa3f	-0.09584186216395894
65	0xbfc661d78b955d31	-0.17486090007398894
66	0xbfd08f969131723b	-0.25876392535227283
67	0x3fbcfb9ac8ffdb03	0.11321418196881088
68	0x3fc515e94e9fe7c9	0.164731181517537
69	0xbf92898e292af0a5	-0.01810285688655768
70	0xbfb95b8b07e97742	-0.09905308669246174
71	0xbfc2d5984f59497e	-0.14714340090229067
72	0x3fb22a2562121a83	0.07095559734634986
73	0x3fc724c39b762a33	0.18080945101640253
74	0xbfc31e85d63914fe	-0.1493689819346073
75	0xbf9a5802887534b3	-0.025726356104588798
76	0xbf931a30d05fe330	-0.018654597013639307
77	0x3fca1b77f7083816	0.20396327554811994
78	0x3f74359655f109fc	0.004933917282928576
79	0xbfc4436ca3aa931f	-0.15830762855070987
80	0x3fae91ccc9cc5c71	0.059706115373210696
81	0x3fb46b4f4898f8df	0.07976241609955846
82	0x3fc3c6658144aebf	0.15449208080223362
83	0x3fc6b915fb0c3604	0.17752337225140036
84	0xbf79e71ca140e7ad	-0.006323921046765974
85	0x3faccab02279ca57	0.056233886917557534
86	0x3fb198266a00cdc0	0.06872787559478066
87	0xbfc00f563c4f18e9	-0.12546804375433077
88	0x3fc4f5e0394b48a6	0.16375353620111816
89	0xbfbdcfb112685218	-0.11645037364389343
90	0x3fb5ac57aed423b0	0.08466098802831712
91	0x3fa350b84b958bfa	0.03772521898897448
92	0xbfcb1a0cb46c6ab9	-0.2117324715589655
93	0x3fc314a3d5b81034	0.14906738219736015
94	0xbf5d8c97a91f4675	-0.0018035393772958517
95	0xbfc0ef721f9c0d08	-0.13230730575023864
96	0xbf7e855f50161d9e	-0.007451412502070735
97	0x3fb242f74c996e59	0.07133432026005816
98	0xbf720846bbe2d692	-0.004402424148954547
99	0x3fbe731b6e10138d	0.11894389569358861
100	0x3fc0e719e1b272e9	0.1320526458775
101	0x3fc01af0e0d150fd	0.1258221719496148
102	0x3faa9516196ce96c	0.05191868839615918
103	0xbfc95c753af1b571	-0.19813409212239777
104	0x3fb347578dc41780	0.07530734263499816
105	0x3fb79b0bcc128b8f	0.09220956547009805
106	0x3fb6663d790ecba5	0.0874975605536706
107	0xbfb3a6944a0f82b6	-0.07676054771537619
108	0x3facfdfd28d55a6a	0.056625281557605
109	0x3fc05aac8413027f	0.1277671475309212
110	0x3fbd35513e80e280	0.11409480834925922
111	0x3faa66fc580bb31e	0.05156696867729792
112	0xbf9687ebdcb22090	-0.022002873749926766
113	0xbfbe69eef758b1a1	-0.11880391634685462
114	0x3fb8529c89147df8	0.09501055094414557
115	0xbfb3c40c74a614c3	-0.07721021507139185
116	0x3fb21a8d5e4a96bc	0.07071765472445696
117	0xbfb5b15a6d2ac549	-0.08473744549953212
118	0x3fa79f9ee9993b2b	0.04613968469185744
119	0xbfcbdef7c1bdfc8e	-0.217741937256481
120	0x3f7a96c59b84bcf7	0.006491443542741885
121	0xbfbfd1a1c14caf76	-0.12429247826793052
122	0x3f90dd815712892e	0.016469975413778197
123	0x3f99446090033fd8	0.024674900808179107
124	0x3faaeacc451d003d	0.05257261603992489
125	0x3fb56809cbb95b4e	0.08361874793750454
126	0x3fa64a3e4d75ee0d	0.04353518195690862
127	0x3fb8d273f1976f84	0.09696125648718917
128	0x3fac2958c4225ccb	0.05500295061318069
129	0x3fc3767ed94a117b	0.15205369577246217
130	0xbf875555a7aa8368	-0.011393231562864606
131	0xbfd194745f24a8b8	-0.27468594828918524
132	0x3fc5f49ccf77248f	0.1715274823202759
133	0xbfba468c5ad21a09	-0.10263898103048787
134	0xbfae829031f660e3	-0.05958986863987705
135	0x3fa8b82a2f491b3d	0.04828006579605535
136	0xbfc099a339413ed3	-0.12968864722869586
137	0x3fc709b5f21d8b4c	0.17998384782830568
138	0x3fbee3fcd5fb8842	0.12066631530936525
139	0xbfb753c2fb97c3d6	-0.09112185137179493
140	0xbfb7565d96893f5e	-0.09116158414076156
141	0xbfc58ce25b3dd284	-0.16836194472456978
142	0x3fa688511e82c94f	0.04400876519629781
143	0xbfbd8b60837dfa42	-0.11540797434097619
144	0xbfb07e8da82e31a6	-0.0644310508343496
145	0xbfb20485ac63d537	-0.0703815027116733
146	0xbfc20c8574e19724	-0.14100712020006612
147	0xbfc09f771b969ae2	-0.12986649367413522
148	0xbfc0432005830542	-0.12704849499827203
149	0xbfc31cb3154ae242	-0.1493133405654295
150	0x3fab23004a40c1f1	0.053001412452775905
151	0xbfb41fb205fb7b96	-0.07860863348058297
152	0x3fc573b3bd9ba485	0.16759344824030023
153	0xbfba8bf681f04bd9	-0.10369816467600347
154	0x3fbd3830aa8b93d9	0.11413864291860366
155	0x3f7f70cbe6697d9d	0.007675930485305041
156	0x3fc2ec6bb0ac3927	0.14783998610114077
157	0xbfbbb0486cedc2f7	-0.10815861377137624
158	0xbfa4315850f32e45	-0.03943897236021291
159	0x3fb906319b35f43e	0.0977507594997897
160	0x3fb2e849c42ef3aa	0.07385693587907718
161	0xbfd1469a8b74306a	-0.26993430727521306
162	0xbfba038ed08457ec	-0.10161678877588515
163	0x3fc077aecc293feb	0.12865242928319218
164	0xbfd1eb3ed837fc28	-0.2799832450400026
165	0x3fbd445f07f0ab9a	0.11432451194620655
166	0x3fa32b4a48691d6c	0.03743965276640435
167	0x3fa2e750f6f7dbf2	0.03692105307339223
168	0xbfa50015792ddeaf	-0.04101626495588328
169	0x3f8edff9b6eb889f	0.015075636763360043
170	0xbfd22cec8622cc0d	-0.283991938583484
171	0xbfb632be75d45818	-0.08671179176994348
172	0xbfd11bcf0ecee5e4	-0.26732231565583064
173	0x3fc1603873069ad7	0.13574891678327702
174	0x3fc145e96c8b0d14	0.13494603919944181
175	0x3facead530b06916	0.05647913188313873
176	0x3fa52d78eeffd158	0.04136255185577181
177	0x3fd0415d9099f93f	0.25398959275470995
178	0x3fb531e1d9d9fb5b	0.08279239243163998
179	0x3fc6a3a084acdf07	0.17686850050244393
180	0x3f989986c5ddd6ad	0.024023156954590053
181	0xbfa7a3a2f94e7a84	-0.046170323307923616
182	0xbf98cadd99b2f363	-0.024211370950740895
183	0x3fc1d602ea6fbbdb	0.13934360930531295
184	0xbfa69bb497999bc3	-0.044156688218940164
185	0x3fc844adc44ca070	0.18959590992858777
186	0xbfc173e8924ca280	-0.13634974616549655
187	0x3fa3200806e4d412	0.03735375484613014
188	0x3fc2794c5f362249	0.1443267311954222
189	0xbfa1bbfdc9430930	-0.03463738519487192
190	0xbfc9678269e23d5e	-0.19847135706047941
191	0x3fa601a021a75b13	0.04298115168392349

linear3.bias f8 [3]
0	0x3fb53d9515d6683b	0.08297092230932972
1	0xbfb3150ee915d069	-0.07454007330471914
2	0x3f7e1e5133f68142	0.007353131484166222
