runs/testrun-fl-trial-run-20bs-20ep/1/LocalModel-1-Round8.pt (torch, 167767 bytes, 6 tensors)

linear.weight f8 [128, 95]
000000 6a b4 4a 06 31 94 04 c0 80 aa d1 c6 95 61 f7 bf
       -2.5723591319606856 -1.4613244787566657
000010 52 d1 6c 1e 9b 0f 03 c0 65 6e 91 d6 74 22 01 c0
       -2.3826200844725145 -2.14182441359826
000020 a9 68 79 75 57 f1 f5 3f 1b d5 12 54 d3 50 f3 3f
       1.3714212979162232 1.207232788479195
000030 0a c9 d4 e4 3d fe 02 40 25 10 a1 a0 f5 99 f3 3f
       2.374141490691845 1.2250877642227433
000040 e6 cd 1b 68 69 e7 f8 3f 23 52 f6 df e7 cf e1 3f
       1.5564970080130194 0.5566291212331332
000050 f7 94 03 cc 84 d5 fa bf e6 aa 0b 66 e7 4f e6 3f
       -1.67712859814611 0.6972538941457429
000060 dc f5 98 9f 6b 50 fa 3f 10 4c d7 5a 74 75 eb bf
       1.6446338876988795 -0.8580877088774077
000070 57 3d 6a 93 17 f9 01 40 ef 05 41 d5 00 ce 01 40
       2.246626998595882 2.2255875263660907
000080 41 ef 1e 58 41 2c b0 3f 72 4a 0d 8d 0c 8d e2 3f
       0.06317528153789188 0.5797178988380678
000090 0e 8b ce 78 1a e3 03 40 91 ee 0f ae bc ce fd 3f
       2.4858903348953225 1.862972907953836
0000a0 ca 56 a0 72 d8 cb 01 c0 bf b7 02 2d d8 45 f0 bf
       -2.224533935087355 -1.0170518644549558
0000b0 77 bb b3 4f 4e 3f bf bf 85 f5 0a fd 4e 5e fd bf
       -0.12205972143031639 -1.8355245480046005
0000c0 15 c8 f6 64 b7 60 00 c0 5f 7b 0b ff b2 66 fa 3f
       -2.0472247970401534 1.6500730478944303
0000d0 45 2e ec 09 04 28 f1 bf 6d 6b d4 91 60 49 f6 bf
       -1.0722694766617604 -1.3929143616175808
0000e0 30 1e 4a 63 a8 54 e2 3f d7 15 81 a5 e9 1b d9 bf
       0.5728341998337267 -0.3923286548855151
0000f0 31 e1 5e 37 37 c2 fc 3f b2 3d 95 aa 1d a1 ec bf
       1.7974159396090494 -0.8946674663256344
000100 ba 8a 12 29 b4 ce f6 3f ba a1 5c 50 51 c1 c9 bf
       1.4254647831336755 -0.20121208595197776
000110 d6 4a 7a b3 7c 7a f6 3f 95 e3 cd 59 28 ce fe bf
       1.4049040804717854 -1.925331450269572
000120 c2 b3 a8 70 74 42 d7 bf 43 2f c4 9d 59 21 e6 bf
       -0.3634310817895391 -0.6915710526822995
000130 b6 dd 6d c5 2e bd 05 c0 bb 2d 18 02 53 e4 e5 3f
       -2.71737436524901 0.6841216126353439
000140 86 7b d5 33 ca 82 01 c0 ac 96 4b 7a 42 92 00 c0
       -2.1888622331165974 -2.071415858680515
000150 42 df 3a b2 a9 86 f5 3f 2e 1a ee 46 7a 71 ff bf
       1.3453766786678476 -1.9652045031267664
000160 68 60 1a 2c 23 83 fe 3f 19 a5 25 1b 2f d9 ff 3f
       1.9070159647726772 1.9905234394485147
000170 a2 a9 8c ef 6b 7d f5 3f 54 f4 a5 f0 c0 cd c1 3f
       1.3431205136681474 0.139091603759797
000180 1a 7f 82 ed d3 dd ea bf 0a 90 70 2f 8a 86 e1 3f
       -0.8395785940992682 0.5476733137661551
000190 96 69 15 c4 00 20 f0 bf 7d 9a 28 b4 ef 30 e2 bf
       -1.0078132304684906 -0.5684736746523665
0001a0 b4 cb a6 5e 8e bf f4 bf ce 08 2d 40 7d f7 f5 3f
       -1.2967666337324149 1.3729221827384666
0001b0 24 ab 03 0d 56 2a f4 3f 47 27 80 77 0b 41 03 40
       1.2603359707233688 2.4067601524338076
0001c0 ef 33 9b a1 d5 71 01 c0 34 5c d4 91 97 e3 d5 bf
       -2.180583250569263 -0.34201611748852945
0001d0 00 e6 e6 09 81 ce d4 bf 46 06 61 df b3 6f 8c bf
       -0.3251040074061109 -0.013884930853353638
0001e0 ee 33 2a d9 eb e9 fd 3f a0 85 32 94 40 07 f5 bf
       1.8696096880914825 -1.3142705716094056
0001f0 70 33 13 5c 15 9b e0 bf 1f 9d 33 4b 67 09 00 40
       -0.5189310835208811 2.0045915484548824
000200 60 ac ca 58 74 0b d2 3f 21 54 e2 63 e4 32 e0 bf
       0.28194912596763366 -0.5062124205456976
000210 93 cd b7 94 88 98 cb bf 41 3d ab b3 c8 df dd bf
       -0.21559245359058518 -0.466783690889276
000220 38 41 76 b3 bd 90 d7 bf f1 d9 6c 5b 50 41 f7 bf
       -0.36820929074839936 -1.453445775155725
000230 59 9b 19 20 8a 88 00 40 b1 9e 42 85 e8 92 df bf
       2.066669703275164 -0.49334157003111573
000240 e6 4b ea 87 26 09 e1 3f 6c 89 8f cf 9f 72 f3 bf
       0.5323670057863381 -1.2154844386901358
000250 d5 60 ee 4a d9 23 e9 3f 21 3b f8 e1 c2 72 fc 3f
       0.7856260741710012 1.778017885869936
000260 e2 74 9f 86 0d a5 01 40 d4 ab 83 82 25 b1 d6 bf
       2.2055922048008236 -0.3545621656946285
000270 66 4b a0 9b 2d 9b e2 3f bf 9f 25 36 78 27 fc bf
       0.5814426459859134 -1.7596361270061462
000280 f4 c3 67 89 9f 6d 00 40 1c 3e c6 a9 de 5e de bf
       2.053526948432131 -0.4745403917267781
000290 34 fe 36 2b ba 40 04 40 66 bc c6 29 40 f2 c7 3f
       2.531605088821175 0.18708040275439258
0002a0 01 d6 af 21 02 88 fc 3f 6d b4 f7 d5 73 49 bc bf
       1.7832051578419625 -0.11049579595392496
0002b0 58 8a ae 8f 3d 19 f9 bf ae 5b fb a8 79 22 e7 bf
       -1.5686622250147106 -0.7229584026743987
0002c0 f4 8d dc 9f 2b 11 c1 bf 04 a2 07 f3 0a fa f4 bf
       -0.13333649926890667 -1.3110455983497795
0002d0 88 f5 0d 84 ef 2f fa 3f a0 4e 29 df a9 25 02 40
       1.6367030294780722 2.268390410850614
0002e0 30 42 5d e1 57 e3 06 c0 c2 1b c2 c1 7d 83 ea 3f
       -2.86100746217587 0.8285511764851139
0002f0 18 88 02 eb e8 62 05 c0 3b 8d 25 bf d5 68 fb bf
       -2.6732958183429325 -1.7130944697062904
000300 52 47 67 0a 8c f5 f7 3f c5 0c 37 e1 b4 88 f5 bf
       1.4974480062851012 -1.3458756253683515
000310 eb cd 94 55 27 c6 f0 3f 07 1c 24 ca 6d bc ee 3f
       1.0483773558634037 0.9605015705172953
000320 b5 19 10 9d 74 d6 f2 3f 57 42 5f 71 3e 38 fe bf
       1.177357305075572 -1.8887314251516238
000330 2c fd ee 5d 36 de ad bf c3 fd 73 f7 82 4c e6 bf
       -0.05833597084665096 -0.6968397934978657
000340 43 fe 1a a1 69 37 00 40 55 1a de f0 84 1b 05 40
       2.027056940685527 2.6384371583729185
000350 94 3f 05 fb 99 25 ea bf 2f a5 81 6b 92 40 03 c0
       -0.8170900252098243 -2.406529273885688
000360 4b eb 6e 59 53 28 00 c0 6f 30 16 92 be 61 d3 bf
       -2.0196902262663676 -0.302840845740099
000370 f2 ff 3c 93 9e 94 d4 3f 46 e9 a3 6c 72 c0 e3 3f
       0.32157101038683245 0.6172420617943224
000380 42 ec 15 23 db fb f7 bf 55 8a d6 a2 27 6d fc 3f
       -1.4989882822544733 1.7766491280423413
000390 de 23 61 b5 a2 0a f4 bf 53 81 08 83 01 18 01 c0
       -1.2525965771803764 -2.136721633622224
0003a0 b0 2c 71 51 1d ed f6 3f ef 37 df 15 6b ff 00 c0
       1.4328892880755966 -2.1247159680124166
0003b0 17 25 69 cd d8 f8 fe 3f 13 1f 88 2a f4 0d f9 3f
       1.9357536338669143 1.5659066831012225
0003c0 cf 19 f3 00 40 a3 8e bf 89 f9 99 7f 98 db f2 3f
       -0.014959812191944004 1.1786122307235891
0003d0 7b a1 d6 87 83 64 03 c0 b0 40 b6 d3 68 1f e9 bf
       -2.424078999745857 -0.7850841650961424
0003e0 9b 46 c1 57 f1 91 f0 bf 30 64 9e 82 97 09 00 c0
       -1.035630553048043 -2.0046835140788275
0003f0 9c f0 6a 60 4d f6 ee 3f 86 b0 71 39 f8 12 07 c0
       0.967566192928206 -2.8842625129528328
000400 8e 20 b4 bf b6 3f be 3f 6c a6 17 02 aa f6 b6 3f
       0.11815969639076426 0.08970129538615773
000410 49 78 67 2d 0c 50 d8 3f 15 1a 88 b2 02 00 ec bf
       0.37988571580888625 -0.8750012862154245
000420 b4 f5 f3 ee c6 96 f8 bf a7 3a 8d 07 3e a2 f2 bf
       -1.5368108114338215 -1.1646099371898033
000430 f9 10 8c 40 f7 72 03 c0 d9 79 47 c9 16 8a fc bf
       -2.4311356585259287 -1.7837131369084231
000440 b6 fb 26 57 14 cc fd 3f d2 7a b1 9b 67 25 01 c0
       1.862324085653865 -2.1432640231645133
000450 85 7a 12 89 48 d8 00 c0 e7 39 07 d0 1c ea f2 3f
       -2.105607100368902 1.1821563840963962
000460 f0 24 db 56 2b 94 ee 3f fb 31 f1 0d 62 86 f2 bf
       0.9555870720297701 -1.1578083557716343
000470 ee 6b 8e 8d 76 da 73 3f f6 8c cf 99 31 ef f9 3f
       0.004847014520147559 1.6208969124061787
000480 5b b0 57 cb 89 c3 d9 bf 4c 52 ed 4a 21 13 e2 3f
       -0.4025597081915799 0.5648352111262027
000490 b0 67 fe 99 5c 21 d0 bf 07 41 2d de 23 ec e6 3f
       -0.25203623808340136 0.7163256968870265
0004a0 d3 4b a4 58 f2 6f cd 3f 82 36 97 19 20 96 fa bf
       0.2299788410969926 -1.66165170666082
0004b0 5c 1b 34 e5 1c e4 ed bf 97 09 06 53 2b 7a e8 bf
       -0.9340958096152963 -0.7649132367662784
0004c0 88 a8 a4 5d fe 53 04 c0 9d b9 b8 0a 8f 86 fa 3f
       -2.541012507998918 1.6578512591182524
0004d0 ba 8e cd 4f c0 f5 ea 3f a0 f2 da 64 6e c2 02 c0
       0.8424989279414696 -2.3449371222798874
0004e0 e2 54 f3 78 4a 6e e9 3f 86 06 b9 ff f5 55 00 40
       0.7947132456125952 2.0419731119480415
0004f0 d8 c2 6b b9 ce 96 e6 3f 16 ec 86 22 7b 49 ca 3f
       0.7059091207030077 0.20536746202364559
000500 aa 50 79 02 88 ea f6 3f 6e 8d 37 af 33 8b e5 3f
       1.4322586151729788 0.6732424184996668
000510 06 66 66 7d 92 3b e1 3f 9c 43 2f 23 60 0c f0 3f
       0.5385220002382887 1.0030213713073186
000520 d3 dc 6d d2 3b d0 fb bf d0 7e 71 d6 a8 88 d4 3f
       -1.7383383006943418 0.32084103528721375
000530 19 09 34 ff 9b 29 da bf 64 86 47 54 7b 5c e0 3f
       -0.40878963396257145 0.5112892767030641
000540 1a 20 58 12 e7 28 fc 3f 0d 4a 2e 4d 45 ee ff 3f
       1.7599859921047085 1.9956715597987824
000550 fd ee c1 eb 97 e2 d2 3f f2 0c 09 64 64 84 d4 bf
       0.2950801660842755 -0.3205805756480934
000560 e0 bc 70 ea 13 c2 ee bf 4e bf fb 3b 62 59 f2 3f
       -0.9611911372102462 1.1468221991635406
000570 58 75 11 c3 f6 a0 00 c0 27 7f 9b 49 e6 cb fd 3f
       -2.078595661134994 1.8622801661767399
000580 61 98 e7 2e fa 5b f1 3f 8a 01 0a 63 45 12 02 c0
       1.0849553901876094 -2.2589214074543564
000590 df b3 32 a4 a1 6c 02 40 25 9c 53 90 36 ea f2 3f
       2.303042681500741 1.1821809423215737
0005a0 98 83 0a 16 97 c4 fd bf 2f bf 91 45 8b 0b f0 3f
       -1.8604956494311633 1.0028183667709063
0005b0 db 9b 9f 15 9b 38 e4 3f 1a 99 03 72 32 25 f6 bf
       0.6319098875363766 -1.384081311576273
0005c0 16 29 f8 4f 3c 04 f7 3f 56 e2 ad c6 97 90 f6 3f
       1.4385340808681284 1.4103009949596035
0005d0 66 83 76 b7 3e 6e e2 bf c4 40 57 8f 9f 79 d0 bf
       -0.5759576400051685 -0.25742329595687985
0005e0 de 09 f2 91 f5 bc 01 c0 08 38 79 88 d3 7a 06 c0
       -2.2172652627934744 -2.809973779868418
0005f0 ed 59 b1 59 c5 b6 c1 3f 19 80 4c f7 6f 76 02 40
       0.13839022521524616 2.3078307457181038
000600 ab 80 9f 0a 32 61 d0 3f 98 76 91 88 84 27 ff bf
       0.25593234097869794 -1.9471478781410152
000610 57 5c 1f 3e 11 c4 f5 bf fc 8a dc 9a ae db ff 3f
       -1.3603680063877357 1.9911333131100823
000620 44 ed 5c 18 13 50 f6 3f 00 3d 2b f7 8e 88 f8 3f
       1.394549460571242 1.5333394675288332
000630 9a 11 77 88 6e 79 fc bf e3 35 e0 b7 73 7b d2 bf
       -1.7796464281719637 -0.28878491360305086
000640 1c 61 c9 af d9 cb dd bf fa d9 21 39 d9 9d f2 bf
       -0.46556703726447934 -1.163537238285811
000650 bf a4 51 87 b1 0f 00 c0 dd 1c 91 9f d5 a6 f3 3f
       -2.007662827662528 1.2282310708122204
000660 46 27 f7 4e 0b e4 ff 3f ea 59 d9 0f ba c7 e8 3f
       1.9931748470866792 0.7743807134200413
000670 94 ba af 71 cd 45 00 40 5f ff 6e fe 2e 99 03 c0
       2.034083259749716 -2.4497966649650347
000680 75 f6 1f 1c fd 5c f8 3f 8b ca 3b 25 63 21 f4 bf
       1.522702321875298 -1.2581511930881415
000690 5a ea 03 9b 05 7e f9 bf c0 8f 07 a2 52 11 f5 bf
       -1.5932670645985554 -1.3167291955260083
0006a0 79 5d 0f 3a 53 2d fb 3f d5 e5 d3 b4 43 ba f8 bf
       1.698565699383691 -1.5454747260649715
0006b0 ca 66 2e 68 e7 92 fc 3f a9 e4 5a 97 ca ab f1 3f
       1.7858652181225119 1.1044412529284193
0006c0 74 7e e1 93 8d e0 fa 3f 7b e4 75 e2 0f 5a e8 bf
       1.679822518977656 -0.7609939024979576
0006d0 aa 31 b2 42 d6 02 b5 bf c1 12 c8 ff 9e a6 01 c0
       -0.08207453850099591 -2.2063579543049348
0006e0 4c 20 58 c0 72 43 01 c0 72 3c 02 ed 30 88 00 c0
       -2.157933714570424 -2.066499568587056
0006f0 e3 98 b6 21 a9 bd dc 3f 38 db c5 e8 7a 4e f2 bf
       0.4490759686690479 -1.1441601841631392
000700 83 11 72 c5 69 47 05 c0 4e df c7 26 4b f9 ba bf
       -2.6598697114406504 -0.1053664178542679
000710 b4 cf df af d0 84 e1 bf 3f a9 3e 42 da fd c8 bf
       -0.5474627909702492 -0.19524696573837194
000720 15 be ed b8 a2 16 01 40 00 b1 65 b6 99 17 ef bf
       2.136052555804563 -0.9716309130140246
000730 00 9e 24 aa 4b 36 d2 3f 64 1e cc b6 8a 83 f4 3f
       0.28456393828898285 1.2821147099038166
000740 8d a8 37 f7 30 63 04 c0 bf 24 96 6f 6f a4 e5 3f
       -2.548433238397655 0.6763226680206101
000750 34 67 33 8c cc a3 ee bf ce d6 dc 80 35 c3 ec bf
       -0.9574949968621014 -0.8988292233322797
000760 5f 91 6b 3b d7 8e f5 3f 08 14 9b c3 43 bd f0 3f
       1.3473732300854733 1.046207202992493
000770 54 7b 43 4f 27 8e ea 3f b4 e6 46 09 97 7e e8 bf
       0.8298527286641311 -0.765452879065569
000780 b0 9a c9 6b b4 2a f4 bf 5c d4 1a 95 26 20 d6 3f
       -1.260425969166743 0.34571232377067473
000790 35 8c c5 9b 37 13 b4 bf 33 4b 7e ef aa 07 e6 3f
       -0.07841823151606848 0.6884360005954931
0007a0 0c 83 60 6a e2 4b 03 40 31 13 73 ef 5b dc fb 3f
       2.412052947111425 1.7412986138817355
0007b0 01 d4 d8 c7 ac 42 b3 3f d1 38 27 e6 de e5 00 40
       0.0752361286075285 2.1122415524215303
0007c0 0f d4 4e c8 81 a9 f3 bf 66 82 bd 75 09 3f 02 40
       -1.2288835358169796 2.2807797621210737
0007d0 37 56 3e 78 42 28 e8 bf 30 b1 e7 dd 63 c9 03 c0
       -0.7549145077234191 -2.473335012086089
0007e0 19 01 d8 30 dc c5 c0 3f 94 2f ab 75 a3 53 e5 bf
       0.13103821167897747 -0.6664597795693106
0007f0 3f de de 92 f0 08 05 c0 a7 2e e0 04 da 08 02 c0
       -2.629365107942959 -2.2543220883288373

linear.bias f8 [128]
000000 75 97 f4 fa 91 4f 00 c0 56 02 66 5d e0 7c f5 bf
       -2.0388526540654603 -1.342987408483301
000010 42 2b 2c 25 df a0 fe 3f 40 18 e6 f0 41 03 02 40
       1.9142753078510428 2.251590616247114
000020 00 00 a8 bc 7b b9 f1 bf 87 b1 a5 14 0d a4 e1 bf
       -1.1077840203652158 -0.5512757685915383
000030 aa 42 06 fc 9a 52 e1 bf bf fe 91 a9 3e 60 f0 bf
       -0.5413336679794913 -1.023497259506186
000040 00 00 89 19 d0 1f 03 c0 79 2a 87 e0 bf b5 e4 bf
       -2.3905336375173647 -0.6471862206756916
000050 70 54 43 49 38 c5 fe bf c9 e0 db 14 7d ba f0 3f
       -1.9231493818126886 1.0455294432450037
000060 65 55 af 33 1c ca fa bf 46 b8 6a 2e 94 af f0 3f
       -1.6743433016721039 1.0428659260901596
000070 51 72 72 e3 3b 27 00 40 00 00 04 7a d9 f7 f9 3f
       2.0191571969319644 1.6230101362452842
000080 d4 d5 3c a6 e0 a6 fd bf 20 57 04 c0 ba b1 00 40
       -1.8532415860803342 2.086781978733498
000090 bb 6a 11 bd 93 95 f0 bf 79 91 19 0c f0 aa f4 bf
       -1.0365178475828276 -1.2917328331614881
0000a0 4d 9f 39 4f c6 ea fa 3f dc 61 a9 13 7c 39 01 40
       1.6823180289010964 2.1530686889711728
0000b0 00 00 51 86 1b 87 03 c0 9f 4d 35 fc 81 e4 e8 3f
       -2.440970467898296 0.7778940130178177
0000c0 00 00 f8 0c c1 c9 f8 3f 2b 24 43 2c a7 08 eb 3f
       1.549256373080425 0.8448062767503236
0000d0 67 8c 6e 11 a7 d5 03 40 42 bf 4a aa 98 9d f6 3f
       2.479322563348933 1.413475671008158
0000e0 b9 5c 48 f0 30 6c d8 bf eb 09 97 ce cc 8f d2 3f
       -0.3816034647474669 0.29002685713581283
0000f0 00 00 a4 b1 13 80 f9 3f 07 17 03 35 48 19 03 40
       1.5937687815749086 2.3873447553222635
000100 d2 fd 74 c6 24 00 d6 3f 00 00 98 cd fa d0 ec 3f
       0.34375876789633 0.9005102172377519
000110 00 00 ad e9 1a f4 f4 bf 00 00 76 7d b3 89 04 40
       -1.3095959785423474 2.5672368814121
000120 00 00 64 a2 7f 77 f4 3f 9e 64 1c b7 1a c6 fb 3f
       1.2791744559654035 1.7358653214235242
000130 00 00 3c 7f b3 5f 00 c0 6a cf 23 87 89 04 ec 3f
       -2.046729082125239 0.8755538596583226
000140 00 00 a4 87 2c 9a f3 3f 47 29 2e 02 77 40 f1 3f
       1.2251401232206263 1.0782384953659674
000150 00 00 04 fa 9e b6 f5 3f de 20 76 4a d3 70 de 3f
       1.3570852056727745 0.4756363131678095
000160 00 00 a0 70 dc 4f f1 3f 0e 25 82 ad 89 ba e9 3f
       1.0819973372854292 0.8040207280002123
000170 7b ee 95 d1 ee d9 d4 bf f9 f5 fd 03 17 11 f3 bf
       -0.3258015677199421 -1.1916723400057647
000180 c8 ba 1e 33 5c e5 ff bf 74 d6 51 88 5f a0 ed 3f
       -1.9934961315990893 0.9258268034452173
000190 ce bc 63 a4 c4 38 00 40 6e 70 53 a9 37 cb 00 40
       2.027718815129993 2.0992272595013253
0001a0 2b e9 4e f2 bc cf fb bf 39 11 da c9 5b c7 f0 bf
       -1.73821730281504 -1.0486715206944395
0001b0 bc b8 b4 fe b9 2f f8 3f 42 f0 f2 ed cb ec 02 40
       1.5116519879771166 2.3656233396305035
0001c0 fc ea 6d a3 f9 04 e2 bf 28 06 b0 d7 b0 16 a1 bf
       -0.5631073181133099 -0.0333762419977684
0001d0 70 66 ec 2f 9a 62 f7 bf 78 13 92 bc 07 b4 f8 3f
       -1.4615728256234455 1.5439526907004772
0001e0 df ce 4f a3 c9 71 f3 bf 06 b6 7d ee 04 5a eb bf
       -1.2152801875462769 -0.8547386796978464
0001f0 a6 54 a8 e3 cc 7b fa bf 00 00 6f 3e 3f ec 04 c0
       -1.655224694525978 -2.6153550031303894
000200 af 7d 76 e8 ef 80 f6 bf 00 00 04 9b 9e 84 f9 3f
       -1.4064787941532406 1.594877820520196
000210 4b 05 26 00 5a 58 c9 3f 76 ea 05 34 14 0f f3 3f
       0.19800877578021878 1.1911813766625108
000220 de cc 02 e6 bb 6b ff bf 88 53 4d 6c 13 fc f3 3f
       -1.9638022408296858 1.2490419607686096
000230 60 0a 63 9e 2a 7b e0 bf 75 dd e9 68 7e 09 d8 bf
       -0.5150349706166928 -0.3755794548555607
000240 31 5a fb ce e2 43 de bf 00 00 04 50 ef 90 00 c0
       -0.4728934308344917 -2.0707689524861053
000250 5c 93 d0 45 0d 52 c3 bf 3a a6 b5 85 c3 14 f8 bf
       -0.15094152363703983 -1.5050692770986545
000260 00 00 80 7a e5 dc a2 3f 00 00 e1 e9 71 76 03 c0
       0.036841555789578706 -2.4328344604291487
000270 24 d0 9e 59 4f 99 f0 3f 00 00 0c 1e 25 b5 f3 3f
       1.0374291897578667 1.231724851008039
000280 b5 cc 92 2f 69 0f 00 40 6a d0 df 7e f6 e1 fa 3f
       2.007524844806165 1.6801667171503376
000290 9a 1c 58 67 20 fa f4 bf 76 e3 98 25 dc ad e1 bf
       -1.31106605881522 -0.5524731382675856
0002a0 14 f6 dd a4 9f 8e f0 bf 4e d7 b5 87 bd e8 f5 3f
       -1.0348202171438787 1.3693213750061264
0002b0 41 66 fd 8f 80 ff f2 bf 97 5a e8 93 4a ea 00 40
       -1.1873784660914597 2.1144000582965634
0002c0 c3 01 7d 14 37 3f cb 3f 1e 3f 11 25 14 65 fa bf
       0.21286667347341223 -1.6496774146980395
0002d0 ff ec c1 d2 a8 80 d3 3f 12 ba 0e 59 29 17 d0 bf
       0.30472775060452756 -0.2514136666967782
0002e0 bc 36 3b bf f7 60 fc 3f 00 00 bc 3f 63 45 03 c0
       1.7736737699482736 -2.408880708622746
0002f0 2b b5 d6 a9 d2 be f0 3f 00 00 32 3b 9f 92 fe bf
       1.0465876230549138 -1.910796385986032
000300 5c a5 f3 d7 94 ee f0 bf cd 9f b3 af df f3 fb 3f
       -1.0582474170317573 1.7470394957872373
000310 9a 5d e2 ce 06 b3 ce bf 67 ce fd 4e 53 a8 f0 3f
       -0.23983845807809417 1.0410950742342722
000320 93 23 b9 f5 54 b3 03 40 fb 41 7d f8 b6 81 f9 bf
       2.4625643918156555 -1.59416863504532
000330 69 23 9c 96 75 9b f6 bf 87 7c 8d f5 e3 e2 db 3f
       -1.412953937835676 0.4357232950187115
000340 08 65 0e 94 8e 74 ef bf 00 00 30 6d 13 3f e3 3f
       -0.9829781429026818 0.6014496929710731
000350 18 cd 9a ab 8b a9 ea 3f 43 ff 37 92 2c 27 03 40
       0.8331964828161373 2.3941279815043415
000360 92 6b 89 50 60 41 d1 3f f7 c7 9e 42 13 18 00 40
       0.2696152483455815 2.0117554859834814
000370 a7 b3 58 47 c3 b9 01 40 00 00 30 79 6c 9b d8 3f
       2.215704495806182 0.3844863112899475
000380 c3 93 23 98 92 6c d7 bf 0b 10 5b cd f9 db e9 bf
       -0.36600174767800925 -0.8081025133947163
000390 c9 24 db 7e cd 99 ff 3f 00 00 49 be e2 1d f3 bf
       1.9750494914354013 -1.1947963173879543
0003a0 c4 04 87 86 44 a0 f7 bf 24 4a fb 54 a8 77 8f 3f
       -1.476627851007195 0.01536494740813505
0003b0 00 00 40 7b 6a f0 a0 3f ea 4b 83 af 96 09 f7 bf
       0.03308422808186151 -1.4398409706088793
0003c0 00 00 f8 ed 71 e8 03 c0 38 45 6d af e4 ef f3 bf
       -2.4884985534008592 -1.2460677006350362
0003d0 e5 cf 79 55 34 f1 ef 3f e1 10 26 14 c3 8f 00 c0
       0.9981939000558638 -2.070196301852875
0003e0 64 e6 72 b7 51 89 f5 3f 00 00 a8 9e 44 49 00 40
       1.346025196644768 2.035775413038209
0003f0 85 23 01 39 8d 7b 04 40 76 d7 f7 2a c8 a7 f7 bf
       2.5603279546234625 -1.4784623793070444

linear2.weight f8 [64, 128]
000000 91 4e 34 a5 e9 e6 e8 bf 82 04 27 67 01 97 ff bf
       -0.7781875826498937 -1.974366572321998
000010 1a 54 c6 a0 fd 9d da 3f 9b 8b 45 14 08 e4 dc 3f
       0.4158929891648896 0.45141794185308876
000020 00 00 52 49 f2 b9 f8 bf 0a 7e 98 ea 01 3b f3 bf
       -1.5453970779490191 -1.2019061244863019
000030 2d d2 04 b9 a7 cd f2 3f 03 99 87 4e 58 32 f2 3f
       1.1752087809846998 1.1372912471356933
000040 00 00 80 2f 2d 07 a9 bf 88 ac db 65 03 bf f6 3f
       -0.04888287739595398 1.421634099848946
000050 de 34 44 f8 97 b8 fe 3f 88 75 c7 d9 0f a0 b0 bf
       1.9200668046863067 -0.0649423510253283
000060 de 2a 88 b9 c6 66 f6 bf 00 f0 fd 61 a3 74 e3 bf
       -1.4000918624248508 -0.6079880632310051
000070 a2 62 07 48 66 2d f1 3f 00 00 a4 50 01 d5 ff bf
       1.073583871233645 -1.9895032072090544
000080 73 20 cc 43 a3 29 f8 bf 1c 81 a3 6d 1a ec fd bf
       -1.5101654671034594 -1.8701423914681703
000090 21 49 2f 38 a0 82 ec 3f 33 2f da fc 9a a4 e6 3f
       0.8909455392224893 0.7075934351464411
0000a0 a9 76 ce d4 3e 5a f6 bf f5 66 98 52 a8 db e1 3f
       -1.3970325768236 0.5580636609258521
0000b0 00 00 d6 c9 f5 9d fd bf 0a 71 71 e8 90 7e e2 bf
       -1.8510644802299794 -0.5779499568848518
0000c0 00 00 ce 77 47 14 ff bf 4d cd 0d 81 41 db c1 3f
       -1.942450969683705 0.13950365830860748
0000d0 3c 0c 06 ee 7e 9a f1 bf 57 bf 36 eb 14 c0 00 40
       -1.1002187059209652 2.093789899452456
0000e0 f1 8b d6 c3 e6 ca f5 3f 72 42 52 b3 33 f4 e9 bf
       1.3620364808964462 -0.8110598089570671
0000f0 00 00 1d 27 3a 6a 01 40 e0 a2 10 0e fc bf 01 c0
       2.1768687301373575 -2.218742475397775
000100 f2 d4 9c 15 72 f5 f2 bf 00 00 cc fa 4a bc ff bf
       -1.18492325251037 -1.9834699436905794
000110 00 00 5e 5b d4 0d e6 bf 00 00 28 99 ca 64 ee bf
       -0.6891881737246877 -0.9498036376317032
000120 00 00 82 98 8f 35 f4 3f cd 96 9f c0 35 fa f9 bf
       1.2630763966881204 -1.6235864185668334
000130 00 00 2e fa 87 96 f9 bf aa 12 21 43 6d f4 f2 bf
       -1.5992507717746776 -1.1846745130762124
000140 00 00 30 60 15 29 f9 bf 82 6a 07 be c4 96 00 40
       -1.5725301511120051 2.07361744365818
000150 00 00 27 21 6d 55 f6 bf 2a 48 33 58 61 f9 db 3f
       -1.3958560271275928 0.43709596265137185
000160 00 00 b8 17 f0 3c e2 3f c6 22 df 71 66 8a fc 3f
       0.5699387038475834 1.783789105235131
000170 08 6a 2a 88 c1 a8 c8 bf 2b b8 1d 11 0e b1 01 40
       -0.19265002392496933 2.211452611655678
000180 54 81 87 f2 51 b0 03 40 fa ae 8c 37 a1 b6 ef 3f
       2.4610938022234823 0.9910436711265611
000190 77 aa 7a 55 ac 52 e3 bf 8c 78 3e 38 da 8f e9 bf
       -0.6038419408335604 -0.7988101099506522
0001a0 d1 37 fe 89 b4 09 fa bf cb 16 02 35 2b 97 dd 3f
       -1.6273694410660833 0.4623516099603477
0001b0 cc fe 77 ba 41 b2 f3 bf 82 f8 fa 47 46 39 f1 bf
       -1.2310197147307234 -1.0764830409748645
0001c0 6a 77 e3 ff be 59 f0 3f 82 e0 ef 79 16 ee f7 3f
       1.021910667004216 1.4956269038357566
0001d0 51 2a 01 ed 4a b9 fc 3f db d0 9c db 9b 64 c7 bf
       1.7952374704351721 -0.18275783751744865
0001e0 5b 29 61 80 93 c2 f8 3f ee 5b b3 ee 8f 1f b4 bf
       1.5475039496255565 -0.07860660150195972
0001f0 88 53 7f ba 36 38 fd 3f 00 00 f0 5e d1 0d c1 bf
       1.8262240681699229 -0.13323418746585958
000200 62 9e ba 9f bd 79 ee bf 00 00 1e 8d 28 e6 fe bf
       -0.9523609275538087 -1.9311910164251458
000210 1d 8a 73 b2 a3 1d f8 3f 77 b6 b7 d7 54 97 f9 3f
       1.5072361918215684 1.5994461466283647
000220 28 b3 8c a0 16 5d f7 bf 46 77 c2 7d 50 de 00 c0
       -1.4602266570538607 -2.1085519623729025
000230 d8 ba 9e ea 04 d9 c5 bf c4 1b 81 db bb e8 ff bf
       -0.17068540054375236 -1.9943197798145187
000240 89 2c cb 1f c8 90 fe bf 00 00 af 5e b9 cb f5 bf
       -1.9103471033038508 -1.3622373293474084
000250 70 f0 d7 7c 42 91 f5 3f 7a 79 2b 5a fd a3 f4 bf
       1.3479637982082089 -1.2900365373858151
000260 00 00 2a 9f 19 1e f4 3f 00 00 7a 9c b3 21 f7 3f
       1.257348653540248 1.445727931248257
000270 70 fa 5c 0c 11 07 ee bf 00 00 cc dc 71 7c e4 3f
       -0.9383626214474372 0.6401910126151051
000280 dc 78 f3 31 04 3d e9 bf 3e 01 35 f9 27 5a 01 40
       -0.7886982894522379 2.1690215558338926
000290 2a 12 28 95 52 ec e4 3f 42 23 f8 4e f3 55 ce bf
       0.6538479722226544 -0.23699799877092614
0002a0 4c 21 9a 5b a2 75 f2 bf 4d 74 0f cf 8d ff 01 40
       -1.1537192896085626 2.2497821976271895
0002b0 fe ff 1d 3f 54 54 f2 3f 29 87 cb da 59 37 f2 bf
       1.145588156272424 -1.138513426464167
0002c0 93 41 b1 d3 7c c0 fb bf 2b 35 4d 77 fe fa f7 bf
       -1.7344940442309038 -1.4987778339594324
0002d0 4d 88 ff 4d 51 d7 d2 3f 67 cf 79 ec fe 95 e0 3f
       0.294391943140117 0.5183100336712244
0002e0 7d c1 42 60 29 64 f7 bf 00 00 80 bb c4 3a a6 bf
       -1.4619535217462662 -0.04341711796587333
0002f0 02 70 79 aa 3f 8c fa bf 00 00 90 c1 b8 1f c8 bf
       -1.659240404048433 -0.18846806956571527
000300 dd 1c da 15 18 98 f3 bf 0e 49 5c 1c 7d a5 f1 3f
       -1.2246323445886482 1.102902518065608
000310 05 25 6d a2 e1 41 01 c0 08 1e 13 85 e1 56 d7 bf
       -2.1571686448629657 -0.36467779155324864
000320 99 a8 44 da ed 89 f0 bf 11 4b 34 bf 50 4e fb bf
       -1.0336740995503872 -1.7066199749867261
000330 cc 4e ab 5c 1e 95 fa bf 22 e7 8b 4a e6 f8 fe bf
       -1.6614059085740562 -1.9357664978001101
000340 b8 8c 71 45 5e 13 d6 3f 00 00 5a 8b ef 90 fe 3f
       0.34493214398953453 1.910384697286645
000350 08 24 46 30 d7 eb fb 3f 34 df df b0 17 8c d4 3f
       1.7450782666876439 0.32105057022953365
000360 00 00 d8 7f 92 51 eb bf 20 f7 af 05 6a 83 d1 bf
       -0.8537075516651385 -0.2736458831349058
000370 f5 2e 0f c4 69 98 01 c0 00 00 e2 14 0c 4e fb bf
       -2.199420482362138 -1.7065544906363357
000380 3a ad d3 c2 42 c6 ca 3f 34 58 04 3c 00 0e f3 bf
       0.2091754390051877 -1.1909181923306393
000390 7c 49 b5 11 60 38 02 40 00 00 9e da b5 d2 f3 bf
       2.2775269874047677 -1.2389429607137572
0003a0 bc 66 6f 80 d0 bb f5 bf 26 c7 6a 85 69 1d fa 3f
       -1.358353139591073 1.6321807109456556
0003b0 00 00 72 78 61 87 f1 3f 45 ef 4e c1 88 34 f4 bf
       1.0955519394774456 -1.2628257323367091
0003c0 00 00 96 77 ea 8c fd bf 0e 31 22 c2 11 c2 f5 bf
       -1.8469032927823719 -1.3598802169172504
0003d0 c6 87 f9 00 6d fa e6 bf 4d 33 40 a2 33 cc e2 bf
       -0.7180695551908165 -0.5874269646607019
0003e0 32 f0 fe 47 5f 11 ec 3f 00 00 c0 7c 46 b5 ab 3f
       0.8771206289452549 0.05411739609553479
0003f0 26 d7 11 f8 c3 79 f7 bf 98 87 00 0b 09 4b 01 c0
       -1.4672279062483056 -2.161638341859497
000400 09 cd 44 a3 05 63 c1 bf f1 30 3d 18 57 a9 c0 3f
       -0.13583441230876073 0.13016785319849292
000410 82 b9 7b 58 f9 54 e9 bf ff ae 1b 5c 4d 0f d5 3f
       -0.791622803515381 0.32905897135672996
000420 00 00 be 7e 22 2d fc bf b2 13 16 26 55 b8 d9 3f
       -1.7610192252031993 0.4018757697997969
000430 89 cf 4c 8f 12 e6 01 40 4c 88 a9 2f d0 d7 00 40
       2.237340087443901 2.1053775523769556
000440 00 00 12 89 a7 2e f0 3f 73 d5 d0 04 9e 0e bb bf
       1.0113902429875452 -0.10569179170200531
000450 c2 f6 fb 07 4f bc d7 3f 5c e6 86 e1 d3 09 f7 3f
       0.37086845187864637 1.43989933105913
000460 d2 9b 85 7c aa e6 f0 3f 4c 27 30 c5 c9 e0 ed 3f
       1.0563149322640482 0.9336899615602561
000470 48 a5 40 f2 60 50 fe 3f 00 00 ec cd 3a 5b ec 3f
       1.894623705195345 0.8861364385520574
000480 3d 6f 77 4f 5d c2 e5 bf 00 54 2f dd 4c c8 eb 3f
       -0.6799761344986802 0.8682007141129588
000490 0c 0a f9 bf 2b 15 e5 bf f0 20 c6 5f c5 79 ea bf
       -0.6588343381375252 -0.8273646231255309
0004a0 78 44 05 95 73 fa f5 bf 9a fe 33 4b b0 f2 00 40
       -1.3736453839412928 2.11850031616616
0004b0 00 00 be 14 0a 26 f2 bf 38 76 b0 3f d2 38 fb bf
       -1.134286957763834 -1.7013723838675912
0004c0 00 00 5b f4 d2 3b 01 40 60 4d c7 e6 9d 55 00 c0
       2.154210957553005 -2.0418050794193476
0004d0 96 c7 b9 e8 de c9 a2 3f 05 51 88 44 70 a0 f7 bf
       0.03669640150918878 -1.4766695668268437
0004e0 0e 0e 31 da 5b 8e 01 c0 e6 f6 24 48 32 3a ee 3f
       -2.1945111318798416 0.9446040543623127
0004f0 00 00 62 61 2d 31 f1 bf f1 85 08 b2 3d a4 e3 bf
       -1.074506168748485 -0.6137989499295015
000500 65 cb 94 b0 1b 06 ea bf 00 00 77 a7 c0 6d 00 40
       -0.8132456253864403 2.0535901148978155
000510 00 00 28 db f1 60 d0 bf 00 00 83 73 92 4e 00 40
       -0.25591703798272647 2.038365271029761
000520 00 00 60 1a 11 7f d3 bf 1e 4d 45 c6 a5 b2 f7 3f
       -0.30463054252322763 1.4811151261281519
000530 00 00 ac 52 39 8a ef 3f 36 95 cb 02 47 56 ea 3f
       0.9856230368313845 0.823031907519783
000540 00 00 ca a0 f5 9b f8 3f 42 51 c0 7e a0 fd 01 c0
       1.5380760460684542 -2.2488412764015786
000550 00 00 82 3a 79 71 f0 3f 1f 61 ba ea 56 0a 02 c0
       1.0277035031758714 -2.2550485933426354
000560 00 00 02 9a 84 76 f1 3f 12 74 3d 08 09 cc ff bf
       1.0914350524835754 -1.9873133012654347
000570 70 c3 50 78 58 e6 fb bf 72 10 43 c9 38 e2 00 40
       -1.7437367152999421 2.1104598735419637
000580 f5 6d 9e 2d 0c f9 bc 3f 66 b4 cb 8c 4d 13 ec bf
       0.11317516435376958 -0.8773563146511492
000590 1c 87 e5 bd 39 a4 f1 3f 8e dd aa d5 90 1e db bf
       1.1025941293559702 -0.4237405859562039
0005a0 52 e8 7a 8d ed 26 00 40 d2 8d 1f 65 0e 9e 8d 3f
       2.01900778323492 0.014461624585186881
0005b0 6f 5a 92 23 06 07 d5 bf 95 e8 00 c4 fe b3 a4 3f
       -0.32855370973394477 0.04043575422879645
0005c0 2e f0 bc 95 61 26 ef 3f 1d a3 c0 28 e3 8e 01 c0
       0.9734352039881793 -2.1947692092693516
0005d0 01 3e a9 5f 67 14 f3 3f c5 5e 79 c7 4a 1a f7 3f
       1.1924813973199664 1.4439189712483522
0005e0 3b 3a af f9 cc dd f1 3f 88 d2 4b 5b 4a e5 ed 3f
       1.1166505578327264 0.9342395575645961
0005f0 2d 86 fe 10 4d 6f f8 bf 00 00 e8 3f 9d 0e fa bf
       -1.5271731056058215 -1.628567933687009
000600 3e 53 c9 ef 6e a6 01 40 00 00 c6 ef cd ca ed bf
       2.2062662823977055 -0.9310064013552619
000610 47 9f b6 25 7e cb e1 3f 25 3b ca 7e d6 78 fb bf
       0.5560904251660553 -1.7170014336331374
000620 e6 97 10 18 26 c1 be bf f6 90 8e 93 71 38 e2 bf
       -0.12013471686859098 -0.5693900949450199
000630 e0 7e ad fd d0 19 eb 3f a3 52 78 f6 6f 11 dd 3f
       0.8469014124529757 0.4541892916616154
000640 b6 6d a3 4b 0b ba d1 3f 00 00 6a 76 46 85 01 c0
       0.27698023211061285 -2.1900758029078133
000650 92 8a 77 01 a5 29 f4 bf ae e5 a8 f9 d7 58 fa bf
       -1.260167127352052 -1.6466903450330892
000660 00 00 60 57 91 ce c2 3f 00 00 42 5e 47 8c f0 3f
       0.14692894712788984 1.0342477495141793
000670 a0 56 0b 44 8f 22 fd bf 00 00 ba fd 9d de e9 bf
       -1.8209374101619815 -0.8084249454113888
000680 e3 a8 48 22 06 fa df 3f cd bb d2 a8 c9 da fa 3f
       0.49963525150327665 1.6784149737029452
000690 05 ab 3b 8d b9 ba fe 3f 22 90 9e f8 71 45 00 c0
       1.9205871121327516 -2.033908789004287
0006a0 8c 5a 12 1a 9c 59 e6 3f 07 53 54 ca 9f 33 f7 3f
       0.6984386929714943 1.4501035598270293
0006b0 88 f5 c4 be f9 1e fc 3f dc ef b1 fc 31 5a 00 c0
       1.757562394326074 -2.044040655307965
0006c0 a6 9d 60 55 d9 ba d7 3f c8 23 88 e0 ae 89 f7 3f
       0.37077935540807017 1.471114041402176
0006d0 50 57 96 31 d2 13 df bf e5 82 9f c1 70 4d fe bf
       -0.4855847820521051 -1.8939063609506601
0006e0 85 1f c8 a2 aa 37 00 40 00 00 80 9e 6b d5 e8 bf
       2.0271809308359843 -0.7760522933676839
0006f0 22 7b 38 a4 22 8c e6 bf 00 00 cc 48 57 48 f8 bf
       -0.7046063620981367 -1.5176613658550195
000700 90 0e 2d f5 ad f5 f5 3f b0 c6 67 e8 63 2f f0 bf
       1.3724803521335254 -1.0115698889098148
000710 1e 22 19 73 f4 07 f8 bf 70 1c 61 2b 9d 37 f8 3f
       -1.5019421096823247 1.5135776228433109
000720 eb 8b 02 0c 32 2e 01 40 81 ad 88 7b b1 a6 cd bf
       2.1475563944127223 -0.2316495755379542
000730 74 c8 c7 67 a8 e7 f4 3f 7a 16 73 d2 24 64 fe 3f
       1.3065570882722826 1.8994491787611012
000740 14 bc 1f 9d 80 df f2 3f 00 00 38 a0 2f 9f ec bf
       1.1795660150198772 -0.894431889464613
000750 c4 e3 ab ab 5c 2c 00 40 5a 69 52 d4 2f 02 c1 bf
       2.02166113012615 -0.1328792368629575
000760 d3 9c 40 06 57 e5 fe bf 3a dd 2e 22 80 5b 01 c0
       -1.9309911960825061 -2.169677989058667
000770 b6 6c ac f8 78 0e cb 3f 00 00 60 55 6d f0 e9 3f
       0.21137916700613396 0.8105990092735738
000780 a3 38 92 65 fc f5 de bf 81 5c de ac fa 51 fc bf
       -0.4837637893587134 -1.7700144531898163
000790 84 58 c9 8b dd 06 f2 3f 00 00 3c 34 5a 70 e6 bf
       1.1266761265192438 -0.7012148876383435
0007a0 74 24 b9 0e 00 4f ee bf dd fe c7 33 f8 b7 fe bf
       -0.9471435821116203 -1.9199144385055924
0007b0 00 00 30 db 3a 52 d9 bf 6e 2a b7 d4 73 f4 e2 3f
       -0.3956439152243547 0.5923403887366712
0007c0 00 00 da 27 b5 4b ee bf 57 fd 5c 3a a5 0b df 3f
       -0.9467416551924543 0.4850857801393053
0007d0 ac 17 74 9c e5 50 f0 bf b2 14 b8 e4 7a 44 fb 3f
       -1.0197502242531113 1.7042187628115184
0007e0 c6 81 c6 9a 23 0f ed bf 00 00 80 e4 a6 ca ad bf
       -0.9080980322797181 -0.058186736481729895
0007f0 55 32 43 80 5d 34 00 c0 62 ed 7b 2e bf 65 fa bf
       -2.0255689640528467 -1.6498405280861665

linear2.bias f8 [64]
000000 17 e4 aa ff f1 eb f8 bf 87 ab 52 5b 21 ab e9 bf
       -1.557603834821071 -0.8021399291659329
000010 84 24 ab 63 28 a7 27 bf 48 ac 51 c0 0a 73 e9 bf
       -0.00018045776399436633 -0.7952932125311998
000020 93 a3 ad 69 76 bf fc bf 89 e4 5e 46 39 14 d3 3f
       -1.7967437866265967 0.2981093585218067
000030 ca d7 f9 99 bb 3d f4 bf 9e 36 40 ae 91 55 db 3f
       -1.2650714888272767 0.4270977212589545
000040 ef d9 41 68 90 bd c1 3f d8 41 b0 27 09 f3 cc 3f
       0.13859753695187702 0.22616686284938115
000050 02 20 74 1b 8e 42 d4 bf 0a 12 85 8f 78 08 00 c0
       -0.31656220131890234 -2.004136201141823
000060 bc 86 67 2e f5 10 f2 bf de cd 9f 0a 42 bf e8 bf
       -1.1291400730773793 -0.7733469207291213
000070 d5 04 c7 b5 db 26 f4 bf 5e 95 58 7f 0b ae fe bf
       -1.2594868755989428 -1.9174914335684075
000080 63 16 b9 d2 59 67 00 c0 fe 91 88 c2 ee 3c a2 3f
       -2.0504642927869994 0.03562112927128068
000090 4b b1 ad 6e cc 6c c6 3f 56 4d 5e c5 d3 44 e7 bf
       0.17519526867125487 -0.7271517615176133
0000a0 bc 62 51 79 6b 3c bd 3f 8a 51 9d 90 ef d2 e4 bf
       0.1142031832872687 -0.6507489990713549
0000b0 f7 2e 84 20 02 cb b5 3f 79 ca a2 80 12 e3 e1 bf
       0.0851289109597778 -0.5589687836093865
0000c0 3b b4 a4 e6 60 f8 fd bf 74 7d 9f 44 f4 6b fd bf
       -1.8731392869479027 -1.8388559990488291
0000d0 17 07 4e 8c 19 f2 f6 bf 63 50 af 25 5c 56 ea 3f
       -1.4341063957840043 0.8230419860870025
0000e0 d1 6b ad fd c3 d5 fe bf 04 1a 99 87 ee 15 47 bf
       -1.9271888646387547 -0.0007045187659933676
0000f0 33 79 b3 10 eb b8 e3 3f 48 69 8a ed f0 ae d5 3f
       0.6163230253403412 0.33880255887347177
000100 84 05 50 20 54 c5 00 c0 55 22 2a 83 e6 0f e8 3f
       -2.096351864282669 0.7519409715469673
000110 9c 24 13 da ca 5b 1a bf ad 55 73 26 68 d6 c1 3f
       -0.00010054994210685831 0.13935567738978474
000120 bf 1f 3f 70 1a e2 d6 3f 06 57 71 da c1 e4 01 c0
       0.3575502487333288 -2.236697870811329
000130 8a c7 62 c3 27 6f e8 bf e7 28 6e de 73 b3 f2 3f
       -0.7635687652711891 1.1688116730388687
000140 36 af 09 ef 5a 53 e6 3f 35 4b 70 f6 d7 f6 e2 3f
       0.6976751965243924 0.5926322758917651
000150 40 b9 88 07 02 9d 00 c0 6f 0b 93 a6 a7 33 e4 bf
       -2.0766640270805112 -0.6313055280119054
000160 5f 54 9c f3 5d 32 f8 3f 7f 76 50 bf bd b5 f8 3f
       1.512296630481863 1.5443704102721367
000170 da e5 88 40 b5 1d b1 3f 7d 8b 19 7a 25 44 d3 bf
       0.06685955834918592 -0.3010343258267126
000180 dc 84 8f c4 36 5d eb bf 67 5c 0b 3a f6 f9 e3 3f
       -0.8551286543917302 0.6242629178694984
000190 1b fe 0f 48 00 e7 00 c0 83 93 0d d1 65 b0 f8 bf
       -2.112793505657249 -1.5430658498891894
0001a0 31 1f 4e c4 df 01 e9 3f 77 ed 74 5a 28 6d a3 3f
       0.7814787706456398 0.03794218162735324
0001b0 df 68 f9 b9 1c 54 d2 bf 02 58 70 d2 a2 e2 ea bf
       -0.2863838020472382 -0.8401655302175188
0001c0 d0 2f b1 ed a0 79 00 c0 fe 96 e0 df e8 3e f4 3f
       -2.059388977975665 1.2653588051993547
0001d0 b6 24 ed 40 db e4 e1 3f 3d 83 87 1a 20 bb d8 bf
       0.5591865795223814 -0.38642122832066034
0001e0 b8 aa 73 44 9d 97 f2 3f 48 5e 62 95 72 60 e5 3f
       1.1620152162455906 0.6680233876858859
0001f0 33 74 82 fd 55 3f b4 3f 11 e0 9a a3 04 cc f2 bf
       0.07909142913054339 -1.174809111673316

linear4.weight f8 [3, 64]
000000 c4 66 05 05 a1 04 fd 3f e4 54 fd 77 c6 a8 e3 bf
       1.813630122769994 -0.614352449755327
000010 3c 17 1c d9 57 e9 fc 3f 3e 84 50 b3 b2 c5 03 c0
       1.8069685440872965 -2.471532250303908
000020 6a e7 18 cd bd 13 d5 3f e9 b8 09 b9 31 35 fe bf
       0.3293299200919281 -1.8879868724866873
000030 e2 0d 28 7f 18 d8 fe 3f b5 36 de 0c ab 67 e1 3f
       1.9277577368783274 0.543904805310112
000040 84 0e 9f 5d f0 73 06 c0 07 75 66 84 9a 5f 01 40
       -2.80661080495503 2.171681436897987
000050 ee 59 83 f8 68 6a e9 bf cb f1 fa 65 2f 8e ff 3f
       -0.7942395070811565 1.9722131713489144
000060 92 30 3c ec 02 c0 e4 bf f8 61 c9 bc a9 cd fb 3f
       -0.6484388936965095 1.7377107023695526
000070 6a 6f ef 77 d6 dd 01 40 06 40 b9 b6 ac b7 04 c0
       2.2333192224449947 -2.5896848941119996
000080 06 80 8f 3f 64 52 c9 bf 3f 68 c7 97 ea c8 fa bf
       -0.19782689193289132 -1.674051850210631
000090 97 79 ed 16 a2 16 fd 3f 6f 22 ad 7e 77 5a e4 bf
       1.8180256744013599 -0.6360433076998343
0000a0 b4 aa 4e ba c3 60 ec bf 0b 45 ca 88 d0 ed fe 3f
       -0.8868120802702237 1.9330602019657046
0000b0 80 61 13 d7 e3 1f f2 3f a0 42 ba d0 c0 09 06 40
       1.132785644664267 2.754762297329151
0000c0 72 db 19 e1 61 6a de 3f a5 c6 7e 00 a9 4b 04 c0
       0.4752430628063201 -2.536943439358611
0000d0 b1 59 87 eb ed 2d b2 bf be 56 00 73 d3 e2 fb bf
       -0.07101332664692596 -1.7428774349440768
0000e0 96 38 24 74 b9 95 00 40 86 40 3f 38 da cb 04 c0
       2.0731076310685905 -2.5995373148253433
0000f0 f8 77 74 36 3e 43 cc 3f 7a d9 43 f8 23 ce cb bf
       0.22080209406789186 -0.21722840902630108
000100 3d 6b a7 42 b9 a7 05 c0 20 2b 34 b3 49 6c e2 3f
       -2.706896324857921 0.575718736655606
000110 5c 87 a1 58 43 76 f6 3f df 9e 8f cf a1 25 ff bf
       1.4038728201052981 -1.9466875179149878
000120 3a f4 1c 8a 27 1c dc 3f 4e e8 8b e1 fb 0e e3 3f
       0.43921841132743433 0.5955790906148282
000130 b5 02 83 9c 53 98 bd bf 1d 4e 59 48 ff 31 d3 3f
       -0.11560556956375019 0.29992658677403644
000140 8b 17 e5 06 96 be d9 bf fb 0a 92 ec 89 bb 01 40
       -0.4022574488957324 2.2165716631001238
000150 cb c5 54 f9 0d 83 f0 bf 77 b7 84 1a 03 50 b4 bf
       -1.0319957484720017 -0.07934588811323616
000160 d2 22 83 d5 e7 77 e2 3f 09 89 1e 0d ab b1 e1 bf
       0.5771369142686018 -0.5529380089031132
000170 63 0c 3d b7 35 4c 07 c0 49 44 2b d2 57 94 f1 3f
       -2.91221182971053 1.098716565106104
000180 f7 20 34 97 1a ad 03 40 9d 13 b5 94 b2 4f ed bf
       2.45952337386927 -0.915978708690648
000190 c6 32 5f ca a7 49 d0 3f a8 8e 3d 0e 4d d4 dc 3f
       0.25449557078244955 0.45045782461805084
0001a0 ab f9 8d 88 a6 24 b2 bf fc 5b bc a1 95 7b 00 c0
       -0.070871742571376 -2.0603439937217427
0001b0 77 07 ae 91 1a ca ec bf 2d 54 f0 26 1c b4 e2 bf
       -0.8996708722408887 -0.5844860802195676
0001c0 e2 99 b1 61 f1 a9 fd 3f 7f 11 bf 91 0e 34 f5 bf
       1.853989965072849 -1.3252092068879333
0001d0 62 96 0b 5a 2b 6d df bf 9d 28 fb ee 53 91 f3 3f
       -0.4910381678913379 1.222980435867192
0001e0 fd 10 f0 19 61 0d ea 3f 04 26 8e 2a fa 2a 6b bf
       0.8141332155796871 -0.003316391569062162
0001f0 b3 52 f2 c3 39 0b 02 c0 74 a9 3d 25 0f ec c9 3f
       -2.2554812725378155 0.20251645391847328
000200 98 57 97 f0 cf c7 f1 bf 6f c2 65 36 f0 34 ea bf
       -1.111282291230486 -0.8189621984912047
000210 82 6c ae ed ad ee ca bf 15 62 da e0 08 47 e2 3f
       -0.21040891747984253 0.5711712257062255
000220 40 98 19 2b 94 87 9d bf d7 d1 6b ff 27 b3 ab bf
       -0.02883750451146505 -0.05410122864660465
000230 d4 c9 42 9a 3b c3 f4 3f d8 77 a5 ed 2d 70 b5 3f
       1.297664263326273 0.08374297191536983
000240 23 34 f8 58 37 31 b6 3f 5f 9d fd 36 34 a8 dc bf
       0.0866884796343617 -0.4477663552301773
000250 4e 12 b9 86 16 ae d4 3f bb fd 16 fc 9a b8 f4 3f
       0.32312548786675144 1.2950696799524468
000260 f7 84 09 b8 17 e7 00 40 22 ee ba a6 ed 28 f4 3f
       2.1128382089524353 1.2599922669313703
000270 5d 84 ce 59 a7 9e fc bf 13 99 d9 68 9b 20 00 c0
       -1.788733816916895 -2.0159214202314018
000280 83 ef 86 37 f6 bb ef 3f b9 e0 03 1e 89 eb fc 3f
       0.9916945538056868 1.8075038120714864
000290 87 ce cf dc 8f 9f f2 3f 07 71 50 2a 36 18 e9 3f
       1.163955557390098 0.7842055155229283
0002a0 f3 49 cc 3f 96 17 04 40 82 8c a8 97 70 fd cc 3f
       2.511517046377088 0.22648436932749766
0002b0 b9 2e 73 95 22 bf e8 3f 24 70 d5 45 f4 48 f3 3f
       0.7733319205230692 1.2053110816841661
0002c0 43 12 e6 8c 1d 9e d0 3f af 8c 76 85 d5 8f f3 3f
       0.25965060004844903 1.2226157391931272
0002d0 0a 09 62 b1 fc 98 fe 3f 90 c4 ba a7 a2 0f f4 bf
       1.9123503617307187 -1.2538172294555672
0002e0 6e c4 3a c2 83 cd ed bf 1c ce 31 9e a7 5c ea bf
       -0.931337241510972 -0.8238103952157334
0002f0 a7 89 8f f3 d6 40 c6 bf f2 33 3c 56 4b a3 e8 3f
       -0.17385374920475025 0.7699333843498819
000300 6c 8f 1b 97 dc af 01 40 ca 2c 9e d9 d5 c5 d8 bf
       2.2108699612889975 -0.38707491161103447
000310 29 6b 0b e6 66 8a e6 bf 6d a2 b5 38 16 d2 d8 3f
       -0.7043947690066023 0.3878226808360868
000320 cd c7 2e ee eb fc ea 3f 0e 09 ab b6 75 0f f6 bf
       0.843374219132096 -1.378774369761746
000330 2e ee a8 7e 4a 55 f7 3f e0 e4 b0 d7 c1 0f f0 3f
       1.4583229968692524 1.0038469720296277
000340 c7 37 f0 a6 0f 35 f2 bf 12 50 be ac 21 bd fe 3f
       -1.1379543801335659 1.921174692896788
000350 05 79 21 ce 12 66 f1 3f f8 14 43 42 50 a6 fd bf
       1.0874202777845892 -1.8531038845406425
000360 2d c4 a8 56 f7 26 e9 3f 2c a0 fa 72 c1 98 f8 bf
       0.7860066120684955 -1.537293862473244
000370 3e dd 94 76 c1 0f da bf 95 e0 36 74 02 bd d3 3f
       -0.4072116525671453 0.3084112296014692
000380 dd 17 43 80 35 dd fe 3f 3e 7f f0 83 8a f2 f3 3f
       1.9290061006772625 1.2467141298183857
000390 c0 a1 a9 30 c1 ec ff 3f 2c f1 1c 48 7d 0b a0 3f
       1.9953014279254688 0.03133765702520672
0003a0 3c 60 62 7a 21 56 e3 bf a6 d7 7c 75 12 27 e8 3f
       -0.6042640104597079 0.754769544094178
0003b0 7a a4 7e 9b cb 65 e4 3f 75 d0 ca e2 e9 40 01 40
       0.6374261891370587 2.156696101965333
0003c0 7e 2e 70 65 ad 93 fd bf c1 dd 13 7e fe c8 f2 bf
       -1.8485540354185157 -1.1740708279520364
0003d0 4e e4 d9 00 70 60 01 40 c4 b7 d1 82 fe e5 fb 3f
       2.1720886293883614 1.7436509237409021
0003e0 ee e2 56 b9 d8 98 e5 bf 0b d0 d9 6a 66 cf de 3f
       -0.6749080295477066 0.48140869555140914
0003f0 1b 7c 4f 1c d0 bc ee bf 2e 61 d0 2b 22 8e fd bf
       -0.9605484536112984 -1.847200556896563
000400 72 07 05 09 24 24 01 c0 a9 e8 ec 52 cf 5f e7 bf
       -2.142646856752372 -0.7304455394398889
000410 e9 24 c7 c0 ae f1 03 c0 a1 ae 77 30 dd e7 e2 3f
       -2.4930090962194424 0.5908037134772323
000420 19 4e d7 48 18 cb da bf f3 c7 8b 58 ba 25 89 3f
       -0.4186459266031491 0.012278991534433436
000430 3a 94 e8 a3 9b 0d 00 40 c5 ba 5c ed 42 fc 96 bf
       2.0066445165016633 -0.022446676003876193
000440 ac 99 b6 c8 e5 49 f4 3f 81 05 e3 15 70 4f e3 bf
       1.2680414047587005 -0.6034470012165657
000450 85 a1 9d 89 1b d6 d1 3f a1 f7 8a f4 b3 a6 07 c0
       0.27869308890378647 -2.95639792489142
000460 2c 87 43 53 b1 cc 00 40 23 14 fd 48 bd 40 10 c0
       2.0999475960715213 -4.063222065397926
000470 67 5a 88 0f a5 7f f3 bf cf 4d 66 d0 42 aa ff bf
       -1.2186632735007608 -1.9790676251039832
000480 b0 87 49 e1 8c 52 fb bf b7 87 63 e5 9d 97 f3 3f
       -1.7076538849146168 1.2245158157825082
000490 0f 48 39 8c 02 f3 f9 bf 5b b1 fc b5 25 6a e7 3f
       -1.6218286015978298 0.7317074350772076
0004a0 c6 60 95 55 c0 a9 02 40 55 ab d9 27 e4 b7 06 c0
       2.3328863798343233 -2.839790641145934
0004b0 71 7c 06 a4 1d 33 00 c0 b8 fa b4 f9 9e 28 03 c0
       -2.02495887894434 -2.394834471545746
0004c0 55 fb 47 8e 8f 6d f8 bf d3 00 5f 19 5b 0e f7 3f
       -1.526748233590941 1.4410048476275292
0004d0 94 93 c9 ae a5 05 f9 bf be c9 31 37 33 b6 e5 bf
       -1.5638787105210428 -0.6784912183778073
0004e0 76 87 61 4c eb c0 05 c0 58 2f b1 0d e1 b7 e9 bf
       -2.719198796011308 -0.8036961810516727
0004f0 75 c4 8e 43 ab 14 ec 3f b7 9e 99 b3 ba 35 f7 bf
       0.8775230712400474 -1.45061750561028
000500 d8 db 6b c1 8e e3 02 40 96 5a 57 b3 92 6c b9 3f
       2.361112128357018 0.09931294325302029
000510 f4 e8 eb 22 37 a7 04 c0 45 36 aa a9 1b e0 f9 3f
       -2.581648133110429 1.6172138812575139
000520 05 5f 5d 5d 4e 63 f0 3f 83 75 51 34 a4 1b 01 c0
       1.0242446562824068 -2.138496788726742
000530 0e 08 4d c5 53 69 d2 3f 18 7b 8c f1 dd 02 b2 3f
       0.28767866389910146 0.07035624644457206
000540 5b 82 f2 f5 b8 2d f6 bf c4 cc a2 1c a6 01 03 40
       -1.3861627204243152 2.3758051144774033
000550 df 4c cf 1e d5 e1 f8 3f 66 f7 49 ad 7f 9f ba bf
       1.5551348880297196 -0.10399625759779738
000560 f6 18 24 41 f0 9c ea 3f 23 1b 22 bc d1 2b f3 bf
       0.8316575310025474 -1.1981980656580127
000570 b8 4f d3 00 9e 62 fe 3f 2d 07 5e 50 cc 88 e6 3f
       1.8990764648669778 0.7041989869760293
000580 29 53 f4 26 c0 b9 01 40 20 15 24 f3 32 59 eb 3f
       2.2156985324203515 0.8546385525557163
000590 c1 48 c9 ef a6 5b 00 40 8b b2 44 a1 f5 50 ba bf
       2.0447520001699506 -0.10279784381118355
0005a0 84 dd 07 b9 9d df 80 3f 18 98 fc 43 46 cf ec 3f
       0.00823901387137372 0.9003020599236633
0005b0 f4 62 47 ea a2 d8 e2 3f 61 12 05 b2 c4 42 e3 3f
       0.5889448714979992 0.6019004322957465
0005c0 97 ad 95 9a be 91 de bf 10 43 74 bd 78 5f d1 bf
       -0.4776455411544815 -0.27145212651616735
0005d0 2c 1d 3f 4c 9f ba fc 3f 97 1f b7 16 06 4d f6 3f
       1.7955620745068002 1.3938046347920812
0005e0 1b 5c 02 1e ca c2 db bf 18 a6 15 fe 74 91 ed 3f
       -0.4337640088137406 0.9240059816922352
0005f0 c1 31 04 29 a9 2c 03 40 02 a8 86 af a9 6f e1 bf
       2.3968070225148215 -0.5448807171098908

linear4.bias f8 [3]
000000 08 3d ab a1 95 97 fb 3f 95 70 4a 1d 9a f8 f3 3f
       1.7245079341117293 1.2481938499613865
000010 98 5b 6b e9 2d d3 ec bf
       -0.9007787283870696
