runs/testrun-fl-trial-run-20bs-20ep/1/LocalModel-1-Round2.pt (torch, 167767 bytes, 6 tensors)

linear.weight f8 [128, 95]
00000000: 8149 1936 b2df ccbf 08f8 c69a e168 c0bf
00000010: 703a 659b 2ac7 cabf 292e f369 be07 c8bf
00000020: 772a cd82 90df be3f 5b98 5b07 7525 bb3f
00000030: 0182 1b5d 97b2 ca3f fda4 bbce 8e93 bb3f
00000040: 951a 5d5a 1c7f c13f fb89 31f1 3114 a93f
00000050: b1c8 c3fa e6e3 c2bf ce7f 6bba fa41 af3f
00000060: e534 8a85 657a c23f 61f6 beba ba28 b3bf
00000070: 110c 087a 0142 c93f c0ea a8e3 0819 c93f
00000080: 20b0 892c 3223 7a3f 6ab0 b4ed 3630 aa3f
00000090: fbb5 1e06 ab06 cc3f d274 78d0 9df2 c43f
000000a0: a8f3 1265 4000 c9bf 614c 0637 0ec8 b6bf
000000b0: be24 e9ad c49d 85bf 43a3 5621 2a9f c4bf
000000c0: adb1 c098 43fe c6bf df35 e2e0 1695 c23f
000000d0: 1fbd 5c4f 4814 b8bf 27a5 607e 1742 bfbf
000000e0: 2177 4c0f b709 ae3f 1b4e 9b02 e9c6 8abf
000000f0: cc55 8fc5 136d c43f 7dc2 83b6 169a acbf
00000100: 9d37 18d1 ea26 c13f ed49 77c4 21f7 873f
00000110: 9d5b 29a6 30cf c13f 7c97 3462 7c8d c3bf
00000120: edc5 889d 78a1 90bf ab1f 7e93 15e9 abbf
00000130: 27e8 2810 3596 cdbf f3e1 2910 854d b13f
00000140: b199 d3e5 4599 c8bf c90c bc91 d547 c7bf
00000150: d8b0 e34b 9e3f be3f 03a7 48a4 c11c c6bf
00000160: f780 c25e 096f c53f da0b a4df 3b5e c63f
00000170: a9ab 3b9c 6e3c be3f aad3 1423 aa08 893f
00000180: edc2 8e5f c4c5 b2bf f2f5 8e09 75d2 a83f
00000190: fd93 0282 8282 b6bf 9758 0697 e7a5 a8bf
000001a0: 6402 155c 7805 bdbf 42d5 5b3e dc37 bf3f
000001b0: eba7 bc47 99d0 bc3f 326b a4c5 211b cb3f
000001c0: 5e02 26c8 2663 c8bf 7c6a 6b91 cb6c 9dbf
000001d0: cac3 3908 92dc 9cbf ce47 a878 3d1c 40bf
000001e0: 2a12 70cf cc08 c53f f381 d257 c286 bdbf
000001f0: 6ade 7d4c 5c39 a7bf 1f23 96c3 6898 c73f
00000200: b1e3 6f09 6d4a 9b3f d907 4faf 98da a4bf
00000210: 0bf1 9e3d 7f0e 86bf 590a a34b 4308 a4bf
00000220: a152 a225 2781 9dbf e226 5a5c 0432 c0bf
00000230: 535a fb61 dc42 c73f 0dfe 452e 1897 a5bf
00000240: 0252 0abd cf2c a83f 43f1 bf00 c346 bbbf
00000250: d2fe 8837 d6c9 b13f 7198 3927 f221 c43f
00000260: b5c8 d818 57d8 c83f bf62 98ac 1fa4 9ebf
00000270: 7bb6 15de c154 ab3f 2b02 e19e 0174 c3bf
00000280: b84b 0181 6278 c73f 644e 45f9 662c a4bf
00000290: 5120 bbcd 35c2 cc3f 83d5 d344 c7e7 923f
000002a0: c1d9 ef44 e121 c43f 21bc e85f 82dd 82bf
000002b0: 2243 b867 4796 c1bf 4878 7ba6 ddad afbf
000002c0: bb75 3b79 3c73 86bf 081b f3f3 d56d bdbf
000002d0: b0e8 7abf 6903 c63f f1bd f0df 62b0 c93f
000002e0: 5b43 6fc1 a398 cebf 9186 4209 3c47 b33f
000002f0: bb2c 9e92 6992 cdbf d781 78ca a039 c3bf
00000300: d101 529e 6bd8 c03f 630d aa87 2343 bebf
00000310: 6a3a 5703 d3a5 b73f 3915 a4bc 68a7 b53f
00000320: b009 3cc5 557d ba3f a22b 7dd1 172e c5bf
00000330: 6aa1 80fa 6430 74bf 0b01 cbe6 7f46 afbf
00000340: 9516 39b7 66d0 c63f 3c6f 29b1 7a91 cd3f
00000350: 8d52 c075 fa74 b2bf de5c 114f a518 cbbf
00000360: 1cba dbe8 6696 c6bf e251 2358 6503 9bbf
00000370: d0c8 830d a84c 9e3f c65a ebf7 2f80 ac3f
00000380: ec40 2406 85c5 c0bf ead5 c198 2331 c43f
00000390: 5605 f89f d21c bcbf 0277 13d0 6404 c8bf
000003a0: dac2 c28a d323 c03f 7cea a528 86db c7bf
000003b0: a661 92c1 6ec3 c53f bf27 3d87 ff9f c13f
000003c0: 0cd4 b3ed 39db 50bf 89ac f709 7e87 ba3f
000003d0: e958 001d 042e cbbf dad4 504b 9212 a4bf
000003e0: facd 8817 1121 b2bf 5cf6 ca93 a450 c6bf
000003f0: a290 3a83 40b3 b63f f556 2d5c a702 cfbf
00000400: b859 f3ff c651 a63f 67aa 96b1 f077 9a3f
00000410: 2e5b 807d e55e aa3f fb01 0722 2644 afbf
00000420: fcb3 8c0b f18c bebf e9c3 80a1 f540 b6bf
00000430: da25 8ace 2029 cabf 82c2 ce9b 880f c4bf
00000440: 49a1 5123 5ee2 c43f 17fa fa3b a404 c8bf
00000450: 9cce 4355 1e89 c7bf d3a3 b9ee 489e ba3f
00000460: 1453 2c5f e49f b53f 26ff 1498 40f7 b9bf
00000470: b145 5c01 18db 3d3f 7dc1 b8c5 6a48 c23f
00000480: fa58 1225 d4da a1bf f2f4 e64b ecb9 a93f
00000490: abf7 29ea 9fbc 93bf daed 2272 256e b03f
000004a0: d726 6389 40fa 973f 7baf 153e 3d68 c2bf
000004b0: d2be d803 91d5 b4bf 1181 4ee4 ae77 b0bf
000004c0: 1aea b52f f456 ccbf d7e8 eab2 84b2 c23f
000004d0: 8ea3 3a02 4570 b33f 65ad 8bad 6d4c cabf
000004e0: d023 3f83 22e9 b13f 6d91 29a5 58fe c63f
000004f0: e478 0852 3600 b23f f0b5 41bf a025 953f
00000500: 1c95 707c 4bcf c13f 9ed3 1f6d 8429 b13f
00000510: 4793 2239 ed72 a93f 4c07 8e4e c7e0 b93f
00000520: 3fb3 d7ee 173a c3bf 792a 54c0 a320 9e3f
00000530: 3f7f 6951 c413 a1bf 4365 a8ce 7cba a73f
00000540: 3672 138c 39d7 c33f 4102 bda6 4396 c63f
00000550: 2578 9f9c e299 9d3f 1438 4b9d 3acc 9bbf
00000560: de9a 9759 4aec b4bf b94f 8dcb d61c bc3f
00000570: b8ef ec52 329c c6bf 2902 1241 be83 c53f
00000580: 06a8 a123 0f36 b93f 59db 82bd 0543 c9bf
00000590: 7ff7 095b 254a ca3f 55ce 7171 161b ba3f
000005a0: 5169 4610 580c c5bf 712f 1bad 4876 b63f
000005b0: 8beb 4439 8064 a93f a74a 525f 1514 c0bf
000005c0: 9794 6498 05b6 bf3f 0589 6fb9 29aa c33f
000005d0: 19f9 c629 a815 a8bf ff6d 87c8 468a 8b3f
000005e0: 2d89 9c8c 474d c8bf 4b63 07cf 0ea2 cebf
000005f0: d40e 6de3 2209 893f b8fa 4b2f 4eef c93f
00000600: 1fdb 91b9 0e00 973f 17d8 ef37 eade c5bf
00000610: 29e0 f829 a28d bebf a9b8 1915 ad60 c63f
00000620: 7c78 ad21 a75d bf3f cf28 9866 b23c c13f
00000630: 07b2 659f 14ff c3bf 45cb 78dd 3ce3 99bf
00000640: dbf3 49ca fc13 a5bf dba1 6de8 3d2b babf
00000650: 0911 6b58 c894 c6bf 3098 eb76 f4ab bb3f
00000660: a1d7 1869 6f67 c63f 6987 b641 0e7b b13f
00000670: 0c49 08e6 e3ed c63f 6d57 b040 7a83 cbbf
00000680: bd54 4699 7f2b c13f deb9 e7c6 3546 bcbf
00000690: cb89 f110 b8e7 c1bf 210e be13 7392 bdbf
000006a0: 0a2c 3af8 5a17 c33f 75d9 2955 885d c1bf
000006b0: 2fcd 5da7 5013 c43f a8e4 08ec 73d6 b83f
000006c0: d181 2242 47e1 c23f 80ab ece1 e512 b1bf
000006d0: ebe5 0529 5900 70bf 52ad 5f58 b432 c8bf
000006e0: 0712 722d 8314 c8bf f9f3 a2cf 36af c6bf
000006f0: 3928 25f7 26a3 a53f 80a2 4866 3e22 b8bf
00000700: 2e2f 2537 bd66 cdbf a2a2 07a3 8124 77bf
00000710: 8621 f1e6 8fa4 a6bf 5b26 a408 6303 90bf
00000720: 6d9a fdf8 ff3a c83f bcbc 85a8 8a8d b5bf
00000730: 3d6a 5fcd ed8d 993f 6ce0 8812 06cf bc3f
00000740: 8bf8 d324 19a3 ccbf 8b87 1032 7590 ae3f
00000750: 2d8f 5a95 5581 b5bf ec59 2d93 0232 b4bf
00000760: 2779 b9ba cf4d be3f 49b7 d003 c983 b73f
00000770: 05cd 4e70 74b3 b23f 6a7f fc8c f82b b1bf
00000780: 1fa9 da8a ea48 bcbf 7c8e 303b 13fe 9f3f
00000790: b8c9 6dc2 552b 7bbf 5e35 7312 8967 af3f
000007a0: d07f 746c 982f cb3f 5123 f09e 0295 c33f
000007b0: d0c1 8224 9dc2 7e3f 798c c246 e8ce c73f
000007c0: f727 0ecf 0398 bbbf 69c9 e90c 38b5 c93f
000007d0: 37b7 609c 4cee b0bf 76c8 d06b 0ec9 cbbf
000007e0: 3831 e197 5f8c 873f 9176 1cdd d8e2 acbf
000007f0: 198e 43dc 757b cdbf 1317 d165 3dd9 c8bf
-0.22557666436712157 -0.12820072228890944 -0.20920307719866882 -0.18773632214866723 0.12059882348436611 0.10604030065187102 0.20857517286550833 0.10772030398551986
0.13669161236085317 0.04898220128304228 -0.14758002514242244 0.06105025792726303 0.14436024685384222 -0.07484023150660725 0.19732683619085425 0.19607649913981184
0.006381221763700068 0.051149097935508106 0.21895349310709364 0.16365406684136602 -0.19532017646079436 -0.08899010508894058 -0.010554825360616579 -0.16110731723645175
-0.179634522997174 0.14517484646459786 -0.09405948579364008 -0.12210223040951416 0.05866787015678044 -0.013074703590439765 0.15957877298812517 -0.055863103656410985
0.13400016030976483 0.011701835449376719 0.13913543809277665 -0.15275530619799926 -0.016240963568810263 -0.05451266694495812 -0.2311464623360859 0.06758910793894994
-0.1921775219154376 -0.18187970748849683 0.11815823891419386 -0.17275257608098835 0.16745106818144226 0.17475078983269904 0.11810962023052575 0.012223557658765778
-0.07333018620444039 0.04848066083603077 -0.08792892145227423 -0.048140752015727255 -0.11336471794221264 0.12194611093930965 0.1125579643382079 0.2117655005502797
-0.1905258633887738 -0.028735333204944244 -0.028185159446767284 -0.0004916477349203808 0.1643310559158107 -0.11533751148318298 -0.04535950120674388 0.18433866071816227
0.026651099873536036 -0.04073025836943573 -0.010769838397998407 -0.03912554071714131 -0.028812991783143563 -0.12652639874823196 0.18172793182630417 -0.04216838421688971
0.04721688444729823 -0.10654848831467682 0.06948603492582642 0.15728594699175205 0.19410217965338963 -0.02992295733392569 0.053381021842921116 -0.15197773225556097
0.18336135195803904 -0.0394012622151905 0.22467682404954073 0.018462289405723375 0.15728393426952716 -0.009211557914651948 -0.13739864887659176 -0.06187336594824494
-0.010961983155932544 -0.11495721059609931 0.17197915887465376 0.20069538054075012 -0.23903319306421164 0.07530570245810454 -0.23103065165591893 -0.15019616972223446
0.13160462599263537 -0.11821195661655319 0.0923740275531856 0.08458571057788768 0.10347496094985931 -0.16546914795830242 -0.004928965041507952 -0.06108474437997032
0.1782349009173926 0.23100217485886698 -0.07209744810854542 -0.21168962822660026 -0.1764649044993839 -0.02638014173938242 0.029589296173931967 0.055665492070763586
-0.1310278205860479 0.15774960478635985 -0.10981480031479882 -0.18763408813440924 0.1260933330099963 -0.18638684258242566 0.17002663089512032 0.137695256266225
-0.0010288301189664865 0.10362994902941315 -0.21234179893571728 -0.03920418900853813 -0.07081705879755154 -0.1743360253948819 0.08867266849353198 -0.2422684860309158
0.04359266161343406 0.02584816059030928 0.05150525242804914 -0.061066810277683424 -0.11933809787724664 -0.08692870324081493 -0.2043801315779053 -0.15672404868884732
0.16315819477609697 -0.18764164856652663 -0.18387202418636128 0.10397773578883056 0.08447100947917036 -0.10142902100505732 0.00045556388919106976 0.14283499388103485
-0.034872655415869105 0.050246605172540884 -0.01927423350070227 0.0641806987431929 0.023415573487716692 -0.14380612880210805 -0.08138376563942565 -0.0643262202634143
-0.22140362100238137 0.1460729478474778 0.07593184761448254 -0.2054574105635353 0.06996360496772458 0.17963703217095475 0.0703157377506361 0.020651351617223257
0.13913863731537723 0.06703975357215916 0.049704945778364755 0.10108609836427468 -0.1502103725646524 0.029421385396782605 -0.03335393422889731 0.0463446619289223
0.15500563945433193 0.1764607013847286 0.02890733796072466 -0.02714625916524234 -0.08173050582227456 0.10981504888087458 -0.1766417412671879 0.16808298280013048
0.09848112697514474 -0.19735786202883324 0.20538775391827 0.10197582502024123 -0.16443920893363864 0.08774236894822508 0.0495948858174052 -0.12561289934509043
0.12387118311433408 0.15363046221234114 -0.04704022893882804 0.013447335238132572 -0.18985838285250037 -0.23932061299162863 0.012224457326403572 0.20261552152074613
0.022461156917837784 -0.17086532336514956 -0.11934865498267357 0.17482532053276614 0.12252277919967186 0.1346648217152677 -0.1562219408327936 -0.02528090574032695
-0.04116811723086019 -0.10222231792943808 -0.17641548459335635 0.10809257415130058 0.17503159171763819 0.0682839308197153 0.17913483364152005 -0.21494987639078592
0.13413996681325627 -0.11044632059176915 -0.13988400294608846 -0.11551589233391059 0.14915024872274812 -0.13566688688633702 0.15683944866359797 0.09702229034964438
0.1474999497340961 -0.06669461026892343 -0.003906582147800357 -0.18904737773059793 -0.18812598914168197 -0.17722211016180703 0.042260377568326075 -0.09427251813088766
-0.22969784920348374 -0.0056500495852353245 -0.04422425932040412 -0.015637919809739702 0.18930053384538628 -0.08419100393597295 0.024955478343921412 0.11253393127924632
-0.22372736261599288 0.05969587551250218 -0.0840047349579975 -0.0788880929297659 0.11837480839446766 0.09185463278910534 0.0730507635296825 -0.06707719270752724
-0.11048761262887695 0.031242657172823915 -0.0066331243495931155 0.0613367877027524 0.21238999648721668 0.1529849315704959 0.007509816969261299 0.18600181059909796
-0.10778831296025247 0.20084286337403093 -0.06613615815942074 -0.2170732523387106 0.011498209784030253 -0.05641820620642791 -0.2303302121646176 -0.19412963363191035

linear.bias f8 [128]
00000000: 7e81 0d14 0edf c6bf 28e7 b145 0f18 bebf
00000010: efd0 36fa 5985 c53f 28c1 1d23 0b54 c93f
00000020: 0000 00a0 a3e5 b8bf 1cac 5319 4891 a8bf
00000030: d6a9 b71a f0e8 a7bf bb36 2b52 94eb b6bf
00000040: 0000 00c4 f8dc cabf 45cf efc6 66c5 acbf
00000050: 7fd4 d4e4 5192 c5bf ff95 4bf6 6790 b73f
00000060: 453f 1bec cfbd c2bf da5f 6449 b683 b73f
00000070: 4671 a5ca a7bb c63f 0000 0048 ff3c c23f
00000080: 860d 2c32 97c0 c4bf 58c7 c086 6378 c73f
00000090: efc4 87d3 f915 b7bf 0a2f 3054 04f9 bcbf
000000a0: f987 8877 b400 c33f c314 5ee6 4f4e c83f
000000b0: 0000 00e4 106e cbbf 8931 21b0 5297 b13f
000000c0: 0000 0070 d368 c13f 3b38 d241 d90b b33f
000000d0: ba3c 4570 e8eb cb3f b512 c7b5 3bd1 bf3f
000000e0: 2dc3 60ea 4dfe a0bf ac7a d788 c066 9a3f
000000f0: 0000 0088 e0e8 c13f df02 7202 b4db ca3f
00000100: 2678 66ab 3902 9f3f 0000 00b0 163d b43f
00000110: 0000 00d4 c36e bdbf 0000 0098 4dd9 cc3f
00000120: 0000 0010 bcbf bc3f 16a3 6101 0e91 c33f
00000130: 0000 0070 eeff c6bf e72b 0745 ffd6 b33f
00000140: 0000 0010 d988 bb3f d14a 9ca6 9b42 b83f
00000150: 0000 0090 fe7f be3f ae6d a161 0f62 a53f
00000160: 0000 0080 4651 b83f 1068 3284 1d2b b23f
00000170: cd2c ef55 9d09 9dbf 6f7f 4813 1db7 babf
00000180: ccf0 7ef0 2d64 c6bf 1ffb e159 12d9 b43f
00000190: daae c7c8 ded0 c63f 6bd0 115b 3198 c73f
000001a0: 6c34 a372 9186 c3bf 7cdc fbd2 2553 b7bf
000001b0: a42d 7b17 1d02 c13f 650f e7da 1499 ca3f
000001c0: 009c 28cb 153c a9bf d99a 2660 2f2c 63bf
000001d0: 7e03 23a3 dc63 c0bf 63c4 a0c6 1a5f c13f
000001e0: 762e 40b1 1237 bbbf 69eb fb24 5f35 b3bf
000001f0: fc19 a23d cd91 c2bf 0000 001c ba63 cdbf
00000200: b305 8fef b29a bfbf 0000 0048 11ec c13f
00000210: 20ac f9e3 1f73 923f 93e6 a3d3 c8d3 ba3f
00000220: d28c 7ceb 6c0b c6bf 6c03 1a04 7717 bc3f
00000230: bda4 ca32 ba1d a7bf d7ab b880 fcbc a0bf
00000240: af37 280e 9416 a5bf 0000 0090 1645 c7bf
00000250: e80c 8641 463b 8abf c9d2 6012 14e8 c0bf
00000260: 0000 0000 fa7e 6a3f 0000 0024 a956 cbbf
00000270: 83b9 917f ba55 b73f 0000 00b0 bbae bb3f
00000280: dd50 737e ed98 c63f c388 2a58 01e6 c23f
00000290: 63d4 3595 9d6b bdbf 1dd0 ab85 a789 a8bf
000002a0: e1a3 af19 d21f b7bf d8e3 f028 05d5 be3f
000002b0: bc92 ae26 8aac babf 0cee 645b 8dc5 c73f
000002c0: 7c7c 446a e2ef 933f 49e0 0cbe 1e7f c2bf
000002d0: 9bb9 d803 150a 9c3f 735d a03f 903b 96bf
000002e0: 0823 c6d0 8b04 c43f 0000 0070 c011 cbbf
000002f0: 0489 2eff 2093 b73f 0000 0004 e378 c5bf
00000300: 88e3 6c29 88bd b7bf f653 e45a 9fa4 c33f
00000310: da6d 6a10 5e78 95bf 199f e48b 106a b73f
00000320: fa53 5a19 f0b8 cb3f 1532 39ac 5fd7 c1bf
00000330: 25c2 287d d2b1 bfbf 2f15 6a5e 130a a43f
00000340: 8b4c c712 0ff6 b5bf 0000 00c0 e208 ab3f
00000350: 38b9 d41f e9c1 b23f 3f96 f7ce 3ee9 ca3f
00000360: 68a5 9158 4d3b 983f f34e 0c8d 5aab c63f
00000370: f7e9 a142 c7ec c83f 0000 0060 4948 a13f
00000380: a099 b1f6 cc54 a0bf 51a5 a6bb 1a1a b2bf
00000390: 3b97 f191 2d35 c63f 0000 00c4 43da babf
000003a0: 21ae d33f bd93 c0bf f728 84c0 fc21 5c3f
000003b0: 0000 0000 35cb 673f 2fad 090e 4524 c0bf
000003c0: 0000 00e0 caf6 cbbf 2afe 047e 9ee9 bbbf
000003d0: 3df2 7faf 70a8 b63f 8d9f bcd4 5d29 c7bf
000003e0: bc8b 4d3b 8d40 be3f 0000 00a0 6be0 c63f
000003f0: 3c29 223c 14da cc3f 5a50 ec93 529c c0bf
-0.17868209818972142 -0.11755462123428784 0.16813206403242684 0.19787730421695326 -0.09725401550531387 -0.04798341092267597 -0.04669905019894187 -0.08953215604852975
-0.2098685223609209 -0.05619355371882632 -0.16852782891661275 0.0920472122484952 -0.1464176085341881 0.09185351650046361 0.17760178942524812 0.14248648658394814
-0.16212739896591816 0.18336147384394041 -0.09017907537760882 -0.11317469649673853 0.14845901333416103 0.18988989590085312 -0.21429644711315632 0.06871525573769167
0.1360115334391594 0.07439954621278926 0.21813683969455672 0.12428639591150666 -0.03319018827494911 0.025782593109279148 0.13991934433579445 0.2098298084202019
0.030281926237528144 0.07905713841319084 -0.11497138906270266 0.22538156434893608 0.11230063810944557 0.15286421840144077 -0.17968540638685226 0.07749934611562957
0.10755688324570656 0.094766357590099 0.11914053931832314 0.041763764064593686 0.09499016404151917 0.07097038724387539 -0.028356989259731336 -0.10435659142285457
-0.17493223422014237 0.08143725103762421 0.17824921420775902 0.18433205553776885 -0.15254419419798937 -0.09111248398754584 0.13287700315991657 0.20779667557337259
-0.04928653817142248 -0.002340405016372099 -0.12804754224455545 0.13571486185677192 -0.10630909755144011 -0.07503313687258885 -0.14507451543268235 -0.2296059262007475
-0.12345426891899684 0.14001670852303505 0.018017290391451835 0.10479407469747519 -0.17222367761960428 0.10973304605614737 -0.04514867658628805 -0.032691851342256655
-0.04118788407150419 -0.1817959025502205 -0.01280836951696647 -0.1320824708688149 0.0032343752682209015 -0.21358217485249043 0.09115186323626827 0.10813496634364128
0.17654198335970409 0.14764420323360214 -0.11492333309964091 -0.04792521959998928 -0.09032929541685021 0.12043792962585032 -0.10419524616606685 0.18571631395921917
0.019469773994498216 -0.14450439719962763 0.027382210120941868 -0.021711591609429214 0.15638873762170413 -0.21147923916578293 0.09208875875495798 -0.16775167174637318
-0.09273577700959212 0.1534613794143806 -0.020966977836548974 0.0914621678863309 0.2165813564103301 -0.139385184377162 -0.12380710178036532 0.03913937118071897
-0.0857858105512596 0.05280216783285141 0.07327134158251603 0.21024308305566028 0.023663719683474055 0.17710430037606492 0.19472590211428528 0.0337546281516552
-0.03189697753332443 -0.07071082192728297 0.17349786401899245 -0.10489295516163111 -0.12950864426180522 0.0017170875817691925 0.0029045138508081436 -0.12610686479033847
-0.21846900880336761 -0.10903349472663906 0.08850769314444391 -0.18094990623034982 0.11817248056244883 0.1787237673997879 0.22540524421885688 -0.12977058623130483

linear2.weight f8 [64, 128]
00000000: 5f96 a4c5 5480 b1bf f30a 2b52 ef15 c6bf
00000010: e771 033d 7805 a33f 1100 f95a d6e5 a23f
00000020: 0000 0044 b95d c1bf 8348 e43b 54d2 babf
00000030: 2e53 7716 84e0 ba3f c607 2e64 2ca3 b63f
00000040: 0000 0000 f793 71bf 9efa d9b5 6856 c13f
00000050: 52f0 d1f2 005a c53f e914 1b57 4b01 77bf
00000060: 3ed9 bac9 5589 bfbf a3de 8c09 0519 aabf
00000070: 9a4d 2d7a 37c8 b73f 0000 0088 4e5b c6bf
00000080: 3bd2 5b8a 5e2f c1bf a1bb 4d97 c151 c5bf
00000090: 17c0 0464 20f8 ba3f dee2 3f48 94dc af3f
000000a0: 9ccd 4b92 f067 bfbf 3370 dd05 ccc6 aa3f
000000b0: 0000 008c 0dcd c4bf 6c4d c206 71e4 a9bf
000000c0: 0000 00fc f2d3 c5bf 1cce 8d6a 2123 913f
000000d0: 1123 2c05 c02f b9bf e498 a98f 512a c63f
000000e0: 56d7 049e a2c3 be3f ea39 877b abca b2bf
000000f0: 0000 0094 4f76 c83f 0744 78ac eaed c8bf
00000100: d715 967b d11f bcbf 0000 0058 f349 c6bf
00000110: 0000 0038 7efa aebf 0000 00d0 b258 b5bf
00000120: 0000 0048 1d63 bc3f 9ea2 707d 5a88 c2bf
00000130: 0000 00bc a5f8 c1bf 901b 9d3a 8199 babf
00000140: 0000 0060 c7ab c1bf 13f5 a7a1 37a1 c83f
00000150: 0000 00fc 0f5f bfbf e6cd b68e aaa5 a33f
00000160: 0000 00e0 499e a93f 6564 bb9e bd41 c33f
00000170: 539f e562 86ce 92bf fa14 4371 cc3c c93f
00000180: ef23 b5d8 b5cd cb3f aeb2 0e23 19bb b63f
00000190: 902b 8086 d4a0 acbf 1e82 00a7 ab5b b2bf
000001a0: f1aa c454 cb49 c2bf 89cf 8512 fdb2 a33f
000001b0: caa5 6459 bca6 bbbf 06c4 f388 fb30 b4bf
000001c0: e16e 9136 154d b63f 4692 0d2e 9d0b c13f
000001d0: b39a 8481 0501 c43f 4d05 f6a4 11cf 90bf
000001e0: 9f4c 94fb 7bb4 c13f 7db5 9b71 9198 7ebf
000001f0: e79e 253b 5091 c43f 0000 00c0 81f4 87bf
00000200: d2e3 d46f 6967 b5bf 0000 009c 8eb3 c5bf
00000210: e0bd 090d ce24 c13f 60e7 b561 8e5b c23f
00000220: f3f3 4b65 5767 c0bf 2ed6 3b46 c2b1 c7bf
00000230: aa39 d6c4 bf8a 8ebf b1b8 3107 9c9f c6bf
00000240: fa4d 7ccf cdb6 c5bf 0000 001c a39d bebf
00000250: 5113 7aec 2f1e bd3f e3dd 57f9 daf5 bcbf
00000260: 0000 00e8 2842 bc3f 0000 0014 003f c03f
00000270: dc63 cf29 f707 b5bf 0000 00b0 aec6 ac3f
00000280: 0b21 83a4 0646 b1bf f034 b450 5192 c83f
00000290: bc30 d393 6f5e ad3f 3449 3e2a 500b 97bf
000002a0: a539 bb19 e7ba b9bf b12a f89c b26a c93f
000002b0: 0000 0038 25bf b93f ea7a e5e5 f49a b9bf
000002c0: 2d8d 2769 5f10 c4bf 3beb 0f89 21ad c1bf
000002d0: b36e 3ae3 6d0f 993f 08c4 102b fd40 a33f
000002e0: 79cb c4a7 116f c0bf 0000 0000 9e39 6fbf
000002f0: 44f1 0a15 5e9e c2bf 0000 0020 68f1 90bf
00000300: 38aa 03a2 15df babf 0a62 8761 d744 ba3f
00000310: 6557 b520 7534 c8bf e639 0208 3f42 a1bf
00000320: 8360 03dc e442 b7bf 4c4d 47a1 768c c3bf
00000330: f146 11aa 37a9 c2bf 31c9 dc6c c18d c2bf
00000340: 1316 1e4b 22c3 a13f 0000 00d4 b377 c53f
00000350: eee1 302b beaf c33f ad41 bb99 a954 983f
00000360: 0000 0030 cf2f b3bf 688d beb5 adfd 9cbf
00000370: 9f20 2dc7 e1a2 c8bf 0000 0064 552d c3bf
00000380: 505c 5b8d aa8a 923f 90cd 9948 3d0b babf
00000390: f6da 0e66 09a8 c93f 0000 0038 43d8 bbbf
000003a0: 5487 54c4 7bfc bebf d1e1 0259 8462 c33f
000003b0: 0000 0008 439f b83f adb9 a31a dc07 bcbf
000003c0: 0000 000c 15c1 c4bf 375e 9bd4 089b bebf
000003d0: c4b0 34dc 5585 b1bf 3cf5 c2fe 623c acbf
000003e0: c625 a8f4 b6b0 b33f 0000 0080 d575 733f
000003f0: 8180 0f33 2071 c0bf 4e53 f708 683f c8bf
00000400: 7b51 ebea 14c8 87bf e3a9 2d28 198b 8b3f
00000410: 62e2 5a7c cf93 b1bf 8323 4bf3 a484 9e3f
00000420: 0000 00dc 03ca c3bf d631 4a13 7d20 a23f
00000430: 5585 26dc 3b23 c93f fd4a 056a e62a c73f
00000440: 0000 0088 09bb b63f 322b 1b03 77f3 81bf
00000450: 8545 9d74 1681 a03f 4fd1 8874 ce47 c03f
00000460: fdec cff9 c72b b83f cd21 7930 7907 b53f
00000470: edcf cf96 cd3d c53f 0000 0098 63ea b33f
00000480: bb7e 5da5 b4b0 aebf 6353 0ef7 4aa6 b33f
00000490: dfbc a5ea 9a0e aabf a1b2 15e6 de9d b2bf
000004a0: 1008 ae4a 4498 bebf 5e15 c635 099b c83f
000004b0: 0000 00b8 1f7e b9bf 519e 956c 2520 c3bf
000004c0: 0000 004c 2135 c83f a1d3 f2a6 f70b c7bf
000004d0: de74 fd0f 5601 613f 77c6 4c6e c5b4 c0bf
000004e0: 2879 5e5e c7ab c8bf e361 68a8 456f b53f
000004f0: 0000 00c8 2c26 b8bf 947f e0c7 788a a9bf
00000500: c451 a6e8 c671 b2bf 0000 003c ab13 c73f
00000510: 0000 00a0 ad01 97bf 0000 00ec dee7 c63f
00000520: 0000 0080 c562 9bbf f241 2ce5 41dd c03f
00000530: 0000 0018 c926 b63f 2a2c 3bb0 a010 b33f
00000540: 0000 00b4 a948 c13f 191e d60c 1143 c9bf
00000550: 0000 0048 e518 b73f 46a4 2e04 3757 c9bf
00000560: 0000 0048 9387 b83f 6714 872d 294e c6bf
00000570: 990a 54ba 0c7a c3bf 6222 35c9 92b7 c73f
00000580: 99fb f8a6 7280 843f e51f e51c c85b b3bf
00000590: 34b9 0a6f 4da8 b83f 6a2f 20a8 5d38 a3bf
000005a0: abc1 bfd8 1fae c63f c739 e5ab 16d2 683f
000005b0: 1c9e 12d7 666c 9dbf 21bb 8b88 fd31 6e3f
000005c0: 84e0 c3a4 fcc3 b53f a331 9552 e06d c8bf
000005d0: 0375 2811 35cd ba3f e132 b012 2148 c03f
000005e0: 30e2 0e6a b369 b93f ec27 4c34 05f8 b43f
000005f0: b480 a1e5 261c c1bf 0000 0050 fc4c c2bf
00000600: 81f3 a82d edca c83f 0000 006c 8cec b4bf
00000610: 194e 2bdc 1a82 a93f 2bd8 8010 584a c3bf
00000620: 030c da79 694c 85bf 0687 7b31 a195 a9bf
00000630: 9c94 49f3 b608 b33f b0b7 401a 0941 a43f
00000640: 3adb 0a6c 2797 9c3f 0000 00e8 4d9c c8bf
00000650: c51e 6bc2 9d8f bcbf 8ebf d0cb c07b c2bf
00000660: 0000 0080 d96a 8a3f 0000 0048 8c3e b73f
00000670: 833d 654f 1b63 c4bf 0000 0094 462b b2bf
00000680: 9600 0abb b163 a73f 8014 1df8 33f7 c23f
00000690: 47da c6e1 8596 c53f de2a de4f 69cb c6bf
000006a0: ea4e 5d4a 917d af3f 19e1 a6ab 3172 c03f
000006b0: 728b 9316 b0c1 c33f 670d ed95 ddf4 c6bf
000006c0: ebf7 ab1e 1417 a43f 9777 02b0 4a5f c03f
000006d0: a28f 2d02 da9f a6bf dace 20ea 8536 c5bf
000006e0: cf47 160b eed1 c63f 0000 0000 0571 b1bf
000006f0: 9f36 1f03 8965 afbf 0000 0058 ef0d c1bf
00000700: 7dce 6401 a821 bf3f fa15 0f98 f24c b6bf
00000710: db8a dfdf dfdf c0bf 8f77 f5e7 45e5 c03f
00000720: f504 a6ff 813e c83f 30be 595e 20a0 91bf
00000730: 349a 9bdb 07b5 bd3f caf8 899b 5969 c63f
00000740: e091 e9f5 43f9 ba3f 0000 00f0 1d1a b4bf
00000750: f98a 404b 25c9 c63f 2727 f046 b8bf 87bf
00000760: a4b5 891e 41b2 c5bf 0b7a c9eb 1663 c8bf
00000770: 9de0 9785 7d07 933f 0000 00c0 c837 b23f
00000780: 3457 408d 901e a5bf 8905 171f 6697 c3bf
00000790: dfcb 92a7 3441 b93f 0000 0070 e284 afbf
000007a0: 2fd1 0f49 b85f b5bf b732 d52b 2369 c5bf
000007b0: 0000 0060 adc8 a1bf 0421 8261 f307 ab3f
000007c0: 0000 00d4 1447 b5bf 4bd7 c2e4 efd3 a53f
000007d0: 1f9d b990 222e b6bf b786 31b6 a6b0 c33f
000007e0: 0e1f f3c6 6569 b4bf 0000 0000 71ec 74bf
000007f0: 09a2 4262 a693 c6bf 62b4 6756 b38e c2bf
-0.06836442780748929 -0.17254439842334754 0.03715110535424398 0.03690976963525839 -0.13567272014915943 -0.10477186643791651 0.1049883417939099 0.08842732854648636
-0.004291500896215439 0.13544949416605773 0.1668091951031579 -0.005616468713644831 -0.1231893174652656 -0.050972134986691196 0.09289881451450413 -0.17466146126389503
-0.13425809627337223 -0.16655750167725805 0.1053486103235176 0.06222976095154363 -0.12267974445040014 0.05229795047372967 -0.16250771842896938 -0.050570995402405255
-0.1705306749790907 0.01673557484487108 -0.09838485838202994 0.17316646113176326 0.12017265661128582 -0.0734049965460383 0.19111056067049503 -0.1947606413018834
-0.10986050860636652 -0.17413179203867912 -0.06050486024469137 -0.0833846814930439 0.11088736541569233 -0.14478617787360276 -0.1404006164520979 -0.10390479737280445
-0.1380547732114792 0.19241996186603014 -0.12254428770393133 0.038373308106567625 0.05003577098250389 0.15044374704919786 -0.018365955148879575 0.19716792612431516
0.21721528130936416 0.08879239183324714 -0.05591453687528436 -0.07171128108212385 -0.14287702216218848 0.038474949370452434 -0.10801293547105853 -0.07887241452750979
0.0871136911604782 0.1331669306629399 0.15628117393608462 -0.016414905255719692 0.13832044395585272 -0.007469719066404476 0.1606846131137367 -0.0116968285292387
-0.08360918979896262 -0.16954214684665203 0.13393569599746424 0.14341907282851718 -0.1281537289250135 -0.18511227063543018 -0.014913080400927498 -0.17674589492111673
-0.16964123374110313 -0.11959285195916891 0.11374187014923832 -0.11312645518761814 0.11038451828062534 0.12692261673510075 -0.08215279360537359 0.0562033262103796
-0.06747476116573041 0.19196525993940083 0.0573611133528131 -0.022504093721701326 -0.10050815942961451 0.19856865562936357 0.10057289712131023 -0.10002070057587856
-0.1567496550988862 -0.1380960387467328 0.024472920411979526 0.037605201251047105 -0.12838955585320003 -0.0038116537034511566 -0.145457992815759 -0.016545893624424934
-0.10496649938037528 0.10261293536257923 -0.1891008767803967 -0.03370854351770784 -0.09086447116294676 -0.15272410273483172 -0.14578910640789602 -0.14495103660153455
0.0346918789573857 0.1677155289798975 0.15380074604924182 0.02376046181490359 -0.0749482624232769 -0.02831145688800288 -0.1924707624950814 -0.14982097037136555
0.018107094648112387 -0.10173399946670814 0.20044057353307893 -0.108768654987216 -0.12104009192674187 0.15144399973156777 0.0961801428347826 -0.10949493074779211
-0.16214240156114101 -0.11955313864324855 -0.06844078661078173 -0.05514821395761735 0.07691520188395548 0.004751047119498253 -0.1284523248023142 -0.18943500936316088
-0.011612094325223357 0.013448902643820431 -0.06866165910731462 0.02980287299104446 -0.15460251085460186 0.03540411816092941 0.19638775109801068 0.1809967057875709
0.08879146166145802 -0.00876515367726469 0.03223486112131994 0.12719135942610157 0.09441804741793543 0.08214528497149516 0.16594858039718421 0.0777952428907156
-0.05994190710657451 0.07675617725028654 -0.05089267839763933 -0.07272141568473468 -0.11951090644109308 0.1922313225333409 -0.09958074800670147 -0.14941852380728673
0.189121400937438 -0.18005271579536689 0.0020758324534840686 -0.13051669965493648 -0.19274227245200248 0.08372912751691035 -0.09433250315487385 -0.0498845809927381
-0.07204859905170397 0.18028774671256542 -0.022467339411377907 0.17895113490521908 -0.026743970811367035 0.1317522400863847 0.0865293201059103 0.07447246840017444
0.1350299958139658 -0.1973592102697104 0.09022362716495991 -0.1979740877552862 0.09581871517002583 -0.17426027987508805 -0.15216216180859446 0.1852897150477189
0.010010619850729973 -0.0756192274612882 0.09631809197410207 -0.03753941228214226 0.1771888550133672 0.0030298655321196774 -0.028733832242009524 0.003685946638476337
0.08502177260004556 -0.19085315735209205 0.10469371479890204 0.127201208233962 0.09926911677656203 0.08190948988718078 -0.1336716290707095 -0.14297441393136978
0.19369282464495188 -0.08173444401472807 0.04982074678050825 -0.15070629888367768 -0.010399650603408977 -0.04996970871958521 0.07435172500261661 0.03955868192166123
0.027920356721291763 -0.19227002933621407 -0.11156641003173735 -0.14440164520192095 0.012899111956357956 0.0907981563359499 -0.15927449585658957 -0.07097283471375704
0.04568248184387007 0.1481690370075377 0.16865609668976075 -0.17808262252613977 0.061504879310317964 0.12848492509306977 0.15434838392601652 -0.17934770413021825
0.039238575691328346 0.12790807337017604 -0.044188320890298685 -0.1657264130786789 0.17828155080184024 -0.06813079118728638 -0.061321527129263524 -0.13323776051402092
0.12160730394389847 -0.08711162769676398 -0.13183210784253316 0.1319968588458633 0.18940758688771778 -0.017212396391583507 0.1160435591842564 0.17509002775836385
0.10536598924370066 -0.07852351292967796 0.1780134789888377 -0.011596145310267382 -0.1695023917304016 -0.19052397263563167 0.01858326080216043 0.07116369903087616
-0.04124881481418044 -0.15305782812178517 0.09865120974681883 -0.061560703441500664 -0.08349181922659875 -0.16727103843949973 -0.03473417088389397 0.05279503407752098
-0.08311586547642946 0.04263257663244121 -0.08664146455122478 0.1538284673325074 -0.0797332392422698 -0.005108300596475601 -0.17638091848245122 -0.1449798747920879

linear2.bias f8 [64]
00000000: eb51 fd98 c881 c1bf dca9 9ab3 e631 b2bf
00000010: 07ab ad2c 3c78 813f d95b f9b4 0ae0 b0bf
00000020: 3f23 dbeb 7b0e c4bf 98a4 b047 6cfe aa3f
00000030: ed1e fade a533 bcbf 8b46 651b 56e9 a33f
00000040: b87a 931e 6907 b83f 2dfd eec1 9570 b03f
00000050: 7c5d 3138 6418 9abf 19b8 f2d4 624b c6bf
00000060: 916d a0fd aac0 b8bf 071d 1dff 02de b1bf
00000070: 5985 589b 3a16 bbbf 7a23 7b5a dc64 c5bf
00000080: b456 1144 9c9f c6bf 50fe 25c8 1666 933f
00000090: f330 a33a a29e c53f ca76 d83e fef7 afbf
000000a0: 4a87 3e52 20a3 ae3f 9551 4562 3cf3 adbf
000000b0: bf82 2382 1bf6 b13f 0333 eab4 ac78 abbf
000000c0: 5dfd 2f5e 1f51 c5bf df64 37d2 7eed c3bf
000000d0: 5f3f 29c1 29e2 bebf 3228 8875 f7e5 b53f
000000e0: 6eef 1c58 5b82 c5bf 8747 f7c4 05e5 783f
000000f0: f948 3c04 b48f af3f 5339 8951 97d5 bf3f
00000100: dead 7663 268a c7bf b0a5 6cb6 1b42 b13f
00000110: 24af c229 5837 52bf 7f55 40d6 197a af3f
00000120: e89d 0c0c 6d6e a23f ae57 266e a0e1 c8bf
00000130: 34bc 9d15 1bfc b0bf c445 82bd 2490 c43f
00000140: 9d1b b16d 6f2b b23f e275 f146 3593 ab3f
00000150: 2e54 18b4 3137 c7bf f709 b907 9bf9 aabf
00000160: 92da c8b9 2c9e c13f 68e2 41e9 714c c83f
00000170: 591e 3bed 5d1c b03f dbb6 9462 b53d 9abf
00000180: 20ba b449 cdfe b2bf 004d 85dd e1da c13f
00000190: 78dc f263 08a8 c7bf 0751 69e9 ca59 c1bf
000001a0: ad3f 4a09 949f b13f f5df a1f6 9300 9c3f
000001b0: a7db 2187 91a3 96bf 778a 110d 07ce b2bf
000001c0: 7829 dccd 5426 c7bf d1ff 24ea 3c15 c33f
000001d0: 61d4 334d b683 c83f 8a9d b441 f0b7 a0bf
000001e0: bfcc b1cf 83bd c53f 4a71 8097 f7e8 b13f
000001f0: 59b9 7ed6 4dfa b93f 83c5 826f fad7 b9bf
-0.1367731806773372 -0.0710739315497117 0.00853011142108563 -0.0659186069327541 -0.15669201866537638 0.05272234320757113 -0.11016308492446188 0.03888959011477507
0.09386307713018993 0.06421791062074496 -0.025483671121347737 -0.17417560003144741 -0.09668987934167307 -0.06979387977945715 -0.10580793659803102 -0.1671405259897048
-0.17674592326755134 0.018944126096810898 0.16890361655385497 -0.06243891255529162 0.0598383045574012 -0.05849636745066104 0.07016155173506443 -0.05365504940446011
-0.16653816317555484 -0.15568528427573988 -0.12063847509238944 0.08554026240759141 -0.16804067423242536 0.006077787911140115 0.06164324332907429 0.12435289135576015
-0.18390350205059652 0.06741498187752515 -0.0011118279426609113 0.061478431133006765 0.03599873325429909 -0.19438557985693933 -0.06634682920206175 0.16064891103137147
0.07097526958487639 0.05385748377805634 -0.18137189191534858 -0.05268558949730456 0.1376396090651793 0.1898329152061422 0.06293284456034466 -0.025626024381543693
-0.07420046853506124 0.13949225727501613 -0.1848154533415458 -0.13555275342026382 0.06884122111136888 0.027345954826586156 -0.022108339188402628 -0.07345623082214013
-0.18085727741010849 0.14908563073004058 0.19151953477526987 -0.032653339405722084 0.16984603539785856 0.06996104668400452 0.10147558676428527 -0.10095181677276881

linear4.weight f8 [3, 64]
00000000: e22b c752 9357 c63f 872e c56f 97a4 9cbf
00000010: 4e6d 2976 dedb c53f 065d 1427 8b12 cdbf
00000020: f10a f0a9 da83 a33f 9cc8 1c59 ad7c c6bf
00000030: 03b5 5e88 378f c53f 9864 6acc 39cc b33f
00000040: 0a94 a9ea 18a3 d0bf 4f4b 816f e10e cb3f
00000050: cccf 92a8 9f5f aebf 0dbd 0744 5a9b c43f
00000060: 50b2 a27c 212c b0bf c96d f0c3 1e3a c53f
00000070: df6d 785b 770c cb3f 7db5 0955 7b94 cdbf
00000080: 62d6 819b 6b84 9bbf d38d 491b ded0 c2bf
00000090: ef02 7481 ed15 c63f b77e cd27 0aa8 b1bf
000000a0: 2f91 23ae 68b3 b1bf 5365 d38f bf85 c83f
000000b0: fad4 abe9 aa55 b23f 6eca 37ae be4f cb3f
000000c0: 2e1f 9760 15f4 943f 8580 e0e1 1bed cdbf
000000d0: 61e6 ce20 cf40 95bf 6386 7689 4025 c6bf
000000e0: 08b0 c553 fc42 c83f a5eb aeae 86a8 ccbf
000000f0: fe5c e272 3371 9a3f 1795 0ffd 0b35 98bf
00000100: 27c1 db05 b2cb cdbf 0e53 dea5 b458 ac3f
00000110: b9ca f34b 04be c03f 09d6 544e fafc c5bf
00000120: b47a 29b9 564f 833f b96a f847 d277 b43f
00000130: 506e 2696 38af 87bf f5bb b504 97ff 813f
00000140: 903a 457d 3d15 a9bf c554 7dd2 675e cc3f
00000150: 1c7d 1231 f68d b8bf 873a d430 06c3 77bf
00000160: 171c b858 a9fb ae3f 58a9 2bbb 51b3 8e3f
00000170: d087 25a0 4296 d1bf c207 7ee1 017f bf3f
00000180: 8c63 3e7f f056 d03f 1d49 4e95 c30f bfbf
00000190: 20b3 cdc0 0871 9a3f db6e 11eb 84b6 b03f
000001a0: 543b f70e 9b3c 5d3f 1d15 8d2b 1a85 c7bf
000001b0: b610 62b1 3151 b6bf e263 fd89 852a a9bf
000001c0: 2031 2b47 ed47 c93f ca40 661a 29e9 c3bf
000001d0: 1d17 df5b 40aa b4bf a511 95aa f76c ba3f
000001e0: 400a d1aa ddad c13f 76e9 cc5a 4cca 77bf
000001f0: 2e4c 95f9 9f6b cbbf c294 7cc0 9673 9c3f
00000200: bd8d 9150 b22a bbbf b6b6 bbbc 1d0f b4bf
00000210: c71d 2597 d068 70bf 63f9 08a5 8ffc ab3f
00000220: 301d 5172 0f02 a33f ecc4 33a8 cae5 9dbf
00000230: 1807 0786 6476 b53f 301a 890f 2e11 86bf
00000240: d31c a766 c0a8 36bf 37df f620 ed66 aebf
00000250: 705e bcbc 8a0d b2bf 47b0 33b1 8015 c23f
00000260: 5dbf 2016 f3e6 c83f 5f4c 8152 d874 b83f
00000270: 9abe ba4e 3a2c ccbf e654 32e4 98cd c8bf
00000280: b23f e77c 9013 bd3f 44a2 bb0e d260 c03f
00000290: 4809 ee09 a658 c23f a08e b884 fe28 af3f
000002a0: b5e1 89d5 adb2 c83f 1e0a 7237 0a4b 923f
000002b0: d2e3 0ee2 5d7c bd3f 9617 fff0 5760 c33f
000002c0: 1aa2 c71c b4e9 a83f 8b38 3b8e 54e2 bf3f
000002d0: bdd8 2609 8e5c c93f b8a8 048a 172b bebf
000002e0: 5588 e755 c016 b3bf a208 3009 5e29 babf
000002f0: c89d fd81 24c7 9ebf 77ce 6060 f46f c13f
00000300: 6836 3638 9a0b c93f 3ab6 8486 66eb 5a3f
00000310: 838a a950 c321 a6bf 3082 7ede be61 7e3f
00000320: dcd5 0c70 d593 b83f c60b 8e20 b133 c3bf
00000330: afcd bd68 a6b4 c33f 90ff 12ad 292c c43f
00000340: 795f 3def fdc2 b0bf ef89 c68f 2e65 c03f
00000350: 9047 7737 c6fb c03f b802 1bf0 4706 c7bf
00000360: 4c7e 9e5c ea4e b03f d283 d43f 052a cabf
00000370: d957 020d d7c7 a1bf 14e9 43ea 1f63 983f
00000380: d78e 8817 56d3 c43f a720 c6a8 0c17 c33f
00000390: 232c 64a3 5d3c c63f 6c36 169d 3f49 a3bf
000003a0: edae 508a 0ca6 abbf 4c42 e428 e5dd b63f
000003b0: f798 8acc 5feb a73f c1e1 fb14 b7f1 c93f
000003c0: 2692 6866 e0dd c8bf f0a0 453c d070 c0bf
000003d0: 5f06 13c8 2843 c83f 4e5f bad4 8005 c13f
000003e0: 46fe fe94 8fc1 bcbf 10aa 8652 169f 8fbf
000003f0: b47a a15e 2c16 b7bf 7cab 78b4 dabd cabf
00000400: ca64 7e22 9cf1 c8bf 96fd 5207 f068 b5bf
00000410: 6a44 70c1 746b cfbf 177a 4837 8770 ad3f
00000420: 1b94 20fe c0ea b5bf 2c05 8d18 4727 a23f
00000430: 74c7 9d6c f180 ca3f 250a cad3 6980 8bbf
00000440: 8f7b 86c5 d200 c13f 9e4e 0ebd 5c77 abbf
00000450: 30c6 0561 42ea bc3f 9fb6 9d1e 4299 d1bf
00000460: cd99 3060 db3c c73f 198a 9866 e3b6 d6bf
00000470: fcbc f6f2 454c aebf 6df5 c39e 649c c3bf
00000480: 0365 033b f75d c5bf 8deb 8d4c 95b2 c13f
00000490: ff0b 6243 c125 c9bf 5437 7125 e0d9 b53f
000004a0: fde6 8779 08a0 cc3f 63d3 607f 033a d1bf
000004b0: 665c dde5 e43e c9bf fae1 36df 4819 cdbf
000004c0: 5fcc 44c3 e7be c1bf b8c8 8595 b9d0 be3f
000004d0: 1dfc 0c65 4696 c3bf 0595 1c66 3247 a0bf
000004e0: fdf5 686c bd38 d0bf 6140 e4b2 c80b a7bf
000004f0: 2bd0 c653 6fdc b53f d1db be28 6580 c8bf
00000500: cd8a a54d 7bb5 c93f e678 129a 8a3e a0bf
00000510: 01b4 e457 0e2e d0bf e2e1 6067 c7b1 c53f
00000520: bafa cd28 a5da b83f 7a29 6e93 33dd c7bf
00000530: e43a 99a4 c88b 483f 346d 7975 6d6c a7bf
00000540: a201 10a1 a53b c2bf 4321 bc6d 486e cc3f
00000550: 27ee 23b2 c5c8 ba3f 9494 3434 d440 7c3f
00000560: b973 0597 0c87 b13f 5c6d bce7 5d6a b9bf
00000570: 95a5 8bab 7ea8 c73f 01fc e187 79b7 a33f
00000580: 08aa fa51 82b5 c43f b507 c2e3 b785 b33f
00000590: 831d 822c dbb7 c63f 90c6 9a37 b52a 773f
000005a0: 1957 3871 a4ee 79bf d0cf 6b7c 2521 ae3f
000005b0: 34c4 1c7b 2db3 b13f 67dd 0d36 2a1d a33f
000005c0: ff7b 0aa3 ebe1 a6bf 5b87 afda 0fdd a43f
000005d0: 4185 dc45 5123 c93f d617 fb9d e7c3 c23f
000005e0: 9c2c 4621 9a71 aabf e8d1 fedf c079 c23f
000005f0: 7909 e6e0 02c2 cd3f cc72 6eb9 dbb6 86bf
0.17454759160895522 -0.02797161693278707 0.1707723690950424 -0.22712840469532852 0.038115342373222456 -0.17567984439080397 0.16843313368500654 0.07733498802771732
-0.2599546710610531 0.21139162010748655 -0.059323300674264695 0.16099098512447832 -0.06317338269099904 0.16583618705122508 0.2113179394371931 -0.23109380390398462
-0.026872331015019298 -0.14699913341892898 0.1725441820235782 -0.06897033187623945 -0.06914381267012425 0.19158167383902 0.07161968426574453 0.2133711195634364
0.020462354679494137 -0.23379848984859933 -0.02075503957505587 -0.17301184379634824 0.18954423990669533 -0.2238930085130423 0.0258224524373789 -0.023639857597932492
-0.23277879034095258 0.05536427044640933 0.1307988520489596 -0.17178276848578403 0.009428670430847809 0.07995332963074987 -0.011564676363199272 0.008788280326113432
-0.04899017481021872 0.22163102891742006 -0.09591616342594417 -0.005801223928996741 0.060513774948099 0.014990461849681821 -0.27479615821186787 0.12303172831710099
0.2553063624014207 -0.12133428950463494 0.02582181622294677 0.06528502215354186 0.001784469055440237 -0.1837494576122162 -0.08717642384187027 -0.04915253934331766
0.19750753378901553 -0.15555299557718733 -0.08072283022837863 0.10322521128279634 0.13811846581127618 -0.005808161030297012 -0.21422195135764482 0.027784686563923307
-0.1061202475262268 -0.07835565431352162 -0.004006209188737348 0.05466126336658552 0.03712509413213139 -0.029196897999047275 0.08383777877955045 -0.010774955605609454
-0.00034575173654300995 -0.05937901523014804 -0.07051913364227302 0.14128121044575634 0.19454802113022654 0.0955329133442304 -0.2200997242375607 -0.19377432958996293
0.11357977914235454 0.12795472831136767 0.14333034024100244 0.06085963602188582 0.19295285155000177 0.01786437953388475 0.11517893570898188 0.15137767093090976
0.04865801669422272 0.1245472762340986 0.1981370491682294 -0.11784503097138355 -0.07456590745235421 -0.1021937153273336 -0.03005654376411629 0.13622908311809898
0.19566657776560992 0.0016430379128665865 -0.043226340862720945 0.007417436201564473 0.09600576387023046 -0.15001501168816683 0.15395050157858978 0.15759774161233198
-0.06547534075559537 0.1280878259686484 0.13268354137704508 -0.1798791811361491 0.06370415459832052 -0.20440736405092125 -0.03472778352549683 0.02381563060132759
0.16269947194188347 0.1491409133998378 0.1737172172364306 -0.037668216634398316 -0.05400122822206108 0.08932335136729214 0.04671763774722309 0.20268906139950896
-0.19427113533414903 -0.1284427923485576 0.18954953927282056 0.13298044573888962 -0.11232850444411566 -0.015440153497213976 -0.0901820879966902 -0.20891889392927598
-0.1948733490396875 -0.08363247088254008 -0.24546679921380427 0.057499146936823724 -0.08561330990103537 0.035455915209704564 0.2070600300171993 -0.01342852284984015
0.13283762593070178 -0.05364503677188036 0.11294951313700419 -0.2749791430459058 0.18154470631379951 -0.35491261500479393 -0.059175668629331185 -0.15321023704738526
-0.1669301069403347 0.1382624267388021 -0.19646468916116075 0.08535576738469547 0.223633822766537 -0.26916587294845423 -0.19723187660085556 -0.2273341264642708
-0.13863846811873068 0.12037238979772524 -0.15302352842442782 -0.0317931890151986 -0.25346313082613375 -0.04501177963004533 0.085394819215083 -0.191418309111866
0.20085088054027836 -0.031727153117786774 -0.2528110369046886 0.16948788211608617 0.09708626028257586 -0.18643803309198487 0.0007490853979080473 -0.045749111738326326
-0.14244528164273357 0.22211556776188432 0.10462604140405372 0.0068977631774817146 0.0684669369415606 -0.09927927882784132 0.1848295533775796 0.03850917609906191
0.16178921702278637 0.07625912962433186 0.17748584435706158 0.005655963782986398 -0.006331102707482627 0.05884663718998662 0.06914028411553447 0.03733188543167892
-0.04469238629575755 0.04074906868460345 0.19639030371858193 0.14660353864581904 -0.05164796501329613 0.1443406194427006 0.23248325330139233 -0.011090962025087768

linear4.bias f8 [3]
00000000: 5ef9 e9b2 c410 c03f 65a8 9020 6ee6 bd3f
00000010: a536 c90c 4dee aebf
0.12551172958405749 0.11679733557744638 -0.0604118421657465
