runs/startingpoint.pt (torch, 167767 bytes, 6 tensors)

linear.weight f8 [128, 95]
000000 d4 39 64 2d 1e dd b3 bf 04 29 21 de 35 d7 b4 3f
       -0.07759274109068964 0.08140885041317253
000010 97 18 f1 37 d8 0b a6 bf 49 19 c3 3c 35 61 90 3f
       -0.043059117153959985 0.015995818933128878
000020 8d 1f c7 39 b9 a7 b9 3f 9a 25 45 e8 63 b6 b8 3f
       0.10021550808516917 0.09653305454880581
000030 d3 c7 39 44 f6 8d 23 bf 06 20 68 7b 5f 37 83 bf
       -0.00014918929274504322 -0.009382959321570194
000040 4e 5a 20 2e e2 82 b4 3f 5a 22 fe db b2 60 a7 bf
       0.0801221239674785 -0.04565962729890734
000050 59 3c 2d 07 6c 0e ad 3f b8 6c dd e0 4c f7 b3 bf
       0.056750656009733454 -0.07799225320688918
000060 9a 28 54 58 a2 e4 b1 bf fc 55 d3 11 d6 41 86 bf
       -0.06989493042434206 -0.01086776010417178
000070 6c 89 37 ef 2f 41 98 3f 2c 01 70 bc c4 6d 98 3f
       0.0236861696011003 0.023856233598054263
000080 ee 11 a2 2b 22 6d ac bf 0c 33 4f ab 1c f3 3d 3f
       -0.05552012236242719 0.00045699548655590903
000090 ea 28 70 87 e5 89 b5 3f 7a a0 25 fa 1b 43 b7 3f
       0.08413538509936172 0.09086775643447878
0000a0 d6 f6 3e 8b 24 29 a0 bf af 7f 1b 70 8b 86 ad bf
       -0.031563894269749745 -0.057667119441020424
0000b0 4e 1d da 55 9f c1 b6 3f a6 cb 45 c2 5d 1f ac bf
       0.08889194341656045 -0.05492680546276256
0000c0 4e b0 8f f6 7c b1 87 3f 63 01 3c d9 07 c9 90 3f
       0.011569000505879636 0.016391871103225052
0000d0 97 7d b8 85 af b4 af bf 8c 8b 47 29 33 29 99 3f
       -0.061925396989177255 0.024571227449893082
0000e0 e9 9f 84 56 6d 66 68 3f e8 73 3d 17 da 31 a7 3f
       0.002978528547959759 0.04530221494380965
0000f0 b2 bc 8d a1 d7 18 ad bf e2 43 a4 a4 6b 26 ac 3f
       -0.056830156775384735 0.05498062500749491
000100 c0 14 c0 ee 69 85 b0 3f 50 6f 64 23 49 ba b5 bf
       0.06453573302140381 -0.08487374414511106
000110 f8 c5 03 59 aa e3 96 bf ce 81 a7 27 ba b2 9c 3f
       -0.022352849658039603 0.028025540037448775
000120 36 f9 62 79 7a 5e b3 bf 72 5b 93 60 b8 36 b8 bf
       -0.07566037620106134 -0.09458496434977606
000130 e6 27 64 e0 46 81 ae 3f ec 14 46 f3 7e 9e b5 bf
       0.05958005417967609 -0.08444970549870207
000140 8e e7 a0 4a 80 4c b4 3f 9c 27 63 70 b3 55 b5 bf
       0.07929231473909068 -0.08333894246894008
000150 40 13 85 10 39 52 b6 bf 30 a6 91 b2 5e 2a 81 bf
       -0.08719212201419868 -0.00838159544419445
000160 da 5b 26 9a 4b a3 b0 bf b4 01 d9 7a 34 b0 ae 3f
       -0.0649916888563519 0.059938087459616624
000170 65 95 c2 ab 04 78 9f bf fe c9 54 85 6c b9 95 3f
       -0.030731270774272974 0.021215148580447256
000180 52 76 52 be 1a 99 b9 bf be c1 61 8b 1c 23 a1 3f
       -0.09999243876014788 0.03347100449980499
000190 ea c8 cf c6 e8 12 b9 bf c4 57 8e d9 8b 7b b3 3f
       -0.09794478277015953 0.076103916754021
0001a0 e5 55 30 36 6f fa a7 3f 04 0c 4b 97 7d 09 a7 3f
       0.046832537999005365 0.0449942824539207
0001b0 84 fd 1d 7e 8a cb b4 bf e2 ba 78 7f 26 f6 b6 3f
       -0.08123078898460362 0.08969345676517151
0001c0 73 af eb 32 0e 98 aa bf 9c 2b 57 ca 19 6a 81 3f
       -0.05194134112920681 0.008503152358476922
0001d0 0c aa 01 d1 78 f9 b1 3f 46 7d 80 ec 65 07 b8 3f
       0.0702128896970537 0.0938628866574521
0001e0 2f 8b 9f 93 f6 0d 56 bf 7c 23 f0 ec 00 ab ae bf
       -0.0013461025214318125 -0.0598984040480621
0001f0 61 62 aa 99 3e 68 6a bf 26 a3 60 a2 61 8e a3 3f
       -0.003223535791516505 0.0381956587519368
000200 cd 58 e9 4f 48 5a a4 bf fd e0 ef 6f 83 52 b3 3f
       -0.03975130057794871 0.07547780497396057
000210 33 30 81 d4 2f 75 b5 bf af ca 06 3d 2c 4d a9 3f
       -0.08381937921620945 0.04941690678551446
000220 34 68 7a c9 4f 2e a2 3f b0 3a e6 8b cb 55 ab 3f
       0.035509579987050094 0.05338893969302683
000230 c6 46 69 eb 9c 58 a3 3f 18 70 ba 39 75 17 aa 3f
       0.0377854382865173 0.05096021966639358
000240 3c 67 78 85 55 8e 84 bf 4f 1a dc 00 35 35 b1 3f
       -0.01003710568970783 0.0672181250666679
000250 68 ee 12 de 86 46 b1 bf a5 8d 12 d7 0e be b0 3f
       -0.06748240396239569 0.06540005446236437
000260 b4 98 0d fb 13 e1 a5 bf 78 99 97 8a b0 cf b9 3f
       -0.042732834240085366 0.10082534202192572
000270 fe 4b 1a 5a 6d 14 ba bf b8 2d e0 e6 fd 85 96 bf
       -0.10187419366620529 -0.021995513168844488
000280 e0 d6 dd 13 c4 6c 98 bf fb b3 34 96 be cc b1 3f
       -0.02385240908866748 0.06953040282378702
000290 3a c1 fb 28 bf be 78 3f 0e e8 d6 16 c2 62 8a bf
       0.006041285246951406 -0.012883678743367735
0002a0 6c ce 33 b9 c7 90 91 bf 72 ee 12 b3 43 42 aa bf
       -0.01715385501752424 -0.0512868076416141
0002b0 70 e9 da c2 f4 9b 4e bf e0 32 7a 0e 9b bd b3 3f
       -0.0009341187594238808 0.0771119032235208
0002c0 1f 4f 93 cc fe e7 98 3f 1f 2d 73 52 ae fc 8f bf
       0.024322491871159643 -0.015618669406100736
0002d0 d1 26 2e 4f ff 1f 92 3f c4 63 02 60 b3 cd b3 3f
       0.017700185020237683 0.07735749334314251
0002e0 f2 ad 86 3f 5b 48 b0 3f 63 68 68 81 f8 cd a7 3f
       0.06360407162599538 0.04649330691991407
0002f0 dd 22 30 01 de 9d 9e 3f 8a dd 22 1c 45 03 b0 bf
       0.02989909059764072 -0.06254989563864491
000300 18 5d 29 28 ad 54 88 3f 74 26 78 a9 59 a6 b2 3f
       0.011880257404455238 0.07285080325541476
000310 e1 f6 0a 23 2b b3 a1 bf 18 01 c0 a9 d9 c4 b8 bf
       -0.0345700722004787 -0.0967536963871719
000320 57 a6 fe 5f aa 0e b4 3f 93 36 bd 5a e4 1d b9 bf
       0.07834877818700058 -0.0981123658686676
000330 04 77 97 a4 b1 af b3 bf 4e 0b 22 ea 16 4f b7 bf
       -0.07689962643004483 -0.09105056015145616
000340 48 5a 0e f4 1e f3 b4 bf 90 f2 97 3c 9f 03 b8 3f
       -0.08183473070526148 0.09380526761374086
000350 8d a8 3f 51 c0 e7 b2 3f a8 99 f9 ac 1a 4d b1 bf
       0.07384874328241349 -0.06758276675245745
000360 d4 16 00 58 16 ee b3 bf 32 df 75 1c 37 67 7d bf
       -0.0778516735882378 -0.007178511884710125
000370 e4 c8 41 18 06 a0 9a 3f a2 f6 67 ab 3c 17 b8 3f
       0.02600106738140874 0.09410456833571826
000380 85 f9 f8 bc 18 50 b7 3f b8 17 14 66 0c 32 a9 3f
       0.09106592763507677 0.04920996423793106
000390 be 60 35 13 28 de 90 3f fe a3 e9 5a 2c 00 8d bf
       0.01647245995749879 -0.014160486721452866
0003a0 4f b7 16 69 c7 1f a2 3f c8 b1 14 06 6e fa a1 bf
       0.035398704126562756 -0.03511375259617783
0003b0 d5 d6 d9 75 4c 27 94 bf 6e dd 9f 74 6b a8 b6 3f
       -0.01968116254143733 0.08850738141324196
0003c0 18 5f b4 21 8e 83 b6 bf 88 72 39 33 ba c1 b9 3f
       -0.08794487307420373 0.10061229467960164
0003d0 bd 02 f8 10 a2 fb 93 3f 7a 3b b2 6b 2d e6 b6 bf
       0.019514591489498957 -0.08944972876837012
0003e0 be 06 b8 38 68 dc 9d bf 3d e2 65 72 02 b5 b1 bf
       -0.029161098920673416 -0.06916823666495815
0003f0 92 4b ea b8 26 8b b6 bf 99 f9 4f 0f 64 53 80 bf
       -0.08806077971011764 -0.00797155544023269
000400 ca 60 05 21 93 f7 b2 bf 88 76 68 2c e2 9a b3 bf
       -0.07409019046952206 -0.07658208450490112
000410 d0 b2 87 69 e5 a0 b5 3f bd 46 15 70 21 db 44 bf
       0.0844863302842882 -0.0006364739676120928
000420 8c c9 2b 68 63 d4 9a bf d8 30 a1 c4 c4 89 9d bf
       -0.026200822098823504 -0.028845858098336702
000430 a8 0b aa 3b c7 fa b5 bf e6 2f 2c 8e 85 60 96 3f
       -0.08585782248159879 0.021852576067473616
000440 95 94 a3 94 14 ce a2 3f da c3 3a 2f a0 4f a2 3f
       0.03672851862374064 0.035763746037794156
000450 59 c5 c8 9f b1 8a 73 3f 51 78 c9 fb 0c 05 b1 3f
       0.004770940632213915 0.06648331782477725
000460 16 10 04 16 9e ec 47 bf 6e ae 7b 94 c9 e7 91 3f
       -0.0007301113037390141 0.01748576134461504
000470 d8 df 23 06 69 7c 7f 3f c5 47 8c f2 81 2e ab 3f
       0.007687006235066428 0.05308919988432551
000480 06 d6 d8 1d 96 cd ae bf 95 e6 c6 6e 6b e5 9e 3f
       -0.06016224970191435 0.030172041546143353
000490 35 10 a7 f5 63 79 b3 3f 72 b2 e7 38 9c 58 b5 bf
       0.07607102153184615 -0.08338333501132825
0004a0 28 7a d8 a1 b0 93 9e bf e8 6a cc c4 4c 4a a7 bf
       -0.02986026752307161 -0.045488738082175406
0004b0 d2 83 b4 9c ca c0 b0 3f 50 da 25 2e a4 39 ac 3f
       0.0654417641240024 0.05512726844147109
0004c0 cf e0 29 d8 fc 21 a1 bf d3 1e 5f cd 57 a6 a1 bf
       -0.033462430369526446 -0.03447222120263196
0004d0 0e 61 08 74 d9 f3 b0 3f 22 71 14 62 f0 14 b2 3f
       0.06622084696607919 0.070632003731991
0004e0 58 34 8a 41 16 00 ab 3f 6b 04 8e c6 d6 4b b6 3f
       0.052735038280936564 0.08709471080330082
0004f0 0c 74 72 58 08 3b b4 3f 64 b3 b4 9e 9f 8f b2 bf
       0.07902576598503702 -0.07250402092604485
000500 15 45 4b 1b 1e 7f aa bf 5b 74 01 2f ab b7 4f 3f
       -0.051751080352582836 0.0009679399354457595
000510 d7 64 0c 81 4e b3 af 3f ec 4d 67 88 95 b7 aa bf
       0.0619148762254526 -0.05218188562471568
000520 92 4d 2b 4c fd 10 82 3f fc d0 ec 96 61 15 b6 bf
       0.008821467291830119 -0.08626375136083547
000530 7e 5f 30 22 d2 21 b9 bf 06 47 df 1c d7 9a b3 3f
       -0.09817231497470222 0.07658142523657938
000540 4a bd fe e8 bb 9d 7e 3f da 9b ec 08 37 5f b5 bf
       0.007474645637486186 -0.08348411529423974
000550 1a 24 70 6b d3 62 aa bf 8a 67 a1 77 bc 62 a5 bf
       -0.05153523146152157 -0.04176892242749293
000560 8b 13 1d ac e9 49 80 3f d1 32 77 c9 ac 6a 9d bf
       0.007953477444638831 -0.028727245136724037
000570 da 91 41 c4 f8 26 ad bf df b0 b9 e7 d3 76 b4 bf
       -0.05693795581536039 -0.07993816764218618
000580 2a 43 a4 f1 77 3a 92 bf b9 f0 3f 28 59 4a b3 bf
       -0.017801164744983534 -0.07535321457538914
000590 5d 57 bb b8 31 58 a2 3f 1a f9 16 8d a5 cd a9 bf
       0.035829118538159156 -0.05039708468710753
0005a0 58 17 c8 89 8b 75 a4 bf de 24 2f b8 37 18 a7 bf
       -0.03995929772285817 -0.045106641038339154
0005b0 b4 4c e4 fc d2 7b 8c bf c2 9a 50 44 0d 0b a1 3f
       -0.013908050863881229 0.03328744372293137
0005c0 60 75 da dd 69 49 60 3f aa 71 d4 5c f5 96 b9 3f
       0.001988131304485094 0.09995969311098088
0005d0 77 79 18 90 80 3d ba bf 29 5b 27 31 86 a8 b8 3f
       -0.10250094907721584 0.0963214750293956
0005e0 f4 c5 a2 a3 bd 11 9c 3f 31 03 db ae 57 ea 94 bf
       0.027411425697840344 -0.020425195739110783
0005f0 00 00 00 60 6f a8 b3 bf 00 00 00 80 57 07 b5 3f
       -0.07678886502981186 0.08214327692985535
000600 00 00 00 40 fe 87 b1 3f 00 00 00 80 e0 f1 9a bf
       0.06848134100437164 -0.026313312351703644
000610 00 00 00 00 1f ae b4 3f 00 00 00 00 f1 f1 9f 3f
       0.08078187704086304 0.031196370720863342
000620 00 00 00 00 38 5e a1 3f 00 00 00 00 7a 78 9e 3f
       0.03392195701599121 0.02975645661354065
000630 00 00 00 00 7a d9 7a 3f 00 00 00 e0 8c 4d ae bf
       0.006555058062076569 -0.05918541178107262
000640 00 00 00 40 3e 52 b3 bf 00 00 00 80 6a 11 b0 3f
       -0.07547368109226227 0.06276574730873108
000650 00 00 00 00 d1 6a b9 bf 00 00 00 00 f4 4a aa 3f
       -0.09928613901138306 0.0513530969619751
000660 00 00 00 80 0a 42 b5 3f 00 00 00 a0 c0 6e a5 bf
       0.08303895592689514 -0.04186059907078743
000670 00 00 00 00 70 50 80 3f 00 00 00 80 41 17 ab bf
       0.007965922355651855 -0.052911803126335144
000680 00 00 00 40 61 17 b6 bf 00 00 00 00 36 14 93 bf
       -0.0862942487001419 -0.018631786108016968
000690 00 00 00 20 f7 fd b0 bf 00 00 00 60 51 13 b3 bf
       -0.06637520343065262 -0.0745135173201561
0006a0 00 00 00 00 e0 c3 a1 3f 00 00 00 80 86 bf 91 bf
       0.034697532653808594 -0.017332173883914948
0006b0 00 00 00 c0 e1 20 ba 3f 00 00 00 40 6c 1c a1 bf
       0.10206423699855804 -0.03341997414827347
0006c0 00 00 00 80 48 8c af bf 00 00 00 00 a5 cb 9c 3f
       -0.06161715090274811 0.02812059223651886
0006d0 00 00 00 a0 18 b7 ae bf 00 00 00 a0 96 fd ad bf
       -0.05999066308140755 -0.0585753507912159
0006e0 00 00 00 00 95 ac a3 bf 00 00 00 80 07 72 b2 bf
       -0.03842607140541077 -0.07205244898796082
0006f0 00 00 00 00 f8 79 67 3f 00 00 00 40 a7 66 b0 bf
       0.0028657764196395874 -0.06406636536121368
000700 00 00 00 00 fa 74 af 3f 00 00 00 00 9c 75 81 bf
       0.061439335346221924 -0.008525103330612183
000710 00 00 00 40 ac d6 b2 3f 00 00 00 00 3a c8 a0 3f
       0.07358814775943756 0.032777607440948486
000720 00 00 00 00 7f 0e aa 3f 00 00 00 80 68 e4 a6 3f
       0.05089184641838074 0.044711366295814514
000730 00 00 00 80 dd ca b7 bf 00 00 00 00 3a 93 b5 3f
       -0.09293922781944275 0.08427774906158447
000740 00 00 00 00 90 f3 ae 3f 00 00 00 00 dc cc 82 3f
       0.06045198440551758 0.009179800748825073
000750 00 00 00 c0 5b 9d b8 3f 00 00 00 c0 1b df b3 3f
       0.09615109860897064 0.07762311398983002
000760 00 00 00 00 8e 73 8c bf 00 00 00 80 6a 01 ad 3f
       -0.0138922780752182 0.05665142834186554
000770 00 00 00 40 ad 56 a6 bf 00 00 00 a0 8f d0 b0 bf
       -0.04363004118204117 -0.06568238884210587
000780 00 00 00 80 9a 00 ab 3f 00 00 00 00 11 31 ab 3f
       0.0527389794588089 0.05310872197151184
000790 00 00 00 00 7a ff a5 bf 00 00 00 00 56 bd a1 3f
       -0.04296475648880005 0.03464764356613159
0007a0 00 00 00 00 7a da 9d bf 00 00 00 80 b5 98 b1 3f
       -0.0291537344455719 0.06873640418052673
0007b0 00 00 00 80 ed 48 9c bf 00 00 00 00 8f 8a a4 3f
       -0.02762194722890854 0.04011961817741394
0007c0 00 00 00 80 53 5f b0 bf 00 00 00 00 bc 1b 82 bf
       -0.06395456194877625 -0.00884196162223816
0007d0 00 00 00 00 77 07 80 bf 00 00 00 00 ad 6e a0 3f
       -0.007826738059520721 0.03209438920021057
0007e0 00 00 00 40 36 f1 b1 3f 00 00 00 a0 0e f9 aa bf
       0.07008685171604156 -0.05268140509724617
0007f0 00 00 00 c0 c9 78 b2 bf 00 00 00 a0 ac b1 b9 bf
       -0.07215557992458344 -0.10036734491586685

linear.bias f8 [128]
000000 6d 8a c6 b9 39 50 b1 3f 8a dd 22 dc 12 a9 b0 bf
       0.06763039384399301 -0.06507985948961995
000010 00 00 00 00 58 5c 88 bf 9e 38 3f 70 2a 25 a0 3f
       -0.01189488172531128 0.03153355236246223
000020 00 00 00 00 60 0a 35 bf 40 6b 71 e3 01 25 9d bf
       -0.0003210529685020447 -0.02846148443891683
000030 cd 0e 35 4e f9 e0 ad bf e8 cb 8c c8 5f b6 b0 3f
       -0.05835703925779754 0.06528280874481107
000040 00 00 00 20 f5 63 b6 bf 54 a0 9a 63 d8 14 96 3f
       -0.08746273070573807 0.021563893393846748
000050 96 74 bc 64 05 12 95 bf fa ce e3 50 14 65 b8 3f
       -0.02057655742020311 0.09529234862185013
000060 26 3d d7 71 b2 05 a6 3f 44 e0 41 18 2d 51 ae bf
       0.04301221503885193 -0.059213074885463374
000070 2c a0 df be e1 67 9a 3f 18 47 3d f0 ee c7 b2 bf
       0.025786902689930155 -0.07336324086398027
000080 fe f3 b9 08 08 34 b9 bf a2 22 1c ed fb 70 a0 bf
       -0.0984501859001767 -0.03211200017364503
000090 00 00 00 40 7b fc b6 3f 36 8e 79 f5 76 32 b7 bf
       0.08979006111621857 -0.09061377995527028
0000a0 17 e6 e9 7c d0 83 b3 bf 1b 00 da de 6d b8 a8 bf
       -0.0762300782170303 -0.048282082990226814
0000b0 46 eb d7 d1 8d bb 83 3f 86 b2 f0 c5 0b c9 ad bf
       0.009635074583447822 -0.0581744841696024
0000c0 22 9a be eb d9 99 a5 bf 00 00 00 c0 aa 64 b8 3f
       -0.0421894169115158 0.0952860563993454
0000d0 2e 12 7c ba e0 0b b1 bf ac 77 71 db 89 aa a6 bf
       -0.06658749153945884 -0.044269855535034125
0000e0 ed 9e dc 8a af 8f 8c bf 00 00 00 00 81 92 b8 bf
       -0.013945933747506934 -0.09598547220230103
0000f0 0d c6 5e c8 15 05 b1 3f 2a 8d fb 23 27 6b 9a 3f
       0.06648384229517763 0.02579938084717274
000100 e0 41 cf 3c c2 87 a6 bf 53 e3 08 de f9 0e a9 bf
       -0.04400450699143099 -0.04894238314995527
000110 3a 45 79 df ed ba 8e bf 00 00 00 80 0c 3a 9c bf
       -0.015004976637245638 -0.027565188705921173
000120 00 00 00 20 45 55 b8 bf 62 9d dc b4 a8 e4 75 3f
       -0.0950511172413826 0.005345019349796006
000130 cc 38 b5 ed 6a 0b 80 3f c4 ea 26 6d ee 90 9a 3f
       0.00783427751471457 0.02594349423609789
000140 e7 6f 59 4b 78 f9 b8 3f 00 00 00 00 e1 c7 ae bf
       0.0975566085775764 -0.06011870503425598
000150 ac ff b1 5d 86 05 b6 bf b4 e4 8f 34 e0 b8 8c bf
       -0.08602180278285115 -0.014024497608249177
000160 28 5f ee 05 91 cf ad 3f 34 6e 2c 56 ac 72 6b bf
       0.058224231695190476 -0.003350578875495969
000170 d9 b0 f0 a9 21 75 60 3f 6b 13 78 b5 85 29 b1 3f
       0.0020089776512773713 0.06703983002087248
000180 62 b9 0b d7 c9 44 a8 3f 00 00 00 40 11 22 b5 bf
       0.047399814129550646 -0.08255107700824738
000190 6f 08 29 05 27 ca b7 3f f4 7e 83 70 2d 80 9a bf
       0.0929283511732437 -0.025879583351410454
0001a0 d5 d3 ea 1f 2d ea 91 bf 9e 54 5d 30 ef ea 98 bf
       -0.017494874070241046 -0.02433370335287021
0001b0 00 00 00 a0 e7 f3 aa bf 00 00 00 c0 81 fb b3 bf
       -0.0526420958340168 -0.0780564397573471
0001c0 cc eb ea 8d fe 0c a7 bf 36 4f db 2e 9c d4 9f bf
       -0.04502101404565159 -0.03108448062887633
0001d0 00 00 00 00 46 6a a2 3f c6 56 2e 71 d0 22 af 3f
       0.03596705198287964 0.060812486473123026
0001e0 e6 b0 d3 25 5e c4 b5 3f d8 fa 52 02 c6 b5 ac bf
       0.08502758430012455 -0.05607432154055453
0001f0 74 56 2d e8 df ca 7a 3f d4 e9 6f 63 d5 66 a6 3f
       0.006541132580272103 0.04375330771286526
000200 4c cd 77 43 c9 49 7e bf 25 9b e4 98 58 de 9c 3f
       -0.007394586740235919 0.02819193299469726
000210 9d 8b 4a 2e 9b 38 8f bf 65 c7 43 a2 ea 37 a2 bf
       -0.015244686460681051 -0.035582859332761875
000220 00 00 00 00 09 e5 9f 3f 0a 54 a9 3f 13 23 b6 bf
       0.03114713728427887 -0.08647270492777195
000230 00 00 00 00 02 5a b9 bf 00 00 00 80 18 ca a1 3f
       -0.09902966022491455 0.034744992852211
000240 00 00 00 00 ce 5d a3 bf 00 00 00 00 f2 80 78 bf
       -0.037825047969818115 -0.005982346832752228
000250 d4 97 0d dc c4 e0 b4 bf 00 00 00 a0 1e 6f a9 bf
       -0.08155470249548041 -0.04967590048909187
000260 02 8a f5 51 20 7e b4 bf c6 52 48 eb 21 ff b6 3f
       -0.08004953385310645 0.08983051294519404
000270 a9 e8 fe 9e 0d 47 a9 3f bd 02 d9 29 cd 7c b8 3f
       0.04937021795144975 0.09565431853935542
000280 00 00 00 80 b2 0d ad 3f 90 bf f3 a8 9e df 93 bf
       0.056745126843452454 -0.01940772920801198
000290 00 00 00 c0 31 fe b8 3f 47 bc 61 71 e8 eb 92 3f
       0.09762869775295258 0.018478042526507
0002a0 10 5c c1 2b a4 3d a1 3f 62 e8 a6 78 e1 15 a5 bf
       0.033673410741066445 -0.041182561853432956
0002b0 00 00 00 c0 d3 4c b3 bf 88 53 e9 81 20 21 ad bf
       -0.07539103925228119 -0.056893363817528686
0002c0 d0 74 a6 62 75 e8 ad bf 70 d3 f6 be d4 54 79 3f
       -0.05841414288736646 0.006184416808015722
0002d0 22 0e 9d 75 f5 06 91 bf 3a 4f 70 fb e6 70 b0 3f
       -0.01662810831409279 0.06422275198593477
0002e0 ee 8d 33 f3 d0 37 b1 bf 68 c8 81 62 ce b5 b3 bf
       -0.06725793778928565 -0.07699289231257611
0002f0 1c c2 33 c9 a2 98 b2 3f 00 00 00 00 11 bc 8c bf
       0.07264153873598683 -0.014030583202838898
000300 92 aa 73 1b d9 33 b1 3f 51 c3 9e fe e2 b2 af bf
       0.06719738884172902 -0.061911672193110896
000310 2c 26 53 08 5c dc 91 3f 2b 56 34 0f 97 11 71 bf
       0.01744216728983454 -0.004167165828467693
000320 60 f5 25 ce 4b dd b3 3f 28 5e 17 cf 73 85 7d 3f
       0.0775954607288063 0.007207348231041112
000330 10 4b dc 8f 01 af 8f 3f 16 e0 80 dd 0e dc a2 bf
       0.015470516398214978 -0.03683515981578027
000340 dc 82 0d 3f 5f 51 b9 3f bc c6 21 7c 99 ee 95 3f
       0.09889788903593505 0.021417997552311205
000350 00 00 00 00 fd 2f 98 3f 1c b4 7e 4a 1b 21 a1 bf
       0.02362056076526642 -0.03345570835458764
000360 ac f6 04 b1 59 08 b8 3f 3e a4 ec 70 1a 23 a9 bf
       0.09387741634142327 -0.049095941815104
000370 24 a1 6f 3f bb 5b b0 3f f1 d5 0f ab 75 c0 b2 bf
       0.06389971064311745 -0.07324920107188128
000380 3a 69 b2 36 0e 36 b7 3f ad f8 75 41 ae 4c b6 3f
       0.09066857180952051 0.08710755441822711
000390 85 50 d4 2d 52 19 a4 3f 2c 7d 0b 45 8b f7 51 bf
       0.03925568398895599 -0.001096616750309763
0003a0 36 bc c1 a7 72 4a b2 3f 00 00 00 00 27 07 88 3f
       0.07144848437904802 0.011732392013072968
0003b0 70 26 92 73 7b 66 b8 3f 78 28 d6 29 f0 02 b9 bf
       0.09531375476412918 -0.09770108243370312
0003c0 cf 72 db 95 df a0 ad bf 4f fa 54 1f c9 ca a0 bf
       -0.05786799148856902 -0.03279713160963082
0003d0 00 00 00 00 88 c5 b5 bf 36 4e e7 f6 65 b6 a4 bf
       -0.08504533767700195 -0.040454088582603395
0003e0 e2 4a 64 40 25 92 9d bf 2b 2c 43 1a a9 fd 95 bf
       -0.028877813391839598 -0.021475450733117334
0003f0 6c 2c ff bc a8 7d b8 3f 00 00 00 80 92 49 ae 3f
       0.09566740621737474 0.05915506184101105

linear2.weight f8 [64, 128]
000000 1e 21 e1 10 4f 16 ae 3f 51 db ff 03 0d c4 a9 bf
       0.05876395302817826 -0.050323874223912164
000010 00 00 00 80 4b 6e b4 bf f2 c7 fb d8 ff d0 92 bf
       -0.07980796694755554 -0.018375394457457568
000020 00 00 00 00 a9 e5 89 3f 0b 2f 1b 77 87 5a a2 bf
       0.012645073235034943 -0.03584693268711988
000030 50 2f af 64 c2 4c b2 3f 80 4c a3 5e ed 43 55 3f
       0.07148375471223045 0.0012979333937906123
000040 00 00 00 80 7a cb 95 bf 56 87 28 9d a3 fe b0 3f
       -0.02128402143716812 0.06638548457024504
000050 24 cd e4 17 ae 95 7b 3f bf ff 91 e3 4a 03 9f 3f
       0.006734542896356364 0.030285997524060578
000060 86 e5 b1 ea 9c 10 a2 bf a2 15 35 c8 ed ee b0 bf
       -0.035282996796875785 -0.06614576471209557
000070 d2 e7 fe f9 95 50 b4 bf 28 fd c4 03 2f 4b b2 3f
       -0.07935464242373705 0.07145971147564423
000080 22 c3 af 2a a6 95 84 3f 80 ea eb a1 05 e2 a3 bf
       0.010051057985010884 -0.038833786025823436
000090 00 00 00 c0 37 49 a1 3f ca a4 4f e0 48 8b 99 3f
       0.033761732280254364 0.02494539136015276
0000a0 ca e6 5f 2e b4 cb a6 bf 4d f6 99 1f 70 4f b5 3f
       -0.0445228869065893 0.08324337741393002
0000b0 e0 ca 0c 9b 90 69 af bf 7c 3f d4 f0 a7 e1 b0 bf
       -0.06135227101039731 -0.06594323758713289
0000c0 2d ca 66 8c 7d c6 98 bf 00 00 00 60 91 6a b0 3f
       -0.024194680876187192 0.06412609666585922
0000d0 18 12 c5 af c9 c1 aa bf 77 56 a4 41 f2 c4 94 3f
       -0.052259733873629866 0.02028254056593545
0000e0 f8 29 25 27 e1 e7 96 3f 00 00 00 00 b4 28 85 bf
       0.022368925108176868 -0.010331541299819946
0000f0 8f ff 72 82 a3 6b af 3f a2 66 9d db 22 f8 b1 bf
       0.06136809317967994 -0.07019250737848862
000100 20 2f 64 d3 fe 1e 6f 3f d2 51 0b 0f 67 31 a1 bf
       0.003798959452188458 -0.03358003672261457
000110 54 50 8b c6 6b 73 72 3f 00 00 00 00 b3 58 86 bf
       0.004504605291646941 -0.01091136783361435
000120 00 00 00 00 22 9a 9c 3f 90 8d f0 5c 82 31 a5 3f
       0.02793172001838684 0.04139335045354209
000130 00 00 00 80 69 4d 94 3f 2e 72 a5 c3 97 74 b7 bf
       0.019826553761959076 -0.09162281538505887
000140 8e e0 ac 0b d5 e1 93 bf 00 00 00 a0 86 f3 b0 bf
       -0.0194161690116919 -0.06621591001749039
000150 28 6e 05 b8 df 2e 95 bf 77 21 65 1d 22 cf 82 bf
       -0.020686622244609293 -0.009184137842240798
000160 52 f1 ba cc 88 1d 91 3f c9 64 bb 13 0a ea b3 3f
       0.016714227195494154 0.07778990728128855
000170 52 71 59 a2 ae 33 a8 bf a6 fd 2b 3e 30 5f 72 3f
       -0.047269303625145156 0.004485310028712252
000180 14 01 f2 e7 b3 12 b4 3f 00 00 00 40 d5 af ab 3f
       0.07841038143852003 0.054075874388217926
000190 00 00 00 00 6e cd a4 bf 08 6f 15 9c 38 7f 57 3f
       -0.040629804134368896 0.0014341404751893622
0001a0 00 60 1f 68 45 64 a4 3f 23 35 e6 e9 c6 6e 89 3f
       0.03982750793483092 0.012418321621931632
0001b0 00 00 00 a0 78 61 b6 3f 00 00 00 c0 35 83 a5 3f
       0.08742479234933853 0.04201667755842209
0001c0 6a bf a1 24 d2 5e 99 3f 21 3b a5 a1 5f 19 90 3f
       0.024775775419072422 0.01572179245095662
0001d0 00 00 00 c0 32 70 a5 bf be 7c 75 08 fa 5d b2 3f
       -0.041871629655361176 0.07174647051350555
0001e0 76 5f 5d 61 e6 e6 7a 3f 95 cd b5 6d f1 0d aa bf
       0.006567859576385495 -0.05088762726054622
0001f0 7c 15 d5 58 2f 23 af 3f 06 54 8a 51 c6 34 b0 bf
       0.06081531485919364 -0.06330527773600644
000200 70 38 38 ad f2 a4 a1 bf 82 d5 b9 65 fb 91 b0 bf
       -0.0344615780305596 -0.06472750886481118
000210 5c 4a 03 35 5f 95 a1 bf 47 53 f2 69 0f 6e b0 bf
       -0.03434274217729147 -0.06417938553415779
000220 00 00 00 00 20 70 a0 bf 98 f6 f6 d5 7e 85 8c bf
       -0.032105445861816406 -0.013926497368511634
000230 00 00 00 80 31 5c b0 bf 00 00 00 c0 41 cb a7 3f
       -0.06390675902366638 0.04647260159254074
000240 00 00 00 80 7c c2 99 bf 00 00 00 e0 95 2f ad bf
       -0.025155968964099884 -0.057003673166036606
000250 2a a1 2a 84 07 25 b5 bf 00 00 00 00 75 10 86 bf
       -0.08259627320024224 -0.01077357679605484
000260 70 18 21 ff 28 53 92 3f 10 50 3a ae 40 54 a0 3f
       0.017895355769973198 0.031892796772041376
000270 eb 1a 7e de 41 da b6 bf 4a 08 a1 70 f9 82 ab 3f
       -0.08926784212063026 0.05373363017908213
000280 00 00 00 40 1d 0b b3 bf f7 23 7a 4f 2d cf a2 bf
       -0.07438834011554718 -0.036736885024829684
000290 00 00 00 40 a9 1b b0 bf 22 d5 25 9c 59 2f 94 bf
       -0.06292207539081573 -0.019711876063827856
0002a0 d0 6d e4 22 a7 97 64 3f 10 00 43 4e e0 e2 a0 bf
       0.0025137199765034937 -0.03298092799514063
0002b0 00 00 00 00 a0 31 5d bf 82 c5 d6 c5 ba 07 a3 bf
       -0.001781851053237915 -0.03716834702516804
0002c0 53 64 84 b4 24 a4 92 bf a0 68 f0 e6 a0 68 98 3f
       -0.018204282300846874 0.023836626143840633
0002d0 d2 39 2b 47 bf 1e af 3f d7 c7 e5 5f fa 37 72 bf
       0.060781457364658245 -0.004447916055470422
0002e0 34 68 86 4a e7 eb 51 bf ac 24 2b f1 ac 31 a4 bf
       -0.001093841428974074 -0.03944149440719377
0002f0 1e 30 3a 5b c3 36 ad bf 00 00 00 a0 42 4f b6 3f
       -0.057058434377808206 0.08714691549539566
000300 54 0c 0f 42 90 36 a0 3f 88 fe 71 0e f7 e2 af 3f
       0.03166628652936568 0.062278481019345355
000310 82 ab c5 c1 fd 83 a7 bf 78 c6 29 16 6f 99 b4 bf
       -0.04592888822920484 -0.08046621600240111
000320 cd 04 0b e3 bb e2 b0 3f 53 2f 3f 05 cb ed b5 bf
       0.0659596852592756 -0.08565968397232142
000330 dc 4f cd 8f f3 83 b6 bf 0a c1 ba d2 89 a8 64 3f
       -0.0879509187773801 0.002521771608222538
000340 e2 0a 4a 4c 9f 62 b5 bf 9a d6 db 6e 45 77 b3 bf
       -0.08353610622911448 -0.07603868443023956
000350 00 00 00 c0 b2 73 ac 3f ca 6d 90 bc 9d 45 b2 bf
       0.05557020753622055 -0.07137475827806053
000360 ee 52 21 a1 3a ad 9b 3f 0d e1 9c fa c9 23 8d bf
       0.027028003773312763 -0.014228418312641123
000370 72 d1 c7 e4 67 ba b0 bf a4 f6 c3 bb 4a f5 b4 3f
       -0.06534432731115716 0.08186785778158395
000380 fe af 9c 7a b9 14 a3 bf a4 9b c4 d9 b7 70 b5 bf
       -0.0372674905941892 -0.08375119272805748
000390 2c 64 cc 51 6f f9 ae bf 1c f0 8b 14 62 7d a0 bf
       -0.06049678681865375 -0.03220659733594308
0003a0 cd f8 38 06 c1 38 b1 bf 00 00 00 00 3c fa 76 3f
       -0.06727224733274113 0.00560973584651947
0003b0 b4 ec af 7a 23 6f b1 3f 14 88 16 0a 96 f0 7a 3f
       0.06810209031384568 0.006577097026282192
0003c0 b9 49 94 41 08 bf 78 3f 5c 14 0e 77 14 f7 a3 bf
       0.006041557551059667 -0.03899444535549243
0003d0 00 00 00 00 cd fc 84 bf 5a 76 92 66 86 9f b0 bf
       -0.01024780422449112 -0.06493415836526975
0003e0 04 cb 66 e5 1d 70 9a 3f 50 d6 e5 b1 6a 76 a8 bf
       0.0258183165803514 -0.0477784483108904
0003f0 54 7f bd b5 90 c5 9f bf 00 00 00 00 5a ca 76 3f
       -0.03102708920721338 0.005564071238040924
000400 ec 34 cf ef 46 d1 95 3f 56 10 a2 5b 60 21 90 3f
       0.021306141268543508 0.015752320854986422
000410 00 00 00 c0 4b 09 b5 bf e6 a0 94 e8 cf 6b 9c 3f
       -0.08217309415340424 0.027755020685760544
000420 00 00 00 00 9e b3 82 bf bc 3f 3c d8 42 a3 a7 3f
       -0.009131655097007751 0.04616745843497891
000430 e8 c8 3a fb cc e0 85 bf 4e c8 db 76 30 94 b0 bf
       -0.010682679573936274 -0.06476118947810613
000440 00 00 00 00 3d 6c 8b 3f 18 56 ea 32 e5 45 b3 bf
       0.013390041887760162 -0.07528526776362587
000450 19 07 f1 85 2d a7 b0 3f 5c 27 5f 33 4d 52 a5 3f
       0.06505093116814144 0.04164353611083868
000460 50 56 51 f7 be 6e a5 3f ec 98 e8 2c 2e ea a1 3f
       0.04186054963126351 0.034989779455189524
000470 2a 7c 0d a0 6e 6d 77 3f f6 95 4b 74 ff c6 ae bf
       0.005719596986494083 -0.06011198324794613
000480 0a 13 5e b6 de 27 a9 bf 8e 9a 36 be 4a 3f 90 3f
       -0.04913230873265746 0.015866439685533744
000490 00 00 00 00 33 ae 93 3f 1a 40 58 30 98 df 81 3f
       0.019219204783439636 0.00872725389038469
0004a0 de f6 cb 1e 93 22 b4 3f 52 03 fe 91 73 61 a9 3f
       0.07865256788133076 0.049571620532339225
0004b0 5e f0 c7 99 94 7e b7 bf b6 0e 31 ad 1d 0d 81 3f
       -0.09177521471423364 0.00832579788960373
0004c0 a4 09 83 d6 ca 68 9d bf 00 00 00 00 02 56 7f bf
       -0.028720063536420107 -0.007650382816791534
0004d0 e4 3b 21 a3 89 e8 a7 3f 17 de b7 d6 0d ff a6 3f
       0.04669599644022762 0.04491465803215194
0004e0 eb 3b e1 83 05 37 b5 3f 00 00 00 c0 9f 3a b6 bf
       0.08287081212732487 -0.08683203160762787
0004f0 7d a9 d9 88 e8 0a a2 bf 45 b4 7e 12 75 fd 91 bf
       -0.03523947401557146 -0.017568425420609896
000500 2c 4f a7 a7 c1 7a b1 3f 22 51 a9 d3 6f 1c 55 bf
       0.06827936499695103 -0.0012885181482902926
000510 f3 18 84 ad 55 ac b3 bf 00 00 00 00 e2 43 8a 3f
       -0.0768483685133992 0.012824788689613342
000520 00 00 00 c0 0b 3d b2 bf 2a 73 b4 9a 9b de b6 3f
       -0.07124398648738861 0.0893342259118525
000530 f2 69 84 0d 8e 86 b2 bf 1a 49 bc 70 de 9c b4 3f
       -0.07236564474116117 0.08051862957316694
000540 6a cd 0b b8 1a 62 b4 3f 00 00 00 00 d3 cd a1 3f
       0.07962195390046181 0.034773439168930054
000550 40 dd d2 a7 78 8c 9e bf 96 81 e6 5e 33 85 a5 bf
       -0.029832730525155116 -0.042031865438960356
000560 69 7c ee 23 46 e6 ae 3f 14 83 87 9c 87 10 84 3f
       0.06035060108774177 0.00979715296210907
000570 a4 27 c7 bd a4 1b 84 3f 56 27 90 48 72 fb b1 3f
       0.009818350831569074 0.07024301787910522
000580 4c 67 02 23 48 a5 b0 bf 00 00 00 80 11 6e ae bf
       -0.06502199988099483 -0.059433504939079285
000590 91 a4 e9 83 13 f7 9c bf 8e 83 01 c7 f7 83 74 3f
       -0.02828627102499987 0.005008666878070124
0005a0 6c 06 f4 97 06 7a 87 3f e6 54 21 68 f9 52 b5 bf
       0.011463214409107546 -0.08329733650437596
0005b0 00 00 00 80 f5 a8 a6 bf 00 00 00 00 d0 a3 88 3f
       -0.04425780475139618 0.012031197547912598
0005c0 34 c6 47 6f 23 53 9c bf b8 25 e4 e3 5d fc af bf
       -0.027660897891058592 -0.06247228056788451
0005d0 00 00 00 40 f6 a3 9b bf 0e 02 d2 ac 52 2e 92 3f
       -0.02699265256524086 0.01775483302890462
0005e0 66 31 1b 65 7d 70 b3 bf 18 de 95 a0 25 41 7e 3f
       -0.07593520849622379 0.00738634775313287
0005f0 76 c3 80 40 de 95 a6 bf 5c 2a f3 e5 4d b4 a1 bf
       -0.044112153409861785 -0.0345787375641364
000600 0b 03 d2 e9 a2 bc b3 3f 90 63 ba 1c 10 ee b4 bf
       0.07709711273674828 -0.08175755215996916
000610 78 78 c0 68 e7 7f 92 3f 1a 74 71 ae 84 34 97 bf
       0.018066039818329632 -0.02266127886501943
000620 00 00 00 00 e4 f6 97 3f de 3f 52 26 0c a7 8d bf
       0.023402750492095947 -0.014478773993943091
000630 00 00 00 00 6f 64 86 3f 00 00 00 00 2b ca a1 bf
       0.010933749377727509 -0.03474554419517517
000640 00 00 00 e0 8f 19 b6 bf 00 00 00 00 17 83 91 3f
       -0.08632754534482956 0.017101630568504333
000650 0a 78 5d 5f 36 46 a2 bf 00 00 00 00 82 6c 81 bf
       -0.035691928044556745 -0.00850774347782135
000660 cc 9f f5 9a 4d 7b ad 3f 4c 43 6d 66 2b b7 7c 3f
       0.05758135334582412 0.0070106215778914065
000670 74 66 79 37 7b ba a3 bf f1 9a f9 06 e6 5b aa 3f
       -0.03853211452651531 0.05148238024849217
000680 00 00 00 00 be dd 81 3f e7 15 8d 55 27 9d b5 3f
       0.008723720908164978 0.08442922438288002
000690 00 00 00 c0 8c 04 a2 3f 26 49 60 17 a5 bb a9 bf
       0.03519096225500107 -0.050259741881875805
0006a0 c4 04 6a 2a 3d 3d b1 3f f6 d4 14 d0 16 b5 af 3f
       0.0673406818914542 0.06192847528510896
0006b0 00 00 00 00 e0 53 69 3f 64 86 22 b3 b4 f9 97 3f
       0.003091752529144287 0.02341348975517689
0006c0 92 1e 26 38 c0 4a b1 3f 97 06 aa a3 1f 2c 8c bf
       0.06754685755560733 -0.013756034071096308
0006d0 04 99 22 50 a4 31 9c bf 85 46 a8 c5 2e 6a a9 3f
       -0.0275331186209309 0.04963823473748356
0006e0 50 2f 07 79 93 8b 7f bf 48 3f 8f 59 5c 37 a5 3f
       -0.007701469483844495 0.04143799393898334
0006f0 85 86 cb 59 b4 a7 a8 bf 00 00 00 40 18 61 b4 bf
       -0.048154483758264845 -0.0796065479516983
000700 1d 6e 2f cd b1 20 a9 bf 53 01 1c 0c a6 a0 b2 3f
       -0.04907756452277232 0.072763803440471
000710 fb 3b 99 7d 0f 95 8b 3f d8 d3 86 92 8e 3f b4 3f
       0.013467904110397546 0.07909480168639449
000720 5e d3 b1 d7 e5 63 94 3f 10 34 81 be 1c bb 72 3f
       0.019912329950290235 0.00457297542750458
000730 8e 14 0c c3 f4 e9 af 3f c2 ab f8 5a d1 df b1 3f
       0.062331818398925085 0.06982143851261838
000740 f8 d4 e1 00 6e 17 8a 3f 7a 5a 11 b1 69 21 ac bf
       0.012740001108094465 -0.054942419876785345
000750 00 00 00 40 47 bc b3 bf b6 5c 58 e2 40 17 af bf
       -0.07709164917469025 -0.06072428477289675
000760 4f b4 2f c1 08 4d a8 3f 85 83 cb 19 4c ed b2 bf
       0.04746272428733588 -0.0739333689666762
000770 f8 60 a4 85 ce b2 b3 3f 40 79 82 94 b4 7b b0 3f
       0.07694712412592597 0.06438759446834741
000780 da e4 bd 03 1c d4 92 bf 10 45 00 6a 8f 49 b4 bf
       -0.018387258270625796 -0.07924743974605897
000790 66 71 ad ca 75 73 aa 3f 86 b1 50 2f af de 9b 3f
       0.05166214083758085 0.027216660750285303
0007a0 5c 2d 6b 07 f9 24 a3 bf 00 00 00 80 84 8c 9c bf
       -0.03739145484504533 -0.027879782021045685
0007b0 0c d2 e5 c9 1b d1 ae bf e9 0c f4 67 d3 b2 97 3f
       -0.06018912162372567 0.02314310380917287
0007c0 00 8d 92 8e 82 0a a4 bf 6c 98 fc 52 b3 cd 8a 3f
       -0.03914268484484218 0.013087655038884281
0007d0 00 00 00 40 70 f5 a2 bf 9e 32 e7 32 5a 61 a9 bf
       -0.03702879697084427 -0.049570864404448786
0007e0 87 46 ae 43 d6 89 9f 3f 3e a5 bf 91 1a 6e a3 bf
       0.03079924381342505 -0.03794940022619152
0007f0 20 f2 da b4 77 c4 9e 3f 00 00 00 e0 03 df a1 bf
       0.030046339429406044 -0.034904595464468

linear2.bias f8 [64]
000000 80 62 30 a8 6f 08 a2 bf 28 b3 8f 3c 58 ae 76 3f
       -0.035220612793811945 0.005537361787884255
000010 4f 58 f9 3f 44 f6 96 3f 1a d4 36 e8 1e f0 93 bf
       0.022423807530082048 -0.01947067539522971
000020 fa e6 96 b9 6e 21 b2 bf 78 23 5f ee 76 f6 b3 bf
       -0.07082263976090167 -0.07797950095767969
000030 48 f3 80 ff b1 bc 99 3f c8 5e f8 46 82 9c ac bf
       0.02513387796374225 -0.05588156811080364
000040 ed da d0 61 30 d5 b0 bf 8e 4f c7 18 83 eb a3 bf
       -0.06575300586778683 -0.0389061897036803
000050 04 57 89 a8 22 95 a4 3f 45 21 a4 66 c6 71 b4 bf
       0.040200312684346456 -0.07986106878172901
000060 a6 bd b6 a5 5c 9d a5 bf c6 84 2f da 9b ec a0 bf
       -0.04221620104669492 -0.03305518186949423
000070 10 8c e9 45 34 52 a8 bf 68 82 fa 42 8e f7 b3 bf
       -0.0475021682111888 -0.07799615035265506
000080 3c 29 09 fb d8 63 a6 3f ab b8 10 ba f0 c2 7f 3f
       0.043730526584641244 0.007754268969661175
000090 d0 e1 12 27 e4 5e b4 bf 73 f3 3f b5 a8 1f 88 bf
       -0.07957292512845204 -0.011779134780221167
0000a0 90 9e e3 23 15 c9 9a bf d0 f5 7f 52 ac 31 a9 3f
       -0.026157694163798484 0.04920710093572789
0000b0 39 7b 05 80 ce f5 95 3f 0a 53 7a 30 da be 91 bf
       0.021445490421110967 -0.017329606255390075
0000c0 8f f4 9b 29 27 e2 a3 3f 8c 6f 45 28 44 f2 b4 bf
       0.03883478529858408 -0.0818216894453469
0000d0 76 90 48 64 0c 0c 9b bf 80 ea 8b eb 94 7a b5 3f
       -0.02641314851838713 0.08390169859550589
0000e0 30 cd 6e a2 80 89 b2 bf b4 26 a3 5a 07 68 89 bf
       -0.07241062131543141 -0.012405450299769562
0000f0 95 74 ab ab 09 d9 a2 bf 48 94 cc 1d b0 55 8a bf
       -0.03681211681917166 -0.01285874930324317
000100 94 fe 4f 1c 8b b1 86 3f a0 46 c4 04 19 9d b3 3f
       0.011080824662712353 0.07661587110876633
000110 34 9c dd ca ad bd 7e bf 3c f4 9d 2c b9 ff af 3f
       -0.007505110623106371 0.062497889229213816
000120 9c f1 10 4c 70 8d 99 3f ca 9e e7 b3 bc 1f b5 bf
       0.024953608172141636 -0.0825155200214979
000130 8a 54 ef 02 fc a7 a2 3f f2 96 68 41 59 94 30 bf
       0.03643786941362588 -0.00025298289384277563
000140 32 c3 d8 f1 c0 84 89 3f 2e 44 6b c3 78 a8 94 3f
       0.01246023881967204 0.02017391865485168
000150 e0 d9 74 1b 58 90 ac 3f 18 a2 ab 63 29 50 a2 bf
       0.05578875861322152 -0.03576783506088449
000160 69 0b 07 ca c2 12 a5 3f 6a 71 c6 d5 e8 dc b1 3f
       0.04115875927120422 0.06977706164474787
000170 0a 8b 71 14 e0 7d 8e 3f 38 23 38 f6 37 85 b3 3f
       0.014888525604140241 0.07625150452817031
000180 d3 fd bc 05 34 81 b4 bf 20 70 99 a1 5e ad af bf
       -0.08009648456663081 -0.061869580484853026
000190 82 44 47 a2 a7 22 b3 3f ca 59 73 49 9a 56 98 3f
       0.07474754058718427 0.02376786301905457
0001a0 da f3 6d 9d 76 71 a3 bf 18 93 f5 5c 79 27 aa bf
       -0.037975031583279154 -0.05108241328961166
0001b0 f2 1c b2 56 cf 32 a9 bf b8 89 fe 36 66 f3 98 3f
       -0.049215773900010876 0.02436599455507757
0001c0 6f 3f 49 ac 62 3c 9e 3f 42 98 6c 6e 59 ac 9b bf
       0.029527227178106793 -0.027024648060568042
0001d0 bc 8f ae 57 96 7d ac bf 0c c9 59 92 7c a2 af 3f
       -0.055645654872278766 0.061786549439505206
0001e0 96 27 f3 85 d6 03 7f 3f dd 80 14 d9 2c d5 a6 bf
       0.007572019559299556 -0.04459514760879
0001f0 e6 ff 24 9d 74 38 b3 3f 1a de 6d c0 19 96 af 3f
       0.07508019291435594 0.061692051639450976

linear3.weight f8 [3, 64]
000000 a6 d3 fe 10 ff f7 ac bf c5 31 31 6a 51 6a b0 3f
       -0.05657956201995455 0.06412228434164209
000010 f8 9e b9 e2 f6 b5 be 3f 48 f4 d7 a8 c6 7b 91 bf
       0.119964056351474 -0.017073730521577596
000020 aa 78 9d a4 6f c2 a9 bf 64 9e c2 b2 d5 c3 a8 bf
       -0.05031155476056999 -0.04836910063869196
000030 9e 90 36 f3 32 f3 aa 3f da 68 14 36 7c 7b 99 3f
       0.05263671130094959 0.024885121155514202
000040 07 64 6d d7 4e 19 ca bf 16 e2 49 a6 d8 5e c9 3f
       -0.20389733809386731 0.19820697898445933
000050 6f a3 ab 48 98 4c b0 3f 96 2f 4e 2d 66 4a bf 3f
       0.06366874479466643 0.1222289906128807
000060 bc 0b 15 55 62 85 77 bf 6c 07 e0 b5 48 9b c1 3f
       -0.005742439375640392 0.13755139237042202
000070 50 c5 03 50 41 a5 c1 bf 80 3c 9b 34 90 38 b8 3f
       -0.13785568625420774 0.09461308750472774
000080 5e 34 07 cf f0 b1 97 3f cc c6 e8 d0 ce dc c4 bf
       0.023139727245326085 -0.1629885215821133
000090 34 8d ff 59 f9 19 9b 3f 61 41 34 62 aa fa bc bf
       0.026466270559365415 -0.11319985292016589
0000a0 6e ac 30 d3 1b 7f ba 3f 64 fc 4a 77 81 f4 b7 3f
       0.10350202470788059 0.0935746113054719
0000b0 80 b2 3c 63 d8 7c af bf a4 4f 35 25 41 ab be 3f
       -0.061499368776229524 0.11980063589481788
0000c0 5c bd 60 7a 26 31 b9 bf dc 75 09 c1 07 c6 a9 bf
       -0.09840622413388672 -0.05033897620590341
0000d0 d6 2b b0 89 da d4 a0 bf 40 b0 ce 5a c8 7c ad bf
       -0.03287394457591801 -0.05759264095772254
0000e0 ce e1 34 7f ea 38 ac bf ec 42 84 f1 5c 6e bc 3f
       -0.055121734645982565 0.11105900665667051
0000f0 5c 21 9f f2 da 0a c3 bf 50 5f ba bb 1b 41 6e 3f
       -0.14876877638585995 0.003693155447603326
000100 40 ee 0b 80 c2 06 c1 bf 7b fb 90 a2 1a fc b9 3f
       -0.13301879169726938 0.10150305241493911
000110 e7 fc e1 ec 96 f3 b9 3f a8 4a 9e 0e 33 1a af 3f
       0.10137313159247051 0.060746760878051476
000120 7d 84 9e 0d f2 bc b0 3f 63 f3 b3 72 96 f7 a0 3f
       0.06538307983875487 0.03313894415075571
000130 6f 06 92 0e ae 35 b0 bf 84 08 10 58 4a fe b7 bf
       -0.06331909042094151 -0.09372391366926719
000140 dc a8 dc 13 47 91 b8 3f f6 9f 04 7e 89 17 b5 bf
       0.09596676096831253 -0.0823903973256391
000150 05 48 48 fc c0 2e ba 3f 40 56 52 d7 1c 75 b2 bf
       0.10227590712773356 -0.07209949738383958
000160 1e 93 57 4a 68 8e ab 3f 7a 15 97 28 b8 43 c1 bf
       0.05382085711952399 -0.13487913114492384
000170 b2 8f 4e 1b d0 44 8b 3f ce f9 07 7e 2a 4e c0 bf
       0.01331484397253022 -0.12738543657174123
000180 9a 3e 35 98 97 ae bc bf 0b 75 34 75 0a 75 a4 3f
       -0.11203906503691954 0.03995545082782755
000190 9c a5 e4 3c 84 45 bd 3f 9c 44 2b 6a f5 ee 90 bf
       0.11434198843621463 -0.016536554913561305
0001a0 ec 18 02 41 de 3b 61 bf 96 1f dd 50 22 48 b7 3f
       -0.002103742685053969 0.0909444281979844
0001b0 d3 f5 c2 29 01 5a c2 3f bd b1 ad b7 17 8c bc 3f
       0.14337172068728296 0.11151264414156166
0001c0 76 31 57 c8 4c 59 ba bf 48 3b af 29 02 e0 b6 bf
       -0.10292510882499592 -0.08935559766471812
0001d0 c3 d5 a3 a3 01 dc a3 3f 8e f1 84 21 f6 9d 70 3f
       0.03878789064939838 0.004056893776859373
0001e0 52 0c 2e ce 9f 59 c3 3f 11 0e b7 91 a8 08 77 3f
       0.1511726147401498 0.005623491738734569
0001f0 e8 eb 91 52 cd 18 bf 3f 58 fa 8d cd 8f ed b5 3f
       0.12147219911450657 0.08565615433142548
000200 09 b6 02 e3 89 bc b2 3f 84 0f 0f a2 e8 be b7 3f
       0.07318937103510605 0.0927567859317247
000210 3e e2 bc 33 58 07 b4 3f 4b 45 b7 71 4c cd ba bf
       0.07823706877832934 -0.10469510818736187
000220 b0 cf 93 38 0e aa 61 bf 81 34 ac 56 e8 88 a6 3f
       -0.002156284118081296 0.04401327188507143
000230 21 53 b4 3d 03 17 93 3f 82 ba 27 8e c0 c3 91 3f
       0.018642473832261367 0.01734829776426717
000240 fd 94 4b 3c e8 b5 92 3f d6 5a ff e1 4b 0c c2 3f
       0.018272045784120106 0.14100025687249368
000250 c8 a0 cc a5 8b 4a b4 bf 74 68 fb d0 a0 31 b1 3f
       -0.07926247403941311 0.0671635160646547
000260 f6 66 ea 0a fe dd bb bf 62 bd 62 88 05 2e be 3f
       -0.10885608450407944 0.11788973407486972
000270 e4 96 05 59 fa 1e ab bf 4c c1 3b 9e 0d d9 a0 bf
       -0.05297071778003984 -0.0329059844642666
000280 aa 72 f7 f2 7f 9d 61 3f 42 52 19 c4 a0 b3 74 3f
       0.002150297070086478 0.005054119102699208
000290 de 21 7e 57 2c c6 a3 bf ec ac 06 8c f6 56 b6 3f
       -0.038621316604863884 0.08726445120435117
0002a0 d8 08 dd 22 1d c0 b4 3f a8 17 04 ae 81 c4 4e 3f
       0.08105642415197012 0.0009389527513412503
0002b0 79 73 40 82 ea 86 c2 3f 06 53 84 0f 1e 03 b1 3f
       0.14474231109570804 0.06645381811933868
0002c0 86 c3 6c 07 ff 40 b8 3f fa 19 d4 89 d1 54 89 bf
       0.0947417634131523 -0.012368809717838925
0002d0 0c 63 99 a8 69 63 b5 3f 9a 86 0c e3 6a 9f bc bf
       0.08354816785994162 -0.11180751841723194
0002e0 22 6b 77 86 04 d9 b6 bf 8e 1b c5 c7 21 26 a1 3f
       -0.08924892695305833 0.03349404872510951
0002f0 9b 07 84 d4 de 7c 81 3f 0e 13 ec 73 2c f9 a9 bf
       0.008538952694383364 -0.05072916903558254
000300 ca 40 c8 f0 6b fb ab bf 8a 07 fe 13 98 fb b5 3f
       -0.05465256990658103 0.08587027061551403
000310 02 6f cd 52 25 58 99 3f a8 22 57 3e ec ae b2 bf
       0.024750312022077565 -0.07298161050779106
000320 6e 7d c5 96 3d bf a7 bf 62 f0 37 b3 69 4b ba 3f
       -0.04638092484924071 0.10271320939495035
000330 96 55 45 25 75 03 bd 3f 50 20 82 b9 1c 7f b2 bf
       0.11333400878841923 -0.0722520783330094
000340 47 44 b5 f6 83 1a 97 3f 12 f5 26 25 7d e2 b7 bf
       0.022562086041322506 -0.0932996955588872
000350 8e 15 12 a5 b8 7e b8 3f 26 87 98 45 0a 75 b6 3f
       0.09568361311001736 0.087723390570798
000360 74 08 bd b9 c5 4f 99 bf 58 f9 89 ef d4 41 af 3f
       -0.024718369924137965 0.06104913162288267
000370 b2 bc 62 a5 58 ac c1 3f d9 1c 62 93 65 bb b7 3f
       0.1380720908686946 0.0927031979391474
000380 d4 e3 00 e0 32 f9 74 bf b7 c8 bd 03 62 8b c3 bf
       -0.0051204669289796785 -0.15269112761195
000390 8c 82 92 ef d0 74 81 bf 1c f5 38 b9 8f 6a be bf
       -0.008523590384642142 -0.11881349823029946
0003a0 06 19 12 ad 26 23 9f 3f 90 54 8e 14 9e 4c b2 3f
       0.03040752822246253 0.07148159028868606
0003b0 b4 f0 3b 02 76 05 9c 3f 95 4e 8d 82 fb 38 a8 3f
       0.027364581953393155 0.047309741674920115
0003c0 8a 15 35 13 3c 6c b7 bf 10 6a f7 ea 7d 97 97 bf
       -0.0914952799694985 -0.02303883310910676
0003d0 2e 6f ab 91 50 7e 9e bf 38 5d 94 f5 c0 cb b8 3f
       -0.029778727427454736 0.09685903544992847
0003e0 6b 06 da b2 08 90 b3 3f 58 ea e2 7f 44 24 b4 bf
       0.07641653410430542 -0.07867839929796483
0003f0 73 9d b4 f2 11 e2 71 3f 44 21 d6 f5 0f 3a bf bf
       0.004365987882273148 -0.12197971107355438
000400 25 4c 83 5a 32 40 b3 bf 7f 7d 7f e7 a7 12 a0 3f
       -0.07519831380641102 0.03139233303931643
000410 62 81 76 56 ab c8 b6 bf 40 7b 25 48 58 45 a3 bf
       -0.08899947033797198 -0.03763843422597413
000420 c6 5a 13 04 c4 61 b6 3f f4 95 e9 a3 23 c9 a5 bf
       0.08742928599836394 -0.04255019546398478
000430 e2 a2 f7 f6 52 37 bc 3f 66 ee e1 9d f9 12 af 3f
       0.11021917848087129 0.0606916432597842
000440 4c 8b 1f 7f 7a 17 91 3f ea 3c 49 48 c4 06 c0 bf
       0.016691125878320265 -0.1252065041503337
000450 de fa 41 ba 7d 7b aa 3f 0a 98 49 fe 30 b7 ba bf
       0.05172341250089628 -0.10435777862730347
000460 3e 21 11 3f e7 7d 95 bf c2 cf 74 2f 9b c7 94 3f
       -0.02098809549741642 0.020292687198164357
000470 f8 2a 45 86 e8 9a c0 3f b6 b7 fa ca d3 6f a2 bf
       0.12972742611085386 -0.03600942471290074
000480 6b dd 99 32 ba f1 97 3f 31 c3 7f ac 6e 0f 84 3f
       0.023383054102365557 0.009795059813741598
000490 0e 5b 7e 2a 45 ab a0 3f ee 28 5b ac 8b 64 ad 3f
       0.03255668777199193 0.05740772704082696
0004a0 d7 d4 36 d8 0d 4f 97 bf 9f 04 a7 7a 03 a6 b9 bf
       -0.02276250488440187 -0.10018941635554988
0004b0 24 b9 8e f6 4c 14 c1 3f bc a2 b9 b4 f4 08 b0 bf
       0.13343202628079454 -0.06263665592417572
0004c0 bc f9 f3 32 69 1d bc 3f 2e 9f df 88 91 42 c7 3f
       0.10982377523394055 0.1817190092399356
0004d0 f1 b2 3e 9c c1 22 bb 3f ce de 73 10 95 49 b9 3f
       0.10599908890317146 0.09877902652430778
0004e0 07 dc 11 06 af 37 bc 3f 3a 2f 99 6a c6 a8 b6 3f
       0.11022466562450016 0.08851280310153423
0004f0 60 07 b7 2a 8c d0 97 3f 30 6d 30 38 85 42 a7 3f
       0.02325648318015483 0.045429385289219915
000500 17 03 84 47 45 23 b5 bf b7 c0 a3 ad c9 1b d0 bf
       -0.08256943698871698 -0.251696033067684
000510 5d 62 55 06 c2 da 93 bf 64 fd 07 77 d0 7a b6 3f
       -0.01938918269783795 0.08781149774585156
000520 6b 74 88 7b 4c 0e a7 3f 1a ea 91 6c 40 31 bb bf
       0.04503096588107599 -0.10622027063974607
000530 de b0 4c 29 48 e3 bf 3f d4 28 92 51 84 c5 bb 3f
       0.12456179626741767 0.10848261825063626
000540 03 18 d8 b9 e5 a6 94 3f d0 29 57 46 0e 1a ab 3f
       0.02016791292955845 0.05293316467903575
000550 0a 45 4b bd 1b da a5 3f 20 cf b9 91 bc a8 b5 3f
       0.04267965970724148 0.08460596616515348
000560 66 78 43 89 9d f6 b8 3f 68 2e 69 19 e4 d4 b5 3f
       0.0975130519977668 0.08527970905668669
000570 58 4b 2f 8e 2f 7d b8 bf f6 d6 ad 28 32 e9 b8 3f
       -0.09566018315608227 0.0973082875551333
000580 35 b3 ca 79 ed 29 b2 bf eb 56 e1 cc 26 41 b4 3f
       -0.07095226500923675 0.07911913396796037
000590 a3 2a 79 4f 8b e5 c4 bf d6 e6 f0 b0 e0 c9 9c bf
       -0.16325513248951493 -0.028113852309821073
0005a0 80 75 3c f9 55 12 bc bf c0 8b 94 9a 91 02 b3 3f
       -0.1096547826277483 0.07425794624263826
0005b0 f6 73 0a aa 94 fe c3 bf f4 58 f4 f8 8e 91 be bf
       -0.1562066870000362 -0.11940854623785296
0005c0 f6 46 8c 5b 72 56 b8 3f 2c 51 97 dc 30 ee 81 bf
       0.09506907210404933 -0.008755094272523488
0005d0 88 87 b3 76 81 44 c5 bf 48 ac ac 17 a0 d0 bb bf
       -0.16615312858544606 -0.10865212038031402
0005e0 7e 0f 9b c7 b4 8e c9 bf 12 f3 8e ed 57 06 a3 3f
       -0.19966754671451875 0.037157771824672406
0005f0 87 6b 7a e3 63 6f a8 bf b2 37 41 42 7f d2 87 3f
       -0.04772483970483337 0.011631960114893623

linear3.bias f8 [3]
000000 d5 88 e5 59 38 a5 c1 bf 19 15 0d 5e 44 48 93 bf
       -0.13785461797221524 -0.018830364456580904
000010 ca 56 4e 8b b4 4a b9 3f
       0.09879616166139296
