runs/testrun-cnn-lite-fl-5r-20bs-20ep/0/LocalModel-0-Round4.pt (torch, 144143 bytes, 8 tensors)

conv1.weight f8 [6, 1, 5]
00000000: a551 af22 1c44 98bf 9e7c 4f2a 2e8e cebf
00000010: 1cec 715e 6a00 d0bf b3af 3e8c 1e55 b0bf
00000020: 6169 f5c5 2363 ce3f 1aec 76f8 73bb dcbf
00000030: 18ba 77cc c0a9 a13f f60c 74b8 9072 cf3f
00000040: f5d1 5a49 f9ea dabf c5aa 49a2 23eb c63f
00000050: 0098 52b1 4b9e d43f 2cf1 2954 175b d13f
00000060: 279e 296f 0de3 e2bf 627f fb02 4229 d6bf
00000070: 7f68 f513 dd47 d0bf 316c f185 bffd d53f
00000080: 0296 f630 0346 dbbf a7d7 7a48 5a20 cbbf
00000090: d0a7 b481 28bf 8ebf ef58 d6d3 07e6 c5bf
000000a0: 000c 4191 b5e4 c43f cc84 28f3 3179 663f
000000b0: 3e99 2d7b 5301 d63f ba00 bc9f 7bf6 dbbf
000000c0: 4ad7 37bd 02ef ddbf a6f8 143b f6a7 d4bf
000000d0: 464b 0ff6 7b0a aebf 8c41 c8e3 1187 cc3f
000000e0: 2db3 3654 3a4d d6bf 1b13 ef60 da87 bb3f
-0.023697318665499307 -0.23871399942342902 -0.2500253603281537 -0.06379881786295875 0.23740050474118404 -0.4489412237559819 0.034498238524850844 0.24568375593671704
-0.420591661105646 0.17905087875563744 0.32216160122550264 0.27118476122975 -0.5902163668769774 -0.34626817981005875 -0.25438620518765015 0.3436125572240512
-0.4261482217937954 -0.21192482508712127 -0.015013042887023348 -0.17108247607820412 0.16322965233311493 0.0027433372099642025 0.34383093861687886 -0.4369191226869692
-0.4677130554040231 -0.32275157708853397 -0.05867373827609028 0.2228720056741732 -0.34846361373893125 0.10754170290517744

conv1.bias f8 [6]
00000000: 935c 9ddb 78d7 e53f 8ca6 597c 66bb 7bbf
00000010: 5916 870d 956a d03f 701e 494a c5ab d43f
00000020: 744a d603 9c4b c13f acb6 9039 a40b b23f
0.6825527467107285 -0.006770515761311945 0.2565052635294243 0.3229840493627085 0.13511991679532154 0.07049013524439357

conv2.weight f8 [8, 6, 3]
00000000: 0000 00c0 dce9 bb3f 0000 00c0 2f01 b8bf
00000010: 0000 00e0 e57d c93f 0000 0080 def9 a03f
00000020: 0000 0000 5639 8cbf 0000 0080 f647 babf
00000030: 0000 0000 bd9f 95bf 0000 00c0 09e7 b4bf
00000040: 0000 0060 5834 c43f 0000 0020 ca37 cb3f
00000050: 0000 0020 09a2 c63f 0000 0000 9f7f 99bf
00000060: 0000 0060 ac14 c73f 0000 0080 cf80 b1bf
00000070: 0000 00e0 6a1b cdbf 0000 00a0 d409 c53f
00000080: 0000 0040 0f32 bbbf 0000 00e0 3fae cc3f
00000090: 0000 00e0 91cf c7bf 0000 00a0 aa28 c2bf
000000a0: 0000 00c0 63b7 b03f 0000 0080 8670 a83f
000000b0: 0000 0000 6d73 9abf 0000 0000 a3e1 9d3f
000000c0: 0000 00c0 72bb c2bf 0000 0080 b281 a03f
000000d0: 0000 0000 6e05 99bf 0000 00c0 cba6 b13f
000000e0: 0000 0000 a3b2 afbf 0000 0000 5d94 903f
000000f0: 0000 0000 0e65 8abf 0000 0000 9050 9ebf
00000100: 0000 0000 653c b8bf 0000 0040 6da0 c2bf
00000110: 0000 00a0 780f c2bf 0000 0040 54a1 c8bf
00000120: 0000 0080 131a aebf 0000 0080 93dc b2bf
00000130: 0000 0000 5a81 c2bf 0000 0080 145d c6bf
00000140: 0000 0060 324a c5bf 0000 0020 f198 cd3f
00000150: 0000 0080 a08e ab3f 0000 0040 6c3f b83f
00000160: 0000 0040 4e22 b53f 0000 00a0 b0b1 c03f
00000170: 0000 0020 17b5 cbbf 0000 0040 0f43 c3bf
00000180: 0000 0000 3225 c5bf 0000 00c0 b54c bf3f
00000190: 0000 0080 cdae cbbf 0000 0060 647c c5bf
000001a0: 0000 0080 c0ca ab3f 0000 0060 c6a1 cb3f
000001b0: 0000 00e0 4f62 c63f 0000 0060 e6f3 cb3f
000001c0: 0000 0040 1ca0 b73f 0000 0080 5cf3 c3bf
000001d0: 0000 0080 2960 a6bf 0000 0000 90c7 53bf
000001e0: 0000 0060 0a48 c53f 0000 0080 3008 a1bf
000001f0: 0000 0000 a4c8 c8bf 0000 0020 2c41 c83f
00000200: 0000 0080 dc42 ab3f 0000 0000 20d1 84bf
00000210: 0000 00e0 b05e c5bf 0000 00c0 199b bd3f
00000220: 0000 0040 00a1 babf 0000 0000 ed04 a9bf
00000230: 0000 00e0 2335 c5bf 0000 0080 4801 adbf
00000240: 0000 00e0 0c26 c43f 0000 0000 5faa afbf
00000250: 0000 0080 4063 adbf 0000 00c0 93d8 c1bf
00000260: 0000 0020 f6ab c43f 0000 00c0 1823 b7bf
00000270: 0000 00a0 632a c33f 0000 0080 2f8f c4bf
00000280: 0000 00c0 c1c2 bbbf 0000 0000 7b5e 9d3f
00000290: 0000 0040 8d06 b23f 0000 0080 d493 c7bf
000002a0: 0000 00a0 dd2f c73f 0000 0080 9c3c a03f
000002b0: 0000 00e0 4420 c13f 0000 00e0 6292 cc3f
000002c0: 0000 0020 c268 c03f 0000 00a0 e625 cc3f
000002d0: 0000 00c0 a55e b63f 0000 0060 cc73 cc3f
000002e0: 0000 0080 93e2 a0bf 0000 0020 75a4 c7bf
000002f0: 0000 0060 f612 c23f 0000 00c0 670e b2bf
00000300: 0000 00c0 c77a babf 0000 0080 6543 c4bf
00000310: 0000 0000 d4e6 babf 0000 0040 e65d c9bf
00000320: 0000 00e0 add2 c93f 0000 0000 8423 74bf
00000330: 0000 0060 c880 c13f 0000 00e0 9705 c33f
00000340: 0000 0040 d9c8 c8bf 0000 0020 1409 c73f
00000350: 0000 0080 2953 c5bf 0000 00e0 6cee cd3f
00000360: 0000 0060 d639 ca3f 0000 0000 0926 983f
00000370: 0000 0000 fca4 8fbf 0000 0040 c1d4 bc3f
00000380: 0000 0020 8ca2 c43f 0000 0040 8902 b33f
00000390: 0000 0000 1d18 a0bf 0000 00c0 2357 b23f
000003a0: 0000 0000 58d9 623f 0000 00e0 bc95 c3bf
000003b0: 0000 0020 9e42 c93f 0000 00c0 fca1 b7bf
000003c0: 0000 00a0 f188 c33f 0000 0020 5b65 cb3f
000003d0: 0000 00e0 840f c33f 0000 00e0 59dd c13f
000003e0: 0000 0000 cc9c bfbf 0000 0040 43c8 c9bf
000003f0: 0000 00c0 d6ec bd3f 0000 00c0 7a0c b6bf
00000400: 0000 00c0 4278 bb3f 0000 0040 8041 b13f
00000410: 0000 00a0 719a c13f 0000 00a0 f30a ca3f
00000420: 0000 00c0 34d1 b43f 0000 0020 53a5 cb3f
00000430: 0000 0000 a27d c1bf 0000 00e0 93f5 c3bf
00000440: 0000 00a0 93c0 ccbf 0000 0080 ae0f c0bf
00000450: 0000 0040 f986 c4bf 0000 0000 5967 acbf
00000460: 0000 0020 b6b8 c33f 0000 0000 c451 89bf
00000470: 0000 00e0 b5d5 c43f 0000 00e0 d33d c93f
0.10903720557689667 -0.09376810491085052 0.19915460050106049 0.03315635025501251 -0.013781234622001648 -0.10266056656837463 -0.021117165684700012 -0.08165036141872406
0.15784744918346405 0.21264006197452545 0.17681993544101715 -0.024900898337364197 0.18031840026378632 -0.0683717429637909 -0.22739921510219574 0.16436250507831573
-0.10623259842395782 0.22406767308712006 -0.18602202832698822 -0.1418660432100296 0.06529830396175385 0.047733500599861145 -0.025830939412117004 0.029181048274040222
-0.14634546637535095 0.032239511609077454 -0.024434775114059448 0.06895135343074799 -0.061909765005111694 0.016190961003303528 -0.01288805902004242 -0.029604196548461914
-0.09467154741287231 -0.14552083611488342 -0.14109714329242706 -0.19242337346076965 -0.05879269540309906 -0.07367822527885437 -0.14457249641418457 -0.1747155785560608
-0.16632680594921112 0.23122991621494293 0.053822532296180725 0.09471775591373444 0.08255471289157867 0.1304226666688919 -0.21646393835544586 -0.15048399567604065
-0.16519761085510254 0.12226425111293793 -0.21627205610275269 -0.16785864531993866 0.05428124964237213 0.21587447822093964 0.17487524449825287 0.21838073432445526
0.0922868400812149 -0.15586429834365845 -0.04370240867137909 -0.0012072473764419556 0.1662610024213791 -0.0332656055688858 -0.19362306594848633 0.18948890268802643
0.05324448645114899 -0.010164499282836914 -0.1669522374868393 0.11564789712429047 -0.1040191799402237 -0.048865705728530884 -0.16568420827388763 -0.05665041506290436
0.15741120278835297 -0.06184670329093933 -0.057397857308387756 -0.13942191004753113 0.16149784624576569 -0.09037928283214569 0.1497311145067215 -0.16061967611312866
-0.10844050347805023 0.028680726885795593 0.07041247189044952 -0.18419891595840454 0.1811482459306717 0.031712427735328674 0.1337972730398178 0.22321735322475433
0.12819696962833405 0.21990664303302765 0.08738170564174652 0.22228388488292694 -0.032978639006614685 -0.18470634520053864 0.14120368659496307 -0.07053230702877045
-0.10343597829341888 -0.1583067774772644 -0.10508465766906738 -0.19817808270454407 0.20174191892147064 -0.004916682839393616 0.13674263656139374 0.14860819280147552
-0.1936294138431549 0.1799645572900772 -0.16660040616989136 0.23383866250514984 0.20489005744457245 0.023582592606544495 -0.015451401472091675 0.11262138187885284
0.1612105518579483 0.07425744831562042 -0.03143396973609924 0.07164214551448822 0.0023009032011032104 -0.1530071347951889 0.19734551012516022 -0.09231548011302948
0.1526166945695877 0.21403063833713531 0.14891110360622406 0.13956759870052338 -0.12348628044128418 -0.2014240324497223 0.11689512431621552 -0.08612792193889618
0.10730378329753876 0.06740571558475494 0.1375257521867752 0.2034592181444168 0.0813172310590744 0.2159828096628189 -0.13664650917053223 -0.15593193471431732
-0.22462697327136993 -0.1254785656929016 -0.16036906838417053 -0.055475980043411255 0.15407444536685944 -0.01236298680305481 0.16277192533016205 0.19719932973384857

conv2.bias f8 [8]
00000000: 0000 0040 aede bebf 0000 00e0 28cc c83f
00000010: 0000 0000 37e9 93bf 0000 0080 e91f ac3f
00000020: 0000 0000 3001 723f 0000 00c0 1aa3 bcbf
00000030: 0000 0000 fd86 923f 0000 0000 20ca 59bf
-0.12058533728122711 0.1937304586172104 -0.019444331526756287 0.05493097007274628 0.004395663738250732 -0.11186377704143524 0.018093064427375793 -0.0015740692615509033

fc1.weight f8 [64, 270]
00000000: 1133 825c 3a90 6dbf b1e8 bd5a 07d5 6ebf
00000010: 78c8 b35b b88f b3bf 4696 f550 762c afbf
00000020: 1a69 1e5f ebbd 85bf 144a f279 e733 573f
00000030: a34a 5823 cda6 b1bf 729a cabc 66df 88bf
00000040: b24d 8810 07fa aebf de63 6b01 419e b9bf
00000050: 9b5f eb0b 465c b6bf 9ad3 f5fc d098 a3bf
00000060: 92c9 44a3 a41d b3bf ea53 bc18 d787 a83f
00000070: 59da b968 dd13 9fbf bde3 dfa2 c1d4 6cbf
00000080: 0000 0080 c56e 97bf 0000 0040 8243 a13f
00000090: 0000 0000 5c7b aabf 897f 030f 36c6 a6bf
000000a0: c0a4 564f ee43 acbf d8c1 f7e5 9616 b0bf
000000b0: 9e8b c18e e10e 8bbf 773f 7069 5754 753f
000000c0: 7302 e8de 5a86 8bbf ce3f b9c0 62b1 99bf
000000d0: 8262 3087 df61 a1bf f694 6d39 897a a6bf
000000e0: 1456 1459 9d0a adbf 97a9 b392 713e aebf
000000f0: 63bf 0653 98ef a13f 3088 94d5 78e8 4c3f
00000100: 2822 5791 25dc a33f 7be9 8f78 a255 92bf
00000110: 7a51 3fc3 caa5 a0bf cefc 702c f4d1 90bf
00000120: 9a17 440e db43 aabf 6f84 12ff 5f03 79bf
00000130: dd59 a1fa 2d7f 963f f0cd 3d95 4b01 97bf
00000140: 0000 0080 4e82 9cbf b295 e390 1788 b3bf
00000150: 62e0 c01c cff5 53bf fac4 275d a577 93bf
00000160: e623 44f6 51bf 91bf 712c a390 b39b b6bf
00000170: a6c5 3a28 ba18 aebf 2a28 bb0f 41c5 913f
00000180: aa7a 4e81 d909 b0bf 30b0 a57e 4262 963f
00000190: 036a f9c3 4f8a 94bf 54b7 d2f0 c082 a1bf
000001a0: 3af3 3ae4 7c9d 913f 021c 83bc 3625 a8bf
000001b0: 20b0 8137 9d0f 3e3f 84f6 46ee a56e 963f
000001c0: 8ac4 12c3 45ea 8f3f f5bd 7d74 fd6d 893f
000001d0: e325 5c31 bc17 a0bf 4a18 6642 2469 aabf
000001e0: 0830 ed74 6f51 a6bf 2563 94e6 48a1 8fbf
000001f0: 0000 0000 a008 4e3f 0000 0000 e80d 97bf
00000200: 0000 0000 464f 753f 7767 2f78 8530 703f
00000210: 0ced 54fd 6c21 b4bf 508f 9e80 f753 a03f
00000220: 708f 1a34 9013 7a3f f882 763c 1640 9c3f
00000230: 8b35 064e 735c 8c3f b889 f6f4 2653 9a3f
00000240: 1627 c1f6 0d14 aabf 5fd2 d22f cbc7 a03f
00000250: dc1a b2af f3a9 913f 6949 15af a17a 7ebf
00000260: 6672 a0cd 7f2a a3bf d249 2f98 c53d abbf
00000270: c614 5d7b 9c1b 9c3f d853 f97a d454 a53f
00000280: 2214 e03b 2965 a73f 783c 03b0 ab50 943f
00000290: 72dd 535d 862c b4bf 1cc9 f9d7 d8cf 49bf
000002a0: fec4 f756 f609 a33f 0000 0000 2021 873f
000002b0: cf77 6b72 2e4d 823f ca08 ab42 2ae8 9b3f
000002c0: 4628 092a 0c36 acbf aaff b9a7 da63 a6bf
000002d0: 4e8b e88e 4273 a6bf 3d2f 6d5b 7dbf a13f
000002e0: 80a8 5fec aefc 46bf 92d8 7613 1809 943f
000002f0: 5245 1e1b c2cc a8bf 986e 1a93 2b5a a23f
00000300: 0a01 d5e3 9456 9dbf 9ff5 2f4c 3a23 9bbf
00000310: d6fc e68a 08e8 aa3f 17b1 809c 5fb4 a7bf
00000320: 8427 f2ed 1b46 983f 70f9 5364 26fe a3bf
00000330: 2c70 2e35 9fd0 9a3f 0000 0040 ce29 adbf
00000340: d75d c178 f9e9 b2bf 0000 0000 c773 a7bf
00000350: 0000 0080 0ff0 933f 34f9 dd04 9fda afbf
00000360: 58a8 ccf7 ba5b aabf 1ba8 aea4 6b67 a7bf
00000370: 416d 0391 07e0 b3bf 2c2d 3551 433b a2bf
00000380: 63ab 557a 03fc 94bf 0000 0000 bdca 99bf
00000390: d01d af9c 626c 953f 48f7 796c a713 923f
000003a0: d13a d564 ba50 9abf 80bf 2a8c eb06 773f
000003b0: 703d 7f69 c88b 963f 50c9 2e15 f81e a33f
000003c0: 0000 0080 a902 acbf 0e51 7d17 a29a a43f
000003d0: e024 fd10 2c23 a0bf 42e9 178c b101 a6bf
000003e0: 56ac 29da 76fc a6bf 137a 75cf 35e4 aebf
000003f0: ecd7 c2e1 7ce0 a0bf 0000 00c0 e713 93bf
00000400: 0000 0020 6df7 a9bf 0000 0000 6288 a3bf
00000410: f5dd ef18 8b01 9b3f 406d 15f7 3925 7c3f
00000420: 44c9 8e9a b34b 98bf 2051 23b9 d393 a5bf
00000430: a3d3 9cdf 9d61 7ebf edd7 13ac f085 b7bf
00000440: 1037 c829 a7fa b4bf 681f 5770 b273 9abf
00000450: b470 0b12 3138 803f 7c0b 08f0 0fd5 9b3f
00000460: 12a8 3202 7ee0 9cbf 42aa 71ec daf3 a4bf
00000470: 4961 09da 48a4 87bf 355b 895d 3ad8 70bf
00000480: 6a27 62a9 e01f 923f f2a9 e496 881f adbf
00000490: 436c a05e fa28 a33f f1d3 8bde 3755 90bf
000004a0: 47eb 957c 167f 8bbf 6829 cc51 1b87 92bf
000004b0: 8a6f eadf 3345 a83f 2de1 10a9 81f7 94bf
000004c0: 0000 0080 532a 9b3f 1cc1 7b96 f317 9a3f
000004d0: bc30 18ac 030d 97bf a023 1a8d f3a8 a2bf
000004e0: b777 f2fd 15c2 8dbf d143 872f 5966 aabf
000004f0: d434 9099 33e0 aa3f 1d38 654f 199b a43f
00000500: bcb4 e2fb 324a 96bf 96fb f58a 291f 9d3f
00000510: 7408 5101 de75 a4bf b4a4 0f02 9d33 a3bf
00000520: 77a4 cd0a 7b57 a53f 46cf 47d5 b8d7 95bf
00000530: 8a53 5fc5 38d3 95bf b2ef 59c2 f8fe ab3f
00000540: fa1c 3eba a5f5 aa3f f3df 6ba8 01b6 903f
00000550: d02a 5c9d 6c20 75bf 416c 8c68 19d2 af3f
00000560: b180 e88f 28a7 aabf 0000 0080 8a85 9d3f
00000570: 0000 0000 9917 ac3f a4a1 7209 0e97 b0bf
00000580: 3a69 649b 425d a0bf fc00 56ca 2251 a83f
00000590: 366e 833b 6aff b1bf ece3 97bd 1b8a 61bf
000005a0: 9406 a7f9 f20c 8a3f e136 502e f940 91bf
000005b0: dc1f 72d9 9ee0 74bf eee6 13f3 7376 b0bf
000005c0: 784f 2e32 6148 843f d6b9 ed38 5103 a33f
000005d0: 8310 0288 9264 6c3f 621a 9c1e b47f 92bf
000005e0: 9ae3 c011 5556 a2bf e057 f2bd 3851 7c3f
000005f0: a54b 4aa7 3336 94bf aaaa 7e00 e9f9 8fbf
00000600: 0e7a 8e2e d6b3 aabf cc15 d5fa 3ee2 acbf
00000610: 8b34 37ee b4c2 803f 2b4f 3de2 d555 a5bf
00000620: b68e 809a 8610 b0bf 4a67 025e 5504 8c3f
00000630: 8a22 9db4 f2dd 6a3f 1416 985a e8a2 49bf
00000640: f824 bacb ba0a a2bf 9e2b 9a96 4929 aabf
00000650: 3a4e 1995 3b79 9b3f 0000 0040 8603 af3f
00000660: 33b4 4961 62f9 95bf 881d ffe4 c41f 783f
00000670: 780c 7ceb 05b6 9a3f 0dc9 b126 77ae 983f
00000680: cb6e da0a 9711 a7bf 99a7 9f37 4287 a4bf
00000690: 60d5 7523 f4d5 ac3f 9f9c 5321 60fa aebf
000006a0: fb67 36ec 53a8 aabf 30b8 95f5 825f 8f3f
000006b0: 348c 5ae4 1604 a43f 7e81 c9c0 18c2 8c3f
000006c0: 0f3f 1c89 18c6 ad3f 0000 00c0 89b2 aebf
000006d0: e601 8236 d506 93bf a2d4 846e 8119 a0bf
000006e0: feb8 72cc 59ac b0bf d960 9dbd 2cc4 a0bf
000006f0: 2ef8 9404 a755 923f 4096 5a3a 8129 a8bf
00000700: aa34 9988 6778 a43f 0e51 fce0 81f2 89bf
00000710: 987b 6a4e 5db4 8c3f 8e87 6759 9b40 b03f
00000720: 6649 281a 0e1b a9bf b6fe 94ca 413a a93f
00000730: 3cf9 4634 ec15 723f c3de 75db 3cb3 62bf
00000740: f409 dcd4 084d 85bf bf49 232e 19d4 a63f
00000750: d79d 500b d1a5 9ebf 0000 00c0 9d20 94bf
00000760: a0ec 6f51 0a2b 86bf e61e 5ef7 c7bb a5bf
00000770: b9ad f8de f6d4 99bf 50c5 6e7c 76eb 97bf
00000780: 7e72 29be f9ff a3bf 0000 0000 9644 8d3f
00000790: 0000 0000 ebc1 7bbf 5fa6 b398 3eaa a6bf
000007a0: 0000 0080 70c5 a83f 663a 65d8 4f1b ad3f
000007b0: 8ed0 8897 13f9 a6bf 4c45 97f8 9129 9abf
000007c0: a0c6 8893 5978 a1bf 7c1b 68da 9c7b 95bf
000007d0: f02e e4bc f6e3 8e3f 600e dae7 09c8 a63f
000007e0: 3f2b 6d76 2ec4 84bf 26c5 96df 4f6f a53f
000007f0: 805e 16a3 4d81 9abf 250d a2b8 a643 a33f
-0.0036088123197884976 -0.0037636893884470325 -0.0764117454416765 -0.060886094458322534 -0.010616148796363013 0.0014161835204374905 -0.06895143616592718 -0.012144854198891528
-0.06050130917369802 -0.10007101330428678 -0.08734548369409227 -0.03827527130025672 -0.07467106805851234 0.04791137864064139 -0.030349216000525512 -0.003519418903121323
-0.022883497178554535 0.03371817618608475 -0.05172240734100342 -0.04448098119041705 -0.05520577162253337 -0.06284468759964257 -0.01321197716624117 0.005207387402165745
-0.013439855506477394 -0.025090735447804317 -0.03394983792549501 -0.04390362573648503 -0.05672160828013886 -0.059070157201705324 0.03503108991151185 0.0008822050105303843
0.0387889614026487 -0.017904795273332646 -0.032514892896560135 -0.01642591019867439 -0.051298947802975906 -0.006106734262318544 0.021969526693590303 -0.022465878471349343
-0.027840830385684967 -0.07629534995392964 -0.0012182734090071747 -0.01901110058856135 -0.017331391006368956 -0.0883133152121205 -0.058782403384053425 0.01735402735247519
-0.06265029341600817 0.02185920618050846 -0.020058866821594645 -0.034200696370460776 0.017202330999441552 -0.047158918868767344 0.0004586943464406374 0.02190646426037414
0.015583558097519896 0.01241682063820713 -0.03143108465708246 -0.05158341703922582 -0.04359005262685406 -0.015444345032436477 0.0009165555238723755 -0.022513985633850098
0.005202554166316986 0.003952523579721637 -0.0786350363240908 0.03189061589298936 0.0063663132620240676 0.027588221969952337 0.01384821016179207 0.025707825375897747
-0.05093425404682088 0.032774304950554216 0.01724987754689776 -0.007441169336134792 -0.0374336184033595 -0.0532056568405498 0.02744907858802461 0.04166282654902148
0.0456936727132773 0.019838984125098297 -0.07880439547067455 -0.0007877167517576253 0.037185381046478824 0.011293649673461914 0.00893627440148839 0.027252826994989467
-0.055099849826163935 -0.04373057649081542 -0.04384811396109588 0.03466407528921287 -0.0007015089147419801 0.01956594103622728 -0.04843718129189746 0.035844194132747365
-0.028650595098270983 -0.026501570606333066 0.05255152412018453 -0.04629801545556427 0.023704944990221147 -0.039048385378907535 0.026186454411444668 -0.05695957690477371
-0.07388266752365467 -0.0458051860332489 0.019470445811748505 -0.06221482214367527 -0.05148109698195985 -0.04571091065675167 -0.07763716974607339 -0.035608390486766645
-0.020492605535234697 -0.025187447667121887 0.02092126923869647 0.01765309905612547 -0.02569857826648098 0.005621833903816653 0.022017604292896065 0.03734565027788739
-0.054707810282707214 0.04024225746857911 -0.03151834208854054 -0.042981670714612466 -0.04489489949340768 -0.06033485562760545 -0.032962706145028026 -0.01863062009215355
-0.05071583762764931 -0.038149893283843994 0.026373074910194878 0.006871439386795075 -0.023726278599221176 -0.042143455839012356 -0.007417313283259927 -0.09188751412497682
-0.08194966096945344 -0.025831974131306806 0.007919677127056303 0.02717995550666384 -0.028200119861743707 -0.04092296730307911 -0.011543816713285653 -0.0041124610803169774
0.017699728334754118 -0.05688120691259603 0.03742201237783906 -0.015950081785337692 -0.01342599456505912 -0.01809351622345315 0.0474029742083238 -0.02047541231533605
0.026528649032115936 0.025481992778567095 -0.022510583285154637 -0.0364452466720373 -0.014530345737792645 -0.05156210618191149 0.05249177217056347 0.040245810453243026
-0.021767422317385807 0.028439187151430532 -0.03996175542899119 -0.037503153325653044 0.04168304926754101 -0.021330726640328444 -0.021313559576657627 0.05467965481236038
0.05265539072484589 0.016319299606919867 -0.0051578753243670256 0.06214980508067259 -0.052056567732735266 0.028829731047153473 0.05486753582954407 -0.06480491381319681
-0.031961518734720376 0.04749401779099746 -0.07030357315982702 -0.002141050511224032 0.012720010989940612 -0.016849416209928306 -0.0050970273069949855 -0.0643074482394714
0.00990367826833681 0.03713468379907041 0.0034659254016010123 -0.01806527554347282 -0.03581491319386672 0.006913396499973218 -0.019738013349136847 -0.015613384559249727
-0.05215329473798046 -0.0564136201087809 0.00818387367226083 -0.04167049776756778 -0.06275216362024136 0.013680140429915295 0.003279661211227418 -0.000782359556240566
-0.03523811089423562 -0.0510962482777224 0.02682965371634636 0.0605737641453743 -0.021459138095839058 0.005889672393045393 0.026084988115155444 0.024103032814715642
-0.04505607612119674 -0.04009444169044158 0.05631983692993958 -0.060503963535489584 -0.05206548937276519 0.015318892593054384 0.03909369981308722 0.01404208505954396
0.058151976334668835 -0.059955887496471405 -0.018580752803701993 -0.031444592228959026 -0.06512986413392594 -0.032746694704373254 0.017904863028199873 -0.04719165646865209
0.039981112885109596 -0.012669577291980729 0.014015892940106231 0.06348582203602701 -0.04903453892997582 0.049272590617417775 0.004415438339888941 -0.0022827328318121023
-0.010400837894398919 0.04458693206983665 -0.029929415050131993 -0.01965567097067833 -0.010824280367151495 -0.04244828123688453 -0.025226456984609878 -0.023359156937379055
-0.039062313521502454 0.014290973544120789 -0.006776731461286545 -0.044267612591124765 0.048381343483924866 0.05684899822755511 -0.04486905312333632 -0.025549202726158612
-0.03412132192569328 -0.020979357557759468 0.01508324397993685 0.04449492411825129 -0.010139811505401773 0.041864868205616454 -0.025883877829612434 0.037625513113221744

fc1.bias f8 [64]
00000000: 382e e9cb 1dd8 b0bf f35f 0d93 4ed4 7dbf
00000010: b266 9ee3 cb29 c4bf ca50 481e b8b7 88bf
00000020: ec72 d7bb 41c0 a7bf 1262 ac71 05fc 8e3f
00000030: 6cb2 2894 2a4d 903f a2e7 d056 144d b43f
00000040: 6866 30d0 a71d ae3f cf6f b9fd 6766 bbbf
00000050: b9d6 53fe 7863 973f 3ca4 387d 7cc1 a3bf
00000060: 2078 3968 6f20 a2bf 2442 b081 43fe b9bf
00000070: 4786 5326 de5e b7bf bf53 b281 8585 b6bf
00000080: 3128 4b69 6981 babf 2967 b0cb 7780 abbf
00000090: ea14 dbac 1eae b5bf 1604 16f4 0cfe aebf
000000a0: 1d05 137d bdca 72bf b7c7 cd53 2c85 b1bf
000000b0: 6bed 0e76 7d72 a53f c224 f631 086e a83f
000000c0: ee75 c52b ede8 883f 25b9 a8ec ad12 90bf
000000d0: 6f5d 4beb f848 a7bf 2572 84ac 6d16 93bf
000000e0: 28ec 8d55 71c0 a0bf e410 5765 e95c b8bf
000000f0: 71e1 e3a5 375a bfbf 72c2 b261 6224 b9bf
00000100: 6c54 1702 60fd b83f ce8a b196 4771 a3bf
00000110: c42c 1be2 c840 903f 1f15 e288 c56f 763f
00000120: 0b69 c234 6943 bb3f ec2d 91b8 a8bc a1bf
00000130: 64bd 398c a0e0 a7bf 6ae3 5347 af4d a83f
00000140: 8bd8 a602 84be b13f 8476 bc8f dd23 94bf
00000150: a32f 280f 0fec b2bf 6867 0546 4884 70bf
00000160: 9700 0d4d 9ef2 a4bf 92ee b0d7 61d4 b1bf
00000170: 035a 44f8 c361 b43f f974 20d7 f75f 993f
00000180: 6205 5584 c42b 7e3f 3c8a bb8b 2f4a 90bf
00000190: 14c4 ddb8 c485 a0bf d52b 705b 6d30 b0bf
000001a0: e9dd 4578 f459 abbf 2e5b 552f e69b 993f
000001b0: dafb 87a4 e95b 84bf f8e3 109d b4be b03f
000001c0: 0d1e 2e20 3b26 96bf c3fd 28b5 d7d3 a23f
000001d0: e4d9 4aa2 2d56 9bbf 71b0 c980 bca6 c3bf
000001e0: f110 d11e 6b66 b73f d0c0 6135 9608 923f
000001f0: 533a fd74 aeb1 a73f 865a 77d3 e8c4 aebf
-0.06579767444889562 -0.007282549792613213 -0.15752552618214605 -0.012069166587970765 -0.046388677768595205 0.015129129916702264 0.0159193661622105 0.07930113906414119
0.05882000366564172 -0.10703134483759345 0.022840395472448736 -0.03858555821018014 -0.03540371081611249 -0.10153600612853403 -0.0912913173265447 -0.08797487656040824
-0.10353716679233639 -0.05371450768889325 -0.08468810768234261 -0.06053200225415638 -0.004587879361851036 -0.06843831106178198 0.04188911501065714 0.047714477633300514
0.012163021944327359 -0.01569625622703898 -0.0454786097740748 -0.018640245108246262 -0.03271822137227104 -0.09516772007106372 -0.12247035789540008 -0.09821143040859129
0.09761619616559053 -0.0379736300899559 0.015872134018348985 0.005477687473221664 0.10649735963889755 -0.03464247944847529 -0.04663564407098411 0.047467687088959945
0.06931328835239207 -0.01966806592746774 -0.07391447181743031 -0.004032404249608358 -0.0409135312133923 -0.06964694515130024 0.07961678324895875 0.024780151849076202
0.007365958828189663 -0.015907996085738882 -0.032270572249110924 -0.06323894007088822 -0.053420676881554226 0.02500877059841427 -0.009940934499352783 0.06540993532770745
-0.021630214537735216 0.03677248083522102 -0.02669593146375772 -0.15352588928670088 0.09140653135642986 0.017610880859536604 0.046277477055458725 -0.06009605008482759

fc2.weight f8 [3, 64]
00000000: f4af c93f 3b24 af3f 6e28 6eb5 f3c0 bf3f
00000010: de75 3bbb 1ffe d0bf b704 ac63 ba2d c4bf
00000020: 1c99 dfa3 11b5 9f3f ccfe dfbf 543b bb3f
00000030: 6efb 6c2c 0b8f c5bf 4ae5 a2d8 87bb c7bf
00000040: 4a27 e0b0 a0e3 99bf 0231 c98c 4141 c5bf
00000050: cffd ff34 fb33 c53f 5f08 4ed8 49bf 9ebf
00000060: 4f6f 9f46 138b b1bf 216d 0bed 6389 b7bf
00000070: fe5d a05f a272 b63f 74e4 b004 6682 513f
00000080: 1a77 754d c697 c8bf 7281 cc3c 433d 60bf
00000090: 34d3 9884 9ea9 93bf be8a eb55 8acf c2bf
000000a0: 53e7 a145 9c35 bd3f 09f5 a655 eb4a c8bf
000000b0: 3058 4eca 7977 c1bf f71a 39fd 9494 c33f
000000c0: 8814 1143 c87d a6bf 5e6f 7468 9ac1 b33f
000000d0: c2f6 2c8d 4a29 a1bf 89b2 412d 8080 c73f
000000e0: e572 4ecb c713 d33f 3468 81c5 4c40 bcbf
000000f0: de73 89ac 9199 ce3f adb9 175a d764 a8bf
00000100: b64e 1e9b e5c4 c33f e7c9 cfa3 b642 bebf
00000110: ab46 e93d c870 c6bf 7155 e2a0 46f8 d0bf
00000120: f045 df2b 70dd bf3f 4ea0 9db3 9ebd bb3f
00000130: c345 963d 8ada d03f 6c18 65cd 9e1c b23f
00000140: f3b2 3b72 3da0 9ebf 817a 6164 56fd d2bf
00000150: f454 02ed 5918 b7bf b21e 61c7 c98a d53f
00000160: 38cb 8784 c090 c03f 54c8 abe2 3480 b93f
00000170: 2106 f500 fe6c d0bf bc8a bac9 0144 c23f
00000180: 20cf ad9e fffe bb3f 373b 9e7c 273c b2bf
00000190: 5ef7 23d7 bd92 b3bf abc7 850c e991 b13f
000001a0: 2414 5b03 7a53 cebf 221a 7719 92fd d03f
000001b0: 1512 a4da 723d d23f 9062 550f 88a4 c03f
000001c0: 3a3c 9549 14de bebf e918 661e c6e3 c13f
000001d0: b6a7 5df8 704f b03f 3a21 38c8 5ce4 c7bf
000001e0: 72f8 b5aa a6f6 d23f 3c42 dba0 b413 bbbf
000001f0: 473c e22b 7e04 c1bf ab99 d0a7 7f71 d0bf
00000200: 6599 a3f5 38b8 a2bf f5e4 1097 d160 bc3f
00000210: d011 1c63 873f 6ebf 564c 3e1c 1870 b73f
00000220: a71b 7fe4 cbaf af3f ad41 44ae 2f6d be3f
00000230: 52bf 7f08 7ff3 bc3f e761 2041 93a5 a13f
00000240: 995a aa8b 09d2 b73f e6e3 ab64 0eea b5bf
00000250: d295 c10d 217e a0bf 75a4 0156 8241 cc3f
00000260: 1cd9 81ae fe17 933f 2b67 4dd4 3770 c8bf
00000270: f805 dd8d 08b8 a6bf b714 0bfc cf5f 7e3f
00000280: f956 f12d 247c babf da8a 1707 4d46 b03f
00000290: 0672 67c1 b68d 993f f257 17f2 5357 9c3f
000002a0: c7b8 aba1 26b1 c03f 82a7 be90 61aa bbbf
000002b0: 5b60 11ed b842 a0bf 6ece 1dcf 6265 b43f
000002c0: c0f5 e8e0 e433 b23f ae46 ad4e 835f ba3f
000002d0: 864f da36 e3a1 463f bfba 815b c3c2 a5bf
000002e0: c9ea e345 7258 c8bf 366b 1db9 98b4 bb3f
000002f0: b67f b72b ba80 c3bf cdc4 b43d 0982 a8bf
00000300: 4a53 d27b 1999 c33f bdeb 66e8 0e10 be3f
00000310: 7c15 cd4f 7cf5 b93f 65da a9ed 8d97 8cbf
00000320: 4f99 9449 b35d b53f 7586 667d 7368 bd3f
00000330: 24cc 3394 79de cbbf 5127 77a4 aec4 bc3f
00000340: 7fc4 b5ee 6e67 b73f 48c4 d9a7 0eab b13f
00000350: 2abe 0e96 89fa a83f 8166 40ef e59f b8bf
00000360: 9865 da2d 18d4 bcbf defa 0e07 877c afbf
00000370: 960d 4eae 8627 86bf 6a06 f388 f0c5 ba3f
00000380: ff85 940f 74f6 c13f 0963 7d2e f0b3 b9bf
00000390: 34e0 8693 093b 963f 849d be24 0105 83bf
000003a0: 5233 164b b806 b23f a82f f43c 7209 c5bf
000003b0: 8624 b892 97ca a5bf dfc5 ba58 fdce c03f
000003c0: 876a b1b7 d007 94bf 777e 2b1c dd97 bd3f
000003d0: e404 d497 d4f2 ba3f 6fc9 caee bb70 b2bf
000003e0: 3c22 f697 71d0 c5bf 5ea7 b66e 723b b43f
000003f0: ca81 cf4b fd00 b73f ce63 e779 ab82 c7bf
00000400: de40 31be b574 b53f a600 4e8f 460b d2bf
00000410: f219 ecd5 6384 c13f 14a9 67c4 8a1e b73f
00000420: 2ce7 a3fb 488f ba3f 0f93 4734 5e2b a83f
00000430: 2705 8bc4 6117 cfbf 99b6 c6e3 f14f ba3f
00000440: f047 1c45 e281 c5bf 5853 043b af63 a43f
00000450: 6a24 8d6a b3bc d0bf 0541 ea6d 2705 ab3f
00000460: 9d61 4fd7 d640 963f 6301 1d69 1038 c13f
00000470: f68a 41ef 68cd a7bf 29df 1858 48ea a3bf
00000480: 6569 6952 153b cb3f 3ace 8b66 2076 a23f
00000490: c129 a4da 7425 a13f fe53 ff25 f510 c03f
000004a0: 7e6a 870e ef3d cdbf ebef f1dd bc55 c53f
000004b0: 4c62 a024 191e bc3f d8e3 9701 4f47 c8bf
000004c0: 4888 c059 dee5 a9bf 2ec3 e450 3989 d3bf
000004d0: c081 caac 9847 a43f 6e07 5303 623f c03f
000004e0: 9159 8e3f 838b d3bf a9ce 11f0 b9a6 ba3f
000004f0: a512 61f1 c3d3 d6bf b4ce 958d f3cd b1bf
00000500: 5c30 41e6 69db d2bf d7d0 8624 caf7 ba3f
00000510: 31e6 4753 fdec bd3f 2316 06ab 50ef c13f
00000520: 1ea3 cb69 b5ea 7bbf 5c3c 1778 438c cdbf
00000530: 1f20 b206 02b2 cebf 0fc2 c1af 48dd b93f
00000540: 5146 2f09 0b3a c1bf f4ab 8410 4f73 b23f
00000550: b464 9b29 bb01 8e3f 2129 bc9d e816 d9bf
00000560: cdfa 9997 1609 c1bf 8b97 5812 86ff c1bf
00000570: e928 1057 4232 c53f 3e2b 4d67 e96c bcbf
00000580: b0eb 6110 9da1 d5bf 3779 c9b0 2231 cb3f
00000590: ce9f dbec 5434 cb3f 46bf c211 318a a2bf
000005a0: a8aa 8c3c 8b19 b23f 2bee 73d2 0255 c4bf
000005b0: bd45 8c87 909f c4bf 321a c96e ed4f cabf
000005c0: 7905 032e 382f b53f 1ba0 a5b1 90c8 bebf
000005d0: 9725 0fca a699 b83f 1af1 5ae6 083d cf3f
000005e0: e885 76bb db4e b73f b3d4 29f0 1ea1 b6bf
000005f0: b7a2 19e1 9ceb ba3f 3e78 5276 f6aa bc3f
0.06082329896602792 0.12403796367121497 -0.26551049503708934 -0.15764551035684857 0.030964160563507467 0.10637407001922411 -0.16842784566139407 -0.1854104812426079
-0.02528239326060281 -0.16605395674049112 0.1656488426960849 -0.030026582553098865 -0.0685283706110884 -0.09194016015264996 0.08768668017034284 0.0010686870835015213
-0.1921317938057932 -0.001982337306245246 -0.019201733439518878 -0.14695862956349076 0.11409928035746235 -0.18978635484919718 -0.13645861032699846 0.1529718624535332
-0.04392839258847753 0.07717289972464189 -0.03351815198264553 0.1836090298633233 0.29808230260986895 -0.11035613843833475 0.23906155514387611 -0.047644357440606334
0.15444631647243562 -0.11820546626385174 -0.17531683943757534 -0.26515355788554645 0.12447262831781081 0.10836212048673241 0.26333862318378126 0.07074921144985219
-0.029908142182580155 -0.296712492015935 -0.09021532093386836 0.3365959593834119 0.1294174811478912 0.09961252721748909 -0.2566523560854837 0.1427004084590261
0.10935971855161286 -0.07123038093980659 -0.07645784857228707 0.06863266521193505 -0.2369225040803552 0.26547672736015404 0.28500052787447433 0.13002110241611264
-0.12057616039713617 0.1397636078292586 0.0637121778833308 -0.18665656830149563 0.29630438490847333 -0.1057694332805647 -0.13294961111793865 -0.2569274081055492
-0.03656175611995386 0.11085233629355058 -0.0036924022941795323 0.0915541714623925 0.06188809551490886 0.1188535500007279 0.11309045751090466 0.034466363620768985
0.09304866466332341 -0.08560266454504947 -0.03221228878900785 0.22074917983562484 0.018646220589709647 -0.19092462412191344 -0.044372813527399246 0.00741559261286289
-0.10345674630783809 0.06357270644324889 0.024954658083389723 0.02767687955005011 0.1304062165649553 -0.10806855949218 -0.031759051264714976 0.07967202717355246
0.07110434046713632 0.10301991148778697 0.0006906852192565128 -0.04250154964471652 -0.19019916927921646 0.10822443503768117 -0.1523659432850743 -0.04786709669350273
0.1531097273442817 0.11743252920034215 0.10140206287640824 -0.013960942092336734 0.08346100374601416 0.11487504779372577 -0.21772689567987513 0.11237613215703603
0.09142201736337262 0.06901637647548953 0.04878644901998215 -0.09618985262968673 -0.11261130446873435 -0.061496944057116684 -0.010817577547419781 0.10458281844605613
0.14033365975141973 -0.10040188918118188 0.02170958483631598 -0.009286889013153006 0.07041503747150316 -0.16435077644598306 -0.04256127992636842 0.13131682236193762
-0.0195610630147294 0.11559850633374845 0.10526779848807483 -0.07203268604169975 -0.17042369766228826 0.07903208926168534 0.08985884762615295 -0.18367522671067466
0.08381210225457233 -0.28193820948218684 0.13685272164748558 0.0903097848419388 0.10374885695992181 0.04720587146929322 -0.24290105912044987 0.10278236208861315
-0.16802624105963515 0.03982303233548262 -0.2615173855343246 0.05277369705902583 0.021731717006191798 0.13452344067082853 -0.04648902817350191 -0.03889680934338308
0.2127405788804239 0.036057484166942946 0.033488895120246116 0.12551750521984667 -0.2284525700514059 0.1666790088382862 0.10983426231576593 -0.18967616632269713
-0.050581882911743536 -0.3052504816032976 0.03960873708024648 0.12693429148026375 -0.3053901787438003 0.10410654173920854 -0.3566751343935642 -0.06954881865186274
-0.2946419476109037 0.10534346954119954 0.11689742358421353 0.14011581755419042 -0.006815632482109616 -0.23084300388152001 -0.23980737044280517 0.10103277483882088
-0.13458383511037877 0.07207197335507926 0.014651739318127667 -0.39202323345002027 -0.13308985140243693 -0.14061046500972582 0.16559628726128686 -0.11103686115272368
-0.3379891071305634 0.21243699676683445 0.21253453793838023 -0.036210568826730724 0.07070226886996045 -0.1588443305589505 -0.16111952417899814 -0.20556419286204314
0.08275176165900246 -0.12024788224300702 0.0960945361431612 0.24405013320745966 0.09104703261120728 -0.08839600909580518 0.10515766616448273 0.11198368443226145

fc2.bias f8 [3]
00000000: 62c8 7363 054e c13f 7968 f64d bea2 ce3f
00000010: e75c e0a6 aee3 c23f
0.13519351345127278 0.2393415337253975 0.14757331035864427
