runs/testrun-trial-longerrun-20r-40bs-100ep/0/LocalModel-0-Round17.pt (torch, 167767 bytes, 6 tensors)

linear.weight f8 [128, 95]
0	0xbfb514cb45dbbf12	-0.08234854178931197
1	0x3fb4d7355fca0342	0.08140882099725125
2	0xbfa60b339aed3200	-0.043054211294109024
3	0x3f907a20285b89bd	0.01609087225268423
4	0x3fb9aee9cf2bfeb0	0.100325215415064
5	0x3fb8b04480013589	0.0964396297942668
6	0x3eda17ba5acd228e	6.220981430279103e-06
7	0xbf8304d1e4e55af9	-0.009286536977624037
8	0x3fb47e0742af523e	0.08004804018066466
9	0xbfa74d1924de0f4b	-0.045510087728898606
10	0x3fad135280f3621e	0.05678804229836863
11	0xbfb3f71e266adad7	-0.07798946798252913
12	0xbfb1d1a148bc0894	-0.06960495019669316
13	0xbf8596160f36fd9f	-0.010540172900504184
14	0x3f97d3938a1f55ab	0.02326803713352425
15	0x3f98fb3351cc8509	0.024395753734215684
16	0xbfac4718a4c121a8	-0.05522992144739486
17	0x3f02ea479582f67a	3.607779461976559e-05
18	0x3fb59a401d2f29dc	0.08438492500787426
19	0x3fb742451dcf089f	0.0908549497389992
20	0xbfa024c5a13f0bd1	-0.03153054803217226
21	0xbfad8a94133e515e	-0.05769789442925587
22	0x3fb6c8557eeca60b	0.08899435375919766
23	0xbfac264e28fd4a0f	-0.05497974634512925
24	0x3f87e7110115618a	0.011671192975584405
25	0x3f90f59726b82725	0.016561853159181034
26	0xbfafc291946e95c1	-0.06203131615556457
27	0x3f997011447a393e	0.024841565899401667
28	0x3f7db46327558911	0.007252108878079492
29	0x3fb1206ed3b7f814	0.06690113705550998
30	0xbfacb8f4cb6d9e29	-0.05609860404257134
31	0x3fad082b0558c22d	0.05670294227855197
32	0x3fa9e588b2bc37d6	0.05057933027101995
33	0xbfb3eede6e4274d1	-0.0778635996998276
34	0xbf936988ffe8ce46	-0.01895727216670042
35	0x3fa214513fa50463	0.035311259287944784
36	0xbfb49175797114df	-0.08034452643285615
37	0xbfb72c204df4601f	-0.09051706221760057
38	0x3fb0149bfc5bff1c	0.06281447325818273
39	0xbfb7b31f62822950	-0.0925769439219597
40	0x3fb472a024d75a81	0.07987404727405513
41	0xbfb5a517e5555e35	-0.08455037449800147
42	0xbfb60289f2052c34	-0.08597623976417951
43	0xbf84b1c3f6202b7f	-0.0101046857344238
44	0xbfb0a5ccdf14c7f9	-0.06502991148298055
45	0x3fad9df865ced93b	0.057845842769369736
46	0xbf9f5ec4a7b235bc	-0.030634949431762357
47	0x3f95ae5c7ebe6874	0.02117294810850763
48	0xbfb98901fa762165	-0.0997468220213072
49	0x3fa12931265be9a0	0.03351739495515749
50	0xbfb90e2e8c794be2	-0.09787264756714323
51	0x3fb343f38002a82a	0.07525560260060674
52	0x3fa6f29bff4d86d9	0.04481971255769474
53	0x3fa77eedc2610cb5	0.045890264490048883
54	0xbfb4a4e74c4d315f	-0.08064122784452853
55	0x3fb6e728c9255e8c	0.08946471129217509
56	0xbfa9292ab3a6d26f	-0.049142202787526006
57	0x3f82df68641f55f3	0.009215179019444774
58	0x3fb1d54760f1d7f7	0.06966062657178883
59	0x3fb878346dc1a16e	0.09558417968367447
60	0xbf62898881add9c7	-0.0022628465789537896
61	0xbfaed58ff3763b30	-0.06022310110994622
62	0xbf6b3e111d13f05e	-0.0033254942178456
63	0x3fa306702e4406fc	0.03715849461333495
64	0xbfa43e5fd7074d10	-0.039538378714178646
65	0x3fb63ad1f96b3a5e	0.08683502520873662
66	0xbfb57d1424d08db6	-0.08393979929728954
67	0x3fa993a3bc6eee55	0.04995452571116902
68	0x3fa80c4a04a7b409	0.04696875864815559
69	0x3faa9741a3b424fa	0.051935244782791615
70	0x3fa227d9dec0892d	0.03546028942243349
71	0x3fa9da6301fdfc6e	0.05049428366964369
72	0xbf84b1ba7c0ba8d6	-0.01010461512619935
73	0x3fb0f06e1b978a4e	0.06616867231017773
74	0xbfb12d49a066d194	-0.06709728399329712
75	0x3fb0fd9be0830e87	0.06636976462601228
76	0xbfa6e7a769024b90	-0.04473612934921001
77	0x3fba13cb971bc630	0.10186455191776456
78	0xbfb9f7728d4fe393	-0.10143199872972124
79	0xbf9df85f53040f7f	-0.02926777786434753
80	0xbf9930079ec93730	-0.024597281519439906
81	0x3fb15c5a245b3066	0.06781543147661892
82	0x3f7c0cb6e89847fe	0.006848062979331713
83	0xbf86e91d05ddac9b	-0.011186815969003219
84	0xbf9308eed5411b63	-0.018588763967524524
85	0xbfa8583e6f70bae1	-0.04754824743610243
86	0xbf36f7c343ee794b	-0.00035046117039340814
87	0x3fb19522a477a992	0.06868187442129273
88	0x3fa28d428d195c58	0.036233978008276935
89	0xbf90d5540d090eea	-0.01643878297387761
90	0x3f9142f94adb5875	0.016857047265908826
91	0x3fb19d08e67ac144	0.06880241038266371
92	0x3fb5473446b08c58	0.08311773992368054
93	0x3fa7962b668cb021	0.046067577617890494
94	0x3f9c9ab68367c7ea	0.027933933039044158
95	0xbfb003a7f0a0782d	-0.06255578636816557
96	0x3f8853b5e94cd754	0.011878415281539802
97	0x3fb2a6675f9f5c55	0.0728516205266357
98	0xbfa1b3e6fe7160d9	-0.03457567077629315
99	0xbfb8c53946cbf183	-0.0967593953936952
100	0x3fb40e959ce080a2	0.07834754066471075
101	0xbfb91e383d6f5ba7	-0.09811736583593121
102	0xbfb3b0007ae593d6	-0.07690432548913803
103	0xbfb74f2795bd141e	-0.09105155378081561
104	0xbfb4f3645e698e6a	-0.08183886818874844
105	0x3fb804646a5cdd4d	0.0938170203852355
106	0x3fb2e806c8d9f5d1	0.07385294345473105
107	0xbfb14cd13764b036	-0.06757838823676895
108	0xbfb3eefda8a8f529	-0.0778654610412174
109	0xbf7d69950db2a140	-0.007180769195805958
110	0x3f9a9aef4dc268c6	0.02598165428262502
111	0x3fb815902cfa2d9c	0.09407902811124419
112	0x3fb74fac664ae01e	0.09105947015166335
113	0x3fa92eee15aa94c8	0.04918617262345887
114	0x3f90ddb4c4a2e9b9	0.01647074175046168
115	0xbf8cffc1a97a4f08	-0.014159691795874632
116	0x3fa21f0cff7aaf93	0.03539314860003553
117	0xbfa1fafcb173363a	-0.035118004475958434
118	0xbf942782fcb5e78c	-0.019681975054005416
119	0x3fb6a82d3ed4a61e	0.08850367340041784
120	0xbfb68415f0a47551	-0.08795296788271868
121	0x3fb9c19e72d2b846	0.10061064055727895
122	0x3f93f9bc4a81da09	0.019507352874336834
123	0xbfb6f4967758f058	-0.08966961301570231
124	0xbf9e4f3dd6bbe0ed	-0.029599157553975287
125	0xbfb1baf50cbb1ae5	-0.06925899086773375
126	0xbfb6a31c66a9004b	-0.08842637544967251
127	0xbf809f882f1b19ff	-0.00811678308253949
128	0xbfb318083cc0ff37	-0.07458545192002651
129	0xbfb3adc8fbd406e1	-0.07687050007009645
130	0x3fb58d6577e50293	0.08418878724206484
131	0xbf4e796dd8991745	-0.0009300028188554485
132	0xbf9af7a46d3d9fdc	-0.026335305373691983
133	0xbf9db921e763dee8	-0.029026536701137667
134	0xbfb604ba34e3fbfd	-0.08600963393472223
135	0x3f96608af07c055c	0.021852656295782466
136	0x3fa2ce111d5c387e	0.03672841533089953
137	0x3fa24f6e51aa24f7	0.03576225993044518
138	0x3f738e12137e01d0	0.004774160966804122
139	0x3fb1051c9de9792c	0.06648424964212002
140	0xbf47dbe56402a81b	-0.0007281179496392316
141	0x3f91e62d6d0d92b4	0.01747961977106867
142	0x3f7f7c02bb267120	0.007686625164208288
143	0x3fab2d40547bf361	0.05307961493779235
144	0xbfaecec233d77a48	-0.06017119295915002
145	0x3f9ee239624fffd9	0.030159851670759828
146	0x3fb3760bd8aa4b6a	0.07601999320676858
147	0xbfb5595ddec1f49e	-0.08339487732333103
148	0xbf9ea093621d56cd	-0.029909422744217196
149	0xbfa75164737061e2	-0.04554284962813761
150	0x3fb0c04c0a3497ca	0.06543421982914235
151	0x3fac350063218cf9	0.05509186945053019
152	0xbfa126ae4dd7986a	-0.03349823665830416
153	0xbfa1a71aafc80a2a	-0.034478029210749675
154	0x3fb0f206a6c19bfa	0.06619302340696712
155	0x3fb21469e9e83fe3	0.07062398872972113
156	0x3faafff3cdd4f3a3	0.05273401153178916
157	0x3fb64b4a1c70fa6a	0.08708632654541196
158	0x3fb42a93c2422a47	0.0787746762527287
159	0xbfb291ac064ec960	-0.07253527788160374
160	0xbfaa90e3435c8bb5	-0.051886655781593495
161	0x3f47c09c2cf5340b	0.000724865205407378
162	0x3fafaf58258d799a	0.06188464601904116
163	0xbfaac8415c3e8087	-0.052309076795837454
164	0x3f8200b7d9b1fe7d	0.008790432292016032
165	0xbfb6160a65707931	-0.08627381302401173
166	0xbfb92461d27a2ec0	-0.09821139706235282
167	0x3fb399e772e6a437	0.07656714015196618
168	0x3f7e98f283f36aab	0.0074700806864835085
169	0xbfb56066d0c3be2c	-0.08350222203056806
170	0xbfaa66c8e07e0e6b	-0.051565434841020906
171	0xbfa563ee395120af	-0.04177803468388796
172	0x3f80367b6a23a1d9	0.00791641633664224
173	0xbf9d746f2ee466f5	-0.02876447414119006
174	0xbfad2ed52d48df35	-0.056997930314933866
175	0xbfb47a3d07928401	-0.079990209912026
176	0xbf92441ba4b014a3	-0.01783793633150722
177	0xbfb34d97aff3c53c	-0.07540271802624415
178	0x3fa252cf07bdbddc	0.03578803033348851
179	0xbfa9cf8a6ef616a9	-0.050411535306051754
180	0xbfa4763f444333bd	-0.03996465404779979
181	0xbfa7191adf4da1b0	-0.04511341071958286
182	0xbf8c8e799d8aab90	-0.013943624611177957
183	0x3fa10a5cbddede03	0.03328218286281628
184	0x3f6044de92886103	0.0019859645001468764
185	0x3fb958dff8f76e06	0.09901237324032061
186	0xbfba3fa4b578fab7	-0.10253362112505725
187	0x3fb87f41fe2ee77c	0.09569179969449054
188	0x3f9bfdac4e2d4fb7	0.027334873458428634
189	0xbf9507a17a7bfbac	-0.020536921597336708
190	0xbfb3a86f60000000	-0.07678886502981186
191	0x3fb5075780000000	0.08214327692985535
192	0x3fb187fe40000000	0.06848134100437164
193	0xbf9af1e080000000	-0.026313312351703644
194	0x3fb4ae1f00000000	0.08078187704086304
195	0x3f9ff1f100000000	0.031196370720863342
196	0x3fa15e3800000000	0.03392195701599121
197	0x3f9e787a00000000	0.02975645661354065
198	0x3f7ad97a00000000	0.006555058062076569
199	0xbfae4d8ce0000000	-0.05918541178107262
200	0xbfb3523e40000000	-0.07547368109226227
201	0x3fb0116a80000000	0.06276574730873108
202	0xbfb96ad100000000	-0.09928613901138306
203	0x3faa4af400000000	0.0513530969619751
204	0x3fb5420a80000000	0.08303895592689514
205	0xbfa56ec0a0000000	-0.04186059907078743
206	0x3f80507000000000	0.007965922355651855
207	0xbfab174180000000	-0.052911803126335144
208	0xbfb6176140000000	-0.0862942487001419
209	0xbf93143600000000	-0.018631786108016968
210	0xbfb0fdf720000000	-0.06637520343065262
211	0xbfb3135160000000	-0.0745135173201561
212	0x3fa1c3e000000000	0.034697532653808594
213	0xbf91bf8680000000	-0.017332173883914948
214	0x3fba20e1c0000000	0.10206423699855804
215	0xbfa11c6c40000000	-0.03341997414827347
216	0xbfaf8c4880000000	-0.06161715090274811
217	0x3f9ccba500000000	0.02812059223651886
218	0xbfaeb718a0000000	-0.05999066308140755
219	0xbfadfd96a0000000	-0.0585753507912159
220	0xbfa3ac9500000000	-0.03842607140541077
221	0xbfb2720780000000	-0.07205244898796082
222	0x3f6779f800000000	0.0028657764196395874
223	0xbfb066a740000000	-0.06406636536121368
224	0x3faf74fa00000000	0.061439335346221924
225	0xbf81759c00000000	-0.008525103330612183
226	0x3fb2d6ac40000000	0.07358814775943756
227	0x3fa0c83a00000000	0.032777607440948486
228	0x3faa0e7f00000000	0.05089184641838074
229	0x3fa6e46880000000	0.044711366295814514
230	0xbfb7cadd80000000	-0.09293922781944275
231	0x3fb5933a00000000	0.08427774906158447
232	0x3faef39000000000	0.06045198440551758
233	0x3f82ccdc00000000	0.009179800748825073
234	0x3fb89d5bc0000000	0.09615109860897064
235	0x3fb3df1bc0000000	0.07762311398983002
236	0xbf8c738e00000000	-0.0138922780752182
237	0x3fad016a80000000	0.05665142834186554
238	0xbfa656ad40000000	-0.04363004118204117
239	0xbfb0d08fa0000000	-0.06568238884210587
240	0x3fab009a80000000	0.0527389794588089
241	0x3fab311100000000	0.05310872197151184
242	0xbfa5ff7a00000000	-0.04296475648880005
243	0x3fa1bd5600000000	0.03464764356613159
244	0xbf9dda7a00000000	-0.0291537344455719
245	0x3fb198b580000000	0.06873640418052673
246	0xbf9c48ed80000000	-0.02762194722890854
247	0x3fa48a8f00000000	0.04011961817741394
248	0xbfb05f5380000000	-0.06395456194877625
249	0xbf821bbc00000000	-0.00884196162223816
250	0xbf80077700000000	-0.007826738059520721
251	0x3fa06ead00000000	0.03209438920021057
252	0x3fb1f13640000000	0.07008685171604156
253	0xbfaaf90ea0000000	-0.05268140509724617
254	0xbfb278c9c0000000	-0.07215557992458344
255	0xbfb9b1aca0000000	-0.10036734491586685

linear.bias f8 [128]
0	0x3fb1555ece3c50c0	0.06770889792489054
1	0xbfb0a975b0a0782d	-0.0650857502191406
2	0xbf885c5800000000	-0.01189488172531128
3	0x3fa039c8e917a58c	0.031690863088282034
4	0xbf350a6000000000	-0.0003210529685020447
5	0xbf9d498117f268c5	-0.028600709044078316
6	0xbfae060828246138	-0.058639769458923074
7	0x3fb0ad901e3797e6	0.06514836061214133
8	0xbfb663f520000000	-0.08746273070573807
9	0x3f95eb6eaeaa3ae7	0.021405915651992038
10	0xbf95189edd1e0ebc	-0.020601732488570987
11	0x3fb85dbf982055d8	0.09518048728963124
12	0x3fa603f179b5e4e4	0.04299883471225899
13	0xbfae60ac0c294d85	-0.05933129929021689
14	0x3f9a5e4778f62c7e	0.025750271566306264
15	0xbfb2c9e970ea6405	-0.07339343077400436
16	0xbfb9340808b9f3fe	-0.0984501859001767
17	0xbfa06e4daa4285ef	-0.0320915479981173
18	0x3fb6fc7b40000000	0.08979006111621857
19	0xbfb73746f11dd45b	-0.09068721186288668
20	0xbfb3881e89e58121	-0.07629576555837449
21	0xbfa8be0658171c95	-0.04832477402993011
22	0x3f83a36ca07945ce	0.009589050910252885
23	0xbfadc90bc5f0b286	-0.0581744841696024
24	0xbfa596274e589629	-0.04216120559094023
25	0x3fb864aac0000000	0.0952860563993454
26	0xbfb10b69cd648ee5	-0.066580402989128
27	0xbfa6b59adf2cbd96	-0.04435428594876638
28	0xbf8c7ad938e78018	-0.013906189965325708
29	0xbfb8928100000000	-0.09598547220230103
30	0x3fb10897c124bab6	0.06653736558358045
31	0x3f9a6e87af3732d2	0.02581226355487127
32	0xbfa67d2225e5add0	-0.043923442007180236
33	0xbfa9075000407932	-0.04888391497682888
34	0xbf8eb4069934911d	-0.01499180941625205
35	0xbf9c3a0c80000000	-0.027565188705921173
36	0xbfb8554520000000	-0.0950511172413826
37	0x3f7621552792ada7	0.005402882227979167
38	0x3f8009c9fa727612	0.007831170993365642
39	0x3f9a8b15cd1316b3	0.025921192781217694
40	0x3fb8f74cf297b96f	0.09752350733444869
41	0xbfaec7e100000000	-0.06011870503425598
42	0xbfb6131351d7e4c0	-0.08622856853607441
43	0xbf8cb8e0348fe4b4	-0.014024497608249177
44	0x3fadd0b5b7623a17	0.058232954631524496
45	0xbf6ab3ba84ad1b24	-0.0032595293936624904
46	0x3f6050024c3bed9e	0.001991276252622589
47	0x3fb1323cd9f2a667	0.0671728164767501
48	0x3fa8370e4e1cd3ec	0.047295043025236655
49	0xbfb5221140000000	-0.08255107700824738
50	0x3fb7cada2f24b995	0.09293903017962742
51	0xbf9a6caa01917c31	-0.025805145593377602
52	0xbf91ebed2ebe2996	-0.017501550653415153
53	0xbf98fedf3ee22cee	-0.02440975972471631
54	0xbfaaf3e7a0000000	-0.0526420958340168
55	0xbfb3fb81c0000000	-0.0780564397573471
56	0xbfa6fa0ba6c3e46f	-0.0448764458723837
57	0xbf9fc865122a4990	-0.031037883027758506
58	0x3fa26a4600000000	0.03596705198287964
59	0x3faf04c89fc04c43	0.06058337164008567
60	0x3fb5c5388bce6775	0.08504060185660285
61	0xbfacb55a987e4c4d	-0.056071120371733764
62	0x3f7a7ead4d72bb05	0.00646846481610797
63	0x3fa663a387fd1b69	0.04372893366831116
64	0xbf7ded10178d6e86	-0.00730615888536657
65	0x3f9ced48708b29f1	0.028248912686459297
66	0xbf8f36468394b606	-0.015240240946321936
67	0xbfa23863b735bffa	-0.035586467852112905
68	0x3f9fe50900000000	0.03114713728427887
69	0xbfb622f1e0928317	-0.086470715834832
70	0xbfb95a0200000000	-0.09902966022491455
71	0x3fa1ca1880000000	0.034744992852211
72	0xbfa35dce00000000	-0.037825047969818115
73	0xbf7880f200000000	-0.005982346832752228
74	0xbfb4e88fdc50a0cd	-0.08167361382277534
75	0xbfa96f1ea0000000	-0.04967590048909187
76	0xbfb484faf938d82d	-0.08015411934397383
77	0x3fb6fe5c68597462	0.08981874034493978
78	0x3fa93eefa7589d19	0.04930828969764373
79	0x3fb879c8270a94c0	0.0956082434955361
80	0x3fad0db280000000	0.056745126843452454
81	0xbf93ec52fee6504a	-0.019456192787018524
82	0x3fb8fe31c0000000	0.09762869775295258
83	0x3f92f8c182b243c2	0.018527053453514027
84	0x3fa13e2093335a92	0.033677118271659215
85	0xbfa516e58f8c564c	-0.04119031312272323
86	0xbfb34cd3c0000000	-0.07539103925228119
87	0xbfad1f48255f687e	-0.056879286348434185
88	0xbfade863dbb53cf3	-0.0584136205385394
89	0x3f790cb9f97dfe24	0.00611565252609084
90	0xbf911c43dcd229f7	-0.016709385254708633
91	0x3fb070e6fb704f3a	0.06422275198593477
92	0xbfb146a5ec8e0a4d	-0.06748425507797969
93	0xbfb3b6f73f24809c	-0.0770105866581638
94	0x3fb299738e8d8987	0.07265398245139042
95	0xbf8cbc1100000000	-0.014030583202838898
96	0x3fb133847c95127b	0.06719234506187803
97	0xbfafbf00bef52fb3	-0.06200411158587773
98	0x3f91cac0f362068a	0.0173750065373555
99	0xbf71028bab7a6214	-0.004152818284318478
100	0x3fb3dbcb4c3e756f	0.0775725422995117
101	0x3f7d452747c5eebf	0.007146027983590818
102	0x3f8fa844222ff9ce	0.015457660954777543
103	0xbfa2dc0edd80e016	-0.03683515981578027
104	0x3fb951346070a9fc	0.09889533380979992
105	0x3f95da65b12e1512	0.021340931834420714
106	0x3f982ffd00000000	0.02362056076526642
107	0xbfa11b5897d8563c	-0.033411758933806074
108	0x3fb80b0b64d59264	0.09391852580808685
109	0xbfa92f6ab2aabed4	-0.04918988638871516
110	0x3fb04f76e59c2aac	0.06371253114427117
111	0xbfb2c3248f88c95e	-0.07329014305358814
112	0x3fb735b32b5d65f3	0.09066314514839018
113	0x3fb6494cbdbc3c1c	0.08705596573075564
114	0x3fa415667421875f	0.03922577064146426
115	0xbf512decb57856b6	-0.0010485469446214596
116	0x3fb24a09e45e624f	0.0714422400036565
117	0x3f88072700000000	0.011732392013072968
118	0x3fb86cb6b9288ac3	0.09540884037464097
119	0xbfb9089c53572e50	-0.09778763804131896
120	0xbfad8eb55877c5db	-0.05772940354280439
121	0xbfa0c2e641f84410	-0.032736964753105835
122	0xbfb5c58800000000	-0.08504533767700195
123	0xbfa4c1f5c696c60b	-0.040542297832313855
124	0xbf9d961aafec3ca7	-0.028892914760089507
125	0xbf9602adbffa9c8a	-0.021494593470063474
126	0x3fb87df10dfebe14	0.09567171661068868
127	0x3fae499280000000	0.05915506184101105

linear2.weight f8 [64, 128]
0	0x3fac84f6ec196aa9	0.055701938935006474
1	0xbfa9c5fd01f7b1bc	-0.050338655939273974
2	0xbfb46e4b80000000	-0.07980796694755554
3	0xbf9150f4a3005fff	-0.01691038365251529
4	0x3f89e5a900000000	0.012645073235034943
5	0xbfa33e0debe456bc	-0.03758281235256564
6	0x3fb1a16f16ab8155	0.0688695364328898
7	0xbf37d76bad0ac3ea	-0.00036379221732390935
8	0xbf95cb7a80000000	-0.02128402143716812
9	0x3fb0689e9bb8da16	0.0640963678532461
10	0x3f760b562070f813	0.00538190501452897
11	0x3f9dd58dc68e12d1	0.029134955638727093
12	0xbfa2db03825f6bbe	-0.03682719198669514
13	0xbfb1206d64dff21d	-0.06690105164302236
14	0xbfb450aa69ce643e	-0.07935586054954144
15	0x3fb24b2f03c4fd28	0.07145971147564423
16	0x3f8495a62aafc322	0.010051057985010884
17	0xbfa58e9193de5fee	-0.04210333757436034
18	0x3fa14937c0000000	0.033761732280254364
19	0x3f934c532040fb13	0.018845843165986653
20	0xbfa6cca175bc7111	-0.04452995836456542
21	0x3fb4c656d5080134	0.08115141583403301
22	0xbfaf87c686d2d97c	-0.06158275981708791
23	0xbfb0e1a7f0d43f7c	-0.06594323758713289
24	0xbf9875cbee7bf7fe	-0.023886858397410997
25	0x3fb06a9160000000	0.06412609666585922
26	0xbfab37f1e5b3aa29	-0.053161200799724924
27	0x3f9012842100d7a9	0.015695633425103193
28	0x3f953a936acc89dd	0.02073126162862048
29	0xbf8528b400000000	-0.010331541299819946
30	0x3fafb614550a6181	0.061936030751158284
31	0xbfb23f9452611b7d	-0.07128264437879568
32	0x3f6f0e7c636d4c03	0.0037910870991395575
33	0xbfa261c8a9d77bb0	-0.03590228150618857
34	0x3f7181104c8984a6	0.004273475330223741
35	0xbf8658b300000000	-0.01091136783361435
36	0x3f9c9a2200000000	0.02793172001838684
37	0x3fa556c779f44b20	0.041677697789188395
38	0x3f944d697ac71999	0.019826553457983207
39	0xbfb7ba097cd32038	-0.09268245027044564
40	0xbf9532af3b47bb21	-0.020701158517051902
41	0xbfb0f386a0000000	-0.06621591001749039
42	0xbf96d55f9db5d414	-0.022298330307837302
43	0xbf82cf221d652177	-0.009184137842240798
44	0x3f91252cc61e09df	0.016743373481867493
45	0x3fb3bff55abf67fa	0.07714780297774829
46	0xbfa93718f95adfff	-0.04924848598369635
47	0x3f736a869eb07e8b	0.004740262850674202
48	0x3fb3e55f3daaaa10	0.07771868949445371
49	0x3fabafd540000000	0.054075874388217926
50	0xbfa4cd6e00000000	-0.040629804134368896
51	0x3f631e81b1840f66	0.0023338826250682175
52	0x3fa462ccdf0497d0	0.03981628630053502
53	0x3f8905fc64ec99d8	0.012218448476755947
54	0x3fb66178a0000000	0.08742479234933853
55	0x3fa58335c0000000	0.04201667755842209
56	0x3f997d40f05deab2	0.024891867323712354
57	0x3f8cfbfc70e29f9f	0.014152500338539485
58	0xbfa57032c0000000	-0.041871629655361176
59	0x3fb1c09869437db4	0.06934502191460618
60	0x3f79657ab4f652a7	0.006200293849720018
61	0xbfaa535069135db4	-0.05141688616430021
62	0x3fad1608b90195bb	0.05680873163582186
63	0xbfb067abbbe4b06c	-0.06408189141501602
64	0xbfa1f3d8a5e7a066	-0.03506352448658916
65	0xbfb0d2fbd5bd4057	-0.0657193562340138
66	0xbfa1955f35034a5c	-0.03434274217729147
67	0xbfb10f966940165d	-0.0666440970381585
68	0xbfa0702000000000	-0.032105445861816406
69	0xbf8d9c3c52006075	-0.014458152058111498
70	0xbfb05c3180000000	-0.06390675902366638
71	0x3fa7cb41c0000000	0.04647260159254074
72	0xbf99c27c80000000	-0.025155968964099884
73	0xbfad2f95e0000000	-0.057003673166036606
74	0xbfb52366932dfde6	-0.0825714215588885
75	0xbf86107500000000	-0.01077357679605484
76	0x3f8d8f09edf27606	0.014432981084890006
77	0x3fa08609fe35583a	0.032272636681839065
78	0xbfb7116921d78bdd	-0.09010941578121341
79	0x3fab756a3f09cb0e	0.053630180544948045
80	0xbfb30b1d40000000	-0.07438834011554718
81	0xbfa4166a46fbd83f	-0.03923351398945884
82	0xbfb01ba940000000	-0.06292207539081573
83	0xbf94964ea9a0a58b	-0.020104626754038384
84	0x3f649769602616ae	0.002513604938203815
85	0xbfa0f2d5e69bcda8	-0.03310268821760626
86	0xbf5d31a000000000	-0.001781851053237915
87	0xbfa34dc4ad4a36b5	-0.0377026998076934
88	0xbf92a48bc12d6b1c	-0.01820581785737395
89	0x3f96b41c67602a72	0.022171443757580574
90	0x3fac1e2b7f84ed00	0.05491767818099369
91	0xbf7237fa5fe5c7d7	-0.004447916055470422
92	0xbf63781dd7810ad9	-0.0023766119811921946
93	0xbfa4543daebb6b35	-0.03970520742378484
94	0xbfae5bfd53fa93f4	-0.059295574666329204
95	0x3fb64f42a0000000	0.08714691549539566
96	0x3fa0369f0c311f5e	0.031666727293269345
97	0x3fae3f8c1fbdff66	0.05907857787587893
98	0xbfa7f650cf80fc98	-0.04680111439710649
99	0xbfb4bac54fbd95da	-0.08097489544669348
100	0x3fb0aacf341ab56f	0.06510634443357842
101	0xbfb5fc562c0296c2	-0.0858816010901036
102	0xbfb682be36a91190	-0.08793248018725408
103	0x3f64a889d2bac10a	0.002521771608222538
104	0xbfb58c4f8900d168	-0.0841722211342294
105	0xbfb3ee41f0911009	-0.07785427211007358
106	0x3fac73b2c0000000	0.05557020753622055
107	0xbfb25ca012058a6f	-0.07172584953290494
108	0x3f97a560c34e57b7	0.023091804428609666
109	0xbf9041847c1cd934	-0.015874929499852544
110	0xbfb0d9127dd518d4	-0.06581225940780949
111	0x3fb3a63e2aa61225	0.07675541440227869
112	0xbfa314dc0be793c5	-0.03726852078742796
113	0xbfb5c54dc31bb4ab	-0.08504186643013394
114	0xbfaef730315f394e	-0.06047964670834692
115	0xbfa1cc30f5d9ea55	-0.03476098061669989
116	0xbfb138be7834434b	-0.06727209505721736
117	0x3f76fa3c00000000	0.00560973584651947
118	0x3fb0fb89230717b7	0.06633813004654497
119	0x3f726623088f14bb	0.0044919365399824175
120	0x3f7e19c371f63ec3	0.007348788697882194
121	0xbfa4c898e673fa0a	-0.040592935687517054
122	0xbf84fccd00000000	-0.01024780422449112
123	0xbfb0b1e261d58238	-0.06521429909253917
124	0x3f9a751ea415103a	0.02583740116575959
125	0xbfa80497adc68a51	-0.04691003795894189
126	0xbf9fc5b8bc21dfe8	-0.031027685625730245
127	0x3f76ca5a00000000	0.005564071238040924
128	0x3f91e96fb27fa8fe	0.017492051381773337
129	0x3f900a2959ccb16d	0.015663763147288835
130	0xbfb5094bc0000000	-0.08217309415340424
131	0x3fa1daed0c5fd826	0.0348733975987872
132	0xbf82b39e00000000	-0.009131655097007751
133	0x3fa5dd7c344185d6	0.04270542276277538
134	0xbf8e08a02db4ea0d	-0.014664889712197949
135	0xbfb12a8fa7e515df	-0.06705568169589736
136	0x3f8b6c3d00000000	0.013390041887760162
137	0xbfb3f511bcc26c62	-0.07795821054826171
138	0x3fb025829da85e68	0.06307236050667486
139	0x3fa473cacd605070	0.03994592434915567
140	0x3fa75e81ed888978	0.04564291023804662
141	0x3fa100e2f0e98b93	0.033209888370740924
142	0x3f77625426b1ee23	0.005709007945479824
143	0xbfaeb6cea8ffa80f	-0.05998845875713254
144	0xbfa927deb65e130a	-0.04913230873265746
145	0x3f8c32ec168dfb79	0.01376900142508729
146	0x3f93ae3300000000	0.019219204783439636
147	0xbf0801c078b543cc	-4.57894194264629e-05
148	0x3fb41fb65a4affba	0.07860889152925568
149	0x3faab1bf8cb74720	0.052137361457097464
150	0xbfb84e583da44a72	-0.09494544510770611
151	0x3f810d1dad310eb6	0.00832579788960373
152	0xbf9bbf031d349b5c	-0.02709584108120154
153	0xbf7f560200000000	-0.007650382816791534
154	0x3fa898b79a3ff7f9	0.04804013975079608
155	0x3fa5803a4e2f9a63	0.04199392513674096
156	0x3fb6f9ece0cc6fe0	0.08975105751272805
157	0xbfb63a9fc0000000	-0.08683203160762787
158	0xbfa0df2f8f1e1e7b	-0.03295277235070856
159	0xbf9546db67f62b91	-0.020778110714256896
160	0x3fb21bbc62c01f5b	0.07073571597004273
161	0xbf5745e3549c8d4d	-0.0014204711937474024
162	0xbfb3c5f106b10667	-0.07723909772269054
163	0x3f8a43e200000000	0.012824788689613342
164	0xbfb23d0bc0000000	-0.07124398648738861
165	0x3fb7b9c58697b58b	0.09267839942886817
166	0xbfb2869525e192b5	-0.07236606764633786
167	0x3fb279797b7a055f	0.07216605438772693
168	0x3fb387a80dd17ed9	0.07628870332109318
169	0x3fa1cdd300000000	0.034773439168930054
170	0xbfa13de93efd9d1d	-0.033675469340602705
171	0xbfa585335ee68196	-0.042031865438960356
172	0x3fb019ef38dd2412	0.06289572847630634
173	0x3f8d72c7c75b46ed	0.014379082461718673
174	0x3f89f85a4432be84	0.012680726248020642
175	0x3fb258e9bf1f6d8d	0.07166920581896914
176	0xbfb094b71bdbc651	-0.06476921491755518
177	0xbfae6e1180000000	-0.059433504939079285
178	0xbf9ceb3ff793f444	-0.028241157041510215
179	0x3f7d38045ca8916f	0.007133500136238132
180	0x3f8775972a7b3aa7	0.011454754814079605
181	0xbfb56da1b32eb623	-0.08370409607479039
182	0xbfa6a8f580000000	-0.04425780475139618
183	0x3f88a3d000000000	0.012031197547912598
184	0xbf980f3354eb33ac	-0.023495485361127486
185	0xbfaee4202ae249d8	-0.060334210619789
186	0xbf9ba3f640000000	-0.02699265256524086
187	0x3f8ceaad14ef5620	0.014119484139807403
188	0xbfb38c47407caea3	-0.07635922741308802
189	0x3f8b69bf77d6c8e2	0.013385291905113342
190	0xbfa98023bc6cd1ff	-0.049805752516849815
191	0xbfa0f01909db7394	-0.03308180089309257
192	0x3fb492f131a2e8c1	0.08036715947938246
193	0xbfb472c761fcfaab	-0.07987638609209095
194	0x3f927f379fb3c8ab	0.01806342041249624
195	0xbf98b35cd4914d49	-0.02412171409043865
196	0x3f97f6e400000000	0.023402750492095947
197	0xbf90778a7c15a855	-0.016081012557528435
198	0x3f86646f00000000	0.010933749377727509
199	0xbfa1ca2b00000000	-0.03474554419517517
200	0xbfb6198fe0000000	-0.08632754534482956
201	0x3f91831700000000	0.017101630568504333
202	0xbfa1dedcd39370d5	-0.03490343172754399
203	0xbf816c8200000000	-0.00850774347782135
204	0x3facf334b620f1aa	0.05654301379442768
205	0x3f8d057792aeb16e	0.014170583881274647
206	0xbfa3ae89ac567a6c	-0.038440992629365706
207	0x3fac6bee0d8508db	0.05551093974146833
208	0x3f81ddbe00000000	0.008723720908164978
209	0x3fb50bfcc0ff16b8	0.08221416198565634
210	0x3fa2048cc0000000	0.03519096225500107
211	0xbfa86aff590d8d81	-0.04769132577964808
212	0x3fb13d62a5eb5007	0.06734291601907226
213	0x3faf9cf734e6bd2c	0.06174442787902942
214	0x3f6953e000000000	0.003091752529144287
215	0x3f967fc8cecbb4a8	0.021971833822068604
216	0x3fb1480e40a64d9b	0.06750573232993988
217	0xbf915e3b16887a66	-0.01696102452307926
218	0xbfa0ab6d9c38a64c	-0.03255789310453547
219	0x3fa96a2ec5a84685	0.04963823473748356
220	0xbf827009fb007bce	-0.009002759907216797
221	0x3fa06dcccdc96cdb	0.0320877076344119
222	0xbfa908160e0b3cb6	-0.0488898174422671
223	0xbfb4611840000000	-0.0796065479516983
224	0xbfa9209f9ccc1a8c	-0.049077022447865465
225	0x3fb0855669a9b3ad	0.06453456954632371
226	0x3f8b6b5980c3f7a8	0.013388346902953277
227	0x3fb5ace66bc19f2b	0.08466949587602517
228	0x3f95652ecd697ba3	0.020893794333797577
229	0x3f71b1e27ae49161	0.004320034682937597
230	0x3faff752e92536d6	0.06243380638134759
231	0x3fb1dfd15af8abc2	0.06982143851261838
232	0x3f8816918e5d4295	0.011761796147454798
233	0xbfae77f6805a79ca	-0.05950899426283092
234	0xbfb3bc4740000000	-0.07709164917469025
235	0xbfaf5b5e38f6cf45	-0.06124395795214225
236	0x3fa6c419dbe3ab34	0.04446488198467194
237	0xbfb23a67248269c9	-0.07120365754455017
238	0x3fb375e7ae93cb95	0.0760178376402066
239	0x3fb005286765cdb0	0.06257870220524953
240	0xbf92d4a6552e910b	-0.01838931937130987
241	0xbfb4f6fad2a28384	-0.0818936123128094
242	0x3faa84444ed276be	0.05179036581215034
243	0x3f9b68a613d58935	0.026766390762881193
244	0xbfa32537b22bc4b1	-0.03739332246721839
245	0xbf9c8c8480000000	-0.027879782021045685
246	0xbfb02ad0b054ee1c	-0.06315330796217505
247	0x3f9ac2841556bd7a	0.026132644464892142
248	0xbf9cc70d13144278	-0.028103069581506962
249	0x3f9471114e04dd08	0.01996256865205928
250	0xbfa2f57040000000	-0.03702879697084427
251	0xbfa9752030f49988	-0.049721723533639184
252	0x3f9ffb616f530892	0.031232378406237667
253	0xbfa164f0b3603db6	-0.03397323789260602
254	0x3f9ec20cb3691b40	0.03003711552653532
255	0xbfa1df03e0000000	-0.034904595464468

linear2.bias f8 [64]
0	0xbfa25db2ddc9f578	-0.03587111432441764
1	0x3f7c24ca5e61eac8	0.006871023657476889
2	0x3f97fa394caa1a3f	0.023415465645053365
3	0xbf931cdd29a89fb4	-0.01866479460491606
4	0xbfb253e7ed27dd0f	-0.07159280338224881
5	0xbfb358ab51c46f11	-0.07557173486969428
6	0x3f9a5569d54e78f0	0.025716451305577814
7	0xbfac8dcd9e3cc9dd	-0.05576937252626
8	0xbfaf5dcb2a0f2b77	-0.06126246345919289
9	0xbfa25fef1d8b492b	-0.035888168674903596
10	0x3fa3f143f03f8dbb	0.03895008380620931
11	0xbfb4913e6689ddea	-0.0803412437761534
12	0xbfa4bf9d3c2af8b4	-0.0405244003245441
13	0xbf9ef33eb629d835	-0.03022478091084953
14	0xbfa82f9dfd46a2eb	-0.047238289992781755
15	0xbfb43a88f3c373b5	-0.0790181727529234
16	0x3fa65ae44a694087	0.043662199099913805
17	0x3f8316acf8bdb4d0	0.009320594159101608
18	0xbfb43629fda80f10	-0.07895147745881226
19	0xbf8129c6e60a5fe7	-0.008380464453963966
20	0xbf98a3e8c4c70527	-0.024062764177647324
21	0x3fa91411461f01c7	0.048981227693278444
22	0x3f987a8a8711217a	0.02390495728858031
23	0xbf8e28590ab65c79	-0.014725394858756001
24	0x3fa52a55548f544f	0.04133860261178112
25	0xbfb52e424b1c80f5	-0.08273710569165245
26	0xbf9a881fa9950649	-0.025909895635100964
27	0x3fb58a8c8bb5384d	0.08414534006917158
28	0xbfb29eb5a52fe6eb	-0.07273421557320219
29	0xbf88062eebc5d47d	-0.011730543680395162
30	0xbfa18723dea66e99	-0.034234162262888286
31	0xbf8c1a594fb7e587	-0.01372213148623548
32	0x3f8ad3c3449cb461	0.01309921792161556
33	0x3fb45a997276274b	0.07950743717642898
34	0xbf7a6f12f7a508b2	-0.006453584758050622
35	0x3fafe25938b12069	0.06227377717056088
36	0x3f9939684fb6963f	0.02463305460482545
37	0xbfb4c01a8ce8b2ad	-0.08105627002869183
38	0x3fa41964f3928d9c	0.039256243451087885
39	0xbf55685ae50af439	-0.0013066184657610903
40	0x3f8b258451456e40	0.013255151491356476
41	0x3f949fb6ad170cad	0.020140508951737846
42	0x3fad960852f04c79	0.0577852822535982
43	0xbfa182f2c52ff3d3	-0.034202181406704966
44	0x3fa556667eaae978	0.04167480751262337
45	0x3fb2679dc8ba60b2	0.07189355993830551
46	0x3f8a0ba8ce3515f4	0.012717551033925446
47	0x3fb3f9760eacfb15	0.07802522524160012
48	0xbfb462ee6926934c	-0.07963457171588323
49	0xbfb07ae245e74319	-0.0643750591909903
50	0x3fb3a9d924d36058	0.0768104281336276
51	0x3f97d996c2f3e599	0.023290973328561646
52	0xbfa2bce7a81b759f	-0.03659748007860774
53	0xbfaa3cfebeeb25c7	-0.051246605687605355
54	0xbfa88e382afabb38	-0.04796004795695413
55	0x3f9c48519a3dff7a	0.027619624175258185
56	0x3f9d2655306781f3	0.028466540412297858
57	0xbf9b08bc60c59a38	-0.02640051212929448
58	0xbfabc34d91aa1234	-0.05422441866997865
59	0x3fafc64b9ef52259	0.06205974879646154
60	0x3f884df0bc833818	0.011867409470507836
61	0xbfa7b18a874128cb	-0.04627640629822024
62	0x3fb2ff7bb34e67ff	0.07421086433024014
63	0x3fae4a8946e193b1	0.05916241636513265

linear3.weight f8 [3, 64]
0	0xbfabb339eba1bdd9	-0.05410176278462204
1	0x3fb1e962f0be447b	0.06996744515915225
2	0x3fc066539cf1f7a7	0.12812276042307966
3	0xbf8480f70ea7f9bf	-0.010011606344957678
4	0xbfa7c177ec595093	-0.04639792213552698
5	0xbfafcc4878252caf	-0.06210543123833056
6	0x3facf61457c1f1a8	0.05656493731746376
7	0x3f9ad3a9fbebf10a	0.026198059083058424
8	0xbfcf92fb66feef4f	-0.24667303589910225
9	0x3fc9812f2a060a05	0.19925488998349308
10	0x3fb07d5eb8a3491e	0.06441299445876722
11	0x3fbec87afad02c05	0.1202465879761548
12	0x3f95c6323cd3fd9c	0.021263871157314193
13	0x3fc46b3a69853239	0.15952234413488656
14	0xbfc2e89932b90ad3	-0.14772334076595559
15	0x3fb72851d9c17529	0.0904589802389252
16	0x3f9ddbc0df6079cc	0.029158605226365528
17	0xbfc7b17cca1df920	-0.18510398739813017
18	0x3fa68d5377e3ecad	0.044046982178735795
19	0xbfc49c4dccee7e38	-0.16102001673151434
20	0x3fc01d589a85cc29	0.12589557213831995
21	0x3fb7d33b3773a486	0.09306688407709104
22	0xbfbcc4d6adaa5b8a	-0.1123785184848726
23	0x3fc0a2124fbaaea2	0.12994603055027648
24	0xbfc0304f7cef1e16	-0.12647431946082638
25	0xbfac6588177b5794	-0.05546212469714287
26	0xbfa7ae9d33bc92e9	-0.04625407463598725
27	0xbfaf6d4070866bd9	-0.06138039945218283
28	0xbfaede1beefe751e	-0.06028830807120243
29	0x3fc1cf2c9080804b	0.13913495116958283
30	0xbfc69b41a1d8f1fd	-0.1766130485792842
31	0x3f64cc6c252250d1	0.0025388824661352967
32	0xbfc46f0c3211b9b2	-0.15963890499865624
33	0x3fbdf438a352dc6c	0.117007770418114
34	0x3fb84cba4e297ddf	0.0949207726312049
35	0x3faea0a75d57212f	0.05981944097908564
36	0x3fb2b6ee9159f424	0.07310381935708726
37	0x3fa38b887280b908	0.03817392728557151
38	0xbfb62e969d9f042b	-0.08664838169262683
39	0xbfb9f435df616ebf	-0.10138260558727107
40	0x3fbb037000659410	0.10552120217978733
41	0xbfb669724fae8a96	-0.08754648633343218
42	0x3fc06c2c5db1ed43	0.12830118727638692
43	0xbfbce4afd5687c55	-0.11286448440704196
44	0x3facb3dc3ddbb009	0.056059725333256046
45	0xbfc38c847f839a7b	-0.15272575594208945
46	0x3f728c41d8cbab9b	0.0045282909529572824
47	0xbfc4fc8800a6544a	-0.16395664245343006
48	0xbfbd58ce42a5febf	-0.11463631751211788
49	0x3fa02af1647699c0	0.03157762862547342
50	0x3fbe3aaa37035d6e	0.11808265536398263
51	0xbf9513d5ff850e7d	-0.020583480568588264
52	0x3f86f7e0f31f3a7e	0.011214978618139467
53	0x3fb54c57ce944859	0.0831961516708203
54	0x3fc34cccf939e646	0.1507812706875475
55	0x3fbd0e563adda8b5	0.11350001275210071
56	0xbfb8141eb213febb	-0.09405700538263322
57	0xbfbc5c56d6484abf	-0.1107839844847076
58	0x3fa8a5b0536e51a4	0.04813910501903543
59	0x3f69062e8c45adae	0.0030547055377405296
60	0x3fc40693eea80fa0	0.1564507403674016
61	0xbf4f035216c5007d	-0.0009464407753867612
62	0x3fc2a2ece25f5480	0.14559708646143932
63	0x3fbcdfcae3ae674a	0.11278980311035727
64	0x3fb160b3f13edea3	0.06788181915077955
65	0x3fba29a7a5b054f4	0.10219810290466907
66	0x3fb2223bb9460b5b	0.0708348586395408
67	0xbfbcb6fe9e9233f4	-0.11216727610936045
68	0xbf78e1a24eb25f2f	-0.0060745563634084085
69	0x3fb663efb793f0fe	0.0874624083698485
70	0xbf6b4d8af03db196	-0.003332873691695502
71	0xbf648626f308043c	-0.0025053749780004336
72	0x3fa512c99bb8eaf0	0.041158962496828155
73	0x3fc4ead6aac5d669	0.1634167035914971
74	0xbfb20f2d1218fd29	-0.07054406825863126
75	0x3fb1756e123e245a	0.0681980890787072
76	0xbfc0475772dea40b	-0.12717717274543391
77	0x3fc08f54ea7df38a	0.12937413644604262
78	0xbfac9502643f5f46	-0.05582435106015153
79	0xbf9e8214517b8a17	-0.02979308841066527
80	0x3f82e098e2b95504	0.009217447680536235
81	0x3f99be0164b163b4	0.02513887574272973
82	0xbfac84516d844607	-0.055697006815659526
83	0x3fbb3ccf89464dea	0.10639664746695812
84	0x3fb62d16f2ea466a	0.08662551336808524
85	0xbf56984f8aeda64e	-0.0013790871414251118
86	0x3fc5261fbe534214	0.1652259520838163
87	0x3fb4c6943db21351	0.0811550760864297
88	0x3fba90ca27d722ca	0.10377181503930469
89	0xbf95a7466026ef48	-0.021145915621431116
90	0x3fb75a48775b1b58	0.09122136033975659
91	0xbfbed4fc847a678f	-0.12043741449670463
92	0xbfbaffdaf9cce9fe	-0.10546654318469703
93	0x3f7fe2c69c980ccf	0.007784629656728727
94	0x3f8589df0f42fbdf	0.010516874936341068
95	0xbfb2955b2208f78e	-0.0725914915173844
96	0xbf8afeeffb5ee24b	-0.013181567057345541
97	0x3fb7c2abc919d347	0.09281419429482894
98	0x3fa63d4887910235	0.0434363046156289
99	0xbfb55547555a2cbb	-0.0833324988727097
100	0xbfa9f9fa8ffe46c8	-0.050735311581900755
101	0x3fbe028ad7b5ed73	0.11722629324315452
102	0x3fbcb5cbd72ff1dd	0.11214899066539581
103	0xbfb51cec6b4cf822	-0.082472587772799
104	0x3f9dfc4e9f0ce187	0.029282787759457498
105	0xbfba0c47ea682dd9	-0.10174989197565
106	0x3fb9cb07873c291c	0.10075423289905355
107	0x3fbd47e17247ef83	0.11437806167663038
108	0xbf9e76e6cf1f9711	-0.029750448600586902
109	0x3fac52a95ad2c981	0.05531815751727987
110	0x3fc58d9f004c2a3d	0.1683844329312069
111	0x3fbb22dd30484727	0.10600073269622766
112	0xbf7565ae8c8465a3	-0.005223924476262995
113	0xbfc588196bc87d0c	-0.1682159210476829
114	0x3f82bf3ae1d32415	0.009153804794907608
115	0xbfbf9c4ea264c74b	-0.12347880806626425
116	0x3fa0224012fab255	0.031511308972174724
117	0x3fb2e624d6a99940	0.07382421723159371
118	0x3fa18079a927efe9	0.03418331327335961
119	0x3fb1201d0ab01a92	0.06689626227317039
120	0xbfb95006367febb7	-0.09887732344206666
121	0xbf854bf34deeac2a	-0.010398770156674859
122	0xbf917cf9908a7fee	-0.01707830376346913
123	0x3fb8a2d696f225ab	0.09623471436693502
124	0x3fb7f259aa56470e	0.09354172142618841
125	0xbfb37998ca38820f	-0.07607417046575214
126	0xbf8c0183b5230b57	-0.013674763646468397
127	0xbfc30ba375a77cca	-0.1487926792606003
128	0xbfb286befb6dff76	-0.07236856115741638
129	0x3f907e0da6459a44	0.01610585524886178
130	0xbfb6fa3f3329fae2	-0.08975596427078927
131	0xbfa30f997f31998a	-0.0372283904805953
132	0x3fb66211db17ce29	0.08743392561864795
133	0xbfb27fd3fb815a75	-0.07226300134912285
134	0x3fc06b07b5d07a4e	0.12826629998831368
135	0x3fb44892b89d4405	0.07923237807450796
136	0x3fa2ba9a0042d20c	0.03657990697084665
137	0xbfc307a594cbe083	-0.1486708618683715
138	0x3fa5a333b2eb67c5	0.04226075705601277
139	0xbfba79130d0e502d	-0.10340994900462937
140	0xbf9e62aea5dedda2	-0.029673317789016836
141	0xbf8af50740325ba1	-0.013162666937473423
142	0x3fc23bc26bc8e26f	0.14244871390271238
143	0xbfa1e75a8ac52510	-0.03496821350069912
144	0x3f85169b5e85b78c	0.010297025510876322
145	0x3f88381bd87cc894	0.011825768989727238
146	0x3fa0691375a05922	0.03205166636341718
147	0x3fb60a5e1096ae37	0.08609569458956733
148	0xbfa9f8a54febbd91	-0.05072514153095676
149	0xbfb8ecd2f947ee08	-0.09736364923440288
150	0x3fc4f84cf881ebcc	0.16382753500133018
151	0xbfb6654e5d2770a9	-0.08748330854672538
152	0x3fc07e8b49038c9f	0.12886181893472767
153	0x3fc90a0d51e3b3ec	0.19561926363476745
154	0x3fbc98c422832e41	0.111706026483426
155	0x3fbc7762bcbd9d62	0.11119668109824013
156	0x3fc0d88f18a61240	0.13160885528135857
157	0x3fb60daeb5357e56	0.08614627765700197
158	0x3fa926a0c3930948	0.049122833131621635
159	0x3fb185ad00dfe50a	0.06844598075248967
160	0xbfb8f089dc70b06a	-0.09742032653656599
161	0xbfd18b961b1b2bcc	-0.27414467475017257
162	0xbfa030dda3e3fdba	-0.031622816330123496
163	0x3fb95df166ae9c53	0.09908970600973648
164	0x3fa555106d4a5e76	0.04166461309540363
165	0xbfc0192d487b24d8	-0.12576833762276496
166	0x3fc314ed0337895b	0.14907610566212778
167	0x3fc02c9fc557335b	0.12636181960842915
168	0x3f6fe3bafae66f3a	0.0038927699999486117
169	0x3fb108baba16b872	0.06653945010359211
170	0x3f87b939eaffe67e	0.011583759769553167
171	0x3fb9457863208cc2	0.09871628208252317
172	0x3fb9adabd4da0d9e	0.10030626246048377
173	0x3fbbde12919dd049	0.10885730795945493
174	0xbfbdffe65e250f4d	-0.117185972199022
175	0x3fbede7591046188	0.12058195867974153
176	0xbfb178ef1491bae0	-0.06825155498675484
177	0x3fba5fa22555ad61	0.10302174960604794
178	0xbfc7a35f099ee10b	-0.18467319459683326
179	0xbf93de0476e7d446	-0.01940161681882937
180	0xbfbfc38767e140af	-0.12407728468065458
181	0x3fb464d55ac21e50	0.07966359582689475
182	0xbfc5d0d02383e256	-0.17043496832026744
183	0xbfc20bb662c6e193	-0.1409824354466421
184	0x3fb7f50e6893eac3	0.09358301213425606
185	0x3f016c0031023566	3.322959503391613e-05
186	0xbfc8171802ca4462	-0.18820476661906854
187	0xbfbb6607cb545301	-0.10702561105820153
188	0xbfcc6cd163d332f6	-0.22207085966365242
189	0x3fa50e22dccc1820	0.0411234755065808
190	0xbfab8cd99c348f74	-0.05380897552302502
191	0x3f872a5e3d049308	0.011311279523007936

linear3.bias f8 [3]
0	0xbfc1b5d6fcbf93f4	-0.13836181012371151
1	0x3f6dad1180879f83	0.0036225644910138923
2	0x3fb3ac782d7aeae1	0.07685042486529482
