runs/testrun-trial-longerrun-20r-40bs-100ep/0/LocalModel-0-Round8.pt (torch, 167767 bytes, 6 tensors)

linear.weight f8 [128, 95]
0	0xbfb4fe9db62d042a	-0.08201013276722394
1	0x3fb4d6e58515aaf0	0.08140406130921085
2	0xbfa60ace1ce34586	-0.043051186586704523
3	0x3f907556413e0c4c	0.016072604877546845
4	0x3fb9af45cd9509c8	0.10033069867225841
5	0x3fb8af048fa18531	0.09642055994620048
6	0xbed35d84e563fc63	-4.6170494754075245e-06
7	0xbf8301b192fe730d	-0.009280574129485264
8	0x3fb47d1c24ca25ff	0.0800340261286223
9	0xbfa74e3d1847756a	-0.045518788541566504
10	0x3fad110098c25fd6	0.05677034249055139
11	0xbfb3f25e30b989d0	-0.07791699113435091
12	0xbfb1d53b56476b48	-0.06965990883274487
13	0xbf8583bcbe8c3eb8	-0.010505175175722456
14	0x3f97c76365e6badc	0.023221543402253228
15	0x3f98e18ff7dfb505	0.024297952178973698
16	0xbfac403068656fa8	-0.0551772239147959
17	0xbf15bad7331d9fb9	-8.289278482964583e-05
18	0x3fb59771543f5892	0.08434208208868402
19	0x3fb741a07b63aa60	0.090845136761041
20	0xbfa02404e0fe9d44	-0.03152480360523183
21	0xbfad89c8e236411c	-0.057691838849793536
22	0x3fb6c91408906473	0.08900571068842726
23	0xbfac27bdcfa85e9c	-0.05499070320018726
24	0x3f87e4cd969af7cd	0.011666875990496007
25	0x3f90fb302be795b2	0.016583206824994874
26	0xbfafc56b619ac834	-0.062053065933824675
27	0x3f996c3545d572f6	0.024826843631092076
28	0x3f7cca2e8c289779	0.007028753114843294
29	0x3fb103e90ba8f171	0.06646591696421013
30	0xbfac4b33b30b9462	-0.05526124535189393
31	0x3facc3d2ab51a5a0	0.05618151036544394
32	0x3fa97f5b868559f7	0.04979978577710036
33	0xbfb466c6e33b754b	-0.07969325111067353
34	0xbf94efd5ee90798b	-0.020446150480091723
35	0x3fa1e9dcb4fbe976	0.03498735150602077
36	0xbfb4157c073e985f	-0.07845282723300916
37	0xbfb715ca9740f9dc	-0.09017625992507966
38	0x3fb00d800807c6c2	0.06270599552206149
39	0xbfb798d9db17745d	-0.092176071156659
40	0x3fb47666c54fac4d	0.0799316627232411
41	0xbfb59c2f0bbc156a	-0.0844144252442526
42	0xbfb613366e4dc652	-0.08623066132511184
43	0xbf84c8f861bc190f	-0.010148945315006345
44	0xbfb0ac06ef5549b0	-0.06512492507071133
45	0x3fad79e0d9579167	0.057570482760442236
46	0xbf9f5966dcdff654	-0.03061447833169091
47	0x3f95acdf420bbb29	0.02116726723300669
48	0xbfb98a8907f1d667	-0.09977013057672367
49	0x3fa1285cdc40bd95	0.033511068235721066
50	0xbfb90f48480ce61e	-0.09788944014589915
51	0x3fb342816075a244	0.07523354153603018
52	0x3fa6d1a7f22073fd	0.04456829863213583
53	0x3fa756dd9818477d	0.045584606949105023
54	0xbfb4a9f95914b37a	-0.08071859764886638
55	0x3fb6df660a87aa5f	0.08934629208639809
56	0xbfa9570620d1330d	-0.049492064958576255
57	0x3f82a060164ff75e	0.009094954186362688
58	0x3fb1cdf9bb8c5dc8	0.06954918698135437
59	0x3fb8662814e54c77	0.09530878553532483
60	0xbf614075241336ba	-0.0021059310825880225
61	0xbfaeda9ac914f309	-0.060261570974466556
62	0xbf6c4301f2341462	-0.003449920464506693
63	0x3fa33251fc19126d	0.03749328806273842
64	0xbfa47ec824b5ae95	-0.040029768448986015
65	0x3fb5c93eb40e2e00	0.08510200401195078
66	0xbfb5716bd8d2dd02	-0.08376192134425156
67	0x3fa95846445f4481	0.04950160584088171
68	0x3fa73972873f9d91	0.04536016369803087
69	0x3faa9417b0f0cd8a	0.05191110644264103
70	0x3fa20b1ce42fd584	0.03524103436931639
71	0x3fa9c62fb0190e54	0.0503401663268305
72	0xbf85277b7ce264ed	-0.010329212902706131
73	0x3fb0ea85bdf7deb2	0.06607852828880814
74	0xbfb13ec4493e31b7	-0.06736399448545326
75	0x3fb0e1f8ffa01844	0.06594806900838629
76	0xbfa70c640774a9df	-0.04501640883457347
77	0x3fb9f299a73ac7e1	0.10135803539995393
78	0xbfba31f18e122170	-0.10232457846189447
79	0xbf9e42305dcb2336	-0.02954936573476915
80	0xbf99e90b805f4984	-0.02530305834791015
81	0x3fb15bbbf31cf237	0.06780600247743328
82	0x3f7a092e9b4dc617	0.006356412942169174
83	0xbf87f9c94f665d6c	-0.011706898437110445
84	0xbf92b305cecca3a3	-0.01826104235366056
85	0xbfa83f4f88a26111	-0.04735802214526264
86	0xbf30bd6810d6fa4c	-0.00025543013256515835
87	0x3fb1f277db0a2d9b	0.0701060209050212
88	0x3fa2fb78f72b2041	0.037074833080226195
89	0xbf904e004dbeee60	-0.015922550912121358
90	0x3f932835c630b21f	0.018708076688357275
91	0x3fb15e6a77d61ca0	0.06784692216580135
92	0x3fb47c30b5b16adc	0.08001999317040592
93	0x3fa76f474039af63	0.04577086123467102
94	0x3f9c02e596480006	0.027354800507964704
95	0xbfb0039e31b508e3	-0.06255520547441366
96	0x3f8853d593592480	0.011878651198587997
97	0x3fb2a6658f574253	0.07285151242764103
98	0xbfa1b3dd1130b9ce	-0.03457537493555983
99	0xbfb8c535111e768b	-0.09675914447731253
100	0x3fb40e94cd42b2e3	0.07834749232524589
101	0xbfb91e337cca8c13	-0.09811708256397393
102	0xbfb3aff9907e660e	-0.07690391328505816
103	0xbfb74f282af20cbb	-0.0910515885207585
104	0xbfb4f3601d54d7d2	-0.0818386146173389
105	0x3fb80488b365e552	0.09381918315729834
106	0x3fb2e80461fbd2a0	0.073852800294683
107	0xbfb14cc234528a2e	-0.06757749345209937
108	0xbfb3eeff0024e5a5	-0.0778655410148504
109	0xbf7d6987a71abae7	-0.007180719274102221
110	0x3f9a9bb0312adf4c	0.0259845285424654
111	0x3fb8156a8c75351b	0.09407678536554835
112	0x3fb74fafa39281b0	0.09105966323341508
113	0x3fa92f30813a83ee	0.049188152098629576
114	0x3f90ddbc63f2dd7f	0.016470855331787156
115	0xbf8cffdb0509c9f6	-0.014159880725149936
116	0x3fa21f17152843e4	0.03539344914691592
117	0xbfa1fae966ca573b	-0.03511742954030558
118	0xbf9427840ac5eb2a	-0.019681990773715054
119	0x3fb6a8300bd88b2a	0.08850384034353156
120	0xbfb68406c399dcef	-0.08795206332603177
121	0x3fb9c19d3c00557f	0.1006105681884346
122	0x3f93f9cdfc983787	0.01950761656012603
123	0xbfb6f26f6d906430	-0.0896367685785584
124	0xbf9e3e272bff841a	-0.029533969936782346
125	0xbfb1ba3eed88adb2	-0.06924813555877199
126	0xbfb6a1986b81ad3e	-0.08840324997588753
127	0xbf809dda45f005fb	-0.00811357999737349
128	0xbfb31512291cb249	-0.0745402670260741
129	0xbfb3ac955cf281ad	-0.07685216445179917
130	0x3fb58ec5c3c327b7	0.08420978574136383
131	0xbf4d6579aff9d79c	-0.0008971065689837745
132	0xbf9af77c55cc689d	-0.026334707962725735
133	0xbf9db82c971c67eb	-0.029022881243783088
134	0xbfb60589a161e388	-0.0860219973564097
135	0x3f9660c3d43ec1d7	0.021853504018226246
136	0x3fa2ce3b79b0c196	0.03672967777709173
137	0x3fa24f9ddca00ec7	0.035763676816740246
138	0x3f7389eb1f37d047	0.004770201153849802
139	0x3fb10524ad18e891	0.06648473001487988
140	0xbf47d8293d63496b	-0.000727672707194577
141	0x3f91e630c2a26933	0.017479669456045243
142	0x3f7f7bf8e806b65a	0.007686588564337871
143	0x3fab2d42eb4f2f31	0.05307969210079334
144	0xbfaeceb04e925b56	-0.060170659629128195
145	0x3f9ee2605a6a37f7	0.030160432356346658
146	0x3fb376397825fb59	0.0760227125483487
147	0xbfb5594b72810351	-0.08339377923495063
148	0xbf9e9eeded7ba8d3	-0.029903142566504236
149	0xbfa75094ff77ec01	-0.04553666704665461
150	0x3fb0c05906ebf00b	0.06543499392495293
151	0x3fac358d64315013	0.05509607170156996
152	0xbfa126478bdf9ea7	-0.03349517424049724
153	0xbfa1a70dd3fd7487	-0.03447764599580077
154	0x3fb0f23b67b78f87	0.06619616777567049
155	0x3fb2148368786f40	0.07062550831363712
156	0x3faafff96ae067e8	0.05273417882581538
157	0x3fb64b5d3f762f56	0.08708746718747071
158	0x3fb42d72a7b565bd	0.07881847948501437
159	0xbfb291506bd482d1	-0.07252981789180103
160	0xbfaa8eb968a90ba1	-0.05187014963714565
161	0x3f49234f9e7b38bc	0.0007671488537768427
162	0x3fafb009bd769259	0.06188993871481747
163	0xbfaac63dc7956a54	-0.052293711293448425
164	0x3f820076dad0c2d8	0.008789948036878867
165	0xbfb615fb70cbf41a	-0.08627292159867786
166	0xbfb9240b01311758	-0.09820622233482135
167	0x3fb399cc5ab5c88b	0.07656552519418562
168	0x3f7e997c81d47971	0.007470594745682
169	0xbfb5606d3d996edc	-0.08350260499849632
170	0xbfaa67638a09bdba	-0.05157004413637929
171	0xbfa563cebf64f1dc	-0.04177709661823645
172	0x3f803727f00365f9	0.007917701732753623
173	0xbf9d75e78b600fd4	-0.028770082361020702
174	0xbfad2db4152901b2	-0.056989314635305446
175	0xbfb47a83bec93d76	-0.07999442489493966
176	0xbf92444388ddb48a	-0.017838530758514305
177	0xbfb34d52c9da5637	-0.0753986113362196
178	0x3fa252ffbacf8f77	0.03578948169140877
179	0xbfa9cf1f4817f544	-0.05040834193276081
180	0xbfa47608a116c0a9	-0.03996302572648009
181	0xbfa718f7ca8922f9	-0.04511236522063728
182	0xbf8c87f6cc1af5ba	-0.013931205848502926
183	0x3fa10b135dcf9383	0.03328762550498878
184	0x3f60459816a28227	0.001986310050668533
185	0x3fb95d838c1a5b7a	0.09908315821154004
186	0xbfba3f71d8421b51	-0.10253058938733985
187	0x3fb885960364e10f	0.09578836043226978
188	0x3f9bff7d5da46c7b	0.027341803398581704
189	0xbf9504fbd6e7c8e3	-0.020526823989663334
190	0xbfb3a86f60000000	-0.07678886502981186
191	0x3fb5075780000000	0.08214327692985535
192	0x3fb187fe40000000	0.06848134100437164
193	0xbf9af1e080000000	-0.026313312351703644
194	0x3fb4ae1f00000000	0.08078187704086304
195	0x3f9ff1f100000000	0.031196370720863342
196	0x3fa15e3800000000	0.03392195701599121
197	0x3f9e787a00000000	0.02975645661354065
198	0x3f7ad97a00000000	0.006555058062076569
199	0xbfae4d8ce0000000	-0.05918541178107262
200	0xbfb3523e40000000	-0.07547368109226227
201	0x3fb0116a80000000	0.06276574730873108
202	0xbfb96ad100000000	-0.09928613901138306
203	0x3faa4af400000000	0.0513530969619751
204	0x3fb5420a80000000	0.08303895592689514
205	0xbfa56ec0a0000000	-0.04186059907078743
206	0x3f80507000000000	0.007965922355651855
207	0xbfab174180000000	-0.052911803126335144
208	0xbfb6176140000000	-0.0862942487001419
209	0xbf93143600000000	-0.018631786108016968
210	0xbfb0fdf720000000	-0.06637520343065262
211	0xbfb3135160000000	-0.0745135173201561
212	0x3fa1c3e000000000	0.034697532653808594
213	0xbf91bf8680000000	-0.017332173883914948
214	0x3fba20e1c0000000	0.10206423699855804
215	0xbfa11c6c40000000	-0.03341997414827347
216	0xbfaf8c4880000000	-0.06161715090274811
217	0x3f9ccba500000000	0.02812059223651886
218	0xbfaeb718a0000000	-0.05999066308140755
219	0xbfadfd96a0000000	-0.0585753507912159
220	0xbfa3ac9500000000	-0.03842607140541077
221	0xbfb2720780000000	-0.07205244898796082
222	0x3f6779f800000000	0.0028657764196395874
223	0xbfb066a740000000	-0.06406636536121368
224	0x3faf74fa00000000	0.061439335346221924
225	0xbf81759c00000000	-0.008525103330612183
226	0x3fb2d6ac40000000	0.07358814775943756
227	0x3fa0c83a00000000	0.032777607440948486
228	0x3faa0e7f00000000	0.05089184641838074
229	0x3fa6e46880000000	0.044711366295814514
230	0xbfb7cadd80000000	-0.09293922781944275
231	0x3fb5933a00000000	0.08427774906158447
232	0x3faef39000000000	0.06045198440551758
233	0x3f82ccdc00000000	0.009179800748825073
234	0x3fb89d5bc0000000	0.09615109860897064
235	0x3fb3df1bc0000000	0.07762311398983002
236	0xbf8c738e00000000	-0.0138922780752182
237	0x3fad016a80000000	0.05665142834186554
238	0xbfa656ad40000000	-0.04363004118204117
239	0xbfb0d08fa0000000	-0.06568238884210587
240	0x3fab009a80000000	0.0527389794588089
241	0x3fab311100000000	0.05310872197151184
242	0xbfa5ff7a00000000	-0.04296475648880005
243	0x3fa1bd5600000000	0.03464764356613159
244	0xbf9dda7a00000000	-0.0291537344455719
245	0x3fb198b580000000	0.06873640418052673
246	0xbf9c48ed80000000	-0.02762194722890854
247	0x3fa48a8f00000000	0.04011961817741394
248	0xbfb05f5380000000	-0.06395456194877625
249	0xbf821bbc00000000	-0.00884196162223816
250	0xbf80077700000000	-0.007826738059520721
251	0x3fa06ead00000000	0.03209438920021057
252	0x3fb1f13640000000	0.07008685171604156
253	0xbfaaf90ea0000000	-0.05268140509724617
254	0xbfb278c9c0000000	-0.07215557992458344
255	0xbfb9b1aca0000000	-0.10036734491586685

linear.bias f8 [128]
0	0x3fb154b8deaba2f1	0.06769900738039404
1	0xbfb0a96bf1b508e3	-0.0650851693253887
2	0xbf885c5800000000	-0.01189488172531128
3	0x3fa039716edc81d8	0.03168825605667153
4	0xbf350a6000000000	-0.0003210529685020447
5	0xbf9d44d543461e73	-0.028582889777253272
6	0xbfae06fa2305519d	-0.0586469810247394
7	0x3fb0ae1ad942c9a8	0.06515662960263191
8	0xbfb663f520000000	-0.08746273070573807
9	0x3f9610d32f01ba61	0.021548557037414876
10	0xbf9511524b78dfef	-0.020573888641791823
11	0x3fb85d3854f036f3	0.09517242501916794
12	0x3fa60153b6adfb5e	0.04297887425399581
13	0xbfae61f5a5fd69ff	-0.0593411221622837
14	0x3f9a5e95b455006f	0.025751437312692745
15	0xbfb2cac593f1fdb5	-0.07340655195183994
16	0xbfb9340808b9f3fe	-0.0984501859001767
17	0xbfa06c359880792a	-0.03207557188601336
18	0x3fb6fc7b40000000	0.08979006111621857
19	0xbfb73782cef56d59	-0.09069078018858558
20	0xbfb3877cd0401d5f	-0.07628612598647554
21	0xbfa8be20142f50c5	-0.048325540985076944
22	0x3f8399e62c44f1cb	0.009570883012764228
23	0xbfadc90bc5f0b286	-0.0581744841696024
24	0xbfa592df0bf5a4e1	-0.04213616391172948
25	0x3fb864aac0000000	0.0952860563993454
26	0xbfb10c77b49a06b8	-0.06659649047108018
27	0xbfa6b079bbfd74d9	-0.044315151403432736
28	0xbf8c7a418e121a57	-0.01390505995574391
29	0xbfb8928100000000	-0.09598547220230103
30	0x3fb109326fe565b2	0.0665465853866383
31	0x3f9a6c80b021d0b8	0.025804529905557344
32	0xbfa68172dbba5590	-0.043956364938973924
33	0xbfa907da835da28b	-0.048888042960986665
34	0xbf8eaf45ea288502	-0.014982744415706243
35	0xbf9c3a0c80000000	-0.027565188705921173
36	0xbfb8554520000000	-0.0950511172413826
37	0x3f763110582696ea	0.005417884678910781
38	0x3f8009b9f43079de	0.007831051601951463
39	0x3f9a84a4e08a5ffc	0.025896621899477154
40	0x3fb8f7cd271b0ebb	0.09753114895562025
41	0xbfaec7e100000000	-0.06011870503425598
42	0xbfb612d21043bfe9	-0.08622467896543608
43	0xbf8cb8e0348fe4b4	-0.014024497608249177
44	0x3fadd51463c25670	0.058266293695095395
45	0xbf6ae207c8bf31c7	-0.0032816078218955466
46	0x3f6067c198eeb1c3	0.002002599830538383
47	0x3fb131777c08e262	0.06716105249587082
48	0x3fa8379e3603ee86	0.04729933175437133
49	0xbfb5221140000000	-0.08255107700824738
50	0x3fb7ca81e8cbbb49	0.09293376859180315
51	0xbf9a6998acc79d9b	-0.02579344324649711
52	0xbf91eaded929cfc7	-0.017497522358510566
53	0xbf98ffa5c35c0df7	-0.02441271786575602
54	0xbfaaf3e7a0000000	-0.0526420958340168
55	0xbfb3fb81c0000000	-0.0780564397573471
56	0xbfa6f9bc6c6429f8	-0.04487408469329418
57	0xbf9fcd1b0ba5f44e	-0.03105585344882327
58	0x3fa26a4600000000	0.03596705198287964
59	0x3faf05f235a47a2f	0.060592240379481736
60	0x3fb5c6ce55ba0bf0	0.08506478875101187
61	0xbfacb4e19bd46568	-0.05606751467912369
62	0x3f7a799825b757b6	0.006463617635253207
63	0x3fa66251e7352f19	0.04371887156830052
64	0xbf7df18af161f9a0	-0.0073104312378959035
65	0x3f9ce784b429942a	0.028226922508469844
66	0xbf8f3764e3538e86	-0.015242374598933194
67	0xbfa235da9a90307b	-0.035567122809966066
68	0x3f9fe50900000000	0.03114713728427887
69	0xbfb621c767a05021	-0.08645292549073293
70	0xbfb95a0200000000	-0.09902966022491455
71	0x3fa1ca1880000000	0.034744992852211
72	0xbfa35dce00000000	-0.037825047969818115
73	0xbf7880f200000000	-0.005982346832752228
74	0xbfb4e7098e285204	-0.08165034981386304
75	0xbfa96f1ea0000000	-0.04967590048909187
76	0xbfb4864c80ba3d0e	-0.08017423765908324
77	0x3fb6fee5f0d68fc4	0.08982693796002567
78	0x3fa93f6a186bac82	0.04931193874457397
79	0x3fb87924cf54b53e	0.09559850751675911
80	0x3fad0db280000000	0.056745126843452454
81	0xbf93ec2a4cbef63d	-0.019455586370659573
82	0x3fb8fe31c0000000	0.09762869775295258
83	0x3f92fe305581ba84	0.018547778338354096
84	0x3fa13e5fe3738cd2	0.03367900516038848
85	0xbfa516b9d5a4a78d	-0.04118900998066897
86	0xbfb34cd3c0000000	-0.07539103925228119
87	0xbfad1ef57b990787	-0.056876822793596786
88	0xbfade81771ddc001	-0.058411343240436515
89	0x3f79174679d06fc0	0.006125712677228223
90	0xbf91212ce20839a2	-0.0167281163176597
91	0x3fb070e6fb704f3a	0.06422275198593477
92	0xbfb14621501f4b27	-0.06747635084256541
93	0xbfb3b7cca5f9b07a	-0.07702330639011903
94	0x3fb29839b3bff828	0.07263527525353253
95	0xbf8cbc1100000000	-0.014030583202838898
96	0x3fb1338089cfedde	0.06719210972362741
97	0xbfafbefc85fa259d	-0.062003985743170655
98	0x3f91c964483d9e2d	0.017369810971471878
99	0xbf71022b8e410f71	-0.00415246023118586
100	0x3fb3db6e2122989c	0.07756698903048903
101	0x3f7d43e76f16f25d	0.0071448364628251245
102	0x3f8faf90725c8395	0.01547158097270244
103	0xbfa2dc0edd80e016	-0.03683515981578027
104	0x3fb951eb8d7dbde2	0.09890625194906691
105	0x3f95dc12725132ce	0.021347320773474725
106	0x3f982ffd00000000	0.02362056076526642
107	0xbfa11c0fb8bb3771	-0.03341721658726627
108	0x3fb8096dbff87644	0.0938938707044708
109	0xbfa92db340806384	-0.04917678987857868
110	0x3fb04e8f80a0ba59	0.06369873895958146
111	0xbfb2c15a1f443bc1	-0.07326281798690017
112	0x3fb735aff744b543	0.09066295420480679
113	0x3fb64908ddffb824	0.0870519201268683
114	0x3fa4160a64857c67	0.03923065640514594
115	0xbf51a1b951ba6b2c	-0.001076155639487107
116	0x3fb24a6fa71aa27d	0.0714483054131367
117	0x3f88072700000000	0.011732392013072968
118	0x3fb86d9e7bce4db4	0.09542265436748815
119	0xbfb908d1c8a62d37	-0.09779082440052354
120	0xbfad8f6b9d5beb43	-0.05773483558546968
121	0xbfa0c6fb2ea8cacb	-0.0327681059319694
122	0xbfb5c58800000000	-0.08504533767700195
123	0xbfa4c23d10c4ed7c	-0.040544422432925636
124	0xbf9d8fd7a658789a	-0.028869027641228763
125	0xbf95f43dcecd4794	-0.02143951964109865
126	0x3fb87df51f71172e	0.09567195909138768
127	0x3fae499280000000	0.05915506184101105

linear2.weight f8 [64, 128]
0	0x3facb3fcf2ca59fa	0.05606070007086213
1	0xbfa9c8ed803bb056	-0.05036108198496041
2	0xbfb46e4b80000000	-0.07980796694755554
3	0xbf8fc78c8b74389a	-0.0155173282678585
4	0x3f89e5a900000000	0.012645073235034943
5	0xbfa366cf8ca8c096	-0.037893758697806465
6	0x3fb19f5d7343725a	0.06883796752976803
7	0xbf43ab378b7c3d9a	-0.0006002446379812954
8	0xbf95cb7a80000000	-0.02128402143716812
9	0x3fb0f04760cbd30d	0.06616636384189807
10	0x3f741ae71015dd14	0.004908468808358952
11	0x3f9e24be91e5de07	0.029437043814565935
12	0xbfa2ee72e07a38cb	-0.03697546949580185
13	0xbfb11cdba813c497	-0.06684658864448277
14	0xbfb450d6e0a9cd31	-0.0793585108274797
15	0x3fb24b2f03c4fd28	0.07145971147564423
16	0x3f8495a62aafc322	0.010051057985010884
17	0xbfa51e48ff83bbba	-0.04124668234896185
18	0x3fa14937c0000000	0.033761732280254364
19	0x3f946720bbb848c0	0.01992465158225154
20	0xbfa6d177ec1b72db	-0.04456686741989354
21	0x3fb4a6637824d025	0.08066388781736629
22	0xbfafa70eaa365196	-0.06182142093453817
23	0xbfb0e1a7f0d43f7c	-0.06594323758713289
24	0xbf9809899285ba6f	-0.02347388226319896
25	0x3fb06a9160000000	0.06412609666585922
26	0xbfaa41255edbf17a	-0.051278274373518465
27	0x3f9196011ae8cd9c	0.017173783557337438
28	0x3f97b390cdbd9b28	0.023145926053440707
29	0xbf8528b400000000	-0.010331541299819946
30	0x3fb0047c6a899d8b	0.06256845093741085
31	0xbfb24369395c2613	-0.07134111071004438
32	0x3f6b697c2ad70545	0.003346197618811305
33	0xbfa291ccb9be4281	-0.03626861350415301
34	0x3f71906b1c4157ca	0.004288118743792377
35	0xbf8658b300000000	-0.01091136783361435
36	0x3f9c9a2200000000	0.02793172001838684
37	0x3fa569a3ffb31744	0.041821598971678614
38	0x3f944d6980000000	0.019826553761959076
39	0xbfb79a484b05605a	-0.09219791251723689
40	0xbf965a9d27627229	-0.021830039528696474
41	0xbfb0f386a0000000	-0.06621591001749039
42	0xbf96b0f248dca598	-0.022159372040879782
43	0xbf82cf221d652177	-0.009184137842240798
44	0x3f91192c6e038105	0.016697591986372568
45	0x3fb440e472a9e077	0.07911517905620423
46	0xbfa8bd4b0b5ef76e	-0.04831919206433964
47	0x3f7a67ddda85e9f5	0.006446711173675447
48	0x3fb3f5d2bb69c7b2	0.0779697139312521
49	0x3fabafd540000000	0.054075874388217926
50	0xbfa4cd6e00000000	-0.040629804134368896
51	0x3f61cdda46bded4d	0.0021733535012892547
52	0x3fa4620ef37a133e	0.03981062624101249
53	0x3f8910a86a10d778	0.012238803612585988
54	0x3fb66178a0000000	0.08742479234933853
55	0x3fa58335c0000000	0.04201667755842209
56	0x3f9947ee079e952a	0.024688452925734662
57	0x3f8c86bb8ee2b3f4	0.013928857133885565
58	0xbfa57032c0000000	-0.041871629655361176
59	0x3fb1bd28c8bab612	0.0692925920545451
60	0x3f795c2e87a2cda7	0.006191426999225958
61	0xbfaa7995edc2433d	-0.051708874963088715
62	0x3facb6c90a2a28b0	0.05608204125481231
63	0xbfb055c83242b7e2	-0.0638089297014797
64	0xbfa21aa27b0a18dd	-0.03535945655771553
65	0xbfb0bec16a997470	-0.06541069843793124
66	0xbfa1955f35034a5c	-0.03434274217729147
67	0xbfb0c6f02725db2a	-0.06553555446394613
68	0xbfa0702000000000	-0.032105445861816406
69	0xbf8d79660f4ed2ec	-0.014391705839309897
70	0xbfb05c3180000000	-0.06390675902366638
71	0x3fa7cb41c0000000	0.04647260159254074
72	0xbf99c27c80000000	-0.025155968964099884
73	0xbfad2f95e0000000	-0.057003673166036606
74	0xbfb523b3e398b7f0	-0.08257602984005508
75	0xbf86107500000000	-0.01077357679605484
76	0x3f8f0f60998d9a54	0.015166048704213932
77	0x3fa0d7bca31bfea5	0.03289594164925561
78	0xbfb71a5da4aadadb	-0.0902460600872063
79	0x3fab5a0ce0b6b80c	0.05342140429580419
80	0xbfb30b1d40000000	-0.07438834011554718
81	0xbfa3f3f57963ff72	-0.038970633571806426
82	0xbfb01ba940000000	-0.06292207539081573
83	0xbf940514e3ad547a	-0.019550634762101705
84	0x3f649903a1ca40e0	0.0025143691003180896
85	0xbfa0f192f78f536e	-0.03309306404086142
86	0xbf5d31a000000000	-0.001781851053237915
87	0xbfa3494069389440	-0.03766824039875205
88	0xbf92ab751beadfc6	-0.01823218329329259
89	0x3f962135e38f30e1	0.021611063017005775
90	0x3fac891464b0c053	0.05573333481913836
91	0xbf7237fa5fe5c7d7	-0.004447916055470422
92	0xbf632468892453ce	-0.0023366967881295114
93	0xbfa4616a5d077ff7	-0.03980572114573982
94	0xbfae15706ba3280b	-0.058757317675898056
95	0x3fb64f42a0000000	0.08714691549539566
96	0x3fa03695a37db895	0.03166644688359203
97	0x3fadd11ce81d1917	0.05823602994364501
98	0xbfa803733dfda1e5	-0.04690132266734163
99	0xbfb4c538deedd693	-0.08113437121013538
100	0x3fb0ac3ffcddf751	0.06512832568657002
101	0xbfb5f72978e3c92b	-0.08580264283572052
102	0xbfb681d7ad783418	-0.087918739176715
103	0x3f64a889d2bac10a	0.002521771608222538
104	0xbfb56a74f007dc1a	-0.08365565166592184
105	0xbfb404680c34f105	-0.07819223688142436
106	0x3fac73b2c0000000	0.05557020753622055
107	0xbfb25b6f210af616	-0.07170767361363803
108	0x3f9a1565e2c48ae1	0.02547225185947866
109	0xbf8f106bfc94f09e	-0.015168040891346653
110	0xbfb0e6c60b4e9585	-0.0660213258366494
111	0x3fb41ca829df1019	0.07856226942300316
112	0xbfa314ee2b6a2697	-0.03726906089748388
113	0xbfb5b4487e6ea815	-0.08478215300297649
114	0xbfaef65fac1b5031	-0.06047343231117031
115	0xbfa10ca153b5ef69	-0.03329948565348568
116	0xbfb138bc87b81e0e	-0.06727197946030847
117	0x3f76fa3c00000000	0.00560973584651947
118	0x3fb0db7963e6bb71	0.06584891022678875
119	0x3f72f924b7775a29	0.004632132935020774
120	0x3f80ac124db60bad	0.00814070033698563
121	0xbfa43a6b3e38b129	-0.03950820097483849
122	0xbf84fccd00000000	-0.01024780422449112
123	0xbfb0b10bb9f68145	-0.06520150461301906
124	0x3f9a6c544ce9ae37	0.025803868479142813
125	0xbfa793601f5dc197	-0.046046260670553334
126	0xbf9fc5aad736e0e7	-0.031027478585856107
127	0x3f76ca5a00000000	0.005564071238040924
128	0x3f90c55ef3d041b9	0.016377910262294047
129	0x3f9019225b649d08	0.015720879390895198
130	0xbfb5094bc0000000	-0.08217309415340424
131	0x3fa1b28d1634d255	0.03456536193917673
132	0xbf82b39e00000000	-0.009131655097007751
133	0x3fa652fe6a4264a5	0.043601942511665194
134	0xbf8c6e399838eb00	-0.013882112462956453
135	0xbfb0f58b6061222c	-0.06624671080602046
136	0x3f8b6c3d00000000	0.013390041887760162
137	0xbfb330156f93a42e	-0.07495244955102073
138	0x3fb02bbb85d11222	0.06316730515488492
139	0x3fa4aefeccc1641f	0.04039760827499372
140	0x3fa78bc4760cd4b8	0.045988215837874546
141	0x3fa10e57bf5b4466	0.03331255160231521
142	0x3f7763a1c25d4f31	0.005710250732437847
143	0xbfaebcd22936bf2e	-0.06003433945750057
144	0xbfa927deb65e130a	-0.04913230873265746
145	0x3f8c20aedc4f664c	0.013734212969143254
146	0x3f93ae3300000000	0.019219204783439636
147	0x3f2255f2eaa909c6	0.00013989057818448845
148	0x3fb41ff38924b6b4	0.078612538320807
149	0x3fab41984f0da8ee	0.0532348248005564
150	0xbfb82a1e3823eef1	-0.09439267035116551
151	0x3f810d1dad310eb6	0.00832579788960373
152	0xbf9bc4121109088d	-0.027115137376548182
153	0xbf7f560200000000	-0.007650382816791534
154	0x3fa8a3e59b188e95	0.04812543409596263
155	0x3fa56d3aee695566	0.0418489852933515
156	0x3fb719702ae93b80	0.09023190543778803
157	0xbfb63a9fc0000000	-0.08683203160762787
158	0xbfa119f568054278	-0.033401173541851514
159	0xbf955ec0ab04715f	-0.020869265020438173
160	0x3fb215c8a002efe2	0.07064489275484179
161	0xbf578d849cd9ba8f	-0.001437549118601975
162	0xbfb3c9cc50e2bbb9	-0.0772979447817609
163	0x3f8a43e200000000	0.012824788689613342
164	0xbfb23d0bc0000000	-0.07124398648738861
165	0x3fb7a8b3a2388118	0.0924179335638694
166	0xbfb2869469745644	-0.0723660237748272
167	0x3fb2798dc35be8f3	0.07216726321704296
168	0x3fb360ec0c388382	0.07569766329153363
169	0x3fa1cdd300000000	0.034773439168930054
170	0xbfa0dc7ef08c1a71	-0.03293224989288469
171	0xbfa585335ee68196	-0.042031865438960356
172	0x3fb00064efa99c90	0.0625060162652622
173	0x3f8df8caa2cba933	0.01463468846619218
174	0x3f8b882d5ffb1e81	0.013443331233602198
175	0x3fb2a361095dcf37	0.07280546644852569
176	0xbfb08b2cc10e8799	-0.06462363923358651
177	0xbfae6e1180000000	-0.059433504939079285
178	0xbf9cf078d4d847b2	-0.028261077872293767
179	0x3f7e4da83021a4c5	0.007398278221537773
180	0x3f877113f8ab2c09	0.011446147943749112
181	0xbfb567c0f6969e0e	-0.08361440677855844
182	0xbfa6a8f580000000	-0.04425780475139618
183	0x3f88a3d000000000	0.012031197547912598
184	0xbf9943477a544749	-0.024670712319738972
185	0xbfae51694af4b876	-0.059214868926901795
186	0xbf9ba3f640000000	-0.02699265256524086
187	0x3f8e35d1377bdf66	0.014751085763677185
188	0xbfb39223c6311ed8	-0.0764486655108344
189	0x3f8ca7cd9d491a5e	0.013991934168314287
190	0xbfa8e3cadb4c7890	-0.048612918157446505
191	0xbfa1921b6bd3d5ca	-0.03431783381703786
192	0x3fb49de661ac1e2c	0.08053436169222356
193	0xbfb49b1a821905d6	-0.08049169231619344
194	0x3f927f9f3631ee02	0.01806496399193059
195	0xbf99c64234af4e71	-0.025170359101890975
196	0x3f97f6e400000000	0.023402750492095947
197	0xbf90bfaddd975cb9	-0.016356197976929752
198	0x3f86646f00000000	0.010933749377727509
199	0xbfa1ca2b00000000	-0.03474554419517517
200	0xbfb6198fe0000000	-0.08632754534482956
201	0x3f91831700000000	0.017101630568504333
202	0xbfa1ca7cb8b4cfd1	-0.03474797968593147
203	0xbf816c8200000000	-0.00850774347782135
204	0x3facd6a6a9918a53	0.056325157355577325
205	0x3f8c8441953fa3b3	0.013924133650975756
206	0xbfa35d62400dc215	-0.037821836775837316
207	0x3fac5ef1989c91f9	0.05541186321196174
208	0x3f81ddbe00000000	0.008723720908164978
209	0x3fb53caf429362fd	0.08295722365745557
210	0x3fa2048cc0000000	0.03519096225500107
211	0xbfa83ea7fd00d54e	-0.04735302890223157
212	0x3fb13d752d81121f	0.06734402047101938
213	0x3faf9be631e9fbbd	0.061736291497247
214	0x3f6953e000000000	0.003091752529144287
215	0x3f96a6b0a24bc4a1	0.022120246797332602
216	0x3fb146ef14ad0eee	0.06748861555848482
217	0xbf9188b02ad92312	-0.017122986426588112
218	0xbfa079c37726ca1c	-0.032178982062209566
219	0x3fa96a2ec5a84685	0.04963823473748356
220	0xbf81b96f223b45cd	-0.008654468757785328
221	0x3fa18ecb9aad6a0d	0.03429256690170144
222	0xbfa8619def5e4d94	-0.04761975810029209
223	0xbfb4611840000000	-0.0796065479516983
224	0xbfa920a24700b90f	-0.049077101867043386
225	0x3fb0bd97b7007f1b	0.06539295404263294
226	0x3f8b9319959f54a1	0.013464164618122889
227	0x3fb5823fe39e294a	0.08401870066714881
228	0x3f95ea3094c7cca5	0.021401175576056492
229	0x3f71c061266f46a9	0.004333858006207039
230	0x3faff39a1884f77a	0.062405410283175436
231	0x3fb1dfd15af8abc2	0.06982143851261838
232	0x3f87249c6c2000ce	0.011300298738206396
233	0xbfae30ff70f0f4c6	-0.058967573677799076
234	0xbfb3bc4740000000	-0.07709164917469025
235	0xbfaf5c97934587e5	-0.061253296592226815
236	0x3fa6c8a724218e8a	0.044499610100300194
237	0xbfb23ce7980a96e1	-0.07124183141658193
238	0x3fb388fcd6ea179f	0.07630901572164682
239	0x3fafa82995cac3e4	0.061829852614557784
240	0xbf92d468d3b8c41b	-0.018388402864904046
241	0xbfb55cd1b27dbcc9	-0.08344755752272016
242	0x3faa814db0469d60	0.05176775719456361
243	0x3f9a4b09d7d1d0de	0.025676873967726326
244	0xbfa3258303f936e1	-0.03739556716446458
245	0xbf9c8c8480000000	-0.027879782021045685
246	0xbfb0273f81800fde	-0.06309887801768307
247	0x3f9b2c10433e90bd	0.026535276512405604
248	0xbf9de8497a1378ab	-0.029206417156154057
249	0x3f93a64e4421d676	0.019189093502481623
250	0xbfa2f57040000000	-0.03702879697084427
251	0xbfa96ea661b976f8	-0.049672316960579666
252	0x3fa02a0acf92ed3c	0.03157075675832252
253	0xbfa0f0176f56e7e5	-0.03308175310253584
254	0x3f9ec29301c8b13c	0.030039116844066557
255	0xbfa1df03e0000000	-0.034904595464468

linear2.bias f8 [64]
0	0xbfa240e03fe15f4b	-0.03565121440686755
1	0x3f7cf45af98df6af	0.007068972940826575
2	0x3f9828c074245987	0.023592955673927853
3	0xbf9317534f43662c	-0.01864366694721846
4	0xbfb25767619f1233	-0.07164617665609611
5	0xbfb344e446568439	-0.07526995389209014
6	0x3f9a4da467accb79	0.025686806514566982
7	0xbfaca3b85487cb12	-0.05593658477655174
8	0xbfaf57094a4f6839	-0.06121090919596423
9	0xbfa237cf2e9e1a4c	-0.0355820412069546
10	0x3fa3c8b440153b47	0.038640625784515374
11	0xbfb48871e695723a	-0.08020698432432818
12	0xbfa4e8c894b4d288	-0.04083849730742367
13	0xbf9eaa4f10210b52	-0.029946551665726524
14	0xbfa81583786032ea	-0.047039135402973845
15	0xbfb4438fe1c6a2da	-0.07915591489894372
16	0x3fa65b60ed9504fe	0.043665913583490465
17	0x3f81f08d2f12ff8f	0.008759596823779052
18	0xbfb4360395b0587e	-0.07894918827546069
19	0xbf80e564faaaa2ee	-0.008250035190330487
20	0xbf98cc61414c834f	-0.024217147455718287
21	0x3fa91a78c01418b1	0.04903008789737962
22	0x3f987b02841cf718	0.02390674525599143
23	0xbf8e6efb702cd7a5	-0.0148601192100662
24	0x3fa5501a0c8358a0	0.041626752879595275
25	0xbfb5348643da6216	-0.08283270985192134
26	0xbf9ab4fe7faca777	-0.026081062834385684
27	0x3fb5a80873d75110	0.08459523037101158
28	0xbfb27621bda6dd06	-0.07211504821940559
29	0xbf87fcc474d0aa08	-0.011712584319032451
30	0xbfa1e149f87bc8ae	-0.03492194326635577
31	0xbf8b9aac02bf0796	-0.013478607019241012
32	0x3f89e680c2b14ff2	0.012646680776164463
33	0x3fb470dff5ee7127	0.07984733347115434
34	0xbf7a93de88ad2c34	-0.006488675377862175
35	0x3fafb8ce224d2dc2	0.061956826865379636
36	0x3f992cccc86cb94d	0.024584960682824165
37	0xbfb4918f4333cfbd	-0.08034606352504077
38	0x3fa3db720d974c5d	0.03878361144929763
39	0xbf51d37c4c15c714	-0.0010880197372355504
40	0x3f8af7625dbba1d3	0.013167160497190722
41	0x3f93ae428d852057	0.019219436538407155
42	0x3fada167669b03a2	0.0578720391035923
43	0xbfa1ad0f5e05f56e	-0.034523468234492025
44	0x3fa51c910541cbe9	0.04123356999561862
45	0x3fb2571275e2f092	0.07164111497962924
46	0x3f8c5aa97da1afde	0.013844799181434494
47	0x3fb4173b212fa856	0.07847947654923479
48	0xbfb46b1a8bfd0c15	-0.07975927274405621
49	0xbfb0b44d19054748	-0.06525117741446451
50	0x3fb3d3a777ecb546	0.07744833638999635
51	0x3f9800e588e64d24	0.023440920334519735
52	0xbfa2b6dd44997400	-0.03655139410395947
53	0xbfaa41425976454d	-0.05127913801255577
54	0xbfa8b6ffe1db7019	-0.04827117569013257
55	0x3f9d1dc6a5a5e612	0.028433898792604557
56	0x3f9d0a11246301b5	0.02835871491038385
57	0xbf9af9ec6b1c8a26	-0.026344007527891254
58	0xbfab5b1780950121	-0.05342935032467922
59	0x3faf9a5ced42c19e	0.0617245711922607
60	0x3f88e201cfb9b0d4	0.012149824287199719
61	0xbfa78ecf53a6abfd	-0.04601142784243704
62	0x3fb2ff54edb01223	0.07420855334209668
63	0x3fae564dd0c6fbaa	0.05925219701338531

linear3.weight f8 [3, 64]
0	0xbfac11e0b4b6c564	-0.05482389646511868
1	0x3fb2976fcfdb7967	0.07262324165956145
2	0x3fc044d3c98dc529	0.12710044232839238
3	0xbf84d1758e981b18	-0.010165136732224009
4	0xbfa7c41c424a68f0	-0.046418078510400806
5	0xbfb013ac2aa96c90	-0.0628001789240662
6	0x3fac6540834692bb	0.05545999147878918
7	0x3f9989e1df9485b9	0.024940041800737698
8	0xbfcfb672e3d9cc29	-0.24775539517904235
9	0x3fca32f0253944cd	0.20467950646938107
10	0x3fb1178d6281e234	0.06676562933888236
11	0x3fbf9a911d0e071d	0.1234522529539643
12	0x3f96ac42774a542e	0.02214149334993836
13	0x3fc3b28c8db727d2	0.15388638419818662
14	0xbfc2ea84c821fb89	-0.14778194210154208
15	0x3fb704e980756954	0.08991870294759013
16	0x3f9ccbeeacf2b25b	0.02812169008818653
17	0xbfc792c253b781c0	-0.1841662319921067
18	0x3fa63d36ff507c50	0.04343578211432286
19	0xbfc50dc7cabbae4b	-0.1644830455692151
20	0x3fbf0096ef13911c	0.12110274636103607
21	0x3fb7d67917487487	0.09311634844239523
22	0xbfbcf3fb565686f7	-0.11309786661015751
23	0x3fc065f52ff7a307	0.1281115040030942
24	0xbfc0662bbae44f5d	-0.12811800599649362
25	0xbfac2d3fd2ccde29	-0.055032724840597354
26	0xbfa64bee0e279447	-0.04354804919038507
27	0xbfaeec305284448e	-0.06039572722705443
28	0xbfae704343bf0faa	-0.05945024682981111
29	0x3fc1beb16b468933	0.13863198984206235
30	0xbfc6bb618952f90d	-0.17759341435698453
31	0x3f63f1e6daba5053	0.002434683692465392
32	0xbfc44b40718a0eb1	-0.15854650062475664
33	0x3fbdfb97ed97f1ff	0.11712026167510457
34	0x3fb8543d0f97c441	0.09503537779507189
35	0x3faeacff8390e7bc	0.05991362076788628
36	0x3fb2f4414eee85af	0.07403953721088528
37	0x3fa446c8d91f2d25	0.039602543357967236
38	0xbfb5766182c3662f	-0.08383759920561638
39	0xbfb9b4351c587c5c	-0.10040599767715847
40	0x3fba0178ee11fe7e	0.10158496677649428
41	0xbfb67e8ca905a24d	-0.08786849142564641
42	0x3fc0acf63ad2e817	0.13027837631472103
43	0xbfbc2a6f77cc81af	-0.11002251314903931
44	0x3fac2bb602b00ab7	0.05502098830040352
45	0xbfc3723decdda679	-0.15192388597215592
46	0x3f76587513903f12	0.005455453233494516
47	0xbfc5087081b8f0cf	-0.16432005247214085
48	0xbfbd5e05488d62fd	-0.11471589108749565
49	0x3fa0455c034a388e	0.03177917041931365
50	0x3fbe589ac1214130	0.11853949751935455
51	0xbf950e6a52374386	-0.020562802570399018
52	0x3f94131606c96f22	0.01960405746863992
53	0x3fb63339ffee1575	0.0867191552952898
54	0x3fc30bb4c65fa001	0.14879474340636992
55	0x3fbce2423b8551fa	0.11282743409294219
56	0xbfb82aabb71a7736	-0.09440110416695977
57	0xbfbb99c6f8531096	-0.10781520426377464
58	0x3fa9ed7d07a56fba	0.050640017684343744
59	0x3f6b3df657880bb5	0.003325444351732066
60	0x3fc4b041721f56b1	0.1616288954962122
61	0x3f1b5ff3458d6cfa	0.00010442659676128735
62	0x3fc2b8d2a3d45a6f	0.14626534461486382
63	0x3fbce32816eb3009	0.11284113463915459
64	0x3fb18d50869e767c	0.06856253897282188
65	0x3fb96bf634d5ad19	0.09930361547383305
66	0x3fb291a0ec7bc8f3	0.07253461621784023
67	0xbfbc2c9b25bc682e	-0.11005563422477913
68	0xbf7813242b489dcd	-0.005877629552322583
69	0x3fb69a77eb63c993	0.08829450127431064
70	0xbf69a8ae62b4b6e2	-0.003132191273514149
71	0xbf48ae8cbb297991	-0.0007532298244077742
72	0x3fa43ff5db6069e3	0.039550478963253054
73	0x3fc44a01ef2dae7c	0.15850853136668153
74	0xbfb2a3fcf234acbc	-0.07281475938059406
75	0x3fb0898a4dfb9c9c	0.06459869769934062
76	0xbfc05cb67b81a63b	-0.12782937079036735
77	0x3fc13cf356fbb1dd	0.13467256304956168
78	0xbfaeed890f169042	-0.06040600117856389
79	0xbf9e491831e82604	-0.02957570843321912
80	0x3f8bf18ae76fab11	0.013644299686310231
81	0x3f9f848273dfa79c	0.030778921434751902
82	0xbfadd00915e4555a	-0.05822780983195726
83	0x3fbc2e0d17bdf86f	0.110077684685139
84	0x3fb768b78ad25b2c	0.09144160403444052
85	0xbf50ffb123f3af4c	-0.0010375242125588323
86	0x3fc5a6555feae27c	0.1691385954234369
87	0x3fb5566e831811ad	0.08335009289300528
88	0x3fbb14a193a11023	0.10578355650164943
89	0xbf968c1cd462441e	-0.022018862212068162
90	0x3fb56acd4d1e832b	0.08366091854851436
91	0xbfbef6381629d48a	-0.12094450512980096
92	0xbfbb0376c493ba6d	-0.10552160548443519
93	0x3f801a867c1ac912	0.00786309305417324
94	0x3f883006ab9a04c9	0.011810352432123488
95	0xbfb3d04c9ead6e8a	-0.07739714502297992
96	0xbf8c8cbbcdcf9e45	-0.01394030305705408
97	0x3fb726aecc344f98	0.09043400273759372
98	0x3fa5e7f65a59b16a	0.04278535702619275
99	0xbfb4b7f5663e414a	-0.08093198534175375
100	0xbfa9ef449b4be804	-0.05065359492978419
101	0x3fbe2baef20979cb	0.11785405549151233
102	0x3fbc9738804503c2	0.1116824448736358
103	0xbfb5d034b3a0f485	-0.0852082193896014
104	0x3fa0d5889babdacb	0.03287913227352631
105	0xbfb9e1d96e857f1a	-0.10110243747976391
106	0x3fb94e878a8b6e29	0.09885451443135963
107	0x3fbb94c7bfd4f977	0.1077389567699124
108	0xbf9b0834c434230e	-0.026398491359063185
109	0x3fad6d0fae0f97ab	0.05747269630209869
110	0x3fc5f78e11f54494	0.17161727787837278
111	0x3fbbec3eec0d1ad5	0.10907357466667673
112	0xbf794cb52c8f982a	-0.006176669799037563
113	0xbfc5886ef842904a	-0.16822611925192837
114	0x3f8261c5b0d3bf25	0.008975548228107375
115	0xbfbfbdc64b46db28	-0.12398948037921953
116	0x3f98164029697b2b	0.023522379424657885
117	0x3fb0e9e81bd244a2	0.06606913260681549
118	0x3fa2237416a77cd3	0.03542673851529234
119	0x3fb1f3a4fbf41e8a	0.07012396956644742
120	0xbfb92161e6bc026f	-0.0981656254116474
121	0xbf85c4f8f9c56d96	-0.010629601595318044
122	0xbf8dfd5f00f179d4	-0.0146434232867109
123	0x3fb88163852a164c	0.09572431565364886
124	0x3fb69bc3ece1ed8d	0.08831429036393086
125	0xbfb43971636c3395	-0.07900150945006452
126	0xbf8e3800cb920920	-0.014755254948117413
127	0xbfc2cddd5cf3a9b8	-0.1469074920526745
128	0xbfb284082c4313b9	-0.07232714729896274
129	0x3f90bc9fed3b65a4	0.01634454617928828
130	0xbfb726a4bf97538b	-0.0904334037544016
131	0xbfa41040d0e128e2	-0.03918650197791053
132	0x3fb6567c23d9be49	0.08725715518243606
133	0xbfb288d440ba5ceb	-0.0724003465678497
134	0x3fc088a938b92e2d	0.1291705634088073
135	0x3fb42830a191318e	0.07873825020323563
136	0x3fa41b4bb406c657	0.03927074978436156
137	0xbfc31891d466f359	-0.14918730612944378
138	0x3fa598761f659522	0.04217881329786112
139	0xbfba5f456b09a3dd	-0.10301622260307348
140	0xbf9e9dc69b3d226c	-0.029898741936707315
141	0xbf8a44104b2d98a5	-0.01282513360429178
142	0x3fc2d3cfabe79f90	0.14708896535671245
143	0xbfa1bd07e7f6bfa8	-0.034645316186810604
144	0x3f7c4a9b7d55e08d	0.0069070886432812785
145	0x3f757ee4a771998d	0.005247967891682481
146	0x3fa204e79693d8c2	0.03519366944412773
147	0x3fb5fc147db96446	0.08587768620908873
148	0xbfa9fbb1f3cbd897	-0.05074840642002803
149	0xbfb9067352b8a5f5	-0.09775467652857357
150	0x3fc48fa9ab4060f0	0.16063423978699332
151	0xbfb67cee630757c3	-0.08784379880611852
152	0x3fc0727bd113c73c	0.12849376400805024
153	0x3fc918960f3f802a	0.19606281036885892
154	0x3fbdd6e7b9f54718	0.11656044282906597
155	0x3fbc58163f6bf703	0.1107190995062091
156	0x3fc0bee6d339a109	0.13082585633970492
157	0x3fb6298099ef9451	0.08657077558707839
158	0x3fa8fd967a6562e5	0.04880972141353882
159	0x3fb2c772a7d79c0b	0.07335583303175512
160	0xbfb90667e331ee97	-0.09775399491075586
161	0xbfd1666eae731052	-0.27187697444992864
162	0xbf9fd521f312736c	-0.031086473904554365
163	0x3fb8ba736475cd85	0.09659501268997957
164	0x3fa4cfb4fd6edcb7	0.040647178589489234
165	0xbfc05c8f6f4c8845	-0.1278247159435201
166	0x3fc2c81c213f3141	0.1467318689668762
167	0x3fc0664387fcb878	0.12812084331511975
168	0x3f71564441813f2d	0.004232660889172552
169	0x3fb0f366978b214a	0.06621400069991981
170	0x3f87909bfe760c03	0.01150628919891084
171	0x3fba3e51b7f7883e	0.10251341573123882
172	0x3fb916126fb50341	0.0979930422518125
173	0x3fbb1c5242b38172	0.1059008992047035
174	0xbfbf1087b5238d27	-0.12134597942672497
175	0x3fbe2ce4d764c6ef	0.1178725267280034
176	0xbfb13547a4a9a38c	-0.06721923608860275
177	0x3fba5317eee00443	0.10283040601645248
178	0xbfc7ac7ffb9ddc9a	-0.18495178018540487
179	0xbf935d9180ad4fcd	-0.018911622504063353
180	0xbfbfddc0cc0cbab2	-0.12447743398363789
181	0x3fb57a2fe43fa5e9	0.0838956768272038
182	0xbfc5b8768c097f68	-0.1696918662810234
183	0xbfc25f705bbcb833	-0.14353756408076065
184	0x3fb7dcf71dd67992	0.09321541288816196
185	0xbf6628350e88366e	-0.0027047191872558362
186	0xbfc8b8d471da4446	-0.19314055976113503
187	0xbfbb5652f7e6569a	-0.10678595115890702
188	0xbfcc6b3408904d70	-0.22202158373020664
189	0x3fa60416cd35a042	0.04299994711874479
190	0xbfab56d15c6ce7c4	-0.05339674237480055
191	0x3f83331317e11a17	0.009374760786284004

linear3.bias f8 [3]
0	0xbfc1c2b447d79233	-0.13875440128244207
1	0x3f7233e97a0999d9	0.00444403840865567
2	0x3fb3905cb80e8aaf	0.0764215421063834
