runs/testrun-trial-longerrun-20r-40bs-100ep/0/LocalModel-0-Round19.pt (torch, 167767 bytes, 6 tensors)

linear.weight f8 [128, 95]
-0.08181656926027828 0.08139472292882069 -0.04305074275694631 0.016052913109120905 0.10029244264569269 0.09642580064739056 -6.149081042747881e-05 -0.009310953970988826
0.08003770459263167 -0.0455642180725132 0.05684586808158669 -0.07791535692885243 -0.06955501884907843 -0.010626431403240082 0.023256496593082553 0.024115184736421682
-0.055374005733348663 -4.957379949831258e-05 0.08405442466246572 0.09084341942529908 -0.03152734725121772 -0.05770196420019062 0.08897161715780873 -0.054987958761145435
0.01163245609263552 0.016524455776586115 -0.06204738473543436 0.02474713747222985 0.0064170975481925 0.06581206722020602 -0.05663469012372321 0.05453482316264343
0.048814231999556014 -0.08049104312528257 -0.02021405054225779 0.034211002923416035 -0.07893235383239927 -0.0913207047386943 0.061728355850815986 -0.09206975691115393
0.07983885181820378 -0.0844085579720717 -0.08622466341826898 -0.01025258979894183 -0.0651468566586505 0.05756194743342417 -0.0306619277106162 0.02117114365655077
-0.09984552532777756 0.03347017209491136 -0.09794265824140376 0.07510046734594918 0.044784173979524146 0.04525745927461456 -0.08080596433611083 0.08934907075887592
-0.04977645367415498 0.009018705325631414 0.0695893162722868 0.09512178635409976 -0.0021274555592591003 -0.06019502080397374 -0.003557691904795224 0.03726925520574228
-0.04004999649868948 0.08404823367859121 -0.08396442972457684 0.04941482762068557 0.0444141648049595 0.0518524475925754 0.035480862020288856 0.05012858055593038
-0.010223656464090099 0.06616816085822724 -0.06735782524659611 0.06602901277446831 -0.04479766955299785 0.10131825425143273 -0.10204685548700894 -0.0291255586874267
-0.02524017090368317 0.06783498154595093 0.006362784284104586 -0.011862585875263018 -0.018222473900660556 -0.047684893825913954 -0.00031574924576433037 0.0705347614057952
0.03618551737511503 -0.015810875661870286 0.01576205807445657 0.0689134462727721 0.07535384966482067 0.045469187932897184 0.02711045399078145 -0.06255598279043528
0.011878369637327742 0.07285166747386401 -0.034575721947362144 -0.09675945423896772 0.07834753031908497 -0.09811756684286627 -0.07690439715959534 -0.09105156624054042
-0.08183904944785805 0.09381715264152589 0.07385307758159156 -0.06757805590564007 -0.07786568877003396 -0.0071808252793875834 0.025980502977954404 0.09407866812613687
0.09105927994122116 0.049184688987659375 0.016470744468197993 -0.014159610323296322 0.03539297043210172 -0.03511805431820606 -0.019681980437929375 0.08850355372584277
-0.0879529603887179 0.10061063145603176 0.019507085293669093 -0.08968220959481196 -0.029616420116946693 -0.06926614235630218 -0.08843395589132053 -0.008121379363783184
-0.07459718056497133 -0.0768777944658621 0.08418386043586168 -0.0009461191520727864 -0.026337926726388374 -0.029031114693474573 -0.08600701901227166 0.021852397913476214
0.036728085757346166 0.035761943688825314 0.0047744397619599605 0.06648389860145093 -0.0007284615024552382 0.01747966632776039 0.007686622600093171 0.05307948928568854
-0.060171342912561696 0.0301596694806542 0.076018213672661 -0.08339533697122788 -0.029914569796101114 -0.045543558245071725 0.06543383316023103 0.05509132473771841
-0.033498311978341196 -0.034478175773366614 0.06619225077880812 0.07062471701499466 0.052734241497883784 0.08708583174576266 0.07876670881664595 -0.07253644247061371
-0.05188920525705026 0.0007161694840510172 0.06188325146393664 -0.05231113147164508 0.00878791898481129 -0.0862743822891037 -0.09821779830160933 0.07656521215309876
0.007469878615135222 -0.0835043949494749 -0.05156856261970308 -0.04177814521179143 0.007913513008212397 -0.028768012739177118 -0.05699928685120151 -0.0799939553664806
-0.01783586211901027 -0.07540446058550651 0.03578681715802077 -0.050412102235192664 -0.0399651161798432 -0.04511280933135691 -0.013947269004123053 0.03328055142474093
0.0019875561029180674 0.0989971602616063 -0.1025352471718352 0.0956231204658276 0.027329757012450287 -0.02054430783122518 -0.07678886502981186 0.08214327692985535
0.06848134100437164 -0.026313312351703644 0.08078187704086304 0.031196370720863342 0.03392195701599121 0.02975645661354065 0.006555058062076569 -0.05918541178107262
-0.07547368109226227 0.06276574730873108 -0.09928613901138306 0.0513530969619751 0.08303895592689514 -0.04186059907078743 0.007965922355651855 -0.052911803126335144
-0.0862942487001419 -0.018631786108016968 -0.06637520343065262 -0.0745135173201561 0.034697532653808594 -0.017332173883914948 0.10206423699855804 -0.03341997414827347
-0.06161715090274811 0.02812059223651886 -0.05999066308140755 -0.0585753507912159 -0.03842607140541077 -0.07205244898796082 0.0028657764196395874 -0.06406636536121368
0.061439335346221924 -0.008525103330612183 0.07358814775943756 0.032777607440948486 0.05089184641838074 0.044711366295814514 -0.09293922781944275 0.08427774906158447
0.06045198440551758 0.009179800748825073 0.09615109860897064 0.07762311398983002 -0.0138922780752182 0.05665142834186554 -0.04363004118204117 -0.06568238884210587
0.0527389794588089 0.05310872197151184 -0.04296475648880005 0.03464764356613159 -0.0291537344455719 0.06873640418052673 -0.02762194722890854 0.04011961817741394
-0.06395456194877625 -0.00884196162223816 -0.007826738059520721 0.03209438920021057 0.07008685171604156 -0.05268140509724617 -0.07215557992458344 -0.10036734491586685
00000000: 9a6a 3e41 eef1 b4bf 1ad8 0bd9 48d6 b43f
00000010: cf4f 6b38 bf0a a6bf f79f 3cc3 2c70 903f
00000020: 27ff 32f9 c3ac b93f 9e6a 457c 5caf b83f
00000030: d1f9 4314 941e 10bf 8f50 6616 9f11 83bf
00000040: 5d19 acdb 597d b43f cf7f fa74 3154 a7bf
00000050: 4673 a5d0 e61a ad3f 3097 ddc5 42f2 b3bf
00000060: 97bd 3a93 5bce b1bf 1603 cd7a 4fc3 85bf
00000070: 73b5 2511 8dd0 973f d7a5 1ea7 a6b1 983f
00000080: 18b4 584f fb59 acbf 59f8 d9c7 aefd 09bf
00000090: 2167 023d 9784 b53f 6a0c 7dab 8341 b73f
000000a0: 8b4a bf3a 5a24 a0bf 863f 4fa2 1c8b adbf
000000b0: 9d0b f709 d8c6 b63f d917 1bb9 6127 acbf
000000c0: 7e92 ebd3 c1d2 873f 5e1b 9474 c9eb 903f
000000d0: 0067 7bc0 acc4 afbf 338d 7348 5057 993f
000000e0: def7 ac81 d048 7a3f 9e97 6444 0fd9 b03f
000000f0: 6b0c cddb 38ff acbf 9b11 f403 fdeb ab3f
00000100: 2def 08d4 2dfe a83f 5211 d89d 0f9b b4bf
00000110: 24a8 fef7 fdb2 94bf 6d59 70c5 1a84 a13f
00000120: d873 4e26 e934 b4bf ace4 4c30 cb60 b7bf
00000130: 08ef 3aeb db9a af3f d052 e232 e291 b7bf
00000140: 6d66 82a9 5170 b43f f018 fe9b cc9b b5bf
00000150: 6a75 7dcd d112 b6bf 7d08 164f 4fff 84bf
00000160: 183e c9e2 76ad b0bf 25f6 7073 c278 ad3f
00000170: 0d66 ff22 d765 9fbf 52c6 7e66 e3ad 953f
00000180: 674b eff1 798f b9bf a609 149d 0023 a13f
00000190: ddb6 0722 c512 b9bf 6d48 2ac3 c839 b33f
000001a0: 0da9 3d85 f3ed a63f 3113 f856 fc2b a73f
000001b0: e534 251e b3af b4bf 5b5d d6a8 94df b63f
000001c0: a45f 48a1 4c7c a9bf f922 6823 6678 823f
000001d0: 675c 8afd 9ad0 b13f 3a28 87c1 e659 b83f
000001e0: 266d 9f01 996d 61bf ec5f 78bb e1d1 aebf
000001f0: 9abd 2b4c 0525 6dbf 9b87 82b0 f414 a33f
00000200: f464 55e2 6e81 a4bf 3ca5 ef5e 2f84 b53f
00000210: c7c0 b15f b17e b5bf 1afb 2279 e64c a93f
00000220: 6d06 a212 74bd a63f 585d 416d 678c aa3f
00000230: 9ca5 052c 8c2a a23f 7e4d 2a0c 74aa a93f
00000240: 113c 45f1 23f0 84bf 742c ec86 65f0 b03f
00000250: 1456 90c8 5c3e b1bf 1319 7402 47e7 b03f
00000260: 7793 555b b8ef a6bf 5a6a 7f3c feef b93f
00000270: 85f1 f922 be1f babf 1a31 2928 17d3 9dbf
00000280: ca9c 4e32 8fd8 99bf 51be 4323 a25d b13f
00000290: 4374 96e6 dc0f 7a3f 85be 0a53 694b 88bf
000002a0: de7b d285 e9a8 92bf 78b6 fd86 276a a8bf
000002b0: 0eec 2daf 64b1 34bf e213 78ed 900e b23f
000002c0: 150f 6e7b e886 a23f 1130 8ee7 b930 90bf
000002d0: ae2e cacf ed23 903f 9207 ffc5 4fa4 b13f
000002e0: ac27 f0cf 634a b33f 5a81 4bc6 bc47 a73f
000002f0: 149a 14c5 d7c2 9b3f f809 413c ab03 b0bf
00000300: 1e1b fac8 af53 883f 5462 4229 68a6 b23f
00000310: c1bf ffb5 e8b3 a1bf 3901 8943 3ac5 b8bf
00000320: db5d 7170 950e b43f 04d2 c09c 3b1e b9bf
00000330: 2314 b8ae 01b0 b3bf deb0 40cb 274f b7bf
00000340: 120e ea68 67f3 b4bf 8f31 66a2 6604 b83f
00000350: c100 ec08 09e8 b23f 73bf 0aa4 cb4c b1bf
00000360: 7f70 bf7a 01ef b3bf 8f6e bb1b a469 7dbf
00000370: 61eb 7e0a a29a 9a3f e95d da22 8a15 b83f
00000380: 5548 5835 a94f b73f 90f4 544d bc2e a93f
00000390: c9a4 53f3 b4dd 903f 5fee 19ba b6ff 8cbf
000003a0: 8941 0705 071f a23f 3579 975d fefa a1bf
000003b0: 08a7 3459 8327 94bf e30f d53c 2ba8 b63f
000003c0: 9fb7 74d0 1584 b6bf efca bb4b 9ec1 b93f
000003d0: 27a1 8155 aaf9 933f de23 3ecd 69f5 b6bf
000003e0: 4cba 4e4f c453 9ebf 24f1 2308 6dbb b1bf
000003f0: a0bc 6894 9ba3 b6bf 317a 2016 f1a1 80bf
00000400: e87d e602 cd18 b3bf 22fd 045d 43ae b3bf
00000410: 484d 6ccf 128d b53f b998 7b68 9f00 4fbf
00000420: 87b4 bc57 54f8 9abf 8e18 b320 55ba 9dbf
00000430: 1d58 e255 8e04 b6bf d29e 8299 7960 963f
00000440: fa4f 580e 06ce a23f cb77 2bb5 634f a23f
00000450: c241 26ea 5c8e 733f 042d 34ba 1605 b13f
00000460: 4d19 2b2a c7de 47bf 9311 e48c 30e6 913f
00000470: 3d0d f20a 027c 7f3f 650d 241d 3c2d ab3f
00000480: 6684 ee3b c7ce aebf e570 4f28 2de2 9e3f
00000490: edd9 9ffd ed75 b33f ad29 ee94 6559 b5bf
000004a0: 6beb cacb eca1 9ebf f07f 693a 7c51 a7bf
000004b0: fba0 798d 45c0 b03f f468 151c ee34 ac3f
000004c0: c11b d6d4 b026 a1bf 8ba4 be9a 1fa7 a1bf
000004d0: ebf6 57b0 f9f1 b03f 4b60 de21 7614 b23f
000004e0: e5bd 3985 fbff aa3f a702 4bcf 414b b63f
000004f0: 718c 6116 0e2a b43f d5f1 2d90 bf91 b2bf
00000500: 575d 30cf 3891 aabf 4012 9641 aa77 473f
00000510: 785e 6a5a 29af af3f ba62 c64d 86c8 aabf
00000520: 1e07 1e85 66ff 813f b20f 6af2 1316 b6bf
00000530: 652d 9737 cd24 b9bf e977 351a c799 b33f
00000540: d3a9 b645 bc98 7e3f de58 6145 8b60 b5bf
00000550: dc1d e8d3 3167 aabf cb8e beee f163 a5bf
00000560: 76b0 88bc f534 803f f0ee 8aa7 5c75 9dbf
00000570: e4ab d7b1 022f adbf 623d 2dde 7b7a b4bf
00000580: 8d0b fd71 9043 92bf 06f1 2fec b44d b3bf
00000590: cdac a452 a652 a23f 2174 d874 9dcf a9bf
000005a0: 0d50 f2c5 4e76 a4bf e7ef 6ab1 0619 a7bf
000005b0: 5306 eec1 6290 8cbf 7c99 ecff 250a a13f
000005c0: 877f c00e 3548 603f b770 b8bd e057 b93f
000005d0: ab51 4afd bf3f babf 1467 24bf c17a b83f
000005e0: 54ed 4df2 54fc 9b3f 9f2a 0429 9109 95bf
000005f0: 0000 0060 6fa8 b3bf 0000 0080 5707 b53f
00000600: 0000 0040 fe87 b13f 0000 0080 e0f1 9abf
00000610: 0000 0000 1fae b43f 0000 0000 f1f1 9f3f
00000620: 0000 0000 385e a13f 0000 0000 7a78 9e3f
00000630: 0000 0000 7ad9 7a3f 0000 00e0 8c4d aebf
00000640: 0000 0040 3e52 b3bf 0000 0080 6a11 b03f
00000650: 0000 0000 d16a b9bf 0000 0000 f44a aa3f
00000660: 0000 0080 0a42 b53f 0000 00a0 c06e a5bf
00000670: 0000 0000 7050 803f 0000 0080 4117 abbf
00000680: 0000 0040 6117 b6bf 0000 0000 3614 93bf
00000690: 0000 0020 f7fd b0bf 0000 0060 5113 b3bf
000006a0: 0000 0000 e0c3 a13f 0000 0080 86bf 91bf
000006b0: 0000 00c0 e120 ba3f 0000 0040 6c1c a1bf
000006c0: 0000 0080 488c afbf 0000 0000 a5cb 9c3f
000006d0: 0000 00a0 18b7 aebf 0000 00a0 96fd adbf
000006e0: 0000 0000 95ac a3bf 0000 0080 0772 b2bf
000006f0: 0000 0000 f879 673f 0000 0040 a766 b0bf
00000700: 0000 0000 fa74 af3f 0000 0000 9c75 81bf
00000710: 0000 0040 acd6 b23f 0000 0000 3ac8 a03f
00000720: 0000 0000 7f0e aa3f 0000 0080 68e4 a63f
00000730: 0000 0080 ddca b7bf 0000 0000 3a93 b53f
00000740: 0000 0000 90f3 ae3f 0000 0000 dccc 823f
00000750: 0000 00c0 5b9d b83f 0000 00c0 1bdf b33f
00000760: 0000 0000 8e73 8cbf 0000 0080 6a01 ad3f
00000770: 0000 0040 ad56 a6bf 0000 00a0 8fd0 b0bf
00000780: 0000 0080 9a00 ab3f 0000 0000 1131 ab3f
00000790: 0000 0000 7aff a5bf 0000 0000 56bd a13f
000007a0: 0000 0000 7ada 9dbf 0000 0080 b598 b13f
000007b0: 0000 0080 ed48 9cbf 0000 0000 8f8a a43f
000007c0: 0000 0080 535f b0bf 0000 0000 bc1b 82bf
000007d0: 0000 0000 7707 80bf 0000 0000 ad6e a03f
000007e0: 0000 0040 36f1 b13f 0000 00a0 0ef9 aabf
000007f0: 0000 00c0 c978 b2bf 0000 00a0 acb1 b9bf

linear.bias f8 [128]
0.06767681820003457 -0.06508594664141032 -0.01189488172531128 0.03169049618716479 -0.0003210529685020447 -0.028574264871256253 -0.05864979694756795 0.0651603117878253
-0.08746273070573807 0.021537324270809833 -0.02056535066734413 0.09518730324762258 0.04298841438371219 -0.05932773852395279 0.025750593590539977 -0.07339935450780763
-0.0984501859001767 -0.032084095297694085 0.08979006111621857 -0.09067147805866795 -0.07629750678718018 -0.04831462692879494 0.009583437180394967 -0.0581744841696024
-0.04213570853718806 0.0952860563993454 -0.0665941802441018 -0.044370201557055386 -0.013910520852660943 -0.09598547220230103 0.06653056475753413 0.025797075907536816
-0.0439231779907298 -0.048884247243858925 -0.014985582034276607 -0.027565188705921173 -0.0950511172413826 0.005416615792808648 0.007832278389889553 0.025902800483960032
0.0975456855265465 -0.06011870503425598 -0.08623216993078855 -0.014024497608249177 0.058232515706943 -0.003265866608065474 0.001978275685282778 0.0671475571392302
0.04729961950097634 -0.08255107700824738 0.09293215228480316 -0.025787636502410807 -0.017499415982127637 -0.024406169207188168 -0.0526420958340168 -0.0780564397573471
-0.04485351477309916 -0.031083664718378035 0.03596705198287964 0.06059740942626575 0.08504314517888821 -0.05606208875155206 0.006470913549030008 0.04372671406730974
-0.007310383861261042 0.028226717512616385 -0.01524238765115121 -0.0355606180883563 0.03114713728427887 -0.08644829315517111 -0.09902966022491455 0.034744992852211
-0.037825047969818115 -0.005982346832752228 -0.08167540147091654 -0.04967590048909187 -0.08015806473007397 0.08983574077772426 0.049309737288161605 0.09562616423263409
0.056745126843452454 -0.019400890163800342 0.09762869775295258 0.01849672793323649 0.03367682450448966 -0.041185846243961696 -0.07539103925228119 -0.05692533228727197
-0.05841184776924752 0.006126439496179647 -0.01673708909915962 0.06422275198593477 -0.06748565408951898 -0.07705734176018741 0.07266407030919668 -0.014030583202838898
0.06719393102028579 -0.062000195955979234 0.01737359014982647 -0.004167950329540482 0.0775673332233664 0.007144764187134569 0.015464473926296218 -0.03683515981578027
0.09887996052001317 0.021335792197328767 0.02362056076526642 -0.03341480403810732 0.09391974963276471 -0.04917290981409263 0.06369392456529464 -0.07325012794234989
0.09066373409985488 0.08703593962001133 0.039232108689825455 -0.0011097811761403393 0.071449968941467 0.011732392013072968 0.09541804110523915 -0.09777719942738414
-0.05776258988454461 -0.0327538176274427 -0.08504533767700195 -0.04053877627564386 -0.02887465225136942 -0.02143315030696416 0.09567373530277133 0.05915506184101105
00000000: 08d2 dd98 4453 b13f f809 41fc 78a9 b0bf
00000010: 0000 0000 585c 88bf af8e 6f99 bc39 a03f
00000020: 0000 0000 600a 35bf e163 8474 9242 9dbf
00000030: c91a 9d9f 5807 aebf 3639 20a0 58ae b03f
00000040: 0000 0020 f563 b6bf 2dc0 8b5d e10d 963f
00000050: a724 3052 150f 95bf b766 71f2 315e b83f
00000060: d616 c5d3 9302 a63f 007b 6991 3460 aebf
00000070: 3bbb 4b15 5d5e 9a3f 5696 28d3 4cca b2bf
00000080: fef3 b908 0834 b9bf d2f9 0c98 536d a0bf
00000090: 0000 0040 7bfc b63f 5124 f1f8 3e36 b7bf
000000a0: a9d2 6ac0 3b88 b3bf 2ebd 27dd b1bc a8bf
000000b0: aa3d 2f2a 7ba0 833f 86b2 f0c5 0bc9 adbf
000000c0: ff6f 52c4 cf92 a5bf 0000 00c0 aa64 b83f
000000d0: c899 40f2 500c b1bf 8e7e 35e9 b0b7 a6bf
000000e0: ab5e 0f81 1e7d 8cbf 0000 0000 8192 b8bf
000000f0: b669 d1a7 2508 b13f cdd3 6b75 8c6a 9a3f
00000100: 565d 034a 197d a6bf 4866 6726 5b07 a9bf
00000110: 106d fdc5 c2b0 8ebf 0000 0080 0c3a 9cbf
00000120: 0000 0020 4555 b8bf 2c36 f6ba bb2f 763f
00000130: 4a4c 4d9c 5e0a 803f ad4d d083 4386 9a3f
00000140: a6d1 3309 c1f8 b83f 0000 0000 e1c7 aebf
00000150: 0a42 b7bd 4f13 b6bf b4e4 8f34 e0b8 8cbf
00000160: 62dd 0cfd a6d0 ad3f d4aa cac8 04c1 6abf
00000170: 4347 ddab be34 603f 4356 eb11 9530 b13f
00000180: 6968 bddd a737 a83f 0000 0040 1122 b5bf
00000190: 1b64 cfca 66ca b73f c70b adfd 1268 9abf
000001a0: d58d 5eed 5deb 91bf 7a16 434a eefd 98bf
000001b0: 0000 00a0 e7f3 aabf 0000 00c0 81fb b3bf
000001c0: 4d4a 1f36 0af7 a6bf 30fd 9e6d 65d4 9fbf
000001d0: 0000 0000 466a a23f 7a90 6aa7 9f06 af3f
000001e0: 7fd4 4a37 63c5 b53f b17b 778b 2bb4 acbf
000001f0: 3dde 17a1 3e81 7a3f 0ce3 c20d 5963 a63f
00000200: 8466 af39 7ef1 7dbf da47 5cf2 76e7 9c3f
00000210: 9f14 cca3 6637 8fbf 3e19 6e57 0035 a2bf
00000220: 0000 0000 09e5 9f3f c07f e5af 7921 b6bf
00000230: 0000 0000 025a b9bf 0000 0080 18ca a13f
00000240: 0000 0000 ce5d a3bf 0000 0000 f280 78bf
00000250: b68b 34da ade8 b4bf 0000 00a0 1e6f a9bf
00000260: d4bc 862a 3d85 b4bf 77fa a6a0 79ff b63f
00000270: b5d3 0d3a 203f a93f 0c66 05d0 f47a b83f
00000280: 0000 0080 b20d ad3f c936 11b3 d3dd 93bf
00000290: 0000 00c0 31fe b83f 539c 3966 cef0 923f
000002a0: 2784 c2b7 163e a13f 8e0f 5aad 4f16 a5bf
000002b0: 0000 00c0 d34c b3bf 77bc f930 5125 adbf
000002c0: a956 bc5f 28e8 adbf 8ca6 6e94 0918 793f
000002d0: 8498 3e09 8723 91bf 3a4f 70fb e670 b03f
000002e0: be7e 4365 bd46 b1bf d0d5 c6aa 07ba b3bf
000002f0: 9b7e 92cd 1c9a b23f 0000 0000 11bc 8cbf
00000300: 5ec8 3818 9f33 b13f bafa f35b 7dbe afbf
00000310: 8dcb 07e6 61ca 913f 4029 b5a5 6912 71bf
00000320: c0aa 6ee7 73db b33f 4f8d 5708 d443 7d3f
00000330: 3336 1b8e d6ab 8f3f 16e0 80dd 0edc a2bf
00000340: 4bc9 a974 3250 b93f 0b1a e3c6 0cd9 953f
00000350: 0000 0000 fd2f 983f c982 17c5 be1b a1bf
00000360: 1709 1fed 1f0b b83f d259 000f 312d a9bf
00000370: 973a f6ba 3e4e b03f 82b1 f037 85c0 b2bf
00000380: c361 e40c bd35 b73f c09c 3ec2 fc47 b63f
00000390: 1745 8d1f 3b16 a43f b101 dd76 c22e 52bf
000003a0: 8560 e78f 8b4a b23f 0000 0000 2707 883f
000003b0: 9bd1 fe15 516d b83f 1ec8 d531 ed07 b9bf
000003c0: bc06 f9e4 0e93 adbf 04db 0ebf 1bc5 a0bf
000003d0: 0000 0000 88c5 b5bf b3c2 a59c 7fc1 a4bf
000003e0: fe79 691c 5191 9dbf e882 795e 92f2 95bf
000003f0: 0729 36ec 127e b83f 0000 0080 9249 ae3f

linear2.weight f8 [64, 128]
0.056827889522567586 -0.05033602389581868 -0.07980796694755554 -0.015440533820419442 0.012645073235034943 -0.03793488802651989 0.06884795692511321 -0.0007212032391750008
-0.02128402143716812 0.06427948023981102 0.003978680690521392 0.028988526522340588 -0.03750393279562368 -0.06696462267673135 -0.07935881684095238 0.07146495158304847
0.010051057985010884 -0.04135656721117845 0.033761732280254364 0.019000994483563523 -0.044584481586894716 0.08104566213082431 -0.06188434523905661 -0.06594323758713289
-0.023395127775398022 0.06412609666585922 -0.05290459291053505 0.016027572744481206 0.022098870330923722 -0.010331541299819946 0.06258515904729683 -0.07099346495227694
0.003059440265713576 -0.036533450008818476 0.004308425818598056 -0.01091136783361435 0.02793172001838684 0.04161944128930415 0.019826540926592556 -0.0936448022710315
-0.021663949644776657 -0.06621591001749039 -0.02201872050532439 -0.009184137842240798 0.01674903627354708 0.07812684214285655 -0.048848829914087316 0.005118592823534784
0.07803494983237277 0.054075874388217926 -0.040629804134368896 0.001195779556631659 0.03981126053336577 0.012103608541142986 0.08742479234933853 0.04201667755842209
0.024506592458388276 0.012361981368857355 -0.041871629655361176 0.06937642808548279 0.006142576600593096 -0.051601345402107195 0.055438020000336985 -0.06337592006617113
-0.035679204772429425 -0.06493382887260721 -0.034342915297368416 -0.06638469961481842 -0.032105445861816406 -0.014309937779626957 -0.06390675902366638 0.04647260159254074
-0.025155968964099884 -0.057003673166036606 -0.08258792092697173 -0.01077357679605484 0.014090588829075726 0.0321691201604022 -0.09042306615192433 0.05289009511784538
-0.07438834011554718 -0.039714836797740675 -0.06292207539081573 -0.02035694658678581 0.0025136696551383737 -0.03309161392836748 -0.001781851053237915 -0.037546129502203485
-0.01821496363662479 0.021036297834676098 0.05544345434937749 -0.004447916055470422 -0.0027522563102807575 -0.03923593145485921 -0.05951089222926906 0.08714691549539566
0.03166732882650994 0.05806904301063548 -0.04683558355771396 -0.0804952271534034 0.0643254525376826 -0.08583616822501303 -0.0879387104161848 0.002521771608222538
-0.08392539502295665 -0.0784286625581555 0.05557020753622055 -0.07194321592025782 0.023067919849934365 -0.015447629018115267 -0.0659227733925669 0.0775552679379997
-0.037270559551808184 -0.08438729734683269 -0.0604708257808372 -0.034820546583187825 -0.06727429622685926 0.00560973584651947 0.06632784205616812 0.004819907175363149
0.007525029642607033 -0.03998100484671626 -0.01024780422449112 -0.06522508146491668 0.025759434326401143 -0.04737482002061842 -0.03103309870425873 0.005564071238040924
0.018653975105852316 0.0157242493181431 -0.08217309415340424 0.03664949877655121 -0.009131655097007751 0.04388472495785725 -0.01368809673233723 -0.06634667526162251
0.013390041887760162 -0.07434310867239845 0.06340901845033528 0.04039357414797292 0.04637589898980658 0.033155239516068406 0.005710865916917645 -0.06000363123334456
-0.04913230873265746 0.01401836580100403 0.019219204783439636 0.0015783022731209245 0.07859351979879696 0.05264943742890333 -0.09367986644531685 0.00832579788960373
-0.026672046057471734 -0.007650382816791534 0.05102930397592178 0.042785190098353125 0.08998441906974934 -0.08683203160762787 -0.03307101381352196 -0.0199897896964762
0.07090254842720499 -0.001318676850824657 -0.0772254583939047 0.012824788689613342 -0.07124398648738861 0.09212974339146027 -0.07236584469254811 0.07254265665943814
0.07535363353170173 0.034773439168930054 -0.03262063702058455 -0.042031865438960356 0.06223459704102328 0.015028390848108414 0.013512102846322798 0.07309589758493479
-0.06446719403000124 -0.059433504939079285 -0.028254552507965602 0.0068855691022594425 0.011445523692074652 -0.08373413442351613 -0.04425780475139618 0.012031197547912598
-0.022037576590444814 -0.05940865239920986 -0.02699265256524086 0.015068358164938529 -0.07640518032955458 0.014154901590475602 -0.049237564182929024 -0.03432917957702855
0.08033513832022127 -0.08035951568515369 0.018065177427220178 -0.02335442602135275 0.023402750492095947 -0.015883193670761665 0.010933749377727509 -0.03474554419517517
-0.08632754534482956 0.017101630568504333 -0.03497838814931197 -0.00850774347782135 0.056836915867353406 0.01297919189757263 -0.037576751557455795 0.055651067624017815
0.008723720908164978 0.08299834183461433 0.03519096225500107 -0.047560569719701094 0.06734304367601894 0.06175147052973979 0.003091752529144287 0.022445981842917687
0.06751775438048094 -0.017572361179798896 -0.03185286198050416 0.04963823473748356 -0.00850589203340206 0.03558764827384148 -0.04717248763263587 -0.0796065479516983
-0.04907659905114943 0.06553901762772348 0.013551258251525214 0.08377065009453549 0.021529949679301576 0.004323546452306462 0.062399522351009984 0.06982143851261838
0.011953715022144018 -0.0589816086561072 -0.07709164917469025 -0.061337918567160345 0.04503313563644914 -0.0711600388567175 0.07613610691705677 0.06311962514669742
-0.018390189063967444 -0.08204815250295627 0.05174810383088907 0.02824767243355283 -0.03739371586710585 -0.027879782021045685 -0.06285581642426422 0.02632408520749599
-0.02908719515948215 0.019435734777487532 -0.03702879697084427 -0.04959858003959437 0.031454975842034855 -0.03336928567279796 0.03003887811484093 -0.034904595464468
00000000: e310 008e 8b18 ad3f 2ced e2b0 a4c5 a9bf
00000010: 0000 0080 4b6e b4bf 45f5 545e 499f 8fbf
00000020: 0000 0000 a9e5 893f 0f14 e79e 336c a3bf
00000030: 7dc8 630b 05a0 b13f 6d37 bb29 e4a1 47bf
00000040: 0000 0080 7acb 95bf e111 6fb9 9e74 b03f
00000050: 54fa 26f7 f24b 703f 34a0 7d15 2baf 9d3f
00000060: 5e3c a829 b733 a3bf d3b2 62f0 9724 b1bf
00000070: 492c fb02 dc50 b4bf ba02 dced 864b b23f
00000080: 22c3 af2a a695 843f 442e 4b1f b02c a5bf
00000090: 0000 00c0 3749 a13f 62f1 9727 ff74 933f
000000a0: b94f a6f4 c6d3 a6bf 78a5 5594 68bf b43f
000000b0: 4f4b df0d 4eaf afbf 7c3f d4f0 a7e1 b0bf
000000c0: eb6b b972 e4f4 97bf 0000 0060 916a b03f
000000d0: 2ec7 b790 4f16 abbf c554 1633 8869 903f
000000e0: 3f42 6615 16a1 963f 0000 0000 b428 85bf
000000f0: 94b6 52bb 9405 b03f ed22 33b2 a02c b2bf
00000100: e76b 547c 1c10 693f 31f0 fe29 83b4 a2bf
00000110: a157 cf3f b6a5 713f 0000 0000 b358 86bf
00000120: 0000 0000 229a 9c3f cd42 6eb6 244f a53f
00000130: 0876 7da3 684d 943f 94c8 3113 1bf9 b7bf
00000140: 56f1 e70c 132f 96bf 0000 00a0 86f3 b0bf
00000150: 816a e151 138c 96bf 7721 651d 22cf 82bf
00000160: 633a 23cc a826 913f a57d f1e7 1e00 b43f
00000170: 0c95 dbbd b602 a9bf 8c3c 75cc 3bf7 743f
00000180: 569c 7935 19fa b33f 0000 0040 d5af ab3f
00000190: 0000 0000 6ecd a4bf 637e b185 7697 533f
000001a0: fab5 013c 2462 a43f f448 c8d6 c6c9 883f
000001b0: 0000 00a0 7861 b63f 0000 00c0 3583 a53f
000001c0: 83a9 9494 4118 993f 8045 8b0d 3d51 893f
000001d0: 0000 00c0 3270 a5bf c58d bd51 a7c2 b13f
000001e0: ccb5 cd59 f528 793f 4701 ddd5 7d6b aabf
000001f0: 787f b645 5f62 ac3f eac1 0980 6739 b0bf
00000200: 992c 4a73 8b44 a2bf d672 69df 809f b0bf
00000210: 9d5d 1a04 6595 a1bf e9e8 cc71 96fe b0bf
00000220: 0000 0000 2070 a0bf 799b 2b56 874e 8dbf
00000230: 0000 0080 315c b0bf 0000 00c0 41cb a73f
00000240: 0000 0080 7cc2 99bf 0000 00e0 952f adbf
00000250: de0c 6d63 7b24 b5bf 0000 0000 7510 86bf
00000260: 283c 9ed1 86db 8c3f 025f 0f8e 7878 a03f
00000270: 0233 ed4f f725 b7bf d17f a019 6914 ab3f
00000280: 0000 0040 1d0b b3bf 1faf 6cca 8055 a4bf
00000290: 0000 0040 a91b b0bf 6bbe 588f 73d8 94bf
000002a0: 68cb c61e 8c97 643f 833a 304f 62f1 a0bf
000002b0: 0000 0000 a031 5dbf 0050 9b0c 3f39 a3bf
000002c0: a2f1 7784 f1a6 92bf 8357 ea0c 8a8a 953f
000002d0: b26a 6a9e 1563 ac3f d7c7 e55f fa37 72bf
000002e0: 08c1 f85a e68b 66bf c87a da64 bb16 a4bf
000002f0: bccf c22f 3678 aebf 0000 00a0 424f b63f
00000300: 24b5 523b b336 a03f 6809 48c1 39bb ad3f
00000310: 0ac3 5667 d5fa a7bf 30a3 1bd0 559b b4bf
00000320: 9e22 f302 a277 b03f 7e23 57ef 5bf9 b5bf
00000330: bd38 4abd 2683 b6bf 0ac1 bad2 89a8 643f
00000340: 546f ed7a 227c b5bf b89c c19c e613 b4bf
00000350: 0000 00c0 b273 ac3f 44ec 8bdf de6a b2bf
00000360: 386e 5ee5 1d9f 973f cae6 77ab 01a3 8fbf
00000370: 9f5e c89b 50e0 b0bf 271d 6d7b a9da b33f
00000380: a7dc c174 2015 a3bf ef6e 4dea 679a b5bf
00000390: 937e 2e36 08f6 aebf 3676 9ba9 ffd3 a1bf
000003a0: fce0 2766 e338 b1bf 0000 0000 3cfa 763f
000003b0: fe0b 7288 dcfa b03f dccd 01fb 09be 733f
000003c0: f87c 76c3 90d2 7e3f 2b44 8ee8 6378 a4bf
000003d0: 0000 0000 cdfc 84bf 1050 c547 97b2 b0bf
000003e0: bd3d fb5f ae60 9a3f 2eee 482d 8341 a8bf
000003f0: dc02 1d00 24c7 9fbf 0000 0000 5aca 763f
00000400: c083 1414 071a 933f 8363 4d82 041a 903f
00000410: 0000 00c0 4b09 b5bf eff5 511d b9c3 a23f
00000420: 0000 0000 9eb3 82bf d4d4 f904 0f78 a63f
00000430: a09e 7a3e 8108 8cbf a76e 7280 18fc b0bf
00000440: 0000 0000 3d6c 8b3f 1f51 6e64 2608 b3bf
00000450: ae01 84cc 923b b03f ab41 de6f 77ae a43f
00000460: 16b7 f7f2 94be a73f 273b d33a b9f9 a03f
00000470: 2c21 85e5 4664 773f e7b0 93c3 cbb8 aebf
00000480: 0a13 5eb6 de27 a9bf 87f8 4435 a9b5 8c3f
00000490: 0000 0000 33ae 933f 9c45 5c29 e1db 593f
000004a0: db9e 3675 b41e b43f 69e3 d1f7 ddf4 aa3f
000004b0: ed20 ad5a 67fb b7bf b60e 31ad 1d0d 813f
000004c0: 9a11 23b6 ea4f 9bbf 0000 0000 0256 7fbf
000004d0: 23af 6d4f 8320 aa3f df7d 73c0 f0e7 a53f
000004e0: 9bdb 0d09 3809 b73f 0000 00c0 9f3a b6bf
000004f0: c19d 8c15 afee a0bf 334a 0014 3478 94bf
00000500: afa9 b25e ab26 b23f 19b0 b07c ee9a 55bf
00000510: 0f6e 3832 0cc5 b3bf 0000 0000 e243 8a3f
00000520: 0000 00c0 0b3d b2bf feed da9a d095 b73f
00000530: ee49 4d68 9186 b2bf 77d0 ead1 2792 b23f
00000540: 0d47 a72f 604a b33f 0000 0000 d3cd a13f
00000550: 992f 5bf2 a6b3 a0bf 9681 e65e 3385 a5bf
00000560: 2d1e f18d 36dd af3f 9d0f a279 34c7 8e3f
00000570: 96e5 99be 3bac 8b3f 045c 99a9 69b6 b23f
00000580: f113 060a ec80 b0bf 0000 0080 116e aebf
00000590: 8076 f0eb c2ee 9cbf 6da1 bce1 0a34 7c3f
000005a0: cb5f 8b2f c070 873f 246a e8a8 996f b5bf
000005b0: 0000 0080 f5a8 a6bf 0000 0000 d0a3 883f
000005c0: 02cb f4ba 0491 96bf 1bde 4e96 cf6a aebf
000005d0: 0000 0040 f6a3 9bbf 2abf 2ecc 28dc 8e3f
000005e0: d9aa c236 4a8f b3bf fb05 46bb 3efd 8c3f
000005f0: c1fe cc7f aa35 a9bf 14e8 291f 9893 a1bf
00000600: 9c13 cef7 d790 b43f 3b46 caf3 7092 b4bf
00000610: ac42 fc88 ad7f 923f 040c eaff 38ea 97bf
00000620: 0000 0000 e4f6 973f eae1 7c15 af43 90bf
00000630: 0000 0000 6f64 863f 0000 0000 2bca a1bf
00000640: 0000 00e0 8f19 b6bf 0000 0000 1783 913f
00000650: bf0f 56f2 afe8 a1bf 0000 0000 826c 81bf
00000660: a129 b66d ba19 ad3f 2123 d4a5 d594 8a3f
00000670: f4f1 0e8e 423d a3bf 1d83 ddf6 4b7e ac3f
00000680: 0000 0000 bedd 813f 2249 cd1b 613f b53f
00000690: 0000 00c0 8c04 a23f cbec 0ce7 db59 a8bf
000006a0: 1f9c 33ca 643d b13f 896e cf84 e39d af3f
000006b0: 0000 0000 e053 693f 418c c457 14fc 963f
000006c0: aaa9 f6f2 d748 b13f 85ac 5232 7dfe 91bf
000006d0: 4c04 fbb0 044f a0bf 8546 a8c5 2e6a a93f
000006e0: 98a9 da80 896b 81bf 1895 f452 8b38 a23f
000006f0: c867 4e07 fe26 a8bf 0000 0040 1861 b4bf
00000700: fae0 d867 9120 a9bf bdb2 5241 2ac7 b03f
00000710: 2861 1418 c3c0 8b3f e44b 854a fe71 b53f
00000720: 074c 0777 f20b 963f 6aa6 d829 91b5 713f
00000730: 3035 9187 d4f2 af3f c2ab f85a d1df b13f
00000740: 73be af78 307b 883f 9aa5 7c60 d632 aebf
00000750: 0000 0040 47bc b3bf 2557 8004 af67 afbf
00000760: abfa 9649 950e a73f eff3 ab57 8b37 b2bf
00000770: 92e6 40e9 a77d b33f fea7 bd95 9b28 b03f
00000780: 3053 63b2 e0d4 92bf f889 b293 1b01 b5bf
00000790: 38d8 2a3b ba7e aa3f 1732 2935 f5ec 9c3f
000007a0: 0445 73e5 4425 a3bf 0000 0080 848c 9cbf
000007b0: 0ad5 e79b 5117 b0bf 08d5 4074 b3f4 9a3f
000007c0: 2df6 c49f 08c9 9dbf 29df f814 f6e6 933f
000007d0: 0000 0040 70f5 a2bf de6c 652e fc64 a9bf
000007e0: 0476 13d9 dd1a a03f 11a4 4f6d c715 a1bf
000007f0: 5774 72fc 82c2 9e3f 0000 00e0 03df a1bf

linear2.bias f8 [64]
-0.03601140841515648 0.00731386519591286 0.023972479157789457 -0.01900870825619095 -0.07159761365164885 -0.0749653572531821 0.02547109272536065 -0.056006942988702665
-0.06121250155576614 -0.035436892223654266 0.038883851918168795 -0.08023890278046994 -0.04020342742823517 -0.030028574971354752 -0.047377971998162245 -0.07886449012193866
0.043723018828218496 0.008672389807092895 -0.07911369457169493 -0.00862150358520504 -0.02388846014713642 0.049003247614241484 0.023626870070592807 -0.01475532272980959
0.04164793258236089 -0.08266887473627833 -0.026451030501891754 0.08417007099320084 -0.07281775908841023 -0.011737154225349699 -0.03494517053029877 -0.013629650964011007
0.013025212969306612 0.08002282040688881 -0.00643870058364843 0.06157292955499692 0.024673195769704157 -0.08009990643956685 0.038820070260705136 -0.001511075823982406
0.013271277024921055 0.019685250274579853 0.0577848376193757 -0.034756793159768797 0.04119204432062982 0.07175730298749862 0.013389457192607602 0.07866747006185316
-0.07968801443907982 -0.06588695095819981 0.07764680398255114 0.023135216865633156 -0.03698552091579754 -0.05123087841346665 -0.04799935076465322 0.02788658784797358
0.028567128616627684 -0.026438285885747686 -0.053552568303563995 0.061960476925922776 0.011613251811592664 -0.0461850479895848 0.0746614670534644 0.05928566813212452
00000000: 2f1c da5a 1670 a2bf 3247 2ebd 24f5 7d3f
00000010: e56d f2d7 3d8c 983f 02bc 32d1 0477 93bf
00000020: 6800 1ba1 3854 b2bf 7041 bcfd ed30 b3bf
00000030: 65c7 fe18 1815 9a3f 3e88 f828 f1ac acbf
00000040: 89a4 93b8 3e57 afbf 394e 58ca c824 a2bf
00000050: 517e a990 95e8 a33f 5e1d 4f67 898a b4bf
00000060: 1696 fb2b 8b95 a4bf 1131 ca8d cfbf 9ebf
00000070: a9d9 90f0 ec41 a8bf 72b2 e395 7630 b4bf
00000080: c030 e60f dd62 a63f a009 cc74 d4c2 813f
00000090: c8e5 d98a cb40 b4bf 68c3 869f 26a8 81bf
000000a0: a2c2 556c 3776 98bf 434a cd23 f416 a93f
000000b0: 3947 0a69 a431 983f f11a 88e4 0938 8ebf
000000c0: 0146 c6b8 e052 a53f 15b2 6391 c929 b5bf
000000d0: 55f3 cd9b fa15 9bbf 78c1 3776 2b8c b53f
000000e0: 6e4c da45 2fa4 b2bf 792d 5e2c a609 88bf
000000f0: 7f5b 2959 55e4 a1bf f2aa 2bc9 dce9 8bbf
00000100: 4e17 d07d f6ac 8a3f 09ce 9424 607c b43f
00000110: 44d5 f786 775f 7abf 3ee7 83ad 7c86 af3f
00000120: bcbb ac23 ee43 993f ce12 926e 6d81 b4bf
00000130: 0474 6568 39e0 a33f eade ba4f e9c1 58bf
00000140: 8bb2 62a6 f82d 8b3f 3253 92c8 5e28 943f
00000150: a14d 8f67 f995 ad3f 05be de73 a4cb a1bf
00000160: 2dcb 6ca6 1f17 a53f a999 94c5 af5e b23f
00000170: 670c 0786 ee6b 8b3f 59ba 2c23 8d23 b43f
00000180: 6926 e607 6f66 b4bf 6d3f 999b f7dd b0bf
00000190: 7475 be33 a9e0 b33f 4688 4b1f c2b0 973f
000001a0: 308b 8425 c4ef a2bf f391 a906 ef3a aabf
000001b0: bfde 86f3 5e93 a8bf 1b60 373b 4d8e 9c3f
000001c0: 5e9e 988c b340 9d3f fb61 f754 a312 9bbf
000001d0: fb12 f602 3e6b abbf 8132 159c 48b9 af3f
000001e0: 3b18 d945 b0c8 873f d3e1 5b0d 91a5 a7bf
000001f0: 4d19 448f 031d b33f dc7a 7feb b05a ae3f

linear3.weight f8 [3, 64]
-0.05481337092923929 0.07539865403205197 0.12580495164762748 -0.013044842805162453 -0.0468952125717279 -0.06077098205141012 0.05553688491033142 0.024424563741630094
-0.2487360513523659 0.19922898035514278 0.0668907227774046 0.12117035231570866 0.024324513920178335 0.16286850761596405 -0.14879138566082067 0.09003488024546241
0.028147488211232332 -0.18440847670261695 0.044023222045029405 -0.16290186165829623 0.12323019393885472 0.09305327515644002 -0.11179597510420666 0.12790352251012166
-0.1277827287141409 -0.05484829120048864 -0.04352691600217372 -0.06049941778920989 -0.059856601230968615 0.14113340815909803 -0.17835926808961486 0.0022133657285942476
-0.15755284022971244 0.11253023119727087 0.09428065426485749 0.0589931516228002 0.07367034666284376 0.04038730854747601 -0.08370369899856553 -0.10066998880604584
0.10258999500626857 -0.0875607436284965 0.13056099082195763 -0.10958738610857115 0.05521434654105368 -0.1536386639051456 0.004411868160264342 -0.16727788634680282
-0.11494624486295303 0.03139814686660799 0.12001792314958422 -0.021211220175860235 0.009704564860886548 0.08532726944968175 0.14890101126462685 0.11322740952907365
-0.09492155922335879 -0.10822324906276391 0.051736796437539624 0.002858955238947084 0.15780268222345165 -0.0006939807003821303 0.1462241001461595 0.11568136143522546
0.06798575756501209 0.09886033107338048 0.07426046269043184 -0.10821443143241806 -0.005856917272201175 0.09036237232654433 -0.0001262135928542045 -0.0006362694529322785
0.036885320724808754 0.16434931013114026 -0.07452384917143967 0.0671287992953171 -0.1300446550673466 0.1250838647914867 -0.05565069870015975 -0.02889252394115473
0.014746010008184818 0.029030954701528836 -0.05637636344412854 0.1078233438312451 0.08916937238725471 -0.0010053201463243613 0.16962264193359416 0.08207821370357903
0.10774914812723668 -0.02019020483469112 0.08648741359820622 -0.12137117672091265 -0.10537877760922804 0.005873536782727489 0.01094845608553629 -0.07589742784842816
-0.012174438656653979 0.09483523801471501 0.04487136955442552 -0.08040894731752303 -0.048937044237660474 0.11974932288663545 0.11385985176387148 -0.08158454857602918
0.03226173964796545 -0.0998923665629232 0.09713635882329487 0.10747453044398986 -0.02678842232710099 0.057720538929835814 0.16836985328127269 0.1125453927323939
-0.005479769630671095 -0.16752941286023504 0.007715597679125726 -0.12208795807737609 0.03082919967020699 0.07185972586596308 0.036630523640594624 0.06871018990410772
-0.09807945979370006 -0.006477722121703003 -0.017294651175790876 0.097166243620712 0.09202990234088407 -0.0783049094355633 -0.013791690145391873 -0.1505926299663809
-0.07176089142703165 0.014012418207251057 -0.09086375954622763 -0.038147998697332576 0.08771357696364136 -0.07649741449273975 0.12608769229660458 0.07913676789086742
0.042916564196130436 -0.14957755877966442 0.04376280965018492 -0.10326442356079403 -0.029866478229968175 -0.012218558763995326 0.14334310643758572 -0.035444677976747004
0.005779580198360864 0.0072381793354151115 0.03275478312559262 0.08655084315206418 -0.05060362235066101 -0.09772380730885216 0.15884830177088555 -0.08636393812371938
0.12619289510011072 0.19404971935137347 0.11371281459116277 0.11124946165947606 0.13108938286565583 0.08605891354148912 0.050437471492757215 0.07207743382107472
-0.10051351970620125 -0.2716881792492165 -0.03241776290257288 0.09699244381083538 0.03929981844540732 -0.1305047485281506 0.14442056186959015 0.12476116363043414
0.0038450252849594373 0.06469618198592815 0.012941830299740062 0.10234271501669266 0.09818961497920009 0.10736783450995527 -0.11705496975639426 0.117358542536948
-0.06768578248151222 0.1025147231774648 -0.18517025526665257 -0.02016472720044554 -0.12188476162143293 0.07949696941366312 -0.1710019192645825 -0.14252375985455165
0.09364970232661404 -0.006448553861881257 -0.1915861106252505 -0.10776139001318534 -0.22191098243439913 0.04310175440138738 -0.05431906270882103 0.010219671903920024
00000000: 5b98 0c87 7f10 acbf a3e6 3a81 534d b33f
00000010: 932e 806c 601a c03f 294a d629 41b7 8abf
00000020: bf48 ab38 a602 a8bf b7c8 e9c8 5f1d afbf
00000030: d7bb d2a0 546f ac3f 0e1d f5b9 c002 993f
00000040: dd81 f23a 95d6 cfbf c737 85d1 5580 c93f
00000050: e818 bc1a c01f b13f 14d6 702c 0505 bf3f
00000060: e6f0 1c7f 86e8 983f 6423 e110 e0d8 c43f
00000070: de7c ab9b 980b c3bf 3c4e 27a2 860c b73f
00000080: 57c0 53f5 b1d2 9c3f 547e 456c b29a c7bf
00000090: 6159 e535 368a a63f b8d3 23dc f7d9 c4bf
000000a0: c1dc d894 038c bf3f 3825 95e5 56d2 b73f
000000b0: a6a1 e538 a99e bcbf aeb1 1c83 245f c03f
000000c0: 7112 6938 2f5b c0bf a329 e541 1315 acbf
000000d0: 0e3d 73f1 2849 a6bf 34d4 a999 c7f9 aebf
000000e0: d433 7941 86a5 aebf d04a 35d6 a810 c23f
000000f0: ff12 b1fb 79d4 c6bf 5c87 63ad c321 623f
00000100: 02da 1604 b12a c4bf 8eb8 cdfe c7ce bc3f
00000110: 2c8a b6e6 c622 b83f c5d7 d0b1 5934 ae3f
00000120: e715 9a51 0fdc b23f c70d c532 a5ad a43f
00000130: fec8 c009 9b6d b5bf c153 9c25 82c5 b9bf
00000140: c3df 7281 5643 ba3f c63e 4c82 616a b6bf
00000150: 5959 dbf8 38b6 c03f bbf3 633f eb0d bcbf
00000160: 59e2 5309 0e45 ac3f 95d6 6f86 6eaa c3bf
00000170: 3fce 66d7 2d12 723f 0b0d 9a9d 5c69 c5bf
00000180: 1101 7cfa 1d6d bdbf 7be8 e4fb 6a13 a03f
00000190: 857e dc9e 7eb9 be3f 6db3 dae3 64b8 95bf
000001a0: bc68 98a5 fcdf 833f 0a4d be07 02d8 b53f
000001b0: fc87 dc36 300f c33f ea2b f0b4 78fc bc3f
000001c0: 12b6 8c80 c74c b8bf ff34 64d3 84b4 bbbf
000001d0: d5e8 65d1 3e7d aa3f 086e 10e8 a96b 673f
000001e0: 8d76 afd7 e032 c43f 39da c234 88bd 46bf
000001f0: 70e4 01a8 78b7 c23f 11fd 1e30 4b9d bd3f
00000200: 15e4 55bd 8367 b13f 83f7 d420 e94e b93f
00000210: d727 a4d2 bb02 b33f c11c f5e3 f0b3 bbbf
00000220: 0951 3b42 6cfd 77bf b175 ee09 fd21 b73f
00000230: 2e69 da81 068b 20bf 4fe8 f23e 6ad9 44bf
00000240: 3e59 6efc a1e2 a23f 8b13 11f0 6509 c53f
00000250: 6c9f f6b6 fe13 b3bf aed7 975d 5a2f b13f
00000260: 5755 44a2 4da5 c0bf 48b3 4482 bf02 c03f
00000270: 665e d595 3f7e acbf 6562 b475 0096 9dbf
00000280: 6067 daf5 2733 8e3f c113 0f64 4aba 9d3f
00000290: 1e17 85da 5cdd acbf c524 8087 4f9a bb3f
000002a0: 5546 35d2 cdd3 b63f c959 a149 9e78 50bf
000002b0: 2e09 e2d9 31b6 c53f 272b 92eb 1303 b53f
000002c0: f8da 60bb 7295 bb3f 3bb0 dbb5 bdac 94bf
000002d0: f87f eb04 0a24 b63f cd7f b172 2e12 bfbf
000002e0: dc2a 8683 1afa babf 6c76 4c86 d90e 783f
000002f0: bdef a1e6 246c 863f 03a3 758a 036e b3bf
00000300: e917 057f e9ee 88bf 6d15 c845 1f47 b83f
00000310: 53a6 8651 61f9 a63f 29d8 0847 ae95 b4bf
00000320: a697 20b9 460e a9bf 8a28 8441 e4a7 be3f
00000330: 783a a753 eb25 bd3f 3233 fe97 b9e2 b4bf
00000340: a570 6659 9c84 a03f 1fff 81cf 8b92 b9bf
00000350: d908 66ac eddd b83f bcee 6869 7383 bb3f
00000360: e0af 3997 6c6e 9bbf 19b4 05e6 8b8d ad3f
00000370: 66d9 bcb2 248d c53f 35e2 195d c6cf bc3f
00000380: 814e a775 f471 76bf 4428 ad92 9a71 c5bf
00000390: 490b 37fb 639a 7f3f fb80 2d0b 2841 bfbf
000003a0: b4ae 6191 b091 9f3f 156c 7e24 6665 b23f
000003b0: 03b7 246a 3cc1 a23f 7943 8ab2 fd96 b13f
000003c0: 7229 3948 bc1b b9bf 4307 a54a 6288 7abf
000003d0: a072 c864 b0b5 91bf d649 a00e e3df b83f
000003e0: 4ae4 ce8c 458f b73f 3559 2461 ca0b b4bf
000003f0: 1756 0c51 d13e 8cbf c0b3 5c8a 9e46 c3bf
00000400: a697 cff9 eb5e b2bf b50f 81ef 8ab2 8c3f
00000410: 1285 a4eb d842 b7bf a533 a06d 2288 a3bf
00000420: 4959 79a0 6574 b63f 5291 79a5 5595 b3bf
00000430: 91c7 6b39 a423 c03f 7f9e 00a6 4e42 b43f
00000440: 60ae 5bef 28f9 a53f 694b 9681 5b25 c3bf
00000450: 580d 7538 1468 a63f d1ad 088a 896f babf
00000460: 6d46 fa6c 5195 9ebf ee6a 5d32 0b06 89bf
00000470: 43d4 2021 1159 c23f 216b 7409 ce25 a2bf
00000480: e22f fc3e 54ac 773f 5278 73f8 c7a5 7d3f
00000490: 8bbd 9f24 3cc5 a03f e882 c730 3228 b63f
000004a0: 4746 1cce b7e8 a9bf cc9f 6e6c 6d04 b9bf
000004b0: a2c7 9022 2455 c43f 738e cb71 f21b b6bf
000004c0: f6a4 b8ba 1627 c03f 97c0 3407 9fd6 c83f
000004d0: af1e ce73 481c bd3f 0b6a 863f d87a bc3f
000004e0: 5f62 2172 89c7 c03f 02a3 30fb f407 b63f
000004f0: 6dd0 1bb5 f0d2 a93f db86 0aad aa73 b23f
00000500: 0fa9 f107 41bb b9bf 7073 25d1 5663 d1bf
00000510: 8aba f39e 0f99 a0bf 806c 202e 7fd4 b83f
00000520: 126c ec15 1b1f a43f 9b57 732d 61b4 c0bf
00000530: 5fc7 0c7b 5f7c c23f cb86 9afd 58f0 bf3f
00000540: eafa 3c3b 9a7f 6f3f 7d3d ced1 ed8f b03f
00000550: c524 1a0f 3f81 8a3f df04 fbd5 2133 ba3f
00000560: a07a 2461 f422 b93f 3ad3 dc59 757c bb3f
00000570: 9e1f f082 50f7 bdbf f837 1a9e 350b be3f
00000580: 2e8a 29fe da53 b1bf 40dc 67a7 673e ba3f
00000590: a1f7 47af a8b3 c7bf 8f48 6fef 0fa6 94bf
000005a0: b178 0bf9 d633 bfbf 8f46 c3d3 e959 b43f
000005b0: ebb5 6511 64e3 c5bf 8737 bdf3 373e c2bf
000005c0: 8edf c548 6df9 b73f 01a7 177f cc69 7abf
000005d0: c66b c0c7 e485 c8bf 43cd e01d 4096 bbbf
000005e0: a5e8 163e 9467 ccbf dbbd 1be3 6e11 a63f
000005f0: 207c c44b b5cf abbf 7953 d324 0dee 843f

linear3.bias f8 [3]
-0.13779746661584985 0.00620502455003298 0.07370362129841353
00000000: de19 4bee 58a3 c1bf 4f59 3698 706a 793f
00000010: f5cd 1293 3dde b23f
