runs/testrun-mnist-test-5r-20bs-10ep/0/LocalModel-0-Round4.pt (torch, 437591 bytes, 6 tensors)

linear.weight f4 [128, 784]
000000 35 32 f4 bc 25 43 ab bc 71 74 00 3d 57 a0 00 bd
       -0.029809097 -0.02090604 0.031361047 -0.031402912
000010 6a b1 f9 bc 9b e3 04 bd 7c e2 04 3c 8e 2b 57 bc
       -0.030480105 -0.032443624 0.008110639 -0.013132943
000020 92 27 45 bc dc 39 18 bc a0 bf 5e 3b 47 5b 11 3d
       -0.01203336 -0.0092911385 0.003398873 0.03548744
000030 78 8a fb 3c 80 1d 03 bc 66 71 d6 bc cf 21 a7 bc
       0.030705675 -0.008002639 -0.02617712 -0.020401863
000040 00 a5 8b bb da 07 0e bd 00 f9 a2 39 0e 56 e0 bc
       -0.004261613 -0.034675457 0.00031084567 -0.027384784
000050 e0 18 ba ba 98 87 a2 3c e0 41 9b bc 3a a3 9b bc
       -0.0014198087 0.019840047 -0.01895231 -0.01899873
000060 ce 98 70 bc 5c fd 5a 3c 6a 4b dc bc 00 28 22 3a
       -0.014684869 0.01336607 -0.026891429 0.000618577
000070 78 d7 3e 3c c0 f0 0b bc 72 13 b2 3c c6 fe 1e bc
       0.011648051 -0.008541286 0.021737788 -0.009704297
000080 40 96 14 ba 9c d7 ab bb 11 c2 e9 bc 18 e0 9e 3c
       -0.0005668141 -0.0052442085 -0.02853492 0.019393966
000090 76 60 c0 3c f5 49 90 3c f8 4c 24 3c 0e 26 55 3c
       0.023483496 0.01761339 0.010028116 0.013009561
0000a0 0b cd 40 3c 78 a9 e3 3c 68 d8 ab 3c 77 98 e3 bc
       0.011767636 0.02779077 0.020977214 -0.027782662
0000b0 05 69 e2 bb 9a 22 1c bc 68 c5 fc 3b 20 74 e6 3b
       -0.006909492 -0.009529734 0.0077139623 0.007032886
0000c0 9b ac 0c 3d 7e e8 a9 3c e1 f5 0d 3d a5 7c 09 bd
       0.034344297 0.020740744 0.034658317 -0.033566136
0000d0 92 aa ce 3c e8 3d 4f 3c 7a 67 d9 3c c8 5d 0a 3c
       0.025227819 0.012649037 0.0265386 0.008445211
0000e0 b8 c2 47 bc 80 52 78 3c 94 ff 0a 3c b6 32 3a bb
       -0.012192421 0.015156388 0.008483786 -0.0028411574
0000f0 66 22 ec 3b 70 29 11 3b 4e 70 83 3b 70 96 91 3c
       0.007206249 0.0022149943 0.0040111905 0.01777193
000100 c2 0e 14 3c 21 81 17 3c f1 f5 af 3c d0 3c 0e bd
       0.009036722 0.009247095 0.021479579 -0.034725964
000110 e5 05 b2 bc b1 0c 8f 3c f9 f4 9b 3c 86 80 ee bb
       -0.021731326 0.017462106 0.01903771 -0.007278505
000120 55 e7 af 3c a9 15 d4 3c 74 ea f0 bc 42 56 8a 3c
       0.021472612 0.025889235 -0.029408671 0.016886834
000130 84 3a 0b bd c0 05 b6 3c ae 03 12 bc 00 b9 4d 3b
       -0.03399135 0.022219539 -0.00891201 0.0031390786
000140 40 19 f1 ba 08 e0 9d 3b d6 38 e1 3c 70 8d b9 3b
       -0.0018394366 0.0048179664 0.027492922 0.0056626126
000150 10 58 b4 3b 00 2f d7 3c ce 95 86 3c 09 6f d6 3c
       0.005503662 0.026267529 0.016428854 0.026175993
000160 91 5a f8 bc 84 2c 66 bb f9 ba 06 bc 11 09 db 3b
       -0.030316623 -0.0035121748 -0.008223289 0.0066844304
000170 3a 7a d1 bb a3 ba 0c bd d4 e0 6a bb 64 eb 79 3c
       -0.0063927444 -0.03435768 -0.0035839574 0.015253875
000180 66 6c 0c 3d c0 24 7a 3c e3 86 ab 3c fd ca cf 3c
       0.034283064 0.015267551 0.020938342 0.025365347
000190 79 fc f6 bc d1 e2 c7 3c b6 34 01 bd 4f 6f eb 3c
       -0.030149685 0.024400147 -0.03154441 0.0287396
0001a0 0a f2 1a ba 2d 89 bb 3c 59 45 32 3b 31 3e 0f bd
       -0.00059107004 0.022892559 0.002720198 -0.03497142
0001b0 f2 23 be ba 10 9c e0 3c c8 8a 03 3c 44 cb 87 3c
       -0.0014506562 0.027418166 0.0080286935 0.016576417
0001c0 08 a9 07 3c c8 fb 5c 3c a4 5d a3 bc 6b 22 a1 3c
       0.008280046 0.013487764 -0.019942112 0.019669732
0001d0 19 e4 ab bc 63 61 d8 3c 8a 08 e5 3b ca 5e c9 3b
       -0.020982789 0.026413625 0.0069895433 0.006145333
0001e0 dd 55 e6 bc 02 d9 43 3c 1f ce cc bc 7f a2 a8 3a
       -0.028117115 0.011953594 -0.02500063 0.001286581
0001f0 72 81 04 bd 65 7c da 3b 24 c0 e7 3c 14 d4 99 3c
       -0.03235001 0.006667661 0.028289862 0.018777885
000200 3a 5b a8 bc a5 83 bd 3b ab e7 cf 3b 11 6e 34 3b
       -0.020551313 0.0057835155 0.0063447556 0.0027531425
000210 ef c7 24 3c af 1b 98 3c 7e 1c 73 bc 77 fa 11 bd
       0.0100574335 0.018567888 -0.014838336 -0.035639253
000220 97 45 e2 bc 86 e8 bc 3c b8 d8 6f 3c e8 5f c5 bc
       -0.027621074 0.023060095 0.014639072 -0.024093583
000230 42 2d c0 3c dc 1f 64 3c 8c e0 84 3c 2b e9 ff bb
       0.02345908 0.0139236115 0.016220354 -0.007809778
000240 e8 c0 b3 bc 23 28 8f 3c be 1c 27 bc 42 7d 4e 3c
       -0.02194257 0.017475193 -0.010199724 0.012603106
000250 f8 7c 26 3c 8a df c4 3b f9 ca c7 bc 09 46 0c ba
       0.010161631 0.0060080932 -0.024388777 -0.0005351012
000260 af f8 6a bb c6 88 03 3d 32 87 29 bc e9 f4 1a 3c
       -0.0035853793 0.03211286 -0.0103471745 0.009457805
000270 b6 ce 02 3c fb c4 ce bc f3 09 0c 3c 7d ba 2d b9
       0.007983854 -0.025240412 0.008547294 -0.00016568038
000280 60 dd 35 3c 64 37 0e bd 25 2a 36 bc 86 41 5d 3c
       0.011100143 -0.034720793 -0.0111184465 0.013504392
000290 68 3c c0 3c 87 66 65 bc b2 6c d5 3b ae 76 df bc
       0.023466304 -0.014001495 0.0065132016 -0.02727827
0002a0 0c 83 92 bc 55 b3 bb bc 84 ef 7f bc 02 21 0c 3d
       -0.017884754 -0.02291266 -0.01562107 0.034211166
0002b0 1a 8e 03 bd 0a 5e 0c 3d 74 ba 56 bb 30 c5 f2 3c
       -0.03211794 0.03426937 -0.0032764943 0.029635042
0002c0 df 7f 0e bd ce 64 94 bc c9 4e 0a bd 50 31 a1 bc
       -0.034789916 -0.018114474 -0.03376654 -0.019676834
0002d0 23 4b ae bc cd 4e 47 3c 0a 8b c7 bc 85 81 1f ba
       -0.021276062 0.012164784 -0.024358291 -0.00060846686
0002e0 99 37 4d 3b 41 d2 0f bc 0a 72 b0 3c 21 e2 cd ba
       0.0031313656 -0.008778156 0.021538753 -0.001570765
0002f0 08 bf 8e b9 21 50 f2 bb 30 38 4c 3c 96 c1 c1 3c
       -0.0002722668 -0.007394806 0.012464568 0.02365188
000300 f0 d1 33 3b 5a d6 c3 3b 88 50 cb 3c 8d 98 4d 3c
       0.0027438365 0.0059764804 0.024818674 0.012548578
000310 1f b5 0f 3d 33 a8 10 bd 4a 6d 51 bc f8 e3 f2 3c
       0.03508484 -0.035316657 -0.012782404 0.02964972
000320 16 43 d5 bb 30 d7 7a 3c 18 ae b8 38 04 ad 0d 3c
       -0.0065082414 0.015310094 8.806231e-05 0.008647207
000330 1c b6 97 bc 03 8a b1 3c a1 0f 03 3d 49 fd fb 3c
       -0.018519454 0.021672254 0.031997327 0.030760424
000340 72 e2 9a bc 1d cc d2 bc e4 e2 dd bc 26 22 a0 ba
       -0.018906806 -0.025732094 -0.027085729 -0.0012217208
000350 02 f0 df 3c 36 ec d3 3c 29 d1 72 3b 19 4d 90 ba
       0.027336124 0.02586947 0.0037050939 -0.0011009305
000360 35 3b c1 ba cc 24 ff 3c 72 02 59 3c 34 06 89 bc
       -0.0014742377 0.031145476 0.013245212 -0.01672659
000370 ad 38 4f 3c 69 96 9b bc c0 2f a8 bc 12 78 5c 3c
       0.01264779 -0.01899262 -0.020530581 0.013456361
000380 c1 f2 88 3c 85 03 31 bb dd 8c d2 bc 49 88 b0 bb
       0.016717317 -0.0027010154 -0.025701934 -0.00538734
000390 cc b8 78 3c 24 67 a1 bc a7 fb b4 39 f9 c3 b6 bc
       0.015180778 -0.019702502 0.0003451977 -0.022310244
0003a0 bd b2 ac 3c 33 08 3a bc 18 4b 81 bb ce d1 0b 3d
       0.021081323 -0.011354494 -0.0039457195 0.034135632
0003b0 28 fe 02 3c 22 01 0d 3d a4 0e d3 3c 77 95 0e 3d
       0.007995166 0.03442491 0.025763817 0.03481051
0003c0 bd 97 e2 bc 59 5c 04 3c 97 b2 ee 39 f5 97 8a bc
       -0.027660245 0.008078658 0.00045527957 -0.016918162
0003d0 a1 cf 0e bd 53 96 dc bc e9 6a 04 bd 92 3f 05 3d
       -0.03486598 -0.026927149 -0.03232852 0.03253133
0003e0 0b 12 67 bc 65 25 01 3d 83 8d ea bc ac 8c b2 bc
       -0.014103423 0.031529803 -0.028631931 -0.021795593
0003f0 04 7c 52 3c 72 03 99 bb 20 c3 c6 3c 04 65 b7 3c
       0.01284695 -0.0046696 0.024262965 0.022387035

linear.bias f4 [128]
000000 0b bc 00 bd b3 89 87 bc a5 bf f7 3c 3f 1f 23 3c
       -0.03142933 -0.016545152 0.03024275 0.00995618
000010 21 a0 03 bd 1a 21 f6 bc 41 0e c1 bb d7 e8 91 ba
       -0.032135133 -0.03004508 -0.005891592 -0.0011132014
000020 46 f4 3b 3d 88 ed a0 3c d2 a7 31 bc 5b f9 59 bc
       0.045887254 0.019644514 -0.010843234 -0.01330408
000030 27 6a 9d bc 7a 36 bc bb be 89 55 bc 7d ad ca bc
       -0.019215656 -0.005743799 -0.013033329 -0.024740929
000040 75 59 a7 3c c2 ca 90 bc 6e 07 cc bc 12 10 17 3c
       0.020428399 -0.017674807 -0.024905887 0.00922014
000050 5d 6c 99 bc 2a 12 c6 3b 73 70 cb bc 61 47 d6 bc
       -0.01872843 0.006044646 -0.024833893 -0.026157083
000060 a9 47 cf 3b 01 90 b3 bc 74 fb ec 3c 17 81 ad 3c
       0.006325681 -0.021919252 0.028928496 0.021179719
000070 6b 46 19 3d 89 90 b7 3c 55 35 54 3c bb 9d 38 3b
       0.03742067 0.022407787 0.0129521685 0.0028170187
000080 4b c8 4f 3c 67 ee 16 bc 06 63 d3 3c 51 74 09 bd
       0.012682031 -0.009212113 0.025804054 -0.033558194
000090 d6 64 7f 3d d3 b2 5a bc 2f 89 c0 3c c6 4a ca bc
       0.062352024 -0.013348299 0.023502914 -0.024693858
0000a0 28 3f 59 bc 6c 9b d6 3c f4 c8 ab ba d7 63 f5 bc
       -0.0132596865 0.026197158 -0.0013106153 -0.029954834
0000b0 0f 9b e1 bc 8b 58 16 3c d1 86 09 3d 0f 50 e1 3c
       -0.027539758 0.009176384 0.033575837 0.027503995
0000c0 71 e7 1a 3b 00 d5 0b 3c 16 59 22 bc 03 90 ed 3b
       0.0023636485 0.00853467 -0.009908935 0.0072498336
0000d0 d7 d6 62 3b 4f 48 de 3c 28 a0 a0 3c 3e a5 9f bc
       0.0034612918 0.027134089 0.019607618 -0.019487973
0000e0 eb 28 c0 3c ca 68 3d bc b8 10 d4 3c 33 39 17 bc
       0.023457011 -0.011560628 0.025886878 -0.009229946
0000f0 c0 f5 9c 3c df 73 d2 3c 28 40 06 bb c0 f0 74 3c
       0.019160151 0.025690017 -0.0020485017 0.014949977
000100 66 23 8e b9 03 4e 8a 3b 9b c0 e3 bc 57 19 2a 3c
       -0.00027110724 0.0042207255 -0.027801802 0.010382018
000110 1c c7 37 3c 7c d6 c6 3b ff 30 ba bc 1f 04 6e 3d
       0.011216905 0.006068049 -0.022728441 0.0581094
000120 fc 03 90 3c a7 4e 71 bc e6 0f db bc 81 17 5b bc
       0.017580025 -0.014728225 -0.02674098 -0.013372303
000130 f1 b6 01 3d ea 35 9e bc 27 76 27 bb 25 9f 03 bd
       0.031668607 -0.019312818 -0.0025552602 -0.032134194
000140 53 7a 6f 3d ec f1 90 bc d7 bb f1 3c fc a3 c1 bc
       0.058466267 -0.017693482 0.029508514 -0.023637764
000150 4f 0f 76 3c 0b 0b d9 3c 50 9b b3 3b 71 7e e2 3c
       0.015018298 0.026494524 0.005481161 0.027648183
000160 15 2a d3 3c 7e 50 cc bc 47 74 13 3d c4 71 2a bc
       0.025776902 -0.024940725 0.035999563 -0.0104031
000170 81 f6 2b 3d b0 34 80 3a fe fd c3 bc 13 d4 02 3c
       0.04198313 0.0009781327 -0.023924824 0.007985133
000180 46 ee 8b bb 17 29 d2 3c bc 7f b3 3b 8e 7d 42 3d
       -0.0042703478 0.025654359 0.0054778736 0.04748302
000190 0e 37 bd 3c 54 72 09 3c 56 ab ab bc c1 16 c8 3c
       0.023097541 0.008389074 -0.020955723 0.024424912
0001a0 af 63 81 3c 71 83 ca bc 0d 7c 55 bb 3c 06 a4 bc
       0.015794603 -0.02472088 -0.003257516 -0.020022504
0001b0 06 33 f6 3c fd 89 06 3d 23 60 19 bd 43 3b 58 3d
       0.030053627 0.03284644 -0.0374452 0.05279089
0001c0 68 e3 0c 3d df 0c d5 3b c2 c0 15 bd be 18 57 3c
       0.03439656 0.0065017785 -0.03656078 0.013128458
0001d0 6e 03 00 bd 79 19 d1 3c 23 b6 f6 3c 6a f1 64 3c
       -0.03125327 0.025524842 0.030116146 0.013973573
0001e0 02 66 97 bc 45 ca a1 3c 70 7b d7 3c 85 ec 86 3d
       -0.018481258 0.01974977 0.026303977 0.06588081
0001f0 b2 e7 43 3b 7b 04 3d 3c f6 48 ea 3c c0 2e cc 3b
       0.002989274 0.011536713 0.028599244 0.006231159

linear2.weight f4 [64, 128]
000000 bd fd 2c 3d 4a c1 bb bd 49 53 b0 bd 37 6f 0b 3d
       0.04223417 -0.09167726 -0.086096354 0.03404161
000010 4b 96 2f bd f0 90 41 3d 59 03 07 3d fc 8b 81 3d
       -0.04286794 0.047257364 0.032962177 0.06325528
000020 b6 af ac bd 05 a8 f3 3d aa 58 c8 3d d7 8c a5 bd
       -0.08431952 0.118972816 0.09782536 -0.08083504
000030 20 36 57 bd cd 05 97 bd d2 cb 8f 3d cb 94 bc bc
       -0.052541852 -0.07374153 0.070212975 -0.023020169
000040 cd a8 b0 3d cc b8 8c bd 93 ce 04 3d 41 3f b3 3b
       0.08625946 -0.06871185 0.032423567 0.005470187
000050 87 6a ae 3b 15 f8 41 bd 48 e7 82 3a fb bd 82 3d
       0.0053227576 -0.04735573 0.000998714 0.06383892
000060 e0 87 ec bc db fa a4 bc 6a 05 b8 3d 3e 5f 48 bd
       -0.028873384 -0.020139148 0.08985408 -0.048918955
000070 45 a9 04 3d 04 5c fd bb d4 dc 82 bd be 2d 9a bd
       0.03238799 -0.0077319164 -0.06389776 -0.07528256
000080 83 90 a2 3c 31 99 b0 3d e1 8f d0 3d 0f b4 0e 3d
       0.0198443 0.08622969 0.10183693 0.034839686
000090 58 ae cd bc 3e 65 70 3d aa 48 24 3d 24 2d 7a bd
       -0.025107548 0.058690302 0.04010836 -0.061078206
0000a0 fc d3 7b bd 73 cd bf bc 89 03 8b 3d c5 1b 90 bd
       -0.06148146 -0.023413396 0.06787784 -0.070365466
0000b0 e2 f9 ea bc bc df 97 3d 83 6f b4 3c ee e3 38 bd
       -0.028683607 0.07415721 0.02202583 -0.045139246
0000c0 02 d4 f8 bb fe 1c b0 bd 16 1b 1a bd c3 04 c7 3c
       -0.0075936327 -0.0859928 -0.037623487 0.024294263
0000d0 d6 d1 63 3d a0 d1 39 bd 39 92 ea bc be de 7c 3d
       0.055620037 -0.04536593 -0.028634178 0.06173586
0000e0 52 80 50 3d cc 8b 75 bd 0f f9 25 3d 39 0c 11 bd
       0.050903626 -0.059947774 0.040520724 -0.035412047
0000f0 44 9e 6f 3d 84 47 80 3d a3 5d 33 bd ba 7f 09 3d
       0.058500543 0.062636405 -0.04379047 0.033569075
000100 7b d3 a6 bd 8c 82 68 bd 5f 94 85 bc 28 2f 9f bd
       -0.081458054 -0.056765124 -0.0163061 -0.07772666
000110 7a 9a eb 3c e5 1b 5d 3c a3 a3 99 bb cb e3 dd 3d
       0.028760184 0.01349542 -0.0046886965 0.10834464
000120 69 b3 41 bd 29 bb 6b bd fe 59 0f bd f7 cc f9 3d
       -0.04729024 -0.057551537 -0.034997933 0.12197297
000130 9a 37 e9 bc e7 17 79 b8 16 ba 95 bd ba 42 39 3d
       -0.028468896 -5.9388487e-05 -0.07310884 0.04522965
000140 67 c6 36 3d 9b 2e 87 bc 57 44 b3 3c 82 86 93 bb
       0.044622805 -0.016501715 0.021883173 -0.0045021186
000150 35 9b 0e bd 3f 7d f6 bc f2 bb be 3c d1 03 5a bd
       -0.034815986 -0.030089019 0.023282979 -0.053226296
000160 3c db bc 3d 24 24 0a bd 9f a5 f0 3c 7a 69 3e bc
       0.09221503 -0.033725873 0.02937585 -0.011621827
000170 76 62 44 bd f0 32 07 3d f3 9f 05 bd e3 03 ca 3d
       -0.047945462 0.033007562 -0.032623243 0.098640226
000180 0b b5 b0 3c 5d ff ba 3d 3f 79 3a bd 01 0b 0b bd
       0.021570703 0.09130738 -0.045525786 -0.03394604
000190 6c 5d 75 3d 23 00 55 3d 28 52 74 39 94 08 96 bd
       0.059903547 0.052002084 0.00023300259 -0.07325855
0001a0 8d f4 49 bd a6 d5 00 3d f3 04 82 bd 71 97 80 bc
       -0.049305487 0.03145375 -0.063486 -0.015697213
0001b0 67 d1 10 bd 07 57 63 bd a5 9c 2a 3d 48 40 55 bb
       -0.03535595 -0.055502918 0.041653294 -0.0032539535
0001c0 a5 d7 21 bd 07 b2 34 bb 3c e7 88 3d 8d 04 4d 3c
       -0.039512295 -0.0027571933 0.066847295 0.012513292
0001d0 d1 6c 67 3c c2 87 5e 3c db 2e b3 bd 9f 6c b3 3c
       0.014125065 0.013582172 -0.08749171 0.02190238
0001e0 51 70 5f bc 46 33 88 3d 1e 54 77 3d 35 8b 3a 3c
       -0.013637618 0.06650405 0.060382955 0.011385729
0001f0 83 0f 15 bd 65 38 9a bd 28 e4 7d bd 5d f4 b2 bc
       -0.036391746 -0.07530288 -0.061985165 -0.021845037
000200 34 ab 8a bc 21 22 35 bd 59 0f 5b bd c3 f2 81 bd
       -0.01692734 -0.044222 -0.053481434 -0.06345131
000210 19 93 ff 3d 52 68 81 bd 9f fd ce 3c 19 16 35 3c
       0.124792285 -0.06318726 0.02526742 0.011052632
000220 ba 8d 81 bd eb e8 1c bd 81 39 9a 3d 67 e9 95 bd
       -0.0632586 -0.038308065 0.07530499 -0.073199086
000230 2c b6 9b bd 9d 0e 8b 3c c9 1b 11 3c 25 b4 c0 bb
       -0.07603106 0.016974742 0.008856722 -0.00588085
000240 51 c1 08 3c e6 cb a7 3d 42 72 42 3d 03 2f 50 bd
       0.0083468715 0.081931874 0.047472246 -0.050826084
000250 fc 3b 8b 3d 19 b4 7d bd 9f 11 a8 3c 05 f7 06 3d
       0.067985505 -0.061939333 0.020516215 0.03295042
000260 ed 0b 95 3d e3 a3 45 bd c0 15 d6 3c c9 39 02 3c
       0.07277665 -0.048251998 0.026133418 0.007948347
000270 65 df 1b 3d c8 58 2b bd 77 37 88 bd f4 d9 ea bb
       0.038054843 -0.041832715 -0.06651204 -0.0071670953
000280 ea 78 d1 bb 11 94 a4 bd e8 07 a5 bc e8 e1 69 3c
       -0.006392588 -0.08036054 -0.020145372 0.014275052
000290 9b 9d 88 ba 4a 04 b5 3d 84 7b 0f 3e 7d cc c7 3d
       -0.0010422947 0.08838709 0.14011961 0.097558
0002a0 d4 7e 4c bd 06 cf 9b bc a3 ce 4e 3c 85 e8 84 3d
       -0.04992564 -0.019019615 0.012622508 0.06489662
0002b0 c8 c6 6f bc 80 48 88 3d 3a 7a 37 3d 11 ab 13 bd
       -0.0146347955 0.06654453 0.0447943 -0.036051814
0002c0 f6 63 22 bc 66 04 a7 3d c8 9e 99 3d c8 b3 83 3d
       -0.009911528 0.08155136 0.07500988 0.06430775
0002d0 35 97 47 bd 45 88 93 3d 71 22 80 3d c0 d1 02 3c
       -0.048728187 0.07203726 0.06256569 0.007984579
0002e0 b2 23 b3 3d 6d ef c3 3c 10 9d 68 bd e9 f1 1b bd
       0.08747043 0.023917878 -0.05679041 -0.0380725
0002f0 83 b3 da 3d 17 48 d2 bc 20 ad 13 3e f5 a6 99 3d
       0.106787704 -0.02566914 0.1442151 0.07502548
000300 f7 7a a3 bd df b1 32 bd 49 dd 4b bc 75 8d 43 3d
       -0.07982438 -0.043626662 -0.012442895 0.047742326
000310 83 0a a4 bd 03 4a b5 3d 02 7f cd bb 48 ae ef 3c
       -0.080098175 0.08852007 -0.006271244 0.029257908
000320 53 8d a6 3d f6 3a b4 3d 57 a7 7a bd d7 e9 b8 3d
       0.08132424 0.088003084 -0.061194744 0.090289764
000330 83 a3 0d bd d3 4d 19 3d e9 4d 05 3d e3 b4 95 3d
       -0.034579765 0.037427735 0.032545004 0.07309892
000340 7c eb 58 3d 74 6a a2 3d 90 11 77 bd fb 90 d1 bc
       0.05295895 0.079304606 -0.060319483 -0.025581827
000350 21 c5 8e 3d a3 18 ce 3d b0 fd 4e bb 04 30 9a 3a
       0.06971193 0.10063293 -0.0031584315 0.0011763577
000360 4e 7e 08 3e 68 cc 98 bd e8 5f 56 bc f5 c6 20 3d
       0.13329431 -0.074608624 -0.013084389 0.03925224
000370 ec d2 28 3c a0 aa 42 bd 36 ff 1d 3d 5f f4 bd 3c
       0.010304194 -0.047526002 0.038573466 0.023187814
000380 53 e0 af 3a d7 ef 76 3d 1a f1 81 bc d2 82 d2 bb
       0.0013418294 0.060287323 -0.015862036 -0.0064242864
000390 bd 52 0c 3d ae 74 9e 3d a2 35 55 bd 74 38 c1 3d
       0.034258593 0.07737099 -0.0520531 0.09434596
0003a0 7d ff 2b 3d 73 6a 73 3c 61 71 33 3d b1 93 2e 3c
       0.0419917 0.014856922 0.0438093 0.01065533
0003b0 9e 87 8d bc 1e 6b d5 bc 9e 8d 93 bb 11 b2 9b bd
       -0.017276581 -0.026052054 -0.004502966 -0.07602323
0003c0 6e 86 66 3d 8a 9b 25 3e a7 a9 16 bd 91 cf a5 bc
       0.056280546 0.16172615 -0.036782887 -0.020240577
0003d0 8a 6b 86 3c fc 06 6e bd f4 56 a3 bd f0 04 36 bc
       0.0164087 -0.05811213 -0.07975569 -0.011109576
0003e0 92 5a 18 bd 3e 32 b5 3c 30 5d 48 3d d3 c2 86 bd
       -0.03719575 0.022118684 0.048916996 -0.065801285
0003f0 0c f1 4a bc 77 c0 1c bd 2c be 78 3d 4a 3c 2b bd
       -0.012386572 -0.038269486 0.060728237 -0.041805543

linear2.bias f4 [64]
000000 53 0b 1f bd 56 31 29 3d a2 dd 4a bd 06 76 74 bb
       -0.03882916 0.041306816 -0.04952777 -0.0037301793
000010 b7 8b 99 bd 61 f9 9e bd 6c 91 37 bd 98 37 34 3d
       -0.074973516 -0.07762409 -0.04481642 0.04399833
000020 23 fd fd bc 9a 20 34 bd 92 53 8b 3d 63 c3 62 bd
       -0.031004494 -0.043976404 0.06803049 -0.055362117
000030 d0 ba d0 3c a2 2c 3a 3d 57 f0 23 bd dc 89 11 3c
       0.025479704 0.04545272 -0.040024128 0.008882966
000040 0e d5 0f 3d de ea c5 bd 86 c0 33 bc c8 b3 91 bd
       0.035115294 -0.09663938 -0.010971194 -0.07114369
000050 db 6d db 3d 72 6e 76 bd a4 f0 af bd a6 98 98 3d
       0.10714313 -0.060163923 -0.085908204 0.074509904
000060 ab 29 d2 3b 51 48 59 bc 93 fb 92 3d 91 55 1e bc
       0.0064136586 -0.0132618705 0.0717689 -0.009663955
000070 7a 92 09 3d 95 67 e4 bc c6 cc d8 3c 20 3d 2e 3c
       0.033586957 -0.027881423 0.026464831 0.0106346905
000080 45 74 fc bc c0 81 ae bd 24 93 fb 3d 61 0d 57 3d
       -0.03081716 -0.085208416 0.12283924 0.052502993
000090 77 40 bf 3c 4e be 43 39 7b a1 83 3c 1d a2 62 bc
       0.023346169 0.00018667543 0.01606821 -0.013832596
0000a0 c5 f2 21 bd 34 4f 0a 3d 18 bc 73 3c cf 02 5d bd
       -0.039538164 0.03376694 0.014876388 -0.053957757
0000b0 56 0a fb 3d 2c 72 4d bd ef fe 58 bd d6 6e 67 bc
       0.12257831 -0.05015771 -0.0529775 -0.014125546
0000c0 ae a4 1f 3d 5b 25 18 3e eb f9 65 3d 13 cf be bb
       0.03897541 0.14858 0.056146543 -0.005823025
0000d0 1b bb 94 bb ed c9 c7 3c 16 1c ef 3d dd df 31 3c
       -0.0045389063 0.024388278 0.11675279 0.010856596
0000e0 2b 5c 83 bd a9 26 35 3e c1 69 ac bc 87 2c 80 bd
       -0.06414064 0.17690529 -0.021046521 -0.06258493
0000f0 cd 4f 47 3d 92 87 50 3d 5a 6d cf 3a 42 b3 15 3d
       0.04866009 0.05091054 0.0015825436 0.036547907

linear3.weight f4 [3, 64]
000000 58 1d 78 bd 1e 72 5f 3e e9 49 61 bd b3 3d 25 3b
       -0.06057486 0.21820876 -0.055002127 0.0025213778
000010 eb 99 13 3c dd 42 17 bc 11 0a 1f 3e 0f c7 a4 bd
       0.009008865 -0.00923225 0.15531184 -0.0804578
000020 9f 20 85 3d a5 92 8f 3e 24 01 a5 3d 33 4c 5a 3e
       0.065003626 0.28041568 0.08056858 0.2131813
000030 59 47 55 bd e6 6f 9a 3d d9 08 62 3e 42 ac 5c be
       -0.052069996 0.07540874 0.22073688 -0.21550086
000040 d8 5d 2d bd 67 7f c5 3d eb 19 42 3d cf cd e3 bd
       -0.042325824 0.09643441 0.047388 -0.11123239
000050 e3 85 36 be 21 88 b1 3d 10 be 61 ba 04 3e 8f 3e
       -0.17824511 0.08668543 -0.00086113904 0.27977002
000060 92 a0 84 3d b2 61 4f bd 29 61 a1 3e b5 ab 15 be
       0.06475939 -0.05063028 0.3151944 -0.14616282
000070 85 34 4c 3c a0 43 1f 3e c5 ea de 3d 90 48 50 3b
       0.0124636935 0.1555314 0.108846225 0.0031781532
000080 39 09 9a bc 48 8d 96 3e f8 97 4d 3c 8e 77 54 be
       -0.018803226 0.29404664 0.012548439 -0.20748731
000090 47 21 0d 3d ea 89 71 be 1e 11 c2 3d 01 0c 8a 3e
       0.034455564 -0.23587766 0.09475921 0.26962283
0000a0 fb aa 27 3e af 04 cf bd 47 a2 06 be 2f fb ee 3d
       0.16373818 -0.10108315 -0.13147841 0.11669003
0000b0 34 5e 49 be 19 72 45 3e 07 8c 80 bd e5 3a e8 3d
       -0.19664842 0.19281806 -0.06276708 0.11339358
0000c0 d2 17 44 bd 44 74 c7 be 23 ee 72 bd 7e 3d c7 3d
       -0.04787428 -0.3895589 -0.059309136 0.097285256
0000d0 5a a2 00 bd 16 27 a5 bc 61 84 97 be 65 18 a4 3c
       -0.03140483 -0.02016024 -0.29593185 0.020031163
0000e0 15 2f 16 3c a9 fb a5 be 09 ff 7d 3d 40 0b 44 3e
       0.009166499 -0.32418564 0.0620108 0.19144917
0000f0 be 54 8f 3d 46 b7 99 3e 9d 57 4c be e8 b9 0b 3e
       0.06998585 0.3002264 -0.19955297 0.13645136
000100 26 db 9c bc 74 fa 8f be 69 c3 e0 3d 2d 2e eb 3d
       -0.019147467 -0.28120768 0.109747715 0.11483417
000110 cc a0 40 be 2a 9d dd bd 2a 0c 35 be ab c6 a6 3c
       -0.18811339 -0.10820992 -0.17680421 0.020358404
000120 b3 88 57 bd 3b a4 6e bd 88 53 d0 3c d6 07 a3 bd
       -0.0526206 -0.05826209 0.025430456 -0.07960479
000130 30 b5 18 3e 14 98 68 3e 94 e3 37 bd 69 88 5b bd
       0.14912868 0.22714263 -0.04489477 -0.053596888
000140 cc 51 a4 bc 4b 93 7a 3d d6 02 00 3e b7 85 df 3c
       -0.020058535 0.061175626 0.12501082 0.02728544
000150 47 1d aa 3e a2 d9 0f 3d f8 0c d0 bc b7 79 2a be
       0.33225462 0.03511966 -0.025396809 -0.16647993
000160 13 2f 4b be 53 42 01 3e 00 a1 75 be 5a 6f 9d bc
       -0.19842176 0.12622957 -0.23987198 -0.019218136
000170 58 72 14 3e 7c 9e 81 be d5 62 43 bd 07 9a f2 bc
       0.14496744 -0.25316226 -0.047701675 -0.029614462
000180 7e f1 6a 3d c4 a9 81 bd 10 1e 53 3e ac e6 d3 bd
       0.05735921 -0.06331208 0.20616937 -0.103467315
000190 5a a8 73 3e ea d5 31 be 50 fd 5a bd 5e c2 bc bb
       0.2379469 -0.17366758 -0.053464234 -0.005760475
0001a0 6c fc c1 bd d9 ed 09 3e 05 c9 d8 3d ea d2 6b 3d
       -0.09471974 0.13469638 0.105852164 0.05757419
0001b0 99 c0 67 3e 5f 4e f7 bd bf 9c b2 bc 35 24 d2 bd
       0.22632064 -0.12075495 -0.021803258 -0.10260812
0001c0 e2 ab a0 3e b5 8f 6f 3e fe b6 71 3e d8 87 3d bd
       0.31381136 0.23394664 0.23604962 -0.04627213
0001d0 f4 f9 d0 3b 52 1a 46 be bd 63 79 3e 50 0a 92 be
       0.006377453 -0.19345978 0.24354453 -0.28523493
0001e0 5c 9b b1 3a eb d0 99 3e 94 e5 44 be 70 1b 25 be
       0.0013550329 0.30042204 -0.19228202 -0.16123748
0001f0 7c 1b 77 3e 84 8a d5 bd 0d 1e 98 3e 02 88 60 be
       0.24131578 -0.104268104 0.29710427 -0.21926883
000200 dc 6a 78 3e 39 f3 41 3e 7f 08 08 be 75 3b 7e 3c
       0.24259514 0.18940438 -0.13284491 0.015517105
000210 95 dd 00 3e 85 d0 97 3c 7f 45 5b be c2 bd b1 3e
       0.12584527 0.018532047 -0.2141323 0.34715086
000220 4f f5 eb 3d cf 22 bb bd ff dc 1e be 48 16 cf bb
       0.11521398 -0.091374986 -0.15513991 -0.006319795
000230 bd 25 f0 bd 90 37 48 be 00 0f 3a be 90 d3 77 3e
       -0.11725948 -0.19552445 -0.18169785 0.24201798
000240 2a 23 9f 3c a9 2d 69 bd 63 78 f5 3d e2 46 a4 3c
       0.019425947 -0.05692831 0.119858526 0.02005333
000250 cf 62 80 bd b3 fc f0 bd 8e ae 47 bd 6d 9d 18 be
       -0.06268846 -0.117669486 -0.048750453 -0.14903803
000260 31 bc 4e 3e 2b 44 ab 3b 7b 09 26 be db b9 b8 bd
       0.20188977 0.005226632 -0.16214554 -0.09019824
000270 9a 56 59 be 73 af 90 3d a7 0b d5 3d 70 0f 37 be
       -0.21224442 0.07064714 0.10402613 -0.17876983
000280 5b 29 c0 bd 17 79 56 be b9 bb 3d be 19 31 ef 3c
       -0.09382888 -0.2094463 -0.18528642 0.029198216
000290 33 5c 27 be aa 09 b0 3e 6e 79 03 3e b7 ca 57 be
       -0.16343765 0.34382373 0.1283929 -0.21073423
0002a0 5f df c9 bc 1c fc 3c be 03 6b a6 bd 63 d6 ca 3c
       -0.024642644 -0.18455547 -0.081258796 0.02476043
0002b0 0b 6f 54 be 37 84 98 3d 26 a7 8f bb 76 22 9e 3b
       -0.20745485 0.07447093 -0.0043839393 0.0048258854
0002c0 a5 a3 2f be e8 c4 21 3e 85 c1 38 be 15 c0 17 3e
       -0.17152269 0.1579777 -0.18042572 0.14819367
0002d0 53 5a 22 3e 44 40 7e 3e 31 d3 01 be c5 8d 10 3e
       0.15854768 0.24829203 -0.1267822 0.14116581
0002e0 89 6d fe 3d 52 10 17 3e 55 c0 28 3e 8f 81 39 be
       0.12423236 0.1475232 0.16479619 -0.18115829
0002f0 3a fa ff bd 64 a1 4a be fe 9c 3b be 8e ec 3e 3e
       -0.12498899 -0.19788128 -0.18321607 0.18644926

linear3.bias f4 [3]
000000 05 54 b2 be d3 5c 85 3d 8f 5d e4 3d
       -0.34829727 0.065118454 0.111506574
