runs/testrun-cnn-final-20r-40bs-100ep/1/LocalModel-1-Round2.pt (torch, 144143 bytes, 8 tensors)

conv1.weight f8 [6, 1, 5]
000000 d0 3b 07 1e 50 df cc 3f 31 79 a9 15 75 8d b7 bf
       0.2255649706480356 -0.0920022180448299
000010 4d 29 2b 6b 89 0f cb bf bf ec 5b 47 e0 64 d1 bf
       -0.2114116452488112 -0.271781987845042
000020 03 d5 1a 62 1b 8c cd 3f f3 44 c2 dc f7 9f d7 bf
       0.2308382252719313 -0.3691386848305022
000030 42 f4 c0 07 81 b3 da 3f ef e2 b0 d9 f5 e3 e0 bf
       0.41720605618667517 -0.5278271915222755
000040 51 11 91 58 33 6f db bf 2c ed a3 b3 4d 29 be 3f
       -0.42866214417542375 0.11781774173498566
000050 82 54 5b 54 ea b2 e0 bf a4 65 9f 0a 07 ec d4 3f
       -0.5218402526467261 0.3269059756981625
000060 d2 cf 25 ed e8 98 ae bf 84 9e 42 bd 67 5c d0 bf
       -0.05976035971517003 -0.2556399677509733
000070 cf 22 92 02 70 96 7d 3f 52 bd 41 10 24 91 d5 bf
       0.007223546542385064 -0.3369836958654179
000080 c9 70 fc 14 6f 2f d2 3f 23 b4 73 65 40 74 c3 bf
       0.2841451363508552 -0.151985215699285
000090 fa c8 0f 94 fa 34 d3 bf 9d d3 ce 98 9b d6 b6 3f
       -0.30010857066294216 0.08921215515768073
0000a0 48 59 44 d3 b7 f2 bf 3f b2 70 2d cf 5d a9 d9 3f
       0.12479733379254754 0.40096230728318993
0000b0 32 c0 f0 0a 5e c1 e8 bf fe 9d d0 3d f6 b8 dd bf
       -0.7736044133835149 -0.46441417729008083
0000c0 28 90 05 89 b1 75 a1 3f da 8e c9 7f a9 05 ee bf
       0.03410105512264777 -0.9381911750646978
0000d0 f4 2d b1 a3 40 1a 8d 3f 34 44 90 64 aa 3f f3 bf
       0.01421022891567867 -1.2030433586371716
0000e0 89 6c 0c c5 67 13 b4 3f 01 4f 30 0d bf ef f6 bf
       0.0784211021495357 -1.4335318103011903

conv1.bias f8 [6]
000000 ef 16 e9 6b a8 16 cc 3f a5 4e ac 0e 6a 9a e5 3f
       0.21944146412913976 0.6750994001945015
000010 e0 39 6d 54 cc cb a2 3f d9 6a 75 67 df 51 7d 3f
       0.03671110659216814 0.007158157989887137
000020 f5 3b 8f 06 6a bf c5 3f 48 78 52 55 8d 7f d4 3f
       0.1699039966610766 0.3202851613258457

conv2.weight f8 [8, 6, 3]
000000 00 00 00 60 54 79 c7 bf 00 00 00 40 ea 84 bb 3f
       -0.18339018523693085 0.10749687254428864
000010 00 00 00 80 7d a6 ca bf 00 00 00 60 c2 f9 ca 3f
       -0.20820587873458862 0.21074704825878143
000020 00 00 00 00 78 25 ba bf 00 00 00 00 d2 42 8b 3f
       -0.10213422775268555 0.013311043381690979
000030 00 00 00 80 78 a6 ad bf 00 00 00 20 06 a3 be bf
       -0.05791069567203522 -0.11967504769563675
000040 00 00 00 c0 a5 de cb bf 00 00 00 40 0c 9d c8 bf
       -0.21773216128349304 -0.192292720079422
000050 00 00 00 e0 69 db cd 3f 00 00 00 00 32 a3 a9 bf
       0.2332584708929062 -0.050073206424713135
000060 00 00 00 c0 52 ad b8 bf 00 00 00 40 bf 51 c7 bf
       -0.09639470279216766 -0.1821822226047516
000070 00 00 00 40 32 b6 b6 bf 00 00 00 00 b9 e8 c3 bf
       -0.08871759474277496 -0.1555396318435669
000080 00 00 00 20 e3 18 c7 3f 00 00 00 80 55 68 a3 bf
       0.18044699728488922 -0.03790538012981415
000090 00 00 00 a0 ec 45 c9 3f 00 00 00 e0 c8 e8 c7 3f
       0.19744642078876495 0.1867915242910385
0000a0 00 00 00 20 5d 9c c3 3f 00 00 00 00 9b 8c c9 bf
       0.15320934355258942 -0.19960343837738037
0000b0 00 00 00 00 1e 05 c6 bf 00 00 00 40 1b e3 b7 3f
       -0.17203116416931152 0.09330911934375763
0000c0 00 00 00 80 a0 1a a3 3f 00 00 00 20 33 57 ca 3f
       0.037312522530555725 0.20578612387180328
0000d0 00 00 00 e0 aa 5b c6 bf 00 00 00 e0 fe c2 c3 bf
       -0.174672469496727 -0.15438829362392426
0000e0 00 00 00 60 48 83 c2 3f 00 00 00 00 61 a8 cb bf
       0.14463143050670624 -0.21607601642608643
0000f0 00 00 00 a0 47 f5 c8 3f 00 00 00 80 27 73 a7 3f
       0.19498534500598907 0.045800432562828064
000100 00 00 00 00 ed 15 95 3f 00 00 00 00 b0 e0 c5 bf
       0.020591452717781067 -0.17091941833496094
000110 00 00 00 00 f5 59 c2 bf 00 00 00 00 08 3e 83 3f
       -0.14337027072906494 0.00939565896987915
000120 00 00 00 40 d7 2b b5 3f 00 00 00 40 45 4a c3 bf
       0.0827002078294754 -0.1507040560245514
000130 00 00 00 e0 d1 49 cd 3f 00 00 00 00 71 a4 c1 bf
       0.22881530225276947 -0.13783085346221924
000140 00 00 00 80 d7 4a a4 bf 00 00 00 80 a9 99 aa 3f
       -0.03963349759578705 0.051953598856925964
000150 00 00 00 00 4e ff 8f bf 00 00 00 00 3d 31 ab bf
       -0.015623673796653748 -0.0531100332736969
000160 00 00 00 80 10 c7 a5 3f 00 00 00 c0 95 17 cd bf
       0.04253436625003815 -0.22728225588798523
000170 00 00 00 80 a5 0c b2 bf 00 00 00 00 f5 c7 b7 bf
       -0.07050547003746033 -0.09289485216140747
000180 00 00 00 00 46 5b 93 bf 00 00 00 20 1b ee cc 3f
       -0.018902868032455444 0.22601641714572906
000190 00 00 00 e0 cf ed cd 3f 00 00 00 40 17 ef ba 3f
       0.23381994664669037 0.10521073639392853
0001a0 00 00 00 a0 43 60 ca bf 00 00 00 80 01 b1 be bf
       -0.20606274902820587 -0.11988839507102966
0001b0 00 00 00 c0 a0 4e bc 3f 00 00 00 a0 65 99 c0 bf
       0.11057476699352264 -0.1296813040971756
0001c0 00 00 00 c0 4c f8 c8 bf 00 00 00 a0 fd 61 c6 3f
       -0.19507750868797302 0.17486543953418732
0001d0 00 00 00 20 12 92 cd bf 00 00 00 40 d4 f4 bb 3f
       -0.2310202270746231 0.10920454561710358
0001e0 00 00 00 00 63 c4 ca bf 00 00 00 40 b2 81 b9 bf
       -0.20911824703216553 -0.09963525831699371
0001f0 00 00 00 c0 f1 31 c3 bf 00 00 00 60 6d 69 c2 3f
       -0.1499616801738739 0.14384238421916962
000200 00 00 00 40 a9 90 b1 3f 00 00 00 60 9e 92 c8 3f
       0.06861360371112823 0.1919744461774826
000210 00 00 00 c0 70 88 c2 bf 00 00 00 40 ae 81 c7 bf
       -0.14478883147239685 -0.18364503979682922
000220 00 00 00 80 c6 97 bb bf 00 00 00 c0 6d bf c0 bf
       -0.10778465867042542 -0.1308419406414032
000230 00 00 00 00 e4 75 b7 bf 00 00 00 80 b2 ec a5 3f
       -0.09164261817932129 0.042821481823921204
000240 00 00 00 00 24 1e a3 bf 00 00 00 60 a3 84 bc bf
       -0.03733932971954346 -0.11139889806509018
000250 00 00 00 60 ac 6c c4 3f 00 00 00 80 df 8f c3 bf
       0.15956644713878632 -0.1528281569480896
000260 00 00 00 00 dd 88 b9 bf 00 00 00 80 1c 19 a3 3f
       -0.09974461793899536 0.0373009592294693
000270 00 00 00 80 e6 f1 aa bf 00 00 00 80 58 4f bd bf
       -0.052626803517341614 -0.11449196934700012
000280 00 00 00 00 57 70 c5 bf 00 00 00 00 18 b9 cc bf
       -0.16749083995819092 -0.22439861297607422
000290 00 00 00 e0 be 90 c4 3f 00 00 00 a0 67 6b c8 3f
       0.160667285323143 0.1907777339220047
0002a0 00 00 00 80 b6 d1 a8 3f 00 00 00 20 2e 5f c0 bf
       0.048474982380867004 -0.12790466845035553
0002b0 00 00 00 80 fd 0f bf bf 00 00 00 60 d1 43 ca 3f
       -0.12133774161338806 0.2051946371793747
0002c0 00 00 00 e0 ad c8 cc 3f 00 00 00 80 a3 33 a2 bf
       0.22487424314022064 -0.03555022180080414
0002d0 00 00 00 e0 90 48 c6 3f 00 00 00 60 5b 96 c5 3f
       0.17408953607082367 0.1686510294675827
0002e0 00 00 00 c0 ad 54 bb 3f 00 00 00 60 1c 7a c7 3f
       0.10676084458827972 0.183414027094841
0002f0 00 00 00 80 61 06 c5 bf 00 00 00 a0 71 f1 c2 3f
       -0.1642572283744812 0.1479932814836502
000300 00 00 00 20 55 c3 c5 3f 00 00 00 80 73 78 c3 bf
       0.170023575425148 -0.15211337804794312
000310 00 00 00 80 3b 49 a1 3f 00 00 00 80 86 eb af bf
       0.03376184403896332 -0.062343791127204895
000320 00 00 00 00 7c cf 71 bf 00 00 00 c0 b3 e0 b1 bf
       -0.004348263144493103 -0.06983493268489838
000330 00 00 00 80 17 77 a7 3f 00 00 00 40 ac 41 cb bf
       0.04583047330379486 -0.21294167637825012
000340 00 00 00 20 fc 1a cd bf 00 00 00 e0 40 94 c8 3f
       -0.227386012673378 0.1920243352651596
000350 00 00 00 40 bd c5 c6 bf 00 00 00 40 d8 e4 b1 3f
       -0.17790952324867249 0.06989814341068268
000360 00 00 00 80 b5 61 a1 3f 00 00 00 20 99 a0 cc bf
       0.03394858539104462 -0.22365106642246246
000370 00 00 00 c0 92 0e bb bf 00 00 00 60 4a 0c c9 3f
       -0.10569112002849579 0.19568757712841034
000380 00 00 00 c0 da ff bb bf 00 00 00 40 c8 1f c0 bf
       -0.10937277972698212 -0.12596991658210754
000390 00 00 00 20 b5 68 cb 3f 00 00 00 c0 51 94 bf 3f
       0.21413291990756989 0.12335692346096039
0003a0 00 00 00 80 29 e4 ad bf 00 00 00 20 38 4b c0 3f
       -0.05838136374950409 0.12729550898075104
0003b0 00 00 00 40 07 1c cd bf 00 00 00 80 78 2e ad 3f
       -0.22741785645484924 0.05699516832828522
0003c0 00 00 00 00 c2 71 84 3f 00 00 00 20 f9 45 c7 3f
       0.009982600808143616 0.18182291090488434
0003d0 00 00 00 00 19 f9 c3 bf 00 00 00 e0 2d 57 c3 3f
       -0.15603935718536377 0.15109799802303314
0003e0 00 00 00 00 57 ea 96 3f 00 00 00 60 d0 ca ca 3f
       0.022378310561180115 0.20931439101696014
0003f0 00 00 00 40 5c cd cb bf 00 00 00 a0 ae cc c9 bf
       -0.21720460057258606 -0.2015589028596878
000400 00 00 00 80 20 84 a9 3f 00 00 00 40 d8 c6 b5 3f
       0.0498361736536026 0.08506537973880768
000410 00 00 00 c0 13 c5 b2 3f 00 00 00 80 92 82 b1 bf
       0.07331965863704681 -0.0683986246585846
000420 00 00 00 40 07 ff bf 3f 00 00 00 00 61 d8 c0 bf
       0.12498517334461212 -0.13160336017608643
000430 00 00 00 e0 0e 85 c2 3f 00 00 00 80 ab df a7 3f
       0.14468561112880707 0.04662834107875824
000440 00 00 00 80 a0 2b a2 3f 00 00 00 a0 cd 2a be bf
       0.035489097237586975 -0.11784062534570694
000450 00 00 00 c0 72 83 b5 3f 00 00 00 80 41 a3 ab 3f
       0.08403699100017548 0.053979918360710144
000460 00 00 00 a0 61 21 c1 3f 00 00 00 60 21 68 c3 bf
       0.1338312178850174 -0.15161530673503876
000470 00 00 00 a0 e9 1b c4 3f 00 00 00 60 e6 02 cc bf
       0.1571018248796463 -0.21883849799633026

conv2.bias f8 [8]
000000 00 00 00 40 f1 51 bd bf 00 00 00 a0 43 ef bc bf
       -0.11453159153461456 -0.11302588135004044
000010 00 00 00 40 08 02 be bf 00 00 00 40 0d 46 bf 3f
       -0.1172185093164444 0.12216265499591827
000020 00 00 00 00 cd e2 cb bf 00 00 00 00 9b a7 9a 3f
       -0.2178589105606079 0.02602998912334442
000030 00 00 00 40 f7 e9 bd 3f 00 00 00 40 0c 9c b5 3f
       0.11685128509998322 0.0844123512506485

fc1.weight f8 [64, 270]
000000 7e 77 18 79 91 bc fe bf 62 e9 ee 49 12 22 a0 bf
       -1.9210371713920433 -0.03150994446282841
000010 4f 9c 5d 08 e3 e1 b7 bf 03 7a cc 20 67 52 ad 3f
       -0.09329050974120999 0.05726930880904393
000020 6d f9 84 58 d1 82 ad 3f a5 20 c5 9b 9e 93 a7 bf
       0.05763868527945957 -0.046048122897049105
000030 01 67 56 d9 a8 d5 c9 3f 7f cb c3 b1 d8 fd a2 3f
       0.20183287250693385 0.03709294481259117
000040 16 4d 62 0c f5 27 8e bf 53 da 4a ec 96 2b d0 3f
       -0.014724649849347442 0.25266049457005585
000050 cf cc a3 fd ce 4e a4 3f e9 9b 18 7e 4f 03 bf bf
       0.03966376157941342 -0.12114426449316763
000060 d7 33 77 a5 4e 9d 62 bf a7 43 6a 69 ed 55 c3 bf
       -0.0022722755490804758 -0.15105979582997728
000070 d5 b5 4e 1c 0c 3b 80 bf e1 a4 29 bb 9e 2c b6 bf
       -0.007925123800158676 -0.08661834782982993
000080 cf 06 23 30 a7 47 b8 3f 18 a8 36 72 36 16 99 3f
       0.09484333920684239 0.024498797150649038
000090 9a 56 b3 80 d4 7e bf bf 10 e0 18 95 2f fb 71 bf
       -0.12302902357199699 -0.004389940136711359
0000a0 0c 92 8e 6b fb 14 a3 bf 49 5d 35 b3 d2 e5 a2 3f
       -0.0372694557948173 0.03690966069796759
0000b0 b9 77 ff 7e 1f 15 93 bf 8d 20 8f 9d 39 9a ed 3f
       -0.01863526547082703 0.9250763013196931
0000c0 fd 08 b0 09 9f 5e bf 3f d5 f6 d1 e1 5f 76 b4 bf
       0.12253755556597308 -0.0799312521284848
0000d0 1f 92 5a 0e 33 b0 d4 3f a3 4f 03 51 0a 51 bd bf
       0.3232543602155448 -0.1145178268228038
0000e0 f5 c0 bc 58 a0 3b d1 3f b3 b7 9d a5 a6 2c 9c 3f
       0.2692643038344749 0.027514079912570554
0000f0 c0 7d 9c d8 33 f2 c8 bf 97 97 58 c5 2b 5b d9 bf
       -0.194891434447511 -0.3961896350104949
000100 f1 b3 af 53 21 df a3 bf 34 cc 3d e8 3b 44 d0 bf
       -0.03881172319947968 -0.2541646736128229
000110 f9 78 1c 0e 72 eb b9 bf fc 94 9f 3e a4 25 9c 3f
       -0.10124886364471654 0.027487341234423632
000120 5b 56 b3 89 88 d3 bb bf b7 7c e5 14 a1 48 a2 3f
       -0.10869649278478148 0.03571036701281954
000130 ca f7 1b 12 b9 7e cf bf e2 be da bd 88 d7 d6 3f
       -0.24605477699509343 0.3569051603362664
000140 4b bb 9b a5 5e c2 c2 bf f5 55 65 ad c3 a5 aa bf
       -0.14655669294685433 -0.0520459317364547
000150 62 84 2a 9f f1 41 8c bf 05 3c 0c 66 bd 5d b3 3f
       -0.01379765288339935 0.07564910642052787
000160 60 26 7c 36 30 1e 9b bf 86 32 eb d6 70 1c ed 3f
       -0.026482346845148164 0.9097217748290667
000170 06 ab 60 4f 89 79 a3 bf 1d 94 a8 d0 87 c0 81 bf
       -0.03803662389721833 -0.008668004088642484
000180 4c 87 80 4e 0d 15 92 bf 28 8e 42 bf 69 ac a6 bf
       -0.017658431927095194 -0.04428415736881802
000190 3e 52 05 5a 4d fc a5 bf 47 c6 78 6e 2a 5d dd 3f
       -0.042940537680497645 0.4588113859964306
0001a0 58 70 06 90 1b 4c 9b bf c8 4a d5 5c 13 39 a2 3f
       -0.02665751520690693 0.03559170253961025
0001b0 99 06 93 25 52 51 b7 bf 7f 20 f2 26 a2 da 97 bf
       -0.09108460824338706 -0.02329495775896406
0001c0 e0 ec f6 90 28 ec a6 bf a3 01 c5 78 cf 2a 7b 3f
       -0.044770496078365474 0.0066326240888091885
0001d0 cc 24 b7 37 41 40 cf 3f b1 e8 aa 3b 45 4c cf 3f
       0.24414839954832812 0.24451508916337653
0001e0 aa 35 89 42 4f b0 c6 bf 88 49 16 f4 4e 37 b6 3f
       -0.17725554226710233 0.08678143939167715
0001f0 64 4c 71 67 f0 43 ab 3f ae a1 bc de 35 59 c5 bf
       0.05325270903326709 -0.16678498626539578
000200 85 7e 2a d4 45 7b b5 3f 6a c3 a3 18 14 46 ae bf
       0.08391224317392172 -0.05912840653207392
000210 d7 4e e9 39 c2 b8 98 3f ec e9 60 8a 45 19 bb bf
       0.02414229849303137 -0.10585436466582338
000220 c4 18 ac 63 46 a3 d5 3f de c0 3e d4 4c 16 95 bf
       0.3380905125963063 -0.020592880682387064
000230 bf e4 e9 54 c6 aa ba bf 00 d5 d1 33 1a 85 c5 3f
       -0.10416831563078953 0.16812446146256121
000240 64 23 f6 15 2b c3 be 3f e1 de c8 5c 91 29 a7 bf
       0.12016553198021779 -0.04523901231408246
000250 12 f9 6a fc f2 7b a7 3f 4a 26 47 6c e8 66 de bf
       0.04586753207466833 -0.47503099988953024
000260 a7 98 93 96 80 2a 93 3f 20 b4 fb 99 ea c2 c7 3f
       0.018716820898497712 0.18563587683402805
000270 28 f8 ce 1c fb 27 92 bf 56 d2 bf 04 90 78 f8 bf
       -0.01773064006169292 -1.5294342217940957
000280 c7 cc 33 65 47 87 a3 3f f8 a6 bc 7b f3 8a 94 3f
       0.03814147100811165 0.020061306407263196
000290 95 bb 21 f0 e2 21 b0 bf 6d dd 05 82 19 8c bf bf
       -0.06301706659881597 -0.1232315008581872
0002a0 b8 57 f6 b7 70 cc 8e 3f 36 de 10 70 70 ce b3 3f
       0.015038376440127496 0.0773687623594633
0002b0 e5 a0 12 8f a1 81 a7 3f 55 6a 1e 63 63 cb 9c bf
       0.04591088172429795 -0.02811961452935415
0002c0 b6 fa 7b ea 10 a3 62 3f 79 3c 2d 04 c7 47 a7 3f
       0.0022750215902072836 0.04546949316010624
0002d0 ea 74 ba 36 d3 96 71 bf a2 19 55 8c d7 16 be bf
       -0.004294228605116171 -0.11753604103168994
0002e0 a3 ea ca 33 3e d2 e0 3f b8 32 09 97 c7 28 e2 3f
       0.5256644260001234 0.5674779844208251
0002f0 22 fa 6c 52 8e e0 b1 3f 9f ad c8 d5 58 ea c4 bf
       0.06983270180078496 -0.1634017032496162
000300 39 f6 26 98 81 d2 8b 3f 5b 9e 54 58 99 76 c2 3f
       0.013585102515999302 0.14424435437216485
000310 40 1c d9 da 65 58 db 3f 7f 78 8b 3f f1 41 9a 3f
       0.4272703778446534 0.025642175200907943
000320 63 ca d5 3e 2d 07 a3 bf 7d 74 c7 9f 4b a2 e0 3f
       -0.037164129181196846 0.5198114510236703
000330 a9 95 68 3a 84 4e c4 bf 3d 3d 9d 2d b3 a8 a0 bf
       -0.15864613391856366 -0.032537078207150995
000340 95 80 8b 1b a7 3a 94 bf 03 08 af 09 2d 32 92 bf
       -0.019754992538651612 -0.01776953097920143
000350 11 77 3d 94 9a 31 93 bf c0 ee 49 78 09 7f a2 bf
       -0.01874391107354884 -0.03612546532982952
000360 72 7c 3e 00 2d 3a 93 3f 01 bd dd 47 52 8e bf 3f
       0.01877661050786767 0.12326540236039209
000370 ca a1 89 6a 25 f1 b6 bf 97 ca 94 ab 79 30 bf 3f
       -0.08961709834114298 0.12183342398638285
000380 0a 38 83 e9 79 53 ba bf 89 17 99 59 8c 68 d1 bf
       -0.10283624602308819 -0.27200611829572857
000390 00 2d b0 24 63 eb d0 3f 2b 4d e1 e9 93 87 c8 bf
       0.2643668993266175 -0.19163750572133983
0003a0 66 b9 97 b4 ba 9d fb 3f 1a 7b 81 49 e8 e0 e1 3f
       1.7260081343079832 0.5587045131358963
0003b0 c7 f4 39 6f cb d3 cf bf b5 7b 8d c8 00 8c da 3f
       -0.24865096026397834 0.4147951086542279
0003c0 fa c6 9e 92 c4 81 d1 3f 6a 2a 87 0f 30 b4 b3 bf
       0.2735454017484781 -0.07696819666959134
0003d0 74 5b dc 2f d7 a4 dd 3f 6e 7a c9 5c 7f 85 b7 3f
       0.4631860701933228 0.09188076033886158
0003e0 f9 de 73 5f be 80 b3 bf a5 ac de 83 e2 c6 e2 3f
       -0.07618322210680252 0.5867779326994379
0003f0 96 51 1b 01 8f c8 c5 3f bf 38 7b 08 cf 00 b7 3f
       0.17018306306875947 0.0898560901361831
000400 1f c8 de 87 46 ca c6 3f c9 84 d4 f7 9d 29 a5 3f
       0.17804795870102993 0.04133313799162292
000410 b7 9a 15 f3 e4 2c c0 3f c0 c1 68 4a 57 3c e4 3f
       0.1263700663505085 0.632365842180711
000420 5e b7 56 05 89 7b 7f 3f aa 83 1e 5c f8 82 a1 bf
       0.007686171758377684 -0.03420234798910056
000430 e0 8a 41 0f 01 71 a0 3f 00 00 00 c0 2f 9b a1 bf
       0.032112153160388734 -0.03438710421323776
000440 92 61 85 cc 7f 65 81 bf c3 07 9b 80 9a 86 e1 3f
       -0.008494375637994964 0.5476810943439364
000450 6c a0 c9 95 01 2d e6 3f ad f4 e0 32 8a e8 52 bf
       0.6929939199008124 -0.0011540746304626135
000460 16 1a 50 af 93 07 b7 bf d4 3f 62 ea 22 73 ac 3f
       -0.08995936422443437 0.05556592093591886
000470 56 3b fa 52 9e cb 97 bf 5c 8d b1 9d 3d b1 d0 3f
       -0.023237680258314818 0.2608179130531505
000480 87 be 38 87 9d 6c 96 3f 7c f3 5b c2 70 bf a1 3f
       0.021898709657931306 0.03466369984196313
000490 cb 66 80 4a 8e fa de 3f c3 cf 54 5e 0a 54 77 bf
       0.484042713885725 -0.005695381643182121
0004a0 d4 43 fb cd 9b d3 77 3f 74 c1 82 eb 18 99 3b bf
       0.005817040073183361 -0.00042111261746937485
0004b0 fd 48 e4 17 2d e6 c7 bf 4b b3 2d ad 98 05 9d 3f
       -0.1867119185122376 0.028341661043145987
0004c0 83 bd 1b 9d fd 81 c3 3f 56 66 06 ca d3 f3 bd bf
       0.15240450068766273 -0.11700175935984566
0004d0 b9 e1 9a 1f 59 6f cc 3f 4a 9b eb 51 b7 c5 b5 3f
       0.22214807551587315 0.08504815816887148
0004e0 a6 30 8a 72 f5 6f b7 3f 7f d9 74 cc 07 dc c7 bf
       0.09155210539228395 -0.18640229685997764
0004f0 0a a0 b4 1f 68 de e9 3f b4 21 e3 46 86 b8 da 3f
       0.8083992594956737 0.41751248285847997
000500 83 ec 9c 90 a2 cc 97 3f e9 18 17 00 08 3a f9 3f
       0.023241558147884433 1.5766677859806413
000510 7a da db dc 5b ab e0 3f 40 95 29 c6 58 bc c8 bf
       0.5209178270004735 -0.1932478873815544
000520 af a8 ff c2 64 b6 c1 3f fa 83 d9 ca f5 c3 bd 3f
       0.13837871095103568 0.11627136423477671
000530 d4 c5 88 5c e1 fc 90 bf 23 77 c3 c2 dd 6a da 3f
       -0.016589661858409446 0.4127725984561598
000540 72 eb a2 bf 46 d9 b6 3f 00 00 00 80 50 0b 87 bf
       0.08925287417052433 -0.01125204935669899
000550 ae 8d 1f ad 04 f8 e3 3f 8e 86 15 ed 1d 00 d9 3f
       0.6240256673158251 0.3906321349405538
000560 ef 4f be 0b 0e fb a6 bf 91 77 e5 6b 7a d3 c1 3f
       -0.044884146626969705 0.13926630276085608
000570 6b 02 0f b3 01 9c 62 bf 1e e0 44 90 f3 f1 d2 3f
       -0.0022716553871478438 0.2960175427319899
000580 b0 95 bb 6e ed 59 c2 3f 3f 36 0e b8 25 d4 79 3f
       0.14336936861870475 0.006305835094179423
000590 ab 85 cf 77 8f 13 a8 3f ca 69 e7 c0 79 7b b6 3f
       0.04702423417598863 0.08782158813065802
0005a0 43 ad 6f 1a 8c dd c4 bf 52 a7 9e 35 7f 42 c2 bf
       -0.1630110863764945 -0.14265432470466038
0005b0 0c 8b 97 c1 e6 d8 af bf 74 6c 1d 48 75 a5 c5 3f
       -0.06220170128997013 0.16911188145863643
0005c0 97 88 8d 9b 7b 64 b0 3f ad 35 18 64 f6 d2 d9 bf
       0.06403324649503116 -0.4035011270032907
0005d0 36 0d 67 78 0f b0 e3 3f b2 7c 12 aa 97 06 b2 bf
       0.6152417518245901 -0.07041309263375942
0005e0 b8 d4 85 e4 d6 2b b6 3f 4d 36 92 c5 7b 28 e2 3f
       0.08660643653077471 0.5674418314753865
0005f0 fb 2d 0e ba b8 5d a5 bf e1 c1 41 83 83 84 e4 bf
       -0.041730663978423586 -0.6411759914026868
000600 51 fd 39 c6 ee 80 ba bf 99 fd 47 dc bc dc a4 3f
       -0.10352985705866515 0.04074659527759223
000610 10 b4 c7 53 3c 2e a6 3f ca ce 29 b2 18 d7 9b bf
       0.04332150004106705 -0.027187715410447656
000620 22 c9 fb 15 97 de a7 3f cb cb b4 f8 c1 41 b6 bf
       0.04662010329583867 -0.08694088289193684
000630 6f ae 99 61 3e ab d5 bf 4c 59 be e8 1a 33 73 3f
       -0.33857688456803364 0.004687409509548889
000640 b6 3c b9 db f6 ed 85 3f 24 db 61 95 2a 41 ba 3f
       0.010707787113601302 0.1025568594649085
000650 c8 5e 11 51 dd 56 b8 bf 9c 0b b0 eb 79 3f 81 3f
       -0.09507544736095064 0.008421852593533612
000660 e0 0f e0 75 63 9d 02 c0 da ac b6 dd 8a c8 d3 bf
       -2.326849862003641 -0.3091151395007735
000670 51 3c 2f 95 b8 09 dd 3f f7 51 0b 56 8e 03 96 3f
       0.45371832436371046 0.02149794006511915
000680 98 53 17 3a d6 b1 bb bf ee 44 c2 73 71 b0 a1 3f
       -0.10818232458343713 0.03454927957603525
000690 d9 a3 a1 6e 15 98 b7 3f 70 94 5f 1e 55 91 c1 bf
       0.09216436339342184 -0.13724769576143414
0006a0 65 8a de ac d8 66 c2 bf f1 b5 a8 a6 76 ff 85 3f
       -0.14376362267383339 0.010741164170293667
0006b0 fd 19 14 9e 3c 9d b7 3f 6b ba 83 57 c0 96 cb 3f
       0.09224299296702294 0.21553806565448794
0006c0 e0 3c d6 7e 99 2e dc bf ec 5f 5a 09 5c d9 c4 3f
       -0.4403442133561395 0.16288328606310587
0006d0 06 d7 c3 3a 06 94 a5 bf 71 f6 7b b5 7d 07 d5 3f
       -0.042144961045705684 0.32858221743649724
0006e0 1f 75 ca 81 5b d6 a4 bf be ba 27 56 48 81 60 bf
       -0.04069791755066831 -0.002014771730720482
0006f0 17 c7 49 63 a7 92 81 3f 4b b4 dc 72 0e 34 8f 3f
       0.00858050128701708 0.01523600852996245
000700 7c d8 38 55 ae 2c b6 bf 31 aa 62 9d 74 8f e1 3f
       -0.08661927776924644 0.548761660951021
000710 7b aa 1d cf b9 63 bb bf 12 72 b7 62 c7 53 f0 bf
       -0.1069904451993952 -1.0204538208118987
000720 16 f8 45 be 44 0a 47 3f a0 f4 64 17 3a 72 db 3f
       0.0007031284008431917 0.4288468578777813
000730 20 17 82 2a a0 65 eb 3f 00 00 00 e0 10 bc a6 bf
       0.8561554746854405 -0.04440357908606529
000740 00 00 00 00 3b f4 8e bf 28 2c 74 ce 24 e0 a4 bf
       -0.015114270150661469 -0.04077258129299138
000750 b3 5a 19 2a 4b 70 f5 bf f9 f8 f3 08 7b d7 b7 3f
       -1.3399154324048765 0.09313172310428176
000760 82 42 f2 e2 7e 8d d9 bf 84 4d 56 d8 44 28 d4 bf
       -0.39926120913245466 -0.31495782019302276
000770 7c 8d 9f bf 3d 4f c8 bf 66 e7 25 72 66 da b9 bf
       -0.1899182496700681 -0.10098877226655886
000780 00 00 00 40 56 f6 97 bf 00 00 00 00 3e d9 7b bf
       -0.02340063825249672 -0.006798975169658661
000790 00 00 00 00 04 db 8b 3f 00 00 00 80 ae fc 91 3f
       0.013601332902908325 0.017565466463565826
0007a0 9a f8 dc 66 31 c3 8e bf f6 cc b6 80 26 b3 a4 3f
       -0.015020738555559899 0.04042930909363378
0007b0 9b dd 76 40 51 8c a8 3f 54 88 e8 88 cd f3 d2 3f
       0.04794553672712284 0.2961305462832844
0007c0 00 00 00 80 11 36 9f 3f 00 00 00 00 6f 0c 8d bf
       0.030479691922664642 -0.014183871448040009
0007d0 00 00 00 00 f5 f1 84 3f 00 00 00 a0 9f a3 a1 bf
       0.010227121412754059 -0.034451473504304886
0007e0 00 00 00 00 03 4d 9f 3f 2f 0d 9e 95 d3 06 49 bf
       0.030567213892936707 -0.0007637532355463712
0007f0 59 3e 74 56 aa 0b eb bf 00 00 00 00 08 47 9c 3f
       -0.8451739967876605 0.027614712715148926

fc1.bias f8 [64]
000000 29 2b aa 14 be 72 bd bf 6a 79 a0 80 60 20 b5 3f
       -0.11503208164701263 0.08252528324417133
000010 fa 19 1e 17 42 62 ac bf 2c 00 2f e4 8d 55 a7 bf
       -0.055437150308581054 -0.04557460222667972
000020 a8 4f 65 4d d0 31 99 3f fd be c4 87 5c 73 92 3f
       0.024604086612569326 0.018018193995145804
000030 ab f3 11 b2 d2 39 c9 3f 4e 96 26 b0 1a dc b2 bf
       0.197077118824294 -0.07367102432780223
000040 97 21 30 9c 56 74 c5 bf 3b fa 36 f4 0f 9a 97 bf
       -0.16761286379211235 -0.02304863861149385
000050 46 f9 25 71 d1 46 c7 3f d4 6c e1 7c aa 25 8f bf
       0.18184869789906538 -0.015208560882618384
000060 72 38 2a 52 90 0d c1 3f 43 60 1f 82 51 bb a4 3f
       0.1332264329143445 0.040491625913717154
000070 32 1e 89 e5 68 c9 9c bf 46 56 c3 58 97 f9 8c bf
       -0.028112067231886147 -0.014147932430584775
000080 a6 0b 19 fc e6 11 c0 3f d9 a6 ad 9c 8e 5f 95 bf
       0.12554633435692358 -0.02087233382500284
000090 3e bc 99 a9 63 50 bd bf fb 6e ab 44 4c 39 66 bf
       -0.114507893473033 -0.002712868653686471
0000a0 e0 e6 4d fe 22 66 c8 bf af f1 bb 3f 2b 79 d3 3f
       -0.19061696450426435 0.30427056526221014
0000b0 f9 bb 2f de 31 a8 b3 3f 72 7d a5 5c a0 63 b7 3f
       0.07678519892191095 0.09136392843128308
0000c0 76 a0 e8 56 90 e6 b6 bf 55 33 f7 f1 c2 d2 ab bf
       -0.08945562478823085 -0.05434235767061205
0000d0 84 db 5c 7c d5 5c 9f bf 01 87 8a c6 53 69 ca 3f
       -0.03062757083463509 0.2063393325270724
0000e0 64 63 71 00 ab b6 b1 bf 1c 05 20 6f 8a 6e b3 bf
       -0.0691935421067576 -0.07590546811117743
0000f0 af 55 f9 66 61 88 92 bf 14 c2 a5 aa b8 35 95 3f
       -0.018098375234634364 0.02071274320172918
000100 0a 0b 37 99 b0 82 bc bf 87 07 85 4d 5a 42 c3 bf
       -0.11136916866875538 -0.15046242509020777
000110 f7 77 d8 41 73 c3 ab bf 88 bb 4e 49 b7 7b b8 bf
       -0.05422554186610278 -0.09563775577292521
000120 cd f5 dd 87 37 8b c6 bf fb d6 fd c3 3f be ae bf
       -0.17612356313831726 -0.06004523532366864
000130 15 46 ef 22 e6 db c6 bf 54 8d 64 d6 ec 75 b9 bf
       -0.17858578401369188 -0.0994556449336888
000140 d5 5c 95 91 0a 4e bd bf 6e 52 35 f2 be dc a6 bf
       -0.1144720654896106 -0.04465290743488458
000150 aa 86 28 f1 32 b6 96 3f 88 50 e0 7c c5 82 c1 3f
       0.022179408997664275 0.13680332753631697
000160 19 b8 70 b8 79 ea bf bf bf 2c f3 4e b7 ce c3 3f
       -0.12467156174599871 0.15474597315765057
000170 b6 6c dc cd 2d 4d b8 bf 54 b6 09 7e fb a8 9f 3f
       -0.0949276568975844 0.030918054168458234
000180 78 84 f2 88 46 2c aa bf 22 0c 18 3a df 42 7a bf
       -0.05111904546471008 -0.006411430339997389
000190 27 9b 24 ca 9f 17 c4 3f 44 87 9d 37 54 87 c8 3f
       0.15697095270407965 0.19162991252511052
0001a0 e6 86 c6 76 1f 28 cd 3f 1f f6 62 b4 9e 43 b6 3f
       0.2277869539221264 0.08696929840058275
0001b0 bb eb 24 81 0b fc a8 bf 53 b0 db 34 ce 37 ae bf
       -0.048797950281787426 -0.059019512131130235
0001c0 ca 69 75 57 fe 40 92 3f 34 23 65 69 a9 67 9b bf
       0.017826055610706416 -0.02676262574940154
0001d0 96 6a ce 3f a2 6e b1 bf 01 fe c3 03 6c f3 a4 3f
       -0.06809438760539374 0.04091966196028452
0001e0 bc e3 9a ef a1 ed c0 3f bc 12 57 5e 25 bc b7 3f
       0.13225197028603286 0.09271462968087979
0001f0 32 39 19 6c ce cf 41 3f d9 85 ac 69 8a 48 8b 3f
       0.0005435712739172759 0.01332195410720065

fc2.weight f8 [3, 64]
000000 f1 89 ad 40 58 db d1 bf 20 6d e6 bf 9c 96 ca 3f
       -0.2790127402896863 0.20772132272836874
000010 38 b4 5b e3 5a 28 7b bf d1 89 73 1c 48 16 cf bf
       -0.006630282432280636 -0.24286748303627673
000020 f2 dc 64 37 a9 01 ca 3f 14 a2 8f 77 f9 31 a0 bf
       0.20317568974289874 -0.03163127502904586
000030 86 80 16 22 8e e3 e1 3f 74 e0 9a df 07 02 ae bf
       0.5590277353076238 -0.05860924343636578
000040 a9 a8 a1 e9 8c 40 d0 bf f8 97 63 92 ea 2f d4 3f
       -0.2539398461873455 0.31542457862667517
000050 4f 39 e1 90 37 43 aa 3f 1d d3 58 94 4f 6f bb bf
       0.05129407542755137 -0.10716721889259558
000060 dd 5f 09 c3 17 2e c8 3f 5b db ca 1e 41 f6 ce bf
       0.18890664122841275 -0.2418900871614039
000070 d8 4d 7b af 59 45 d4 bf 3f b4 48 94 34 a2 cd bf
       -0.3167328084648182 -0.23151261558942512
000080 b2 61 f2 5d b9 1a c8 3f d2 46 bf cb 85 17 d6 bf
       0.18831555449720622 -0.3451857080191135
000090 f2 f6 13 4b 8c 80 d4 bf 91 60 11 50 ca 32 d9 bf
       -0.3203459485228982 -0.3937249929345024
0000a0 d6 91 ed 87 0b 96 d8 bf 18 07 20 d4 e1 ac e5 3f
       -0.3841580226346911 0.6773537772243996
0000b0 ee 63 f7 85 08 ef c2 3f 17 47 c0 f5 4e ba d0 bf
       0.14791971722914304 -0.2613713645852029
0000c0 fe 60 24 d5 47 a3 b1 bf fb 64 68 bf fa 6f db bf
       -0.06889771417298005 -0.42870968525092196
0000d0 92 70 dc 6c 4d e0 ad bf 82 e4 ad cb b2 0b ca 3f
       -0.05835191682692299 0.20348200745846518
0000e0 e9 f6 1a 55 c0 7f bc 3f 6a c5 2f 45 45 36 da 3f
       0.11132433011786315 0.4095624137545061
0000f0 94 41 cf 3f 1c 99 b1 bf 53 db 8a 90 11 3b b6 bf
       -0.06874252851344514 -0.08683881548755083
000100 11 23 dc a9 0a 4d d5 bf 26 d6 e3 36 e7 f8 c9 bf
       -0.3328272494114098 -0.20290842228102796
000110 0e 46 7b 2a 8c 10 d8 3f 63 55 1b 58 2f bf e2 bf
       0.3760099806650893 -0.5858380051455864
000120 ce d3 9d ab 82 a9 e8 bf b6 9b ed 8c 18 0b 99 3f
       -0.7706921913037321 0.024456390000888915
000130 16 32 5e 1b 02 2f d8 3f 56 2e 40 b0 4e 1c bc bf
       0.3778691546692995 -0.10980693629260804
000140 38 91 41 2a 74 a1 de bf 90 05 ae 3e 34 a6 aa 3f
       -0.4786043560655062 0.05204928650983753
000150 3c 9c 12 de 6a df bc bf d6 f8 95 91 04 bc c6 3f
       -0.11278407975861254 0.17761284931834237
000160 11 43 61 5b 5f 4e d8 3f 60 4b 15 1e f4 1c e7 3f
       0.37978347705670595 0.7222843730508934
000170 11 93 67 da 7a f4 ce 3f 52 45 85 1c e4 5f c8 3f
       0.2418359342983867 0.19042636292082676
000180 1c 6a 05 38 5d 01 82 bf 40 2e b1 09 1f 5d cd bf
       -0.008791664383058388 -0.2294043347668424
000190 44 9c db 72 69 c5 aa 3f 02 db 66 79 e3 0d 91 3f
       0.0522873833377209 0.016654543194557732
0001a0 9b 64 f7 53 62 8a e3 3f 8c 24 7c 1b 09 e0 c3 3f
       0.6106425895660722 0.15527452318227508
0001b0 ae b6 c1 fb 5d df c8 3f 47 58 47 7a b6 ae b2 bf
       0.1943166236191493 -0.0729784058124504
0001c0 12 b3 f4 61 62 38 d3 bf 33 f4 d3 2d 04 12 bf bf
       -0.30031642499925326 -0.12136865729185402
0001d0 fe 13 d6 d8 95 29 d7 3f a4 ab 7e f5 4c e0 d9 bf
       0.3619131677190238 -0.404315223446867
0001e0 68 7d b3 b3 17 02 c1 3f 6f 7f e1 76 c6 f7 c3 3f
       0.13287636064977026 0.15599900059441604
0001f0 50 1e d8 c9 25 8f d8 bf b1 a4 20 15 ae 34 c4 3f
       -0.38373703681324844 0.15785766631714673
000200 7d b7 de 76 96 c9 c0 3f c6 93 b9 ba fd 57 c9 3f
       0.13115196994970893 0.19799777619769382
000210 26 78 b1 ad 03 c9 a1 3f 96 3a 70 ff 01 ab c0 3f
       0.0347367429283028 0.1302187440164359
000220 e1 94 99 f4 f7 62 c9 3f 0b 53 c2 23 38 1b c4 3f
       0.19833278125148637 0.1570806669812089
000230 f0 d0 00 74 4b b0 cb bf 16 20 c1 df 9e 5b bb 3f
       -0.21631758846491023 0.10686676943544202
000240 1c 95 2e a1 52 e5 a8 bf 15 a0 1d 5f d4 00 ae bf
       -0.048624593902142105 -0.0586000791652738
000250 4b 63 f3 34 45 8d cf 3f 26 22 d1 a7 e1 55 b9 3f
       0.2464987286137109 0.09896669718831017
000260 10 a8 2c 49 a4 d3 c6 3f ec 33 25 fd 6d 12 c3 3f
       0.178333793382365 0.14899992809878826
000270 29 f0 5a d4 f5 7a b7 3f 10 62 5b e0 54 74 ab 3f
       0.09171997484639917 0.05362191427929386
000280 84 38 3b 44 3c 4e c9 3f 8e dd bb 2a 36 42 c8 bf
       0.19770005542381253 -0.18952061735738507
000290 7a 04 8a 1c 4d fe 94 bf 57 87 19 af 85 5f c0 3f
       -0.020501332156076725 0.12791510629454692
0002a0 83 c1 21 2d 06 d3 bb 3f 7b af b0 d4 32 9a bf bf
       0.10868872262813593 -0.12344663326865472
0002b0 52 7a 1e 05 60 b7 c4 bf 2b 5a 54 8c ea aa b6 3f
       -0.16184616327241713 0.08854547430051045
0002c0 dc 1e 77 a2 68 19 ba bf 05 38 30 b6 39 be be 3f
       -0.10195020643652292 0.12009010980565911
0002d0 a2 3d ed 4c 0f 23 b1 3f ae d1 6d 67 d9 32 c0 3f
       0.06694121959775726 0.12655179548495482
0002e0 06 98 67 4d 72 3a be 3f de 63 86 95 5b 40 d7 bf
       0.118079322717307 -0.3633030853466702
0002f0 0b 08 4c 65 e0 95 c2 3f 69 24 af 62 3f e4 c2 bf
       0.14519886919157474 -0.1475905639511297
000300 9c 54 d6 3c 83 85 97 3f fb c0 64 86 28 bf c3 3f
       0.02297024782963729 0.15427118837533968
000310 46 94 e4 49 64 02 c4 bf b1 19 aa 0c 01 c7 ba 3f
       -0.15632299049426218 0.10459906157675537
000320 6b 28 58 7e 6c d3 b9 3f ea f3 e9 3c 3e f6 bf 3f
       0.10088232121066347 0.12485112177996852
000330 1b d2 d3 6c d7 d5 d2 bf 61 b4 56 dc 0f 5f c5 3f
       -0.2943018496291942 0.16696356066441623
000340 42 b7 89 e8 9b 24 c4 3f de ee a9 9b 63 94 cc bf
       0.1573672185363027 -0.22327847576877152
000350 f0 8d ee af c9 3a cb 3f 7a 5b 54 16 31 4b ce bf
       0.212731562523103 -0.2366696700125564
000360 5c ed da 40 dd 95 d7 bf 8a 95 6c 77 9a 83 d6 bf
       -0.3685219891883287 -0.3517824331523448
000370 07 34 64 8b fd 98 91 bf 1d c6 3a 46 6e 1d cb 3f
       -0.017185174591805488 0.21183565549067476
000380 a1 12 17 98 f6 63 a3 3f 5f 06 24 06 e2 6c cb 3f
       0.03787203413552232 0.2142603425964351
000390 7a e6 d1 02 72 f6 d0 3f 35 e9 ff a8 4e 9d cf 3f
       0.26504183078177557 0.24698813678680556
0003a0 a1 b1 5d 8d 3b 0a db bf d4 8f 71 74 47 5f c3 3f
       -0.4224995499160063 0.1513451880047102
0003b0 cc e7 ce e0 1a ff bc 3f fb 00 97 e2 ad a4 aa 3f
       0.11326759327394526 0.052037652883429396
0003c0 6e 3b 89 c9 9a c6 b9 3f d5 bd 36 f4 da f0 bc bf
       0.1006867162734417 -0.11305016004802522
0003d0 7c 29 04 f1 5b b0 b3 bf 83 a4 e0 f5 45 e5 b8 3f
       -0.07690977701364504 0.09724843266362097
0003e0 d2 86 9f 3c 2a fb bf 3f 6d 84 94 bf 44 37 c6 3f
       0.12492622356469532 0.1735616622400217
0003f0 2a 77 cf 80 6b 46 be 3f 84 11 5d b0 9a 9e c9 3f
       0.11826202292237711 0.20015271770001786
000400 93 bb 8e 2d b5 96 c1 3f 8a 42 f2 71 17 a4 d3 bf
       0.1374117348145459 -0.3068903553731067
000410 6a 8a 0e fe c2 2f 8f 3f f0 3e af 93 f1 03 c0 3f
       0.01522781694240401 0.12512035094413632
000420 31 9c db 90 03 46 d9 bf 9c 8f 11 33 28 b2 c2 3f
       -0.394898311102625 0.1460619210585009
000430 7f 7f 12 3a 09 2e 9c 3f f2 50 d6 c2 e2 90 95 bf
       0.027519363564919793 -0.021060507909695887
000440 6d d2 b5 c3 37 26 b9 3f 4f b4 d8 a7 79 38 e2 bf
       0.09823940780717928 -0.569393947434614
000450 d3 de 81 13 aa 85 b4 bf d6 08 cb d0 ed 72 a4 3f
       -0.08016455627682299 0.03993933843368473
000460 dc 7c b3 9c 5f c8 db bf e5 9c 0e 78 4d b3 c5 3f
       -0.43410482695430885 0.16953438150560554
000470 d1 6f d6 bd e9 0e d1 3f 69 d8 4f 54 6e 0e c6 3f
       0.26653522051651374 0.17231539837638657
000480 25 b3 27 32 d2 7d c3 bf 83 2c 28 89 0a e7 d9 3f
       -0.15227725457170851 0.40472663301688544
000490 3c a1 5c e7 40 56 9c 3f 9d 3e d4 95 9b 49 c0 3f
       0.02767278110619141 0.12724633041260783
0004a0 f6 a6 ec fb a3 fb bb 3f 80 2f c1 e4 3a a5 d3 bf
       0.10930848026751136 -0.30695984210318983
0004b0 f0 11 28 b5 88 a0 d5 3f 9c ce cd 04 c4 1c d0 3f
       0.3379232186419179 0.25175571889051596
0004c0 dc 34 23 2f f1 96 b2 bf c3 b6 da a8 17 58 d2 3f
       -0.07261569405382623 0.28662673463518845
0004d0 e7 a6 54 b7 54 08 b9 bf 60 bb 34 fc f4 f6 bd 3f
       -0.09778336978765943 0.11704951436398181
0004e0 e6 db e0 41 d1 a5 c9 bf 56 23 66 2a 36 ec b1 bf
       -0.2003728458091409 -0.0700105527413489
0004f0 a0 8f e7 6b ea e0 c6 bf 10 41 94 a4 3e c3 d6 3f
       -0.1787388827207197 0.355666790696902
000500 28 d1 32 0e a8 28 b6 3f 9d 76 02 14 92 84 c2 3f
       0.08655786844866908 0.14467073418648094
000510 8b e9 c7 58 73 65 bf bf 30 5c 01 df f6 ef b1 3f
       -0.12264176290037747 0.07006781525102279
000520 7d eb a3 b0 88 98 b8 3f 32 43 19 c8 44 b5 bd 3f
       0.096077483296467 0.11604719052526205
000530 11 68 3d b7 47 85 e1 bf 7c 3a da 93 ad 2d b6 bf
       -0.5475195483115859 -0.08663449153594088
000540 36 d2 d3 21 54 fc c3 3f cf 14 48 22 39 51 a0 bf
       0.15613795901994515 -0.031869683680307064
000550 10 0f 30 ff a7 7a d0 bf f6 de 95 a0 98 9f da 3f
       -0.2574863426273035 0.4159909790246127
000560 74 6b 69 58 ff 9b d8 bf 67 a0 dc e1 a0 a1 d2 bf
       -0.38452132829632224 -0.29111501747912033
000570 24 d3 91 de 26 d8 a2 3f a3 56 12 31 1f d3 d7 bf
       0.036805357617515605 -0.3722608546462231
000580 dc 58 72 aa 63 90 76 bf 8f 22 6a 8b e9 1b c6 bf
       -0.005508794135627517 -0.1727268152938177
000590 43 77 fd 64 36 64 d1 bf 0b 3a d8 94 48 b3 ae bf
       -0.2717414842826324 -0.05996157471610183
0005a0 ed 1d 7f 11 37 ec c0 3f 78 9b 40 87 08 35 d3 bf
       0.13220871309589147 -0.3001118965934704
0005b0 1b 2e e6 e9 1c 63 e4 bf 67 f5 86 bc 79 86 a8 bf
       -0.6370987480490301 -0.04790096689564898
0005c0 cc 36 a3 2f c9 68 d0 3f b1 8d 49 cd 1d 79 c8 3f
       0.2563956227503297 0.19119617961687888
0005d0 1a 6e 58 f9 a0 ce 9b 3f 03 49 d0 33 1a 7a bb 3f
       0.027155413836324006 0.10733188405018627
0005e0 ef c9 86 ac 2a fd bc 3f 62 6e f1 4e 16 a6 c4 bf
       0.11323801719735348 -0.1613185773338613
0005f0 65 33 ba f3 9a 89 c4 3f eb b1 75 9f f0 f8 d1 bf
       0.16044937992810585 -0.2808190877174456

fc2.bias f8 [3]
000000 ef 0c fe b8 03 23 db 3f aa 64 a3 c6 c9 cb b5 3f
       0.42401211801207145 0.08514081096236006
000010 c0 6f a0 e5 b4 2b da 3f
       0.40891764091952254
