runs/testrun-cnn-final-20r-40bs-100ep/1/LocalModel-1-Round9.pt (torch, 144143 bytes, 8 tensors)

conv1.weight f8 [6, 1, 5]
0	0x3fd2e02b868c3644	0.29493225230621456
1	0xbf9f0d607262e2ff	-0.030324465734085312
2	0xbfd5000c338d436a	-0.32812790903431355
3	0xbfd898494a447e38	-0.38429481747332117
4	0x3fa5358f13e9d8d9	0.04142424696049014
5	0xbfd7c94191875d1b	-0.37165869914811517
6	0x3fdad0e858dd0763	0.4190007083708364
7	0xbfe111cf6d3864c2	-0.5334241040428866
8	0xbfdc48bf92e82385	-0.44194020601622014
9	0x3fb986bd8b0e7a49	0.09971222538886439
10	0xbfe10cb9be2f53b8	-0.5328034128711954
11	0x3fd4e0aba6da135d	0.3262127999699283
12	0xbfa6c9b49f45b3a2	-0.044507641260543865
13	0xbfcdd5ce8d016086	-0.2330873669150188
14	0xbfa55274a9558242	-0.04164471213403377
15	0xbfd521faa16f2fee	-0.3301989151484567
16	0x3fd0bea57d32b7cb	0.2616361353528844
17	0xbfc63ac3ed258d0a	-0.17366837577274225
18	0xbfd278bf565771cb	-0.28861983711047107
19	0x3fbc3330a8046c1e	0.11015609838470694
20	0x3fc2a404afd3b557	0.14563044152547874
21	0x3fd8d75f66c4d618	0.38814530406975356
22	0xbfea192a2306950a	-0.8155718502136164
23	0xbfde63a892c789bd	-0.4748326714890501
24	0x3faeec029bd5a2a4	0.06039436485554475
25	0xbff2370aca5b856a	-1.1384380249586123
26	0xbf8ad8971d404dc7	-0.013108425693679216
27	0xbff4e73905efc493	-1.3064508659265683
28	0x3fb76c10c1074c5a	0.09149269783601835
29	0xbffb91768a486619	-1.7230134393379386

conv1.bias f8 [6]
0	0x3fd72b246020b2b6	0.3620081843135198
1	0x3fe593e4dd37aba1	0.674303466859204
2	0x3fa7debb6ef74617	0.0466211865383565
3	0x3f87928d29907265	0.011509993391933546
4	0x3fc437d927a37f2e	0.15795435367089666
5	0x3fd9737e46ab1700	0.39767414952471825

conv2.weight f8 [8, 6, 3]
0	0xbfc7795460000000	-0.18339018523693085
1	0x3fbb84ea40000000	0.10749687254428864
2	0xbfcaa67d80000000	-0.20820587873458862
3	0x3fcaf9c260000000	0.21074704825878143
4	0xbfba257800000000	-0.10213422775268555
5	0x3f8b42d200000000	0.013311043381690979
6	0xbfada67880000000	-0.05791069567203522
7	0xbfbea30620000000	-0.11967504769563675
8	0xbfcbdea5c0000000	-0.21773216128349304
9	0xbfc89d0c40000000	-0.192292720079422
10	0x3fcddb69e0000000	0.2332584708929062
11	0xbfa9a33200000000	-0.050073206424713135
12	0xbfb8ad52c0000000	-0.09639470279216766
13	0xbfc751bf40000000	-0.1821822226047516
14	0xbfb6b63240000000	-0.08871759474277496
15	0xbfc3e8b900000000	-0.1555396318435669
16	0x3fc718e320000000	0.18044699728488922
17	0xbfa3685580000000	-0.03790538012981415
18	0x3fc945eca0000000	0.19744642078876495
19	0x3fc7e8c8e0000000	0.1867915242910385
20	0x3fc39c5d20000000	0.15320934355258942
21	0xbfc98c9b00000000	-0.19960343837738037
22	0xbfc6051e00000000	-0.17203116416931152
23	0x3fb7e31b40000000	0.09330911934375763
24	0x3fa31aa080000000	0.037312522530555725
25	0x3fca573320000000	0.20578612387180328
26	0xbfc65baae0000000	-0.174672469496727
27	0xbfc3c2fee0000000	-0.15438829362392426
28	0x3fc2834860000000	0.14463143050670624
29	0xbfcba86100000000	-0.21607601642608643
30	0x3fc8f547a0000000	0.19498534500598907
31	0x3fa7732780000000	0.045800432562828064
32	0x3f9515ed00000000	0.020591452717781067
33	0xbfc5e0b000000000	-0.17091941833496094
34	0xbfc259f500000000	-0.14337027072906494
35	0x3f833e0800000000	0.00939565896987915
36	0x3fb52bd740000000	0.0827002078294754
37	0xbfc34a4540000000	-0.1507040560245514
38	0x3fcd49d1e0000000	0.22881530225276947
39	0xbfc1a47100000000	-0.13783085346221924
40	0xbfa44ad780000000	-0.03963349759578705
41	0x3faa99a980000000	0.051953598856925964
42	0xbf8fff4e00000000	-0.015623673796653748
43	0xbfab313d00000000	-0.0531100332736969
44	0x3fa5c71080000000	0.04253436625003815
45	0xbfcd1795c0000000	-0.22728225588798523
46	0xbfb20ca580000000	-0.07050547003746033
47	0xbfb7c7f500000000	-0.09289485216140747
48	0xbf935b4600000000	-0.018902868032455444
49	0x3fccee1b20000000	0.22601641714572906
50	0x3fcdedcfe0000000	0.23381994664669037
51	0x3fbaef1740000000	0.10521073639392853
52	0xbfca6043a0000000	-0.20606274902820587
53	0xbfbeb10180000000	-0.11988839507102966
54	0x3fbc4ea0c0000000	0.11057476699352264
55	0xbfc09965a0000000	-0.1296813040971756
56	0xbfc8f84cc0000000	-0.19507750868797302
57	0x3fc661fda0000000	0.17486543953418732
58	0xbfcd921220000000	-0.2310202270746231
59	0x3fbbf4d440000000	0.10920454561710358
60	0xbfcac46300000000	-0.20911824703216553
61	0xbfb981b240000000	-0.09963525831699371
62	0xbfc331f1c0000000	-0.1499616801738739
63	0x3fc2696d60000000	0.14384238421916962
64	0x3fb190a940000000	0.06861360371112823
65	0x3fc8929e60000000	0.1919744461774826
66	0xbfc28870c0000000	-0.14478883147239685
67	0xbfc781ae40000000	-0.18364503979682922
68	0xbfbb97c680000000	-0.10778465867042542
69	0xbfc0bf6dc0000000	-0.1308419406414032
70	0xbfb775e400000000	-0.09164261817932129
71	0x3fa5ecb280000000	0.042821481823921204
72	0xbfa31e2400000000	-0.03733932971954346
73	0xbfbc84a360000000	-0.11139889806509018
74	0x3fc46cac60000000	0.15956644713878632
75	0xbfc38fdf80000000	-0.1528281569480896
76	0xbfb988dd00000000	-0.09974461793899536
77	0x3fa3191c80000000	0.0373009592294693
78	0xbfaaf1e680000000	-0.052626803517341614
79	0xbfbd4f5880000000	-0.11449196934700012
80	0xbfc5705700000000	-0.16749083995819092
81	0xbfccb91800000000	-0.22439861297607422
82	0x3fc490bee0000000	0.160667285323143
83	0x3fc86b67a0000000	0.1907777339220047
84	0x3fa8d1b680000000	0.048474982380867004
85	0xbfc05f2e20000000	-0.12790466845035553
86	0xbfbf0ffd80000000	-0.12133774161338806
87	0x3fca43d160000000	0.2051946371793747
88	0x3fccc8ade0000000	0.22487424314022064
89	0xbfa233a380000000	-0.03555022180080414
90	0x3fc64890e0000000	0.17408953607082367
91	0x3fc5965b60000000	0.1686510294675827
92	0x3fbb54adc0000000	0.10676084458827972
93	0x3fc77a1c60000000	0.183414027094841
94	0xbfc5066180000000	-0.1642572283744812
95	0x3fc2f171a0000000	0.1479932814836502
96	0x3fc5c35520000000	0.170023575425148
97	0xbfc3787380000000	-0.15211337804794312
98	0x3fa1493b80000000	0.03376184403896332
99	0xbfafeb8680000000	-0.062343791127204895
100	0xbf71cf7c00000000	-0.004348263144493103
101	0xbfb1e0b3c0000000	-0.06983493268489838
102	0x3fa7771780000000	0.04583047330379486
103	0xbfcb41ac40000000	-0.21294167637825012
104	0xbfcd1afc20000000	-0.227386012673378
105	0x3fc89440e0000000	0.1920243352651596
106	0xbfc6c5bd40000000	-0.17790952324867249
107	0x3fb1e4d840000000	0.06989814341068268
108	0x3fa161b580000000	0.03394858539104462
109	0xbfcca09920000000	-0.22365106642246246
110	0xbfbb0e92c0000000	-0.10569112002849579
111	0x3fc90c4a60000000	0.19568757712841034
112	0xbfbbffdac0000000	-0.10937277972698212
113	0xbfc01fc840000000	-0.12596991658210754
114	0x3fcb68b520000000	0.21413291990756989
115	0x3fbf9451c0000000	0.12335692346096039
116	0xbfade42980000000	-0.05838136374950409
117	0x3fc04b3820000000	0.12729550898075104
118	0xbfcd1c0740000000	-0.22741785645484924
119	0x3fad2e7880000000	0.05699516832828522
120	0x3f8471c200000000	0.009982600808143616
121	0x3fc745f920000000	0.18182291090488434
122	0xbfc3f91900000000	-0.15603935718536377
123	0x3fc3572de0000000	0.15109799802303314
124	0x3f96ea5700000000	0.022378310561180115
125	0x3fcacad060000000	0.20931439101696014
126	0xbfcbcd5c40000000	-0.21720460057258606
127	0xbfc9ccaea0000000	-0.2015589028596878
128	0x3fa9842080000000	0.0498361736536026
129	0x3fb5c6d840000000	0.08506537973880768
130	0x3fb2c513c0000000	0.07331965863704681
131	0xbfb1829280000000	-0.0683986246585846
132	0x3fbfff0740000000	0.12498517334461212
133	0xbfc0d86100000000	-0.13160336017608643
134	0x3fc2850ee0000000	0.14468561112880707
135	0x3fa7dfab80000000	0.04662834107875824
136	0x3fa22ba080000000	0.035489097237586975
137	0xbfbe2acda0000000	-0.11784062534570694
138	0x3fb58372c0000000	0.08403699100017548
139	0x3faba34180000000	0.053979918360710144
140	0x3fc12161a0000000	0.1338312178850174
141	0xbfc3682160000000	-0.15161530673503876
142	0x3fc41be9a0000000	0.1571018248796463
143	0xbfcc02e660000000	-0.21883849799633026

conv2.bias f8 [8]
0	0xbfbd51f140000000	-0.11453159153461456
1	0xbfbcef43a0000000	-0.11302588135004044
2	0xbfbe020840000000	-0.1172185093164444
3	0x3fbf460d40000000	0.12216265499591827
4	0xbfcbe2cd00000000	-0.2178589105606079
5	0x3f9aa79b00000000	0.02602998912334442
6	0x3fbde9f740000000	0.11685128509998322
7	0x3fb59c0c40000000	0.0844123512506485

fc1.weight f8 [64, 270]
0	0xbfff029a9c31d969	-1.9381357289654153
1	0xbf9eb2b98441bf3e	-0.0299786555264625
2	0xbfbc06bb08acacde	-0.10947770082264038
3	0x3fa9c907c8296e96	0.05036186521894341
4	0x3fb8501eaff1c06f	0.09497253222957779
5	0xbfc0e5b5c32d8c0f	-0.13201019315883442
6	0x3fd6f1789a6126cc	0.35848822666285396
7	0xbf8178c153488f62	-0.008531103471859761
8	0xbf94eb7b52b3e0a1	-0.02042954151417631
9	0x3fd3b7e3c861c7b0	0.30809874123144265
10	0xbf987bb0aaf098e9	-0.02390934031804984
11	0xbfd03fb8ebb446d8	-0.25388930337895266
12	0xbf9714457aaf605b	-0.02253826676664548
13	0xbfbd31984f769796	-0.11403800907154812
14	0x3f7f53931de8f85e	0.007648062396183956
15	0xbfb2a39f82771b94	-0.07280919013201831
16	0x3fd7a13105300484	0.369213347497926
17	0x3fb32686c16e24fe	0.07480661604326497
18	0xbfc9c735e4c32b8b	-0.20139192266500702
19	0x3f9482ec9b4d4070	0.020030686358325445
20	0x3fa54938b75fb31a	0.041574261078358
21	0xbfb53741c13ada7a	-0.082874402690189
22	0x3fa4f081cdc2256d	0.040897423140516455
23	0x3fec3c7827b6c246	0.8823815131818911
24	0x3fa1eb94b8ec2643	0.035000464986364686
25	0x3fbd6ef7c9085eb1	0.11497448595070626
26	0x3fd7ab8d182f4917	0.3698456512621688
27	0xbfd14d7e919dcd75	-0.2703548833880725
28	0x3fcf8fec194b930a	0.24657965884321015
29	0x3fad6591947ba617	0.057415532470099055
30	0xbfc68ca003ff7452	-0.1761665362854808
31	0xbfd46538d3910f0b	-0.31867809925846363
32	0xbfd400ae655d1715	-0.31254157923500375
33	0xbfd5a5a82090ac43	-0.3382358854311784
34	0x3f939e04eb0986f5	0.01915748295358007
35	0x3fae1dcae0085f8b	0.05882104859136835
36	0xbfdbd991255210b3	-0.43515423435770656
37	0xbf6a5eabb1b5a899	-0.0032189706231991575
38	0xbfce06cec379430a	-0.23458275360692254
39	0x3fdeb5219e68453d	0.47980537862266087
40	0x3fa1c5d45bd8623f	0.034712444507196676
41	0xbf94276300338de1	-0.019681498420039637
42	0xbfab7deb912dfdd9	-0.05369506976330358
43	0x3fa8d69c97dcb2f2	0.048512357271055864
44	0xbfbb616ed2cd035b	-0.1069554581308813
45	0x3feeb347faa46573	0.9593849082331601
46	0xbfa6dee1f355b041	-0.04466920943636455
47	0x3f62c75995e29a48	0.002292323085458823
48	0x3fa71d367833ceaf	0.045144750760213063
49	0x3fb6a820db9653f6	0.08850293503776627
50	0x3f95bff6087a3ff8	0.021240085856845753
51	0x3fed56f967a7bb89	0.9168669724002579
52	0xbfa0d3502480881e	-0.032862190681285805
53	0x3fa632f6f7baf8a3	0.04335757993747904
54	0xbfb71967e9dd54f9	-0.09023141345581455
55	0xbf731c2154be03ac	-0.004665498923601168
56	0xbfc33492cddfdac0	-0.15004191448652726
57	0xbf76e416f1712448	-0.005588616963970124
58	0x3fdb6b44189776af	0.4284219970848921
59	0x3fd272a286583e01	0.2882467567405627
60	0xbfd2eacd168c0f12	-0.29558112336984366
61	0x3fa83a253301fece	0.04731861350682963
62	0x3fb09204011ed2b1	0.06472802188256811
63	0xbfc55935debca1ae	-0.16678498626539578
64	0xbfa18c826ef3e93a	-0.0342751274528887
65	0x3f97be6436e02b26	0.02318722329077185
66	0x3fad9e3118ed9b97	0.057847532551753726
67	0xbfbe14711a1f2163	-0.1174994171880193
68	0x3fcea2d896e0a258	0.2393446671205932
69	0x3fb01e0faa6c65a0	0.06295869742134252
70	0xbfa0bd7bee0ae94a	-0.03269564896386841
71	0x3fc1e424d21fa112	0.1397748971933273
72	0xbf9116bc280cd32b	-0.01668828958937067
73	0xbfb0f16c6ed79721	-0.06618383127314732
74	0x3fb6f621b75355a5	0.08969317174645271
75	0xbfe535e160a3868f	-0.6628271949268355
76	0x3f699bb241a7d140	0.0031259996005649493
77	0x3fd04da57ea5978b	0.2547391640458662
78	0x3f8a3ec0a115326f	0.012815003314835509
79	0xc0020142580c99cd	-2.2506148222775892
80	0x3fbceee9e7556df3	0.11302053354068402
81	0x3fa2054d92b225a2	0.03519670882912897
82	0xbf56368f7b507de3	-0.0013557816685149042
83	0xbfc9cc8b3c4b7031	-0.20155468410564617
84	0x3f8ecc70b7f657b8	0.015038376440127496
85	0x3fd0fc31a5849244	0.26539269603589255
86	0xbf9839aeec00d020	-0.023657544283381182
87	0x3f761f939788b368	0.005401207476592208
88	0x3fbab7384cdf21d7	0.10435821415661138
89	0x3fb068572196560d	0.06409210748673662
90	0x3fba34445140b192	0.10236002906521538
91	0xbfb3c2de791ea1a3	-0.07719221550963211
92	0x3fef0dc0df57eef3	0.9704288828065429
93	0x3fdbfb6e5be2fe98	0.43722113583860667
94	0x3fcbbb3cca579353	0.21665153388962696
95	0xbfc41fbf02629ccd	-0.15721881500687687
96	0x3fa01975ee5f1a12	0.031444249485094514
97	0x3fb975c2771317f3	0.099453119345611
98	0x3fe32093cda2fd88	0.5977267280904224
99	0x3fc61809cb760107	0.17260858950249533
100	0xbfaf04e4997e3c06	-0.06058420537657842
101	0x3fea1f7623e63f50	0.8163405133400179
102	0xbfd304c713dea126	-0.2971666044272915
103	0xbfbf95a7ae889b45	-0.1233773041827649
104	0xbf66b7e01563c14d	-0.0027732254630949194
105	0x3f725cb7d10a8c3d	0.00448295405718385
106	0xbf919cf7e641a2a0	-0.01720034926293812
107	0xbfa27f097849eec0	-0.03612546532982952
108	0x3f93b7a33f5e42a4	0.019255209677398924
109	0x3fc4c5787dcd0c60	0.16227632658601276
110	0xbfa871d0af15a566	-0.04774334084761271
111	0x3fc8d7caaf7bef08	0.19408544128952365
112	0xbfc1d6494aac65d0	-0.13935199876941207
113	0xbfea669a9f6bd300	-0.8250249017424665
114	0x3fd0eb6324b02d00	0.2643668993266175
115	0xbfb9a6233b7d2d8b	-0.10019130899779875
116	0x4002ef6c36efde1c	2.3669056217147624
117	0x3fe3768d840474cc	0.6082217768158897
118	0xbfd6498e4e930146	-0.3482394950224442
119	0x3fdb7cf3ac344d59	0.4295014554674786
120	0x3fd181c4929ec6fa	0.2735454017484781
121	0xbfa3c1c9f7d2bf96	-0.03858786726175294
122	0x3fe395d142a43084	0.6120382596577802
123	0x3fb772b49023e167	0.09159401434943036
124	0xbfb380be5f73def9	-0.07618322210680252
125	0x3feb3988218e4d1a	0.8507729201686829
126	0xbfa7abc5ba1bb8e5	-0.0462323941882106
127	0x3fc06851a4c18893	0.1281835607979401
128	0x3fda31bea4820a24	0.4092861753962629
129	0x3fa5299df7d484c9	0.04133313799162292
130	0x3fd2b4d40fb5b402	0.2922868874946404
131	0x3fec6d4ece4c27e6	0.8883432416198473
132	0x3fd0c197b1abe6e0	0.26181595183116535
133	0xbf9003e181e429c6	-0.01563980441373205
134	0x3fbef2c1d71ed762	0.12089168073620507
135	0xbfa19b2fc0000000	-0.03438710421323776
136	0xbfb0acc680bbf923	-0.06513634341169854
137	0x3ff2cfdd809d002b	1.1757483505207442
138	0x3ff344322f6aa27b	1.2041494228562033
139	0x3faf66bc6a09e6f6	0.061330688423323496
140	0xbfade5d37ff43537	-0.05839405953347881
141	0x3fc231b382da6d91	0.14214176072424015
142	0x3f785b17a1a81b71	0.005946247396883973
143	0x3fd2ce18d79b1931	0.2938291650319967
144	0x3f966c9d8738be87	0.021898709657931306
145	0xbfb5877537bdb8a5	-0.08409817324511211
146	0x3ff0f58e3a4bda08	1.0599500920485543
147	0x3f7865f0a3d4afe8	0.005956592559680708
148	0x3fc117ecea893b46	0.13354264690357293
149	0xbfa4c66f33a75c91	-0.040576434188261186
150	0xbfcb4e4ab62ec7a4	-0.2133267774166231
151	0xbf839555949ac8f7	-0.009562176320603728
152	0x3fc381fd9d1bbd83	0.15240450068766273
153	0xbfbdf3d3ca066656	-0.11700175935984566
154	0x3fe1c004c3f6e43d	0.5546897723608094
155	0x3fc348aecea76608	0.15065560427210323
156	0x3fd440c7a8009188	0.31645385176150187
157	0xbfd07cbd0f650121	-0.2576134348237407
158	0x3ffa36733aebbbe1	1.6382934857936038
159	0x3fe825cdd1550138	0.7546147430912589
160	0x3fb838a7940752fb	0.09461448062877402
161	0x3ffcb06f71f83994	1.7930750324190727
162	0x3fe3e631b3b6c2aa	0.6218498716389906
163	0xbfcf7fba6c659900	-0.24608545582595553
164	0x3fccf87df716b6f9	0.22633337559584968
165	0x3fc69fd73a1f0791	0.17675295198392552
166	0xbf46abe1f8e5754a	-0.0006918767337925982
167	0x3fdaa736f6170f2e	0.41645597488626407
168	0x3fb40701ed01729b	0.07823192631026148
169	0xbf870b5080000000	-0.01125204935669899
170	0x3fe99955e09b42ac	0.799967707333129
171	0x3fd19e63bb24ca71	0.2752923324179966
172	0xbfa480c2a7d71365	-0.04004486368970709
173	0x3fcf18459d512392	0.242928220572392
174	0xbf629c01b30f026b	-0.0022716553871478438
175	0x3fdbc71c82bc5cae	0.4340277935711566
176	0x3fd534eb1322937e	0.33135487431200505
177	0x3fc39c4e555ba030	0.15320758025996062
178	0x3fb493d6e9b9c670	0.08038085180467092
179	0x3f9f17090fc085a0	0.030361310564449462
180	0xbfb7c8652ddf4d17	-0.09290153856209248
181	0xbfc703e415ae5e5f	-0.17980624254845431
182	0xbfc2926c92b4fcfa	-0.14509350932528503
183	0x3fc81e03fb51a4c9	0.18841600200111078
184	0x3faf7632dea42e88	0.06144865958966955
185	0xbfe656520fb5159e	-0.6980371767792126
186	0x3ff6b6764b66cb4a	1.4195464082119593
187	0xbfc08e976c6c6bc1	-0.1293515471851077
188	0x3faf16bb71e023af	0.06072030797083216
189	0x3ff29c25332b5c3d	1.1631214140704877
190	0xbfba3618bf539732	-0.10238794966752776
191	0xbfee46811fd70d68	-0.9461064931751197
192	0xbfa947029c775294	-0.04936988983141535
193	0x3fb5c1be5586b008	0.08498754108467221
194	0x3f7a1ea194359865	0.006376868407960233
195	0x3f9b3391cfae49db	0.02656390981753441
196	0x3fa7de9715fbc922	0.04662010329583867
197	0xbf984cbe5b9e3114	-0.023730253545680105
198	0xbfe514135fdd0f3f	-0.658700644715715
199	0x3f6cd7c3e68d23fc	0.0035208536322994793
200	0x3fbbc45a0e4d9243	0.10846484040445951
201	0x3f940681746b12cb	0.019556067209822097
202	0xbfa85d0e9624cc84	-0.04758496840295215
203	0x3f813f79ebb00b9c	0.008421852593533612
204	0xc0061da5cb3468fd	-2.76447638276761
205	0x3faeadefce5d2200	0.059920782032865105
206	0x3fd6963494857b93	0.3529178095249616
207	0xbf8f716f2be9a5ff	-0.015353077437981531
208	0x3fb6ac9cf9ff1781	0.08857136825016988
209	0x3fb0af4a646284a2	0.06517472220231693
210	0x3fb7bf01fc305890	0.09275829703287486
211	0xbfcad0f20d1c9b58	-0.2095015110037035
212	0xbfb65054e4d55e99	-0.08716326319460634
213	0xbfa603c721f64d7d	-0.04299757279946002
214	0x3fbac425bc39e46a	0.10455547185292038
215	0x3fc2b48911eabb83	0.1461345040783862
216	0xbfdf0b84794e3d0e	-0.4850779709458529
217	0x3fd13c77057b50ba	0.26931548629114455
218	0xbfa594063ac3d706	-0.042144961045705684
219	0x3fe984d380bea1fe	0.797464133695996
220	0x3fc42026ab3e9550	0.15723117219492133
221	0x3f9327b742074668	0.01870619144921762
222	0x3fa9ca7f7a7bb3a3	0.05037306184917802
223	0xbf6b65632e4eb133	-0.003344243729278906
224	0xbf861f7076e0a029	-0.010802153232433014
225	0x3fe03afa6c26fe52	0.5071994888639415
226	0xbfd7cc13233c46c9	-0.3718307346435777
227	0xbff8143a91b68cf4	-1.5049386684339057
228	0xbfa4e6f05c418967	-0.04082442403957281
229	0x3fd57f488c028d15	0.3358937613758866
230	0x3fdfb2a34c058772	0.4952781908415239
231	0xbfa6bc10e0000000	-0.04440357908606529
232	0xbf8ef43b00000000	-0.015114270150661469
233	0xbfa9eeb9bfed16dc	-0.05064945667122142
234	0xc00096e68e35ff2f	-2.0736819372395057
235	0xbfb82738d051e570	-0.094348479136803
236	0xbfd7d5006de3ff2e	-0.37237559062485814
237	0xbfe19de510a15492	-0.5505242657478837
238	0xbfc3b2f299a47c24	-0.15389854909969458
239	0xbfc393f692ae104a	-0.15295297777277234
240	0xbf97f65640000000	-0.02340063825249672
241	0xbf7bd93e00000000	-0.006798975169658661
242	0x3f8bdb0400000000	0.013601332902908325
243	0x3f91fcae80000000	0.017565466463565826
244	0xbf8ec33166dcf89a	-0.015020738555559899
245	0x3f9241397910acc1	0.01782693673537206
246	0xbf86a1d6f4acfb95	-0.011050872175131047
247	0x3fd6f63cb4640644	0.35877912155419645
248	0x3f9f361180000000	0.030479691922664642
249	0xbf8d0c6f00000000	-0.014183871448040009
250	0x3f84f1f500000000	0.010227121412754059
251	0xbfa1a39fa0000000	-0.034451473504304886
252	0x3f9f4d0300000000	0.030567213892936707
253	0xbf991663e7d5b016	-0.0244994745493586
254	0xbff3bb274a56d27e	-1.2331917671082517
255	0x3f9c470800000000	0.027614712715148926

fc1.bias f8 [64]
0	0xbfbdacd6bbacd88e	-0.11591856080926474
1	0x3fbac518ac27051c	0.10456995203914626
2	0xbfac6242171e19fa	-0.055437150308581054
3	0xbfb2a3b7d561755e	-0.07281063994874645
4	0x3f71d984039fcbc7	0.00435782974271865
5	0xbf9b494ae2921698	-0.02664677627446696
6	0x3fcf02cbce05be34	0.24227283057870042
7	0xbfb945c2f0f42ed1	-0.09872072584783644
8	0xbfd217af6d8ef8f7	-0.2826956338793844
9	0xbfc6b6422be5fb34	-0.17743708747362918
10	0x3fc96fdea3a615da	0.1987264918390526
11	0x3f85488279cb4086	0.010392207471710668
12	0x3fc30effd50b4e87	0.1488952436690065
13	0x3fb6306efe0280e3	0.08667653752718567
14	0xbf9c81e52e3f23f5	-0.027839261005087896
15	0xbf9065076377c277	-0.0160103945217451
16	0x3fc2246e9b88bcd0	0.14173681826057427
17	0x3f99c9bd1f0b960a	0.025183634776928122
18	0xbfd0668513208f1f	-0.2562573134220986
19	0x3f6cf0fd67f2f764	0.0035328816735206593
20	0xbfd37cd9c654ce2c	-0.3044952809170549
21	0x3fd7a9e217fcf71e	0.3697438463458286
22	0x3fc483b6248af7f0	0.16026951584166182
23	0x3fbcd9f225c941a5	0.11270059034837361
24	0xbfb6e69056e8a076	-0.08945562478823085
25	0xbfade2cc24fcea6b	-0.05837095214379392
26	0xbf9fa0dfe1429a47	-0.030887125133313622
27	0x3fd1aeeecfec79e9	0.27630205445339456
28	0x3fa262f430cbd679	0.03591120811135524
29	0xbfc1124ffdbedb84	-0.13337135209959794
30	0x3fa03edf98bad289	0.03172968615891587
31	0x3faf173b10ad4624	0.06072411135268066
32	0xbfd2c8a3fb79934b	-0.2934961276826484
33	0xbfcd01e59b908a11	-0.22662038894584716
34	0xbfbce30500d8c171	-0.11283904333754947
35	0xbfb257c38a6838a8	-0.07165166977958626
36	0xbfd588da5b07054b	-0.3364778412761395
37	0xbfbbfacdb894143a	-0.10929570919331946
38	0xbfd39170dd5c57c6	-0.30575200669533975
39	0xbfbfc46bb8aca634	-0.12409089335110296
40	0xbfc298c7a56b2c95	-0.14528747155268165
41	0xbfb3706dbe1347e3	-0.0759342755366386
42	0x3fa2d582df56cd6d	0.0367852113371566
43	0x3fcc2264d9317674	0.21979961972367656
44	0xbfd145d1349c3285	-0.2698863042612987
45	0x3fcc78555e277764	0.22242228600856173
46	0xbfb47bf18fba91f7	-0.080016229238545
47	0x3f79be19def529a8	0.006284810121835717
48	0xbfaa2c4689a4c8cc	-0.05111904554577648
49	0x3f7626f2ffb11f26	0.00540823861508225
50	0x3fc85e212202b3c4	0.19037260208770423
51	0x3fcfe3af32d9714f	0.24913587553863656
52	0x3fd5b84203239da6	0.339371207299758
53	0x3faabebe51dc74a5	0.05223650693208385
54	0xbfbbfc22a56faa15	-0.10931602992028673
55	0xbfbf639e8cbff9d0	-0.12261382042195312
56	0x3fa452f371795f56	0.039695365526027857
57	0xbfa18c0291fc0d2a	-0.03427131683386116
58	0xbfa4995b3afc4363	-0.04023251624142323
59	0xbfa9663924f32aba	-0.04960802627609469
60	0x3fbcd6a293d77398	0.11265007123388526
61	0x3fb88836bfcc541a	0.09582845861980652
62	0x3fb48d0e0db27ccd	0.08027732691197116
63	0x3fa066cdc92e70aa	0.032034331138875174

fc2.weight f8 [3, 64]
0	0xbfd3befab33bce99	-0.3085314512565929
1	0x3fcec5f218f741a9	0.2404158231643241
2	0xbf7b285ae35bb438	-0.006630282432280636
3	0xbfd287c4ca10c631	-0.2895366643234381
4	0x3fcb76db1797e55f	0.2145646920396684
5	0xbfc7a0c4f747d99a	-0.18459379266978432
6	0x3fe49f2c679f2824	0.6444303535329294
7	0xbfae0207df9ae074	-0.05860924343636578
8	0xbfd53a2f4585f644	-0.33167630948432625
9	0x3fd93ff87bbacc05	0.3945294578836072
10	0x3fbe0bf70df5be0d	0.11737007227724679
11	0xbfc1d8860a0e7c01	-0.13942027560275963
12	0x3fcc62b38ca1ff7c	0.22176212660633243
13	0xbfd39436dc5588c4	-0.30592128293040965
14	0xbfd78bfcbca67dd9	-0.3679191438950205
15	0xbfded801cb32e781	-0.48193402141225056
16	0x3fccc9c011827606	0.22490692954026786
17	0xbfdcabee8de5d1ba	-0.44799388749313673
18	0xbfe088886720577f	-0.5166666044412834
19	0xbfda556e3c68a94a	-0.4114642705850612
20	0xbfe2c92170f3be50	-0.5870520788284441
21	0x3fe27de24b15416c	0.5778666941132946
22	0x3fd4460faae1537b	0.31677619636075577
23	0xbfd0fb2b5b4609bb	-0.26533016122280245
24	0xbfb1a347d52460fe	-0.06889771417298005
25	0xbfd8552a70e34f8d	-0.3801981069966523
26	0xbfade04d6cdc7092	-0.05835191682692299
27	0x3fdd3ed2bc9a615e	0.45695942323938776
28	0x3fcae2131256118b	0.21002424617121238
29	0x3fd89dd7ed091338	0.38463400028222194
30	0xbfc700dba943e47a	-0.1797136856546649
31	0xbfc94b0987ba5bbd	-0.1976024544462386
32	0xbfdcadbf09fc9f05	-0.44810462928079203
33	0xbfe519481628eb4d	-0.6593361313638099
34	0x3fda3b60079b8151	0.4098739694873262
35	0xbfec54cba4e55f71	-0.8853510113358266
36	0xbfea340b6d5fe06c	-0.8188531051846559
37	0xbfb4731984d02523	-0.07988128178125868
38	0x3fd6461d99416672	0.3480295178065723
39	0xbfc876bb7818a748	-0.19112342228009482
40	0xbfe5f1886ff304b6	-0.6857340036878188
41	0x3fcb7347843ac737	0.21445554691813992
42	0x3fa883f8efd2a98f	0.047881869578605955
43	0x3fd65ae0a2bdf7ad	0.3492967213895735
44	0x3fd7d8dfba250036	0.37261193445374674
45	0x3fe5eec3f1a0f815	0.6853961676895347
46	0x3fe246626ca3c644	0.5710918542737962
47	0x3fce01ab4659248f	0.23442593512507812
48	0xbf82015d38056a1c	-0.008791664383058388
49	0xbfd347c23937f87f	-0.30125480258710263
50	0x3fa4cb41d5ac0508	0.04061322911548798
51	0xbf818ea68c20be27	-0.008572865630497152
52	0x3fe4629d2c03f003	0.6370378360438739
53	0x3fc83c7ba39b3ed7	0.18934579361529444
54	0x3fce523cc5ba9e2d	0.23688468603835258
55	0xbfc83fe4fdcae216	-0.18944990532124056
56	0xbfcc23c1fae84545	-0.21984123946507786
57	0xbfd16cc64d153e76	-0.27226407554278553
58	0x3fe550205a9bec99	0.6660310525616239
59	0xbfdee05ad1a46d3a	-0.48244352791671796
60	0x3fc7706feac6b972	0.18311881030735894
61	0x3fc9e9cf27960d2b	0.2024477904597942
62	0xbfd93ad7835c9e37	-0.39421642139720653
63	0x3fca067c6cd29f3e	0.20332293809519258
64	0x3fc46959bbb9c632	0.15946504274647705
65	0x3fcd358f80e88f21	0.22819703859669807
66	0x3fa1c903adb17826	0.0347367429283028
67	0x3fc3de6b3b9f500d	0.155225185501536
68	0x3fcd9ffe7026455b	0.23144512630509947
69	0x3fc69b7103dffa6e	0.17661869706349215
70	0xbfd2d61f452f4ee2	-0.2943189788468158
71	0x3fb51734cade2f7c	0.08238534882383236
72	0xbfd193d780285d1e	-0.2746485473193888
73	0xbfc1451c5984160d	-0.13492159243485027
74	0x3fd295d974c1400f	0.29039608384937393
75	0x3fc5dcfd7eb596c1	0.1708065861413868
76	0x3fccd93d56d27c63	0.2253796266495299
77	0x3fc8693b3e6f734e	0.19071140812493542
78	0x3fb97f84b8b4794a	0.09960202702902624
79	0x3fb3a2615ee115f7	0.07669647756946306
80	0x3fcd22537d742c34	0.22761005044626048
81	0xbfcd2ec7826db63d	-0.22799009197790268
82	0xbfb6ed2d9d536232	-0.08955655184707537
83	0x3fc29c0ae1aa8ec4	0.14538703936442776
84	0x3fc3b0e71f6cfbe7	0.15383614572962687
85	0xbfc44e03022825d0	-0.15863072972596948
86	0xbfd06a0352c860eb	-0.25647051891566147
87	0x3fbef7c5749b4540	0.12096819016303062
88	0xbfba1968a2771edc	-0.10195020643652292
89	0x3fc6f254cada1384	0.17927036194683066
90	0x3fb11f7f3e6559b8	0.06688685677850159
91	0x3fa78fe25d6554dd	0.04601962461553353
92	0x3fba21406a3fc02b	0.10206987947435724
93	0xbfd108ac53e9a61d	-0.26615436739538884
94	0x3fd9d52f5fedf1fd	0.4036367832957522
95	0xbfc2bc43f82b51b5	-0.14637040727269626
96	0x3f856bbab3806d3b	0.01045938358588804
97	0x3fc8fccac292ce56	0.19521460056931755
98	0xbfcbbafb8685c1fd	-0.2166437537048437
99	0x3fc623723753d05f	0.17295673085721128
100	0xbfa76342b2468c26	-0.04567917276587989
101	0xbfa0d5bd557e989a	-0.03288070362695912
102	0xbfd2a1def4574264	-0.2911298166409664
103	0x3fcc9c6aa08fa6cd	0.22352345313929903
104	0x3fc89fa5d93ad6e3	0.19237206561017847
105	0xbfd63f144d2631b1	-0.34760005506611963
106	0x3fcf06cc7df633f7	0.2423949828193199
107	0xbfcef7a814d2e184	-0.24193287865433544
108	0xbfd774153a2cbe23	-0.36646013909464353
109	0xbfdac31a5844b334	-0.4181581365581224
110	0xbfc074d4b905f5f2	-0.1285653975900654
111	0x3fca3a8aa27f639a	0.20491154608205592
112	0x3fa363f6952a6c88	0.037872033795076254
113	0x3fd426e13d4e0059	0.3148730372122422
114	0x3fd5dbf6b31e0328	0.34155051700513406
115	0x3fcf04cd2b74cb73	0.24233402845274163
116	0xbfdfde7ccc6cf0b1	-0.49795455897743596
117	0x3fc6d6240cb4bd50	0.17841005916987251
118	0x3fbf85e1faad939f	0.12313663835591492
119	0x3fc038770e56aecc	0.12672317695738966
120	0x3fc22fa6df238082	0.14207921882098523
121	0xbfd54ed4b9141172	-0.3329364592939533
122	0xbfbf91098b2949e1	-0.1233068432568767
123	0x3fbdb1ec6f89882f	0.11599614832951553
124	0x3fc19b249f3bf59f	0.13754709029300913
125	0x3fcaa436c11f00ed	0.20813641004315944
126	0x3fc24faeb80cc5c5	0.1430567167931668
127	0x3fcd227e09f98e8d	0.22761512267162623
128	0x3fc499328f052bb5	0.16092521651657213
129	0xbfda897e31d6642d	-0.414641903561974
130	0x3f8f2fc2fe0e8a6a	0.01522781694240401
131	0x3fc3142cc93dce20	0.14905319048158194
132	0xbfdd949f88a72f02	-0.4621962389471578
133	0x3fc8bd3bd904806d	0.19327495667039632
134	0x3f0c3e5f37892920	5.3870468893340304e-05
135	0x3f6c062caa5a5499	0.0034209129688159254
136	0x3fd659d8b880a4dc	0.34923379915069375
137	0xbfe869342a0a1944	-0.7628422566493005
138	0xbfd38b8f8fc3e1fd	-0.30539311446730705
139	0x3fb354b47684bb48	0.07551124471204418
140	0xbfd8c9ecdd2a0b9b	-0.387324539166167
141	0x3fc73eefb7020b55	0.1816081660836867
142	0x3fd577a7524b00aa	0.3354280761377689
143	0x3fd2c9c7331f61cb	0.2935655593151096
144	0xbfce17fea7679d37	-0.23510726141032887
145	0x3fd9549d5ffe61c8	0.3957894742429997
146	0x3fc1aedfc2ddb954	0.13814923300692306
147	0x3fc3a1934a7a2a19	0.15336838852484005
148	0x3fc39c391b5baeea	0.15320504985663003
149	0xbfd41f9c01681d65	-0.31442928445217994
150	0x3fd5ed09669c5ba8	0.34259257336219173
151	0x3fd094e6dea2f74b	0.25908824674467174
152	0xbfb296f12f2334dc	-0.07261569405382623
153	0x3fd499784cf3a7e7	0.32186706080267274
154	0xbfb904c4a8cc97c0	-0.09772900696825015
155	0x3fb8fe1bd3473a30	0.0976273909393306
156	0xbfcf0c7deb9db126	-0.24256872181593642
157	0xbfbf044ef1afb898	-0.12115949059054498
158	0xbfd2a82bcc1e562a	-0.2915143483490704
159	0x3fe0c7144f559503	0.5243016767023224
160	0x3fbce495403fa04c	0.11286289995735038
161	0x3fc89916bdea7098	0.19217190049392197
162	0xbfc1ab9677e86d1b	-0.1380489430892816
163	0x3fc2765b018cc7cb	0.14423692298583854
164	0x3fd13b2eacd22e8e	0.26923720242550864
165	0x3fd4bfab9eecff64	0.3241986324319355
166	0xbfda4c39e77181f6	-0.410902477282462
167	0xbfa1a71f387a1f52	-0.034478164333505604
168	0x3fc8ed45e51f3b6a	0.19474099814984963
169	0xbfd11a320169c519	-0.26722383630756635
170	0xbfdd5adb91159af9	-0.4586705128516964
171	0x3fd95a45ec53071b	0.39613483503863883
172	0xbfd4936771880ce6	-0.3214968308167968
173	0xbfd905bd1ba5eb08	-0.3909752626420162
174	0x3f952ca183410568	0.02067806590662738
175	0xbfdda52ffa7cc344	-0.4632072397389957
176	0xbf76906391892c35	-0.00550879377312712
177	0xbfc3e736b79a24b2	-0.15549358334491142
178	0xbfd65c9efe614e43	-0.3494031414204281
179	0xbfc032a9ca99d9e1	-0.12654611961961762
180	0x3fc0a13d88186fa1	0.1299206652191716
181	0xbfd964500a5b5659	-0.396747598756837
182	0xbfe71107ddcc8a55	-0.7208289463054124
183	0xbfae89ef1e7a3ee3	-0.05964610335388245
184	0x3fd14ab28e87247b	0.27018417280903123
185	0x3fe21f16bbd53396	0.5662950199708685
186	0xbfb1e1a938b4d65b	-0.06984956392701618
187	0x3fb78af0a6889910	0.09196380677949301
188	0x3fc5df8d23d79a3b	0.1708847451220253
189	0xbfd2927429d8ecb1	-0.29018882834106835
190	0x3fcb2dd7dcdf2d1b	0.21233652386431676
191	0xbfdaac51ba7ef9f0	-0.41676753246784326

fc2.bias f8 [3]
0	0x3fd26419f74adffb	0.28735970639854685
1	0x3fd673efde9c2486	0.35082623233081056
2	0x3fe38276d5b22f5e	0.6096758054495515
