runs/testrun-adamlr1e-3-5r-20bs-50ep/1/LocalModel-1-Round1.pt (torch, 167767 bytes, 6 tensors)

linear.weight f8 [128, 95]
000000 00 00 00 80 37 b3 99 bf 00 00 00 00 38 9e b2 3f
       -0.025097720324993134 0.07272672653198242
000010 00 00 00 00 2c 4d 76 3f 00 00 00 00 c7 dc 97 3f
       0.005444690585136414 0.023303136229515076
000020 00 00 00 00 10 50 a3 3f 00 00 00 00 ec b1 a5 3f
       0.0377202033996582 0.042373061180114746
000030 00 00 00 80 4f 0b b4 3f 00 00 00 a0 19 a3 b6 bf
       0.07829758524894714 -0.08842620998620987
000040 00 00 00 e0 5a 46 b9 bf 00 00 00 80 45 33 a7 3f
       -0.09872978180646896 0.045313045382499695
000050 00 00 00 00 74 60 ae 3f 00 00 00 00 9b c9 91 3f
       0.05932962894439697 0.01737062633037567
000060 00 00 00 20 04 28 a5 bf 00 00 00 80 ac b7 a9 bf
       -0.04132092371582985 -0.05022944509983063
000070 00 00 00 00 72 e0 a3 bf 00 00 00 c0 c2 51 a3 bf
       -0.0388217568397522 -0.037733159959316254
000080 00 00 00 e0 ce 8b b9 bf 00 00 00 00 1d 22 9e bf
       -0.09978955239057541 -0.02942700684070587
000090 00 00 00 00 df 84 9a 3f 00 00 00 40 73 e8 b7 3f
       0.025897487998008728 0.09339065849781036
0000a0 00 00 00 40 77 71 a6 bf 00 00 00 80 99 94 a6 3f
       -0.04383442550897598 0.04410247504711151
0000b0 00 00 00 60 84 08 b9 bf 00 00 00 e0 dc c0 b7 bf
       -0.09778621047735214 -0.09278660267591476
0000c0 00 00 00 00 d6 5b 9b 3f 00 00 00 00 18 74 b2 3f
       0.02671751379966736 0.07208395004272461
0000d0 00 00 00 80 07 3c b3 bf 00 00 00 80 42 46 93 3f
       -0.07513472437858582 0.01882270723581314
0000e0 00 00 00 a0 a0 f8 a6 bf 00 00 00 c0 80 72 b7 bf
       -0.044865626841783524 -0.09159092605113983
0000f0 00 00 00 00 53 ac b9 3f 00 00 00 00 c4 3d 92 3f
       0.10028570890426636 0.01781374216079712
000100 00 00 00 20 69 c7 b0 bf 00 00 00 00 86 8c b6 bf
       -0.06554276496171951 -0.0880817174911499
000110 00 00 00 80 90 22 9d bf 00 00 00 00 cb b7 aa 3f
       -0.02845216542482376 0.05218347907066345
000120 00 00 00 60 e1 7e b8 bf 00 00 00 00 4a 5f 70 bf
       -0.09568604081869125 -0.00399712473154068
000130 00 00 00 80 02 9a b7 3f 00 00 00 80 8c c3 b7 bf
       0.09219375252723694 -0.09282758831977844
000140 00 00 00 80 ba 8f a5 3f 00 00 00 c0 bc d7 b8 bf
       0.042112186551094055 -0.09704189002513885
000150 00 00 00 c0 43 b2 b7 3f 00 00 00 80 bc 4c 92 3f
       0.09256385266780853 0.01787085086107254
000160 00 00 00 60 6d dd af bf 00 00 00 80 8c 6c a2 bf
       -0.062236230820417404 -0.03598441183567047
000170 00 00 00 00 69 75 8e 3f 00 00 00 e0 c4 26 ab bf
       0.01487237960100174 -0.05303015932440758
000180 00 00 00 40 23 63 b3 3f 00 00 00 a0 50 de b3 bf
       0.07573147118091583 -0.07761100679636002
000190 00 00 00 80 2f 0b b0 3f 00 00 00 80 88 72 a0 bf
       0.06267067790031433 -0.03212381899356842
0001a0 00 00 00 c0 ea bb b5 3f 00 00 00 00 ce d5 98 3f
       0.08489863574504852 0.024253100156784058
0001b0 00 00 00 60 cb 6f b1 bf 00 00 00 00 30 a0 94 bf
       -0.0681120976805687 -0.020142316818237305
0001c0 00 00 00 00 23 cf 8c 3f 00 00 00 00 33 a7 af bf
       0.01406695693731308 -0.06182250380516052
0001d0 00 00 00 e0 ab d1 b3 bf 00 00 00 00 00 7e 8c bf
       -0.07741808146238327 -0.013912200927734375
0001e0 00 00 00 c0 2d 05 ba bf 00 00 00 00 2c 05 ba 3f
       -0.10164152085781097 0.10164141654968262
0001f0 00 00 00 00 d6 d0 77 3f 00 00 00 00 8a 49 9e 3f
       0.005814395844936371 0.029577404260635376
000200 00 00 00 40 fb 17 ae bf 00 00 00 00 37 ed 9d bf
       -0.05877671390771866 -0.029225215315818787
000210 00 00 00 40 08 f8 b8 3f 00 00 00 00 d9 15 89 3f
       0.0975346714258194 0.012248702347278595
000220 00 00 00 80 24 75 92 3f 00 00 00 00 43 30 a5 3f
       0.0180249884724617 0.041383832693099976
000230 00 00 00 c0 80 0a b3 bf 00 00 00 00 c9 09 89 bf
       -0.07437901198863983 -0.012225694954395294
000240 00 00 00 80 48 59 b8 3f 00 00 00 80 d1 25 a2 3f
       0.09511235356330872 0.03544478118419647
000250 00 00 00 80 ae 8c b5 3f 00 00 00 60 38 7e a8 bf
       0.0841778814792633 -0.047837983816862106
000260 00 00 00 00 70 e5 a0 3f 00 00 00 60 17 4c b1 bf
       0.03300046920776367 -0.06756731122732162
000270 00 00 00 80 d9 65 9d bf 00 00 00 00 f8 d3 a9 3f
       -0.028708837926387787 0.0504453182220459
000280 00 00 00 00 5c e0 6d 3f 00 00 00 00 e2 fb 87 3f
       0.0036470219492912292 0.011710897088050842
000290 00 00 00 00 68 1b b2 bf 00 00 00 80 cf 03 96 bf
       -0.07073068618774414 -0.0214989110827446
0002a0 00 00 00 c0 f1 44 b0 3f 00 00 00 00 32 ff 8c bf
       0.06355200707912445 -0.014158621430397034
0002b0 00 00 00 20 7d 5b b3 bf 00 00 00 00 0d 36 88 bf
       -0.07561475783586502 -0.011821843683719635
0002c0 00 00 00 e0 68 ac b1 bf 00 00 00 00 40 12 91 bf
       -0.06903701275587082 -0.016671180725097656
0002d0 00 00 00 00 4a 63 94 bf 00 00 00 40 70 75 b0 3f
       -0.01991000771522522 0.06429196894168854
0002e0 00 00 00 80 c7 4b a5 3f 00 00 00 00 f6 02 aa 3f
       0.041593775153160095 0.05080384016036987
0002f0 00 00 00 00 2f 23 b7 bf 1b 4b ce 82 b8 71 c7 3f
       -0.09038060903549194 0.18315798174861517
000300 ec 3a 02 29 70 be bd 3f 7b a6 fc b2 57 57 b1 3f
       0.11618710519017456 0.06773899192617165
000310 55 75 4a 70 11 60 b3 bf e8 73 55 c0 01 2e ad 3f
       -0.07568463317371273 0.056991629341361094
000320 8b fb a5 83 17 3b bc 3f 43 ce 5d a9 67 c6 9f bf
       0.11027667011329194 -0.03103029223662036
000330 2f 80 57 3a cc d7 b0 bf 48 12 f9 2d cd 36 a7 3f
       -0.06579281257973045 0.045339977132731024
000340 78 ff cd 09 f7 79 9b bf 48 b1 02 fa 78 fc 9e bf
       -0.02683244702666296 -0.030259981402808195
000350 0a 33 f0 b5 95 f9 ac bf a9 e9 30 42 03 0d b4 bf
       -0.056591680964720295 -0.07832355848305518
000360 5b 99 50 46 8c 8e c2 3f 34 31 39 45 8e 8b b5 bf
       0.14497521813718603 -0.08416070165657602
000370 0e e3 99 85 f7 d6 7e 3f bd dd 80 ee 6c b3 c2 3f
       0.007529227144566842 0.14610063214943905
000380 55 e1 53 cf 3a 09 a6 bf d5 d4 5a 17 c3 55 9e 3f
       -0.043039167221595655 0.02962403135343979
000390 01 15 0f 92 95 cc c1 3f d0 07 35 82 36 50 bd 3f
       0.1390559161356251 0.11450520209203252
0003a0 67 1c 58 f4 dd 9c a9 bf 1b 2d 31 5f cb c5 5f bf
       -0.050024925305529426 -0.0019392477086224772
0003b0 a7 dd 0d 81 93 e5 81 bf ee d4 60 d8 af 44 b6 bf
       -0.008738663078232302 -0.08698557884857269
0003c0 e9 a9 6b d7 cb 95 b4 bf e1 fe 6f 9a 21 8a c0 3f
       -0.08041070946970987 0.12921543160336227
0003d0 1f 86 5a 33 14 4f b7 bf 9c 5f 81 63 9b cc b8 bf
       -0.09105039838552685 -0.0968720548565884
0003e0 c4 07 c1 67 73 5b be bf 2d f4 6e 7c fb 24 ba bf
       -0.11858292849595303 -0.10212680614400034
0003f0 5e 9b 93 37 cf 98 b1 3f 40 40 33 c3 2f eb 9a bf
       0.0687379370389016 -0.026287790574144987
000400 00 ea 3c 51 04 ab 8b 3f 64 eb f0 0d 1b 67 b4 bf
       0.01350978253286872 -0.07969826784475981
000410 89 56 a5 8e 36 8c 6f bf 40 fc 59 93 2f 05 a7 3f
       -0.0038510385103716666 0.04496143983578138
000420 be cd 91 a7 9e 17 75 3f 05 3d 5d 23 ef b4 ac 3f
       0.0051494786686023235 0.05606791788761182
000430 68 40 5d 38 4c dd a8 bf 83 fb 60 f8 fd 03 c8 3f
       -0.04856336772957165 0.18762182834504068
000440 76 16 67 0c 1c 7c d4 bf e9 a6 7f 1c 4e 72 c8 bf
       -0.32007504664611675 -0.19098831550154863
000450 53 80 60 f5 24 cd a2 3f 84 ef e6 2f 8f 95 ba bf
       0.03672137732814975 -0.10384459418759034
000460 60 16 96 e1 b7 fd 8b 3f 31 bb 26 44 63 f6 98 bf
       0.013667522975775614 -0.024377394709229342
000470 44 70 56 6b 99 19 bb 3f 5a a5 9a c2 47 a2 a9 bf
       0.1058593642287074 -0.050066225533849276
000480 46 5d 62 e2 6e 8a b9 bf 29 67 5f a6 6b a2 b6 bf
       -0.09976857211073761 -0.08841584026177131
000490 58 f8 19 a4 99 43 c5 3f d4 75 e0 c7 ff b2 a3 bf
       0.1661254931713667 -0.03847503008749312
0004a0 b7 6c d8 0d ae 20 9c bf 62 b9 da c0 00 3b b9 3f
       -0.027468413920456593 0.09855656345709954
0004b0 79 0a 4a 36 fa 27 c5 3f bd 0c 87 a1 56 ac 55 bf
       0.16528251314965184 -0.0013228269582306461
0004c0 59 02 0f 22 04 f8 af bf 44 94 37 1a 0f 13 c8 3f
       -0.06243908801798587 0.18808163433200964
0004d0 d2 fa 02 83 a1 39 aa 3f 9b 5f 4f d9 b1 45 6b 3f
       0.05122093891394787 0.003329131470746161
0004e0 64 6b 77 2e ba 34 a1 bf 53 ad 62 46 e7 64 9e bf
       -0.033605402156999614 -0.029681790991771106
0004f0 a3 14 67 c2 0e 23 76 3f 9d 3c 1a f5 b2 db c0 3f
       0.005404527334069406 0.13170468299765484
000500 e0 9b 7b fd 37 1f 95 3f b5 fd f4 21 e3 37 b4 3f
       0.020626902433743655 0.07897777155903081
000510 e6 62 57 0d 97 22 c8 3f 23 c8 66 4f 9c ba aa bf
       0.1885556044715237 -0.05220497578865515
000520 d7 b3 94 89 1d 57 a4 3f 72 16 04 4e cc 08 ce bf
       0.03972713760808915 -0.2346434956490842
000530 e0 dc 26 5e 7c 06 9c bf 49 8f 17 fb 29 63 9c bf
       -0.02736849140793829 -0.02772203059238557
000540 83 11 10 8a 3a 25 b4 bf 6d ef aa 05 43 cb 22 bf
       -0.07869306440995243 -0.00014338677541114332
000550 0b f3 55 f5 9e dc 92 bf 43 ef 99 23 c5 82 a5 3f
       -0.01841972706232568 0.0420133214911105
000560 70 83 6c b1 37 b4 b4 bf e5 75 cd 93 12 18 af bf
       -0.08087490159642896 -0.06073053411703792
000570 19 e0 60 e4 f7 02 b0 bf 0d 6e ac e9 d6 bf a3 3f
       -0.06254529309887892 0.038572994255641736
000580 71 1c 88 12 b1 1b bd bf 23 71 9f f8 4a c3 b3 bf
       -0.11370379164155665 -0.0771986824979121
000590 05 27 b6 9e 35 8c ab 3f a9 90 e4 8d 80 00 a3 bf
       0.05380408823391573 -0.03711320621576537
0005a0 c7 83 62 9a e3 a4 90 3f e6 42 9b fa 10 61 b4 3f
       0.016254001901532946 0.07960611456224917
0005b0 2e c3 89 10 b5 cb b3 3f 4a 3c 4f 32 64 d8 9d 3f
       0.07732707647097634 0.029145780153893498
0005c0 31 08 75 15 87 42 b0 bf ac d1 f4 63 3c 54 a9 bf
       -0.06351513170105318 -0.04947079391641593
0005d0 20 f6 a2 a9 93 e1 97 3f 32 8d 90 01 33 39 cb bf
       0.023321444729608953 -0.2126830823554911
0005e0 10 b5 42 d4 b3 76 82 3f 3d cd e3 bc 62 a5 a7 3f
       0.00901546947019452 0.04618366771492297
0005f0 f8 fd 83 5e 5a 23 c5 3f cb ac fe c4 55 b0 b3 bf
       0.16514138808268775 -0.0769094091362376
000600 96 56 75 45 05 fc a2 3f 1c c2 52 09 e6 27 b1 bf
       0.03707901451950339 -0.06701505401247981
000610 72 e9 2b 64 9a 7b ac bf 6c ae da cf 15 ab a9 3f
       -0.055630516746492456 0.05013340151103027
000620 f6 2b eb 54 c5 c7 b9 bf e2 d6 0b a5 32 42 91 bf
       -0.10070451091011975 -0.016854087184546958
000630 e0 bf ff fd 6c aa a8 bf 71 4d 29 da f2 d1 9d 3f
       -0.048175245290508206 0.029121203008185718
000640 a5 59 2e 0e d1 af c3 3f 94 76 f7 04 9f 63 be 3f
       0.1538029975169596 0.11870759841209583
000650 5c 24 cc 53 5d 3a a9 bf a0 08 86 1a cf cb a7 3f
       -0.049273411254099314 0.046476814258327837
000660 47 4d 7e b6 c4 53 8b 3f 9c 9c e4 85 a8 52 b6 bf
       0.013343369311576437 -0.08719876545784405
000670 c6 1d f8 16 bc 0a 9a bf d9 b2 06 ff f9 80 bf bf
       -0.02543157472794435 -0.12306177593445557
000680 8c dd cd d5 d2 7a c1 bf ce b5 b3 ae 49 52 ac 3f
       -0.13656077804237687 0.055315306259085525
000690 c7 5c ab d2 4a fb a7 3f c1 94 8e 12 7b 9a a8 bf
       0.046839082924344626 -0.04805359460378034
0006a0 68 0e 60 ff ff 25 a0 bf 1a d9 5c 3a d0 b1 a3 bf
       -0.031539916919453514 -0.03846598350939896
0006b0 c2 dd 2b 30 e2 d9 b9 bf 03 51 22 23 98 ae b6 bf
       -0.10098088909204875 -0.08860159738316402
0006c0 76 a9 d4 bc 5f e7 7c 3f e5 2c 88 d6 5b d3 71 bf
       0.007056592917516693 -0.004351958029029411
0006d0 fe ed 1a 7f e2 0d c1 bf 83 63 c0 a9 91 c3 a5 3f
       -0.13323622900303173 0.042507698032017614
0006e0 68 66 35 90 c8 6f a0 bf 2a dd 1c a9 c1 70 9b 3f
       -0.03210284004553615 0.026797319361518003
0006f0 ea 6d 88 dc b5 8c a7 bf 2c 0a 33 cc 9e 42 a5 bf
       -0.04599541012813886 -0.04152389757793559
000700 d0 ab da 31 60 b3 90 3f c2 42 69 41 3b a1 ab 3f
       0.01630926422391693 0.0539644734714151
000710 18 09 73 9a ed 85 be bf 8b 8a cc 54 8e b1 b5 bf
       -0.11923108120666759 -0.0847405392674238
000720 db b4 19 f7 6e b6 b4 3f 63 38 ee 4c 3d 73 97 bf
       0.08090871365284917 -0.022900541134326945
000730 60 10 55 b5 9e b2 a3 bf 1a 94 88 4d 22 1f b7 3f
       -0.03847213710335562 0.09031881707103687
000740 28 53 86 03 58 c9 b4 3f e2 d5 20 90 e4 28 a1 3f
       0.08119726263096239 0.033515112489492585
000750 de a6 3d 95 fe 85 b1 3f c8 b1 26 4f 65 95 a9 3f
       0.06845084327292336 0.049967924034124034
000760 f4 47 5e df 85 c3 77 3f c2 5e 74 ef 28 2d a2 bf
       0.005801699580745268 -0.03550079272298269
000770 64 cb b8 2a e7 72 b0 3f ce 1b 04 e3 8d 0a 85 3f
       0.06425328057302476 0.0102740368752289
000780 2b 82 6a af af bc ba bf e6 fa 0f a2 40 7c c2 bf
       -0.10444162399881722 -0.14441688454822738
000790 90 ae 50 57 28 1e 79 3f 14 ec 9c 91 55 24 a1 3f
       0.006132276136706985 0.033480333352109565
0007a0 99 26 73 12 c6 81 a4 bf b2 49 6f 40 24 06 ad 3f
       -0.040052594902204315 0.05668748175198192
0007b0 2a c4 e7 5d 37 a4 ba bf a2 47 82 72 86 12 a6 bf
       -0.1040682415257527 -0.04311008594335354
0007c0 66 48 ed fe 58 e5 b5 bf 6e f9 6e c6 3c 3f c4 bf
       -0.08553081725884368 -0.15817985238204407
0007d0 a7 ff ce ce a4 dd a8 bf dc 94 00 b7 c2 71 72 3f
       -0.04856600784796621 0.004503021817105348
0007e0 a3 b1 4f fd b0 aa b1 bf 14 c6 d9 14 54 ab b6 bf
       -0.06901079353673949 -0.08855176457452557
0007f0 ca 8a 11 4b 57 0a 7a 3f 80 aa 3c b6 61 f7 c2 bf
       0.006357518185810826 -0.14817448995866656

linear.bias f8 [128]
000000 00 00 00 40 8f fd b6 3f db e6 62 bd 8f b1 b4 bf
       0.08980651199817657 -0.08083437322320768
000010 3e b1 86 4d b3 0a 98 3f 7a 6e 5b 32 d3 cb c0 bf
       0.023478318793125334 -0.1312202449688476
000020 1c aa d6 cc 5c ff a5 3f b6 5c 19 d5 db c8 a8 3f
       0.04296388626547218 0.048407430422849826
000030 ea 43 15 8a 9d 14 99 3f 00 00 00 80 aa 47 b4 3f
       0.024492703965112307 0.0792185366153717
000040 41 39 d2 d9 28 56 88 bf ae 56 e1 b8 e7 43 a6 3f
       -0.011883086345076623 0.04348682529295665
000050 b7 ca b6 07 36 11 b4 bf 9c 1f 8d 94 1a 11 b7 bf
       -0.0783876198609431 -0.09010473372211297
000060 0b f2 25 f7 e2 f6 b0 3f 00 00 00 00 e8 59 5a 3f
       0.06626719030277443 0.0016083493828773499
000070 c0 f4 ec 61 09 03 b5 bf c4 a1 62 ee 8b 2c a1 bf
       -0.08207758560907319 -0.03354298863388608
000080 7e 0f c8 62 f8 2b b9 3f 4e 92 92 71 1c 5b a1 bf
       0.09832718288094885 -0.033898247588954974
000090 62 0d e7 aa bd ff 9e 3f d2 5f 58 59 37 5f b6 3f
       0.030272449070037573 0.08739038401870339
0000a0 00 00 00 00 3f af 9c 3f 56 61 22 d3 bc 7d 8c bf
       0.028012260794639587 -0.013911700433070589
0000b0 0e b0 35 3a 95 97 88 bf b2 8a c1 cb 1c ae aa bf
       -0.012007871474189382 -0.0521096228337873
0000c0 f5 a8 ee 86 62 4a b1 3f fd 66 7a ac 4f a3 89 3f
       0.06754127306217923 0.012518522692789963
0000d0 00 00 00 80 04 2e a0 bf 53 1b ab 14 dc 87 6c bf
       -0.031601086258888245 -0.003482751698672551
0000e0 00 00 00 a0 58 95 b6 bf b1 ab de 85 71 01 be bf
       -0.08821634203195572 -0.11720952528291552
0000f0 6f 8c 85 a0 41 7b 92 3f 00 00 00 00 bd 72 b4 3f
       0.01804831068274065 0.07987576723098755
000100 00 00 00 80 91 0c a0 bf 00 00 00 80 db d0 b8 3f
       -0.03134588897228241 0.0969369113445282
000110 9d 54 8d 05 c1 3d 88 3f 5f ca e4 3d 68 03 a8 bf
       0.011836536390243341 -0.04690099483049858
000120 4e 48 31 b1 64 b0 86 3f 77 77 08 41 b7 6d a4 3f
       0.011078631074415448 0.03989956539974931
000130 50 56 32 18 ef 02 b5 3f a6 fe 83 58 1e 61 c1 bf
       0.08207601872194314 -0.1357763225751018
000140 a8 59 29 b6 68 e1 ba bf 53 88 c4 f0 5f 55 a1 bf
       -0.10500196883490409 -0.03385448278483296
000150 44 9d 27 5c f6 79 90 bf 00 00 00 00 24 a5 62 bf
       -0.01609024941890637 -0.002276010811328888
000160 d9 e4 14 a5 ef f7 ae bf 9d f3 48 94 93 3b ad 3f
       -0.06048535242229897 0.057095157481376925
000170 14 b9 ba 8c 84 fb c0 bf 7f af cc 32 0d 29 b0 3f
       -0.13267571326782301 0.06312639703963717
000180 0b 01 31 8f 0a 77 98 bf c7 a2 b1 a7 96 e4 a1 bf
       -0.02389160632105906 -0.03494711682362133
000190 a8 4e f1 d6 84 63 13 bf 23 ae 1d 95 44 55 b6 bf
       -7.396219528859693e-05 -0.08723858490491714
0001a0 56 10 23 2b 22 4d 8b bf 00 00 00 80 62 10 af 3f
       -0.013330714169917861 0.06067188084125519
0001b0 14 48 25 42 89 a2 ba bf 47 e1 33 96 29 99 b3 bf
       -0.10404260506518909 -0.07655582348877941
0001c0 2d f4 c7 d5 e5 70 b1 3f 00 00 00 00 76 35 90 bf
       0.0681289336134376 -0.015828937292099
0001d0 25 48 5b 31 96 da 8f bf d9 f1 5a d8 72 56 98 bf
       -0.015553639775507897 -0.02376727529075304
0001e0 1f 48 0f 95 81 83 a9 3f 4b ee 6a 5f 07 61 b4 bf
       0.04983143753601404 -0.0796055419877401
0001f0 64 b7 06 2d 47 fe b2 bf 00 00 00 80 ef 46 af 3f
       -0.07419247483514152 0.06108807027339935
000200 04 9c 1a 62 f1 50 c2 bf 39 25 5a 1f 53 8e 86 3f
       -0.14309518137199018 0.01101365031651601
000210 c2 34 49 a1 dc d3 ae 3f 86 2e ba ac 5b 59 9f 3f
       0.06021012753317613 0.030614311616359767
000220 82 91 56 91 f5 60 b8 bf 00 00 00 e0 bb 50 b3 bf
       -0.09522948072714679 -0.07545065134763718
000230 60 55 81 bf f3 55 ba bf a3 35 8a 27 98 0e ab 3f
       -0.10287402558727399 0.05284572107948839
000240 0e c8 06 7e b7 cd b2 3f 00 00 00 00 db a0 89 3f
       0.0734514887506352 0.012513838708400726
000250 00 00 00 00 6d fb a1 3f aa 1b 11 ea 6f d9 9a 3f
       0.03512135148048401 0.02622008196001572
000260 3e 55 d3 ac 85 ad b6 3f 15 97 ef d4 e0 ff b0 3f
       0.08858523816464456 0.06640439222936963
000270 34 c1 da ce 3b 29 a3 bf 63 6a 9c 6e b7 23 b6 bf
       -0.03742396259383654 -0.08648249102081133
000280 26 84 f2 64 1e a7 b5 bf e4 36 ae 06 96 0a b0 bf
       -0.08458127941641233 -0.06266153014277226
000290 12 61 52 bc 3b a3 89 3f ce 2b cb 6e 4e 47 97 bf
       0.01251837414228921 -0.022732949745470958
0002a0 49 ba 49 e9 90 3d b6 bf 43 18 2e 00 13 1c b8 bf
       -0.08687692351825506 -0.09417837862392368
0002b0 54 8f 33 60 6d a1 a2 3f 00 00 00 00 69 3a 89 bf
       0.03638784217198912 -0.012318439781665802
0002c0 00 00 00 00 96 6e 75 3f 8f 39 ac af b6 24 b9 bf
       0.005232416093349457 -0.09821645535359934
0002d0 00 00 00 00 88 46 8b bf 4e 5b 7f c7 55 91 91 3f
       -0.013318121433258057 0.017155971814499175
0002e0 af 7f a0 4b bc a0 9d 3f 9a 89 b5 9e 2d 60 65 bf
       0.028933469882872206 -0.0026093379034801247
0002f0 8e 77 f4 43 ed 72 b1 bf 00 00 00 e0 8d c9 b8 bf
       -0.06815989407593134 -0.09682547301054001
000300 88 12 01 c9 35 2d a6 bf a5 4b 13 71 90 cf b0 3f
       -0.04331367567696015 0.06566717873219703
000310 f4 6e a1 74 05 c7 9a bf 32 cb ec 41 59 97 b5 bf
       -0.026149831050459718 -0.08434064731117699
000320 f8 68 9c 24 3b 6d bb bf 00 00 00 00 f4 32 77 3f
       -0.10713548320601152 0.005663827061653137
000330 34 aa 6a b3 06 6d 9c 3f e9 38 e7 b2 43 32 9b bf
       0.027759651852344372 -0.026558931154618746
000340 34 49 f7 c9 c3 38 b9 bf 99 6c e6 66 4a b3 b4 bf
       -0.09852241211709584 -0.08086075794419613
000350 10 30 71 7a 66 b3 b8 3f ce 84 9e 5b 47 39 ac 3f
       0.09648743142423677 0.05512450211905105
000360 34 78 d3 77 3a 43 a6 bf c0 71 2b 68 37 f6 b3 3f
       -0.04348166191788075 0.07797571461873698
000370 9e ba b1 37 6b b2 ab bf ae af d7 53 2e 51 b1 3f
       -0.054095602558722464 0.06764497324883109
000380 00 00 00 00 14 90 92 bf 00 00 00 00 70 bd 85 3f
       -0.018127739429473877 0.010615229606628418
000390 00 00 00 40 bc 87 b8 bf d4 77 40 3d e6 5c 79 bf
       -0.09582115709781647 -0.006192111370209436
0003a0 d1 c3 08 e7 c1 9c a8 bf 00 00 00 80 82 2e a7 3f
       -0.048070964291020986 0.045276716351509094
0003b0 00 00 00 40 44 06 b0 bf f0 87 a1 6a b1 c1 81 bf
       -0.06259562075138092 -0.008670221392268446
0003c0 9a 0f 81 93 f2 8d 96 3f 00 00 00 c0 70 ad b8 3f
       0.02202586198133325 0.09639649093151093
0003d0 96 c6 1b 55 45 2d 85 3f 08 40 2b 20 6f 55 a8 3f
       0.010340253505521074 0.04752681033789946
0003e0 c2 e7 8f bb b4 3a a3 3f fb 69 f4 d1 63 31 8e bf
       0.03755726613594802 -0.014742641300974127
0003f0 43 1f a0 63 e6 c9 79 3f 00 00 00 00 f9 c6 9b bf
       0.006296062429107799 -0.027126207947731018

linear2.weight f8 [64, 128]
000000 00 00 00 60 42 38 b1 3f a1 b6 d5 10 f6 31 86 3f
       0.06726469844579697 0.010837480915792343
000010 83 f2 c8 64 03 4a a2 bf a0 ed 08 9d 39 44 b7 bf
       -0.0357209263351921 -0.09088478168353342
000020 44 b3 84 02 3e 56 9a 3f 40 fc 77 8d ed c2 cf 3f
       0.025719612983425635 0.24813622863436713
000030 30 8b b1 91 af 6f b2 bf 00 00 00 00 e0 fe 4e bf
       -0.07201669032069158 -0.0009459108114242554
000040 ba d0 7f ef 62 2f a6 bf e3 55 70 b2 cd b8 6d bf
       -0.04333028005194835 -0.0036281602401781895
000050 4d ad 97 b8 3d c2 9a bf 00 00 00 80 70 a6 9b 3f
       -0.02613159598506103 0.027002103626728058
000060 26 c7 44 4a da 5d 96 3f 00 00 00 00 e1 07 97 bf
       0.02184239462184858 -0.02249099314212799
000070 64 d2 ea ab 21 74 8f bf 62 85 dc 54 68 d4 c3 3f
       -0.015358222064017109 0.15491966384528683
000080 08 d1 d4 06 a3 12 a2 3f 55 21 46 96 c0 2c c1 bf
       0.03529843767538138 -0.13417823159785294
000090 0c da ea 6e 32 b7 9d 3f c0 94 a9 1d 28 4a b1 bf
       0.029019153613910872 -0.06753779148273775
0000a0 00 00 00 c0 85 22 a0 3f 75 1e 2d af 32 5f ad bf
       0.031513385474681854 -0.05736692798978719
0000b0 fb 81 ea a3 c2 b5 9a 3f bc 76 3c e5 ef 21 a5 bf
       0.026083985571519346 -0.04127454446118636
0000c0 ba e2 00 d6 25 9b bf 3f 78 db 06 f3 47 90 a3 bf
       0.12346111750310743 -0.03821015206943107
0000d0 00 00 00 80 da 89 a3 bf 00 00 00 40 4e c5 a5 3f
       -0.03816111385822296 0.04252094775438309
0000e0 00 00 00 c0 bf 98 a4 bf 81 8b f4 9f 45 52 b2 bf
       -0.04022788256406784 -0.07156787066609917
0000f0 06 78 60 47 98 f5 c0 bf 00 00 00 60 6e 34 a5 bf
       -0.13249495969006392 -0.04141564294695854
000100 00 00 00 a0 fc f1 ab bf 00 00 00 80 75 a4 97 bf
       -0.05458058789372444 -0.023088298738002777
000110 80 9f 41 04 a8 60 a6 bf 79 7b 5b 06 a6 b6 9c bf
       -0.04370617916066433 -0.028040498865148564
000120 e7 92 78 8a 83 86 c6 bf f9 1a c9 5d fa d2 cc bf
       -0.17598003636626133 -0.22518853740094594
000130 00 00 00 a0 a1 73 a4 bf 79 38 82 5c 64 1b b0 bf
       -0.03994469717144966 -0.0629179693080192
000140 f4 47 7c f4 c5 7b ae 3f db 35 b7 6e c1 66 82 3f
       0.05953806504670914 0.00898505324485204
000150 88 30 c2 11 3b 94 b7 bf 00 00 00 20 71 f6 a9 bf
       -0.09210557159002708 -0.05070832744240761
000160 a4 9a a3 51 ae 18 ad 3f 5e f8 3d fa 11 6b 75 3f
       0.05682892557688504 0.005229063248291947
000170 8b de dc b2 ae 7f ac 3f c4 a8 78 80 21 c1 a2 3f
       0.05566163953193123 0.03662972157720071
000180 00 00 00 40 b9 d1 af 3f 29 0d 00 7b 32 b3 c4 bf
       0.06214693933725357 -0.1617186642252844
000190 39 96 a9 2e 7e 96 7d 3f 8d 31 9c 76 ed 90 87 3f
       0.007223599338066538 0.011506896192735616
0001a0 95 e0 a8 fd 8d 04 b5 bf 00 00 00 80 ae ac 90 bf
       -0.08210074847090916 -0.016283728182315826
0001b0 30 f7 99 13 9c 07 7d 3f 73 b6 32 d3 a4 1b 88 3f
       0.007087335275739723 0.011771476454977425
0001c0 a0 0c f1 d3 da 4c 92 3f 00 00 00 40 d5 60 a8 3f
       0.01787130278195248 0.047613777220249176
0001d0 d4 bb 88 23 33 39 bd 3f f5 f4 81 36 0a fc c3 bf
       0.11415404908687715 -0.15612914716249518
0001e0 1b 01 25 1d 07 08 be 3f 00 00 00 a0 fb 01 a8 bf
       0.11730999433075733 -0.046890128403902054
0001f0 47 d2 2c 7c 5c 2f a2 bf 00 00 00 80 ad 83 9b 3f
       -0.035517587812510736 0.026869498193264008
000200 08 f6 45 a8 81 bd a4 bf 96 2a af 4c 5f f6 ac bf
       -0.040508319655582936 -0.056567171202535224
000210 b4 1c 7c e9 eb 91 c1 3f 00 00 00 60 51 97 ae bf
       0.137265671736008 -0.05974821373820305
000220 a1 0e db 0a 71 aa b7 bf 00 00 00 c0 a0 ba a4 bf
       -0.09244448199302237 -0.04048635810613632
000230 30 b0 3b 7d 71 2f ab 3f 2f 75 4c 24 ef 25 90 bf
       0.053096338784456854 -0.015769707289213727
000240 97 68 ae 29 d5 9e c5 3f 00 00 00 a0 11 ae b5 3f
       0.1689096883317844 0.08468732982873917
000250 00 00 00 80 3f 54 a1 3f 44 e9 d3 94 d5 03 ab bf
       0.03384588658809662 -0.052763628404096014
000260 9b 9c a2 5d 18 77 97 3f 7c aa 3e b2 37 fd cc bf
       0.02291524955276412 -0.22647758677824814
000270 b8 62 23 ae 92 52 84 3f 00 00 00 00 db 9c 90 3f
       0.009923120440747155 0.016223356127738953
000280 55 4a c5 a1 f8 a1 ad 3f d0 15 12 de 17 4b a5 3f
       0.05787636732806748 0.04158854089568431
000290 29 82 f1 ac 25 53 ac bf bc 54 13 39 08 25 63 bf
       -0.05532186256528277 -0.0023369942287937134
0002a0 d6 cc 93 70 51 c0 b7 bf 00 00 00 40 ea 04 a4 3f
       -0.09277829168768234 0.03909999877214432
0002b0 ca cc 03 11 99 b0 98 bf 00 00 00 40 f5 fa ab 3f
       -0.024111167586806904 0.05464903265237808
0002c0 00 00 00 00 a7 3a 8f 3f 01 b2 27 70 18 a4 b6 bf
       0.015248589217662811 -0.08844139803085939
0002d0 00 00 00 20 12 ee b4 3f 73 d5 ff b6 83 86 a9 3f
       0.08175767213106155 0.0498543892753486
0002e0 e7 f4 8f de 8f e3 a0 bf 9a de 4a c4 8f c5 b9 bf
       -0.03298616020036054 -0.10067080061241498
0002f0 62 dd 4e 07 fe 7f be bf 00 00 00 00 bb 84 85 bf
       -0.11914050749225205 -0.010507069528102875
000300 3f 01 d4 9b 31 cc d3 3f 91 f4 48 84 20 b6 b4 bf
       0.30933799951164426 -0.08090403775800527
000310 0d 1c 76 37 06 3b b7 3f c1 82 5d 95 b0 64 b3 3f
       0.09074438909566158 0.07575515410054391
000320 ea ae 49 d1 9b 6c a2 bf 00 00 00 00 9a 0c b2 bf
       -0.03598486833365462 -0.07050478458404541
000330 be 6d 89 53 a8 7b 74 3f 70 d1 78 29 bf 33 ac bf
       0.00500074150530899 -0.05508229619263971
000340 f2 9a ef 24 1e 6d 9b bf 00 00 00 00 93 fe 82 bf
       -0.02678343868674466 -0.009274624288082123
000350 00 00 00 20 69 4c b2 3f 62 74 49 f6 d5 22 9f bf
       0.07147843390703201 -0.03040632549015177
000360 4b da bc 9c 6a a9 98 bf d1 9c 84 ce a2 ec a1 3f
       -0.02408377248431241 0.035008514127463315
000370 30 4c 9b 8d be 08 ae 3f 00 00 00 00 5f 46 8d bf
       0.058660464082685215 -0.014294378459453583
000380 00 00 00 c0 22 72 a0 3f 00 00 00 00 ce b4 89 bf
       0.03212078660726547 -0.012551888823509216
000390 00 00 00 00 a7 08 b2 bf d9 55 7d 78 9a 1f c0 bf
       -0.07044452428817749 -0.12596445925980396
0003a0 7b 0c 08 95 7d f3 a9 bf 00 00 00 00 e2 2d 76 bf
       -0.05068581051093531 -0.005414851009845734
0003b0 00 00 00 40 16 e6 a4 3f 00 00 00 00 f8 d8 9f bf
       0.040817923843860626 -0.031101107597351074
0003c0 05 c5 fe 36 3e 1c bd 3f 00 00 00 20 57 c8 b2 bf
       0.11371220438629244 -0.07336945086717606
0003d0 64 58 30 57 55 71 92 3f 6a 03 7a 47 b9 1a a2 3f
       0.018010457464776045 0.035360136008427315
0003e0 00 00 00 20 de 6c b2 bf 5c 57 9e ca 33 3d 97 bf
       -0.07197368890047073 -0.022694405786374147
0003f0 1b e1 d0 f4 1d f3 9e bf 00 00 00 00 34 5d 66 bf
       -0.030224292819384418 -0.0027299895882606506
000400 00 00 00 00 3c d3 91 3f ed 54 5d 21 12 fd bd bf
       0.017407357692718506 -0.11714280428471442
000410 d8 17 bb 26 d9 9a b2 bf 20 03 6b a4 09 82 76 3f
       -0.07267529674126594 0.005495107331342536
000420 50 7a 18 a3 40 fe b3 bf d8 c2 2c 63 16 4b c2 3f
       -0.07809833509279795 0.14291648714563254
000430 58 ed c8 0d 7f fa a0 bf 00 00 00 00 77 f7 95 bf
       -0.033161135132526 -0.021451815962791443
000440 82 55 24 3f 6a 93 b9 bf 76 f1 10 82 b6 db 95 3f
       -0.09990562478590984 0.021345950783357513
000450 9d 0d fe 4e 9a 95 ca bf 00 00 00 40 74 53 ae 3f
       -0.20769051415491627 0.05923045426607132
000460 bf a4 d2 ff 3b 34 b3 bf 00 00 00 80 e5 0e 96 3f
       -0.07501578326868506 0.021541200578212738
000470 00 d1 4e 6e d2 25 64 bf 73 43 4a 18 4a cc d1 3f
       -0.0024594411829302887 0.27809383747176425
000480 bb 4f 16 76 10 cf a5 3f 39 0a 47 80 41 93 c1 bf
       0.042595400252281 -0.13730639232206146
000490 12 71 99 4c ba f1 b2 bf 00 00 00 00 c0 23 29 bf
       -0.07400097246267404 -0.0001918002963066101
0004a0 00 00 00 40 01 4f ab 3f 01 4b 35 ec bc 44 b2 bf
       0.053337134420871735 -0.07136135832596936
0004b0 12 0d b2 e7 f2 de 90 3f 13 52 cb 5a 24 7b 73 3f
       0.016475482360431455 0.004756109247598522
0004c0 0f c4 52 c6 34 59 a5 bf a7 67 1d a7 38 33 b6 bf
       -0.041696213921916685 -0.086719075011756
0004d0 00 00 00 e0 f6 0b b4 3f 00 00 00 00 2d 80 8f bf
       0.07830756157636642 -0.015381194651126862
0004e0 00 00 00 c0 7a e9 ad 3f 74 39 db 1e 09 eb b0 bf
       0.05842193216085434 -0.06608635905579324
0004f0 b9 0e e2 66 61 8c a2 3f 00 00 00 40 ed dc b5 bf
       0.03622726803680849 -0.08540232479572296
000500 00 00 00 00 9d e2 90 3f 00 00 00 00 3a 73 b6 bf
       0.016489461064338684 -0.08769571781158447
000510 b2 1a b0 1c be ad a6 3f 0e 72 b4 eb 48 2b 66 bf
       0.04429430103487188 -0.0027061866982320886
000520 60 5e 4a ca 5f 7c c2 bf 76 f6 5c 20 0c 46 b6 bf
       -0.14442059876886315 -0.08700633802524202
000530 00 00 00 e0 a7 12 ab bf 8c 7e fd cf a8 e8 72 3f
       -0.052876707166433334 0.004616412566832328
000540 0e 54 44 66 fc a9 aa 3f e6 8e 59 b3 cd 70 a4 bf
       0.05207813976645791 -0.03992312254265844
000550 04 22 7f 5b c2 97 70 3f 00 00 00 a0 e7 13 b1 3f
       0.004050978859546198 0.0667099729180336
000560 bf ee 87 e7 d6 f8 87 bf 17 b2 f4 cd c9 b2 9c 3f
       -0.011705092373623825 0.028025773234889053
000570 f0 f6 34 f6 61 c0 bf bf 87 05 1b 5d 20 e6 91 3f
       -0.12402927647505257 0.017479425127708417
000580 00 00 00 c0 13 90 aa 3f b1 c9 fd 15 77 ae cd 3f
       0.05188047140836716 0.231886754739731
000590 c3 d5 d2 e9 2a ce 73 bf 0b 77 0d bb c0 a7 c3 3f
       -0.004835288648953054 0.1535569108336222
0005a0 5b 28 52 aa 0c 72 89 bf 00 00 00 c0 02 35 a9 bf
       -0.012424563358099208 -0.049232564866542816
0005b0 55 89 a7 37 b7 29 b4 bf 30 b9 cc 62 05 70 b4 3f
       -0.07876153095961531 0.07983430540182179
0005c0 00 00 00 c0 8e 12 ac 3f 00 00 00 00 7e ae 70 3f
       0.054829083383083344 0.004072658717632294
0005d0 23 a7 59 c9 c9 75 c1 3f 11 7a c0 27 cd 22 c3 bf
       0.1364071114688211 -0.14949955407151141
0005e0 6e 5c 00 5d 30 d7 ae 3f 00 00 00 00 ed 96 9d 3f
       0.06023551116248248 0.028896048665046692
0005f0 e1 a7 89 87 90 63 a8 bf 00 00 00 40 e0 1c a6 3f
       -0.047634617371684625 0.04318905621767044
000600 89 ee a4 03 bc 4b af bf 00 00 00 c0 d6 9e a2 bf
       -0.06112468285070089 -0.03636809438467026
000610 8a 60 69 2c 6f da 8f 3f 00 00 00 80 a9 1b 9d bf
       0.015553349058947914 -0.028425835072994232
000620 4f 98 18 e9 58 7b 88 3f 00 00 00 c0 4a 4d af 3f
       0.011954016316917086 0.06113656610250473
000630 7a 5a 92 19 78 7c af bf 76 ab ff e1 f9 4d 9c 3f
       -0.0614964991774984 0.027641205233446674
000640 61 92 3e 1f 87 7c b7 3f 00 00 00 c0 7f 2a b4 bf
       0.09174389374545334 -0.07877348363399506
000650 00 00 00 a0 57 47 b6 bf 4b eb 2e 60 76 4e c1 bf
       -0.08702609688043594 -0.13520698257874594
000660 eb cd 43 ab 5d d1 a5 3f 24 50 7c bb 17 97 a2 bf
       0.042612960010867194 -0.03630899585382988
000670 50 29 79 7b 8f 23 a4 bf 00 00 00 80 08 ef a2 bf
       -0.03933380491487759 -0.036979928612709045
000680 cb fd d1 07 e1 05 a3 bf 02 61 09 e0 da 5b a1 bf
       -0.03715422840559376 -0.0339039228899214
000690 dc 54 67 fa f2 57 a1 bf ba 94 64 50 fd 47 ba 3f
       -0.03387412363705675 0.10266097271649502
0006a0 00 6e 4c 82 a9 55 c0 bf 00 00 00 20 78 06 b6 bf
       -0.12761420118555122 -0.08603621274232864
0006b0 74 e1 fe 5f 95 eb ab 3f 00 00 00 40 aa b0 a7 3f
       0.0545317344362414 0.046269722282886505
0006c0 00 00 00 00 82 4b 71 3f fa 8a 0a 4a 5a b0 a6 bf
       0.004222400486469269 -0.04431421426604305
0006d0 00 00 00 00 d8 a0 7e 3f 2e f4 2b 8b 96 01 ad bf
       0.007477611303329468 -0.056652740944607025
0006e0 ba 8b 72 7a cd 4f a0 3f e2 20 2e e7 2d 08 b6 bf
       0.03185884589881689 -0.08606230634734716
0006f0 25 91 98 6d de f1 73 3f 00 00 00 40 a1 93 9a bf
       0.004869335994531353 -0.025953788310289383
000700 46 82 e3 24 aa ea d1 3f b8 4b 69 22 97 bb 75 bf
       0.27994779207623244 -0.005305853241753526
000710 d2 22 fe 27 9f fb b4 bf 38 b2 c7 72 5a 9e ac 3f
       -0.08196444250473725 0.055895639907110384
000720 08 d9 30 d0 18 32 92 bf 00 00 00 60 7d 48 b6 bf
       -0.01776922960945007 -0.08704360574483871
000730 63 61 8f 99 c0 4a 84 bf 2d 64 55 ab 55 0c a3 bf
       -0.00990820377948926 -0.03720348087762946
000740 68 06 75 83 dc 06 a5 bf a4 db 3b 57 95 85 aa 3f
       -0.04106797318173677 0.05180041017404527
000750 00 00 00 c0 7e 48 b3 bf a4 31 ec 6a c5 c3 a4 bf
       -0.07532493770122528 -0.040556115438536794
000760 5e 80 e0 ab db 4c b6 bf 45 13 65 08 c5 24 82 3f
       -0.08711026140417874 0.008859195059480416
000770 40 60 99 4c 4b 3b 4a 3f 00 00 00 80 bf ab 9a 3f
       0.0008005254432630407 0.026045791804790497
000780 00 00 00 00 4f 64 82 bf 00 00 00 80 77 f4 96 3f
       -0.008980385959148407 0.022416941821575165
000790 00 00 00 80 6a 36 99 3f 3f d1 20 6a 0d e2 c7 3f
       0.024621643126010895 0.18658607179680506
0007a0 82 f1 0a ce a6 4d b2 bf 00 00 00 00 a6 4b 99 bf
       -0.07149736910191076 -0.024702638387680054
0007b0 00 00 00 e0 02 10 b1 3f f3 fa 71 15 30 fc b4 3f
       0.06665056198835373 0.08197308085980719
0007c0 7d 79 6e ac ac b8 bf bf 00 00 00 e0 b1 77 b4 bf
       -0.1239116593337481 -0.07995139807462692
0007d0 2f 01 53 07 53 53 b4 bf 53 6f 5b b1 fc 0e a0 3f
       -0.07939642838301063 0.03136434235577092
0007e0 00 00 00 20 3d 01 b1 bf 94 be e8 e2 e1 8b a7 bf
       -0.0664251521229744 -0.045989092778083634
0007f0 93 68 2a 3c 5a 81 b1 bf 00 00 00 00 db db ac bf
       -0.0683800122155012 -0.056364864110946655

linear2.bias f8 [64]
000000 ad 35 50 f7 3b 4c dd bf 32 7a a3 cf 35 26 c7 bf
       -0.457777968899644 -0.1808535827503462
000010 ea 82 af ca bf 1f d2 3f 17 b6 a3 7e 07 d4 cb bf
       0.28318781655802516 -0.21740811999863816
000020 d4 b3 37 1b 29 9a ca 3f e5 8c 86 cf e0 fc a9 3f
       0.2078296072862985 0.050757432301247886
000030 4a ce cb b8 e9 f0 d1 3f bf 7f b2 27 38 a8 c3 3f
       0.28032916113372564 0.15357114733069285
000040 e5 1e 62 66 f4 1e b7 bf ff 0e f8 f7 67 c6 c3 3f
       -0.09031608104316609 0.15449237449512762
000050 86 d7 59 c0 11 e8 c9 bf cd b1 6f 72 11 34 c4 3f
       -0.20239469425331097 0.1578389939089803
000060 80 ec 90 8c 7f ec dc 3f e4 6d 09 12 9e 13 c2 3f
       0.45193470694693616 0.14122367745117892
000070 c9 6e 72 29 53 d3 d5 bf da 29 d8 44 b6 8e da 3f
       -0.3410232453113449 0.4149604484852297
000080 84 a2 ac f9 7d a7 c7 3f c9 12 f7 3c e9 42 bd 3f
       0.1847989529717503 0.11430223215490821
000090 c7 a0 4c 8c ed f1 c5 bf 7f 03 0e 72 52 4f b3 3f
       -0.17144555426171434 0.0754291084722478
0000a0 5c 11 bd 9a 05 25 b6 3f 77 38 d6 16 32 84 cb 3f
       0.08650240924641167 0.2149717914111908
0000b0 ad c1 af 2c 8c e2 92 3f 81 77 f6 2c c2 c4 a7 3f
       0.01844233534569788 0.0464230232130225
0000c0 91 57 b1 38 79 4a c8 3f 8a 15 98 06 30 10 d0 3f
       0.18977275150490105 0.2509880127330112
0000d0 b8 0a a4 70 fd f2 c7 3f 43 57 b7 11 a8 63 a9 3f
       0.18710296630896095 0.04958844391118913
0000e0 e3 fc 05 0b 00 ed d2 3f d0 2e a6 0a b9 64 d5 3f
       0.29571534229758195 0.33427263297992926
0000f0 57 df 04 53 2d 6a d1 3f 79 d8 9c d5 fa 2f c8 3f
       0.27210553271605903 0.18896422796541737
000100 9b b1 07 0b cc 9d 99 3f 6b 28 79 99 50 68 c8 3f
       0.0250160104496203 0.19068343633472593
000110 bf 75 cf 4d 4c 20 d2 3f 44 84 8c 59 fb ad d0 bf
       0.28322131727858485 -0.2606190084935103
000120 1c 40 4c 3e 21 cb bf 3f d2 8d 83 1c 65 2f 8d 3f
       0.12419326563781435 0.014250554974245686
000130 25 39 24 52 f5 8d c0 3f da a6 08 7d 56 1a dc 3f
       0.12933222304168016 0.4391075345070995
000140 34 4b e6 1c bf de b7 3f 33 f7 ad 0d 9a f3 c0 3f
       0.09324259238773608 0.13243413608500418
000150 01 cc 19 1c 35 77 b6 3f 2a aa bb 93 eb 66 a0 bf
       0.08775646148733075 -0.032035218986340944
000160 44 39 d6 f7 0d e4 be 3f 87 50 34 a0 29 7e bf 3f
       0.12066733647063638 0.12301883851279359
000170 bf 2c d7 69 a1 94 be bf 88 12 1c 61 d2 19 d5 bf
       -0.11945542177197675 -0.3297010372482778
000180 65 15 fb 22 33 f9 c6 3f cf 5e 7f 51 b6 35 cd 3f
       0.17947997291609422 0.22820166568157282
000190 3b e9 45 b4 bb 88 c1 3f 5d 59 27 ac e4 7e c9 3f
       0.13698526670834518 0.19918497472708455
0001a0 14 a9 44 05 14 6f b5 bf 5b a5 e9 d7 e5 67 b8 bf
       -0.08372616890543255 -0.09533535500817918
0001b0 04 a7 7e c3 98 92 cb 3f 31 12 9e 90 8e 3d c4 3f
       0.21541127725259213 0.15812856732749617
0001c0 ab ad 65 95 8d 47 c3 bf a8 92 90 0d f5 a6 a9 bf
       -0.15062112612518538 -0.0501019076403158
0001d0 31 10 94 c9 25 0d 9e 3f 02 c9 b7 40 39 01 db 3f
       0.029347029140822826 0.4219496852885102
0001e0 a2 1d 58 12 46 b1 c2 3f 93 ae a7 ac 5e cb c6 bf
       0.14603496452057835 -0.17808135443134585
0001f0 a1 e9 fa 93 62 38 d2 bf b1 50 44 39 6a 73 73 bf
       -0.2846914715879852 -0.004748740135500793

linear3.weight f8 [3, 64]
000000 5e a2 d6 51 96 84 92 3f 03 f4 a3 7c f2 b5 ba 3f
       0.01808390497686429 0.1043387941644625
000010 b7 c7 71 23 ce d5 cb bf 89 5f 6e 61 0d 23 bc 3f
       -0.21746231775938238 0.10990985516252584
000020 5d 28 3b 09 77 da d1 bf 86 b6 c8 a8 9a 26 bd bf
       -0.2789590444705306 -0.11387030239776594
000030 0e 33 40 db 97 91 cd 3f 9c f0 f6 e5 e3 40 97 bf
       0.23100565152744718 -0.02270847407429298
000040 aa 38 b0 c5 d3 4b c3 3f 58 93 72 24 35 bf cb bf
       0.15075156357528857 -0.21677269248643927
000050 bf 0a 96 fb 24 9d c6 3f 31 34 13 cc 54 49 d0 bf
       0.1766706684539567 -0.25447578362656303
000060 50 2b ed e6 4a d5 d8 3f 74 75 80 dd 2c cf bc bf
       0.38801834632311216 -0.11253624351271246
000070 0c d3 d4 b9 aa c1 c2 3f 2c fc 6b a3 c0 3c d4 3f
       0.14653524469181212 0.3162080379406145
000080 03 44 68 48 19 04 c0 bf 6a ea 92 ae f5 5b c8 bf
       -0.1251250842620096 -0.190306387177617
000090 64 57 0e 28 b8 de c6 3f e3 77 9c ab 17 fb b4 3f
       0.17867185550556564 0.0819563669178645
0000a0 ea 86 02 a3 91 84 bc 3f 29 04 f0 f3 05 97 b4 bf
       0.11139784078343565 -0.0804294319678013
0000b0 8e 0c fa b3 1f 1f c2 bf 84 6c 1f fa d9 a2 d6 bf
       -0.14157482421805806 -0.35368966508912814
0000c0 6f 9f e0 26 db 93 d2 bf 29 55 12 07 fe e3 cc 3f
       -0.290274417845004 0.22570777268689682
0000d0 c9 f4 02 e3 d2 78 d2 bf b3 14 94 34 f1 67 ae bf
       -0.28862449807259033 -0.0593867661173503
0000e0 b3 47 98 15 13 f8 d1 bf 77 29 d3 51 60 28 d6 3f
       -0.2807662688147687 0.3462143706389251
0000f0 07 8f 85 9d 73 dc b8 bf 38 58 f1 d8 e9 f3 d2 bf
       -0.09711382480378115 -0.29613729654136334
000100 18 6e 16 57 43 c7 ae bf 49 f4 c7 9d 89 be d2 3f
       -0.06011400640565173 0.2928794899779104
000110 06 34 e1 2a f2 04 dd 3f 90 4d ce 53 b4 bc c2 3f
       0.45342687785597524 0.14638380138476892
000120 60 6a 86 49 67 f5 4d 3f f1 69 f4 25 fe d1 b5 bf
       0.0009142641384188403 -0.08523548533086235
000130 97 27 94 34 33 76 b0 3f c8 46 77 d5 25 a7 d8 3f
       0.06430358918819788 0.3852018913868105
000140 d7 48 12 8e 37 60 6d bf 6c be d2 2d fa 86 ac 3f
       -0.0035859189088763665 0.05571729478230911
000150 24 91 d0 04 3b 8e bd bf d3 9d 60 6d f0 cd 99 bf
       -0.11545151584192986 -0.025199658084742737
000160 bf c6 61 c2 06 f9 a6 3f 3a e2 b6 bb 6f 80 cc bf
       0.04486867068125155 -0.22266956964246437
000170 ff 31 e8 ea 82 98 c3 3f 2a ea ed 69 ab ca ca 3f
       0.15309177846974362 0.20930998489696268
000180 fc 4d 5f 48 41 57 c9 3f 83 9d 61 52 9e 6b d3 bf
       0.1979753116016666 -0.3034435085778215
000190 17 e7 85 a0 93 58 b6 3f d0 6e ec 68 49 31 bd bf
       0.08728907269496876 -0.11403330623255248
0001a0 cb 78 6c a2 4a 8c c5 3f 6e 9b 43 1e c5 5d b9 bf
       0.16834385805936444 -0.0990870665442409
0001b0 b2 7c 74 8d 35 52 b3 3f 3a 6a ff 97 81 3f c2 bf
       0.07547316268436324 -0.14256305619967852
0001c0 74 09 00 cb 09 51 d1 bf 6b dc c4 f5 54 bb df bf
       -0.2705711824820789 -0.4958088302696015
0001d0 32 aa 35 9b d5 aa c5 bf e8 e4 d3 81 23 53 cf 3f
       -0.1692759521350396 0.24472469176524858
0001e0 02 bf 44 b1 56 28 58 3f 31 19 7f 76 5d 08 67 bf
       0.0014744612318046695 -0.002811605972939856
0001f0 9f 81 68 77 c4 8e 93 bf 68 a1 31 36 a9 99 a0 3f
       -0.019099302089786382 0.032422340264761484
000200 17 9c ea 95 21 3c b1 bf cf 2f 5d 0a 50 5d ba bf
       -0.0673237792021698 -0.10298633816745383
000210 be a0 92 30 9a 3d 5f 3f 3f d2 30 5f dd 31 b4 bf
       0.0019067769774583766 -0.0788858754538717
000220 27 20 d8 f9 82 80 7d bf 51 8e d7 2d dc 08 c0 bf
       -0.00720263636095101 -0.12527038801555304
000230 c0 99 54 69 8e e3 c0 bf 92 81 71 1e c9 ce cf bf
       -0.13194446700181395 -0.24849809633725478
000240 64 65 27 73 1d bc a8 bf 1f e0 5f 45 26 5d c2 3f
       -0.048310203844901506 0.14346769702365322
000250 9b e0 4c 35 a8 96 c2 bf 3c b6 5e 6b 42 81 b7 3f
       -0.14522268869928187 0.09181609269463648
000260 f4 4f b0 d1 f7 5c cd bf 32 2e 68 0a a9 b4 ac 3f
       -0.22939965952593833 0.05606582881963752
000270 5e 88 1b 2e 38 cb 99 3f d4 39 7f f4 92 80 d7 bf
       0.02518928319376134 -0.36722253681810213
000280 10 a1 49 8c 5d 4d b0 3f 05 b9 e5 5e dc 26 b9 3f
       0.06368050265303205 0.0982492191012377
000290 a4 84 4e 9d 80 00 b4 bf 79 fb d8 d6 21 bb b5 3f
       -0.07813266602035412 0.0848866605310671
0002a0 b9 47 b3 43 ec e6 b4 3f 80 71 02 40 69 9b ab 3f
       0.08164860394324948 0.053920067847886166
0002b0 01 8e 27 0d 99 42 a0 3f 9c b6 0e 54 f3 d1 ac 3f
       0.0317581013257744 0.056289295206949336
0002c0 aa b9 68 eb 0e 2c 66 bf 66 b2 f1 de 5c fa cb bf
       -0.0027065554998195367 -0.2185779656023385
0002d0 b4 96 47 c1 4d ad 92 bf ba 56 5f 6a 3f f4 ac bf
       -0.01823922626672099 -0.056550962195314594
0002e0 39 1d 23 5e 9b 02 82 bf 15 15 2f f8 81 4f dd bf
       -0.008794034777010228 -0.4579777644797372
0002f0 c1 2b c4 11 75 aa bb 3f 74 30 72 a9 bc 84 af 3f
       0.10806972202060107 0.061559577640850544
000300 ec 05 57 b1 8d ff c2 bf 84 f7 25 91 5d c6 b4 bf
       -0.14842387351204367 -0.0811518172613131
000310 d4 89 3b 4d 31 5d d0 bf a5 16 a4 97 3b e5 61 bf
       -0.2556880239700636 -0.0021845020211255944
000320 e9 18 17 6c 12 fc 82 bf 1d 77 7d 67 3e 69 a2 bf
       -0.009269851611759044 -0.03595919621760244
000330 52 68 bd 36 e1 49 ae 3f 2b fc a7 af 5b a8 d0 bf
       0.05915740769587842 -0.2602757659332748
000340 5e c4 22 86 87 93 73 bf c4 4e 8c 3f ae 82 b6 bf
       -0.00477936686563493 -0.08793152858225556
000350 65 df 47 74 3f 02 b1 3f 0c f9 40 05 b9 30 ad 3f
       0.0664405497444683 0.05701234997876456
000360 90 85 a2 48 bd 33 a6 3f 79 21 71 00 2a 7f 9b 3f
       0.04336349021583452 0.02685227992722747
000370 29 96 9b 08 1f d9 a1 3f 36 1f 4a 68 c9 69 a3 3f
       0.03485962848735042 0.03791646383348139
000380 2a 7c 15 5f aa 54 c6 bf b5 a3 6a e1 c7 bf 90 3f
       -0.17445878641862694 0.016356585629782667
000390 9e 5b 52 4e 01 a7 b9 3f f7 e1 fe 5e 4d 63 ae 3f
       0.10020454561377654 0.059351365896365076
0003a0 2e 6f 1f 7f a5 9d bf bf 48 00 22 3b 23 67 91 3f
       -0.12349924424728151 0.01699500130098411
0003b0 54 c5 53 a8 64 21 d1 bf 07 fd 26 75 9e 5f b1 bf
       -0.26766315878110913 -0.06786527977145705
0003c0 d1 da ce 31 28 cd ac 3f 83 a1 78 7d 5b 01 84 3f
       0.05625272377021918 0.009768214003160086
0003d0 b9 e3 75 94 31 0f b7 3f 62 56 d8 78 c0 52 d3 bf
       0.09007558702968667 -0.30192577172542745
0003e0 2f 97 31 0c dc 86 9a bf 7a ec 4f 2b 64 09 ad 3f
       -0.025905073398823916 0.056712274825223966
0003f0 49 78 7a bf e8 29 c2 bf a0 fb 42 43 39 43 9d 3f
       -0.14190396642237804 0.028576750498128356
000400 40 01 96 2e 20 60 d0 bf 51 21 76 cb 85 14 c2 bf
       -0.25586704778108427 -0.14125130114212905
000410 e8 35 35 3b 64 76 b3 3f fb 50 b7 7f fb 29 c0 bf
       0.07602526135925525 -0.1262812017072362
000420 d9 75 5d fd f9 d1 aa 3f f2 04 47 42 15 43 c1 3f
       0.05238324373088305 0.13485971199228391
000430 23 2d d0 75 9c bf c8 3f 89 b3 ff 6b f1 f8 cd 3f
       0.19334750893208605 0.23415963910465745
000440 b1 f5 ab 32 3d 27 b1 bf 21 04 ad 35 80 f4 c0 3f
       -0.06700499045469745 0.13246157284632523
000450 15 b7 c5 c2 16 6e a6 3f b9 71 71 c9 4d 4f b7 3f
       0.04380866172401291 0.0910538307957215
000460 83 d0 60 fc 9c db 9f 3f eb ed b1 dc 1e a1 bb 3f
       0.031111195472661734 0.10792725456297318
000470 35 74 23 ae 69 20 c2 bf 63 09 b7 d2 21 4c b6 bf
       -0.14161416056495715 -0.08709918398293363
000480 4e 33 79 aa 01 a0 bb 3f 36 11 99 68 9a 12 b6 3f
       0.10791025554608533 0.08622136167202119
000490 3a ff 77 df de 75 bf bf 3e 51 50 dd bc c2 d3 bf
       -0.12289231258182279 -0.3087608491198529
0004a0 a0 18 81 50 78 5d cd bf e5 a0 e7 7f e2 52 b3 3f
       -0.22941497736809868 0.07548347113300087
0004b0 9b a7 ad b7 61 70 ab 3f a3 c4 0b 10 55 ab ac 3f
       0.05359177939574452 0.05599466153024337
0004c0 37 5b 0e 19 11 f6 74 bf a5 73 9b 8c 83 e2 c2 3f
       -0.005117480076384954 0.14753765454852644
0004d0 6b 49 2e 3e fa 99 94 3f 09 0e 23 f5 bb cd 77 bf
       0.02011862759133846 -0.005811437806360961
0004e0 5e 02 4e f1 71 58 83 3f 09 56 02 fe 41 25 bc bf
       0.009446039368186717 -0.10994350863833104
0004f0 1e 74 80 ec ce f0 bf 3f 50 ee 11 a0 5d 01 b4 3f
       0.12476819299668349 0.07814583929023766
000500 ca 34 0d 29 4c 95 c8 3f 46 d1 b6 5c f4 26 b2 bf
       0.1920561981627656 -0.07090689910439094
000510 90 e6 c4 77 61 45 b4 3f 52 b4 c2 60 52 a2 c9 bf
       0.07918366598178239 -0.20026616787564194
000520 de e0 42 77 97 ae d6 bf 44 6f e8 4f ef 27 ad 3f
       -0.35440622946363287 0.056945303444278866
000530 47 90 07 c2 61 80 d2 bf 5e 8e f3 88 74 55 b2 3f
       -0.2890858073062685 0.07161644309558698
000540 57 e9 77 9f e1 74 d4 bf e1 e9 2f 8a d7 cd c3 3f
       -0.31963387082182265 0.15471929786129038
000550 f5 1b 0a 59 05 a9 b8 3f ae b6 e3 13 8e 07 a5 3f
       0.09632905410590793 0.04107326500694107
000560 26 5c 09 44 5e d4 d4 bf d6 a3 1b 36 90 56 bb 3f
       -0.32546192783542194 0.10678960152621583
000570 64 b6 c1 6e 2d cc b8 bf 10 b8 4a 85 6c 52 b3 bf
       -0.09686550096531615 -0.07547643903919288
000580 91 e2 25 bf 49 db cf 3f af 9a 66 d7 84 b4 94 3f
       0.24887964089773054 0.020219874999066686
000590 28 ae a5 fa 71 e0 ca bf 10 5a 4d 23 6e 20 b0 3f
       -0.20997452486641177 0.06299484598034888
0005a0 e8 53 9a cb 63 fd cd bf 66 43 09 da 93 66 a4 3f
       -0.2342953437952524 0.0398451045663311
0005b0 27 a8 88 50 07 d9 c9 3f ae bb df 93 0f ee 93 3f
       0.2019356864196322 0.019462817574033835
0005c0 93 1a aa 80 88 18 9a 3f aa 95 94 31 60 16 8b 3f
       0.025484211781555088 0.013226272118638988
0005d0 d1 5b 29 65 42 43 b8 3f 2f db 38 e9 ca 27 a5 bf
       0.09477629632725316 -0.04131921860646625
0005e0 12 e1 6e d7 47 85 da bf 4c 4e 07 0d c3 41 b5 bf
       -0.41438480413809586 -0.0830346972282367
0005f0 9b 1d b8 d0 ce 08 d5 bf fe 34 20 5a 85 8e d5 bf
       -0.32866258986219926 -0.3368237857947206

linear3.bias f8 [3]
000000 56 18 99 35 22 e5 d1 bf 96 d9 58 40 dc 3a b6 3f
       -0.2796102069299925 0.08683563776944533
000010 4f 26 33 63 40 41 b1 3f
       0.06740190908308218
