runs/testrun-adamlr1e-3-5r-20bs-50ep/1/LocalModel-1-Round4.pt (torch, 167767 bytes, 6 tensors)

linear.weight f8 [128, 95]
0	0xbf99b33780000000	-0.025097720324993134
1	0x3fb29e3800000000	0.07272672653198242
2	0x3f764d2c00000000	0.005444690585136414
3	0x3f97dcc700000000	0.023303136229515076
4	0x3fa3501000000000	0.0377202033996582
5	0x3fa5b1ec00000000	0.042373061180114746
6	0x3fb40b4f80000000	0.07829758524894714
7	0xbfb6a319a0000000	-0.08842620998620987
8	0xbfb9465ae0000000	-0.09872978180646896
9	0x3fa7334580000000	0.045313045382499695
10	0x3fae607400000000	0.05932962894439697
11	0x3f91c99b00000000	0.01737062633037567
12	0xbfa5280420000000	-0.04132092371582985
13	0xbfa9b7ac80000000	-0.05022944509983063
14	0xbfa3e07200000000	-0.0388217568397522
15	0xbfa351c2c0000000	-0.037733159959316254
16	0xbfb98bcee0000000	-0.09978955239057541
17	0xbf9e221d00000000	-0.02942700684070587
18	0x3f9a84df00000000	0.025897487998008728
19	0x3fb7e87340000000	0.09339065849781036
20	0xbfa6717740000000	-0.04383442550897598
21	0x3fa6949980000000	0.04410247504711151
22	0xbfb9088460000000	-0.09778621047735214
23	0xbfb7c0dce0000000	-0.09278660267591476
24	0x3f9b5bd600000000	0.02671751379966736
25	0x3fb2741800000000	0.07208395004272461
26	0xbfb33c0780000000	-0.07513472437858582
27	0x3f93464280000000	0.01882270723581314
28	0xbfa6f8a0a0000000	-0.044865626841783524
29	0xbfb77280c0000000	-0.09159092605113983
30	0x3fb9ac5300000000	0.10028570890426636
31	0x3f923dc400000000	0.01781374216079712
32	0xbfb0c76920000000	-0.06554276496171951
33	0xbfb68c8600000000	-0.0880817174911499
34	0xbf9d229080000000	-0.02845216542482376
35	0x3faab7cb00000000	0.05218347907066345
36	0xbfb87ee160000000	-0.09568604081869125
37	0xbf705f4a00000000	-0.00399712473154068
38	0x3fb79a0280000000	0.09219375252723694
39	0xbfb7c38c80000000	-0.09282758831977844
40	0x3fa58fba80000000	0.042112186551094055
41	0xbfb8d7bcc0000000	-0.09704189002513885
42	0x3fb7b243c0000000	0.09256385266780853
43	0x3f924cbc80000000	0.01787085086107254
44	0xbfafdd6d60000000	-0.062236230820417404
45	0xbfa26c8c80000000	-0.03598441183567047
46	0x3f8e756900000000	0.01487237960100174
47	0xbfab26c4e0000000	-0.05303015932440758
48	0x3fb3632340000000	0.07573147118091583
49	0xbfb3de50a0000000	-0.07761100679636002
50	0x3fb00b2f80000000	0.06267067790031433
51	0xbfa0728880000000	-0.03212381899356842
52	0x3fb5bbeac0000000	0.08489863574504852
53	0x3f98d5ce00000000	0.024253100156784058
54	0xbfb16fcb60000000	-0.0681120976805687
55	0xbf94a03000000000	-0.020142316818237305
56	0x3f8ccf2300000000	0.01406695693731308
57	0xbfafa73300000000	-0.06182250380516052
58	0xbfb3d1abe0000000	-0.07741808146238327
59	0xbf8c7e0000000000	-0.013912200927734375
60	0xbfba052dc0000000	-0.10164152085781097
61	0x3fba052c00000000	0.10164141654968262
62	0x3f77d0d600000000	0.005814395844936371
63	0x3f9e498a00000000	0.029577404260635376
64	0xbfae17fb40000000	-0.05877671390771866
65	0xbf9ded3700000000	-0.029225215315818787
66	0x3fb8f80840000000	0.0975346714258194
67	0x3f8915d900000000	0.012248702347278595
68	0x3f92752480000000	0.0180249884724617
69	0x3fa5304300000000	0.041383832693099976
70	0xbfb30a80c0000000	-0.07437901198863983
71	0xbf8909c900000000	-0.012225694954395294
72	0x3fb8594880000000	0.09511235356330872
73	0x3fa225d180000000	0.03544478118419647
74	0x3fb58cae80000000	0.0841778814792633
75	0xbfa87e3860000000	-0.047837983816862106
76	0x3fa0e57000000000	0.03300046920776367
77	0xbfb14c1760000000	-0.06756731122732162
78	0xbf9d65d980000000	-0.028708837926387787
79	0x3fa9d3f800000000	0.0504453182220459
80	0x3f6de05c00000000	0.0036470219492912292
81	0x3f87fbe200000000	0.011710897088050842
82	0xbfb21b6800000000	-0.07073068618774414
83	0xbf9603cf80000000	-0.0214989110827446
84	0x3fb044f1c0000000	0.06355200707912445
85	0xbf8cff3200000000	-0.014158621430397034
86	0xbfb35b7d20000000	-0.07561475783586502
87	0xbf88360d00000000	-0.011821843683719635
88	0xbfb1ac68e0000000	-0.06903701275587082
89	0xbf91124000000000	-0.016671180725097656
90	0xbf94634a00000000	-0.01991000771522522
91	0x3fb0757040000000	0.06429196894168854
92	0x3fa54bc780000000	0.041593775153160095
93	0x3faa02f600000000	0.05080384016036987
94	0xbfb7232f00000000	-0.09038060903549194
95	0x3fd9fd7a8b753bff	0.4060961114782344
96	0x3fcf5ce447f648b6	0.245022330415457
97	0x3f9a5adcfe033f55	0.02573724079485314
98	0xbfbc04e34d84bcbe	-0.10944958345929742
99	0x3fc2d093a4166316	0.1469902564247369
100	0x3fc56b854f84f5bf	0.16734377272397968
101	0xbf83d10d4774d496	-0.009676078551459615
102	0x3f76389598f36901	0.005425056805700602
103	0x3fbe93d04b898f5c	0.11944295734570914
104	0xbf945e25bc193178	-0.019890393834701453
105	0xbfb381f62ff45e51	-0.07620180769696928
106	0xbfbb254cdf6d6850	-0.10603790716905448
107	0xbfd38329ae114043	-0.30488054274338
108	0x3fd164ad9231ab04	0.2717698981929717
109	0xbfc517ce130c8cba	-0.16478897028091471
110	0x3fa0a74fa423c43e	0.03252648237856491
111	0x3fd01e08c769bea5	0.25183314775402216
112	0xbf9f1830e3f76fae	-0.03036571875951182
113	0x3fc1499bbad1f7e0	0.13505884763793485
114	0x3fd1a7247f3942d8	0.27582657264887933
115	0x3fbaecddecf8dbfc	0.10517680201961349
116	0xbfb33ca472eae16b	-0.07514407926180915
117	0x3f89845e4bc6ca27	0.012459503829494413
118	0x3fb9a3d353ea2a0b	0.10015602873514966
119	0xbfc1ca86dd7d06f5	-0.1389931279646174
120	0xbfb2d287d9502c2c	-0.07352494292733586
121	0x3fcb85e4261bd304	0.21502353535438357
122	0xbfc04c3194e2ab19	-0.12732524652286584
123	0xbfb91fc37f24ec0f	-0.0981409249697409
124	0xbfc206eb45a6ed2b	-0.14083615208606068
125	0x3fa3d8c560891784	0.03876320651447343
126	0x3faa12147430d309	0.05091918867439033
127	0xbfb0fe930209902f	-0.06638449477901597
128	0xbf848b8fbd27a472	-0.010031817398117069
129	0xbfb6dfc7a5799f33	-0.08935210981291845
130	0xbf5b7ff3703183fb	-0.0016784550978388147
131	0x3fa54bdef8c14988	0.04159447466431049
132	0x3f9e6d7a84d689d9	0.029714502675810415
133	0x3fc229ab76e45036	0.1418966608549696
134	0xbfa43c42c5549664	-0.03952225359743691
135	0x3fd266f395cbe8c1	0.2875336611611026
136	0xbfe5a47d012e7cf3	-0.6763291380956659
137	0xbfd06b64fdd2165d	-0.2565548399655649
138	0x3fa9b8a6b242e850	0.05023690153161964
139	0xbfd5638b968621b8	-0.33420076083759964
140	0x3fc489bf56c92244	0.16045371759016025
141	0x3fbea4db1a13fdf8	0.11970300089523522
142	0x3fc826ddf951a18d	0.1886861293198873
143	0xbfb9b01974df54ac	-0.10034331420259218
144	0xbfbf12bcc138deb7	-0.12137965886437994
145	0xbfb5fe75e5f9e9e9	-0.08591400971082631
146	0x3fd1a16c784e6bda	0.27547752140679693
147	0xbf95162b4f637a03	-0.02059238121079866
148	0xbf943279a48f1274	-0.01972379748237292
149	0x3fc4a0c9f2fcfd04	0.16115688671741435
150	0x3fd50fa7e193031f	0.3290805533288665
151	0xbf96f2163c011f93	-0.022407863056542587
152	0x3f9ad8eb40f48937	0.0262181051631469
153	0x3fd5b277702eea4f	0.3390177341022182
154	0x3f9e609c93421cbe	0.029665419090204585
155	0x3fa9683e7b176150	0.04962344410495467
156	0xbfcb4c55ce2effbf	-0.2132670647388277
157	0xbfb4511d79120963	-0.07936271863767312
158	0x3fab76ac416edc22	0.053639777171547345
159	0x3fd0e1f7eaecbc55	0.2637920183360099
160	0xbf8123d5f34dcf45	-0.008369132506892316
161	0x3fc043a5d98a6c4f	0.12706444856744034
162	0x3fd59b88356e1c6b	0.3376179239061858
163	0xbfb45bc187e243a7	-0.0795250851390522
164	0x3fc8c411c7fe4a79	0.193483564999571
165	0xbfd4e4a1ec8cff58	-0.32645462132130865
166	0x3f8ceb682210f3c9	0.014120877780550505
167	0x3fbf5c5cbe375683	0.12250308650922119
168	0xbfbd3f89dbf038d1	-0.11425077075566327
169	0xbf87e066d6d1f8de	-0.011658481055061672
170	0x3fbccf3508c94ec0	0.11253673042784396
171	0x3fb49004030c3970	0.08032250475318903
172	0xbfb13a1828cf0ca0	-0.06729269977863561
173	0xbfab8360a532206f	-0.05373670593786605
174	0xbfc9bc5cd929c956	-0.20106087306664716
175	0x3f93c5cff4e869ff	0.01930928165720935
176	0xbfbcaa02e39eafc6	-0.1119691663467953
177	0xbf8443f45f11a4f9	-0.009895238066933919
178	0x3f979040a3203996	0.02301121707574224
179	0xbfaac615cb8bd217	-0.05229251966185105
180	0x3fb9a2c522d7e05e	0.10013992405572611
181	0x3fb8239e10dc0fda	0.09429347907649746
182	0x3fb3ec55ddf0be33	0.07782494228808261
183	0x3fb5e48ad31f373f	0.08551852850288542
184	0xbfa3feb5460ec413	-0.03905264358707696
185	0xbfa5cc910e955252	-0.04257634451883931
186	0x3fb4312f0e9ce1d6	0.07887548548467946
187	0xbfd48a2c7042f543	-0.3209334465317008
188	0x3fb47e67a4377294	0.0800537849349417
189	0x3fb90c61398682a9	0.09784515051297639
190	0x3fc5235a5e83fdf8	0.16514138808268775
191	0xbfb3b055c4feaccb	-0.0769094091362376
192	0x3fa2fc0545755696	0.03707901451950339
193	0xbfb127e60952c21c	-0.06701505401247981
194	0xbfac7b9a642be972	-0.055630516746492456
195	0x3fa9ab15cfdaae6c	0.05013340151103027
196	0xbfb9c7c554eb2bf6	-0.10070451091011975
197	0xbf914232a50bd6e2	-0.016854087184546958
198	0xbfa8aa6cfdffbfe0	-0.048175245290508206
199	0x3f9dd1f2da294d71	0.029121203008185718
200	0x3fc3afd10e2e59a5	0.1538029975169596
201	0x3fbe639f04f77694	0.11870759841209583
202	0xbfa93a5d53cc245c	-0.049273411254099314
203	0x3fa7cbcf1a8608a0	0.046476814258327837
204	0x3f8b53c4b67e4d47	0.013343369311576437
205	0xbfb652a885e49c9c	-0.08719876545784405
206	0xbf9a0abc16f81dc6	-0.02543157472794435
207	0xbfbf80f9ff06b2d9	-0.12306177593445557
208	0xbfc17ad2d5cddd8c	-0.13656077804237687
209	0x3fac5249aeb3b5ce	0.055315306259085525
210	0x3fa7fb4ad2ab5cc7	0.046839082924344626
211	0xbfa89a7b128e94c1	-0.04805359460378034
212	0xbfa025ffff600e68	-0.031539916919453514
213	0xbfa3b1d03a5cd91a	-0.03846598350939896
214	0xbfb9d9e2302bddc2	-0.10098088909204875
215	0xbfb6ae9823225103	-0.08860159738316402
216	0x3f7ce75fbcd4a976	0.007056592917516693
217	0xbf71d35bd6882ce5	-0.004351958029029411
218	0xbfc10de27f1aedfe	-0.13323622900303173
219	0x3fa5c391a9c06383	0.042507698032017614
220	0xbfa06fc890356668	-0.03210284004553615
221	0x3f9b70c1a91cdd2a	0.026797319361518003
222	0xbfa78cb5dc886dea	-0.04599541012813886
223	0xbfa5429ecc330a2c	-0.04152389757793559
224	0x3f90b36031daabd0	0.01630926422391693
225	0x3faba13b416942c2	0.0539644734714151
226	0xbfbe85ed9a730918	-0.11923108120666759
227	0xbfb5b18e54cc8a8b	-0.0847405392674238
228	0x3fb4b66ef719b4db	0.08090871365284917
229	0xbf97733d4cee3863	-0.022900541134326945
230	0xbfa3b29eb5551060	-0.03847213710335562
231	0x3fb71f224d88941a	0.09031881707103687
232	0x3fb4c95803865328	0.08119726263096239
233	0x3fa128e49020d5e2	0.033515112489492585
234	0x3fb185fe953da6de	0.06845084327292336
235	0x3fa995654f26b1c8	0.049967924034124034
236	0x3f77c385df5e47f4	0.005801699580745268
237	0xbfa22d28ef745ec2	-0.03550079272298269
238	0x3fb072e72ab8cb64	0.06425328057302476
239	0x3f850a8de3041bce	0.0102740368752289
240	0xbfbabcafaf6a822b	-0.10444162399881722
241	0xbfc27c40a20ffae6	-0.14441688454822738
242	0x3f791e285750ae90	0.006132276136706985
243	0x3fa12455919cec14	0.033480333352109565
244	0xbfa481c612732699	-0.040052594902204315
245	0x3fad0624406f49b2	0.05668748175198192
246	0xbfbaa4375de7c42a	-0.1040682415257527
247	0xbfa61286728247a2	-0.04311008594335354
248	0xbfb5e558feed4866	-0.08553081725884368
249	0xbfc43f3cc66ef96e	-0.15817985238204407
250	0xbfa8dda4ceceffa7	-0.04856600784796621
251	0x3f7271c2b70094dc	0.004503021817105348
252	0xbfb1aab0fd4fb1a3	-0.06901079353673949
253	0xbfb6ab5414d9c614	-0.08855176457452557
254	0x3f7a0a574b118aca	0.006357518185810826
255	0xbfc2f761b63caa80	-0.14817448995866656

linear.bias f8 [128]
0	0x3fb6fd8f40000000	0.08980651199817657
1	0xbfbaa07cb36eb4d6	-0.10401133900332424
2	0x3f980ab34d86b13e	0.023478318793125334
3	0xbfc0762bcec0d4c7	-0.1286062964951837
4	0x3fb04874a097d2d4	0.06360558434227964
5	0x3fae646c29052247	0.05935991287930569
6	0x3f97ad184db2a0a4	0.02312124227742686
7	0x3fb447aa80000000	0.0792185366153717
8	0xbf82df28356e1122	-0.00921470082335724
9	0x3fa4169d222f8c20	0.03923502962404535
10	0xbfb3f135dd1f28ff	-0.07789932869414783
11	0xbfb7111a948d1f9c	-0.09010473372211297
12	0x3faf05b0fa0abdea	0.06059029629011177
13	0x3f5a59e800000000	0.0016083493828773499
14	0xbfb5030961ecf4c0	-0.08207758560907319
15	0xbf9def34f98309fc	-0.029232814530368842
16	0x3fb5edb1dc31da93	0.08565818429802112
17	0xbfaac595594497ec	-0.052288691660848347
18	0x3f9ba670e54227aa	0.0270021095207437
19	0x3fb78f2b8ee4f855	0.09202835310586129
20	0x3f9caf3f00000000	0.028012260794639587
21	0xbfa00b2f0b61cecc	-0.03133532537404235
22	0xbf7f9b619854de76	-0.007716542463917278
23	0xbfa8360c581abc5a	-0.047287355189262484
24	0x3fb51604dd122d5e	0.08236723325005843
25	0xbf98cb4c71820aa4	-0.02421302264020632
26	0xbfa02e0480000000	-0.031601086258888245
27	0xbf8166ed796302d0	-0.008497100130968077
28	0xbfb69558a0000000	-0.08821634203195572
29	0xbfc01bebff5a8633	-0.1258521077007103
30	0x3f93edd60e5407d4	0.019461960434462203
31	0x3fb472bd00000000	0.07987576723098755
32	0xbfa00c9180000000	-0.03134588897228241
33	0x3fb8d0db80000000	0.0969369113445282
34	0x3f883dc1058d549d	0.011836536390243341
35	0xbf983e704c5bfb01	-0.02367568460521863
36	0x3f81009dd14278f7	0.008301957081411333
37	0x3f9a83e5220518cd	0.025893764687929633
38	0x3fb502ef18325650	0.08207601872194314
39	0xbfc0f67382f3033b	-0.13252109426505307
40	0xbfbae168b62959a8	-0.10500196883490409
41	0xbf9086de888028f5	-0.016139485436760876
42	0xbf9079f65c279d44	-0.01609024941890637
43	0xbf62a52400000000	-0.002276010811328888
44	0xbfae3da503798980	-0.059064060854114864
45	0x3fa951ec01908113	0.04945313948724297
46	0xbfc0ff9b61828810	-0.13280050526833564
47	0x3fb18426c2402147	0.06842272036022222
48	0xbf98770a8f31010b	-0.02389160632105906
49	0xbfacbd42c651186a	-0.05613144560679546
50	0xbf136384d6f14ea8	-7.396219528859693e-05
51	0xbfb5ec6b0eff9b95	-0.08563870540784387
52	0xbf87502f8f201af9	-0.011383410983410768
53	0x3faf106280000000	0.06067188084125519
54	0xbfba4e3b1ef1c9f8	-0.10275620942574182
55	0xbfb27cd529f47bde	-0.07221729540150032
56	0x3fb170e5d5c7f42d	0.0681289336134376
57	0xbf90357600000000	-0.015828937292099
58	0xbf93873be0011eb5	-0.019070563838140504
59	0xbf9b56852b52dd28	-0.02669723584105302
60	0x3fa927da24985111	0.049132172553216454
61	0xbfb461075f6aee4b	-0.0796055419877401
62	0xbfb590379bc4cbc4	-0.0842318301481973
63	0x3faf46ef80000000	0.06108807027339935
64	0xbfc7ef5ef6a4808e	-0.18699252169699715
65	0x3f868e531f5a2539	0.01101365031651601
66	0x3fb36e562fd6fe97	0.07590235393490229
67	0x3f9f595bacba2e86	0.030614311616359767
68	0xbfb281fa1c98bc32	-0.07229579160842617
69	0xbfb350bbe0000000	-0.07545065134763718
70	0xbfb89b8c59ec0140	-0.09612347789152853
71	0x3faba223f96bf160	0.05397140903184794
72	0x3fa9ed0805644f68	0.05063653055017775
73	0x3f89a0db00000000	0.012513838708400726
74	0x3fa1fb6d00000000	0.03512135148048401
75	0x3fa25c36c8f8aac1	0.035859787018428964
76	0x3fb6ad85acd3553e	0.08858523816464456
77	0x3fad9774b45353e8	0.05779614163626673
78	0xbfa1614bc0cfd736	-0.03394543388996711
79	0xbfb6ccfadd0fb096	-0.08906524559978587
80	0xbfb52379074fdcdb	-0.08257252148165455
81	0xbfb096d91e84293a	-0.06480175967241034
82	0x3f9932d157c6e5de	0.024607916815261414
83	0xbf8ed3294eb0e5a0	-0.015051195825537544
84	0xbfb68dd0002f8181	-0.08810138706713212
85	0xbfb81c13002e1843	-0.09417837862392368
86	0x3fa2a16d60338f54	0.03638784217198912
87	0xbf893a6900000000	-0.012318439781665802
88	0x3f756e9600000000	0.005232416093349457
89	0xbfbf3f48ec51f9b1	-0.12205940026794938
90	0xbf8b468800000000	-0.013318121433258057
91	0x3f9455076eb835cf	0.01985561002043373
92	0x3f5316f45b8d021f	0.0011651407532583603
93	0xbf7a9cfbac250296	-0.006497366996257489
94	0xbfb5245ee1d16b40	-0.08258622182021913
95	0xbfb8c98de0000000	-0.09682547301054001
96	0xbfa6d6066e58dd84	-0.044601632089718485
97	0x3fac19f092731ead	0.05488540446964172
98	0xbfa0f4bed4006480	-0.03311725938710541
99	0xbfb5f2ba158fcdd6	-0.08573496843728576
100	0xbfab4f5e63c5a24c	-0.05333991020126358
101	0x3f7732f400000000	0.005663827061653137
102	0x3f9ee3c0b86358a3	0.03016568303504442
103	0xbf9c94f607df66d2	-0.027911991339215465
104	0xbfb938c3c9f74934	-0.09852241211709584
105	0xbfb4b34a66e66c99	-0.08086075794419613
106	0x3fb8b3667a713010	0.09648743142423677
107	0x3fafec19426c044e	0.062348164899966294
108	0xbfa68bf1457148f2	-0.04403642628371242
109	0x3fb34c3aa8bca138	0.07538191432525287
110	0xbfabb26b37b1ba9e	-0.054095602558722464
111	0x3fb1512e53d7afae	0.06764497324883109
112	0xbf92901400000000	-0.018127739429473877
113	0x3f85bd7000000000	0.010615229606628418
114	0xbfb887bc40000000	-0.09582115709781647
115	0xbf73fca0d9a95eed	-0.004879597016575349
116	0xbfb4a2103cda5375	-0.08059789167084637
117	0x3fa72e8280000000	0.045276716351509094
118	0xbfb0064440000000	-0.06259562075138092
119	0xbf81c1b16aa187f0	-0.008670221392268446
120	0x3f9342ea3f78cf88	0.018809948085802414
121	0x3fb8ad70c0000000	0.09639649093151093
122	0x3f9f83ff006a1e1c	0.030776962662029658
123	0x3f9bbc93d517bea3	0.027086553460263684
124	0x3fa33ab4bb8fe7c2	0.03755726613594802
125	0xbfa65b30a3d4b15f	-0.04366447448623733
126	0xbfa1768d9969a516	-0.03410761354173013
127	0xbf9bc6f900000000	-0.027126207947731018

linear2.weight f8 [64, 128]
0	0x3fb1384260000000	0.06726469844579697
1	0xbf80f5c182e4f928	-0.008281242186623475
2	0xbfa24a0364c8f283	-0.0357209263351921
3	0xbfb744399d08eda0	-0.09088478168353342
4	0xbfaab9766801935c	-0.05219621677023298
5	0x3f9548a6ff254f4e	0.020784959147319974
6	0xbfb26faf91b18b30	-0.07201669032069158
7	0xbf4efee000000000	-0.0009459108114242554
8	0xbfa62f62ef7fd0ba	-0.04333028005194835
9	0xbf8706813473e0ba	-0.011242875493266847
10	0x3f9584db3a110258	0.02101461927327572
11	0x3f9ba67080000000	0.027002103626728058
12	0x3f974eda4f8dc49c	0.022761736970498533
13	0xbf9707e100000000	-0.02249099314212799
14	0xbf8f7421abead264	-0.015358222064017109
15	0x3fb5206106a2b18d	0.082525314445496
16	0x3fb5558393775c3f	0.08333608961344029
17	0xbfb0d16a205b4089	-0.06569541253998258
18	0x3f9db7326eeada0c	0.029019153613910872
19	0xbfae09432da994c0	-0.05866441662218724
20	0x3fa02285c0000000	0.031513385474681854
21	0xbfbdd9b96277636c	-0.11660345701183211
22	0x3f9ab5c2a3ea81fb	0.026083985571519346
23	0xbfaaac022a0a9479	-0.052093570358274506
24	0x3fc60b2e05abee90	0.17221617962774305
25	0x3f5157ec6c5c7528	0.0010585602589750585
26	0xbfa389da80000000	-0.03816111385822296
27	0x3fa5c54e40000000	0.04252094775438309
28	0xbfa498bfc0000000	-0.04022788256406784
29	0xbfb1582fb7edf47d	-0.06775186768023107
30	0xbfc09dc8b16a602a	-0.12981518423907917
31	0xbfa5346e60000000	-0.04141564294695854
32	0xbfabf1fca0000000	-0.05458058789372444
33	0xbf97a47580000000	-0.023088298738002777
34	0xbfa660a804419f80	-0.04370617916066433
35	0x3fcb6d6235d534ec	0.21427562359386998
36	0x3f557c46b81f0c1a	0.0013113680474681256
37	0xbf94d9474df5dcfa	-0.020360101826978096
38	0xbfa473a1a0000000	-0.03994469717144966
39	0xbfb01b645c823879	-0.0629179693080192
40	0x3fae7bc5f47c47f4	0.05953806504670914
41	0x3fac93503f678e1a	0.05581141256314144
42	0xbfb7943b11c23088	-0.09210557159002708
43	0xbfa9f67120000000	-0.05070832744240761
44	0x3faa6c5eb064c7ed	0.05160804656260596
45	0x3fb23621b332b04b	0.07113848328543886
46	0x3f627152acaa2306	0.0022513022170794787
47	0x3faa21270dc1f0b0	0.05103418391169734
48	0x3fafd1b940000000	0.06214693933725357
49	0xbf9575567c2264da	-0.02095542080551103
50	0x3f7d967e2ea99639	0.007223599338066538
51	0xbfa4776a9bed440e	-0.03997357514766274
52	0x3fac123f67a23be6	0.054826718712426545
53	0xbf90acae80000000	-0.016283728182315826
54	0x3fabd3ae32aaa8e7	0.05434936874856238
55	0x3f881ba4d332b673	0.011771476454977425
56	0x3f924cdad3f10ca0	0.01787130278195248
57	0x3fa860d540000000	0.047613777220249176
58	0xbfb0b0780a2ceae7	-0.06519270180153179
59	0xbfbc4a849af55e0d	-0.11051205428281481
60	0x3fd02ffd694af7f2	0.252929070305867
61	0xbfa801fba0000000	-0.046890128403902054
62	0xbfa19c78e2824b23	-0.03439691319467488
63	0x3f9b83ad80000000	0.026869498193264008
64	0xbfac088ca564c48e	-0.054752726735736265
65	0xbfacf65f4caf2a96	-0.056567171202535224
66	0x3fc6222956e1e82c	0.1729175256949146
67	0xbfae975160000000	-0.05974821373820305
68	0xbfd3780e7aaa65eb	-0.30420267085136626
69	0xbfa4baa0c0000000	-0.04048635810613632
70	0x3fa300285114475b	0.037110576531758276
71	0xbfa866e1fab5d8b4	-0.0476599329512494
72	0x3fc5e931333af0c2	0.1711789608142507
73	0x3fb5ae11a0000000	0.08468732982873917
74	0x3fa1543f80000000	0.03384588658809662
75	0xbf86d1c2e3830b95	-0.011142275398361249
76	0x3f9777185da29c9b	0.02291524955276412
77	0xbfb6d348a3320950	-0.08916143402351406
78	0x3f82ea5981d8a04f	0.009236048960772928
79	0x3f909cdb00000000	0.016223356127738953
80	0x3fc5f3bdc5e8e93a	0.1715008941990364
81	0x3faa1840fdad757e	0.050966292349339234
82	0xbfaf1fb206dec161	-0.06078869184364311
83	0xbfb704ed4ad79725	-0.08991892888260773
84	0xbf9472f4b77cfc4e	-0.019969772052032923
85	0x3fa404ea40000000	0.03909999877214432
86	0xbf98b0991103ccca	-0.024111167586806904
87	0x3fabfaf540000000	0.05464903265237808
88	0x3f8f3aa700000000	0.015248589217662811
89	0xbfc269957ac3f238	-0.14384716505436912
90	0x3fb4ee1220000000	0.08175767213106155
91	0x3faa568a292bd6f0	0.05144149544314114
92	0xbfa88db396ddaa43	-0.04795609680771353
93	0xbfb9c58fc44ade9a	-0.10067080061241498
94	0xbfc239cd146dcbac	-0.14238894937042568
95	0xbf8584bb00000000	-0.010507069528102875
96	0x3fd886e34f075cb5	0.38323290555622275
97	0xbfb2a277f24e24d7	-0.0727915731969405
98	0x3fb7ded68b56f3e2	0.09324398900839939
99	0x3fb01e6e35cf953d	0.06296433271162001
100	0x3fac7acd2186708b	0.05562439951174366
101	0xbfb20c9a00000000	-0.07050478458404541
102	0x3f747ba853896dbe	0.00500074150530899
103	0xbfada392d1b41c85	-0.0578885918603698
104	0xbf9b6d1e24ef9af2	-0.02678343868674466
105	0xbf82fe9300000000	-0.009274624288082123
106	0x3fb24c6920000000	0.07147843390703201
107	0x3f93c6fd87b2b028	0.01931377545103899
108	0x3f593e2d38ed29d0	0.0015407029747672614
109	0x3fa340986b0c6b34	0.037602198665089764
110	0x3fae08be8d9b4c30	0.058660464082685215
111	0xbf8d465f00000000	-0.014294378459453583
112	0x3fa07222c0000000	0.03212078660726547
113	0xbf89b4ce00000000	-0.012551888823509216
114	0xbfb208a700000000	-0.07044452428817749
115	0xbfd80d9ed3e1b77d	-0.37583132449696405
116	0x3f94418b17d42b60	0.019781277970689515
117	0xbf762de200000000	-0.005414851009845734
118	0x3fa4e61640000000	0.040817923843860626
119	0xbf9fd8f800000000	-0.031101107597351074
120	0xbfcd11616f684421	-0.2270929140072733
121	0xbfb2c85720000000	-0.07336945086717606
122	0x3f92715557305864	0.018010457464776045
123	0x3fb6c18dee4c4d58	0.0888909060270654
124	0xbfb26cde20000000	-0.07197368890047073
125	0xbfa73ad3ecc17594	-0.045370695734827354
126	0xbf8411ede5632575	-0.00979982239040809
127	0xbf665d3400000000	-0.0027299895882606506
128	0x3f91d33c00000000	0.017407357692718506
129	0xbfc05f99aaf50d3d	-0.12791748855134158
130	0xbfb29ad926bb17d8	-0.07267529674126594
131	0x3f768209a46b0320	0.005495107331342536
132	0xbfaad47b5f5054b5	-0.05240235842226452
133	0x3fc387be0124f06a	0.1525800233447428
134	0xbfa0fa7f0dc8ed58	-0.033161135132526
135	0xbf95f77700000000	-0.021451815962791443
136	0xbfb9936a3f245582	-0.09990562478590984
137	0x3f83dd622a91605f	0.009699599193638329
138	0xbfba84cf5d780076	-0.10358902008010937
139	0x3fae537440000000	0.05923045426607132
140	0xbfb230887ace7a54	-0.07105305669981848
141	0x3f960ee580000000	0.021541200578212738
142	0xbf6425d26e4ed100	-0.0024594411829302887
143	0x3fd4a9f2e7e04034	0.32287285465372695
144	0x3fb43f2bdc1af423	0.07908891795791866
145	0xbfbbbd1740b8fcb4	-0.10835404710904833
146	0xbfb2f1ba4c997112	-0.07400097246267404
147	0xbf2923c000000000	-0.0001918002963066101
148	0x3fab4f0140000000	0.053337134420871735
149	0xbf87fb64a59c0a1f	-0.011709963134767297
150	0x3f90def2e7b20d12	0.016475482360431455
151	0x3f9735431a74eedf	0.022664116372864803
152	0xbf998f2fda143b1a	-0.02496027725743053
153	0xbfb072819f333285	-0.06424722801893708
154	0x3fb40bf6e0000000	0.07830756157636642
155	0xbf8f802d00000000	-0.015381194651126862
156	0x3fade97ac0000000	0.05842193216085434
157	0x3f64efdfe6ff1d33	0.0025557873813998543
158	0xbf7cbea28c8e8810	-0.007017741162515648
159	0xbfb5dced40000000	-0.08540232479572296
160	0x3f90e29d00000000	0.016489461064338684
161	0xbfb6733a00000000	-0.08769571781158447
162	0x3fa6adbe1cb01ab2	0.04429430103487188
163	0x3f7648019c406418	0.005439764299830528
164	0xbfd4e3110918dcdb	-0.32635904205694793
165	0xbfd6751aa7fed1c8	-0.3508974686222044
166	0xbfab12a7e0000000	-0.052876707166433334
167	0x3f72e8a8cffd7e8c	0.004616412566832328
168	0x3faaa9fc6644540e	0.05207813976645791
169	0xbfa93e6bce7c6d4a	-0.04930436034757209
170	0x3f7097c25b7f2204	0.004050978859546198
171	0x3fb113e7a0000000	0.0667099729180336
172	0xbf478fc55a1a7978	-0.0007190431244515202
173	0xbf9fcfcd366d73e7	-0.031066137740129476
174	0xbfb559a10240ea12	-0.08339887909907187
175	0x3fa49562b4e9eb4f	0.0402022214738823
176	0x3faa9013c0000000	0.05188047140836716
177	0x3fcb7491213f820a	0.21449483989182766
178	0xbf73ce2ae9d2d5c3	-0.004835288648953054
179	0x3fc32862da4c0a3c	0.14966998728785252
180	0x3fa586cfa4dba234	0.04204415213991233
181	0xbfa93502c0000000	-0.049232564866542816
182	0xbfba4a6062fc5fb2	-0.10269739548345916
183	0x3fb4700562ccb930	0.07983430540182179
184	0x3fac128ec0000000	0.054829083383083344
185	0x3f70ae7e00000000	0.004072658717632294
186	0x3fd058b99b5b7cf8	0.25541534587496484
187	0xbfc0c222bc295098	-0.13092455089156796
188	0x3fac3e6b3b9febce	0.05516371825066067
189	0x3f9d96ed00000000	0.028896048665046692
190	0xbfb64a6b0cd9ba56	-0.08707303107960604
191	0x3fa61ce040000000	0.04318905621767044
192	0xbfbfe947de52e50a	-0.12465333154513672
193	0xbfa29ed6c0000000	-0.03636809438467026
194	0x3f849feedf8ac5e8	0.010070673176730119
195	0xbf9d1ba980000000	-0.028425835072994232
196	0x3fbb4c07ebc3d0e5	0.1066288900945583
197	0x3faf4d4ac0000000	0.06113656610250473
198	0xbfa149db16b35e31	-0.03376660015208833
199	0x3f941c2ebf568742	0.01963875811418992
200	0x3fb887ebea8d9bff	0.0958239982261233
201	0xbfb42a7fc0000000	-0.07877348363399506
202	0xbfb64757a0000000	-0.08702609688043594
203	0xbfbd78cadc14c522	-0.11512439606737648
204	0x3fa5d15dab43cdeb	0.042612960010867194
205	0x3f675f2fc4cf507a	0.0028530056938312317
206	0xbfa546d3edfedbdf	-0.04155599861353897
207	0xbfa2ef0880000000	-0.036979928612709045
208	0xbf72dcc73fca6a9a	-0.004605081860655469
209	0xbfa2f5d08cd274cd	-0.03703166693706237
210	0xbfabb927e4b48d4c	-0.054147001903653263
211	0x3fcf9ac1a808e14b	0.2469102926713823
212	0xbfc292c413d58bc3	-0.14510394066300422
213	0xbfb6067820000000	-0.08603621274232864
214	0x3fabeb955ffee174	0.0545317344362414
215	0x3fa7b0aa40000000	0.046269722282886505
216	0x3f714b8200000000	0.004222400486469269
217	0x3fa3fbf09ebd31a2	0.03903152406437306
218	0x3f7ea0d800000000	0.007477611303329468
219	0xbfaa29adcf576880	-0.05109923511527459
220	0xbf90c27adef56e8b	-0.016366882189102355
221	0xbfb510999ecbff6b	-0.08228454710842718
222	0xbfa891637779cd67	-0.04798422654576023
223	0xbf9a93a140000000	-0.025953788310289383
224	0x3fd4c6e1b4328c3e	0.3246387729397532
225	0xbf60e554fbb8f78a	-0.002062479002943489
226	0xbfb381a1edf9078d	-0.07619678554422489
227	0x3fadeb6275ab5743	0.0584364670409472
228	0x3f8e35408616e52d	0.014750007717213432
229	0xbfb6487d60000000	-0.08704360574483871
230	0xbf844ac0998f6163	-0.00990820377948926
231	0xbfb14bafa011a89d	-0.06756112726148662
232	0xbfa506dc83750668	-0.04106797318173677
233	0x3faa8595573bdba4	0.05180041017404527
234	0xbfb3487ec0000000	-0.07532493770122528
235	0xbfb1967a695d2f2b	-0.06870236465800576
236	0xbfb5c8fb26d5a9c0	-0.08509797762022853
237	0x3f79a9b852fae110	0.006265373245405451
238	0x3f4a3b4b4c996040	0.0008005254432630407
239	0x3f9aabbf80000000	0.026045791804790497
240	0xbf82644f00000000	-0.008980385959148407
241	0x3f96f47780000000	0.022416941821575165
242	0x3f99366a80000000	0.024621643126010895
243	0x3fcaf11f8680de2c	0.21048349444912284
244	0xbfb913f01bc56a81	-0.0979604785729098
245	0xbf994ba600000000	-0.024702638387680054
246	0x3fb11002e0000000	0.06665056198835373
247	0x3fb4fc301571faf3	0.08197308085980719
248	0xbfc103d96a94e9f0	-0.13292997078117663
249	0xbfb477b1e0000000	-0.07995139807462692
250	0xbfb453530753012f	-0.07939642838301063
251	0x3fab27bd66b306e3	0.05303756598142486
252	0xbfb1013d20000000	-0.0664251521229744
253	0xbfc1cf03b0fde2fe	-0.13913007871794741
254	0x3fb5b49662d1236b	0.08478679573557961
255	0xbfacdbdb00000000	-0.056364864110946655

linear2.bias f8 [64]
0	0xbfd796717c01b4cc	-0.368557330227145
1	0xbfde71d90b9c42cb	-0.47569872030093724
2	0xbfa8b29083c59f88	-0.0482373391012621
3	0xbfe28e2c74d63e99	-0.5798551828356323
4	0xbfa057972bcc0892	-0.031918262573541814
5	0xbfa15844a5c672f4	-0.03387655757544464
6	0x3fd5ceb1911b1ddc	0.34074057741642405
7	0x3fb38d41724fa081	0.07637414017483658
8	0xbfe21818a3fc01ea	-0.5654414370365519
9	0xbf69bd72722db118	-0.0031420932077052093
10	0xbfe272739acf5678	-0.5764711402541272
11	0x3fa9c8efdd82f2b2	0.05036115244863505
12	0x3fd83ff579e190bc	0.37890374090626344
13	0x3fb44c83855984c2	0.07929250722510786
14	0xbfd68461e397856a	-0.351829979188628
15	0x3fdf69d33e9e4d09	0.49083405604433544
16	0x3fcf1034a1a9a326	0.24268205541309235
17	0x3facea75965c3c1c	0.056476282696273666
18	0xbfd746638c28bfe6	-0.3636711949102377
19	0xbfb0af457047cfd5	-0.06517442694877158
20	0x3fa024e5fdc34973	0.03153151247683441
21	0x3fd4480642683b67	0.3168960236079585
22	0xbf6e2cd88e60c017	-0.003683493577248963
23	0x3fa293a245e4b8cb	0.03628260710898842
24	0xbf4d9a33b8729304	-0.0009033920804496225
25	0x3fd029ec58861fe7	0.25255879063524705
26	0x3fc56b84c5576274	0.16734370837982093
27	0x3fd4dab25b6f9b2b	0.3258481877259551
28	0x3fc6a3227ea6a1f6	0.17685347732664497
29	0x3fd99944a5fabe16	0.3999797459500497
30	0x3fcb689559d06c1a	0.21412913213211554
31	0x3fb83044f774b156	0.09448653260614512
32	0xbfce0f466fe361d5	-0.23484116042415218
33	0x3fdb09dd2b6408a7	0.422477047323023
34	0x3fc175bbc9cbcf45	0.13640544274641733
35	0xbfe6197eb0c92689	-0.6906121685835426
36	0x3f876039129e6f49	0.011413999443724914
37	0xbfb11ae91e7e4584	-0.06681687349762028
38	0x3fb07fdc674ab5cd	0.06445100328229288
39	0x3fda4f8bcc0e0ea2	0.41110510756719
40	0x3f97071a9a59027d	0.022488036795268663
41	0x3fab31ee2599706d	0.05311531266190248
42	0x3fc510ffe2cd62b5	0.16458128523188056
43	0xbf9079ef997a3e94	-0.016090148680233243
44	0x3fb1695d9ebfc98c	0.06801400304519784
45	0x3fb9f11c99ee402d	0.10133532293389243
46	0x3f9733eb82f0f8f5	0.02265899645521415
47	0xbfe11d506bbe17a1	-0.5348283867212907
48	0x3fba48f94658d745	0.10267599074799445
49	0x3fbce5e15af6d171	0.11288269491962467
50	0x3f8371e433b94372	0.009494574383241281
51	0x3fc19335e8171b46	0.1373050101521704
52	0x3f8c6f766b93c335	0.013884472997661138
53	0x3f7e55a309bf77db	0.007405888431064124
54	0x3fca7e9b5a6fc757	0.20698873439647045
55	0x3fbd99c4f3acdc7c	0.11562758397200129
56	0xbfb36f691df30ea4	-0.07591874104678681
57	0xbfb0413c5f23c27a	-0.0634954197191834
58	0x3fb7e2146c802425	0.09329345368327376
59	0x3fe0559b58be9957	0.5104500516215847
60	0x3fb1e7c6fbf21d34	0.06994289065379605
61	0x3f94e283414e0a08	0.02039532743538966
62	0xbfdefe4399ab0a93	-0.48426904684689837
63	0xbfd127653a9d2156	-0.268029505958585

linear3.weight f8 [3, 64]
0	0xbf91529ea8999fbd	-0.01691673187306696
1	0x3fab97f9849957f3	0.05389384978904834
2	0xbfba75482c873d93	-0.10335208022228519
3	0x3fb34566f1909940	0.0752777423627764
4	0xbfc88fd330d69fa4	-0.19188918957411005
5	0xbfc6c37cdebf3666	-0.17784081341089858
6	0x3fd76089b43a8add	0.3652672061963765
7	0xbfba449d740f74c0	-0.1026094826078916
8	0x3fb070b46aaf6208	0.06421973805061765
9	0xbfd66d099bc75279	-0.35040512287859077
10	0x3fb272ee7e9cb887	0.07206621733777939
11	0xbfd3bcedc068aa04	-0.30840629377294726
12	0x3fd82908a8bac3fd	0.37750450589652457
13	0xbfc2138cbe9bd6f2	-0.14122161204402733
14	0x3fc3306b30b567de	0.14991512182569883
15	0x3fd427bc65a7af43	0.3149252884602342
16	0xbfb86edda77ffd8a	-0.09544167842249443
17	0xbfd3bdce130e660d	-0.30845977650605577
18	0x3fc2db886934c770	0.1473246110631936
19	0x3fb9113000ccd7ef	0.09791851062331579
20	0x3fbb27480b5b6939	0.10606813695213625
21	0xbfb9818bd184b3bb	-0.09963296761698263
22	0xbfe5228d42dcb717	-0.6604677492048009
23	0xbfd5a3b4fbb74202	-0.33811688024164266
24	0xbfd35b4c46530e8b	-0.30244738452550085
25	0x3fc3f8b40c4ea701	0.1560273227781224
26	0xbfd49b1a7d73b936	-0.32196676493812804
27	0x3fc022a8fa7e8480	0.1260577414623505
28	0xbfcd28ac00adae8f	-0.22780370743872821
29	0x3fd9b272f743f70c	0.40151666781444884
30	0xbfc34fa128293356	-0.1508676000688875
31	0xbfda97505c6c807d	-0.41548546815648263
32	0xbfda703c1b78083f	-0.41310026819713025
33	0x3fd9c7d3699407e6	0.40282140074134387
34	0x3fda1fcd3f70732d	0.4081910247348784
35	0x3fc297c6f1bbdcc5	0.14525687030229598
36	0x3f71b869b7743362	0.004326260524305821
37	0xbfc29c5608842c59	-0.14539599815211338
38	0x3fb0f06e631a3eb9	0.06616868896002871
39	0x3fdd7064ec5b503a	0.4599849994822339
40	0x3f7064e5ece713a2	0.004002473970506156
41	0xbf9666ba7721407f	-0.02187625267134807
42	0xbfbd7bdad701ee36	-0.11517112492759271
43	0xbfa3e0d6cf3e752b	-0.03882476119836505
44	0x3fb0bfa4040fb7ef	0.06542420481829912
45	0xbfcd7ff5dfea79e2	-0.23046754296679156
46	0x3fc25412ce368f76	0.14319071835518188
47	0x3fc870ef070a34b9	0.19094646304839616
48	0x3fbb80fc82eda49e	0.10743692585460216
49	0xbfd482174a1bb796	-0.3204401229585242
50	0x3fb967f068db1a4c	0.0992422348018433
51	0xbfc87c477a670806	-0.19129270054514808
52	0x3fb819c3243c9e0b	0.09414310106932804
53	0xbfb31c3bca8c2a81	-0.07464955992706203
54	0x3fc1b306651e9f2f	0.13827590882760307
55	0xbfb998a5507b35b2	-0.09998543944239804
56	0xbfee9452aabc9e2a	-0.9556058249190234
57	0xbff007a41ac3382c	-1.0018654866612549
58	0xbfd231901358ff71	-0.2842750729505417
59	0x3fd4ac5a428ec1fe	0.32301956653375885
60	0xbf7ba16a4b896ff8	-0.006745734419919096
61	0x3fa3955c63e44d16	0.03824890822775211
62	0xbfa9ba500e59669d	-0.05024957823907281
63	0x3f930ee5f860356f	0.01861152008500738
64	0xbf9d56ff364c107d	-0.028652179421456914
65	0xbfb9a000192256c6	-0.10009766210199719
66	0xbfb03ad95c130014	-0.06339796541124115
67	0xbfaaa3bce152660d	-0.05203047037612061
68	0xbfadc5b13abfaa6b	-0.058148897572967005
69	0xbfc8ab832d5100d9	-0.19273414337840825
70	0xbfce1a0309294261	-0.23516881892512045
71	0xbfd0ceea92994186	-0.26262916866564756
72	0xbfa2fadc784db95f	-0.03707016914892124
73	0x3fc08b3d0904e2ea	0.12924921932587746
74	0xbfa34c55246584fa	-0.037691746418895236
75	0x3fb7114602db26d4	0.09010732240417535
76	0xbfccdaae359b0b1d	-0.22542359940970239
77	0x3fa3a495408991fa	0.03836504376230106
78	0xbf94f2ba4bcd7964	-0.020457182766557294
79	0xbfdcbd30de22cd13	-0.449047295503264
80	0x3fa25639fc6684c3	0.03581410604534476
81	0x3fb923d603a59765	0.09820306386026585
82	0xbfc0181ddf8aad8d	-0.12573598303911773
83	0x3fb040809c1e2cf5	0.06348422824355622
84	0x3fb6556f9018976b	0.08724114673586107
85	0x3f9347039c0460b8	0.018825584790733457
86	0x3fa0cbc5f11186ea	0.03280466621141705
87	0x3fa6c04b390373e1	0.044435835561422506
88	0xbf8a3724aad82087	-0.012800489867928156
89	0xbfc8fa802cc5bdb8	-0.1951446741690981
90	0xbf9b67aa66bd60ab	-0.026762640496003225
91	0xbfd014fb426eec46	-0.25128060805917973
92	0xbf7f4e478dc07623	-0.0076430125300510935
93	0xbfe744941587d99a	-0.7271213932534011
94	0x3fbcfb7c7c047cf0	0.11321237590572131
95	0x3fb170d294eb85d3	0.06812778602354479
96	0xbfc1c0bc7424fcfa	-0.138694340430426
97	0xbfdcacaafcef7d12	-0.44803881359799036
98	0xbfcc702795df0ff5	-0.2221726877015723
99	0xbfa617fb9a37c7d7	-0.043151724410463714
100	0xbf914abb1153c987	-0.016886637623380742
101	0x3f52605f1efee6a2	0.0011216095845000625
102	0x3fa9c4676de7b6cd	0.05032656876197237
103	0xbfcda3a1e5b7187c	-0.2315561648994765
104	0xbf85e43f896b3500	-0.010689255124271657
105	0xbfbe7d05c20548eb	-0.11909519182998778
106	0x3fa332a2ef7653c4	0.03749570057986021
107	0x3fb607761003b678	0.08605134860018804
108	0x3fa034c58c57a46e	0.03165261591113554
109	0x3fb08e3a4ad7548c	0.06467022254158133
110	0x3f9db9d0ad36982f	0.029029141018007628
111	0x3fa7084b6d38bd58	0.04498515804550135
112	0xbfc5052ddd6762a1	-0.164220555407856
113	0x3f97a22a31764928	0.023079547184871846
114	0x3fb8cc153b5b790a	0.0968640584864923
115	0x3fa14302c89fafa2	0.033714377393919706
116	0xbfb18e4be93ad6b9	-0.06857752269828667
117	0x3f92006bd9e9fe6d	0.017579732108514202
118	0xbfcf16d9f4cd6ae5	-0.24288486912958898
119	0x3f801ccabda61f78	0.007867416298509275
120	0x3fa6f8626e40d64d	0.0448637733065139
121	0x3f8f6c0bba80b298	0.015342799786674008
122	0x3fb56ec7fa29d3b1	0.08372163636688758
123	0xbfd360a74366dfe9	-0.30277425367557825
124	0xbf9b3e66397c07f4	-0.026605221994948594
125	0x3fab6d1d634cf2a0	0.05356685483136414
126	0xbfc4e0130550ca0f	-0.16308820495176277
127	0x3fa64ef2fad8390f	0.04357108413761256
128	0xbfe020cea0322f1c	-0.5040047768429505
129	0xbfd65897e1319e77	-0.3491573046835365
130	0x3fba1d65e018628d	0.10201107712817699
131	0xbfcef7fe62b62ec0	-0.2419431669226153
132	0x3fa84785a093c25f	0.04742066941424094
133	0x3fc8dab2ce03123a	0.1941741472166017
134	0x3fcf076919beeda6	0.2424136520111066
135	0x3fcd3adcdf1b18cd	0.22835884946670718
136	0x3fc08fd0fe51f984	0.1293889276311796
137	0x3fc3c605e185a8c2	0.15448068153211209
138	0xbfa3032b49351f32	-0.03713355320593194
139	0x3fb8b2e11cbdb3a0	0.09647948218999014
140	0x3fa7ce624dddb0a9	0.04649645996582425
141	0x3fbb981bc10bbd90	0.10778974020990106
142	0xbfc89aa073c6ad89	-0.1922188344300191
143	0xbf87735631b8f0a4	-0.01145045603981771
144	0x3fb9cf13e93683cc	0.10081600612330915
145	0x3fb7fd8e2d7f30c9	0.09371269808542872
146	0xbfcc72f1488e5c76	-0.2222577671315979
147	0xbfdb76d7765e52f8	-0.4291285186712197
148	0xbfd7102b4130b7f2	-0.3603618752121057
149	0x3fbe10ad9b39d61e	0.1174419883698978
150	0x3fa8d6a4c42ce585	0.04851260084837875
151	0x3fb073eca826cd35	0.06426886658919247
152	0x3f539f0cdf5c0e13	0.0011975885112754977
153	0x3fc62eb820f8ab6e	0.173300758456516
154	0x3f9369476b3d36f9	0.018956294937473726
155	0x3f85255d33e21d50	0.010325172563411172
156	0xbf7bad1a700fadbc	-0.006756881019991775
157	0xbfd0ca19a3887d57	-0.2623352143291035
158	0x3fbdd6351f69c0d7	0.1165497972194801
159	0x3fb39dc31f3c0fb6	0.07662601006091915
160	0x3fc8e4b9ea103bd9	0.1944801705253372
161	0xbfc702b1d1941ccb	-0.17976973279312455
162	0x3fb59eb50677f64e	0.08445292861866813
163	0xbfd8003ecc2e76ee	-0.37501497211074664
164	0xbfdd4e60303122db	-0.4579086752533336
165	0xbf9568844f417cba	-0.02090651258219787
166	0xbfd5f660193e81f8	-0.34316256013155977
167	0xbf8a638820b68b2b	-0.012885154245685001
168	0xbfdca87f57f47fdd	-0.44778426732409377
169	0x3fc667155f6906bd	0.17502085837081963
170	0x3fb2e850a434c68f	0.07385734566630674
171	0xbfc1e05db95c2675	-0.13965961027888665
172	0xbfe058935c6ffdac	-0.5108124547404507
173	0x3fadf9c036a19f72	0.05854607264410462
174	0xbfcb4deb51678e99	-0.21331540560560283
175	0xbfd113fbfab4c36b	-0.2668447445203614
176	0x3fcc3d15918dc651	0.22061414343947885
177	0x3f90c4b6666b76b9	0.016375398637015624
178	0xbfd88abc68b3a7ae	-0.38346777176649993
179	0x3fb66470c8fbc7c0	0.0874701014215864
180	0xbfd279ec9a05fd46	-0.2886916641363836
181	0xbfb6dd0928d5d3c1	-0.0893102383323159
182	0x3fc59a102360ada0	0.16876413085388453
183	0xbfc8e686e31e78f5	-0.19453512277409116
184	0x3fa657d536de3085	0.04363886160635481
185	0x3f86f04f9c7ffa86	0.011200544322489191
186	0x3fbb5618a264a9b4	0.10678247418096626
187	0xbfb85bb680bd917b	-0.09514942782477036
188	0xbfdef538483039a3	-0.4837170319523471
189	0xbfdde6ca18ef3465	-0.4672112697124418
190	0xbfdcb61ff6b2faf8	-0.4486160191699322
191	0xbfdded944e07286b	-0.4676256906501581

linear3.bias f8 [3]
0	0xbfe32a28c540b250	-0.5988963940231518
1	0x3fca864c1c88a138	0.2072234286618
2	0x3fb524017211576a	0.08258065256936012
