runs/testrun-cnn-fl-5r-20bs-20ep/0/LocalModel-0-Round0.pt (torch, 144783 bytes, 8 tensors)

conv1.weight f8 [6, 1, 5]
00000000: c446 0871 913f 8ebf b667 55c9 f4bd c63f
00000010: 8834 800b 9c30 d1bf f510 526e c9a5 e2bf
00000020: d505 abf0 8a7e e13f 5d16 691b 77e1 c13f
00000030: c377 bbe4 e4a7 c23f bf2c 421b 0517 673f
00000040: 4767 2672 4f11 7cbf 818d 63d2 481f 9ebf
00000050: c1ea f63b c572 843f 52b3 b488 c2d0 a8bf
00000060: 86f7 4426 f73e c33f cf00 2967 4980 d13f
00000070: 6d50 a230 e68e 9c3f 3053 47db 048d d7bf
00000080: 2f67 278a a00f da3f 5817 d5c9 2da6 78bf
00000090: 3266 1ded 458a d0bf 125e e0b5 9db7 c63f
000000a0: 360b bfbf e869 a13f 30c8 6ea1 292a c23f
000000b0: 8211 0487 a184 913f caac 24b3 73ae 9e3f
000000c0: 7106 8f9f e9dc cd3f dda0 e205 0e3d cf3f
000000d0: 638a 0eb6 dc26 a93f 962e e70c 13bc d3bf
000000e0: 82cf c6b3 06f8 d33f 73c3 1cec d4d3 e0bf
-0.014769684087727504 0.17767200308554515 -0.26859189150929597 -0.5827376513193757 0.5466971111820224 0.1396931537475891 0.14574872177666806 0.0028185939536960742
-0.006852445922413803 -0.0294162157450848 0.00998453225371543 -0.04846771162770004 0.150359052358848 0.2734550006316682 0.027888867109667027 -0.3679821149246889
0.40720380298226905 -0.006017855511634661 -0.25843952327486186 0.1774785173481495 0.03401114788677832 0.1419117010351001 0.017107509484973978 0.029962356385266266
0.23330421725227127 0.24405074393621976 0.04912461969731365 -0.30835415134490896 0.31201331669148413 -0.5258583652085761

conv1.bias f8 [6]
00000000: bbf4 8d17 0005 c5bf bab0 be59 9ce0 d1bf
00000010: 4617 e462 eba0 b53f 946e 88de 7716 c9bf
00000020: 8d92 32a3 e5dc cb3f c7b0 a1ed 837a c3bf
-0.16421509885905103 -0.2793341518797764 0.08448668636637277 -0.1959981762491806 0.21767874210958774 -0.15217637160401962

conv2.weight f8 [12, 6, 3]
00000000: 0000 0000 088d acbf 0000 00a0 575d c2bf
00000010: 0000 0040 6418 c2bf 0000 00a0 5630 bfbf
00000020: 0000 0000 f350 afbf 0000 0040 f0cf b0bf
00000030: 0000 0020 d082 c33f 0000 0000 79a0 9e3f
00000040: 0000 0060 c46d c3bf 0000 0000 9afb 8dbf
00000050: 0000 0060 5f44 c43f 0000 0080 3504 a6bf
00000060: 0000 0040 7a99 ccbf 0000 0040 2155 b13f
00000070: 0000 0020 d778 c9bf 0000 0000 2f23 a4bf
00000080: 0000 0080 b8ea a43f 0000 00c0 1610 b33f
00000090: 0000 0020 3486 c93f 0000 0000 bbb7 cabf
000000a0: 0000 0080 c481 a63f 0000 0040 d44f cabf
000000b0: 0000 00a0 1942 c43f 0000 0080 a8d7 a2bf
000000c0: 0000 0040 3216 b63f 0000 0080 3c23 a93f
000000d0: 0000 00a0 a36c c83f 0000 00a0 11be cc3f
000000e0: 0000 00c0 3096 c8bf 0000 0000 c040 3d3f
000000f0: 0000 00c0 6e3a ba3f 0000 00c0 b566 b43f
00000100: 0000 00a0 465c cc3f 0000 00e0 0803 c13f
00000110: 0000 00e0 8416 cebf 0000 00c0 9b9c b33f
00000120: 0000 0020 bb52 c03f 0000 00a0 dc80 cc3f
00000130: 0000 00c0 f152 bfbf 0000 00a0 615f c43f
00000140: 0000 0060 2808 ccbf 0000 0060 67c9 c7bf
00000150: 0000 0000 e787 94bf 0000 00c0 9c9e c2bf
00000160: 0000 0040 2553 ba3f 0000 0000 65f0 c2bf
00000170: 0000 0080 434d c4bf 0000 00e0 99cb ca3f
00000180: 0000 0000 c0d0 383f 0000 00a0 ae55 cc3f
00000190: 0000 00a0 5ee0 c13f 0000 0020 9e10 c6bf
000001a0: 0000 0040 b4e9 b33f 0000 0080 d2cb c2bf
000001b0: 0000 00a0 1bef c23f 0000 0000 6438 7c3f
000001c0: 0000 0040 7ee2 ba3f 0000 00e0 de84 c33f
000001d0: 0000 0060 a6ff ccbf 0000 0020 c858 cd3f
000001e0: 0000 0020 6bed cb3f 0000 00c0 8271 b73f
000001f0: 0000 0060 d698 c8bf 0000 00e0 a31a c53f
00000200: 0000 00e0 63e3 c73f 0000 0000 f221 c5bf
00000210: 0000 00a0 6d3b c03f 0000 00a0 5192 c43f
00000220: 0000 0080 a600 a53f 0000 0040 b0d1 c1bf
00000230: 0000 0040 9c3f bcbf 0000 0060 dbc1 bebf
00000240: 0000 00c0 b88a bf3f 0000 00e0 de04 c4bf
00000250: 0000 0060 7a87 ca3f 0000 0080 7c29 ac3f
00000260: 0000 0040 0fb1 c9bf 0000 0060 74d3 c33f
00000270: 0000 0040 22a4 b5bf 0000 00a0 ce40 cd3f
00000280: 0000 0040 3f01 b0bf 0000 0080 b4b5 b7bf
00000290: 0000 0080 74e8 b7bf 0000 0020 d7e7 bfbf
000002a0: 0000 0080 2baa a5bf 0000 0080 58ac acbf
000002b0: 0000 00c0 3795 be3f 0000 0040 7011 b6bf
000002c0: 0000 0040 4adf bebf 0000 0000 c550 913f
000002d0: 0000 0040 843e b63f 0000 00c0 bc7d b63f
000002e0: 0000 00e0 93c3 cc3f 0000 0040 ef8d c9bf
000002f0: 0000 0040 6147 ba3f 0000 00c0 6c4a c1bf
00000300: 0000 0040 f924 cdbf 0000 0040 8cb1 bd3f
00000310: 0000 0000 d677 babf 0000 0060 94cf c9bf
00000320: 0000 0000 f99a 953f 0000 0020 eb23 c83f
00000330: 0000 0040 a277 b73f 0000 0020 d7df c23f
00000340: 0000 0000 1edf 9abf 0000 0020 31cb c53f
00000350: 0000 0020 22f0 cd3f 0000 00c0 b313 bd3f
00000360: 0000 0020 9f4e cb3f 0000 00c0 f6cb b23f
00000370: 0000 00e0 8af4 cb3f 0000 0040 d13a b4bf
00000380: 0000 0040 b490 be3f 0000 00c0 4e81 bd3f
00000390: 0000 0040 1552 b33f 0000 0080 f5c1 a13f
000003a0: 0000 00e0 7e31 c23f 0000 0060 99e5 c23f
000003b0: 0000 0000 4738 cdbf 0000 0000 3b3b c0bf
000003c0: 0000 0020 7437 cabf 0000 0080 7f2a a2bf
000003d0: 0000 0040 a166 b83f 0000 0040 f4aa c7bf
000003e0: 0000 00c0 5741 c4bf 0000 00a0 5d6c c83f
000003f0: 0000 0060 de9a ca3f 0000 00c0 b372 b03f
00000400: 0000 0040 1fd5 be3f 0000 0060 d1ec ca3f
00000410: 0000 00a0 7084 cc3f 0000 00a0 6a2d cc3f
00000420: 0000 0040 85a8 bdbf 0000 0020 be33 cdbf
00000430: 0000 0000 f974 a7bf 0000 0080 b563 a83f
00000440: 0000 0040 f2bf b83f 0000 0080 dca5 a93f
00000450: 0000 00a0 d9c1 c73f 0000 0080 7065 afbf
00000460: 0000 0080 7303 a63f 0000 0000 61c1 b4bf
00000470: 0000 0060 2120 ce3f 0000 0060 1f98 bdbf
00000480: 0000 00e0 ef3e c73f 0000 00e0 5588 cbbf
00000490: 0000 0040 619c bd3f 0000 00a0 b620 bdbf
000004a0: 0000 0080 4fc5 a93f 0000 0000 93ff 9fbf
000004b0: 0000 0060 45a2 cc3f 0000 00e0 479f c53f
000004c0: 0000 0060 6881 cabf 0000 00c0 768b b93f
000004d0: 0000 0040 f03d b5bf 0000 0080 8798 bcbf
000004e0: 0000 00c0 1cc0 bbbf 0000 00e0 e8b6 c63f
000004f0: 0000 0080 ba51 af3f 0000 0000 02f8 b9bf
00000500: 0000 0080 400a cabf 0000 00e0 2490 c13f
00000510: 0000 00a0 d27d c63f 0000 00e0 33b1 c23f
00000520: 0000 0060 9e08 c53f 0000 0000 6743 943f
00000530: 0000 0060 0b31 cabf 0000 0000 4b0e 9f3f
00000540: 0000 00a0 4680 c83f 0000 0000 1866 88bf
00000550: 0000 00c0 384a bb3f 0000 00e0 f38a c3bf
00000560: 0000 0000 ce90 99bf 0000 0080 474f c6bf
00000570: 0000 0020 a1fd c83f 0000 0080 a09d aebf
00000580: 0000 0040 1ba5 b63f 0000 0020 3cd5 cc3f
00000590: 0000 00c0 98a3 b93f 0000 00a0 a5d0 c0bf
000005a0: 0000 0000 011d c6bf 0000 00e0 90a3 cd3f
000005b0: 0000 00a0 b0ac ca3f 0000 00c0 4b2c bc3f
000005c0: 0000 00c0 aa16 b2bf 0000 00c0 7935 c6bf
000005d0: 0000 0040 92be b13f 0000 0020 0f52 c43f
000005e0: 0000 0000 60a1 73bf 0000 00e0 9968 c83f
000005f0: 0000 00c0 a961 b9bf 0000 0000 a6b0 87bf
00000600: 0000 00a0 14a5 cdbf 0000 0040 8a5c b8bf
00000610: 0000 0060 689a c0bf 0000 00c0 fb38 ccbf
00000620: 0000 0060 d87e bcbf 0000 0080 5e34 ad3f
00000630: 0000 00e0 a040 ca3f 0000 00e0 62fe cc3f
00000640: 0000 0080 d813 a03f 0000 0060 dccc bdbf
00000650: 0000 0020 388c ccbf 0000 0040 6196 cdbf
00000660: 0000 00c0 7887 be3f 0000 00c0 53aa b83f
00000670: 0000 0040 e195 b43f 0000 0040 4d7b b9bf
00000680: 0000 0060 d122 c63f 0000 0000 ce71 88bf
00000690: 0000 00c0 0db4 bf3f 0000 0060 b535 cabf
000006a0: 0000 00e0 065a c23f 0000 0040 950d b63f
000006b0: 0000 0040 7029 b43f 0000 00a0 21c1 c8bf
-0.05576348304748535 -0.1434735804796219 -0.14136937260627747 -0.12183133512735367 -0.06116446852684021 -0.06567288935184479 0.15242959558963776 0.029909029603004456
-0.15178732573986053 -0.014640048146247864 0.1583365648984909 -0.04300086200237274 -0.22343376278877258 0.06770522892475128 -0.1990002542734146 -0.03933092951774597
0.04085327684879303 0.07446424663066864 0.19940806925296783 -0.208732008934021 0.04395879805088043 -0.20556119084358215 0.15826721489429474 -0.03680159151554108
0.08627618849277496 0.049096956849098206 0.19081540405750275 0.22455044090747833 -0.1920834481716156 0.00044636428356170654 0.10245411098003387 0.07969222962856293
0.22156603634357452 0.13290511071681976 -0.23506222665309906 0.07660840451717377 0.1275247484445572 0.22268255054950714 -0.12235938012599945 0.1591608077287674
-0.2189989537000656 -0.1858338564634323 -0.020049676299095154 -0.14546546339988708 0.10283119976520538 -0.14796125888824463 -0.15860790014266968 0.20933841168880463
0.0003786534070968628 0.2213648110628128 0.13965971767902374 -0.17238213121891022 0.07778479158878326 -0.14684516191482544 0.14792199432849884 0.006889715790748596
0.1050185114145279 0.15249238908290863 -0.226551815867424 0.22927190363407135 0.21818293631076813 0.09157578647136688 -0.19216422736644745 0.16487549245357513
0.18662689626216888 -0.1650984287261963 0.126813605427742 0.16071529686450958 0.04102058708667755 -0.13921168446540833 -0.11034561693668365 -0.1201455220580101
0.12321047484874725 -0.15639863908290863 0.20725946128368378 0.05500401556491852 -0.20071592926979065 0.15489058196544647 -0.08453573286533356 0.22854025661945343
-0.06251902878284454 -0.09261634945869446 -0.09339073300361633 -0.1246313527226448 -0.042313918471336365 -0.05600239336490631 0.11946438252925873 -0.08620359003543854
-0.12059463560581207 0.016909673810005188 0.08689142763614655 0.08785609900951385 0.22471855580806732 -0.19964399933815002 0.1026516705751419 -0.13508376479148865
-0.22769084572792053 0.11599041521549225 -0.10339105129241943 -0.2016473263502121 0.021098986268043518 0.18859614431858063 0.09166921675205231 0.1474560648202896
-0.02624174952507019 0.17026342451572418 0.23389078676700592 0.11358188092708588 0.21333684027194977 0.07342474162578583 0.21840034425258636 -0.07902248203754425
0.11939550936222076 0.11525432765483856 0.07547123730182648 0.03468291461467743 0.14213548600673676 0.14763180911540985 -0.2282799482345581 -0.1268075704574585
-0.20481730997562408 -0.03548048436641693 0.09531600773334503 -0.18490460515022278 -0.15824410319328308 0.1908070594072342 0.20785121619701385 0.06425021588802338
0.12043948471546173 0.2103521078824997 0.22279174625873566 0.22013600170612335 -0.11585266888141632 -0.22814156115055084 -0.045814305543899536 0.04763571918010712
0.09667886793613434 0.05009354650974274 0.1856033354997635 -0.061320796608924866 0.04299508035182953 -0.08107572793960571 0.23535554111003876 -0.11560245603322983
0.181608185172081 -0.21509812772274017 0.1156674176454544 -0.1137804165482521 0.05033348500728607 -0.03124837577342987 0.22370211780071259 0.16892336308956146
-0.20707421004772186 0.09978429973125458 -0.08297635614871979 -0.11170241236686707 -0.10840015113353729 0.17745696008205414 0.061170414090156555 -0.10144054889678955
-0.20343786478042603 0.13721142709255219 0.17571480572223663 0.14603279531002045 0.1643255203962326 0.01978836953639984 -0.20462171733379364 0.03032796084880829
0.19141466915607452 -0.011913478374481201 0.106601282954216 -0.1526779979467392 -0.024966448545455933 -0.17429441213607788 0.19524015486240387 -0.059796348214149475
0.08845682442188263 0.22525741159915924 0.10015253722667694 -0.13136740028858185 -0.17276012897491455 0.23155413568019867 0.2083950787782669 0.11005090177059174
-0.0706583708524704 -0.1735069453716278 0.0693141371011734 0.15875424444675446 -0.004792571067810059 0.19069217145442963 -0.09914647042751312 -0.01156739890575409
-0.23160035908222198 -0.0951620489358902 -0.12971214950084686 -0.2204889953136444 -0.11131050437688828 0.05704016983509064 0.20509730279445648 0.22651325166225433
0.031401410698890686 -0.11640717834234238 -0.22302915155887604 -0.2311517298221588 0.11925463378429413 0.09634898602962494 0.08041198551654816 -0.0995376855134964
0.1729375571012497 -0.011935815215110779 0.12384115159511566 -0.20476405322551727 0.14337240159511566 0.08614476025104523 0.07875730097293854 -0.19339390099048615

conv2.bias f8 [12]
00000000: 0000 00a0 7d77 c83f 0000 00e0 f206 cbbf
00000010: 0000 0080 1978 b6bf 0000 0080 97a1 a73f
00000020: 0000 0000 c576 c2bf 0000 0040 4df5 b13f
00000030: 0000 0000 ade1 90bf 0000 0000 a312 9dbf
00000040: 0000 0000 e69c 8a3f 0000 0080 87c7 acbf
00000050: 0000 0080 0481 a43f 0000 0080 543f cabf
0.19114656746387482 -0.21114955842494965 -0.08777007460594177 0.046154722571372986 -0.1442495584487915 0.0701492577791214 -0.01648588478565216 -0.028391405940055847
0.012994572520256042 -0.05620978772640228 0.040046826004981995 -0.20505768060684204

fc1.weight f8 [64, 270]
00000000: 0000 0040 25f2 a0bf e926 fc0b 83f2 a4bf
00000010: 0000 00c0 c7f0 a13f 0000 0080 1967 a23f
00000020: d52e f6ff 9c2e a6bf 9703 a64b ed7e afbf
00000030: 0000 0080 ba36 81bf 0000 00c0 0347 a6bf
00000040: 7d07 29bf 0e41 7f3f 0000 0080 2f88 8bbf
00000050: 9242 4095 5b99 913f 86d1 df58 c759 a3bf
00000060: 4f50 1fa8 b12e abbf 992d a0fd 31f3 a3bf
00000070: d251 93e3 2b18 753f 0000 0080 5516 85bf
00000080: 0000 0080 b16c 8abf 0000 0000 82b5 7c3f
00000090: 0000 0040 5a8c a3bf f688 10c9 4ace 423f
000000a0: 0000 0000 21ae 873f ee9e ff5f 8564 a3bf
000000b0: 459b e251 27e5 91bf 1746 602d a803 b0bf
000000c0: 0000 0040 b097 ab3f 0000 0000 6295 92bf
000000d0: 0000 0040 077e a6bf c5eb 6ebe 8ce9 b3bf
000000e0: 0000 0000 f002 6c3f 3e13 4201 7a96 8b3f
000000f0: 0000 0040 7474 9abf 7379 316b 689d a03f
00000100: 25b8 97c3 028e 943f 0000 0000 ec34 8c3f
00000110: 0000 0040 699f a73f e8b8 dbac 2533 933f
00000120: 1e96 db27 2b1a 8abf 284c e809 440a 813f
00000130: 0000 0080 03b1 97bf 0000 00c0 7967 95bf
00000140: 0000 00c0 c6ff a6bf 3d6b 6ff2 9a7c 923f
00000150: 0000 0000 520b 6fbf 1235 c5e9 2826 a33f
00000160: 7795 f84d db1c 8ebf a61c c8fd c381 9f3f
00000170: 0000 0080 bbae 96bf 0000 0000 c84b a33f
00000180: 0000 00e0 e107 a9bf 0000 0080 7b65 aabf
00000190: 0000 0080 a85a 88bf 6341 e4f3 8b57 ab3f
000001a0: c247 3b8f 822c b4bf 41ec e50d 0d7b 7b3f
000001b0: c559 2e78 d8ea afbf 0000 0040 2773 a9bf
000001c0: 0000 0020 65e5 abbf 0000 0000 00d0 013f
000001d0: 8d54 49ba 3977 a3bf 8890 faab 997f 613f
000001e0: 2f00 dfd6 26f0 b1bf 3636 f47e bf22 94bf
000001f0: 8704 3cb1 d1dc 71bf 4e96 7cbc 6d79 b1bf
00000200: 0000 0000 dcab 6fbf 0000 00e0 605d a4bf
00000210: 0000 0000 9f73 aa3f 0000 0080 4e01 a43f
00000220: db70 f016 2812 963f 5016 0cd1 ecb4 953f
00000230: 4b97 ee6f e326 b1bf bf1e 7fc5 db34 b7bf
00000240: cbc1 b9a9 7f42 94bf 3dfd a5cb 94b7 a0bf
00000250: 2f74 8cc2 b829 afbf 12b8 0f86 1a64 643f
00000260: 1579 475d ca4e 95bf bf15 ce0f aa0a 953f
00000270: d2f6 bce3 b0ab 8bbf b181 3e11 fd9a 96bf
00000280: cae5 6bcd f0f2 97bf e015 a394 d71a 953f
00000290: 74d1 8eee adc5 a5bf dacc 4969 5476 b5bf
000002a0: 6622 d8da 797f b0bf 1d68 45c2 932f b3bf
000002b0: 20cf daec e8b7 90bf 6ed3 62c8 48b8 54bf
000002c0: 0000 0000 c038 5c3f 3b9b af92 5393 9dbf
000002d0: 8c39 fd5e 6c40 9b3f 6a11 409b cf2c aabf
000002e0: 2c48 5776 f427 b6bf 91e5 470b 1dac a3bf
000002f0: 2b0b 0dd3 8f31 9f3f d4c8 d61e 0059 9dbf
00000300: 7466 f81d f5a5 afbf 6292 d2d3 9aa7 aebf
00000310: 6909 e89d 7798 a0bf ac6a 5243 c8ce ab3f
00000320: a4e1 9f71 4d56 94bf 9cd1 749a 20dd 9f3f
00000330: bd22 831a 5d92 8a3f 7a52 c6d8 dfa3 aabf
00000340: 5c56 6a82 24c8 abbf 3b76 41b3 ee7d 7cbf
00000350: 85e5 a28f 75ef 953f f9e3 275a bfed 53bf
00000360: db6d 2bf5 c554 8a3f 6397 27c4 29f2 90bf
00000370: c148 9e48 db45 a2bf df2f c5e6 5923 853f
00000380: 4ad7 73d7 2c56 9ebf 35d7 85c0 cab7 92bf
00000390: bd2c c674 8194 a9bf 7f65 d58f 1041 b5bf
000003a0: f79b 34db 367e 6abf 07c8 e023 1481 78bf
000003b0: 3a9c a6a9 f9c8 a7bf c72a fe4d 5328 b6bf
000003c0: feee 793a ce7a 783f 630b 68cc f2fa 9dbf
000003d0: ac41 1ae4 7d88 a83f 7cd8 4686 f55a aabf
000003e0: b0ca 7bc0 81bb abbf 0c5b 793d 8998 a43f
000003f0: 8ee1 f7a5 3b85 743f 0605 9754 580b 803f
00000400: f91f cf49 0ada 8ebf 3cfe aea4 be0f 9a3f
00000410: 68c9 ea88 d405 8f3f 0000 0000 a09b 8bbf
00000420: fcef 22d9 d278 b0bf b951 47c7 8939 b5bf
00000430: 4645 269f d48e afbf 0000 0000 8680 86bf
00000440: d380 3ea4 edd5 6dbf 0000 00e0 57f0 a0bf
00000450: 0000 0080 4fc0 993f ced1 a06d f94b b0bf
00000460: 366d 89a0 9faf a23f 08cc 7368 477d 9a3f
00000470: 0435 986e e1ef a5bf 0000 0000 836b 86bf
00000480: 0000 0000 dacc 883f 1461 438a fc21 663f
00000490: 0000 0000 a875 513f 0000 0000 baf3 75bf
000004a0: 0a0c 3542 67de a4bf 6d5d cbe1 1574 a1bf
000004b0: f17d f5ce 543e a03f fa40 8582 a65c 95bf
000004c0: f17d 0168 f67a a1bf 30f8 0ca6 894d 9ebf
000004d0: acfa 08c8 55e9 9b3f 0000 0060 7bea acbf
000004e0: 7ae8 f62b 6858 923f 0000 0000 8c0d 5fbf
000004f0: b037 a278 d3b4 b2bf 8790 789d 1e67 b5bf
00000500: 52b0 2237 465b 723f 7971 0e5c f8d5 b1bf
00000510: b841 600e a939 a3bf 0000 00c0 f716 a5bf
00000520: e4df 9b0e e066 aabf 4815 a4a4 ad19 85bf
00000530: f9d1 8928 465d 81bf a068 ea68 0f4f 8abf
00000540: f303 3996 782b 53bf 0000 0000 4b92 98bf
00000550: 531d 32ff 4f5b 983f 5f13 190b ba42 b1bf
00000560: 8f3b c417 5d68 9f3f ece2 449b a0b0 67bf
00000570: 6cab 1693 9027 a83f 0000 0080 0cb1 81bf
00000580: 186c 1421 99dd 91bf 0000 0000 900f 7e3f
00000590: 16f4 0b35 54ee 73bf f775 10d4 e49a a2bf
000005a0: c93c 83e4 ca57 923f 79c4 b2dd 1cc6 9abf
000005b0: 1377 4610 db7a b0bf 26b1 5432 88f7 93bf
000005c0: 0000 0040 895c 99bf 59d4 4320 e9bf 893f
000005d0: c6dc 1bcc 2b16 8c3f a5ed 71d1 0b68 a1bf
000005e0: 0109 747d 65e0 b5bf ae95 a52d 29a7 b6bf
000005f0: 0023 4a55 d5f6 9a3f c369 30f2 29ec b3bf
00000600: 2e2b 855d b895 8fbf 0000 0080 4ca3 acbf
00000610: d16e 88f1 1e91 433f 0000 0000 3f84 a5bf
00000620: 0000 00a0 10ef aebf ec9d 4561 a857 b2bf
00000630: 2b1b ba78 d014 a1bf 89a4 4f13 64d1 9cbf
00000640: 1841 66b7 d57a a5bf dd76 58f5 b6c1 b7bf
00000650: 3a12 cc73 432a b5bf 68be 98ba 1bda 8f3f
00000660: b655 dba7 064b 87bf 2f55 f46f ff87 6ebf
00000670: 801f 780a 0ca2 b6bf 088e 99cd 8911 8e3f
00000680: 2b49 5002 5c3f b5bf 20a9 df0c afe8 963f
00000690: c9f9 21ca 9d80 aabf 5ac0 716b 03b8 893f
000006a0: 5d5c 150a a8e1 b3bf bf17 607f e616 893f
000006b0: 29bb 4371 51a4 993f 07dc 74ed 47f9 9a3f
000006c0: 57f0 ac7e 8c96 b4bf 9feb 4f76 032e 7ebf
000006d0: 6a1e c91b fdd2 abbf 3ec7 46bf 9f97 b1bf
000006e0: 6e8e 1aad 2cbf a93f 9f2e 6a36 5f82 b6bf
000006f0: 631c 9779 5180 b4bf 8a22 b40a 4962 903f
00000700: 5b3d 0aa2 4f68 aebf 4de9 ef70 dca3 a4bf
00000710: 1f59 a27c e945 a4bf 0000 00a0 3c55 abbf
00000720: 0000 0000 1a1a 89bf 0000 0080 9474 8cbf
00000730: 0000 0020 4f71 aabf 2f23 6cdf d9ea a03f
00000740: da5e 9269 e9b4 8d3f 0000 0040 84d3 a9bf
00000750: 123a 9be8 dda2 69bf 0292 07cd 578b a03f
00000760: 0000 0000 fd73 94bf 0000 0000 a54e 863f
00000770: 4bad ab04 8db0 b5bf 98d5 9453 2e6d 91bf
00000780: 18cd 2faf a517 aebf 5340 e16c d676 8cbf
00000790: 5928 fa61 435e adbf 1a37 9da9 628b a5bf
000007a0: 04bd 351e a2c1 8b3f 0000 00c0 ea9f a23f
000007b0: 9bfe 8504 af6f 993f 0000 0000 00bc 8a3f
000007c0: 0000 0000 cc3c 6ebf 0000 0080 2358 8bbf
000007d0: a48e 0cd1 92db a4bf 92f7 67ff d780 aabf
000007e0: be11 9089 f9ad aabf d10a 8091 1aa7 a13f
000007f0: 0000 0000 2005 a7bf af3d 02ca ba71 a8bf
-0.03309742361307144 -0.04091271897602928 0.03504013270139694 0.035942837595939636 -0.043324381108588085 -0.06151525066798696 -0.008405167609453201 -0.043510548770427704
0.007630403141378636 -0.013443347066640854 0.017186575874861783 -0.03779433212176557 -0.053090621731514014 -0.03896480771080774 0.005150004807735491 -0.010296504944562912
-0.012902628630399704 0.007009036839008331 -0.03818017989397049 0.0005739083445670801 0.011562593281269073 -0.03787628933770103 -0.017475714085459577 -0.06255580051244923
0.05389166623353958 -0.018147975206375122 -0.04393026977777481 -0.07778243684053539 0.0034193694591522217 0.013470605052370407 -0.025834862142801285 0.03245092686187236
0.020072978199031994 0.013772815465927124 0.046138085424900055 0.01874979846518779 -0.012745225099432263 0.008320361664152356 -0.023136191070079803 -0.020902540534734726
-0.044920168817043304 0.01805345635134902 -0.0037895776331424713 0.03740051129953249 -0.014703477208125133 0.030768453945736816 -0.022150926291942596 0.03768754005432129
-0.04888826236128807 -0.05155549943447113 -0.011891666799783707 0.05340230323975239 -0.07880416867126797 0.0067091474469363485 -0.0623386046128647 -0.04970667511224747
-0.054484520107507706 3.3974647521972656e-05 -0.03801899336819146 0.002136039867609855 -0.07007067438007718 -0.019663803218511876 -0.004360980139382359 -0.06825910426831536
-0.003866128623485565 -0.03977492079138756 0.051663368940353394 0.039072468876838684 0.021553636932467462 0.02119798685000368 -0.0669996402999377 -0.09065030643170767
-0.019784922346333816 -0.032650613650725614 -0.06086518645154403 0.0024891393700192744 -0.020808374350843446 0.02054849359003241 -0.013511068296448246 -0.022075609376430886
-0.023387682474071338 0.02061020703037808 -0.0425237992962221 -0.08383681841387461 -0.0644451293266087 -0.07494472020098937 -0.01632656045576575 -0.0012646399277802217
0.0017225146293640137 -0.028882318332672723 0.026612942979505713 -0.0511231305136189 -0.08654716386016109 -0.03842249643998764 0.030462500816848575 -0.02865982235170679
-0.061813030155644905 -0.05987247310375633 -0.032413232827837764 0.05431199857522037 -0.019860467968074183 0.031116971423402626 0.012974479075994133 -0.052031512462382204
-0.05426134197220442 -0.006956036017155716 0.021421276943077956 -0.0012163513825937929 0.012857004684909626 -0.01654877910359377 -0.035689213385141645 0.010321333270120135
-0.029625607156922563 -0.01827923584047327 -0.04996113348450979 -0.0830240584522439 -0.003234011784701614 -0.005982474014716749 -0.0464551944344795 -0.08655281690713955
0.0059764915273452495 -0.029277604795434963 0.047916349501181926 -0.05147521270866748 -0.05416493868496752 0.04022625804343791 0.005009873391366061 0.007834138947944169
-0.015064316155886092 0.02545068626545642 0.015147839001063715 -0.013480424880981445 -0.06434362221892792 -0.08290921321105928 -0.061636585643223316 -0.010987326502799988
-0.0036420480191311304 -0.03308367356657982 0.02514766901731491 -0.06365927626104126 0.03649615130117427 0.025868526220573812 -0.042845768690407154 -0.010947249829769135
0.01210947334766388 0.0027017528937954925 0.0010656490921974182 -0.005359388887882233 -0.04075930293267767 -0.03408878690032222 0.03172554994921118 -0.020861245838490007
-0.03414125461199181 -0.029592657813957313 0.027257290205165915 -0.05647645518183708 0.017915370639208984 -0.0018953196704387665 -0.07307168669851083 -0.08360473007684464
0.004481577185441026 -0.06967117545577207 -0.03754928875435176 -0.04119085520505905 -0.0515661256631004 -0.010302883707945867 -0.008478687393314909 -0.012846107854148692
-0.00117003227286738 -0.02399556338787079 0.02378582949725445 -0.06742441912599649 0.030671553207010368 -0.0028918396802989268 0.047176855044503835 -0.008638475090265274
-0.017446892398862074 0.007339060306549072 -0.004865960058620741 -0.03633799637485063 0.01791302699785716 -0.026146365195647257 -0.06437462947220877 -0.019498947212171512
-0.024767059832811356 0.012573071763180165 0.013714162985236544 -0.03399693423940712 -0.08545526802848614 -0.08848817219185065 0.026332219439185955 -0.07782232439823304
-0.015422287324914654 -0.05593337118625641 0.0005971337405443427 -0.042024582624435425 -0.060417670756578445 -0.07165005087664839 -0.03336192582815153 -0.028142512968689224
-0.04195278037798483 -0.09279960145837714 -0.08267613961295064 0.015552727348306664 -0.011373569486219686 -0.0037269581804461253 -0.08841014152142002 0.014681889140041995
-0.08299803787693764 0.022371993218180397 -0.05176251499596025 0.012558008877221184 -0.07766199346711873 0.012250710260570117 0.025040886438485153 0.026341556423371795
-0.0804221925035916 -0.007368100666094528 -0.05434409107379852 -0.0687198488219822 0.05028667080958092 -0.08792681768880549 -0.08008298128616924 0.01599992873983295
-0.05938958027865723 -0.04031266096713413 -0.03959588667309987 -0.053384680300951004 -0.012256816029548645 -0.013894233852624893 -0.051645729690790176 0.03304177143406261
0.014505218061727932 -0.05044186860322952 -0.003129418769140865 0.03231310251047505 -0.01997371017932892 0.010892190039157867 -0.08472520221737516 -0.01701805482044491
-0.058774163851831485 -0.01389853973174141 -0.0573597962475822 -0.04207905121312035 0.01355291990941377 0.03637631982564926 0.024840101862990776 0.01305389404296875
-0.0036910995841026306 -0.01335170492529869 -0.040737712877924964 -0.05176424973249917 -0.05210857204659501 0.03447802568554937 -0.044960975646972656 -0.04774268833090944

fc1.bias f8 [64]
00000000: 7186 e592 f87c 85bf 28ca 2016 da30 7d3f
00000010: 4d5d cf65 f67a a5bf ff92 647e 657e 95bf
00000020: 6f19 edfe 9a2c 713f af96 f22f dd3a 5c3f
00000030: 32dc cf7b 2041 a1bf fa53 4443 433f 4bbf
00000040: 85fc f17a 69aa a5bf 1cb7 82e6 f5f0 723f
00000050: a94a 8713 70bc 903f 5d7e f023 a331 923f
00000060: 9539 9444 c4b8 84bf a54a 879a 1ac6 8cbf
00000070: 9c2a 1427 6424 9c3f 18e2 dfd7 c616 a73f
00000080: a69c 015e 6f47 9d3f 0f88 84a6 3257 a4bf
00000090: 4ce5 03af d131 96bf cb9c 4f96 0b4f a8bf
000000a0: 1208 3b9f 3745 a4bf abba 183c cbe2 aabf
000000b0: 5e6a df57 9f24 803f c15d 7d2f 0b5a a8bf
000000c0: dd5a a732 674d a3bf bbcd 6692 db76 a8bf
000000d0: db79 b6e3 2463 a1bf 206f de73 9af2 82bf
000000e0: 2953 c360 d5a9 6b3f 6e65 7437 d152 9c3f
000000f0: 15d3 034f 2459 733f 4d5c 85e2 0dbd a1bf
00000100: 19f2 d752 ecb1 a9bf c388 d47b 7840 9fbf
00000110: ceac 18ff ac74 953f 73bb 8864 f54c 933f
00000120: 480a d603 3e63 b2bf dc37 d43e 7708 aebf
00000130: e982 c804 33f3 b03f 73ed 6e2a 3d5c b3bf
00000140: c315 3232 a4eb a6bf dbd7 7575 6632 973f
00000150: 2481 af12 926f 86bf 33d7 2cb5 a9e1 83bf
00000160: d472 06c9 ef1a 8abf b4b1 0c19 30ec a7bf
00000170: 8d5b defb 87b9 953f 7cd4 216c 6fe2 773f
00000180: 093c afdd 027b a5bf ec07 e923 30c2 92bf
00000190: 74f3 9ecb 7a11 92bf abb4 7f78 36b1 9e3f
000001a0: d6dc 5bbc 21d3 a93f baf6 b3f4 58d8 a0bf
000001b0: 92d6 ca29 f334 97bf 25c3 c5eb 560b a2bf
000001c0: 3c8e 6b75 90a4 503f c435 51a7 d95e 8e3f
000001d0: 541f 5364 0f1f 8dbf 35e7 0d79 4381 83bf
000001e0: bedb d53f 6ab4 adbf 3687 61e6 70ac 98bf
000001f0: 32ee dd01 2f4e a2bf 259e fe13 cd1a 96bf
-0.010492269499710024 0.007126666927478577 -0.041953754356365815 -0.02098997672978253 0.004192929699291844 0.001723018649309276 -0.03370000373245609 -0.0008315161162807388
-0.04231576562687515 0.004624329136431429 0.016343833152698526 0.01776747614724027 -0.010118039458146192 -0.014049728241763157 0.02748257149236598 0.04509564767062474
0.028592815506638523 -0.0397277668255499 -0.021674419695931577 -0.04747806749201685 -0.03959058588726817 -0.05251155003167204 0.007882351750528812 -0.04756197886188885
-0.03769991391498249 -0.04778181230667707 -0.03395953445145824 -0.009251791630780881 0.0033768813646965113 0.02765967274635755 0.004723684149429604 -0.03464549436710538
-0.05018557082437187 -0.030519373472210242 0.020952895231101824 0.018848261128535392 -0.0718268164983239 -0.058658338946869754 0.06621092669275765 -0.07562620435685634
-0.04476655113925745 0.022653199118813788 -0.010954991526830833 -0.009707761613394794 -0.012746690103818827 -0.04672384553700529 0.021215557811582953 0.0058311798512608
-0.04195412593946208 -0.01831889361552179 -0.01764480464747771 0.029972888092676325 0.05043893265058734 -0.03290060031029669 -0.02266292517261676 -0.035242763787101596
0.0010157976845953784 0.014829349917046104 -0.014219398736159107 -0.009523894435676897 -0.0580170824932149 -0.02409531026967856 -0.03575274369992733 -0.02158661303078992

fc2.weight f8 [3, 64]
00000000: b2cd 172d ab48 9ebf d54c 9434 ffd5 b8bf
00000010: 37f5 1996 02c7 ba3f 2268 67a3 86fd b9bf
00000020: 7ca4 8745 43f7 c1bf 5c33 995f 11cd a8bf
00000030: e4a5 e6ab 51ed 90bf 3be4 68b1 0b51 adbf
00000040: a5db 3498 8e1b 943f 8ad4 ab86 a3b4 afbf
00000050: 2a63 338f 1f3f ae3f d1bb 0267 05ea a83f
00000060: cf7f 47ea d3b9 b2bf f587 f413 451a a93f
00000070: f0ec dfc8 7e7e 9abf 77bf 0506 6d28 b73f
00000080: 5314 0399 a3c1 9b3f 14f9 c2fc c121 b43f
00000090: 43e8 4263 1568 ab3f 4ab7 12ea 5899 b43f
000000a0: 67e8 9178 9c53 aabf 687c f1c3 ae76 b83f
000000b0: 4273 0015 04a3 b83f 5787 6129 af67 b23f
000000c0: 0000 0080 d9d4 a73f 9cec 3c35 3098 b73f
000000d0: c710 94ea 6e10 b33f 4fae af8b f689 c1bf
000000e0: e8f5 dff9 25d4 a03f 11b9 6e3f 804c a0bf
000000f0: 5ffe 69f8 581d 473f 3997 04f0 cfd8 a63f
00000100: 66f8 a981 5ef2 babf 6ef4 e17d 010e b8bf
00000110: 0cbb c0ac e01e b4bf befe cbf9 f179 a33f
00000120: 64b7 20f8 93db acbf 0cc0 85c1 1c83 a63f
00000130: db9a 7296 8fae b13f 3981 89b5 0ce0 a63f
00000140: e134 97ae 16d9 b93f ee31 2a86 ae2e 9d3f
00000150: 61a4 6f70 0d5f b33f 0b6a db21 4da6 993f
00000160: 4385 8053 f07a a13f 024d ddf2 bc1a ab3f
00000170: 3ff0 7ff3 e8d5 b9bf 1532 bcf2 7571 9c3f
00000180: f600 b6a4 a96b a2bf e9b8 5baa c2c8 ab3f
00000190: 64d7 1291 7408 b4bf bc36 45c9 8026 ab3f
000001a0: 314d 2d82 f60f b53f 4253 6dfd 2d8c b1bf
000001b0: f1f6 abbe 7794 b2bf a432 ef96 80c1 adbf
000001c0: e7f0 4c1a 483b b5bf a801 eace dafc b2bf
000001d0: 3a57 32d8 2649 aa3f 95f2 4fce 1212 b23f
000001e0: 78ed bfda 0c44 ad3f ce02 82ae a73c ac3f
000001f0: 0000 0000 1e3f a83f 0000 0000 5031 50bf
00000200: 75e5 3687 989a b63f adf8 c5ab dd04 b0bf
00000210: a4b8 d162 de2e 923f 9e58 e54b 666a b4bf
00000220: 00b6 3eee 7a78 abbf 3864 aab1 7d46 963f
00000230: d072 1f95 3f3f b23f 8b71 f8c0 01ae 5f3f
00000240: f31b ba1b e567 9dbf 6556 8259 8eaf 973f
00000250: 3bcc d03a 6746 b03f 7c7f f9db 9f21 b73f
00000260: 1fbd 7d33 d534 8dbf 2f30 7a36 527a a43f
00000270: 6058 9460 4e7e abbf b0f3 db83 d9c7 b43f
00000280: af6d 0846 ff3d 9abf 5eec 0991 13f4 7ebf
00000290: 5562 50b5 58bc a73f a378 9597 79a4 a0bf
000002a0: 7227 9558 9e8a b13f 8dda 9814 62b5 b7bf
000002b0: 4287 e035 094d b03f 9533 7fa7 bbbd b73f
000002c0: 0000 0040 ade9 b5bf 6601 a1cd cee4 bb3f
000002d0: 13d7 beb6 8d76 ae3f fd55 031f 03ac b7bf
000002e0: 0102 071a 7b0b 9c3f 8d50 dbb1 98a6 b8bf
000002f0: bfcf 0e87 1872 97bf 0299 c5dc 5c8a b93f
00000300: fe6a f78d f4be a23f e8c9 d06c 361d 9a3f
00000310: 144d f466 6b61 87bf 276c a775 aa4a b63f
00000320: ba50 2a61 a6e3 bbbf 4ef2 6ab9 bda2 83bf
00000330: c401 b9e0 36c3 75bf 55f4 400c 769c 923f
00000340: c0ff f954 ca38 b93f a58b 1915 9a9b b53f
00000350: 3c85 8a47 769b 833f c8d4 24bc af92 963f
00000360: 0007 78b4 ae37 b93f 344c e41a 8309 b5bf
00000370: 4a83 df3f d2a4 a73f fa82 6047 844a 8d3f
00000380: 2c83 ee78 7258 913f 9806 c956 17a8 a03f
00000390: 1055 5abf 447f a93f 1bf4 133e c822 af3f
000003a0: 3b89 13c9 7ce5 ad3f 44ec a6f9 91bc 72bf
000003b0: ca75 daf1 1ef0 a5bf 20bd b6d0 9cc5 b4bf
000003c0: c3f8 4f9a 82af b2bf da32 eb3b a6f0 a73f
000003d0: 9626 d044 60d0 9b3f b0ab f27b 90d2 9fbf
000003e0: e48b c04d f932 b4bf f06e 0ef2 aa78 a03f
000003f0: 0000 0040 36e4 b5bf 24cf f05d fc20 b4bf
00000400: 1724 a5d5 cf4f ad3f 43d5 c443 2f80 943f
00000410: f1e1 c9da f5b3 a73f 7fdd d18a 7dc0 b7bf
00000420: 5ce9 eaba 7776 963f d2b7 9a75 b12b b6bf
00000430: 6a2e aa7c f808 b53f 4d9a efcd d75b acbf
00000440: 96e6 1e72 78a8 bdbf 2fc1 ae8a e312 adbf
00000450: af5a c368 c48b 933f 79e5 19bd 317f 7cbf
00000460: d9fb b06f a74a b7bf 9ced 65da 5298 b2bf
00000470: 3f4d 64a6 1d09 b0bf 04f2 23d0 e70a 953f
00000480: 4afb bc26 99fc bdbf b47a 78b7 98ac 99bf
00000490: 4b00 4948 14a2 b0bf 48f9 6f49 609d b5bf
000004a0: 1d75 aa15 1c3c bd3f 863e 512d afe1 ba3f
000004b0: 1d0b c5de fef2 b33f 0ecc 364a e1c0 b63f
000004c0: d1cf 9e90 371a b2bf 707f b181 c3be 9a3f
000004d0: f16c c0e6 e532 4d3f 6e9b cac6 9a20 9a3f
000004e0: 2f75 0c64 e229 a1bf abad 6c13 ec2c b93f
000004f0: e9fe 861c 1034 8d3f 4d3a adff e386 71bf
00000500: f714 f023 9dab ac3f 0a6d adea 923c 8c3f
00000510: 6395 e7e9 0568 b1bf 4fd8 b478 d0f1 9d3f
00000520: 68dd 3de0 e486 b33f 17c8 6e7a c137 9f3f
00000530: 8fd9 16f0 f293 b7bf 344e f8e6 3f5b 9d3f
00000540: 3345 71bb 2ed2 a03f 162b f279 ef38 b5bf
00000550: b4a7 2fdd ee1a ac3f 228b d769 6251 943f
00000560: 4ca9 3f29 3b0e bd3f a564 f19a 39fc b83f
00000570: 298f b034 096a a4bf 5747 8c18 d8a8 a83f
00000580: e70a 1fb2 a203 b53f 2a52 9e95 bf78 a9bf
00000590: cef9 3c14 e5b2 b03f afdc eea5 bdda b03f
000005a0: b1a3 1ef8 ba6f b6bf 820a dbd1 73be b4bf
000005b0: 4697 44de 5827 8ebf d8fc 4d88 78d0 ac3f
000005c0: 05c3 6da8 30dc b2bf 8d1f 8e08 0707 ad3f
000005d0: 81a9 76aa 8445 b6bf cde0 f1f7 9a73 b3bf
000005e0: 748d 4c56 a6b6 aa3f a47f 3d93 5fe6 b8bf
000005f0: 0249 17c1 ec1b abbf 624a 139e 0729 bdbf
-0.029574083926446178 -0.09701533349680187 0.10459915318093214 -0.10152474870065523 -0.14035836119663603 -0.04843954364750999 -0.01653030025196313 -0.05725895443578862
0.019636371650644375 -0.06192503947196666 0.059075342398222055 0.04866043932394571 -0.07314800710400891 0.04902854794114823 -0.02587316609422613 0.09046059987099207
0.027105861868012514 0.07864010258615323 0.05352846943556291 0.08046489443469543 -0.051419152944576045 0.09556095393917163 0.0962374259256196 0.07189459572103139
0.046545788645744324 0.09216595935588362 0.07446950175296073 -0.1370227987348351 0.032868563415813956 -0.03183365606615685 0.0007054027963277579 0.044622896241249106
-0.10526075997947401 -0.09396371196085493 -0.0785961553344629 0.038039743178158045 -0.05636274722961224 0.04396905767760026 0.06906983778990698 0.044678113136571836
0.10096875917880112 0.028498389185687083 0.07566913599988957 0.025048451606247506 0.03414107341110164 0.05293837036756523 -0.10092025704210615 0.02777656835591998
-0.035977650982205775 0.0542660553891084 -0.0782540182288734 0.05302813012040761 0.08227482488773742 -0.06854522168334845 -0.07257793812820147 -0.05811693041286972
-0.08293581621268552 -0.07417075683225127 0.05133935345763381 0.07058827912255546 0.057159806921812384 0.05515026097510188 0.04735654592514038 -0.0009883195161819458
0.08829644490369566 -0.06257424777683936 0.017756914884039646 -0.07974852898527948 -0.053653565962445526 0.0217532767952415 0.07127759352392649 0.0019335763098587723
-0.02871664029819594 0.023130630696491034 0.06357426820686467 0.09035681839440984 -0.01426092685116359 0.03999573626524044 -0.05369801453541423 0.08117446393221317
-0.025627125405760228 -0.007556988174310579 0.04635884488397283 -0.032504844430819156 0.068521401049251 -0.092611436871133 0.06367547574384694 0.09273884619979207
-0.08559687435626984 0.1089600803397893 0.05949824195651678 -0.09246844775346826 0.027387546027741298 -0.0962920603008703 -0.022896178477551873 0.09976749792039999
0.03661312325467313 0.025502062217308025 -0.011416281775871208 0.08707681057369197 -0.10894241211127823 -0.009587747784615488 -0.005313124052520771 0.01817497682371923
0.09852280211089148 0.08440554633265991 0.009573864038716288 0.022043939455404865 0.09850589662530851 -0.08217639357126033 0.04617936162663357 0.014302285602810983
0.016938961630901847 0.032532433837798524 0.049799106939795945 0.06081224210536381 0.05839147524399598 -0.004574365821493013 -0.04284760191260835 -0.08114032836487128
-0.07299057261841128 0.0467578838484763 0.027162079048173547 -0.031076676907712375 -0.07890279911275361 0.03217062191762732 -0.08551348745822906 -0.0786283234927479
0.05724954112026397 0.020020235549244047 0.046294863660424464 -0.09278092040209705 0.021936293395563453 -0.0866042053337133 0.0821681312901831 -0.05538820637575679
-0.11585190569067047 -0.05678473537352812 0.019087857145531014 -0.006957239429192235 -0.09098288037146975 -0.07263677436815502 -0.06263909637737174 0.02054941375625853
-0.11713559337384286 -0.025072466085584735 -0.064973132751221 -0.08443261902718746 0.1141984513182774 0.10500616890316836 0.07792656840051078 0.08888061582437976
-0.07071254044313881 0.026118330756048136 0.0008910772862721611 0.025515001662508245 -0.03352267714783818 0.09834170793754164 0.014259458418450293 -0.004279032344881428
0.05599680961317149 0.013787410532748474 -0.06799351654588785 0.029242761008582637 0.07627706980371374 0.03048612890024324 -0.09210127221635943 0.028668402168547227
0.03285356557956689 -0.08290001609035999 0.05489298295999792 0.019841706953125933 0.11349839932487277 0.0975986483839671 -0.03987149017510056 0.04816317844064482
0.08208672379172875 -0.049749362005205036 0.0652297186288486 0.06583771992778752 -0.08764236981973174 -0.08103107331684536 -0.014723486216620462 0.05627800620913498
-0.07367233383207512 0.05669424037392821 -0.08699826394755485 -0.07598274758663877 0.052174757036733604 -0.09726521820766593 -0.052947424479173236 -0.11390731438886229

fc2.bias f8 [3]
00000000: abac 53df 4dfc afbf 4f4f 29b8 226c cc3f
00000010: 28d2 53d7 7f11 a93f
-0.06247180319936637 0.22205003731016368 0.04896163466938602
