runs/testrun-debuging-20bs-50ep/1/LocalModel-1-Round1.pt (torch, 167767 bytes, 6 tensors)

linear.weight f8 [128, 95]
000000 e6 b6 e4 3f f5 de b3 3f b7 9a 26 b3 2d 13 b9 3f
       0.0776208191861901 0.09794889091299806
000010 8f 73 ed 16 bb b3 c1 bf 83 d9 43 47 8c ad b2 3f
       -0.1382974492979909 0.07296063175076566
000020 e3 6b f9 3f 60 f0 92 3f aa 81 46 8c d4 c3 b5 3f
       0.018495086579019115 0.08501938271229528
000030 ef c7 0c 3a 3b b7 92 3f c7 01 43 ad e1 d4 85 3f
       0.018277097147070206 0.010659945583371034
000040 02 6f 63 b5 a7 97 b0 bf bb bc 71 50 8e 65 a8 3f
       -0.06481407335689585 0.04764981014238275
000050 0f 50 a3 89 ae 2b a0 3f 4d 00 99 8e e4 bd 8d 3f
       0.03158326559210433 0.014522348024115806
000060 77 2a 96 86 f3 e2 a6 3f 19 26 13 88 ae f2 c1 bf
       0.04470025079634337 -0.1402185596873984
000070 9e b1 82 af 8b 05 ab 3f d8 5a f3 c8 71 80 8e 3f
       0.052776684927582126 0.014893425889039788
000080 df 05 84 3d 1b 83 c2 3f 58 1c f7 e2 22 b3 c0 3f
       0.14462605003067971 0.13046680528916244
000090 e7 a9 2c 92 4b 07 b4 bf 4f 1d ac ac 1a 63 c0 bf
       -0.07823631590569101 -0.12802442008271916
0000a0 5b 41 fc c3 ca 12 c1 3f 89 45 20 93 24 d4 aa 3f
       0.13338598794554 0.0523997716519587
0000b0 ef f2 0a e2 ee db b9 bf ca 33 75 79 04 fb b5 bf
       -0.10101216333982753 -0.08586147275236936
0000c0 aa ae b5 eb b1 b8 bf 3f 6f f0 5a 49 0e 04 b8 3f
       0.12391197209006558 0.09381188670062256
0000d0 2a ff 41 55 03 3a a1 bf 4c 00 31 1e 4f 4a c2 3f
       -0.03364572921509386 0.14289273237409572
0000e0 3a d0 b1 ec a7 6d af 3f 51 1f 08 d6 aa 91 ab bf
       0.06138348354662111 -0.05384572851840964
0000f0 99 ab eb 50 00 ea a6 3f 72 ed f6 69 aa 3c 95 3f
       0.04475403774070869 0.020739233701289668
000100 71 00 50 92 cf 1c c2 bf d4 36 c0 da 5b f8 b3 3f
       -0.14150423664250725 0.07800840464207265
000110 a7 86 4d a0 6e e9 96 bf a1 48 43 19 99 02 90 3f
       -0.022374847921475063 0.015634910742683975
000120 9a fc db 81 31 6f 8b 3f bf 84 a9 94 27 df b6 3f
       0.01339567830609516 0.08934256915519521
000130 6a c2 86 c1 7e f5 c1 bf 35 78 ac c0 7e 19 b5 bf
       -0.14030441712886282 -0.08242027477214793
000140 47 48 c6 bb 04 46 9f 3f 18 6f 1c f0 1a 58 a5 3f
       0.0305405368431553 0.041687814531739587
000150 56 b7 ed 9f b5 cf bf 3f f7 be db e2 23 9b ba bf
       0.12426314501291577 -0.10392975128683789
000160 14 c5 6f d7 2b 94 ad bf 15 69 55 de f0 0c c1 3f
       -0.0577710819706089 0.13320742469915872
000170 27 6e a7 7e a0 f9 b8 3f aa 85 62 66 49 5d b3 3f
       0.09755900470866462 0.07564219236021211
000180 bd 92 ee 73 8a 31 bb bf b8 61 7c 50 f1 d0 73 3f
       -0.10622468309754658 0.0048379350989979295
000190 86 25 68 ae e2 05 a0 bf 01 c4 1b 61 89 19 c0 3f
       -0.03129490260114225 0.12577931634544373
0001a0 e3 58 04 f8 e1 a3 b5 3f de 40 8d a1 4b 04 b7 bf
       0.08453190140821536 -0.08990929311881099
0001b0 8e 68 c7 ea 34 a0 a4 3f b0 b0 fe ae 7b d9 b5 3f
       0.04028478017762992 0.08534977934204124
0001c0 f4 cf 46 68 7c a1 a3 bf 97 e9 31 ac c9 c5 b3 bf
       -0.03834141514690251 -0.07723675207117818
0001d0 de 46 21 f1 3f 56 ab bf 16 80 45 b6 de 39 7e 3f
       -0.05339240854722303 0.007379407852880623
0001e0 d3 2b 3a dc 10 b3 ad 3f c5 13 81 a4 ed e7 c0 bf
       0.05800678909607595 -0.13207788975173976
0001f0 23 9e fc 42 ae 91 9a bf fd 32 ef 2e c7 ab a4 bf
       -0.025946352804707595 -0.040373062590878896
000200 b8 c5 7f 96 de 2f c3 bf b8 e9 65 bb 3e 8a c5 3f
       -0.1498983607157649 0.16828140402124148
000210 58 50 6b ea 86 d9 b2 3f e8 b1 fe 79 06 03 c0 bf
       0.07363169882893439 -0.12509232479841548
000220 7f 7d c5 fb 2a d7 c3 3f ad 1b a9 1c 04 99 4b 3f
       0.15500390332725186 0.0008422155454547074
000230 c7 fd b6 e7 84 93 b8 3f b6 9f 62 ca 22 45 a3 bf
       0.09600096375560617 -0.037636840062361385
000240 9a 5a 67 e1 3c 16 b0 bf f9 cf 03 ae 36 e5 bb bf
       -0.06283932211895618 -0.10896627186212972
000250 21 32 79 62 8d 17 75 3f 6b 5b 90 73 24 d4 a8 bf
       0.005149414333186304 -0.04849351797763898
000260 48 85 f5 63 02 6c a6 3f 88 d4 d6 3d 64 c6 bf bf
       0.04379279585078649 -0.12412096509690873
000270 58 13 89 1a b6 55 c0 bf 0b 1c 8b 41 78 cb be 3f
       -0.1276157025878557 0.12029220199757178
000280 11 b5 dd 9e 55 4f ba bf 3d d6 71 46 4c ae a8 3f
       -0.10277304771962671 0.04820478782577851
000290 a1 57 67 4e ac 5e ad bf bf 25 1a 86 7e 3b c0 bf
       -0.05736292321277792 -0.12681561992603282
0002a0 06 73 ae 2c da 50 99 bf f5 28 03 8e 8d ef a0 3f
       -0.02472248933519252 0.03307764395283811
0002b0 e7 a9 ea 07 e5 6c c0 bf 67 01 5b 35 d1 7e c0 bf
       -0.1283232010512869 -0.12887015443085234
0002c0 ce 5c b7 c9 60 09 b3 3f 74 b9 62 cf 54 9c b7 3f
       0.07436184811318755 0.09222917616964371
0002d0 11 ba 86 da 66 6c ba 3f 7b 64 3b 6f 47 7c a0 bf
       0.10321657977213074 -0.03219817383587383
0002e0 0a db 5e 0a b9 05 b9 bf b4 38 77 7d b8 18 bc bf
       -0.09774357321917307 -0.10975220740440045
0002f0 ae af a8 3b cd dd c0 bf f0 51 4c 49 1f 37 c2 bf
       -0.13176885045083736 -0.14230719641695044
000300 74 69 15 f8 f2 f9 c2 bf 4d ae 2b f9 c7 bf a1 bf
       -0.1482528411241436 -0.03466629902490279
000310 49 14 fe 38 0d b9 a9 3f 9d c8 1c a7 f3 9a ba bf
       0.05023995705327217 -0.10392687635320148
000320 77 f7 74 02 7f 98 b1 bf db 60 da c5 c1 c7 aa bf
       -0.06873315629942832 -0.05230527439306495
000330 a9 bb 5c dd c2 90 b2 3f 7d 1f a2 e4 41 18 c3 3f
       0.07252138046599889 0.14917777694449433
000340 34 b4 02 33 c9 85 99 3f da 61 1d 50 21 74 a8 bf
       0.024924415338933595 -0.04776100256885103
000350 24 5b 21 17 47 ab b5 3f 22 6f 44 54 77 01 92 bf
       0.08464474024490848 -0.017583717840451325
000360 33 05 c2 e2 8e cb be bf 09 b3 a8 4a e7 1a bf bf
       -0.12029355083543151 -0.12150426457146692
000370 09 17 9c 0f 36 7c ac bf ad ab 4c d5 7d 88 be 3f
       -0.05563515606449527 0.11927019555575553
000380 cc f1 35 de 55 77 ba 3f 2c 88 a1 36 c9 5f c1 3f
       0.10338341403070855 0.13573565642860907
000390 de 45 18 a3 28 c9 a7 bf 21 ad c2 21 12 8a b0 bf
       -0.04645659438041226 -0.06460679363469925
0003a0 8f 69 07 3c f8 60 a6 3f ff d5 29 09 7a b1 ae 3f
       0.0437085698392422 0.05994778978212522
0003b0 f6 14 d8 86 43 bb bd 3f 7e f1 ae 8e 7c 35 a3 bf
       0.11613866846171902 -0.03751744500866304
0003c0 09 9b 7b 6e c1 2d ba bf df 86 35 e6 12 b9 c1 bf
       -0.1022606749280436 -0.13846050491979775
0003d0 76 3c 5b 14 39 28 83 bf b5 5d 83 86 01 bf 45 bf
       -0.009354062970855486 -0.0006636388252684785
0003e0 c1 56 ff c9 cc d4 b3 bf f2 85 0f 0b 18 fe ab bf
       -0.07746581965997291 -0.05467295775430249
0003f0 78 f9 14 6d 78 0b c1 bf fe e4 21 ef 3c 42 b7 3f
       -0.13316254926935378 0.09085446203416223
000400 2c 89 f6 16 a3 22 c4 bf 17 3d 30 ed 30 4b be 3f
       -0.15730703946344116 0.11833482542737205
000410 0a 5b 42 d3 1e 03 89 bf 4a 59 87 ed f0 e8 b0 3f
       -0.012212982961768332 0.06605439948120764
000420 98 22 5f 6b 22 24 b9 3f 2d 57 01 5a 5f 18 b9 bf
       0.09820761796357613 -0.0980281443347308
000430 f4 39 a0 77 a9 be c2 3f 8c 8a 8a 2f 83 eb ae 3f
       0.14644354191882736 0.06039056735359791
000440 f9 69 ed 9b 00 96 c1 3f a1 8e 93 a6 73 47 b7 3f
       0.137390209328103 0.09093401734167596
000450 fc 19 d6 f1 19 59 b8 bf 18 f8 70 67 d8 e2 b9 3f
       -0.09510957864959119 0.1011176350156976
000460 53 d6 43 33 bd ee bf bf 55 c6 53 11 da 10 b4 bf
       -0.12473661901079795 -0.07838213847187465
000470 75 fe ab f5 26 97 c1 bf 36 e4 cc cd d2 98 b5 3f
       -0.13742529864974853 0.08436315082953247
000480 fd 10 fc 60 c3 3e b7 bf 7d 7d 1d 4f 3f 24 bb 3f
       -0.09080144040860101 0.10602183991931287
000490 9c 02 d6 3d 24 65 c0 3f 9c 27 00 bb f3 b8 b1 bf
       0.12808659571966963 -0.0692283946556515
0004a0 04 a4 11 a8 68 97 a3 bf 0e 97 45 1a f0 a6 6e 3f
       -0.03826453258154319 0.0037417115692503005
0004b0 da 20 2f 62 5f 0b 8c bf 45 50 3a 86 1a be ad 3f
       -0.0136935664976509 0.05809100044749064
0004c0 0a 86 80 94 dc 79 b7 3f 60 43 67 61 a0 5e bb 3f
       0.09170321107423987 0.10691263559352882
0004d0 9b 8f b0 0a 6f bd b3 3f 61 2c 6f 1b 77 16 b1 bf
       0.07710927973727026 -0.06674904269964223
0004e0 15 64 34 c5 af 0e c3 3f fb 82 ab 14 59 88 ad bf
       0.14888569954999356 -0.057680877469243406
0004f0 11 ce 7e 4e d9 6c c3 bf 38 ad 44 a0 1e c9 b6 3f
       -0.15175930340556978 0.08900634205626978
000500 10 5d 74 c7 02 06 bc 3f 10 c8 38 87 02 af c2 3f
       0.10946671838279465 0.14596587755801282
000510 f4 b1 41 a2 2d 9a 74 bf 3b 3d 94 43 e6 94 a2 3f
       -0.005029848343934596 0.03629226279201211
000520 a4 9c 6c 0a 0e b4 be 3f 63 e9 fd 7f d7 1b c2 3f
       0.11993491892336522 0.14147466420747454
000530 c1 5e d0 4b d0 1e c3 bf 06 8c d7 51 82 31 c0 bf
       -0.14937785817959617 -0.12651089664640852
000540 a6 7e 28 e8 b3 c2 c1 3f d9 fe f0 0f ab 1e c3 3f
       0.1387543567261577 0.14937341955555075
000550 80 47 d0 4f e5 da be 3f b7 f9 a9 6c 81 47 a3 3f
       0.12052758406232833 0.037654919161457405
000560 30 db b0 5c 44 e2 a1 bf 96 d9 6a 17 d5 50 bf bf
       -0.03492940551261936 -0.12232715436662142
000570 c4 94 d1 30 d8 99 ae bf f5 ec 65 6f b2 45 a4 bf
       -0.0597674903481589 -0.039594246004492385
000580 2a 69 84 c3 93 3c b5 3f 24 1e 06 ea d5 40 c3 3f
       0.08295558474893441 0.15041612555454364
000590 64 d3 d9 46 86 a5 b9 3f eb eb 70 c6 ea 57 84 bf
       0.10018195371396882 -0.009933313542310493
0005a0 4b 6b d2 36 57 70 9c 3f 68 7a af 2b f3 61 c1 bf
       0.02777229568583132 -0.1358016932781141
0005b0 1d d7 d2 97 9f 73 c2 3f 52 b1 4a 35 02 0e c2 3f
       0.1441535464597842 0.14105250932824248
0005c0 96 20 46 4e 3b c6 aa 3f 7c ea 0e dc c6 77 76 bf
       0.052293637566493675 -0.005485321803400663
0005d0 c3 5f c9 fd 9c 6a c2 bf 18 6e 06 92 cc 20 c2 3f
       -0.1438785781090229 0.1416259491933125
0005e0 c9 00 03 4e 23 29 81 bf 8c f4 5c 83 84 82 b4 bf
       -0.00837924558470639 -0.08011654097659199
0005f0 00 00 00 98 b5 16 c1 bf 00 00 00 40 bc 5f a9 3f
       -0.13350553438067436 0.049558527767658234
000600 00 00 00 e0 98 71 b2 3f 00 00 00 00 a0 61 a3 3f
       0.07204585522413254 0.03785419464111328
000610 00 00 00 80 8e 72 9b bf 00 00 00 50 9a 4b c2 3f
       -0.026804186403751373 0.1429322138428688
000620 00 00 00 40 0a c7 95 bf 00 00 00 e0 b9 04 ac bf
       -0.021267089992761612 -0.05472355708479881
000630 00 00 00 e0 8f 97 ac bf 00 00 00 80 2e 25 a7 3f
       -0.05584382638335228 0.04520554840564728
000640 00 00 00 20 54 da ba 3f 00 00 00 c0 d4 f8 ad 3f
       0.10489393025636673 0.05853905528783798
000650 00 00 00 a8 fa 92 b2 bf 00 00 00 00 7c 7c 8f 3f
       -0.07255522347986698 0.015374153852462769
000660 00 00 00 00 7c e3 bb bf 00 00 00 e0 bd e7 b3 3f
       -0.10893988609313965 0.07775484770536423
000670 00 00 00 40 89 de bb 3f 00 00 00 50 e8 1a c0 3f
       0.10886438190937042 0.12582115083932877
000680 00 00 00 60 11 28 b5 3f 00 00 00 00 2a b0 8c 3f
       0.08264263719320297 0.01400788128376007
000690 00 00 00 80 51 71 97 bf 00 00 00 98 6f f9 b0 bf
       -0.022893212735652924 -0.0663060899823904
0006a0 00 00 00 e8 56 82 c1 bf 00 00 00 10 b9 86 b9 bf
       -0.13679014518857002 -0.09971195831894875
0006b0 00 00 00 00 69 88 aa 3f 00 00 00 40 82 e2 92 3f
       0.05182197690010071 0.01844218745827675
0006c0 00 00 00 00 97 3f b1 bf 00 00 00 00 65 f4 95 bf
       -0.06737655401229858 -0.02144010365009308
0006d0 00 00 00 e8 06 e1 c1 bf 00 00 00 b0 ea 09 c3 bf
       -0.13967977836728096 -0.14874013513326645
0006e0 00 00 00 f0 fd 86 b5 bf 00 00 00 c0 d8 13 a7 bf
       -0.08409106358885765 -0.04507329314947128
0006f0 00 00 00 c0 90 8f c0 3f 00 00 00 b0 ba 45 bc bf
       0.12938126921653748 -0.110438983887434
000700 00 00 00 20 e5 f2 b0 3f 00 00 00 60 f4 fb b2 3f
       0.06620628386735916 0.07415702193975449
000710 00 00 00 80 81 84 8c bf 00 00 00 00 45 fc 82 3f
       -0.013924609869718552 0.009270228445529938
000720 00 00 00 f0 c5 92 c1 3f 00 00 00 40 37 b9 a1 bf
       0.13729166239500046 -0.03461620956659317
000730 00 00 00 08 38 30 c1 bf 00 00 00 c0 d3 e7 b7 3f
       -0.13428402319550514 0.09338115155696869
000740 00 00 00 30 eb 77 be bf 00 00 00 60 55 36 bd 3f
       -0.11901731416583061 0.1141103133559227
000750 00 00 00 e0 44 46 c0 3f 00 00 00 c0 d4 8b bb 3f
       0.1271444410085678 0.10760240256786346
000760 00 00 00 00 19 42 bd 3f 00 00 00 00 d7 a9 9e 3f
       0.11428982019424438 0.029944762587547302
000770 00 00 00 b0 fa bb c1 bf 00 00 00 00 4f 46 9c 3f
       -0.13854917138814926 0.027611956000328064
000780 00 00 00 80 0c d4 a1 3f 00 00 00 b0 24 33 c0 bf
       0.034820929169654846 -0.1265607699751854
000790 00 00 00 a0 20 2c b9 bf 00 00 00 50 2a 95 bd bf
       -0.0983295813202858 -0.11555733159184456
0007a0 00 00 00 80 03 3e 97 3f 00 00 00 80 da 2a a4 bf
       0.02269750088453293 -0.03938944637775421
0007b0 00 00 00 48 75 2e b1 bf 00 00 00 20 ae 30 bc bf
       -0.06711514480412006 -0.11011780053377151
0007c0 00 00 00 80 c9 56 97 bf 00 00 00 60 20 3c b0 3f
       -0.02279200404882431 0.0634174570441246
0007d0 00 00 00 a0 a6 75 b0 3f 00 00 00 80 66 33 89 bf
       0.0642952099442482 -0.012305069714784622
0007e0 00 00 00 00 70 f5 62 bf 00 00 00 a0 59 2b ba 3f
       -0.0023142993450164795 0.1022239699959755
0007f0 00 00 00 c0 2d 14 b6 3f 00 00 00 40 4d 7b a2 3f
       0.08624540269374847 0.0360969677567482

linear.bias f8 [128]
000000 b1 85 c9 84 22 ea b9 bf 78 86 a9 1c d8 07 90 bf
       -0.10122886411547573 -0.015654923200037335
000010 00 00 00 00 87 42 8e bf 19 61 7b 04 67 5b be bf
       -0.01477532833814621 -0.11858219012663475
000020 00 00 00 28 a0 d7 b4 bf bb cc 08 ed be fa c2 3f
       -0.08141518570482731 0.14827715467399635
000030 b4 35 a2 1d 82 a9 a7 3f 19 66 5b 10 19 68 aa bf
       0.04621512042750045 -0.05157545399351821
000040 c9 36 3e 93 c8 61 c1 3f f7 f9 7d 43 aa f1 87 3f
       0.135796615501411 0.011691408333487792
000050 00 00 00 c0 a5 2a b5 3f cd 79 f4 e1 23 fd b1 bf
       0.08268199861049652 -0.07026886240462389
000060 55 e2 46 6c f3 03 c2 bf 00 00 00 e0 f2 27 b1 3f
       -0.1407455710120923 0.06701581925153732
000070 12 e0 23 cd 9b e8 a2 bf 4d c3 d6 10 cc 8a 9a bf
       -0.03693091277267525 -0.025920094039693798
000080 61 9f 38 44 35 e8 b3 bf f2 22 4f e5 75 a8 c1 3f
       -0.0777619639926548 0.1379535073922607
000090 00 00 00 b0 02 fa c0 3f 6c 8e 6c b6 77 73 aa bf
       0.13262971490621567 -0.051662198084412164
0000a0 00 00 00 40 df 94 b5 3f 11 b0 a4 34 70 68 a6 bf
       0.0843028575181961 -0.04376555101984548
0000b0 4d 64 7d 4d cc 82 b1 3f 5a 50 5c 10 9d 49 c0 bf
       0.06840206996766192 -0.12724650668008303
0000c0 d9 df e6 45 87 d3 b1 3f 00 00 00 c0 b4 5b b4 bf
       0.06963391739452564 -0.07952432334423065
0000d0 a2 b3 14 5e 5e 26 94 bf 95 33 0d de d8 63 ae 3f
       -0.019677614681473117 0.05935552321043428
0000e0 6e 5c 7b b7 df f8 bd bf 51 02 92 50 10 ac 9c 3f
       -0.11707876424348893 0.02800012103807809
0000f0 00 00 00 40 46 1e b0 3f 9b c8 5a 92 48 5d b6 bf
       0.06296195089817047 -0.08736089299307752
000100 3d b2 9c f8 a1 47 a8 bf 81 24 90 ff 2e 9e b6 bf
       -0.047421514127880184 -0.08835118998844572
000110 3d 30 e6 9e c7 65 ac 3f 6d 4c b1 eb d5 94 bb 3f
       0.05546401800810983 0.1077398014470405
000120 00 00 00 a0 75 28 bc 3f 3b e3 f4 e9 29 aa a8 3f
       0.1099923625588417 0.04817324620166238
000130 7f 5b 88 8b a5 ce 84 bf 63 29 db 08 cf 3a b1 3f
       -0.010159772225092343 0.06730359998906503
000140 c4 6a 06 bd de b7 97 bf 8a 3a 69 b9 67 aa b2 3f
       -0.02316234616010139 0.07291267658841086
000150 1f b7 c9 bc 24 07 c3 bf a5 b5 cb e4 94 0e b8 3f
       -0.14865550249253887 0.09397249780496127
000160 5c 66 90 bd a0 2c b2 bf bc 15 49 e2 3b 50 c0 bf
       -0.0709934675982366 -0.1274485449704751
000170 47 e4 c1 24 33 7a b9 bf e4 91 93 55 63 e1 68 3f
       -0.0995208706607552 0.0030371608851160626
000180 da e8 fa a3 80 ae 8b bf 5a 21 ef 90 4f 1c a9 bf
       -0.013516430858875262 -0.04904411930289383
000190 5a f1 06 d2 89 cc b8 bf 68 0c 2f c0 4c 57 c2 bf
       -0.09687100770583382 -0.14328917869542868
0001a0 87 55 02 c6 16 03 bf bf 01 20 12 71 2e 33 7a 3f
       -0.12114088377196285 0.006396466648887157
0001b0 26 99 a7 ac 51 28 b9 bf 4b 76 c3 51 5f ff be bf
       -0.09827146973802722 -0.12108417268924503
0001c0 5d fb 17 19 68 f4 a5 3f f2 a6 fa 57 3c 3e c2 3f
       0.042880299628442066 0.1425242833695886
0001d0 d4 8d 01 8c b3 7e c2 bf 58 b0 ac 12 07 1a a1 bf
       -0.14449161850198655 -0.0334017000480748
0001e0 c2 f2 79 29 5a 8f bf bf 00 00 00 a0 bb 56 b4 3f
       -0.12328113091093498 0.07944843918085098
0001f0 f4 12 6b 43 89 ac b3 bf 5c f1 e8 3f ad 0c a2 bf
       -0.07685144325212062 -0.03525296597624347
000200 41 bb a7 77 2f 98 c1 bf 3e 78 da 4f 2f 41 c3 bf
       -0.13745683043040383 -0.15042678259936965
000210 ea 64 49 b2 c8 55 bd 3f 00 00 00 90 9f fe c0 3f
       0.11459020950987378 0.13277048617601395
000220 df d9 3f 36 91 7b bc bf 00 00 00 a0 b4 fc c1 bf
       -0.11126048635910689 -0.1405244618654251
000230 79 ba ae 76 47 0a c2 3f 92 25 70 ac 2b d8 ab bf
       0.14093869490666913 -0.05438362579304647
000240 19 b7 89 8a 6c f5 98 3f a2 b7 0a fe db c5 96 bf
       0.024373718219457084 -0.022239148502812285
000250 f6 65 68 9c 8e a4 91 bf 4f e2 dd cc 37 a4 b3 bf
       -0.01722929792058455 -0.07672451736096629
000260 46 23 96 b2 0e 5a 7e 3f 00 00 00 c0 21 4c b7 3f
       0.007410104191315997 0.09100542962551117
000270 86 f3 8d 3c af fd bd 3f db 37 1a dd 2d 2d c0 bf
       0.11715216854459073 -0.12637875839248988
000280 ad 08 86 50 52 9a c0 bf cf fd e6 98 fd e4 ad bf
       -0.12970951968970237 -0.05838768474086075
000290 00 00 00 00 97 2e 99 3f 41 2d a9 e6 fa 86 91 3f
       0.02459178864955902 0.017116470650120567
0002a0 db 1f b8 80 62 b0 a6 bf 71 7c f0 e0 27 46 be 3f
       -0.04431445904998529 0.11825799218830625
0002b0 cc c6 94 f5 e6 5e a8 3f 00 00 00 a0 8e 6f c3 3f
       0.04759904620949626 0.15184195339679718
0002c0 74 a9 13 e0 06 3f bf bf 00 00 00 80 99 f0 80 bf
       -0.12205546351075275 -0.008271407335996628
0002d0 00 00 00 68 80 7f b6 bf 0c b2 17 f2 78 68 ab 3f
       -0.08788301981985569 0.05353143649321987
0002e0 00 00 00 60 db d3 bd 3f a6 63 5e 7b db a3 b8 bf
       0.1165139302611351 -0.096250264758409
0002f0 ce 10 8b ac d1 bf b0 3f 00 00 00 40 4f 35 aa 3f
       0.06542692625504573 0.051187969744205475
000300 36 43 02 6e fb 1b c3 bf 62 a8 a8 e9 e9 43 c2 3f
       -0.1492914473679094 0.14269756230470693
000310 61 3b 6e 57 bd 60 a9 3f 00 00 00 60 f9 cd b7 3f
       0.04956618969219196 0.09298666566610336
000320 10 63 08 12 94 f2 a7 bf 23 b8 02 39 cc 49 c3 3f
       -0.04677260131956562 0.15068962844583308
000330 5a 55 9f e2 ac 8f ac 3f 69 62 1d 37 bd 78 be 3f
       0.05578365579973861 0.11902983279777292
000340 ae 20 e0 2b 2e 16 c2 bf cf 49 c2 96 d3 62 ba bf
       -0.14130189077719052 -0.10307047300947335
000350 60 6e 11 ab 49 ef 74 3f 00 00 00 00 0e 89 7a bf
       0.005111015097181232 -0.006478361785411835
000360 13 53 14 f9 8c 2f 89 bf 68 9e 62 8c a1 fc c0 bf
       -0.01229772696619017 -0.1327096877550844
000370 10 ec db 63 66 90 7a 3f 63 c2 3c ba c6 aa c2 3f
       0.006485366784313676 0.14583667844410106
000380 aa 6c 2d 0b f8 8f c2 3f 00 00 00 40 f3 51 ba 3f
       0.14501858278058438 0.10281296074390411
000390 76 be 0f 0a 10 8b c0 3f d2 34 bb e7 74 29 a4 3f
       0.12924385539325883 0.03937878922224915
0003a0 00 00 00 c0 09 c5 bc bf 67 b4 2d 7a ec 86 ab bf
       -0.11238156259059906 -0.05376376143872435
0003b0 26 00 4a 03 60 9e 8b bf e0 1d 79 ee 9f 7f 9b bf
       -0.013485670185446063 -0.026854037218326243
0003c0 00 00 00 c0 b2 3b 98 bf 9a 2d da 67 a4 67 b3 bf
       -0.023665230721235275 -0.07580020461516881
0003d0 00 00 00 a0 16 04 c2 3f 31 1d 16 f1 8a b6 b2 bf
       0.1407497674226761 -0.07309788118265172
0003e0 e4 6a 38 a8 c4 4d b5 bf dc 9f 50 76 01 0f af bf
       -0.08321789843504807 -0.06066135949396287
0003f0 1e 95 92 d7 78 6e b4 bf fa 50 5d 30 f2 31 a0 3f
       -0.07981066954615243 0.03163105812441987

linear2.weight f8 [64, 128]
000000 1a 8f 59 45 6d 72 bd 3f 71 97 e8 76 9a 89 be 3f
       0.11502726500617336 0.11928716090241466
000010 00 00 00 00 84 53 8c 3f f3 a9 7b be e9 49 c0 bf
       0.013831168413162231 -0.12725564766817818
000020 00 00 00 70 c1 f4 b8 3f f4 f2 72 a3 6e 11 b8 bf
       0.09748467430472374 -0.09401599398092825
000030 57 24 6e 19 9c 31 c1 bf b5 43 12 ae 2b 78 27 bf
       -0.13432646981917415 -0.00017905743792259528
000040 aa 0b 16 1f f7 5b af bf ce 76 16 e0 55 ae 9f bf
       -0.06124851469487365 -0.030938474466544012
000050 00 00 00 70 37 59 b4 3f 7a 37 15 2e 13 e5 c1 3f
       0.07948633655905724 0.13980331182613864
000060 9b 5a c8 8c e2 1e c2 bf 00 00 00 00 eb 08 b2 bf
       -0.14156753420021037 -0.07044857740402222
000070 4a a9 fe a3 4d f8 b9 3f 86 81 9a 1e 56 ea 9a bf
       0.10144505742815571 -0.026284547441379334
000080 7b ea a2 06 64 cc b4 3f 27 7a ef 31 5b 8e 96 bf
       0.08124375497838258 -0.022027420924013576
000090 00 00 00 70 48 b5 b9 3f 96 97 dd 25 f4 14 93 3f
       0.10042240843176842 0.01863461953271147
0000a0 00 00 00 88 ad cb b3 bf 2e ad d4 92 33 54 ba 3f
       -0.07732662744820118 0.10284731230483565
0000b0 4f 82 23 bb 1c e5 b7 bf b5 44 b9 d3 c8 3d 9b bf
       -0.09333972519699184 -0.0266028765893835
0000c0 2e b6 81 5f 9e 27 60 bf 00 00 00 00 f9 d6 77 bf
       -0.0019720166420061002 -0.0058202482759952545
0000d0 07 ad cc 38 6b 44 b1 3f 25 39 06 97 cd 69 bb 3f
       0.06745023857790865 0.10708317696682863
0000e0 85 c8 68 09 d4 8d bb bf c0 8e 62 ea de cc c1 3f
       -0.10763287763328051 0.13906465954379676
0000f0 00 00 00 50 82 df a7 bf 14 b7 b7 2a 14 0c bf 3f
       -0.0466271135956049 0.1212780575076205
000100 2b 81 1e f6 28 e1 b6 bf bc 98 81 83 9d fd 8d bf
       -0.08937316902893559 -0.014643889022590499
000110 74 b0 65 3b 06 30 79 3f ec 2b d3 7e 40 f3 b9 bf
       0.006149315208272655 -0.10136797996817365
000120 00 00 00 00 3a 00 bd bf 24 8e bc f5 c0 ab b1 bf
       -0.11328470706939697 -0.06902700423648206
000130 cb b4 9a 02 87 9e 94 3f ab 76 aa be 1c e1 bd bf
       0.020135983976321364 -0.1167161908619742
000140 a4 6a d1 79 4f eb 9f bf 23 d3 f1 d6 85 fa 71 3f
       -0.031171075639898974 0.0043893077955672625
000150 88 d4 62 06 18 6a c0 bf 44 61 b3 2c 77 a1 af 3f
       -0.12823772727793803 0.0617787591997421
000160 f0 c5 3f 42 c5 e8 b5 bf 7f d8 a5 b4 b3 46 44 bf
       -0.08558304660234461 -0.0006187798947354799
000170 92 4a 5b a1 33 c8 c2 bf b8 4c da 64 07 ff a4 3f
       -0.14673467043629224 0.04100821596252885
000180 d1 66 4b 37 86 4b 82 3f 4e e2 90 83 d6 de b8 bf
       0.008933113634543773 -0.09715023719844249
000190 0a 55 5c a5 83 51 c0 bf 63 61 1a 1a dd 51 b2 bf
       -0.12748761724711982 -0.07156164061814745
0001a0 5a 40 b1 da 26 c5 b8 bf 69 e9 a7 8d 44 d9 b2 bf
       -0.09675829734010347 -0.07362774332424284
0001b0 01 4a 2c 0c dd 6a af bf 4c 64 52 0e 3b 64 9e bf
       -0.06136217855068438 -0.029679224728713913
0001c0 56 4d f1 76 fe 89 a4 3f 77 6d 21 f3 81 a6 b7 3f
       0.04011531068740719 0.09238445459179966
0001d0 45 3e 53 af f5 bb bf bf b7 6c a2 e5 cc 88 78 3f
       -0.1239617875137294 0.005989838007873497
0001e0 17 cd d6 41 4e 68 a4 3f 00 00 00 b0 77 47 b2 3f
       0.039858289277072405 0.07140300795435905
0001f0 d4 8b fa 9e 3d f5 b4 3f 68 3c 9f 59 33 d5 b0 bf
       0.08186707621875594 -0.0657531827739476
000200 d2 fc 8b 79 56 56 b7 3f 86 48 a0 17 c8 f1 91 bf
       0.09116116015865153 -0.017523886148474797
000210 09 4a 63 91 c8 e3 a7 bf 00 00 00 30 47 31 b2 3f
       -0.046659724948444455 0.07106442376971245
000220 36 7f fb a3 00 fb bd bf 00 00 00 00 5d 19 77 bf
       -0.11711124423481753 -0.005639422684907913
000230 c5 c5 ef 86 aa 71 b5 bf 22 97 05 ff 53 33 bc bf
       -0.08376565737105242 -0.1101582048046024
000240 30 3f 83 e3 b8 17 c3 bf 05 4b ed 40 64 98 74 3f
       -0.14916144475000115 0.005028144469934719
000250 28 5e 3a b3 fe 0b ad bf 23 41 01 2f ab 9b b0 bf
       -0.05673213899461543 -0.06487531564312525
000260 73 b6 99 46 74 08 ad bf 00 00 00 20 ef 89 ae 3f
       -0.05670512544461994 0.05964610353112221
000270 04 20 65 0e 07 5f ba 3f 5b b4 2e 71 7c be bf 3f
       0.10301250554505265 0.12400033725016739
000280 a0 5b 62 d6 38 25 a0 bf e7 77 8c 87 27 ac ba 3f
       -0.03153398148531683 0.10418936785978837
000290 00 00 00 f0 0c 8c bc 3f 21 4a 40 96 b6 8e b0 bf
       0.11151200160384178 -0.06467763107529169
0002a0 d2 dc 9d fd 23 40 a0 3f ca b4 a6 6d a7 7f a7 3f
       0.03173935385614758 0.04589579785838678
0002b0 df 57 39 a1 d4 8b a1 bf 00 00 00 98 8a 5b b5 bf
       -0.034269947701133445 -0.08342806063592434
0002c0 6d e3 36 c8 1d 5f b2 3f 00 00 00 10 76 78 c0 bf
       0.07176386011168541 -0.1286761835217476
0002d0 00 00 00 90 99 04 bd bf b8 e1 05 e4 68 81 af bf
       -0.11335143819451332 -0.06153419288142764
0002e0 00 00 00 80 c4 4a b9 bf f7 e9 3d b0 34 5e b5 3f
       -0.09879711270332336 0.08346871664790699
0002f0 57 13 9f 18 4f b8 b5 bf 00 00 00 70 c2 fa bd 3f
       -0.08484358168705107 0.11710753664374352
000300 d2 b0 91 08 fe ed 86 bf 83 22 fa 2c 17 4d 44 bf
       -0.01119612182284194 -0.0006195414698178667
000310 ed ca 0d c7 e3 4b b7 bf 00 00 00 00 54 ae 52 bf
       -0.09100173577989397 -0.0011401958763599396
000320 64 0d b7 49 f5 67 9a 3f a4 84 da 03 70 52 a2 3f
       0.02578719389363239 0.03578519866028643
000330 c1 a5 3a 1c a8 6a b0 3f 0c 10 34 fa f3 2e 91 bf
       0.06412745179354486 -0.016780674120141767
000340 58 66 b7 5a 4c a5 9d bf ee 09 05 b6 f3 e4 bc bf
       -0.028950875317468622 -0.11286853021469032
000350 96 2a 5d 1a 89 9c c1 3f 00 00 00 30 1c f7 b0 bf
       0.13758958613683053 -0.0662706010043621
000360 1f cb 68 d7 c0 b4 a7 3f 33 d3 cf c5 ae 3f a0 3f
       0.04630091313847217 0.031735860487890476
000370 e5 6e 35 fa a0 24 ba 3f 2b ea bb fe 3d 2b 63 3f
       0.10212141140567217 0.002339955410090929
000380 b0 cf 6f 6e 80 ba c2 bf 00 00 00 a0 1f 3c af 3f
       -0.14631657974643764 0.06100558117032051
000390 f0 f0 aa 65 8e 86 7a bf aa 70 8a 88 22 01 b8 bf
       -0.006475979079081137 -0.09376731713786293
0003a0 00 00 00 20 34 1d af bf d8 94 45 86 c5 94 a7 3f
       -0.06076968088746071 0.04605691207943047
0003b0 ff 0f e1 26 b9 01 bb 3f 41 40 d4 b1 31 03 c1 bf
       0.10549504470060354 -0.13290997679769315
0003c0 00 00 00 e0 10 a7 a0 3f c2 1d 2b 95 cd d8 b4 3f
       0.03252461180090904 0.08143315212065885
0003d0 00 00 00 f0 33 47 bc 3f 24 df cf da 05 ce 6b bf
       0.11046146973967552 -0.0033941377973824172
0003e0 4a 71 c6 58 8f 87 96 bf f3 d8 de 12 11 15 ad 3f
       -0.022001495164304864 0.056801351121451925
0003f0 a3 d5 ae 57 a4 67 b4 3f 1c f1 54 a5 c7 8a b3 3f
       0.07970645085045773 0.07633636270924565
000400 c9 65 c9 9c 0f 73 b0 bf af 4c 21 fd 50 26 a8 bf
       -0.06425569131660959 -0.04716733064619782
000410 00 00 00 20 c0 0c af 3f dc b2 89 25 cd 60 88 3f
       0.060644153505563736 0.011903383930268623
000420 00 00 00 b0 85 72 bb bf e4 47 5c d0 68 3f b3 bf
       -0.10721622034907341 -0.07518630110669694
000430 5b 13 73 bd 72 9f b9 bf 48 fb 89 df dc 33 6f 3f
       -0.1000892365000942 0.00380890979096141
000440 71 bf 20 43 c9 58 b0 3f 8c 1f 75 36 3b 18 b5 3f
       0.06385476960053695 0.08240099029091946
000450 00 00 00 78 36 9e c0 3f e6 e2 8f f5 5e 49 94 3f
       0.12982827052474022 0.019811137903135732
000460 fa e2 11 6d 5e fe 84 3f 00 00 00 90 6e eb b8 bf
       0.01025079508166148 -0.09734240546822548
000470 11 28 5f 5d 9f 81 af 3f d8 51 a8 fa e9 eb 78 3f
       0.061535816333687994 0.006084360104541685
000480 7e 81 1c 6b 61 49 9c bf 40 aa a0 2c 37 a6 c0 bf
       -0.02762367454772762 -0.13007249526101994
000490 00 00 00 f0 53 fe b7 3f ed c4 41 24 95 ad bf 3f
       0.09372448548674583 0.12374241004160398
0004a0 00 00 00 60 31 a3 c0 bf 7b f9 78 b4 ae 58 c0 bf
       -0.12998025119304657 -0.12770637333046495
0004b0 74 29 f1 55 0c 81 ad bf 92 ef 7f ec 80 0a b0 3f
       -0.057625184527370005 0.0626602723495451
0004c0 34 f7 66 54 54 22 b3 bf 00 00 00 d0 de ba b1 bf
       -0.0747425752697069 -0.06925766542553902
0004d0 cb 59 30 69 98 07 b3 3f 5b 98 81 5f d2 78 b8 bf
       0.0743346459206357 -0.09559359389968007
0004e0 89 84 67 75 41 87 c0 bf 11 4c 7b f7 00 49 6e bf
       -0.12912767632136404 -0.003696920288214674
0004f0 00 00 00 d0 7d cb bf 3f e8 74 73 a4 27 67 ae bf
       0.1241987831890583 -0.05938075907190826
000500 d4 45 33 4c 6e 8e 60 bf ee 30 2e d3 f1 02 9e 3f
       -0.0020210413218612975 0.029308107866698067
000510 ff 3a a6 6c b6 b6 b1 bf 69 75 44 9f 51 08 b1 bf
       -0.06919422295161935 -0.06653318537106191
000520 00 00 00 50 3d 2d b5 3f fb bc 28 28 21 39 b2 3f
       0.08272155001759529 0.07118422728011702
000530 dd 73 85 a5 73 d9 b2 bf 5a eb f0 f9 79 c8 93 3f
       -0.0736305502991423 0.01931944454211574
000540 a7 2c 35 c1 33 5a 8b 3f 46 f2 5b 16 03 1f 83 3f
       0.013355640729648078 0.009336494560096342
000550 c2 a9 87 ca 18 f1 bc 3f 47 ee 0b a3 4f 97 ac 3f
       0.11305384583071201 0.05584191193881032
000560 52 bc 5f 25 94 6f b0 3f 66 bb 6f f5 7b 18 a1 bf
       0.06420255577516912 -0.03338992472696738
000570 32 44 35 f2 63 61 87 bf 5c 75 4c 1d b5 84 a8 3f
       -0.011416226224044566 0.04788747770929078
000580 a4 d4 88 0b a9 a0 a1 3f 9a 02 fb 4f 83 88 9f 3f
       0.034428866060275426 0.03079419303571971
000590 b2 15 25 88 a8 67 ba bf 43 41 28 f6 d5 f6 bc bf
       -0.10314420055245568 -0.11314141521166214
0005a0 ef 9c c5 fc b6 ab a3 bf e0 e2 56 d8 7d bf ac 3f
       -0.03841945491404341 0.05614846483098801
0005b0 9e d7 75 e1 e1 1b b0 bf f2 09 06 1f 2f 5c b0 3f
       -0.06292545084383369 0.0639066172352967
0005c0 3b 08 c3 26 5b e2 c0 bf dc 42 12 db 58 73 bd bf
       -0.13190783875148945 -0.11504130695744713
0005d0 d8 ef a7 20 1e 7e 8c bf 2a cb e1 b4 c9 f7 b1 3f
       -0.013912425395567071 0.0701871935469113
0005e0 d8 bc 7e 81 d9 c0 b6 3f 00 00 00 30 d8 65 c0 bf
       0.08888015185833653 -0.12810804694890976
0005f0 d3 d8 7e 2d 62 2e a4 bf 3a 0b 31 3f d4 a5 b9 3f
       -0.0394163780724043 0.10018660109294056
000600 1e f4 dd 70 b9 8a bc bf c0 f9 f3 fc 12 d2 51 bf
       -0.11149176602880614 -0.0010876832419054322
000610 f8 5b a4 cd 88 45 a9 bf 00 00 00 a0 2e 12 a0 3f
       -0.049358630278383886 0.031388718634843826
000620 79 d1 7c af 31 ca 81 bf 00 00 00 50 58 78 bb 3f
       -0.008686435859637897 0.10730506852269173
000630 48 77 6c 77 f0 1d 86 3f 0e a6 3e bc 26 38 92 3f
       0.010799292225381799 0.017792325248285272
000640 94 c7 9e 62 db d9 bb bf bc 14 da 8b c6 90 bb bf
       -0.1087929836055806 -0.1076778499064685
000650 82 2e 9b fb 4d 9b aa 3f 55 41 46 78 c8 9a b4 3f
       0.051966130221981835 0.08048680244815405
000660 ec e3 63 a6 48 b1 ba 3f 00 00 00 00 d5 2a 72 3f
       0.10426763593922289 0.004435379058122635
000670 57 39 9a 86 7e a7 b6 bf ba 6d fa a8 db 5e d7 be
       -0.08849325929825134 -5.571970760033719e-06
000680 3e 59 2d e0 f6 76 95 3f 93 c6 01 8d a3 9e bd 3f
       0.02096162551182456 0.11570188705970912
000690 00 00 00 a0 fd a3 b5 bf 0c 5f 65 5c 60 7e b0 bf
       -0.08453354984521866 -0.06442835098038929
0006a0 2d 3c c5 ee 8d 86 b6 3f 4d 78 7a 55 5d 9e b7 3f
       0.08799063758236576 0.09226020180582957
0006b0 4e 69 e0 d8 51 4f b1 bf 00 00 00 80 41 7e 81 bf
       -0.06761657280768427 -0.008541595190763474
0006c0 8b d3 e5 2f 60 fe 9a bf 00 00 00 c0 b4 9b 9f bf
       -0.026360991404959882 -0.030867408961057663
0006d0 00 00 00 00 de 9c 92 3f 6a d2 ad c4 00 2d b7 3f
       0.018176525831222534 0.09053044130070878
0006e0 00 00 00 40 57 6b 9b 3f 2f 74 4e 8d 22 45 ae 3f
       0.026776660233736038 0.059121207951854486
0006f0 c2 2b 2a 6a 9b 0d b2 bf 00 00 00 80 5d 5e 9b 3f
       -0.07052012769615515 0.026727162301540375
000700 f8 d2 68 0d 39 59 b0 bf a9 8f 19 ad bc f0 b4 bf
       -0.06386143281345003 -0.08179835535116688
000710 22 8d cf f3 b9 8b b3 bf 00 00 00 80 55 e3 9f 3f
       -0.07635080530558416 0.03114064782857895
000720 63 bb 17 53 46 11 a8 3f 9f b0 db 73 10 63 b1 bf
       0.047006795542862155 -0.06791785076683475
000730 e2 f4 da 7d c9 0a b5 bf 1a 4a 23 70 a7 a0 b5 bf
       -0.08219584772719515 -0.08448263633480516
000740 c1 61 61 e3 aa af b7 3f 11 70 f3 11 68 17 b2 3f
       0.0925242238166737 0.07066965521102044
000750 11 45 77 64 2f 1b 83 3f 00 00 00 e0 ee 7c a4 3f
       0.009329195264316444 0.04001566395163536
000760 22 8e 59 cb 24 fd bf bf 35 69 d7 e4 03 09 aa 3f
       -0.12495641674609506 0.050850030598399355
000770 cd 53 e8 05 07 3d bd 3f 7e 8a 82 1c 4d 6d 90 bf
       0.11421245474077964 -0.01604195105086114
000780 b3 be 62 ea ee 3a b1 3f 00 00 00 f0 f2 96 b6 3f
       0.06730550024326014 0.08824079856276512
000790 7c 44 86 f4 c3 a3 b4 3f ad be 68 a6 de 80 a3 3f
       0.08062386245571135 0.038092572988145924
0007a0 00 00 00 98 aa 70 c0 bf 7a 86 c5 3f 5a 69 bb bf
       -0.1284383051097393 -0.10707630211757105
0007b0 5f 0b 45 c0 9b 49 96 bf 9b 8c 5c 45 27 c1 b5 bf
       -0.02176516877194545 -0.0849785370196962
0007c0 00 00 00 00 80 b3 67 bf 13 e7 a5 19 4e 32 b0 bf
       -0.002893209457397461 -0.06326759458707114
0007d0 00 00 00 80 6b 96 81 bf 51 b1 73 92 63 90 b8 3f
       -0.008587684482336044 0.09595320058332858
0007e0 dd ac a6 3f bf 94 bc 3f a5 88 d9 ed f5 ee b3 bf
       0.1116447000883229 -0.07786500031355333
0007f0 90 aa 69 7c 42 35 a1 3f 4f ce a2 66 b7 e4 82 3f
       0.033609464346985196 0.00922530443163008

linear2.bias f8 [64]
000000 27 44 8e f2 19 2e 90 3f 21 c1 4e 62 fa f9 b4 3f
       0.01580086272185013 0.08193936252678614
000010 85 bb 96 b1 c6 f7 bb bf f2 b4 bc fb 24 4f a6 bf
       -0.10924951396621736 -0.04357257435763441
000020 f9 c2 e2 f3 67 fe b1 bf 62 a1 79 00 1d 56 7c 3f
       -0.07028817848437176 0.006918061531543481
000030 65 84 b0 fa 80 fa a8 3f 74 73 58 66 9c ef a8 3f
       0.048786192514179295 0.04870308636984691
000040 f8 2f a7 2d 53 5f a2 3f 82 d2 08 45 b6 31 ab 3f
       0.03588352138794443 0.05311364739137493
000050 11 3d 70 4d f6 61 b1 3f a0 de 5d a4 6d 7a b8 bf
       0.06790103331171717 -0.09561810744150501
000060 24 27 33 a3 4e 94 9c bf 5a 21 ff 98 8d 11 a9 3f
       -0.02790949698536517 0.04896204464563665
000070 dc 2c e8 00 de 6b a0 bf 13 66 d7 b7 36 fc ad bf
       -0.03207296143599489 -0.05856486314923983
000080 8c 35 87 bb 66 70 a8 bf 6c cc c6 79 00 99 bb bf
       -0.04773255385553474 -0.10780337307987659
000090 0d 74 4e 6e 27 49 b7 3f 5f e2 af 2b ab 50 8c bf
       0.09095999186543242 -0.01382573821136751
0000a0 b6 0b 48 b3 2f 79 a1 3f 30 ce ee 97 60 5e c0 bf
       0.03412770331853869 -0.1278801671847858
0000b0 5d 40 b1 5f af 39 b2 bf a7 76 b7 15 2a 48 99 3f
       -0.07119270406951857 0.024689347815970788
0000c0 f6 57 f7 4b 31 4a bd bf 55 c8 fd c6 0c 2b 9f bf
       -0.11441333870547496 -0.030437659879176533
0000d0 79 fb 28 97 e7 ad a5 bf 26 2e f5 b6 c8 18 b3 bf
       -0.042342412187728 -0.07459692446462238
0000e0 6f c1 47 af e4 d4 99 bf ce ca 3e 12 a4 7f b6 3f
       -0.02522618598772069 0.08788514562074143
0000f0 1f 86 8e 88 c8 83 9f bf 2c be 0c fb 1a 45 b9 bf
       -0.030776151022683714 -0.09871071461815778
000100 87 45 5d b2 90 62 b6 bf 9e 6b 1e b7 c8 23 b7 bf
       -0.08744148592565724 -0.09038977118181754
000110 50 27 a9 90 89 79 b6 bf 7f a4 e9 39 eb a2 b7 bf
       -0.08779201299435369 -0.09232969440349058
000120 4f 67 91 b9 24 24 c1 bf 89 bc 18 5f 2f 6d c0 3f
       -0.1339155107587495 0.12833206313505155
000130 8c de d7 25 72 76 9f bf 07 84 1c e6 da a2 8b 3f
       -0.030725272712486304 0.013494215152208623
000140 a8 12 81 52 f8 b3 a3 3f 36 be 7a 1b 62 dc b3 bf
       0.03848243720179784 -0.07758153124699949
000150 47 e7 92 83 ea c4 c0 bf 98 d1 6d cc 52 f3 ba 3f
       -0.1310094015550993 0.10527532092038994
000160 ec ec d8 71 a4 04 9f 3f 7d c6 79 11 37 d3 af 3f
       0.030291146706287117 0.06215831840826256
000170 3a 4c 37 29 72 74 aa bf 72 52 74 4d 3f fa bd 3f
       -0.0516696620285519 0.1170997203919997
000180 c8 91 09 74 e3 4b be 3f 31 c2 26 00 65 a8 a0 bf
       0.11834546645110955 -0.03253474833343651
000190 39 ac 81 77 14 f2 6b 3f 2d 6f 21 d4 ba 54 82 bf
       0.003411331152212618 -0.008950671766960372
0001a0 4b bc 10 36 0a 4c aa bf e4 00 3d 3d 3a b8 b2 bf
       -0.05136138830163669 -0.07312358851504858
0001b0 21 68 14 9f 02 f6 b6 bf 1b 06 1f 8b ca f4 b6 bf
       -0.08969131835729673 -0.08967271706117012
0001c0 22 95 d5 c6 47 14 a7 3f ca d3 de cc 37 11 bb bf
       0.04507660200287435 -0.1057314753696367
0001d0 7b 36 f4 b0 8b 21 89 bf c0 8a 02 bf 63 75 a7 bf
       -0.012271014535623728 -0.045817486826555065
0001e0 65 c7 d2 b5 c2 4c b1 3f 98 40 d2 bd 6d 60 b9 3f
       0.0675775236038852 0.09912763485249554
0001f0 cc 56 72 04 f2 f7 b2 bf 37 20 31 53 0f d8 ab bf
       -0.07409584625778648 -0.05438278093839737

linear3.weight f8 [3, 64]
000000 9b d7 8d 31 25 d7 cb bf 2a b3 4b ce 2d 7e ac bf
       -0.21750321311600093 -0.05565016883142555
000010 eb a5 d1 23 b0 39 af bf 09 3f 19 18 37 46 bb bf
       -0.060986999866894674 -0.10654014910073441
000020 28 ce 8a 05 3c a0 c3 3f 75 4c 16 74 3e ee ae bf
       0.15332746763816485 -0.060411407156743126
000030 18 f6 d8 b8 c9 c2 cb 3f 9d da 4b 5b 4d 47 c6 bf
       0.21688195729977688 -0.1740509696753251
000040 a4 13 3f 44 ab b6 c6 bf 56 0f ca de 08 3c b6 3f
       -0.1774496157869666 0.08685355605308351
000050 e8 15 cb 68 27 d0 c5 3f ae 6e 6f 40 ee 5b c4 bf
       0.17041485421047686 -0.15905550142530472
000060 dc b2 4e a8 4d 14 a7 3f a7 70 ab 91 49 4a 9a bf
       0.04507677726301093 -0.025674008861515187
000070 a9 63 5e fd 2f 00 9c bf 99 60 d2 18 fe 06 b8 bf
       -0.027344465102575963 -0.09385669809342047
000080 d3 f2 de d0 36 16 c1 3f 65 df 23 3b 38 e7 c0 bf
       0.13349042128347452 -0.13205626380635774
000090 13 7e 78 22 21 e7 c2 3f cf 23 b3 97 80 d1 c6 bf
       0.14767851050508848 -0.17826850325789542
0000a0 f1 dc 88 b4 a1 1b ac bf 6c 96 cb dc b3 2f bb bf
       -0.05489831284324421 -0.10619663372525573
0000b0 f6 c6 f9 99 ce 4d ad bf ee cd b5 22 89 a9 b1 3f
       -0.05723424558244787 0.06899315926948876
0000c0 cf be bf ce 5f 92 b2 3f 5a ae bd a0 00 c9 c7 3f
       0.07254599378188263 0.1858216080539588
0000d0 4b 28 15 e0 58 47 b3 bf 42 53 2f 84 40 72 b8 bf
       -0.07530742140548445 -0.09549334742707763
0000e0 81 af 05 1a 9e 87 c4 bf 06 7f 29 43 7a 16 c5 bf
       -0.16038872023215947 -0.16474846152686257
0000f0 87 39 14 7f 10 92 b6 3f d0 5c 84 9e 78 f7 b2 bf
       0.08816626646532742 -0.07408861036343528
000100 fe 5c a4 8b 15 59 c6 bf 0f 2b 25 ad eb 48 87 bf
       -0.1745936328740995 -0.011369553777190981
000110 a7 e7 47 8b a1 b5 c2 3f a2 17 9b f1 31 c2 bd 3f
       0.14616793919395585 0.11624443195895975
000120 9f 9a c3 19 6b 04 bf bf a2 3b 85 f5 9a 5f b1 bf
       -0.12116116885190785 -0.06786507124091526
000130 c7 0d fe 8d c8 a3 b0 bf 99 73 97 99 f4 73 b6 bf
       -0.06499913660632393 -0.08770684003634556
000140 43 96 e0 7c 4f 49 cc 3f 7c 44 90 65 5e d7 b8 bf
       0.22098725888752044 -0.09703626613215194
000150 b6 da ab 07 c7 e3 85 bf 5a 35 de f8 20 25 ab 3f
       -0.010688357278451615 0.05301764524402115
000160 a9 8c b3 72 0f c1 c2 bf b8 9c 9f 51 66 be b6 3f
       -0.14651673412945357 0.08884276860009066
000170 a6 ee fc 50 f0 78 c0 3f 63 90 66 78 9f 90 91 bf
       0.1286907573174762 -0.017153255199119487
000180 b1 3b 73 0a 6b bc c3 3f 38 ef 83 dd 6a f6 c4 bf
       0.15418756494770272 -0.16377006355457424
000190 b3 ce 56 62 25 b4 c4 bf 1d e6 5a 75 09 9c 7a bf
       -0.1617476205989213 -0.006496464678713146
0001a0 b9 f4 56 cd 3c ff 7a bf 11 cf 17 c5 11 fd a6 3f
       -0.006591069706186997 0.044899516400532254
0001b0 28 8a 9b 09 cf 90 cd 3f eb 64 10 a5 b9 b6 b3 3f
       0.23098171204681361 0.0770069149006251
0001c0 ff 13 61 67 36 df b4 bf 73 e7 0d 80 93 0f b6 3f
       -0.0815309526816037 0.08617517353368757
0001d0 b0 29 bd 61 65 9e bf 3f 55 fd 14 a5 79 d7 b3 3f
       0.12351068149761235 0.07750664024660144
0001e0 f5 ca 0e 8f 7f c3 c2 3f af 70 50 02 22 df c5 bf
       0.14659113393061998 -0.17087197411536212
0001f0 a0 d0 e6 9c 35 0a ba 3f 8a 29 ae 1c 73 07 c9 3f
       0.10171828346830347 0.1955398454704887
000200 48 9a 43 17 bf d7 bd bf 8c 4e 07 53 b7 87 90 3f
       -0.11657327955217867 0.016142715876255084
000210 75 54 c5 59 4f cd a6 bf 30 35 52 9d 63 fc b8 3f
       -0.044535140713073774 0.09760115233276134
000220 1d 83 3b 57 a2 aa c3 3f ae 54 53 c3 4f 8e ae bf
       0.1536448408069412 -0.059679501145788336
000230 fb 66 13 77 09 89 b3 3f 88 a8 c7 f1 af 49 aa 3f
       0.07630976826785833 0.05134343935408575
000240 65 5f d9 4f 19 c3 bd bf c7 96 b3 f3 37 87 b1 bf
       -0.116258222574627 -0.06846952152008177
000250 cc 1d 70 20 97 c2 70 3f 4d 2b b8 b2 b1 f0 b8 bf
       0.004091825808252247 -0.09742270100848067
000260 6b 2d d2 22 b4 fb c0 bf 86 9e 62 13 69 17 c5 bf
       -0.1326813859962884 -0.16477693029922963
000270 4a 66 f1 8c 63 5a bb 3f 09 60 a5 dc f1 0b bc 3f
       0.1068479746912995 0.10955726277222778
000280 e1 1b 20 d2 d9 bd c3 bf 65 ae 06 f3 79 55 bc bf
       -0.1542312885287336 -0.11067926581625327
000290 bb de 2b ce ed 9e c1 3f 7b 1c 87 69 85 7c af 3f
       0.13766262595139786 0.06149689591580284
0002a0 15 f5 1d d6 c6 b1 9b 3f 76 61 2d f9 0c f8 c0 3f
       0.027045351809182955 0.13256990591868217
0002b0 5c a4 33 b5 53 cf c1 bf ab e2 25 a7 de 6d b5 bf
       -0.13913961742153702 -0.08370772915612672
0002c0 73 c6 ff 3c 70 e6 86 3f d0 21 ae b0 8c 35 a4 3f
       0.01118171392588183 0.03947105080357327
0002d0 e1 f0 45 20 97 2a a8 3f 49 ab 80 aa a7 c7 a7 3f
       0.047199938478088795 0.04644512134867413
0002e0 49 dd 60 1f d0 ab c2 bf 90 2b 11 d5 0a ae b7 3f
       -0.14586831600329678 0.09249942495186603
0002f0 d1 fe 3e de ae ff c8 3f d8 cd 7c ff b9 8d a1 3f
       0.19530282832965054 0.03428441280120936
000300 df 83 3b 29 c8 4f b0 3f 19 2b 83 c1 42 da 97 3f
       0.06371737486507766 0.02329353624444783
000310 7b ac d8 98 2f 4e cc bf 86 c6 3a 69 69 1e 83 3f
       -0.22113604510500182 0.009335349582531249
000320 c9 9c 6a e3 d0 7e b3 3f 6a 51 f9 3d 46 17 c6 bf
       0.07615380813750784 -0.17258527780598892
000330 3b 4d 80 ff 0f 14 a3 3f 90 51 4b a3 ee dd ae bf
       0.03726243966971273 -0.060286958154082915
000340 bc 05 61 73 a4 f0 b4 bf 1f 6b 8e 52 c2 52 ab bf
       -0.08179691140050854 -0.05336577661292651
000350 33 38 83 92 79 2a b4 3f d2 45 2c b9 ce 8d b1 3f
       0.07877311541526026 0.06857006092857112
000360 84 54 8d 13 19 55 a9 3f 45 84 fa 13 f4 03 c0 3f
       0.049477370869376563 0.12512064910427703
000370 eb 1e e7 87 ec 0f a6 bf 8e bd 4d 5d ec c6 aa 3f
       -0.04309024008722225 0.05229891432724819
000380 83 fa bf b4 0f 65 be 3f d9 5a 1d 9c a7 f7 88 3f
       0.11872957384910347 0.012191113902799188
000390 cf 7f 0d 29 80 8d c5 bf bb a8 c2 d0 70 15 87 bf
       -0.16838075642135528 -0.011271363612042831
0003a0 46 8e 05 c8 82 00 b9 3f 55 16 ac 0f 50 d4 c3 3f
       0.09766404517500246 0.15491677060360823
0003b0 d0 8a 90 a1 1d 54 ba bf 40 e0 ec b5 59 49 ae bf
       -0.10284600443314251 -0.05915336938636573
0003c0 66 f9 ed 20 01 1e b2 bf 46 ad c3 6b 8c ef be 3f
       -0.07077033094353666 0.12084272032705198
0003d0 34 ef e7 4b 99 c9 bb 3f 3c 99 0d fa 70 55 c6 bf
       0.1085449037854545 -0.17448246202111217
0003e0 1e b4 f1 5c a9 3b c0 3f 36 2f 1c 11 7b b8 61 3f
       0.12682072675980377 0.002163162579455059
0003f0 03 9f 88 b6 37 b4 b5 bf ec 30 99 79 93 a7 48 3f
       -0.084781152786146 0.0007523984997504208
000400 07 a5 2f ed 51 2b c5 3f cc 05 64 f2 c6 0e bf 3f
       0.1653845222602188 0.12131923120252636
000410 43 ea 5b f6 f6 10 8e 3f 11 0a c7 da 9e b9 bb 3f
       0.014680795090943671 0.10830109444854254
000420 9b 28 63 9e c8 ab d0 bf d0 97 25 22 f1 69 c4 bf
       -0.26048484294427404 -0.1594830910427718
000430 54 53 c5 e8 16 fa b5 bf 3a 84 cf 76 1e 5c 97 3f
       -0.08584731276398588 0.022812343598961095
000440 a1 3c d4 63 c0 24 c1 bf 3e 3c 8b 35 6d af c5 bf
       -0.13393406748261774 -0.16941609491775184
000450 47 a1 b4 18 67 80 56 3f 69 84 cb 39 41 35 c5 3f
       0.0013733870317285833 0.16568770715733486
000460 2b 7f 41 87 de 89 c7 bf b7 e6 cf f4 c0 8a b0 bf
       -0.18389493564881695 -0.064617213982184
000470 73 32 66 12 f7 d9 bf 3f b2 00 2d 7c 87 82 b0 3f
       0.1244196338577213 0.06449171811709922
000480 d3 ad 7d 9d ff 51 b6 bf 6a 36 a7 34 d8 c8 c5 3f
       -0.08718869776719566 0.17019178935008777
000490 52 2e 52 a8 27 52 d0 bf d4 72 45 35 b5 42 aa 3f
       -0.25501433789825 0.05129019046100827
0004a0 28 e2 79 c9 53 06 a1 3f d4 69 38 15 0f ea c0 3f
       0.03325139841485153 0.13214291130209566
0004b0 b7 d3 9b 48 2f 98 b9 bf d3 f5 c7 cd 8b 0d c0 bf
       -0.09997840426133463 -0.12541339443116203
0004c0 8e 21 81 a6 ed 13 93 3f 89 6d d2 19 bd ce b1 bf
       0.018630708015082535 -0.06956083183688667
0004d0 4f e8 06 a8 8f b6 c7 bf b5 04 22 e2 89 46 a6 bf
       -0.18525882439081662 -0.04350691686068712
0004e0 39 73 99 36 6a 01 c3 bf 69 d2 41 f1 e1 fb b4 3f
       -0.14848067918765098 0.08196842327181177
0004f0 79 e4 36 12 69 8a c8 3f c2 f5 c5 3e b0 35 b7 3f
       0.19172395123840483 0.09066297085333644
000500 5b 6c 1a dc 8a 28 ac 3f a6 12 5e 9d ca 2d c9 bf
       0.05499681412512621 -0.19670994457205387
000510 e6 76 de e4 ed 52 bc bf 67 0a 4e d8 df c4 66 bf
       -0.11064040029165376 -0.002779423901700984
000520 0f f6 63 d9 eb 08 9f 3f 2b de 77 91 d5 9e bf 3f
       0.03030746950479651 0.12351736833067466
000530 7e ce 7b 5c 0a f5 a9 3f c5 e3 c2 34 02 27 b3 bf
       0.05069763544989046 -0.07481397426717169
000540 5d 13 30 03 f8 f1 c1 bf 65 17 a2 44 27 b9 92 bf
       -0.14019680171636653 -0.01828442913440344
000550 12 43 72 8e 22 36 b4 3f 3c d8 66 65 4d d7 d2 bf
       0.07895103433316944 -0.29439101126206757
000560 1d de 40 77 ea 42 a2 3f a1 52 ca 2c e9 64 c3 bf
       0.0356667776654229 -0.15151705443408495
000570 d2 26 03 7f 87 58 cc bf c5 8a e5 1e 4e f8 a8 3f
       -0.22145169927380565 0.04876941802173954
000580 c7 e3 4c d3 f1 b8 a3 bf 0d cc 10 9e 04 4e 9a 3f
       -0.03852039055204375 0.025688240191993162
000590 34 9d c8 b6 3b 1f b6 3f 8a 03 6e d1 4f 28 bf 3f
       0.08641408169261383 0.12170885909109877
0005a0 2b e1 cf c4 f8 9d b8 3f 42 50 90 87 7c 90 9d bf
       0.09616045765858831 -0.028871484541085353
0005b0 a2 76 59 8e 6b d0 bb 3f b5 f4 19 2a e0 9c ba bf
       0.10864898896530886 -0.10395623233667346
0005c0 eb c9 c3 5e 7f 17 96 bf 80 94 d1 4b e7 6d ba bf
       -0.021574011000618325 -0.10323949433366586
0005d0 7e 64 94 36 62 14 97 bf 50 35 06 4f e3 77 ba 3f
       -0.022538694936063745 0.10339184455206873
0005e0 12 7f 00 4c bc 0d c2 bf 18 fe bf 60 bb 8d 8e 3f
       -0.14104417525322127 0.014918769731592937
0005f0 f5 9c 43 f3 89 bc ae 3f db f4 60 ff 4b a0 ab 3f
       0.0600321874097122 0.05395734302917684

linear3.bias f8 [3]
000000 93 47 09 0f cd 4d c6 bf 56 c2 a2 8f 03 ed c8 bf
       -0.1742492984217817 -0.19473309052911486
000010 a4 13 58 dd d5 c7 b9 3f
       0.10070549634845222
