runs/testrun-mlp-final-20r-40bs-100ep/0/LocalModel-0-Round5.pt (torch, 167767 bytes, 6 tensors)

linear.weight f8 [128, 95]
0	0xbfb5474800000000	-0.08311891555786133
1	0xbf9032f280000000	-0.015819348394870758
2	0x3fa23ff100000000	0.035644084215164185
3	0x3f9a849a00000000	0.025896459817886353
4	0xbfb24f8b60000000	-0.07152625173330307
5	0xbfa0209d00000000	-0.03149881958961487
6	0xbfa4758f00000000	-0.03995940089225769
7	0xbfb72bfc20000000	-0.0905149057507515
8	0x3fb4ce1980000000	0.08126983046531677
9	0x3f80c60200000000	0.008190169930458069
10	0xbfa4442100000000	-0.039582282304763794
11	0xbfa6b01240000000	-0.044312067329883575
12	0xbfb2c6fb00000000	-0.07334870100021362
13	0x3fb279f500000000	0.07217341661453247
14	0xbf705a9400000000	-0.003992632031440735
15	0x3fb562fb40000000	0.08354158699512482
16	0xbfb5290720000000	-0.08265728503465652
17	0x3fa1cfbf80000000	0.034788116812705994
18	0xbfa51e07c0000000	-0.041244737803936005
19	0x3fa5e7e180000000	0.042784735560417175
20	0x3fa0b18a80000000	0.032604530453681946
21	0x3fb5c5d540000000	0.08504994213581085
22	0xbfa58826e0000000	-0.04205438122153282
23	0xbfb5253be0000000	-0.08259939402341843
24	0x3f88ac0000000000	0.01204681396484375
25	0xbfb88bedc0000000	-0.09588514268398285
26	0x3f8cb97f00000000	0.014025680720806122
27	0x3fb3591280000000	0.07557788491249084
28	0xbf94c99c00000000	-0.020300328731536865
29	0xbfb278f1c0000000	-0.07215796411037445
30	0xbfa623db60000000	-0.04324231669306755
31	0x3fa56b7180000000	0.04183535277843475
32	0x3fb8846440000000	0.09577013552188873
33	0xbfb2612680000000	-0.07179489731788635
34	0xbfb2e89e00000000	-0.07386195659637451
35	0xbfb5189ae0000000	-0.08240669220685959
36	0xbfac810200000000	-0.055671751499176025
37	0xbfa2455d00000000	-0.035685449838638306
38	0xbf9e110c00000000	-0.02936190366744995
39	0xbfa1706880000000	-0.034060731530189514
40	0xbf80c38d00000000	-0.008185483515262604
41	0xbfa1408f40000000	-0.03369567543268204
42	0x3f8c29b900000000	0.013751454651355743
43	0x3fb5cb0c00000000	0.0851294994354248
44	0x3fa2dd9280000000	0.03684671223163605
45	0xbf5cc23800000000	-0.0017552897334098816
46	0x3fb18cb2c0000000	0.0685531347990036
47	0xbfb8455500000000	-0.09480792284011841
48	0xbf77cb8a00000000	-0.0058093443512916565
49	0x3fa5e24f80000000	0.04274223744869232
50	0x3fb9e54b40000000	0.10115499794483185
51	0xbf733bf800000000	-0.004695862531661987
52	0xbf9e996700000000	-0.02988205850124359
53	0xbfa1717ac0000000	-0.03406890481710434
54	0xbfb6f46d00000000	-0.08966714143753052
55	0x3f89a00600000000	0.012512251734733582
56	0xbf72fff600000000	-0.004638634622097015
57	0xbfb1635c60000000	-0.06792237609624863
58	0x3fab6c5800000000	0.05356097221374512
59	0x3fb51b6d80000000	0.0824497640132904
60	0x3faa6f5280000000	0.051630571484565735
61	0x3fb4a8bc40000000	0.08069969713687897
62	0xbfb036c040000000	-0.06333543360233307
63	0xbfae2ef9e0000000	-0.058952149003744125
64	0x3f97b48b00000000	0.023149654269218445
65	0x3fb6cc1200000000	0.08905136585235596
66	0xbf81733000000000	-0.00852048397064209
67	0x3fa7c80080000000	0.046447768807411194
68	0xbfaea34b20000000	-0.059839580208063126
69	0xbfb58b0880000000	-0.08415272831916809
70	0x3fa7fd4d80000000	0.046854421496391296
71	0xbfad082b00000000	-0.05670294165611267
72	0xbfb9591c60000000	-0.099015973508358
73	0x3f9199dd80000000	0.017188511788845062
74	0xbfb699b960000000	-0.08828314393758774
75	0x3fb24244c0000000	0.07132367789745331
76	0x3fb288bcc0000000	0.07239894568920135
77	0xbf8b15fe00000000	-0.013225540518760681
78	0x3f566b4800000000	0.0013683512806892395
79	0xbfaf92d140000000	-0.061667002737522125
80	0x3fb4b2ae80000000	0.0808514654636383
81	0x3fb6b1cb00000000	0.0886504054069519
82	0x3fb2bdfcc0000000	0.07321147620677948
83	0x3fb7059b00000000	0.08992928266525269
84	0x3fa55b7280000000	0.04171331226825714
85	0xbf97e29580000000	-0.02332528680562973
86	0x3fb0c1f380000000	0.06545946002006531
87	0x3fb9f07900000000	0.10132557153701782
88	0xbfb29e8120000000	-0.07273108512163162
89	0x3f8cab4c00000000	0.013998597860336304
90	0xbfb8fadc80000000	-0.09757784008979797
91	0xbfa7341880000000	-0.0453193336725235
92	0x3f83a63d00000000	0.009594418108463287
93	0x3fb4dcfe00000000	0.08149707317352295
94	0x3f9a9cd300000000	0.025988861918449402
95	0xbfa6e96c60e8619f	-0.04474962885814481
96	0xbfb0c5e64d7a7981	-0.06551970855296042
97	0x3fb128c8a8896786	0.06702856173197178
98	0xbfc1390da575e43c	-0.13455362872244503
99	0x3fb2be95ef64914a	0.07322060675193601
100	0xbfb67255502062ca	-0.0876820870038372
101	0xbf55b1934232f388	-0.0013240755150001077
102	0xbfb213faad9aa0de	-0.0706173585737164
103	0xbfbba9354c13f7b0	-0.10805066211102488
104	0xbfa0ff5c39402758	-0.03319824408397548
105	0xbf9cd61390999309	-0.02816038675372837
106	0x3f8928a2290bdd66	0.012284533383975126
107	0x3fa3ebbac94fc3e7	0.03890784938256058
108	0x3fac57561aad0798	0.05535382342942724
109	0xbfb690d6e90ecc27	-0.08814757528198013
110	0xbfa39598b05c16b3	-0.0382507052691329
111	0x3fa09b9be7abd9f8	0.03243720248240217
112	0xbfc081158b1109a0	-0.1289393357311157
113	0x3f9a06af38567ac9	0.025416124166094876
114	0x3fa170b750a01388	0.034063080398516965
115	0x3fa9c9f831a35544	0.05036903005535945
116	0xbfaeed53f7f55eb4	-0.06040441896283025
117	0xbfae9d8f10cc0ef7	-0.05979582862894788
118	0xbfa9776625d39330	-0.04973906718968235
119	0x3fb868eb7928b4a0	0.0953509493635516
120	0xbfb9d74a486a5f08	-0.10094131725270128
121	0xbfa782f3abdbf02e	-0.04592095826043906
122	0xbf78a5f3906dd1f5	-0.006017638609467903
123	0x3f8e3a57fc4242d4	0.014759719262913341
124	0x3f97a1903fe96db3	0.023077253247135675
125	0x3faedbcb8277fff6	0.0602706524623499
126	0x3fa1218a44452cb8	0.03345901568771964
127	0xbfc12a8b0c264998	-0.13411081403007752
128	0x3f8c0e0d4f31137c	0.013698677043189049
129	0xbfa322b2b576cbb2	-0.03737410035264278
130	0xbfb3b89ffbd97ec0	-0.0770359029643215
131	0x3f7e03a16e85515c	0.007327681152976186
132	0xbfb07b019fb07d12	-0.06437692783992002
133	0xbfb79f387051eeea	-0.09227326147259488
134	0x3f8b8bf79c2ca60c	0.01345056004864189
135	0x3fa256a5eb371e3a	0.035817322695546897
136	0x3f7dc416e1398076	0.0072670835248517165
137	0xbfc6f8d85daa051d	-0.17946915219730722
138	0xbf959009dcbc4788	-0.02105727586519593
139	0xbfbb8a9594e165fd	-0.10758337864663044
140	0x3f85d08798d6e450	0.010651645042218189
141	0x3f8e4d0d276b3ec6	0.014795401349516079
142	0xbfc118f9032db67a	-0.1335746064682331
143	0xbfb9b0ace661aad6	-0.10035210251377732
144	0xbfc0a1fb2c3708c8	-0.1299432721990057
145	0x3fa5a807d6ee5ad6	0.04229759691877681
146	0xbf849767ad786db6	-0.010054407102009982
147	0xbfa597603978898a	-0.04217053128765531
148	0xbfbb5e14d669f9e0	-0.10690431818691293
149	0x3fb43a3c0481eb4e	0.07901358709379488
150	0xbf8ee22b08a76102	-0.015079818917840718
151	0xbfa6cc70e15559f3	-0.04452851057674314
152	0xbfa648af4cd1d004	-0.04352329075564401
153	0xbf9c19448bacd79f	-0.027440138840766456
154	0x3fb317f34c1f8904	0.07458420380092795
155	0xbf89ec4f300b6658	-0.012657755521490774
156	0x3f8baf7cf9564910	0.013518310889399504
157	0xbfb24cc50cee1959	-0.07148391309428827
158	0x3f9f387431b341c2	0.030488791974507164
159	0xbfc1196ba4a55a40	-0.13358827151633257
160	0x3f97b1228103436f	0.023136653065026488
161	0xbfa6b994ad2b30e2	-0.044384618891486274
162	0xbfa48aefac96455d	-0.04012249929213383
163	0xbfb2bde3b1f9283b	-0.07320998282480755
164	0x3faec36992e3d3c4	0.060084628277685265
165	0xbfa95ee1faa99442	-0.04955202278942085
166	0x3fb3304f4955ab24	0.0749558977164893
167	0xbfadd268e5f1ee76	-0.05824592406221722
168	0x3f92804a2c045f90	0.018067511498059796
169	0x3f6f5a3730c097b0	0.0038271978319412633
170	0xbfb45f716103d20b	-0.07958134287384426
171	0xbfbaef07809244e0	-0.10520979775380424
172	0xbfa3a4b0b4c4b975	-0.03836586195608308
173	0xbfb369a37bdde3e6	-0.07583066724863805
174	0xbfbc7607d21f6150	-0.11117600326486365
175	0xbfc20fa651b74642	-0.14110259046587897
176	0xbf98f3d07156109e	-0.024367577474109774
177	0xbfb4bbf105557d56	-0.08099275951598392
178	0x3fac5bc6c6ae7bbe	0.055387698891756085
179	0xbfb0c972295c75a1	-0.0655738211612147
180	0xbf8906b16469ba4f	-0.012219797016965432
181	0xbfb71981eff5a3df	-0.09023296459567075
182	0x3f42b47b7f5625e0	0.0005708315863312517
183	0x3fac857438078efc	0.05570567306474847
184	0x3fae5965dd8ad2e1	0.05927580193875826
185	0x3fad4d3030991136	0.057229524547923225
186	0xbfa46ce068a7fdae	-0.03989316251317675
187	0xbfb01437814cdca0	-0.06280848414177109
188	0x3f9912537b0f2327	0.02448397101014446
189	0xbfa01146e52ae6c1	-0.03138181254821638
190	0xbfa4803d80000000	-0.04004089534282684
191	0x3f87814800000000	0.011477053165435791
192	0x3fa5663100000000	0.0417952835559845
193	0x3f707ffe00000000	0.004028312861919403
194	0xbfb8ae0120000000	-0.09640509635210037
195	0xbfb6d9ee60000000	-0.08926286548376083
196	0xbfb0819ba0000000	-0.06447765976190567
197	0x3f7b594000000000	0.006676912307739258
198	0x3f5a08d000000000	0.0015890151262283325
199	0x3fa5a55b00000000	0.04227718710899353
200	0xbfab256a20000000	-0.053019825369119644
201	0xbf8d4fea00000000	-0.014312580227851868
202	0xbfa9b95840000000	-0.050242193043231964
203	0xbf94e1cd80000000	-0.02039261907339096
204	0xbfa9f0d240000000	-0.05066544562578201
205	0xbfab7f4e60000000	-0.053705643862485886
206	0x3fa0d87d80000000	0.032901689410209656
207	0xbf9e6d3480000000	-0.029713459312915802
208	0x3fad393680000000	0.05707712471485138
209	0x3fb5aa2500000000	0.08462744951248169
210	0xbfabc493e0000000	-0.05423414334654808
211	0x3f579a9000000000	0.0014406591653823853
212	0xbfac924a80000000	-0.05580361187458038
213	0x3fb5cdea40000000	0.08517326414585114
214	0xbf98099900000000	-0.023474112153053284
215	0xbfb8c2dca0000000	-0.09672335535287857
216	0xbf61419000000000	-0.0021064579486846924
217	0xbfb0e2c6c0000000	-0.06596033275127411
218	0x3fb74ff100000000	0.09106355905532837
219	0xbfa354e640000000	-0.03775710612535477
220	0xbfa6398360000000	-0.043407540768384933
221	0xbfadb33aa0000000	-0.05800803378224373
222	0x3fb13ad0c0000000	0.06730370223522186
223	0xbfafd00fe0000000	-0.062134262174367905
224	0x3fb2c0fa40000000	0.07325710356235504
225	0xbfaf683660000000	-0.06134195253252983
226	0xbfb8cec0c0000000	-0.09690479934215546
227	0xbf9c397880000000	-0.027562983334064484
228	0x3f891e8500000000	0.012265242636203766
229	0xbfb28d5f40000000	-0.07246966660022736
230	0x3fb9422a80000000	0.09866586327552795
231	0xbf93cde100000000	-0.01934005320072174
232	0xbf3e4e4000000000	-0.0004624277353286743
233	0xbfa6dc1f60000000	-0.044648151844739914
234	0xbfb117d9c0000000	-0.06677018105983734
235	0xbfb1139780000000	-0.06670519709587097
236	0xbf843e8100000000	-0.009884841740131378
237	0xbf786c5c00000000	-0.0059627145528793335
238	0x3fb1d0e800000000	0.06959390640258789
239	0x3fa3a80280000000	0.03839118778705597
240	0x3fb1e37280000000	0.06987681984901428
241	0x3fae47cd00000000	0.05914154648780823
242	0xbf9dc15400000000	-0.029057800769805908
243	0xbfb3958520000000	-0.07650024443864822
244	0xbfa207e180000000	-0.035216376185417175
245	0xbfb0eeaf00000000	-0.0661420226097107
246	0xbf8db87d00000000	-0.014512039721012115
247	0xbfa9bf5c00000000	-0.05028808116912842
248	0x3faca4e200000000	0.05594545602798462
249	0x3fa09df980000000	0.03245525062084198
250	0xbf7042f800000000	-0.003970116376876831
251	0x3fa345e880000000	0.03764273226261139
252	0xbf947d3480000000	-0.020008869469165802
253	0x3f9c216900000000	0.02747119963169098
254	0xbfb9859780000000	-0.09969469904899597
255	0xbfb53df520000000	-0.08297664672136307

linear.bias f8 [128]
0	0xbfb82e84e0000000	-0.09445982426404953
1	0xbfb96b5c29832634	-0.09929443372234276
2	0xbfb4455c00000000	-0.07918334007263184
3	0xbfb77941c81c3fdb	-0.09169398437029434
4	0xbfa820c700000000	-0.04712507128715515
5	0xbfae7664b0e16423	-0.059497019378518944
6	0xbf9a1a4b5a1f6843	-0.025490929961826458
7	0x3fa7ed4c567f00c2	0.04673231654987965
8	0xbfa9af2900000000	-0.050164490938186646
9	0xbfaaff3e8aa4531c	-0.0527286094894974
10	0x3f543db94fe94b7a	0.0012354192437171439
11	0xbfb3104a70e95ab7	-0.07446732765798002
12	0x3fb292ceb6c38df4	0.07255260431298166
13	0xbfa8a345f6ab5728	-0.04812067638492429
14	0xbf82109400000000	-0.008820682764053345
15	0xbfac9db01f105b60	-0.05589056376645973
16	0x3fb782381e145ab4	0.09183073744166387
17	0xbfbba77a9379ca1b	-0.1080242738769716
18	0x3fb56b2c41be0c24	0.08366657834089658
19	0x3fb8774f4fb4ac81	0.09557052322331751
20	0xbf7ab69d117f1f9b	-0.006521810100771487
21	0xbfbae7b1a18a91d6	-0.10509786790732475
22	0x3fb52c1cc8236f41	0.08270435224716001
23	0xbfb2977e5900f0bf	-0.07262410805646179
24	0x3f84bf46db4acbb1	0.010130456511751125
25	0xbfa683a160000000	-0.043973010033369064
26	0x3faddb78b8ed6838	0.05831506020940974
27	0xbf63e89ec7930a13	-0.0024302579082313785
28	0xbfa1bb67da08d13d	-0.0346329167990995
29	0xbfb8190e5c929c7b	-0.09413232574535073
30	0x3fad207be2c9b9ee	0.056888457712250914
31	0x3f9d31e2ae98a77e	0.028510610491287995
32	0x3f837372ee047a2c	0.009497545136182138
33	0x3f9717a84079a249	0.022551182685136593
34	0xbfbc3d4a49cc505e	-0.1103102140589853
35	0xbfad728abdd169dc	-0.05751451079477807
36	0x3fa9a57fcf6c5201	0.05009078413982949
37	0xbf94b9eccbf10c96	-0.020240497539145773
38	0x3fb836fec0000000	0.09458915889263153
39	0x3f8b32bb23db873e	0.013280355483803793
40	0x3fb299b4c0000000	0.07265786826610565
41	0xbf942d8b80000000	-0.019704990088939667
42	0x3fa7f2d080000000	0.046774402260780334
43	0xbfb3a3470fcd7afe	-0.07671016822630958
44	0xbfa16db280000000	-0.034040048718452454
45	0xbf84f784251cd629	-0.010237724669063546
46	0xbfbe0818acf0727a	-0.11731104108953075
47	0x3fb0c310d6d510c6	0.06547646756104361
48	0xbfa0b04d00000000	-0.03259506821632385
49	0xbf816032aac00605	-0.00848426421726157
50	0x3fa40932b9b6dd7f	0.03913267628689265
51	0xbfa8281272f17299	-0.047180725604197345
52	0xbfa9428d225412f6	-0.049335871162872566
53	0xbfa5a79797b1e3d5	-0.04229425169700788
54	0xbf6d2acb9f099a7e	-0.0035604454972600333
55	0xbfb490536ec470aa	-0.08032723860054838
56	0xbfc279a5ab978c96	-0.14433737638964733
57	0x3f8d601a76071f56	0.014343458868907238
58	0x3f9f7093e71feea4	0.030702887517675706
59	0x3faa246b28a9c21c	0.051059101785430466
60	0x3f87162874c1a1a6	0.011272731841203431
61	0x3fba056f80000000	0.10164543986320496
62	0x3f3b5785051430d3	0.0004172038798777703
63	0x3f915b8280000000	0.016950644552707672
64	0xbfb934132dc6e8c6	-0.09845085017778663
65	0xbfa840a3f337bbe4	-0.04736816734281726
66	0xbfa7355183cb253c	-0.045328662241056666
67	0x3fa5cc83c2ecfab8	0.04257594828094596
68	0xbfbb9575f6c95d87	-0.10774934077323027
69	0xbfb7a16763b2351b	-0.09230657752978681
70	0xbfa53998af1f5c40	-0.041455050828226536
71	0xbfb8435270a57c4e	-0.09477725267559942
72	0x3fafa2b4a54286d5	0.06178822057087322
73	0x3fb5f3670f352c4c	0.08574527856141961
74	0x3fa321896d8624d2	0.037365240687969994
75	0x3faa1f1c0893117c	0.0510185966936971
76	0xbf9aeb532567c0b4	-0.02628831783107506
77	0x3f5fdbb68e4a032f	0.0019444735309265928
78	0x3f81a4d1c4b30d22	0.008615149321832553
79	0xbfb69affd4266ec0	-0.08830260209509344
80	0x3f99944af23c05a9	0.024979754481142234
81	0x3f57cfe81d1acafd	0.00145337741234347
82	0x3fb9930c40000000	0.099900022149086
83	0xbfacc8df025ce32b	-0.05622002509921339
84	0xbfbe33da2c3eaf58	-0.11797870235630847
85	0xbf8a330cd98c3058	-0.012792683018709436
86	0x3fa6f7e580000000	0.044860050082206726
87	0x3fb2362400000000	0.07113862037658691
88	0x3fb94e95c0000000	0.09885536134243011
89	0xbf67ad76f361e309	-0.002890331578836562
90	0x3f83eabb3d52f49d	0.009725058373414358
91	0xbfaaa8ea7164a1b1	-0.052069975225382044
92	0x3fb2177cc0b51392	0.0706708879925613
93	0xbf9a5c2100000000	-0.025742068886756897
94	0xbfb1bb7080000000	-0.06926634907722473
95	0x3f9da9205de27dda	0.028965478639859522
96	0x3fb7209d80000000	0.09034141898155212
97	0x3fb8eec140000000	0.09739311039447784
98	0x3fbae0b05c49f6af	0.1049909806551692
99	0xbfc1f03240e802d2	-0.1401427094388255
100	0xbfa73e46977ee17c	-0.04539700125991694
101	0xbfb7e11fe0000000	-0.09327887743711472
102	0xbfa0a7fe40000000	-0.03253168612718582
103	0x3f9b53a7b354b0c9	0.026686306305393957
104	0x3fac052c47033e41	0.054726966541803986
105	0xbfa35300c2150a5d	-0.03774263734023429
106	0xbf4c778000000000	-0.0008687376976013184
107	0xbfbe4805db47a8af	-0.11828648189080825
108	0xbfa31125baf0f407	-0.0372401991557823
109	0x3fb3b09c8e662a29	0.0769136283544546
110	0xbfba435300000000	-0.10258978605270386
111	0x3f88338360c7cc88	0.01181700362301387
112	0xbf820269fee9cc2b	-0.00879366692718094
113	0xbf95926be03fb3df	-0.021066365778029335
114	0xbf9d069f80000000	-0.02834557741880417
115	0x3fa134d6269ce726	0.033606235707749385
116	0xbfab5f9e2f871858	-0.05346388178036027
117	0xbf8bca73dd1bd67e	-0.0135697414257081
118	0xbfc381f25abf813a	-0.15240315848405733
119	0xbfba3a05f96d6e68	-0.10244786586320631
120	0xbf814ed886894e1f	-0.008451167684291381
121	0xbfb2fbb98c2ef67f	-0.07415351555297355
122	0xbfc0030c83ac77ef	-0.1250930445611966
123	0x3faaff0672d139c6	0.05272693778589459
124	0x3f8671093c5c8f3c	0.01095778670748581
125	0xbfb95e23898a90e8	-0.0990926943582654
126	0xbf71290400cfa388	-0.004189506184936749
127	0xbfb0224340000000	-0.06302280724048615

linear2.weight f8 [64, 128]
0	0xbfadfa8680000000	-0.058551982045173645
1	0xbfa593166644a3c0	-0.042137813552762804
2	0x3fac04c8c0000000	0.05472400039434433
3	0xbf8f352240b604e0	-0.015238063430617677
4	0xbfa80535e0000000	-0.04691475257277489
5	0x3f95ec77b4ba10ff	0.02140986481255513
6	0xbfa1c8d7d4de1287	-0.034735436186598405
7	0x3fcc3b3a0aedb413	0.2205574563371618
8	0x3fb1d22820000000	0.06961298733949661
9	0x3fb774691a384ebe	0.0916200341237596
10	0xbfb40c13b94c71f8	-0.0783092811001963
11	0x3fb67c68a0000000	0.08783582597970963
12	0x3fa34f81c0000000	0.03771596401929855
13	0x3fb54765d9404598	0.0831206946752644
14	0xbfb0f03b40000000	-0.06616564095020294
15	0x3fa4380340000000	0.03948984295129776
16	0xbf81a6fc13c82c76	-0.00861927924508719
17	0x3fc97428d9edf528	0.1988574089154238
18	0xbfb14cae4d13102a	-0.0675763071222383
19	0xbfbabdb86163ec30	-0.10445740106290269
20	0x3f6c20233b16d74a	0.003433293161573402
21	0xbf997eb12079c65a	-0.024897353751333597
22	0xbfaf237e5bddb274	-0.06081766959582505
23	0x3fac135e40000000	0.05483526736497879
24	0x3faa1494f5926f80	0.050938277222683404
25	0xbfb4b7c640000000	-0.08092917501926422
26	0xbf84c9fc512b689d	-0.010150881983850996
27	0x3fc17c73d3565a8b	0.1366104871674064
28	0xbfbd1262ded4b758	-0.11356180134018012
29	0xbfb7ebbbc1979535	-0.09344075657243851
30	0x3fb9e9df25329c5a	0.10122484834811143
31	0xbfc3f10e9c07bd08	-0.1557939779154156
32	0x3fc00277ee032000	0.12507533189477726
33	0xbfc30335bc200950	-0.14853545842931704
34	0x3f7b4bea72976d0d	0.006664195834186215
35	0x3f842ba71f8e2a01	0.009848886156551552
36	0xbfaeffd692778276	-0.06054564035344338
37	0xbfb0a1f600000000	-0.06497132778167725
38	0xbfb55ebd40000000	-0.08347685635089874
39	0x3fa34e5bb20c97d0	0.03770720051242871
40	0xbfaebec5c0000000	-0.06004922837018967
41	0x3fb4687020000000	0.07971859723329544
42	0xbfa7a3ef60000000	-0.046172600239515305
43	0xbfb28d3a8cb071a1	-0.07246747908397434
44	0x3fb0e1f560000000	0.06594785302877426
45	0xbfbac8a01d8c452f	-0.10462380143532778
46	0x3fb5420722f8abda	0.08303875545304554
47	0xbf95ab57dd124c92	-0.021161435001499536
48	0x3fab222640000000	0.05299491435289383
49	0x3fb492274ed682f2	0.08035512614015852
50	0xbfb1ab8685b08488	-0.06902352107910492
51	0xbf9e1c6d628e37b7	-0.029405316486694946
52	0x3fbfc3f80bac8ff6	0.12408399853717342
53	0xbf936db9c9e3babb	-0.018973257968293505
54	0xbfad150f404ab91e	-0.0568012968045528
55	0xbf91e2917a625381	-0.017465851874095776
56	0xbfb1332eb6cf9c47	-0.06718723261984492
57	0xbf976802dd66bdd8	-0.02285770870520118
58	0xbfb4c4a5b91f433b	-0.0811256005247402
59	0x3f54e65d2f1a0dc0	0.001275626182548048
60	0x3fb3e9cbe65b76de	0.07778620122868626
61	0xbfab142f00000000	-0.05288836359977722
62	0x3fc9c269a24c1e97	0.20124550270724192
63	0xbfa8e0c340000000	-0.0485898032784462
64	0x3f88f7d4f1b0bb42	0.012191451669506418
65	0x3fb38b5dd17566f9	0.07634531368003285
66	0xbfb39447423e89a3	-0.07648129813472919
67	0xbf872cf73d56534c	-0.011316234168398907
68	0x3f865e9c739697f0	0.010922643926118497
69	0x3f96bf5f778729ed	0.022214404745492123
70	0x3fca736fca317078	0.2066478478690248
71	0x3fa531b151b3dc58	0.041394749854526125
72	0x3fa9e3735436f65c	0.05056343462954935
73	0xbfb5475ab0789d02	-0.08312002952935774
74	0x3fb87db5ca58c57f	0.09566818418604404
75	0x3fc9a624a9465362	0.2003827883278531
76	0x3fc287343bed6f07	0.14475109983583698
77	0x3fc4da2a89753bff	0.16290790283025555
78	0x3fb092cbbfee7e40	0.06473992763357561
79	0xbfb5961a753ee40b	-0.08432164537852331
80	0xbf7415d0976d29c3	-0.004903616724571016
81	0x3f9430c49c930348	0.01971728521016594
82	0x3fa29cf4c0000000	0.03635372966527939
83	0xbfa14e3a91da3e2b	-0.033799963287603006
84	0xbfab8e0f95d1cdfa	-0.05381821349956435
85	0x3fd1fde22a93b4ac	0.2811208167830255
86	0x3fb5232860000000	0.0825677141547203
87	0xbfa44b37e0000000	-0.03963636979460716
88	0x3f777dca00000000	0.0057351961731910706
89	0xbfb18559dbdeacd0	-0.06844102495113025
90	0x3fd25b34609a5e12	0.286816686953416
91	0xbf953fd444944dd0	-0.020751301465748828
92	0x3f93fd0f1bf38b29	0.01952003105260328
93	0x3fab4a9940000000	0.053303517401218414
94	0xbf7c0e7000000000	-0.006849706172943115
95	0x3fc2f76a3bb8b279	0.1481755057915455
96	0xbfac5c9060000000	-0.055393707007169724
97	0xbf953bb000000000	-0.020735502243041992
98	0xbfb81fb2c6d3b83f	-0.09423367838073292
99	0x3f9fb60b4447c999	0.03096788028956041
100	0xbfb91aca21879303	-0.09806502646058494
101	0x3faa37dcc0000000	0.051207445561885834
102	0x3f8ca2f500000000	0.013982690870761871
103	0x3f984ca4ef77c817	0.023729874721489432
104	0xbf6e1e54edede0fe	-0.003676572683101508
105	0x3f96456e4ef39fce	0.021749232834650738
106	0xbfb40d34e0000000	-0.078326515853405
107	0x3fd81b28634f7d0d	0.37665757845202635
108	0x3fa14c6008507f93	0.0337858209752532
109	0xbfb49d9a3824f5b3	-0.08052982207023866
110	0xbfac7d60e0000000	-0.05564406141638756
111	0xbfa72f2c20000000	-0.04528177157044411
112	0x3f9a3f1300f86ecb	0.025631234106284134
113	0xbf8d6669f645e067	-0.01435549528899589
114	0x3fb28cba20000000	0.07245982438325882
115	0x3fac420a4021eb20	0.0551913455282913
116	0x3fb3971a9d711374	0.07652441352645473
117	0x3fc09200efcad766	0.12945567806826402
118	0x3f968f8140438fda	0.022031802699430482
119	0xbfcb7ee2422d63b8	-0.2148096869593965
120	0x3fd016cb67d0e0e5	0.25139126909517834
121	0x3fd87e1d8007b808	0.3826974630636646
122	0x3fc65754579ad970	0.17454008367139862
123	0x3f908a955b17e58e	0.016153653798004756
124	0x3fc185380801850c	0.1368780173388945
125	0xbfb083ed2b195abd	-0.06451303770277668
126	0x3fbb57cb8939082d	0.10680839634099533
127	0xbfa990b500000000	-0.04993215203285217
128	0x3f96c3e580000000	0.022231660783290863
129	0xbf9d084967899b11	-0.028351923889569145
130	0x3f82eefc00000000	0.0092448890209198
131	0x3fa5dec95b60c229	0.042715351490532356
132	0x3f8c050700000000	0.013681463897228241
133	0x3f8d7889dbbad1ec	0.014390065210457124
134	0xbf95c0a784cd3eb3	-0.021242730598997905
135	0xbfb15e9afa28c268	-0.06784981353190178
136	0xbfa6c15b60000000	-0.044443946331739426
137	0xbf906505490c23b6	-0.016010363181553543
138	0x3fb0e0030706dbf2	0.0659181491999872
139	0xbfb1f91680000000	-0.07020702958106995
140	0xbfb61a7d40000000	-0.08634169399738312
141	0xbfa113168951994a	-0.0333487551331922
142	0xbfa9c3c160000000	-0.05032161995768547
143	0x3fa39efac0000000	0.038322292268276215
144	0x3faafb9979368e64	0.0527008018937323
145	0xbfd2548cf652b69d	-0.2864105611323369
146	0x3fb65fe2b078afad	0.08740059669861351
147	0x3fcafaa464edce00	0.21077399185342927
148	0xbfb407f6dbed0958	-0.07824652547154665
149	0xbf845b549214f32b	-0.00993982382589705
150	0x3fa3e473c3424fae	0.038852326951342206
151	0x3fb4b08ef3736fc8	0.08081906741739353
152	0x3faaf499b7cdfe87	0.05264740341862955
153	0x3fa468cf40000000	0.03986213356256485
154	0xbfc3e26b6aee1799	-0.15534727784341554
155	0xbfb3614d13005ca2	-0.07570344652082153
156	0x3fd2fb6d88529609	0.2965959388041886
157	0x3fc199a25b0de99b	0.1375010437585161
158	0xbfa72cd9c7bc6794	-0.04526405871565867
159	0x3fd05a2a37a4648e	0.25550322946362136
160	0xbf7bb39c824f163f	-0.006763087619167828
161	0x3fd0f0e35a7324af	0.26470264275537664
162	0xbfa1862934e20a94	-0.03422669191879382
163	0xbfc61d841f7d69a7	-0.17277576005547
164	0xbf95a4a5f8aa6c43	-0.021135896017409072
165	0x3fa4bfbcc0000000	0.04052533954381943
166	0xbfb4401760000000	-0.07910295575857162
167	0x3fa7cdafdfa8161a	0.04649114232237768
168	0xbfaf05c2c0000000	-0.060590825974941254
169	0x3fa747b2c0000000	0.04546888917684555
170	0xbf93abf500000000	-0.019210651516914368
171	0x3fbaaaac7d05a421	0.1041667752484874
172	0xbfa6e98560000000	-0.04475037381052971
173	0x3fbb817621fd6898	0.10744417505103099
174	0xbfb7d3a4d51a689f	-0.09307317927087631
175	0x3fb2a1bb912822b2	0.07278034490458188
176	0x3fb66011e0000000	0.08740340918302536
177	0xbfc952f6f3bb78cb	-0.1978443803881816
178	0xbf8938394396cb7e	-0.01231426942363156
179	0x3fc5fb45dc337016	0.1717307400894021
180	0x3f6389f62e15b522	0.002385121174191555
181	0x3fa0002160d38340	0.03125099474869453
182	0x3faf35b273c82852	0.06095655120232436
183	0x3f9b29f14b83b014	0.02652718566325525
184	0x3fae60c27cb45980	0.059331968043056627
185	0xbf96ab9c733df665	-0.022139019521537757
186	0x3fbfb897afb37410	0.12391040839743561
187	0xbfa8401ac07319b0	-0.047364078514465446
188	0xbf8e59746f26f648	-0.014819059030624207
189	0x3efbae0000000000	2.6397407054901123e-05
190	0xbfd1c0763f3df847	-0.2773719422911011
191	0xbfa82b0020000000	-0.04720306769013405
192	0xbfae10d028565e71	-0.05872202389144555
193	0xbf8c11d687e09c46	-0.013705898305557917
194	0x3fc39eac65a0d16e	0.15327982866586914
195	0xbf9714f883a1ec8c	-0.02254093459530941
196	0xbf8d404e2bb69ada	-0.014282808980011042
197	0x3fbaddc0fcd0192e	0.10494619533719593
198	0xbfa86b3ec38cefe6	-0.04769321572391032
199	0xbfac4cd39c961ce2	-0.05527364050345242
200	0xbf7eda9e53591398	-0.007532709559716098
201	0x3fd7a7224958a0bd	0.36957604563441376
202	0xbf7a41bf9e171b32	-0.006410358911529456
203	0xbf8841a059716c04	-0.011843922357163812
204	0x3f59b364159be137	0.0015686490427793806
205	0xbfb41e24bef13679	-0.07858495389629096
206	0xbfa554b6e7e0ebef	-0.04166194515752141
207	0x3fc86cba6336fc87	0.19081811756584363
208	0x3fb75ef2430f4b05	0.09129251610947271
209	0xbf66640e2426455b	-0.002733256930874601
210	0x3fa43da440000000	0.03953278809785843
211	0x3f81433b759234d4	0.008429016614423558
212	0x3fd263ab0ede575f	0.2873332638931653
213	0xbf95babb7938e65d	-0.021220139764614
214	0xbfb68768c0000000	-0.08800368010997772
215	0xbfa01139e0000000	-0.03138142451643944
216	0x3fa469d840000000	0.03987003117799759
217	0xbfa5724ac299672f	-0.04188760400275126
218	0xbfb21c95148b79ca	-0.07074863196928685
219	0x3fbd4e2799d07c55	0.11447379594072633
220	0xbfb50e659503eca8	-0.08225092781133247
221	0xbfa7193600000000	-0.045114219188690186
222	0xbfb649bba0000000	-0.08706257492303848
223	0xbfbb3eb5f22811c0	-0.10642563974403796
224	0x3f95fb8c80000000	0.02146739512681961
225	0x3fb2b798a0000000	0.07311395555734634
226	0x3fc6e237ad056fcb	0.17877860973646728
227	0xbfa2afbf3c4e6a6e	-0.03649709330712346
228	0x3f9ee7a824da4796	0.030180575608546777
229	0xbfa24a4600000000	-0.03572291135787964
230	0xbf9ac31c40000000	-0.0261349119246006
231	0xbfaecf6793aa80e2	-0.06017612149776298
232	0xbfb3a05376fa5165	-0.07666513113719516
233	0x3fbd4c51ba8515f1	0.11444578937251727
234	0xbfa0cf1440000000	-0.0328298881649971
235	0xbfd2f3b48f8a1703	-0.29612459199448454
236	0xbfb75ac4c6ef1384	-0.09122876984390699
237	0x3fc5d19e0dd7e417	0.17045951534217416
238	0xbfa8a5cd00000000	-0.04813995957374573
239	0xbfad99df7efb45e6	-0.057814583063770006
240	0xbfd0209bac467f6e	-0.251990240323713
241	0x3fb78eb14316d8b7	0.09202106368943218
242	0xbf9784c380000000	-0.022967390716075897
243	0x3fb0967ca0000000	0.06479624658823013
244	0x3f8099f602989884	0.008106157259202947
245	0x3f7569a2ad28fbe4	0.005227694945062009
246	0x3f69f41afb6d2ef4	0.003168156337243983
247	0x3fd737a3c6cb3af8	0.362770980963361
248	0xbfca87c0ca497c75	-0.20726785542771933
249	0xbfd30d1c3649804a	-0.2976751833102794
250	0xbf87a3538b1106e8	-0.011541989022706159
251	0x3fb7cdeede8de317	0.09298603948071747
252	0xbfd0992b364e7952	-0.2593486814820568
253	0x3fc1f12ff402be09	0.14017295279107625
254	0xbfa6016409fcf137	-0.04297936078953273
255	0x3fb43043e0000000	0.07886146754026413

linear2.bias f8 [64]
0	0x3fda94d8ba5015f5	0.41533487505543515
1	0x3fa797921a5442be	0.046078267778403056
2	0x3fd86b38cbe3950e	0.3815443030456017
3	0x3f727f97fcd3c0c4	0.004516214086138063
4	0x3fd2d897a2a83bb3	0.29446974644173024
5	0x3fd71b090aabe0f0	0.3610251049244786
6	0x3f62a175ae86805b	0.0022742556067925474
7	0x3fd15b5ae1535afe	0.27120086674169375
8	0xbf9f3a0ed72ea3aa	-0.030494911082914612
9	0x3fbf1e308a70cbe6	0.12155440692804084
10	0x3fbf95546c377752	0.12337234155662927
11	0x3fd1fcc407ccab62	0.2810525966803451
12	0xbfc9c020c1bb9078	-0.2011757799110716
13	0x3f791711140dc5c1	0.006125513756033597
14	0x3fbd2bb22a3066bb	0.11394799737936527
15	0x3fd8877cdc01fba0	0.3832695148957388
16	0x3f39144ebe430d1a	0.0003826801532904198
17	0x3fc3225c9a0005fa	0.14948613662276938
18	0x3fb303fa88e7cf25	0.07427945940417809
19	0xbfcff10f6ef43864	-0.24954407613444396
20	0x3fbea1912ef5126e	0.11965281864565622
21	0xbfc0125ded38667b	-0.1255605133344949
22	0x3fc05e415a74d6a4	0.12787644306961454
23	0x3fcb426cec38bbb4	0.2129646447587824
24	0x3fca0f35f45b81fd	0.20358919555202695
25	0x3f83a1f7ed63ef45	0.009586274082259325
26	0x3fd2c49d9bcf08b2	0.2932504674501032
27	0x3f828e5f8230fd12	0.009060617600083396
28	0x3f846ae14cccfd84	0.009969482570908246
29	0x3fb01cf733482e19	0.06294198038101974
30	0x3fd13ed0e30a9388	0.2694589822006539
31	0x3f613c3e5b7eb5c0	0.0021039216917048964
32	0x3f9bc6add0b4e7ea	0.027125087607807
33	0xbfdf4aaa76ab0258	-0.48893224323913875
34	0x3fb4bd8c1437ba67	0.08101726049037837
35	0x3f8a1454a43ad45e	0.012734090101142733
36	0x3fd489dd30a3e958	0.3209145522120216
37	0x3f8e763d5421a75c	0.014873961572636034
38	0x3f69a2e8b079c386	0.0031294388498328022
39	0x3fdd4c1bc67d3ffa	0.45777029403416203
40	0x3fdaa72fafea197d	0.4164542406000676
41	0x3fb0ec8b84036732	0.06610939000111385
42	0xbfbc76d7a7a15f6e	-0.11118839113748688
43	0x3fb37e06788526bb	0.07614174311052128
44	0x3fd171d65f8d9a3a	0.272573083222969
45	0x3fc871bfbd2baa7b	0.19097134339184038
46	0xbfbb7a8c6a065f8b	-0.10733869160173819
47	0xbfc6bbc0e6551c27	-0.17760478254987896
48	0x3fc5a1c78fd0dd01	0.1689996196962298
49	0x3fd3c17b3012224d	0.30868415541093414
50	0x3fd5d8772df97622	0.34133700837796443
51	0xbf800d6f0e3a2a7d	-0.007838122960739153
52	0xbfe064ab49559e01	-0.5122887070000958
53	0x3f78c4796c0fcdc5	0.006046747498646925
54	0x3fd45704104fd1aa	0.31781102745960743
55	0xbfe2871b3221aea3	-0.578992460168099
56	0x3fd3e7f191f1145b	0.31103171589012896
57	0x3fdac93d2a06232d	0.4185326490774511
58	0x3f867a575c4869c4	0.010975534919499881
59	0x3f74419ac5a0f072	0.004945377901148006
60	0xbfd26663a677c0f9	-0.2874993444120402
61	0x3fd482c459a6f86c	0.3204813838491478
62	0x3fd5515b476bac5d	0.3330906102625642
63	0xbfc69b72f8fa8f75	-0.17661893040814972

linear3.weight f8 [3, 64]
0	0x3fa58c78b06138ff	0.0420873370463699
1	0xbfd902bccbe9fe62	-0.3907920829151178
2	0x3fb3c6d7612ad4a2	0.07725282785652834
3	0xbfb387ac247c3725	-0.0762889470172153
4	0x3fd8fbb2abb55ec2	0.3903624226418111
5	0x3faba0f3d776ddc6	0.05396234517268854
6	0xbfddf7ec47d8011c	-0.46825701728813995
7	0x3fd5ab207b558f0d	0.338569755977219
8	0xbfd963f5d0e636b8	-0.39672608757323813
9	0x3fd1f881d3f333e4	0.2807926721405336
10	0xbfc4e06d7808582e	-0.16309898720709398
11	0x3fd29d462361f58a	0.2908492417844505
12	0xbfe93232be97d846	-0.787377712490305
13	0xbfdae73cc1df3359	-0.42036360676575196
14	0x3fcbf066148af1a1	0.21827388766349734
15	0x3facaace27b5e04f	0.05599064097162964
16	0xbfd853812625bf02	-0.38009670949303154
17	0x3fd8cb2cb6171f98	0.38740079672106154
18	0xbfc78085dbd832c3	-0.18360970720859457
19	0x3fc0bdf44f83fabd	0.1307969463595863
20	0xbfc96445378a1a04	-0.1983725091160552
21	0xbfc78533053cbfbc	-0.18375242000320025
22	0x3fca3fc0c2cf429d	0.2050705863207626
23	0x3fd7835b58ec1fa5	0.3673923843748475
24	0x3fd79a3a260e7c9f	0.3687882777830484
25	0xbfe0a8394f4752e6	-0.5205351398859335
26	0x3fdec3d893412db5	0.48070349102337256
27	0xbfd358acd4a27559	-0.30228729977701146
28	0xbfdd6e14485b4e14	-0.45984370294647303
29	0xbfd7deae6732fa64	-0.37296638563194606
30	0x3fb676e499b031c3	0.08775166275172012
31	0xbfc4e487a57556bc	-0.1632241781141398
32	0xbfce58984bdff0b0	-0.2370787020189531
33	0x3fb0fbd541a0d927	0.06634266712430713
34	0xbfc225863470f2af	-0.14177014885526293
35	0xbfd0756f1f58937f	-0.25716760693676827
36	0xbfa5819eb2dc1b40	-0.042004546483488614
37	0xbfd53f877506f808	-0.33200251034202255
38	0xbfe7f5473cba4cc3	-0.7486911951149512
39	0x3fb62d52c6e2968a	0.08662907939523215
40	0x3fc307816e63c543	0.14866655244945023
41	0xbf6243b87d3083e5	-0.002229557352180655
42	0xbfdfe687ac1920ee	-0.498445432724579
43	0x3fab0059fa831d14	0.05273705657014652
44	0x3fc8436cafd69064	0.18955763421866145
45	0x3fd08c95fca703a1	0.25858068154416897
46	0xbfe5c5f0645e629e	-0.6804124794317266
47	0xbfe1b78536429838	-0.5536523875969186
48	0xbf9203c5de378f5c	-0.017592517555285667
49	0x3fdb729621f9f6e1	0.4288688022423753
50	0x3fdd332f8c5c8542	0.456249129363716
51	0xbfb5e5138abee5e2	-0.08552667748781276
52	0x3fc5dc29950009df	0.17078132415197353
53	0xbfdbd5e2e1c2ff66	-0.43492958113710356
54	0xbf80fa62d1b2b0a2	-0.008290073418116887
55	0x3fb9bd7894ecd844	0.10054734836452989
56	0x3fd834e7104793da	0.37822891797833125
57	0x3f9cff774ad2ca1b	0.028318275396211328
58	0xbfc00f03e5741ee4	-0.1254582281474007
59	0xbfd33cbc740eed66	-0.3005820401555951
60	0x3fc79d4ba5c71330	0.18448777765856894
61	0x3fa72d1be23f395d	0.04526602875522443
62	0x3f8f1fb9091a53f4	0.015197225179955233
63	0xbfcc36911dd1aba4	-0.22041524845130056
64	0x3f8a248219a2ff65	0.012764946372385297
65	0x3fae862fcbdcaa35	0.05961751330899682
66	0xbfb10da51550ea10	-0.06661445398723509
67	0x3fb3225d64c2e483	0.07474311552040729
68	0xbfc4a2ed9c56d80e	-0.1612221730590026
69	0x3f929dd88028e4ba	0.01818025858139969
70	0xbf5aa26c1a867162	-0.0016256385516505091
71	0xbfb0c78cee271556	-0.06554489912294534
72	0x3fb62d473efd1727	0.08662839210327587
73	0xbfcb4d055e45cece	-0.21328799346121347
74	0x3fc49fe2b35a1df2	0.16112931973860573
75	0xbfcfa5f62990499a	-0.24725224523042472
76	0xbfc38f3d78191cf4	-0.15280884136357253
77	0x3facb57b5b7b786e	0.05607209674575207
78	0xbfd2aeb6c23f9fa3	-0.2919136902769372
79	0x3fcb00e3e7e1ebec	0.21096466848743434
80	0x3fc305979f239e05	0.14860816259827928
81	0xbfd4eecc46658aca	-0.3270750701396251
82	0x3fc27dbdad8a521e	0.14446230863235682
83	0xbfc41364e9d85891	-0.15684186380594103
84	0x3fbfed6feaf7349b	0.12471675383058527
85	0xbfbfe54f3c448546	-0.1245927354944075
86	0xbfc49f21a8778482	-0.1611063072769277
87	0xbfd439785d84b75b	-0.31600770123156047
88	0xbfc67f2f9ddbc5f9	-0.17575640876707135
89	0x3fafbe5060e783c9	0.061998855427880147
90	0xbfdb4ba38261092b	-0.4264916203720925
91	0x3fbbe1ff85bb54ce	0.10891720786033263
92	0x3fa85ff49dd23d62	0.047607082619942856
93	0x3fa280014968e20b	0.03613285084833614
94	0x3fb150a1adce2d78	0.06763658994002764
95	0xbf81f5d450cda9f1	-0.008769663539813318
96	0x3fb318f70468dd2e	0.07459968431145533
97	0xbfb5edd7714858be	-0.08566042438210084
98	0x3fb6f48df506fba8	0.08966910583602206
99	0x3fb9a5fb7bf1d433	0.1001889398192624
100	0xbfa5d2dc72f322cc	-0.0426243677443999
101	0x3fc0320734423f7a	0.12652673770616812
102	0xbfa9f871a61730fa	-0.05072360184166942
103	0x3fc24f48a78d0c23	0.14304454976272138
104	0x3fb0dba93d383628	0.06585176224344791
105	0x3fbb81667aa98570	0.10744324202234679
106	0xbfc186fe39918dd6	-0.13693216143575054
107	0x3fa34bb893efbfa6	0.03768708043924045
108	0xbfbfa50394450a3d	-0.1236116635309736
109	0xbfccc03d2048c8a6	-0.22461666180021672
110	0xbfa10b2e103de330	-0.03328842113746189
111	0xbfa08f61e59f8fae	-0.03234392097490911
112	0x3fbc45bde6552c4e	0.11043917535168754
113	0xbfd15d8b633489a2	-0.2713345021058108
114	0xbfc59cfc48145a2b	-0.16885331649309995
115	0x3fbd61f348ee45c7	0.1147758534482569
116	0xbfa832a4069f620c	-0.04726135807840501
117	0xbf8b0276995a8803	-0.013188292078954339
118	0x3fbb3818b4fbdc31	0.10632471483755591
119	0xbfb56a977d15c226	-0.08365771106560568
120	0xbfcf8f70a9de56e7	-0.24656494421349537
121	0xbf935111fde974f3	-0.01886394607787607
122	0x3fc60a7025d189cd	0.17219354483229524
123	0x3fbccdaba4c91b88	0.1125132825192009
124	0xbfb10d77be059bca	-0.06661175145346401
125	0x3f9f3268dc98eab2	0.03046573492450006
126	0x3f8dd289cde08b38	0.014561726184245324
127	0xbfc90295feb84030	-0.19539141595351017
128	0xbfe209cb5d99ff87	-0.5636956051020982
129	0x3fb826715692140a	0.09433658946552739
130	0xbfe3af582e5862b7	-0.6151543526821887
131	0xbfcd9682794d75d9	-0.2311556904123069
132	0xbfdbdd64c996ac46	-0.43538779913314263
133	0xbfe1e64a1587e3a3	-0.5593614979289793
134	0x3f98296776117311	0.02359544427996513
135	0xbf6ab3609278dc01	-0.0032593618559775277
136	0xbfc2a59b748f3752	-0.14567893210772326
137	0x3fb64a91bf01d1d4	0.08707533753642532
138	0xbfab9674cb00f1b2	-0.05388226488182414
139	0xbfe026fffbf7394c	-0.5047607346730643
140	0x3fba8476895b949d	0.10358372548542367
141	0x3fb6aef94cecfa02	0.08860738876408195
142	0x3fa5ab6592a5870b	0.04232327857131509
143	0xbfd70b1c5f015448	-0.3600531509194451
144	0x3fc38df5b99897e4	0.15276977121646873
145	0xbf9668ca620bf5f2	-0.02188411925725648
146	0x3f938343577a3548	0.019055416311450274
147	0xbf719006ba62bec0	-0.004287744790573533
148	0xbfd153ebce19384d	-0.2707471382790388
149	0x3fb8fb251544ba72	0.09758216637849573
150	0x3fb3ef8a95fbb3a0	0.07787386094760373
151	0x3f9af9067b356a04	0.026340581197795046
152	0xbf9016e6359915f2	-0.015712353726732027
153	0x3fb442f66785c372	0.0791467669239532
154	0xbfe2adefde954cd9	-0.5837325427368355
155	0x3fc0562e6689f72b	0.12763004309447842
156	0x3fb1b7ac03600c9e	0.06920886118318711
157	0x3fa6accb2940221b	0.04428706053301231
158	0xbfe65211870ad7e4	-0.6975181233926802
159	0xbfc1d5d40e07aede	-0.13933802304324322
160	0xbfac4aaeebef2971	-0.05525728826576682
161	0x3fc16118672c9eaa	0.13577561414534972
162	0xbfbb45bc36c3b885	-0.10653282486939204
163	0x3f61448a6c456143	0.002107878072063725
164	0xbfe0378e5700f725	-0.5067817401211171
165	0x3fc1058f7f01bd84	0.13298219396117983
166	0x3fae610bf869b20b	0.05933415801414207
167	0xbfe25ab0870d3e52	-0.5735705030182976
168	0xbfe12eb2da6ce3c8	-0.53695051823808
169	0xbfd278eda62d0828	-0.2886308787166194
170	0x3fc9181d19b722f9	0.1960483909190527
171	0xbfdd5003faee2690	-0.4580087614527679
172	0xbfe7902ed38e8d26	-0.7363504535646015
173	0x3fa9560edb1b2230	0.049484695669495316
174	0x3fc5710152b5ea56	0.16751114405254225
175	0x3fc6c38662d694c8	0.17784194780430185
176	0xbfd94070b6c8e6f6	-0.39455812311244587
177	0xbfc33366d41a79f7	-0.15000615460026243
178	0xbf9ded338b353723	-0.029225163814138654
179	0xbfb64d6e43677278	-0.08711899896247555
180	0xbfde77a2ec60ba01	-0.4760520275475813
181	0xbf87598fc369fb5c	-0.011401293898641356
182	0xbfd783e6d54c773c	-0.36742564039183256
183	0x3fabf1fe8b904823	0.05458064511925922
184	0x3f822c96919ea274	0.008874107665023369
185	0xbfe3fd0e88c58562	-0.6246407195396098
186	0xbfc71d6dbd86eb2e	-0.18058559183358497
187	0x3fc51b3231330962	0.16489245798409075
188	0xbfd58130d7b7fb5e	-0.3360101801517227
189	0xbfe282e90b401227	-0.5784802646381352
190	0xbfe4393339540c48	-0.6319824332898714
191	0x3fc45123f692b81b	0.15872621097281656

linear3.bias f8 [3]
0	0xbfc859aafbe61784	-0.1902364473318664
1	0x3fcf12689995020c	0.2427492856895842
2	0xbfd1022d78dd31ef	-0.26575791171197144
