runs/testrun-mlp-final-20r-40bs-100ep/0/LocalModel-0-Round8.pt (torch, 167767 bytes, 6 tensors)

linear.weight f8 [128, 95]
0	0xbfb5474800000000	-0.08311891555786133
1	0xbf9032f280000000	-0.015819348394870758
2	0x3fa23ff100000000	0.035644084215164185
3	0x3f9a849a00000000	0.025896459817886353
4	0xbfb24f8b60000000	-0.07152625173330307
5	0xbfa0209d00000000	-0.03149881958961487
6	0xbfa4758f00000000	-0.03995940089225769
7	0xbfb72bfc20000000	-0.0905149057507515
8	0x3fb4ce1980000000	0.08126983046531677
9	0x3f80c60200000000	0.008190169930458069
10	0xbfa4442100000000	-0.039582282304763794
11	0xbfa6b01240000000	-0.044312067329883575
12	0xbfb2c6fb00000000	-0.07334870100021362
13	0x3fb279f500000000	0.07217341661453247
14	0xbf705a9400000000	-0.003992632031440735
15	0x3fb562fb40000000	0.08354158699512482
16	0xbfb5290720000000	-0.08265728503465652
17	0x3fa1cfbf80000000	0.034788116812705994
18	0xbfa51e07c0000000	-0.041244737803936005
19	0x3fa5e7e180000000	0.042784735560417175
20	0x3fa0b18a80000000	0.032604530453681946
21	0x3fb5c5d540000000	0.08504994213581085
22	0xbfa58826e0000000	-0.04205438122153282
23	0xbfb5253be0000000	-0.08259939402341843
24	0x3f88ac0000000000	0.01204681396484375
25	0xbfb88bedc0000000	-0.09588514268398285
26	0x3f8cb97f00000000	0.014025680720806122
27	0x3fb3591280000000	0.07557788491249084
28	0xbf94c99c00000000	-0.020300328731536865
29	0xbfb278f1c0000000	-0.07215796411037445
30	0xbfa623db60000000	-0.04324231669306755
31	0x3fa56b7180000000	0.04183535277843475
32	0x3fb8846440000000	0.09577013552188873
33	0xbfb2612680000000	-0.07179489731788635
34	0xbfb2e89e00000000	-0.07386195659637451
35	0xbfb5189ae0000000	-0.08240669220685959
36	0xbfac810200000000	-0.055671751499176025
37	0xbfa2455d00000000	-0.035685449838638306
38	0xbf9e110c00000000	-0.02936190366744995
39	0xbfa1706880000000	-0.034060731530189514
40	0xbf80c38d00000000	-0.008185483515262604
41	0xbfa1408f40000000	-0.03369567543268204
42	0x3f8c29b900000000	0.013751454651355743
43	0x3fb5cb0c00000000	0.0851294994354248
44	0x3fa2dd9280000000	0.03684671223163605
45	0xbf5cc23800000000	-0.0017552897334098816
46	0x3fb18cb2c0000000	0.0685531347990036
47	0xbfb8455500000000	-0.09480792284011841
48	0xbf77cb8a00000000	-0.0058093443512916565
49	0x3fa5e24f80000000	0.04274223744869232
50	0x3fb9e54b40000000	0.10115499794483185
51	0xbf733bf800000000	-0.004695862531661987
52	0xbf9e996700000000	-0.02988205850124359
53	0xbfa1717ac0000000	-0.03406890481710434
54	0xbfb6f46d00000000	-0.08966714143753052
55	0x3f89a00600000000	0.012512251734733582
56	0xbf72fff600000000	-0.004638634622097015
57	0xbfb1635c60000000	-0.06792237609624863
58	0x3fab6c5800000000	0.05356097221374512
59	0x3fb51b6d80000000	0.0824497640132904
60	0x3faa6f5280000000	0.051630571484565735
61	0x3fb4a8bc40000000	0.08069969713687897
62	0xbfb036c040000000	-0.06333543360233307
63	0xbfae2ef9e0000000	-0.058952149003744125
64	0x3f97b48b00000000	0.023149654269218445
65	0x3fb6cc1200000000	0.08905136585235596
66	0xbf81733000000000	-0.00852048397064209
67	0x3fa7c80080000000	0.046447768807411194
68	0xbfaea34b20000000	-0.059839580208063126
69	0xbfb58b0880000000	-0.08415272831916809
70	0x3fa7fd4d80000000	0.046854421496391296
71	0xbfad082b00000000	-0.05670294165611267
72	0xbfb9591c60000000	-0.099015973508358
73	0x3f9199dd80000000	0.017188511788845062
74	0xbfb699b960000000	-0.08828314393758774
75	0x3fb24244c0000000	0.07132367789745331
76	0x3fb288bcc0000000	0.07239894568920135
77	0xbf8b15fe00000000	-0.013225540518760681
78	0x3f566b4800000000	0.0013683512806892395
79	0xbfaf92d140000000	-0.061667002737522125
80	0x3fb4b2ae80000000	0.0808514654636383
81	0x3fb6b1cb00000000	0.0886504054069519
82	0x3fb2bdfcc0000000	0.07321147620677948
83	0x3fb7059b00000000	0.08992928266525269
84	0x3fa55b7280000000	0.04171331226825714
85	0xbf97e29580000000	-0.02332528680562973
86	0x3fb0c1f380000000	0.06545946002006531
87	0x3fb9f07900000000	0.10132557153701782
88	0xbfb29e8120000000	-0.07273108512163162
89	0x3f8cab4c00000000	0.013998597860336304
90	0xbfb8fadc80000000	-0.09757784008979797
91	0xbfa7341880000000	-0.0453193336725235
92	0x3f83a63d00000000	0.009594418108463287
93	0x3fb4dcfe00000000	0.08149707317352295
94	0x3f9a9cd300000000	0.025988861918449402
95	0xbfa6e96c60e8619f	-0.04474962885814481
96	0xbfb0c5e64d7a7981	-0.06551970855296042
97	0x3fb128c8a8896786	0.06702856173197178
98	0xbfc1390da575e43c	-0.13455362872244503
99	0x3fb2be95ef64914a	0.07322060675193601
100	0xbfb67255502062ca	-0.0876820870038372
101	0xbf55b1934232f388	-0.0013240755150001077
102	0xbfb213faad9aa0de	-0.0706173585737164
103	0xbfbba9354c13f7b0	-0.10805066211102488
104	0xbfa0ff5c39402758	-0.03319824408397548
105	0xbf9cd61390999309	-0.02816038675372837
106	0x3f8928a2290bdd66	0.012284533383975126
107	0x3fa3ebbac94fc3e7	0.03890784938256058
108	0x3fac57561aad0798	0.05535382342942724
109	0xbfb690d6e90ecc27	-0.08814757528198013
110	0xbfa39598b05c16b3	-0.0382507052691329
111	0x3fa09b9be7abd9f8	0.03243720248240217
112	0xbfc081158b1109a0	-0.1289393357311157
113	0x3f9a06af38567ac9	0.025416124166094876
114	0x3fa170b750a01388	0.034063080398516965
115	0x3fa9c9f831a35544	0.05036903005535945
116	0xbfaeed53f7f55eb4	-0.06040441896283025
117	0xbfae9d8f10cc0ef7	-0.05979582862894788
118	0xbfa9776625d39330	-0.04973906718968235
119	0x3fb868eb7928b4a0	0.0953509493635516
120	0xbfb9d74a486a5f08	-0.10094131725270128
121	0xbfa782f3abdbf02e	-0.04592095826043906
122	0xbf78a5f3906dd1f5	-0.006017638609467903
123	0x3f8e3a57fc4242d4	0.014759719262913341
124	0x3f97a1903fe96db3	0.023077253247135675
125	0x3faedbcb8277fff6	0.0602706524623499
126	0x3fa1218a44452cb8	0.03345901568771964
127	0xbfc12a8b0c264998	-0.13411081403007752
128	0x3f8c0e0d4f31137c	0.013698677043189049
129	0xbfa322b2b576cbb2	-0.03737410035264278
130	0xbfb3b89ffbd97ec0	-0.0770359029643215
131	0x3f7e03a16e85515c	0.007327681152976186
132	0xbfb07b019fb07d12	-0.06437692783992002
133	0xbfb79f387051eeea	-0.09227326147259488
134	0x3f8b8bf79c2ca60c	0.01345056004864189
135	0x3fa256a5eb371e3a	0.035817322695546897
136	0x3f7dc416e1398076	0.0072670835248517165
137	0xbfc6f8d85daa051d	-0.17946915219730722
138	0xbf959009dcbc4788	-0.02105727586519593
139	0xbfbb8a9594e165fd	-0.10758337864663044
140	0x3f85d08798d6e450	0.010651645042218189
141	0x3f8e4d0d276b3ec6	0.014795401349516079
142	0xbfc118f9032db67a	-0.1335746064682331
143	0xbfb9b0ace661aad6	-0.10035210251377732
144	0xbfc0a1fb2c3708c8	-0.1299432721990057
145	0x3fa5a807d6ee5ad6	0.04229759691877681
146	0xbf849767ad786db6	-0.010054407102009982
147	0xbfa597603978898a	-0.04217053128765531
148	0xbfbb5e14d669f9e0	-0.10690431818691293
149	0x3fb43a3c0481eb4e	0.07901358709379488
150	0xbf8ee22b08a76102	-0.015079818917840718
151	0xbfa6cc70e15559f3	-0.04452851057674314
152	0xbfa648af4cd1d004	-0.04352329075564401
153	0xbf9c19448bacd79f	-0.027440138840766456
154	0x3fb317f34c1f8904	0.07458420380092795
155	0xbf89ec4f300b6658	-0.012657755521490774
156	0x3f8baf7cf9564910	0.013518310889399504
157	0xbfb24cc50cee1959	-0.07148391309428827
158	0x3f9f387431b341c2	0.030488791974507164
159	0xbfc1196ba4a55a40	-0.13358827151633257
160	0x3f97b1228103436f	0.023136653065026488
161	0xbfa6b994ad2b30e2	-0.044384618891486274
162	0xbfa48aefac96455d	-0.04012249929213383
163	0xbfb2bde3b1f9283b	-0.07320998282480755
164	0x3faec36992e3d3c4	0.060084628277685265
165	0xbfa95ee1faa99442	-0.04955202278942085
166	0x3fb3304f4955ab24	0.0749558977164893
167	0xbfadd268e5f1ee76	-0.05824592406221722
168	0x3f92804a2c045f90	0.018067511498059796
169	0x3f6f5a3730c097b0	0.0038271978319412633
170	0xbfb45f716103d20b	-0.07958134287384426
171	0xbfbaef07809244e0	-0.10520979775380424
172	0xbfa3a4b0b4c4b975	-0.03836586195608308
173	0xbfb369a37bdde3e6	-0.07583066724863805
174	0xbfbc7607d21f6150	-0.11117600326486365
175	0xbfc20fa651b74642	-0.14110259046587897
176	0xbf98f3d07156109e	-0.024367577474109774
177	0xbfb4bbf105557d56	-0.08099275951598392
178	0x3fac5bc6c6ae7bbe	0.055387698891756085
179	0xbfb0c972295c75a1	-0.0655738211612147
180	0xbf8906b16469ba4f	-0.012219797016965432
181	0xbfb71981eff5a3df	-0.09023296459567075
182	0x3f42b47b7f5625e0	0.0005708315863312517
183	0x3fac857438078efc	0.05570567306474847
184	0x3fae5965dd8ad2e1	0.05927580193875826
185	0x3fad4d3030991136	0.057229524547923225
186	0xbfa46ce068a7fdae	-0.03989316251317675
187	0xbfb01437814cdca0	-0.06280848414177109
188	0x3f9912537b0f2327	0.02448397101014446
189	0xbfa01146e52ae6c1	-0.03138181254821638
190	0xbfa4803d80000000	-0.04004089534282684
191	0x3f87814800000000	0.011477053165435791
192	0x3fa5663100000000	0.0417952835559845
193	0x3f707ffe00000000	0.004028312861919403
194	0xbfb8ae0120000000	-0.09640509635210037
195	0xbfb6d9ee60000000	-0.08926286548376083
196	0xbfb0819ba0000000	-0.06447765976190567
197	0x3f7b594000000000	0.006676912307739258
198	0x3f5a08d000000000	0.0015890151262283325
199	0x3fa5a55b00000000	0.04227718710899353
200	0xbfab256a20000000	-0.053019825369119644
201	0xbf8d4fea00000000	-0.014312580227851868
202	0xbfa9b95840000000	-0.050242193043231964
203	0xbf94e1cd80000000	-0.02039261907339096
204	0xbfa9f0d240000000	-0.05066544562578201
205	0xbfab7f4e60000000	-0.053705643862485886
206	0x3fa0d87d80000000	0.032901689410209656
207	0xbf9e6d3480000000	-0.029713459312915802
208	0x3fad393680000000	0.05707712471485138
209	0x3fb5aa2500000000	0.08462744951248169
210	0xbfabc493e0000000	-0.05423414334654808
211	0x3f579a9000000000	0.0014406591653823853
212	0xbfac924a80000000	-0.05580361187458038
213	0x3fb5cdea40000000	0.08517326414585114
214	0xbf98099900000000	-0.023474112153053284
215	0xbfb8c2dca0000000	-0.09672335535287857
216	0xbf61419000000000	-0.0021064579486846924
217	0xbfb0e2c6c0000000	-0.06596033275127411
218	0x3fb74ff100000000	0.09106355905532837
219	0xbfa354e640000000	-0.03775710612535477
220	0xbfa6398360000000	-0.043407540768384933
221	0xbfadb33aa0000000	-0.05800803378224373
222	0x3fb13ad0c0000000	0.06730370223522186
223	0xbfafd00fe0000000	-0.062134262174367905
224	0x3fb2c0fa40000000	0.07325710356235504
225	0xbfaf683660000000	-0.06134195253252983
226	0xbfb8cec0c0000000	-0.09690479934215546
227	0xbf9c397880000000	-0.027562983334064484
228	0x3f891e8500000000	0.012265242636203766
229	0xbfb28d5f40000000	-0.07246966660022736
230	0x3fb9422a80000000	0.09866586327552795
231	0xbf93cde100000000	-0.01934005320072174
232	0xbf3e4e4000000000	-0.0004624277353286743
233	0xbfa6dc1f60000000	-0.044648151844739914
234	0xbfb117d9c0000000	-0.06677018105983734
235	0xbfb1139780000000	-0.06670519709587097
236	0xbf843e8100000000	-0.009884841740131378
237	0xbf786c5c00000000	-0.0059627145528793335
238	0x3fb1d0e800000000	0.06959390640258789
239	0x3fa3a80280000000	0.03839118778705597
240	0x3fb1e37280000000	0.06987681984901428
241	0x3fae47cd00000000	0.05914154648780823
242	0xbf9dc15400000000	-0.029057800769805908
243	0xbfb3958520000000	-0.07650024443864822
244	0xbfa207e180000000	-0.035216376185417175
245	0xbfb0eeaf00000000	-0.0661420226097107
246	0xbf8db87d00000000	-0.014512039721012115
247	0xbfa9bf5c00000000	-0.05028808116912842
248	0x3faca4e200000000	0.05594545602798462
249	0x3fa09df980000000	0.03245525062084198
250	0xbf7042f800000000	-0.003970116376876831
251	0x3fa345e880000000	0.03764273226261139
252	0xbf947d3480000000	-0.020008869469165802
253	0x3f9c216900000000	0.02747119963169098
254	0xbfb9859780000000	-0.09969469904899597
255	0xbfb53df520000000	-0.08297664672136307

linear.bias f8 [128]
0	0xbfb82e84e0000000	-0.09445982426404953
1	0xbfb96b5c29832634	-0.09929443372234276
2	0xbfb4455c00000000	-0.07918334007263184
3	0xbfb72a27835be316	-0.09048697430615635
4	0xbfa820c700000000	-0.04712507128715515
5	0xbfae81e6a903b107	-0.059584816104548514
6	0xbf9a1a4b5a1f6843	-0.025490929961826458
7	0x3fa7ed4c567f00c2	0.04673231654987965
8	0xbfa9af2900000000	-0.050164490938186646
9	0xbfaaff3e8aa4531c	-0.0527286094894974
10	0x3f543db94fe94b7a	0.0012354192437171439
11	0xbfb3104a70e95ab7	-0.07446732765798002
12	0x3fb292ceb6c38df4	0.07255260431298166
13	0xbfa8a345f6ab5728	-0.04812067638492429
14	0xbf82109400000000	-0.008820682764053345
15	0xbfac9db01f105b60	-0.05589056376645973
16	0x3fb782381e145ab4	0.09183073744166387
17	0xbfba7b5a9a2b0637	-0.10344473136776676
18	0x3fb590ea015de0b0	0.08424246343008934
19	0x3fba7689fd7c9a7e	0.10337126196518828
20	0xbf41b8e2ba911f6e	-0.0005408389162164637
21	0xbfbae7b1a18a91d6	-0.10509786790732475
22	0x3fb540cd8f8872b9	0.08302006487105985
23	0xbfb2977e5900f0bf	-0.07262410805646179
24	0x3f8a15d16a9af1f6	0.012736927095255073
25	0xbfa683a160000000	-0.043973010033369064
26	0x3fb19a34c8e4759b	0.06875924973106466
27	0x3f20be4e789bb310	0.00012774188899502452
28	0xbfa86c2de8219afc	-0.04770034273751908
29	0xbfb8190e5c929c7b	-0.09413232574535073
30	0x3fad207be2c9b9ee	0.056888457712250914
31	0x3f9009e3d3543702	0.015662727139946327
32	0x3f837372ee047a2c	0.009497545136182138
33	0x3f9bf46f2e58ac4a	0.027299630359419326
34	0xbfbc3d4a49cc505e	-0.1103102140589853
35	0xbfad0468b11bd3f0	-0.05667426263781994
36	0x3fb279df1d98c53a	0.07217211220337996
37	0xbf94b9eccbf10c96	-0.020240497539145773
38	0x3fb836fec0000000	0.09458915889263153
39	0x3f8b32bb23db873e	0.013280355483803793
40	0x3fb299b4c0000000	0.07265786826610565
41	0xbf942d8b80000000	-0.019704990088939667
42	0x3fa7f2d080000000	0.046774402260780334
43	0xbfb4be8890624404	-0.08103230977054926
44	0xbfa16db280000000	-0.034040048718452454
45	0xbf8b71ee36a810ef	-0.013400898974403634
46	0xbfbcffc6ab885a0c	-0.11327783286865428
47	0x3faca65d80727bc5	0.055956766061391806
48	0xbfa0b04d00000000	-0.03259506821632385
49	0x3f62d61546019214	0.0022993484017652752
50	0x3fa55eff79f1059c	0.04174040187400438
51	0xbfa8281272f17299	-0.047180725604197345
52	0xbfa9428d225412f6	-0.049335871162872566
53	0xbfa5a79797b1e3d5	-0.04229425169700788
54	0xbf6d2acb9f099a7e	-0.0035604454972600333
55	0xbfb612340dd731c2	-0.08621526086716982
56	0xbfbd2b0893de2051	-0.11393788919497295
57	0x3f7b76d470eb789e	0.006705121849078703
58	0x3f9f7093e71feea4	0.030702887517675706
59	0x3faa246b28a9c21c	0.051059101785430466
60	0x3f87162874c1a1a6	0.011272731841203431
61	0x3fba056f80000000	0.10164543986320496
62	0xbf4b03678d12d063	-0.0008243804569674325
63	0x3f915b8280000000	0.016950644552707672
64	0xbfbc2a02208470bf	-0.110015995920949
65	0xbfa840a3f337bbe4	-0.04736816734281726
66	0xbfab28b37f24f342	-0.05304490019850629
67	0x3fa5cc83c2ecfab8	0.04257594828094596
68	0xbfbb9575f6c95d87	-0.10774934077323027
69	0xbfbac151a432181a	-0.10451231249507523
70	0xbfa53998af1f5c40	-0.041455050828226536
71	0xbfb8435270a57c4e	-0.09477725267559942
72	0x3fb4b3e6c7d5fcd9	0.0808700788384046
73	0x3fb756d7dbc27c4b	0.09116887202479622
74	0x3fac83eb513c4127	0.0556939636863965
75	0x3faea374647478a8	0.05984081007248793
76	0xbf8b9744df193929	-0.013472116526057025
77	0x3f6793ddce025680	0.002878125393247555
78	0x3f9b0405fe01d9e6	0.026382535580035248
79	0xbfb432efa346db89	-0.07890222297906581
80	0x3fa28e8eb82688d7	0.036243877391159245
81	0x3f57cfe81d1acafd	0.00145337741234347
82	0x3fb9930c40000000	0.099900022149086
83	0xbfacc8df025ce32b	-0.05622002509921339
84	0xbfbf6e42ca22f334	-0.12277619776700704
85	0xbf9b3240a60a3cae	-0.026558885702397
86	0x3fa6f7e580000000	0.044860050082206726
87	0x3fb2362400000000	0.07113862037658691
88	0x3fb94e95c0000000	0.09885536134243011
89	0xbf67ad76f361e309	-0.002890331578836562
90	0x3f83eabb3d52f49d	0.009725058373414358
91	0xbfa6b74cd7d69cf6	-0.04436721930260916
92	0x3fb2177cc0b51392	0.0706708879925613
93	0xbf9a5c2100000000	-0.025742068886756897
94	0xbfb1bb7080000000	-0.06926634907722473
95	0x3f9da9205de27dda	0.028965478639859522
96	0x3fb7209d80000000	0.09034141898155212
97	0x3fb8eec140000000	0.09739311039447784
98	0x3fba772bcd796c0d	0.10338090673887752
99	0xbfc1f03240e802d2	-0.1401427094388255
100	0xbfa915b0330d2d0c	-0.04899359343706963
101	0xbfb7e11fe0000000	-0.09327887743711472
102	0xbfa0a7fe40000000	-0.03253168612718582
103	0x3f9b53a7b354b0c9	0.026686306305393957
104	0x3fb0e179aa6f56b1	0.06594047938355165
105	0xbfa8a7ec751f1fa6	-0.04815615586954829
106	0xbf4c778000000000	-0.0008687376976013184
107	0xbfc077cdb4964307	-0.1286561137935893
108	0xbfa31125baf0f407	-0.0372401991557823
109	0x3fb3b09c8e662a29	0.0769136283544546
110	0xbfba435300000000	-0.10258978605270386
111	0x3f88338360c7cc88	0.01181700362301387
112	0xbf905e77bd36ec40	-0.01598536579488674
113	0xbf95926be03fb3df	-0.021066365778029335
114	0xbf9d069f80000000	-0.02834557741880417
115	0x3fa134d6269ce726	0.033606235707749385
116	0xbfab5f9e2f871858	-0.05346388178036027
117	0xbf93cde60be72cc1	-0.01934012839937505
118	0xbfc381f25abf813a	-0.15240315848405733
119	0xbfbec60ee530908a	-0.1202096280617885
120	0x3f7372d6ff77f940	0.004748191676752278
121	0xbfb58189a20728d2	-0.08400783735047249
122	0xbfc0084bc43c6598	-0.12525317270118985
123	0x3fa72bd41e0c9f77	0.04525626055538983
124	0x3f7680c26e96fd2e	0.005493888378111307
125	0xbfb52bce0f1fd2cc	-0.08269966000791412
126	0xbf71290400cfa388	-0.004189506184936749
127	0xbfb0224340000000	-0.06302280724048615

linear2.weight f8 [64, 128]
0	0xbfadfa8680000000	-0.058551982045173645
1	0xbfa593166644a3c0	-0.042137813552762804
2	0x3fac04c8c0000000	0.05472400039434433
3	0xbf87955d67c9927b	-0.011515359620895218
4	0xbfa80535e0000000	-0.04691475257277489
5	0xbfb10a75cd5228e5	-0.06656585943906952
6	0xbfa1c8d7d4de1287	-0.034735436186598405
7	0x3fcc3b3a0aedb413	0.2205574563371618
8	0x3fb1d22820000000	0.06961298733949661
9	0x3fb774691a384ebe	0.0916200341237596
10	0xbfb40c13b94c71f8	-0.0783092811001963
11	0x3fb67c68a0000000	0.08783582597970963
12	0x3fa34f81c0000000	0.03771596401929855
13	0x3fb54765d9404598	0.0831206946752644
14	0xbfb0f03b40000000	-0.06616564095020294
15	0x3fa4380340000000	0.03948984295129776
16	0xbf81a6fc13c82c76	-0.00861927924508719
17	0x3fd21c6577a3966b	0.28298317607400375
18	0xbfbd95b64502071d	-0.1155656736828203
19	0xbfafc1dba3fb5d57	-0.062025893943139
20	0x3f3547fcc667baaa	0.00032472535386222445
21	0xbf997eb12079c65a	-0.024897353751333597
22	0xbfc06d8325be22ab	-0.1283420500078781
23	0x3fac135e40000000	0.05483526736497879
24	0x3faa1494f5926f80	0.050938277222683404
25	0xbfb4b7c640000000	-0.08092917501926422
26	0xbf817e028abc2aae	-0.008541126116616251
27	0x3fc17c73d3565a8b	0.1366104871674064
28	0xbfba6d77b8f393a1	-0.1032328440229109
29	0xbfb7ebbbc1979535	-0.09344075657243851
30	0x3fb9e9df25329c5a	0.10122484834811143
31	0xbfc0d83e945fdb38	-0.1315992569431843
32	0x3fc00277ee032000	0.12507533189477726
33	0xbfc30335bc200950	-0.14853545842931704
34	0x3f7b4bea72976d0d	0.006664195834186215
35	0x3fc08c1067093b2f	0.12927441626603683
36	0xbfc33dcb1e0ef713	-0.15032328574846385
37	0xbfb0a1f600000000	-0.06497132778167725
38	0xbfb55ebd40000000	-0.08347685635089874
39	0x3fa34e5bb20c97d0	0.03770720051242871
40	0xbfaebec5c0000000	-0.06004922837018967
41	0x3fb4687020000000	0.07971859723329544
42	0xbfa7a3ef60000000	-0.046172600239515305
43	0x3f9532a94b4dc91d	0.020701070042783976
44	0x3fb0e1f560000000	0.06594785302877426
45	0xbfb71cff9a57a0e2	-0.09028623121378446
46	0x3fb4aa11a05a1b75	0.08072004475444124
47	0x3f9192b1717191d2	0.017161152409600984
48	0x3fab222640000000	0.05299491435289383
49	0x3fc11f1a2fbdf2ea	0.13376166659499883
50	0xbfb1ab8685b08488	-0.06902352107910492
51	0xbf9e1c6d628e37b7	-0.029405316486694946
52	0x3fbfc3f80bac8ff6	0.12408399853717342
53	0xbf936db9c9e3babb	-0.018973257968293505
54	0xbfad150f404ab91e	-0.0568012968045528
55	0xbf91e2917a625381	-0.017465851874095776
56	0x3f95639de450867b	0.020887820301260334
57	0xbf976802dd66bdd8	-0.02285770870520118
58	0xbfb4c4a5b91f433b	-0.0811256005247402
59	0x3f54e65d2f1a0dc0	0.001275626182548048
60	0x3fb3e9cbe65b76de	0.07778620122868626
61	0xbfab142f00000000	-0.05288836359977722
62	0x3fd002cbb32104e0	0.25017063611092105
63	0xbfa8e0c340000000	-0.0485898032784462
64	0xbfb2aa2e4d2062fc	-0.07290925391169972
65	0x3fb38b5dd17566f9	0.07634531368003285
66	0xbfbe7ce8f6f10fc3	-0.11909347561692045
67	0xbf872cf73d56534c	-0.011316234168398907
68	0x3f865e9c739697f0	0.010922643926118497
69	0x3fad0e274a018346	0.05674860742943237
70	0x3fca736fca317078	0.2066478478690248
71	0x3fa531b151b3dc58	0.041394749854526125
72	0xbf729140bf5dd3ab	-0.004533055229207254
73	0xbfcbc2f38bb73a68	-0.21688694307381984
74	0x3f91a92eed6d0b09	0.01724694561131471
75	0x3fc0e86cd1688699	0.1320930502416118
76	0x3fb9312211942ac0	0.0984059613148629
77	0x3fd9175dbcddeec4	0.39205115741763685
78	0xbfb0dc7436346d54	-0.06586386035308084
79	0xbfc6aa351b219ec5	-0.17706931900760572
80	0xbfb50521562a888b	-0.08210953096070932
81	0x3f9430c49c930348	0.01971728521016594
82	0x3fa29cf4c0000000	0.03635372966527939
83	0xbfa14e3a91da3e2b	-0.033799963287603006
84	0xbfd0bc2499ac82c2	-0.2614833355637921
85	0x3fdbb309d0153063	0.4328026325281426
86	0x3fb5232860000000	0.0825677141547203
87	0xbfa44b37e0000000	-0.03963636979460716
88	0x3f777dca00000000	0.0057351961731910706
89	0xbfb18559dbdeacd0	-0.06844102495113025
90	0x3fd25b34609a5e12	0.286816686953416
91	0xbf953fd444944dd0	-0.020751301465748828
92	0x3f93fd0f1bf38b29	0.01952003105260328
93	0x3fab4a9940000000	0.053303517401218414
94	0xbf7c0e7000000000	-0.006849706172943115
95	0x3fc2f76a3bb8b279	0.1481755057915455
96	0xbfac5c9060000000	-0.055393707007169724
97	0xbf953bb000000000	-0.020735502243041992
98	0xbfc047b8510b4911	-0.12718872029524467
99	0x3f9fb60b4447c999	0.03096788028956041
100	0xbfcb3d63a0c35e19	-0.21281094884646803
101	0x3faa37dcc0000000	0.051207445561885834
102	0x3f8ca2f500000000	0.013982690870761871
103	0x3f984ca4ef77c817	0.023729874721489432
104	0xbfbd84a40347278c	-0.11530518608119972
105	0x3f59757489975eda	0.0015538824139777392
106	0xbfb40d34e0000000	-0.078326515853405
107	0x3fd4a1c89f363d17	0.32237449214967867
108	0x3fa14c6008507f93	0.0337858209752532
109	0xbfb49d9a3824f5b3	-0.08052982207023866
110	0xbfac7d60e0000000	-0.05564406141638756
111	0xbfa72f2c20000000	-0.04528177157044411
112	0x3fb0bd7f1407c59c	0.06539148558638036
113	0xbf8d6669f645e067	-0.01435549528899589
114	0x3fb28cba20000000	0.07245982438325882
115	0x3fac420a4021eb20	0.0551913455282913
116	0x3fb3971a9d711374	0.07652441352645473
117	0x3fc09200efcad766	0.12945567806826402
118	0x3f968f8140438fda	0.022031802699430482
119	0xbfc9f8d2bb927902	-0.20290598067089866
120	0x3fc68528d5572627	0.1759387056065844
121	0x3fdd4f8870bfa031	0.4579793072757666
122	0x3fc4e3db765ca4f2	0.16320365218533756
123	0xbf7ea7c73a643786	-0.0074842245433169915
124	0x3fd1539eb92cc329	0.2707287605617688
125	0xbfb2c927de77971c	-0.07338189297987835
126	0x3fbb57cb8939082d	0.10680839634099533
127	0xbfa990b500000000	-0.04993215203285217
128	0x3f96c3e580000000	0.022231660783290863
129	0xbf9d084967899b11	-0.028351923889569145
130	0x3f82eefc00000000	0.0092448890209198
131	0x3fb5c467fb53b85d	0.08502817045129647
132	0x3f8c050700000000	0.013681463897228241
133	0x3fbdce6ef2e61332	0.11643117361206803
134	0xbf95c0a784cd3eb3	-0.021242730598997905
135	0xbfb15e9afa28c268	-0.06784981353190178
136	0xbfa6c15b60000000	-0.044443946331739426
137	0xbf906505490c23b6	-0.016010363181553543
138	0x3fb0e0030706dbf2	0.0659181491999872
139	0xbfb1f91680000000	-0.07020702958106995
140	0xbfb61a7d40000000	-0.08634169399738312
141	0xbfa113168951994a	-0.0333487551331922
142	0xbfa9c3c160000000	-0.05032161995768547
143	0x3fa39efac0000000	0.038322292268276215
144	0x3faafb9979368e64	0.0527008018937323
145	0xbfc9ffeb014b7956	-0.20312249720786707
146	0x3fbb0557934fecd1	0.105550263848204
147	0x3fd4c1d2308fc5f9	0.32432989828438924
148	0xbfb0f23f2de2433b	-0.06619639272890947
149	0xbf845b549214f32b	-0.00993982382589705
150	0x3f973976de569967	0.022680146522952607
151	0x3fb4b08ef3736fc8	0.08081906741739353
152	0x3fa99e693ac6a3aa	0.050036705422207575
153	0x3fa468cf40000000	0.03986213356256485
154	0x3fa1057791c566a7	0.033244835419009626
155	0xbfb3614d13005ca2	-0.07570344652082153
156	0x3fd08986a970f4ee	0.258393922300299
157	0x3fc199a25b0de99b	0.1375010437585161
158	0xbfa72cd9c7bc6794	-0.04526405871565867
159	0x3fd010a8f358d260	0.25101684345580644
160	0xbf7bb39c824f163f	-0.006763087619167828
161	0x3fcebb57356622cc	0.2400921831833983
162	0xbfa1862934e20a94	-0.03422669191879382
163	0xbfcc5e50cbf60003	-0.22162828406362686
164	0x3fc67be6f57d237d	0.1756561945606129
165	0x3fa4bfbcc0000000	0.04052533954381943
166	0xbfb4401760000000	-0.07910295575857162
167	0x3fa7cdafdfa8161a	0.04649114232237768
168	0xbfaf05c2c0000000	-0.060590825974941254
169	0x3fa747b2c0000000	0.04546888917684555
170	0xbf93abf500000000	-0.019210651516914368
171	0x3fbf9e311295a0b1	0.12350756362650618
172	0xbfa6e98560000000	-0.04475037381052971
173	0x3fcb1b2a4dbef5fb	0.21176651760281104
174	0xbfb7d3a4d51a68a2	-0.09307317927087636
175	0x3fb5744b1170321a	0.0838057439397705
176	0x3fb66011e0000000	0.08740340918302536
177	0xbfc4c6055949d270	-0.1622931180933338
178	0xbf8e906593713cfe	-0.014923852502902065
179	0x3fc5fb45dc337016	0.1717307400894021
180	0x3f6389f62e15b522	0.002385121174191555
181	0x3fa0002160d38340	0.03125099474869453
182	0x3faf35b273c82852	0.06095655120232436
183	0x3f9b8491fd7e699c	0.026872902962716702
184	0x3f64e9cf65678fae	0.0025528956132223257
185	0xbf9b0ea6ee09ed00	-0.026423080710157087
186	0x3fbfb897afb37410	0.12391040839743561
187	0xbfa8401ac07319b0	-0.047364078514465446
188	0xbf8e59746f26f648	-0.014819059030624207
189	0x3efbae0000000000	2.6397407054901123e-05
190	0xbfd25929a66b3af8	-0.2866920590576423
191	0xbfa82b0020000000	-0.04720306769013405
192	0xbfbc5449eb5ebc84	-0.1106611442216821
193	0xbf8c11d687e09c46	-0.013705898305557917
194	0x3fc996b94434caad	0.19991222219831198
195	0xbf9714f883a1ec8c	-0.02254093459530941
196	0xbf8d404e2bb69ada	-0.014282808980011042
197	0x3fbcdfe1f3af8e7c	0.11279117774352615
198	0xbfa86b3ec38cefe6	-0.04769321572391032
199	0xbfac4cd39c961ce2	-0.05527364050345242
200	0x3f7dfcd3e9533858	0.007321193484314113
201	0x3fd02e689fe34877	0.2528325616268669
202	0xbf4452ba2a5977cc	-0.0006202134142758663
203	0xbf902e209f6f06f4	-0.015800962191639692
204	0xbf9d8335d1c018e8	-0.028820839812419147
205	0xbfc8f2223384fb9d	-0.1948893310127148
206	0x3f9466b83178b5a9	0.01992309381437499
207	0x3fd5e2588e3a5a4f	0.34194005860755267
208	0x3fc2a3eac234b4a1	0.14562735064229052
209	0xbf66640e2426455b	-0.002733256930874601
210	0x3fa43da440000000	0.03953278809785843
211	0x3f81433b759234d4	0.008429016614423558
212	0x3fd5828a5bc0aaf5	0.3360925575276917
213	0xbfb2234ff1cf2bdb	-0.07085132268473109
214	0xbfb68768c0000000	-0.08800368010997772
215	0xbfa01139e0000000	-0.03138142451643944
216	0x3fa469d840000000	0.03987003117799759
217	0xbfa5724ac299672f	-0.04188760400275126
218	0xbfb21c95148b79ca	-0.07074863196928685
219	0x3fba584d3e03358a	0.1029098774335663
220	0xbfb50e659503eca8	-0.08225092781133247
221	0xbfa7193600000000	-0.045114219188690186
222	0xbfb649bba0000000	-0.08706257492303848
223	0xbfbb3eb5f22811c0	-0.10642563974403796
224	0x3f95fb8c80000000	0.02146739512681961
225	0x3fb2b798a0000000	0.07311395555734634
226	0x3fd1f33735ee1ec1	0.28046970621697304
227	0xbfa2afbf3c4e6a6e	-0.03649709330712346
228	0x3fc7d7fe3badc4d0	0.18627908624652045
229	0xbfa24a4600000000	-0.03572291135787964
230	0xbf9ac31c40000000	-0.0261349119246006
231	0xbfaecf6793aa80e2	-0.06017612149776298
232	0xbf9397318736ee4e	-0.019131444814531932
233	0x3fb7858df805f375	0.09188163094763786
234	0xbfa0cf1440000000	-0.0328298881649971
235	0xbfde773b409ce50e	-0.4760273104653415
236	0xbfb75ac4c6ef1384	-0.09122876984390699
237	0x3fc5d19e0dd7e417	0.17045951534217416
238	0xbfa8a5cd00000000	-0.04813995957374573
239	0xbfad99df7efb45e6	-0.057814583063770006
240	0xbfd46e26c8285ddc	-0.31922311350487376
241	0x3fb78eb14316d8b7	0.09202106368943218
242	0xbf9784c380000000	-0.022967390716075897
243	0x3fb0967ca0000000	0.06479624658823013
244	0x3f8099f602989884	0.008106157259202947
245	0x3f7569a2ad28fbe4	0.005227694945062009
246	0x3f69f41afb6d2ef4	0.003168156337243983
247	0x3fcd27769f8d1606	0.22776682653982067
248	0xbfd5682a1ebef0b6	-0.3344826984646362
249	0xbfe125ce35873a19	-0.5358649297211883
250	0x3f7a212cd05941dd	0.006379294447086595
251	0x3fb923f8531ffa34	0.09820510892311846
252	0xbfdcb8b65b8dc230	-0.44877394619746536
253	0x3fc29ad9e1faa682	0.14535068067680262
254	0xbfa6016409fcf137	-0.04297936078953273
255	0x3fb43043e0000000	0.07886146754026413

linear2.bias f8 [64]
0	0x3fdf0aabfc47f5f2	0.48502635609460676
1	0x3f906431d467bb26	0.016007212247070822
2	0x3fdee165be6b6096	0.48250716777466474
3	0xbfa17307694688ed	-0.0340807262430348
4	0x3fd338cde6da713c	0.3003420595575965
5	0x3fd8c9cead9f9c77	0.38731734233301246
6	0x3f70d69274108986	0.0041108818850567105
7	0x3fd306a184394226	0.29727971947162
8	0xbf7c2c112bca5eb6	-0.006877963137092704
9	0x3fce7dc7bf277354	0.23821350892731152
10	0x3fa79d7510b31b0a	0.046123178757218566
11	0x3fd73fa9e77dae40	0.3632607231763565
12	0xbfda2ec845705e91	-0.40910536557337546
13	0xbf82c582d1bcd8c9	-0.009165784860311625
14	0x3fd21f00adf66686	0.28314225185895514
15	0x3fdcb400e400d910	0.44848654046963166
16	0x3f9aa922c405c542	0.026035826887384823
17	0x3fd2d2905b09ee1e	0.2941017998743706
18	0x3fc85e408a95d33a	0.19037634627206917
19	0xbfdf16e9e64c8354	-0.4857735394489755
20	0x3f7492990bfdb343	0.005022619094103234
21	0xbfc4c3d5d4b4fcfe	-0.16222641836245794
22	0x3fd6d565c4e90e58	0.3567747519448168
23	0x3fd7b8766a7309d7	0.3706337012810343
24	0x3fc5a87d8da4e530	0.1692044202443781
25	0x3f78c79f3edd845a	0.006049749424932827
26	0x3fd1fe3b5c608617	0.28114208241649535
27	0xbf42493297fd0baa	-0.0005580422439169692
28	0x3f60d6b147965593	0.0020554983609126303
29	0x3f8ec2a108ddd3d1	0.01501966293629123
30	0x3fd3cb0642161d62	0.3092666287779676
31	0x3f570c726bc10e1d	0.0014067761794799357
32	0x3f831213826d4629	0.009311821382342949
33	0xbfeadde53f77c3b1	-0.8395868529897738
34	0xbf76ac10dada8325	-0.005535188521805155
35	0xbfa41df51cd767f9	-0.03929105736797562
36	0x3fd4bf32827f2383	0.32416975730716774
37	0x3fa5006499381011	0.0410186230692774
38	0xbfb3d443877804f7	-0.07745763833374385
39	0x3fd5744fffcc25c8	0.33522415142269013
40	0x3fdef2219c91eb39	0.48352852144278163
41	0x3faec8920b173ba7	0.0601239813364523
42	0xbfd0b4ce06dfffb1	-0.26103544875513324
43	0xbf950f7cdb0cd516	-0.020566893453367895
44	0x3fd65461a32fd375	0.3489002317067425
45	0x3fd1de6275b45eb9	0.27919827932917546
46	0xbfc3d206a71076b2	-0.1548469844573695
47	0xbfd8c88b70d0c0fe	-0.38724027650006565
48	0x3fd273f233464e5c	0.28832678801811595
49	0x3fd0a392cfbe1e02	0.2599837330567142
50	0x3fd823d2102bfb42	0.3771863134315262
51	0x3fb26346728f79a6	0.07182731911550508
52	0xbfe79ab81e4a9deb	-0.737636622584373
53	0x3f972ddc4e5fcaa7	0.022635881694393813
54	0x3fd73672e2fccef1	0.3626982895541309
55	0xbfe8f0cfb6cd088a	-0.7793959207849792
56	0x3fcb2d9810a62eac	0.21232891858050118
57	0x3fd8fe1ee60e385e	0.39051029650079794
58	0x3f736b63bbb9f79a	0.004741086562374175
59	0x3f67e7c6b4a9c8a9	0.002918136689282387
60	0xbfe250c0a98a234c	-0.5723574935264906
61	0x3fc53d73ab7f8fb9	0.16593786119403633
62	0x3fdc9a2677eebb6a	0.4469085856643945
63	0xbfcf5f8597f783b7	-0.2451025955224659

linear3.weight f8 [3, 64]
0	0x3fa7cf3b7775948f	0.046502931911882255
1	0xbfd870405afce572	-0.3818512810281255
2	0x3fab7d6e7dbb3b35	0.05369134220892705
3	0xbf991cf6772dc68b	-0.024524546646210992
4	0x3fd616a4f48da11b	0.3451321018424253
5	0x3faa2b1eebc40ac5	0.05111023548126562
6	0xbfde55cecdce9acc	-0.47398729418129615
7	0x3fd950b8c25b4b2a	0.3955518625272584
8	0xbfd68cc7ab4dc20c	-0.3523425267112834
9	0x3fdcaa2255b589e0	0.4478841626170418
10	0xbfbbfa5899ce4a85	-0.10928872828507437
11	0x3fce5b447779e4bc	0.23716026147648062
12	0xbff634ab41e87976	-1.3878586363349235
13	0xbfdb0d60d0cdf01f	-0.42269153967913725
14	0x3fe02f9c08f47249	0.5058117079639227
15	0x3fbfca02a3b1b308	0.12417618271292608
16	0xbfd47b4bc0e32e10	-0.3200253852525927
17	0x3fce7642b416c1ff	0.23798402589228826
18	0xbfc94b2f978574e9	-0.19760699175359456
19	0x3fab6384bd538288	0.05349364100562065
20	0xbfcb7fc0b1ecbc13	-0.21483620345813445
21	0xbfdc3679b5b75411	-0.44082491632190207
22	0x3fe1ec782e9e78b8	0.5601159010436936
23	0x3fe0073ef7fabc1f	0.5008845179889966
24	0x3fd4cbd670317afd	0.3249412627828148
25	0xbfe163a3ed8ba3a6	-0.5434131278571968
26	0x3fd3ea05e4cc55eb	0.31115863174031116
27	0xbfd5a425aa68790c	-0.3381437458173344
28	0xbfddc18b2c371c5b	-0.4649379665174302
29	0xbfdb7f695b7fd175	-0.4296515840099098
30	0x3fb6e343933c2654	0.08940527290919792
31	0xbfc62f305f85e432	-0.17331509269914275
32	0xbfce77a1cfbcf0f3	-0.2380258812280612
33	0x3fa67e74d0b46a29	0.043933535076764514
34	0xbfa21a0c1786ef1c	-0.03535497462459444
35	0xbfcc1050a627c2f2	-0.2192478953652635
36	0xbf9f4741e16420aa	-0.03054526270082706
37	0xbfd3c56da7d05dc2	-0.308925069695274
38	0xbff0329876c1deba	-1.0123524321515291
39	0x3fb542cd7a07bd17	0.08305057744268073
40	0x3fc3bb113b67365d	0.1541463413290555
41	0xbf90d29e1f538d71	-0.016428442632685007
42	0xbfeccc5b9ed1c793	-0.8999460317556774
43	0x3fa7a88f324356af	0.046207880864739585
44	0x3fb8aa6f1136a3e0	0.09635061426401093
45	0x3fd9c1c5daf0ec0e	0.4024519575211237
46	0xbff0f2a4d69444e5	-1.0592392332076142
47	0xbfea73ee045aacf2	-0.8266515812914845
48	0x3fb1d96a71e3e9bb	0.0697237518360571
49	0x3fdb432ac55feef4	0.4259745528686232
50	0x3fdd930097c4d3ba	0.46209730931451143
51	0xbf949689bba28ab8	-0.02010550697071764
52	0x3fc21a07e4de6a0b	0.1414193980716195
53	0xbfe02ef964040220	-0.5057341531210717
54	0x3f8300f666156756	0.009279179563850864
55	0x3fb271fed280f9aa	0.07205193175557292
56	0x3fd6d0290f0fd868	0.3564551016892268
57	0x3f91760561f06c52	0.017051776983958718
58	0xbfbe3cabbbfa1b9d	-0.11811326350480873
59	0xbfd02216259c3686	-0.252080475548475
60	0x3fbe06fac210ad92	0.11729399907988228
61	0x3fa7c89529746595	0.0464521992782451
62	0x3f95fd7b97063f54	0.021474772541807255
63	0xbfed580c84a7b701	-0.9169981566353443
64	0xbf541b39212198c3	-0.001227193632553234
65	0x3fa8a749102fc783	0.04815128634062573
66	0xbfadcf57453422e2	-0.05822251052638251
67	0x3f9fc1795b521698	0.031011482428331932
68	0xbfd046b1990316e9	-0.2543148035295944
69	0x3f92837e36a4870e	0.018079731068730225
70	0x3f6f1ff350159cda	0.003799414844866439
71	0xbfb75b5201d5603a	-0.09123718781245396
72	0xbf59092b2a43c59e	-0.0015280648740908296
73	0xbfc874ba4f065b4b	-0.19106224878916075
74	0x3fbd1a7fefca3fd0	0.11368560413597995
75	0xbfd49eda8f92d7e0	-0.322195663651085
76	0xbfc24c96018ea313	-0.1429622180560491
77	0x3fb1cb5cc24c019b	0.069509313045279
78	0xbfd0d506623487db	-0.26300201025344244
79	0x3fc05e114cc47829	0.1278707146493059
80	0x3fc0ca875198e312	0.13118068203200345
81	0xbfd2e374807a08b8	-0.29513275667717265
82	0x3fc3025af2789469	0.14850937690167434
83	0xbfb8647a2f64f8a3	-0.09528316170778565
84	0x3facf31342923f18	0.05654201686513555
85	0xbfc55086f98b9172	-0.16651999649833332
86	0xbfceafbb14341d41	-0.23973787771704205
87	0xbfd146b55011a332	-0.26994068927028814
88	0xbfcb7b5dfd258dc8	-0.21470236645391894
89	0x3fb20b71f0d82416	0.07048713808048065
90	0xbfe26878defd9b6b	-0.575252948311442
91	0x3fbf15e3a96f1a91	0.12142775427410359
92	0x3fa70957396490ff	0.044993139034234624
93	0x3f9ca6fdd5d42ab5	0.02798077218634872
94	0x3fad8ce4c6b4e1ed	0.057715558296368964
95	0xbfa3e58eb8ff12f4	-0.03886075981384876
96	0x3fa502bfa17dd6e2	0.04103659483273049
97	0xbfb54e1855d7156e	-0.08322288604457181
98	0x3f98567faf0f2db6	0.023767466602107233
99	0x3fa07adb7f6d1c31	0.03218732767577882
100	0xbfaf7bdb9446e8dc	-0.06149183449766024
101	0x3fbf16cacecc7d87	0.1214415316467151
102	0xbfa55757ee11ce4a	-0.04168200284121022
103	0x3fc0649a6526b252	0.12807016314526948
104	0x3faa5561401654a9	0.05143264682116328
105	0x3fb6c7829b2bad64	0.08898178375573235
106	0xbfb718b5d9dd1ef4	-0.09022080010356232
107	0x3fa31b87d7274d80	0.037319417013033096
108	0xbfb1e17c94e93a82	-0.06984690318607004
109	0xbfcb0a93bcc6d8e9	-0.21126028745283712
110	0xbf8bc569986f399b	-0.01356012817805379
111	0xbfa0988173ee844e	-0.03241352596456491
112	0x3fa7b738a643772c	0.04631974248489565
113	0xbfd71a8c63539e99	-0.36099538516871515
114	0xbfccbcf819ca7348	-0.22451688060109576
115	0x3fa9489351a6fc0c	0.049381831853217845
116	0xbfb1c777d930c5e9	-0.06944989254477431
117	0xbf80c60a6acdd731	-0.008190232643510239
118	0x3faff4dd4223bebd	0.0624150412785389
119	0xbfacc3f65ed984a2	-0.05618257434685715
120	0xbfd0b7b65a281e8b	-0.2612129097401314
121	0xbf8f416267060187	-0.015261429566408647
122	0x3fb51b67d23c88db	0.08244942553259042
123	0x3fbe5f680eee550d	0.11864328732038505
124	0xbfaeb1dd58581af1	-0.059950749429892876
125	0x3f9567df74818984	0.02090405605884761
126	0xbf5ab3447bbe9441	-0.001629654768273939
127	0xbfc8f904cdaa5157	-0.19509944956065325
128	0xbfe429435cd770e9	-0.6300370038329933
129	0x3fb9cff9d0f5e79b	0.10082970954490948
130	0xbfe3225328b2c348	-0.5979400439156075
131	0xbfd6ef4decd04ef8	-0.35835598112429023
132	0xbfe320858d409a72	-0.5977199324450579
133	0xbfe52f140c679bf7	-0.6619968645362623
134	0x3f7e8335cbef5b0a	0.00744935049347962
135	0xbfc18c4bc54ced3f	-0.13709399350941884
136	0xbfb92a5837628bd2	-0.09830237724467786
137	0x3f9fb1d31f60e4e2	0.030951784887496177
138	0xbfb728f1564c6a98	-0.09046848637482652
139	0xbfe2e129bb9c0b4e	-0.5899857200859999
140	0x3fb89b87f8f0cf78	0.09612321689274761
141	0x3fb19e508202ffe8	0.06882193731416886
142	0xbfb2f30a2f8b25d4	-0.07402099285822966
143	0xbfda3af9eb6f45fe	-0.4098496245543116
144	0x3fc430c6ef9cbaa9	0.15773855876746737
145	0xbf91f85766e83a04	-0.0175489098128825
146	0xbf46313c80e5c728	-0.000677256148078541
147	0x3fb585df0d28193d	0.08407396384436523
148	0xbfcf66ff5b8c8948	-0.24533073396839655
149	0x3fc1bb19241a26fc	0.13852228415299084
150	0x3fa0def8566fe8b5	0.03295112662449765
151	0xbfbce8fb6a857404	-0.11293002462976182
152	0x3fa49d909201cc55	0.04026462347328478
153	0x3fb1a5422edbc66c	0.06892789501196156
154	0xbfe1717c6d903e30	-0.5451032771979438
155	0x3fbd5e304a9cedec	0.11471845456701829
156	0x3fb0d2f9981bba72	0.06571922267515065
157	0x3fa9b79f46e206af	0.050229051020335695
158	0xbfe5f97b254360a3	-0.6867042281910652
159	0xbfc116faf82c7f2d	-0.13351380460607612
160	0xbfa182e068d6b060	-0.03420163421410005
161	0x3fcbc7cee309a910	0.21703516088320685
162	0xbfd816b87e707b73	-0.37638676021190703
163	0x3fa1cedbba2f62f1	0.034781328656839146
164	0xbfe23f3388b6f380	-0.5702150030334536
165	0x3fc0999ab793a99e	0.12968763316832804
166	0x3fab0ff453d04379	0.052856097441810364
167	0xbfdd8a7a39fa211f	-0.4615769926245025
168	0xbfe1876049ca895a	-0.5477754060014306
169	0xbfd12b9b23494196	-0.26828649946130534
170	0x3fc3f477d6c1d43b	0.15589807497204497
171	0xbfdecd28e456516e	-0.48127195642998444
172	0xbfe91b3be4e39f4a	-0.7845744581690977
173	0xbf9f5eb477e18a1c	-0.030634708229977034
174	0x3fc3be952c6228c6	0.15425362269554038
175	0x3fc6a172b4f2d977	0.17680200419790612
176	0xbfe4b32000bd9fa9	-0.6468658461062563
177	0xbfd1dbfa8054e6ee	-0.27905142338168687
178	0x3f848f5be9e39df3	0.01003906066439606
179	0xbfceacd2cad0a8b9	-0.23964915183143434
180	0xbfdf5479c51e8823	-0.48953098535469247
181	0xbf90f972935bf335	-0.016576566928949894
182	0xbfdc81cd81a1f256	-0.44542253169473633
183	0x3fbd167cc94a2c6e	0.11362438120174698
184	0x3fa63125703b38e4	0.04334370608340679
185	0xbfe5eca8ffb5d26f	-0.6851391786900204
186	0xbfce3c072d27386d	-0.2362069101786263
187	0x3fc2fa8da0c7cf97	0.14827127791033654
188	0xbfdab3672abbd672	-0.4171998898812951
189	0xbfe2704c0a8c43c8	-0.5762081342710355
190	0xbfe531293a4f1ccc	-0.6622511042450241
191	0x3fc671fe7435a25b	0.17535381960194027

linear3.bias f8 [3]
0	0xbfd99a46b235a904	-0.4000412693336701
1	0x3fd1389d06efd9f1	0.26908040692742846
2	0xbfd132295e5a53f8	-0.26868662084717654
