runs/testrun-mlp-final-20r-40bs-100ep/0/LocalModel-0-Round6.pt (torch, 167767 bytes, 6 tensors)

linear.weight f8 [128, 95]
00000000: 0000 0000 4847 b5bf 0000 0080 f232 90bf
00000010: 0000 0000 f13f a23f 0000 0000 9a84 9a3f
00000020: 0000 0060 8b4f b2bf 0000 0000 9d20 a0bf
00000030: 0000 0000 8f75 a4bf 0000 0020 fc2b b7bf
00000040: 0000 0080 19ce b43f 0000 0000 02c6 803f
00000050: 0000 0000 2144 a4bf 0000 0040 12b0 a6bf
00000060: 0000 0000 fbc6 b2bf 0000 0000 f579 b23f
00000070: 0000 0000 945a 70bf 0000 0040 fb62 b53f
00000080: 0000 0020 0729 b5bf 0000 0080 bfcf a13f
00000090: 0000 00c0 071e a5bf 0000 0080 e1e7 a53f
000000a0: 0000 0080 8ab1 a03f 0000 0040 d5c5 b53f
000000b0: 0000 00e0 2688 a5bf 0000 00e0 3b25 b5bf
000000c0: 0000 0000 00ac 883f 0000 00c0 ed8b b8bf
000000d0: 0000 0000 7fb9 8c3f 0000 0080 1259 b33f
000000e0: 0000 0000 9cc9 94bf 0000 00c0 f178 b2bf
000000f0: 0000 0060 db23 a6bf 0000 0080 716b a53f
00000100: 0000 0040 6484 b83f 0000 0080 2661 b2bf
00000110: 0000 0000 9ee8 b2bf 0000 00e0 9a18 b5bf
00000120: 0000 0000 0281 acbf 0000 0000 5d45 a2bf
00000130: 0000 0000 0c11 9ebf 0000 0080 6870 a1bf
00000140: 0000 0000 8dc3 80bf 0000 0040 8f40 a1bf
00000150: 0000 0000 b929 8c3f 0000 0000 0ccb b53f
00000160: 0000 0080 92dd a23f 0000 0000 38c2 5cbf
00000170: 0000 00c0 b28c b13f 0000 0000 5545 b8bf
00000180: 0000 0000 8acb 77bf 0000 0080 4fe2 a53f
00000190: 0000 0040 4be5 b93f 0000 0000 f83b 73bf
000001a0: 0000 0000 6799 9ebf 0000 00c0 7a71 a1bf
000001b0: 0000 0000 6df4 b6bf 0000 0000 06a0 893f
000001c0: 0000 0000 f6ff 72bf 0000 0060 5c63 b1bf
000001d0: 0000 0000 586c ab3f 0000 0080 6d1b b53f
000001e0: 0000 0080 526f aa3f 0000 0040 bca8 b43f
000001f0: 0000 0040 c036 b0bf 0000 00e0 f92e aebf
00000200: 0000 0000 8bb4 973f 0000 0000 12cc b63f
00000210: 0000 0000 3073 81bf 0000 0080 00c8 a73f
00000220: 0000 0020 4ba3 aebf 0000 0080 088b b5bf
00000230: 0000 0080 4dfd a73f 0000 0000 2b08 adbf
00000240: 0000 0060 1c59 b9bf 0000 0080 dd99 913f
00000250: 0000 0060 b999 b6bf 0000 00c0 4442 b23f
00000260: 0000 00c0 bc88 b23f 0000 0000 fe15 8bbf
00000270: 0000 0000 486b 563f 0000 0040 d192 afbf
00000280: 0000 0080 aeb2 b43f 0000 0000 cbb1 b63f
00000290: 0000 00c0 fcbd b23f 0000 0000 9b05 b73f
000002a0: 0000 0080 725b a53f 0000 0080 95e2 97bf
000002b0: 0000 0080 f3c1 b03f 0000 0000 79f0 b93f
000002c0: 0000 0020 819e b2bf 0000 0000 4cab 8c3f
000002d0: 0000 0080 dcfa b8bf 0000 0080 1834 a7bf
000002e0: 0000 0000 3da6 833f 0000 0000 fedc b43f
000002f0: 0000 0000 d39c 9a3f 9f61 e860 6ce9 a6bf
00000300: 8179 7a4d e6c5 b0bf 8667 89a8 c828 b13f
00000310: 3ce4 75a5 0d39 c1bf 4a91 64ef 95be b23f
00000320: ca62 2050 5572 b6bf 88f3 3242 93b1 55bf
00000330: dea0 9aad fa13 b2bf b0f7 134c 35a9 bbbf
00000340: 5827 4039 5cff a0bf 0993 9990 13d6 9cbf
00000350: 66dd 0b29 a228 893f e7c3 4fc9 baeb a33f
00000360: 9807 ad1a 5657 ac3f 27cc 0ee9 d690 b6bf
00000370: b316 5cb0 9895 a3bf f8d9 abe7 9b9b a03f
00000380: a009 118b 1581 c0bf c97a 5638 af06 9a3f
00000390: 8813 a050 b770 a13f 4455 a331 f8c9 a93f
000003a0: b45e f5f7 53ed aebf f70e cc10 8f9d aebf
000003b0: 3093 d325 6677 a9bf a0b4 2879 eb68 b83f
000003c0: 085f 6a48 4ad7 b9bf 2ef0 dbab f382 a7bf
000003d0: f5d1 6d90 f3a5 78bf d442 42fc 573a 8e3f
000003e0: b36d e93f 90a1 973f f6ff 7782 cbdb ae3f
000003f0: b82c 4544 8a21 a13f 9849 260c 8b2a c1bf
00000400: 7c13 314f 0d0e 8c3f b2cb 76b5 b222 a3bf
00000410: c07e d9fb 9fb8 b3bf 5c51 856e a103 7e3f
00000420: 127d b09f 017b b0bf eaee 5170 389f b7bf
00000430: 0ca6 2c9c f78b 8b3f 3a1e 37eb a556 a23f
00000440: 7680 39e1 16c4 7d3f 1d05 aa5d d8f8 c6bf
00000450: 8847 bcdc 0990 95bf fd65 e194 958a bbbf
00000460: 50e4 d698 87d0 853f c63e 6b27 0d4d 8e3f
00000470: 7ab6 2d03 f918 c1bf d6aa 61e6 acb0 b9bf
00000480: c808 372c fba1 c0bf d65a eed6 07a8 a53f
00000490: b66d 78ad 6797 84bf 8a89 7839 6097 a5bf
000004a0: e0f9 69d6 145e bbbf 4eeb 8104 3c3a b43f
000004b0: 0261 a708 2be2 8ebf f359 55e1 70cc a6bf
000004c0: 04d0 d14c af48 a6bf 9fd7 ac8b 4419 9cbf
000004d0: 0489 1f4c f317 b33f 5866 0b30 4fec 89bf
000004e0: 1049 56f9 7caf 8b3f 5919 ee0c c54c b2bf
000004f0: c241 b331 7438 9f3f 405a a5a4 6b19 c1bf
00000500: 6f43 0381 22b1 973f e230 2bad 94b9 a6bf
00000510: 5d45 96ac ef8a a4bf 3b28 f9b1 e3bd b2bf
00000520: c4d3 e392 69c3 ae3f 4294 a9fa e15e a9bf
00000530: 24ab 5549 4f30 b33f 76ee f1e5 68d2 adbf
00000540: 905f 042c 4a80 923f b097 c030 375a 6f3f
00000550: 0bd2 0361 715f b4bf e044 9280 07ef babf
00000560: 75b9 c4b4 b0a4 a3bf e6e3 dd7b a369 b3bf
00000570: 5061 1fd2 0776 bcbf 4246 b751 a60f c2bf
00000580: 9e10 5671 d0f3 98bf 567d 5505 f1bb b4bf
00000590: be7b aec6 c65b ac3f a175 5c29 72c9 b0bf
000005a0: 4fba 6964 b106 89bf dfa3 f5ef 8119 b7bf
000005b0: e025 567f 7bb4 423f fc8e 0738 7485 ac3f
000005c0: e1d2 8add 6559 ae3f 3611 9930 304d ad3f
000005d0: aefd a768 e06c a4bf a0dc 4c81 3714 b0bf
000005e0: 2723 0f7b 5312 993f c1e6 2ae5 4611 a0bf
000005f0: 0000 0080 3d80 a4bf 0000 0000 4881 873f
00000600: 0000 0000 3166 a53f 0000 0000 fe7f 703f
00000610: 0000 0020 01ae b8bf 0000 0060 eed9 b6bf
00000620: 0000 00a0 9b81 b0bf 0000 0000 4059 7b3f
00000630: 0000 0000 d008 5a3f 0000 0000 5ba5 a53f
00000640: 0000 0020 6a25 abbf 0000 0000 ea4f 8dbf
00000650: 0000 0040 58b9 a9bf 0000 0080 cde1 94bf
00000660: 0000 0040 d2f0 a9bf 0000 0060 4e7f abbf
00000670: 0000 0080 7dd8 a03f 0000 0080 346d 9ebf
00000680: 0000 0080 3639 ad3f 0000 0000 25aa b53f
00000690: 0000 00e0 93c4 abbf 0000 0000 909a 573f
000006a0: 0000 0080 4a92 acbf 0000 0040 eacd b53f
000006b0: 0000 0000 9909 98bf 0000 00a0 dcc2 b8bf
000006c0: 0000 0000 9041 61bf 0000 00c0 c6e2 b0bf
000006d0: 0000 0000 f14f b73f 0000 0040 e654 a3bf
000006e0: 0000 0060 8339 a6bf 0000 00a0 3ab3 adbf
000006f0: 0000 00c0 d03a b13f 0000 00e0 0fd0 afbf
00000700: 0000 0040 fac0 b23f 0000 0060 3668 afbf
00000710: 0000 00c0 c0ce b8bf 0000 0080 7839 9cbf
00000720: 0000 0000 851e 893f 0000 0040 5f8d b2bf
00000730: 0000 0080 2a42 b93f 0000 0000 e1cd 93bf
00000740: 0000 0000 404e 3ebf 0000 0060 1fdc a6bf
00000750: 0000 00c0 d917 b1bf 0000 0080 9713 b1bf
00000760: 0000 0000 813e 84bf 0000 0000 5c6c 78bf
00000770: 0000 0000 e8d0 b13f 0000 0080 02a8 a33f
00000780: 0000 0080 72e3 b13f 0000 0000 cd47 ae3f
00000790: 0000 0000 54c1 9dbf 0000 0020 8595 b3bf
000007a0: 0000 0080 e107 a2bf 0000 0000 afee b0bf
000007b0: 0000 0000 7db8 8dbf 0000 0000 5cbf a9bf
000007c0: 0000 0000 e2a4 ac3f 0000 0080 f99d a03f
000007d0: 0000 0000 f842 70bf 0000 0080 e845 a33f
000007e0: 0000 0080 347d 94bf 0000 0000 6921 9c3f
000007f0: 0000 0080 9785 b9bf 0000 0020 f53d b5bf
-0.08311891555786133 -0.015819348394870758 0.035644084215164185 0.025896459817886353 -0.07152625173330307 -0.03149881958961487 -0.03995940089225769 -0.0905149057507515
0.08126983046531677 0.008190169930458069 -0.039582282304763794 -0.044312067329883575 -0.07334870100021362 0.07217341661453247 -0.003992632031440735 0.08354158699512482
-0.08265728503465652 0.034788116812705994 -0.041244737803936005 0.042784735560417175 0.032604530453681946 0.08504994213581085 -0.04205438122153282 -0.08259939402341843
0.01204681396484375 -0.09588514268398285 0.014025680720806122 0.07557788491249084 -0.020300328731536865 -0.07215796411037445 -0.04324231669306755 0.04183535277843475
0.09577013552188873 -0.07179489731788635 -0.07386195659637451 -0.08240669220685959 -0.055671751499176025 -0.035685449838638306 -0.02936190366744995 -0.034060731530189514
-0.008185483515262604 -0.03369567543268204 0.013751454651355743 0.0851294994354248 0.03684671223163605 -0.0017552897334098816 0.0685531347990036 -0.09480792284011841
-0.0058093443512916565 0.04274223744869232 0.10115499794483185 -0.004695862531661987 -0.02988205850124359 -0.03406890481710434 -0.08966714143753052 0.012512251734733582
-0.004638634622097015 -0.06792237609624863 0.05356097221374512 0.0824497640132904 0.051630571484565735 0.08069969713687897 -0.06333543360233307 -0.058952149003744125
0.023149654269218445 0.08905136585235596 -0.00852048397064209 0.046447768807411194 -0.059839580208063126 -0.08415272831916809 0.046854421496391296 -0.05670294165611267
-0.099015973508358 0.017188511788845062 -0.08828314393758774 0.07132367789745331 0.07239894568920135 -0.013225540518760681 0.0013683512806892395 -0.061667002737522125
0.0808514654636383 0.0886504054069519 0.07321147620677948 0.08992928266525269 0.04171331226825714 -0.02332528680562973 0.06545946002006531 0.10132557153701782
-0.07273108512163162 0.013998597860336304 -0.09757784008979797 -0.0453193336725235 0.009594418108463287 0.08149707317352295 0.025988861918449402 -0.04474962885814481
-0.06551970855296042 0.06702856173197178 -0.13455362872244503 0.07322060675193601 -0.0876820870038372 -0.0013240755150001077 -0.0706173585737164 -0.10805066211102488
-0.03319824408397548 -0.02816038675372837 0.012284533383975126 0.03890784938256058 0.05535382342942724 -0.08814757528198013 -0.0382507052691329 0.03243720248240217
-0.1289393357311157 0.025416124166094876 0.034063080398516965 0.05036903005535945 -0.06040441896283025 -0.05979582862894788 -0.04973906718968235 0.0953509493635516
-0.10094131725270128 -0.04592095826043906 -0.006017638609467903 0.014759719262913341 0.023077253247135675 0.0602706524623499 0.03345901568771964 -0.13411081403007752
0.013698677043189049 -0.03737410035264278 -0.0770359029643215 0.007327681152976186 -0.06437692783992002 -0.09227326147259488 0.01345056004864189 0.035817322695546897
0.0072670835248517165 -0.17946915219730722 -0.02105727586519593 -0.10758337864663044 0.010651645042218189 0.014795401349516079 -0.1335746064682331 -0.10035210251377732
-0.1299432721990057 0.04229759691877681 -0.010054407102009982 -0.04217053128765531 -0.10690431818691293 0.07901358709379488 -0.015079818917840718 -0.04452851057674314
-0.04352329075564401 -0.027440138840766456 0.07458420380092795 -0.012657755521490774 0.013518310889399504 -0.07148391309428827 0.030488791974507164 -0.13358827151633257
0.023136653065026488 -0.044384618891486274 -0.04012249929213383 -0.07320998282480755 0.060084628277685265 -0.04955202278942085 0.0749558977164893 -0.05824592406221722
0.018067511498059796 0.0038271978319412633 -0.07958134287384426 -0.10520979775380424 -0.03836586195608308 -0.07583066724863805 -0.11117600326486365 -0.14110259046587897
-0.024367577474109774 -0.08099275951598392 0.055387698891756085 -0.0655738211612147 -0.012219797016965432 -0.09023296459567075 0.0005708315863312517 0.05570567306474847
0.05927580193875826 0.057229524547923225 -0.03989316251317675 -0.06280848414177109 0.02448397101014446 -0.03138181254821638 -0.04004089534282684 0.011477053165435791
0.0417952835559845 0.004028312861919403 -0.09640509635210037 -0.08926286548376083 -0.06447765976190567 0.006676912307739258 0.0015890151262283325 0.04227718710899353
-0.053019825369119644 -0.014312580227851868 -0.050242193043231964 -0.02039261907339096 -0.05066544562578201 -0.053705643862485886 0.032901689410209656 -0.029713459312915802
0.05707712471485138 0.08462744951248169 -0.05423414334654808 0.0014406591653823853 -0.05580361187458038 0.08517326414585114 -0.023474112153053284 -0.09672335535287857
-0.0021064579486846924 -0.06596033275127411 0.09106355905532837 -0.03775710612535477 -0.043407540768384933 -0.05800803378224373 0.06730370223522186 -0.062134262174367905
0.07325710356235504 -0.06134195253252983 -0.09690479934215546 -0.027562983334064484 0.012265242636203766 -0.07246966660022736 0.09866586327552795 -0.01934005320072174
-0.0004624277353286743 -0.044648151844739914 -0.06677018105983734 -0.06670519709587097 -0.009884841740131378 -0.0059627145528793335 0.06959390640258789 0.03839118778705597
0.06987681984901428 0.05914154648780823 -0.029057800769805908 -0.07650024443864822 -0.035216376185417175 -0.0661420226097107 -0.014512039721012115 -0.05028808116912842
0.05594545602798462 0.03245525062084198 -0.003970116376876831 0.03764273226261139 -0.020008869469165802 0.02747119963169098 -0.09969469904899597 -0.08297664672136307

linear.bias f8 [128]
00000000: 0000 00e0 842e b8bf 3426 8329 5c6b b9bf
00000010: 0000 0000 5c45 b4bf 7d8a 30c6 feaa b6bf
00000020: 0000 0000 c720 a8bf a55a 0c8d 406d b1bf
00000030: 4368 1f5a 4b1a 9abf c200 7f56 4ced a73f
00000040: 0000 0000 29af a9bf 1c53 a48a 3eff aabf
00000050: 7a4b e94f b93d 543f b75a e970 4a10 b3bf
00000060: f48d c3b6 ce92 b23f 2857 abf6 45a3 a8bf
00000070: 0000 0000 9410 82bf 605b 101f b09d acbf
00000080: b45a 141e 3882 b73f b8a8 89ef 2211 babf
00000090: eeae 00a4 f836 b53f 66f5 7649 4875 b93f
000000a0: 2ab7 36d6 09f3 2a3f d691 8aa1 b1e7 babf
000000b0: 50aa bc39 13ff b13f bff0 0059 7e97 b2bf
000000c0: f6f1 9a6a d115 8a3f 0000 0060 a183 a6bf
000000d0: 7259 e4ec 0452 b03f 10b3 9b78 4ebe 203f
000000e0: 415f 74bb 13d4 a7bf 7b9c 925c 0e19 b8bf
000000f0: eeb9 c9e2 7b20 ad3f 7fb3 4caa 0d41 913f
00000100: 2c7a 04ee 7273 833f 4aac 582e 6ff4 9b3f
00000110: 5e50 cc49 4a3d bcbf aec6 7702 f5e2 abbf
00000120: dc55 e681 1b1c b33f 960c f1cb ecb9 94bf
00000130: 0000 00c0 fe36 b83f 3e87 db23 bb32 8b3f
00000140: 0000 00c0 b499 b23f 0000 0080 8b2d 94bf
00000150: 0000 0080 d0f2 a73f d769 109c bf3a b3bf
00000160: 0000 0080 b26d a1bf e05a b2ca 01cf 83bf
00000170: 63db d9df 24bb bdbf 20a5 f69c ee65 ac3f
00000180: 0000 0000 4db0 a0bf 2e0f 2ca1 e01b 8ebf
00000190: 9c05 f179 ff5e a53f 9972 f172 1228 a8bf
000001a0: f612 5422 8d42 a9bf d5e3 b197 97a7 a5bf
000001b0: 7e9a 099f cb2a 6dbf aa88 f334 e35c b5bf
000001c0: a8f7 ec46 e878 c4bf a1d3 cbe3 9165 833f
000001d0: a4ee 1fe7 9370 9f3f 1cc2 a928 6b24 aa3f
000001e0: a6a1 c174 2816 873f 0000 0080 6f05 ba3f
000001f0: 7a53 f019 d00d 5cbf 0000 0080 825b 913f
00000200: 4118 49dc ea22 bbbf e4bb 37f3 a340 a8bf
00000210: 31e2 c8fd 4e69 a7bf b8fa ecc2 83cc a53f
00000220: 875d c9f6 7595 bbbf 56c4 586c 6a95 b8bf
00000230: 405c 1faf 9839 a5bf 4e7c a570 5243 b8bf
00000240: 9678 c317 0143 b13f fb0f aa34 6d79 b63f
00000250: 7a1e 2294 c057 a43f d7a2 b0ef dd0b aa3f
00000260: ac9d b6f9 1f78 90bf 202b 09d7 9d3b 52bf
00000270: 7c66 6f25 e4af 893f 3197 9032 5bcc b6bf
00000280: a638 d347 4d58 9a3f fdca 1a1d e8cf 573f
00000290: 0000 0040 0c93 b93f 2be3 5c02 dfc8 acbf
000002a0: 4a7f 9f43 d100 bebf 7538 51e1 8b2b 8ebf
000002b0: 0000 0080 e5f7 a63f 0000 0000 2436 b23f
000002c0: 0000 00c0 954e b93f 09e3 61f3 76ad 67bf
000002d0: 9df4 523d bbea 833f f69c d6d7 4cb7 a6bf
000002e0: 9213 b5c0 7c17 b23f 0000 0000 215c 9abf
000002f0: 0000 0080 70bb b1bf da7d e25d 20a9 9d3f
00000300: 0000 0080 9d20 b73f 0000 0040 c1ee b83f
00000310: dcce 9501 15c3 ba3f d202 e840 32f0 c1bf
00000320: 4c4f 21de 2ed9 a4bf 0000 00e0 1fe1 b7bf
00000330: 0000 0040 fea7 a0bf c9b0 54b3 a753 9b3f
00000340: f73e 619b 3993 ac3f aa9d c000 3396 a5bf
00000350: 0000 0000 8077 4cbf 4f5a c245 89dc bebf
00000360: 07f4 f0ba 2511 a3bf 292a 668e 9cb0 b33f
00000370: 0000 0000 5343 babf 88cc c760 8333 883f
00000380: 62e4 bb61 0a1f 8dbf dfb3 3fe0 6b92 95bf
00000390: 0000 0080 9f06 9dbf 26e7 9c26 d634 a13f
000003a0: 5818 872f 9e5f abbf c12c e70b e6cd 93bf
000003b0: 3a81 bf5a f281 c3bf c7d4 1c87 73b7 bebf
000003c0: 07a0 5cef 0792 67bf dda7 2cd1 ac32 b4bf
000003d0: bc9c 2133 5bc3 bfbf 779f 0c1e d42b a73f
000003e0: 4cb4 7e90 a72d 8b3f 4729 cfc6 a392 b5bf
000003f0: 88a3 cf00 0429 71bf 0000 0040 4322 b0bf
-0.09445982426404953 -0.09929443372234276 -0.07918334007263184 -0.08854667986501315 -0.04712507128715515 -0.06807330554543485 -0.025490929961826458 0.04673231654987965
-0.050164490938186646 -0.0527286094894974 0.0012354192437171439 -0.07446732765798002 0.07255260431298166 -0.04812067638492429 -0.008820682764053345 -0.05589056376645973
0.09183073744166387 -0.10182398174370888 0.08287004474612633 0.09944583695956552 0.00020560736730373372 -0.10509786790732475 0.070298387142125 -0.07262410805646179
0.012736927095255073 -0.043973010033369064 0.06375151427741857 0.00012774188899502452 -0.046539894707335445 -0.09413232574535073 0.056888457712250914 0.016849721450103324
0.009497545136182138 0.027299630359419326 -0.1103102140589853 -0.05446592002034599 0.07464763566380078 -0.020240497539145773 0.09458915889263153 0.013280355483803793
0.07265786826610565 -0.019704990088939667 0.046774402260780334 -0.07511518058928544 -0.034040048718452454 -0.00967217826682315 -0.11613684144127272 0.055465180073335896
-0.03259506821632385 -0.014701609533865314 0.04174040187400438 -0.047180725604197345 -0.049335871162872566 -0.04229425169700788 -0.0035604454972600333 -0.08344860117680022
-0.1599397989575071 0.00947107292584254 0.030702887517675706 0.051059101785430466 0.011272731841203431 0.10164543986320496 -0.0017122776259885495 0.016950644552707672
-0.10600154760422333 -0.04736816734281726 -0.04572531555135518 0.04257594828094596 -0.10774934077323027 -0.09602990288910127 -0.041455050828226536 -0.09477725267559942
0.06742865400471695 0.08779032264470736 0.039731996615100365 0.05087178755667814 -0.016083240143101626 -0.001112846508606942 0.012542517082624764 -0.08905572876446112
0.02572746992955701 0.00145337741234347 0.099900022149086 -0.05622002509921339 -0.11719997311547306 -0.014731495679509468 0.044860050082206726 0.07113862037658691
0.09885536134243011 -0.002890331578836562 0.009725058373414358 -0.04436721930260916 0.0706708879925613 -0.025742068886756897 -0.06926634907722473 0.028965478639859522
0.09034141898155212 0.09739311039447784 0.10453921593380805 -0.1401427094388255 -0.04071947537946005 -0.09327887743711472 -0.03253168612718582 0.026686306305393957
0.05581073781706707 -0.04216155418572083 -0.0008687376976013184 -0.12055261567216145 -0.0372401991557823 0.0769136283544546 -0.10258978605270386 0.01181700362301387
-0.014219361407855572 -0.021066365778029335 -0.02834557741880417 0.033606235707749385 -0.05346388178036027 -0.01934012839937505 -0.15240315848405733 -0.11998674439094535
-0.0028772501927001345 -0.07889824015424503 -0.12407464979479504 0.04525626055538983 0.013270672890792444 -0.08426879504910288 -0.004189506184936749 -0.06302280724048615

linear2.weight f8 [64, 128]
00000000: 0000 0080 86fa adbf c0a3 4466 1693 a5bf
00000010: 0000 00c0 c804 ac3f 8c04 e858 3be1 94bf
00000020: 0000 00e0 3505 a8bf 27b3 a041 156b 9bbf
00000030: 8712 ded4 d7c8 a1bf 13b4 ed0a 3a3b cc3f
00000040: 0000 0020 28d2 b13f be4e 381a 6974 b73f
00000050: f871 4cb9 130c b4bf 0000 00a0 687c b63f
00000060: 0000 00c0 814f a33f 9845 40d9 6547 b53f
00000070: 0000 0040 3bf0 b0bf 0000 0040 0338 a43f
00000080: 762c c813 fca6 81bf 0617 6ddd ac0e c43f
00000090: 61b8 da24 7746 b7bf 0281 cbaf 1ec1 b4bf
000000a0: c02a f654 b0a3 99bf 5ac6 7920 b17e 99bf
000000b0: f789 ecf7 b7ff b4bf 0000 0040 5e13 ac3f
000000c0: 806f 92f5 9414 aa3f 0000 0040 c6b7 b4bf
000000d0: 422c 7763 7c56 a23f 8b5a 56d3 737c c13f
000000e0: b272 8042 c0f4 b7bf 3595 97c1 bbeb b7bf
000000f0: 5a9c 3225 dfe9 b93f 80e6 7706 1014 c0bf
00000100: 0020 03ee 7702 c03f 5009 20bc 3503 c3bf
00000110: 0d6d 9772 ea4b 7b3f 7ca9 b511 9690 903f
00000120: ea36 0557 0b9c b0bf 0000 0000 f6a1 b0bf
00000130: 0000 0040 bd5e b5bf d097 0cb2 5b4e a33f
00000140: 0000 00c0 c5be aebf 0000 0020 7068 b43f
00000150: 0000 0060 efa3 a7bf 22b3 e46b 2992 9dbf
00000160: 0000 0060 f5e1 b03f c76d c01b 0b43 bcbf
00000170: 2443 5916 b5ee b33f 8482 38d4 6d4d 62bf
00000180: 0000 0040 2622 ab3f 6964 b773 86dd c13f
00000190: 8884 b085 86ab b1bf b737 8e62 6d1c 9ebf
000001a0: f68f ac0b f8c3 bf3f bbba e3c9 b96d 93bf
000001b0: 1eb9 4a40 0f15 adbf 8153 627a 91e2 91bf
000001c0: 069c 4409 1bdf 86bf d8bd 66dd 0268 97bf
000001d0: 3b43 1fb9 a5c4 b4bf c00d 1a2f 5de6 543f
000001e0: de76 5be6 cbe9 b33f 0000 0000 2f14 abbf
000001f0: 6025 1097 9f9b c93f 0000 0040 c3e0 a8bf
00000200: 200e 04cc 8851 5d3f f966 75d1 5d8b b33f
00000210: 4d15 c504 e9c6 bdbf 4c53 563d f72c 87bf
00000220: f097 9673 9c5e 863f 0617 c6a9 bad0 8e3f
00000230: 7870 31ca 6f73 ca3f 58dc b351 b131 a53f
00000240: ab07 92d1 de46 af3f 4e65 5f1a 35dc c1bf
00000250: 143a 94d3 44ed c13f d653 674f c7a7 cb3f
00000260: b694 3454 64cf b53f 38cc 945c 6734 c03f
00000270: b7a9 816b 759b 943f f474 44a9 c6f6 b7bf
00000280: 1a98 9310 b993 b9bf 4803 939c c430 943f
00000290: 0000 00c0 f49c a23f 2b3e da91 3a4e a1bf
000002a0: 8642 a11e 23cc cbbf 1f67 8029 8bbb d73f
000002b0: 0000 0060 2823 b53f 0000 00e0 374b a4bf
000002c0: 0000 0000 ca7d 773f d0ac dedb 5985 b1bf
000002d0: 125e 9a60 345b d23f d04d 9444 d43f 95bf
000002e0: 298b f31b 0ffd 933f 0000 0040 994a ab3f
000002f0: 0000 0000 700e 7cbf 79b2 b83b 6af7 c23f
00000300: 0000 0060 905c acbf 0000 0000 b03b 95bf
00000310: 3dc4 5d05 2bb3 b3bf 99c9 4744 0bb6 9f3f
00000320: 0779 b46a c0ab c2bf 0000 00c0 dc37 aa3f
00000330: 0000 0000 f5a2 8c3f 17c8 77ef a44c 983f
00000340: 24fa 6b13 d1c8 8ebf e398 66f6 06be 973f
00000350: 0000 00e0 340d b4bf cde9 09f8 62df d53f
00000360: 937f 5008 604c a13f b3f5 2438 9a9d b4bf
00000370: 0000 00e0 607d acbf 0000 0020 2c2f a7bf
00000380: 1a5d c132 4494 963f 67e0 45f6 6966 8dbf
00000390: 0000 0020 ba8c b23f 20eb 2140 0a42 ac3f
000003a0: 7413 719d 1a97 b33f 66d7 caef 0092 c03f
000003b0: da8f 4340 818f 963f ae5f b63a 3e65 c8bf
000003c0: a93c 9a01 e63e c23f 58cc 74e1 8b3c cf3f
000003d0: ba6b 66a5 e85d c73f 8637 643a c7a7 7ebf
000003e0: ba47 8360 bec3 c63f 358c 72aa 123d abbf
000003f0: 2d08 3989 cb57 bb3f 0000 0000 b590 a9bf
00000400: 0000 0080 e5c3 963f 119b 8967 4908 9dbf
00000410: 0000 0000 fcee 823f 3c00 74b9 dfbe 9e3f
00000420: 0000 0000 0705 8c3f ac22 1d68 b66a ba3f
00000430: b33e cd84 a7c0 95bf 68c2 28fa 9a5e b1bf
00000440: 0000 0060 5bc1 a6bf b623 0c49 0565 90bf
00000450: f2db 0607 03e0 b03f 0000 0080 16f9 b1bf
00000460: 0000 0040 7d1a b6bf 4a99 5189 1613 a1bf
00000470: 0000 0060 c1c3 a9bf 0000 00c0 fa9e a33f
00000480: 648e 3679 99fb aa3f 1703 3319 b658 cebf
00000490: 6126 a53e 145e bf3f 8233 27e9 725b cc3f
000004a0: b7eb 3cbd e325 bfbf 2bf3 1492 545b 84bf
000004b0: 410c 2110 c07c b63f c86f 73f3 8eb0 b43f
000004c0: aaa3 c63a 699e a93f 0000 0040 cf68 a43f
000004d0: 97db 3ebd 6a08 b2bf a25c 0013 4d61 b3bf
000004e0: 042b c4d0 c7c9 d03f 9be9 0d5b a299 c13f
000004f0: 9467 bcc7 d92c a7bf de96 393a 80c0 d33f
00000500: 3f16 4f82 9cb3 7bbf cc22 6635 57bb ce3f
00000510: 940a e234 2986 a1bf ac27 b8df 13ff cabf
00000520: d81a 5dae b320 a43f 0000 00c0 bcbf a43f
00000530: 0000 0060 1740 b4bf 1a16 a8df afcd a73f
00000540: 0000 00c0 c205 afbf 0000 00c0 b247 a73f
00000550: 0000 0000 f5ab 93bf 79f9 f2d1 f988 c13f
00000560: 0000 0060 85e9 a6bf 2501 c133 9d25 b43f
00000570: a268 1ad5 a4d3 b7bf 5df5 1495 2242 ab3f
00000580: 0000 00e0 1160 b63f 34ef cbf3 1bd6 c2bf
00000590: fe3c 7193 6590 8ebf 1670 33dc 45fb c53f
000005a0: 22b5 152e f689 633f 4083 d360 2100 a03f
000005b0: 5228 c873 b235 af3f 23a8 d6bd f659 9e3f
000005c0: 3316 2956 b560 b53f 7727 7153 4039 98bf
000005d0: 1074 b3af 97b8 bf3f b019 73c0 1a40 a8bf
000005e0: 48f6 266f 7459 8ebf 0000 0000 00ae fb3e
000005f0: 3406 0d77 34ce d3bf 0000 0020 002b a8bf
00000600: 9651 a199 4be0 b4bf 469c e087 d611 8cbf
00000610: 22b8 ef97 7f7d c23f 8cec a183 f814 97bf
00000620: da9a b62b 4e40 8dbf 252e 54cd a438 ba3f
00000630: e6ef 8cc3 3e6b a8bf e21c 969c d34c acbf
00000640: 65ac 23a9 9595 623f ff2f 088b 7ae2 cb3f
00000650: 15bf fec2 fc49 883f 2de5 bdbc dbbb 813f
00000660: 4840 21a8 1226 7dbf 164e ebfa 719e c0bf
00000670: b014 0650 09a1 8c3f 83ba 2821 12a6 d13f
00000680: a15a 67dd 0417 bc3f 5b45 2624 0e64 66bf
00000690: 0000 0040 a43d a43f d434 9275 3b43 813f
000006a0: be32 c1c5 e57d d03f 6a10 f829 d6f6 b7bf
000006b0: 0000 00c0 6887 b6bf 0000 00e0 3911 a0bf
000006c0: 0000 0040 d869 a43f 2f67 99c2 4a72 a5bf
000006d0: ca79 8b14 951c b2bf 8a35 033e 4d58 ba3f
000006e0: a8ec 0395 650e b5bf 0000 0000 3619 a7bf
000006f0: 0000 00a0 bb49 b6bf c011 28f2 b53e bbbf
00000700: 0000 0080 8cfb 953f 0000 00a0 98b7 b23f
00000710: 137d a678 d032 ce3f 6e6a 4e3c bfaf a2bf
00000720: 3919 310b 1df2 c13f 0000 0000 464a a2bf
00000730: 0000 0040 1cc3 9abf e280 aa93 67cf aebf
00000740: 431f bf93 7fb1 a7bf f902 ac0b 6266 c03f
00000750: 0000 0040 14cf a0bf cfbd e846 29e0 d8bf
00000760: 8413 efc6 c45a b7bf 17e4 d70d 9ed1 c53f
00000770: 0000 0000 cda5 a8bf e645 fb7e df99 adbf
00000780: 63da ccf8 20ce d1bf b7d8 1643 b18e b73f
00000790: 0000 0080 c384 97bf 0000 00a0 7c96 b03f
000007a0: 8498 9802 f699 803f e4fb 28ad a269 753f
000007b0: f42e 6dfb 1af4 693f 18f7 aec6 8c01 d03f
000007c0: a670 ab93 691d d1bf 1d06 762e a616 d8bf
000007d0: 51da c255 7d17 813f 34fa 1f53 f823 b93f
000007e0: c33c ec17 5bbe d4bf 1f32 2b26 937f b53f
000007f0: 37f1 fc09 6401 a6bf 0000 00e0 4330 b43f
-0.058551982045173645 -0.042137813552762804 0.05472400039434433 -0.020390441228304954 -0.04691475257277489 -0.026775676851843812 -0.034735436186598405 0.2205574563371618
0.06961298733949661 0.0916200341237596 -0.0783092811001963 0.08783582597970963 0.03771596401929855 0.0831206946752644 -0.06616564095020294 0.03948984295129776
-0.00861927924508719 0.15669785320113067 -0.09091896676793133 -0.08107177535885415 -0.025038485704082403 -0.024897353751333597 -0.08202695658523128 0.05483526736497879
0.050938277222683404 -0.08092917501926422 0.03581608499697399 0.1366104871674064 -0.09357835410669216 -0.09344075657243851 0.10122484834811143 -0.12561226192319808
0.12507533189477726 -0.14853545842931704 0.006664195834186215 0.01617655261126448 -0.0648810470058511 -0.06497132778167725 -0.08347685635089874 0.03770720051242871
-0.06004922837018967 0.07971859723329544 -0.046172600239515305 -0.028877875528610215 0.06594785302877426 -0.1103980009797204 0.07786113544103707 -0.002234186658612027
0.05299491435289383 0.13957291269506136 -0.06902352107910492 -0.029405316486694946 0.12408399853717342 -0.018973257968293505 -0.0568012968045528 -0.017465851874095776
-0.011167727680527772 -0.02285770870520118 -0.0811256005247402 0.001275626182548048 0.07778620122868626 -0.05288836359977722 0.20006174923063735 -0.0485898032784462
0.0017894588382326784 0.07634531368003285 -0.11631637922717637 -0.011316234168398907 0.010922643926118497 0.015046556764683593 0.2066478478690248 0.041394749854526125
0.061087573129966564 -0.13953269756056347 0.14005337077146918 0.2160576951706889 0.08519579940601116 0.12659923573082366 0.020124277769733214 -0.09360925323968045
-0.09991032271099734 0.01971728521016594 0.03635372966527939 -0.033799963287603006 -0.21716727252580287 0.3708217530525974 0.0825677141547203 -0.03963636979460716
0.0057351961731910706 -0.06844102495113025 0.286816686953416 -0.020751301465748828 0.01952003105260328 0.053303517401218414 -0.006849706172943115 0.1481755057915455
-0.055393707007169724 -0.020735502243041992 -0.07695263749134625 0.03096788028956041 -0.14586644373134325 0.051207445561885834 0.013982690870761871 0.023729874721489432
-0.015031464963155612 0.023185833729848403 -0.078326515853405 0.3417594358685648 0.0337858209752532 -0.08052982207023866 -0.05564406141638756 -0.04528177157044411
0.022049966428622537 -0.01435549528899589 0.07245982438325882 0.0551913455282913 0.07652441352645473 0.12945567806826402 0.022031802699430482 -0.19058969370666773
0.14254450872656335 0.24403522976499192 0.18255336834121555 -0.0074842245433169915 0.1778486224416705 -0.053200324350904195 0.10680839634099533 -0.04993215203285217
0.022231660783290863 -0.028351923889569145 0.0092448890209198 0.0300250012342078 0.013681463897228241 0.10319080392685959 -0.021242730598997905 -0.06784981353190178
-0.044443946331739426 -0.016010363181553543 0.0659181491999872 -0.07020702958106995 -0.08634169399738312 -0.0333487551331922 -0.05032161995768547 0.038322292268276215
0.0527008018937323 -0.23708225470002084 0.12252928285047339 0.2215407980387703 -0.12167189951007527 -0.00993982382589705 0.08784103769089403 0.08081906741739353
0.050036705422207575 0.03986213356256485 -0.07044093246700665 -0.07570344652082153 0.26231570613224187 0.1375010437585161 -0.04526405871565867 0.30862432180434307
-0.006763087619167828 0.2400921831833983 -0.03422669191879382 -0.21090935157581947 0.03931199553931258 0.04052533954381943 -0.07910295575857162 0.04649114232237768
-0.060590825974941254 0.04546888917684555 -0.019210651516914368 0.13699267150327524 -0.04475037381052971 0.0786989451744416 -0.09307317927087636 0.053238945673437434
0.08740340918302536 -0.14715909389621518 -0.014923852502902065 0.1717307400894021 0.002385121174191555 0.03125099474869453 0.06095655120232436 0.029640059792349526
0.08350690225150785 -0.023655896275421164 0.12391040839743561 -0.047364078514465446 -0.014819059030624207 2.6397407054901123e-05 -0.30946075082838154 -0.04720306769013405
-0.08154747486816513 -0.013705898305557917 0.14445490759629914 -0.02254093459530941 -0.014282808980011042 0.1024268151560866 -0.04769321572391032 -0.05527364050345242
0.0022685931263502373 0.21784908093138708 0.01185986967161016 0.008659092614595377 -0.007116387250860674 -0.1298353648368084 0.01397902751410593 0.27576115835373843
0.10972624211658878 -0.002733256930874601 0.03953278809785843 0.008429016614423558 0.25768417655926246 -0.09361017727502632 -0.08800368010997772 -0.03138142451643944
0.03987003117799759 -0.04188760400275126 -0.07074863196928685 0.1029098774335663 -0.08225092781133247 -0.045114219188690186 -0.08706257492303848 -0.10642563974403796
0.02146739512681961 0.07311395555734634 0.235925730620672 -0.03649709330712346 0.14020121618723083 -0.03572291135787964 -0.0261349119246006 -0.06017612149776298
-0.04627607992693907 0.12812448091428744 -0.0328298881649971 -0.3886817162010318 -0.09122876984390699 0.17045951534217416 -0.04813995957374573 -0.057814583063770006
-0.2782061032952809 0.09202106368943218 -0.022967390716075897 0.06479624658823013 0.008106157259202947 0.005227694945062009 0.003168156337243983 0.2500945987957137
-0.26742019101016934 -0.37638239419183767 0.00834558408710709 0.09820510892311846 -0.32411839805804393 0.08397788698057028 -0.04297936078953273 0.07886146754026413

linear2.bias f8 [64]
00000000: fb06 9a22 3f9d d83f b9d0 1b56 af43 923f
00000010: 8af2 6a6a f7b9 da3f f86f a212 0d56 a4bf
00000020: a686 06dc f1d8 d43f eaa5 a125 754e d73f
00000030: be38 9d91 7a52 6d3f 1eb9 21b9 c105 d33f
00000040: 0223 30d6 fb17 8cbf 97ab 6159 077c c73f
00000050: 7c54 161b de5a b53f b649 c6fa 0878 d33f
00000060: bbfa 0730 e876 cbbf 7e83 1c76 f200 933f
00000070: f061 59e2 9e12 c93f 2dbb 6154 1825 d63f
00000080: f702 d342 2fee 90bf 68bf c456 a9c4 cd3f
00000090: 1b01 9483 b69a ba3f 3031 5b0f 6d82 d5bf
000000a0: da80 bef2 471b b43f a868 fe7b e76f aebf
000000b0: fec9 064b 88b4 cb3f eb7c 7a51 1a72 d13f
000000c0: edea 856f 72a3 c73f ce8c 0682 eff7 7ebf
000000d0: 2d32 a2c5 a382 d23f b01e e366 384e 523f
000000e0: aad7 ec3d d1ab 91bf b0c1 2b0e 87dc 963f
000000f0: 3c3c 5e93 2324 d23f a5bb f90e 7d4b 613f
00000100: 34d1 9546 5c0b 7bbf 4b2c 7645 10e3 e2bf
00000110: 43d2 d54a e289 a33f cea5 5a78 aafb 8dbf
00000120: 7ef7 3f54 cbd0 d43f 893d 841c bf23 873f
00000130: 2ce5 9d53 4f6a a2bf 2147 fce8 ff08 d83f
00000140: 5213 3afe 81a7 db3f 37f9 7d60 7b27 a63f
00000150: 6b13 1708 7d90 b8bf 857e 6075 46ce 7c3f
00000160: 3b33 eb85 cd47 d63f 2e22 2083 0551 d43f
00000170: 2f4f 879b 9ec4 b0bf 6a41 e3ab c0b7 cdbf
00000180: 2e7b c979 b1ca c73f 0f49 3f34 a16a d43f
00000190: abf8 8f29 79ad d83f 906b 0321 4204 a33f
000001a0: 365c e229 2498 e2bf e2d4 a511 c9ff 8bbf
000001b0: 6ff5 19c3 a78c d63f 8a53 faf4 2f86 e5bf
000001c0: 95cc d239 b04d d13f 1f4a 6c76 fce2 d63f
000001d0: 5417 c7c8 5c5d 9abf 81f4 338d 5ec2 83bf
000001e0: 3a95 9670 0055 d7bf 7f9d 787b 5ae3 cf3f
000001f0: 1a96 13d9 340e d83f 9b87 6bf6 4aaf c8bf
0.38459757212704887 0.01783632243218911 0.41760049240455344 -0.0397190175292223 0.32574125754227123 0.3641636722082625 0.0035793680116632245 0.2972263629843769
-0.013717620347976748 0.18347255577404262 0.08341777955350155 0.30420135965064377 -0.21456625314018204 0.01855830045599615 0.1958807568760359 0.3460141014137886
-0.01653360219347896 0.23256413208718674 0.10392323219639758 -0.33608557223921576 0.07854127575274408 -0.059447511564216626 0.21644691146282463 0.2725892825782938
0.18467550702538152 -0.007560668542654981 0.28922361660150636 0.0011172819900355062 -0.01725699367963044 0.02232562088005502 0.283455747522513 0.0021111910389701332
-0.006602631046338115 -0.5902177197143684 0.03816134608760937 -0.014640170858302517 0.3252437899353636 0.011298649842983692 -0.035967329938055265 0.37554929497228967
0.4320988638576654 0.043269973305529445 -0.09595471808922944 0.007032656887559723 0.3481324966240213 0.3174451618693038 -0.06550017640193738 -0.23217018502192427
0.18587320753700837 0.3190081606127401 0.3855879693873116 0.03714186337466352 -0.5810719316531336 -0.013671465731685154 0.3523349194800493 -0.6726302895282157
0.27036672255344146 0.35760413708445243 -0.025746774439333223 -0.00964807384888844 -0.3645630931371958 0.24912577656617071 0.37586709212186664 -0.19284951240757384

linear3.weight f8 [3, 64]
00000000: 9d63 635d 50ec a23f 710f b2be 8158 dabf
00000010: a86b ed03 5846 af3f 22b2 1277 17c6 b2bf
00000020: 0a35 401f 45ac d83f d3da 6791 e94d a43f
00000030: 1909 8db9 821c dbbf 3c10 d0a5 31ea d63f
00000040: 58d8 5b45 49df debf 72d5 47b1 2f8c d63f
00000050: b06c 1c74 c29a c3bf ad55 890f 63ac d23f
00000060: 4f26 ccbf 6abc eebf b4a9 ed41 d1b2 d7bf
00000070: 60d8 9c9c 51ee d63f ee16 2c76 f13b b53f
00000080: add5 dd00 2570 d2bf 724e 1ca3 65d5 d33f
00000090: 17ee 2577 eff4 cabf dfc8 5fcd a2eb ba3f
000000a0: 6220 ba28 affb c3bf ff43 a380 404b c8bf
000000b0: a0ab d583 5359 d73f 4b7c 98eb 1e40 dd3f
000000c0: bc5a fb8a 5419 d43f 449f f789 5598 e0bf
000000d0: 91da da58 d912 e03f 8edd 4b07 01c5 d3bf
000000e0: 6a8a f8ea 72d1 ddbf 8c93 f54e 9010 dabf
000000f0: 213b cafb fad8 b63f eb28 e083 1cad bebf
00000100: 5d24 5870 0e98 cdbf f837 71aa 1185 aa3f
00000110: c942 4cb1 f30c b6bf 862e 6a79 5f83 ccbf
00000120: 026b ce8d cbd7 a4bf dc22 4342 f072 d3bf
00000130: 7f1b fc1e b0b4 ecbf ac00 d74d 28df ba3f
00000140: 9f9d b8fb 7280 c43f bef3 9ec5 f57e 92bf
00000150: c40d cf02 cb49 e8bf 6bcc 555e 3743 ad3f
00000160: 2ec1 964c d54e ca3f 6829 62f4 0c24 d83f
00000170: 8308 be98 ca4f eebf 6fe9 b59f 6208 e3bf
00000180: 53f1 0105 303c 913f fb58 5449 6be3 d93f
00000190: e3c7 6fd7 82f8 de3f b247 4777 9e99 a6bf
000001a0: fb48 407c c848 c73f d4c2 e0a3 c3cb ddbf
000001b0: 21a4 de13 d26c 8bbf b003 186f 7b19 b43f
000001c0: 54fa 2bdf b738 d53f ab34 deda cd8f a03f
000001d0: 4652 c911 f690 c7bf 034b 3582 5448 d0bf
000001e0: 62d0 7666 df66 c63f b2c2 f9eb 9504 a43f
000001f0: 149e bd58 ee22 973f c6c8 9ee5 e47d e3bf
00000200: 28a9 01f4 dd2a 8e3f 28c3 3104 249b b13f
00000210: 4064 3540 edd2 adbf 2189 f3b8 8ceb ae3f
00000220: eeca 8236 94db c8bf 33f2 4969 d3d3 a03f
00000230: bd80 2493 8501 69bf 3976 6d34 f4bb b2bf
00000240: d287 4550 e8ee ae3f 74af 075d 65fc c9bf
00000250: 9a60 9584 df0a c43f 8fd0 6beb 1007 d1bf
00000260: ddf7 b4c2 d802 c7bf f7f0 7c81 01dd a73f
00000270: cfa9 49ad d7ca d5bf eafb cd70 92f5 c73f
00000280: c269 4d68 bf08 c03f e799 441f 1865 d2bf
00000290: 702f 9c96 450d c43f 8baf 939f c756 c1bf
000002a0: fcaa 91c2 882d b63f febc 7b54 c61b c7bf
000002b0: 4220 50c2 3919 cdbf d692 4627 e3e5 d6bf
000002c0: 5a69 6289 3f36 c8bf e65a 4154 a489 ae3f
000002d0: ac9e 2fd8 54d7 e0bf 20cd 45eb 9e69 b93f
000002e0: 9240 9486 9285 b03f 4cca 5076 22a9 a33f
000002f0: 24c5 09f9 fb0b b13f 8d8b 46b8 735a 52bf
00000300: 2c07 e18e bba5 a63f 6618 0ac2 9aaa b4bf
00000310: 3668 1a96 f6f4 ab3f ba62 8d79 3798 a83f
00000320: d00c 0dc2 4aae a5bf d9b8 0aea e0f3 bb3f
00000330: a437 b364 01f2 b0bf 8688 e00d 8c28 c03f
00000340: 3fd6 90b4 3f0c a73f 1748 63d7 4952 b73f
00000350: 2cea e64f 6399 c4bf 8bf9 5fe4 ecc8 9f3f
00000360: 5a01 e5d8 7423 c2bf 3fb9 2d6e 3885 cdbf
00000370: 8cd5 5f3e 6938 aebf c1b0 6bcc 8ad3 a1bf
00000380: a37f 3fe9 7b82 b53f ee4e 2360 5872 d1bf
00000390: b8c7 c2c2 a15e c9bf 6e71 5c3d 800e b73f
000003a0: 5d66 e984 13d2 b4bf ed0d 3691 2474 90bf
000003b0: f719 b140 1ac6 bf3f bf5a 709a 6f9b b2bf
000003c0: 2396 cc29 df57 d0bf 0350 4f60 887d 99bf
000003d0: d8dc 7ce7 f343 ca3f e6f8 b431 9c5e be3f
000003e0: bd89 51ba 084d afbf 17b9 b5f7 eb30 a33f
000003f0: b8b6 b62e cff3 763f dd5f 909f d281 cabf
00000400: 4352 94ed ca4c e2bf 169d 74f3 44c3 b53f
00000410: e90d eb6a dfbe e2bf 846c 6f14 8181 cbbf
00000420: a3a5 f94f 0ff2 e2bf 30c4 c534 14db e2bf
00000430: ef53 6af2 f056 933f 403f 2b9b 3025 92bf
00000440: 683b 3b98 bccb babf 6a10 17a4 10d5 ae3f
00000450: 8c3f f13c d323 b1bf 6290 90ae f734 e0bf
00000460: f680 e2c4 2f88 c03f 90cd 7c62 99a2 b73f
00000470: 53e0 3939 8f1a ab3f 37ee 6ec0 cf44 dabf
00000480: a627 3dc7 8d3e c53f 9e6d 1649 584a 9fbf
00000490: 82e4 2a77 c001 723f c15f 6939 09ed 9f3f
000004a0: 5ead 26c4 e2e9 d0bf d1ad e93a ee4b c23f
000004b0: 21c8 152c 3548 bb3f bdfe d169 ec5e 8a3f
000004c0: bd2a 8e49 2f38 a03f b292 13e1 8ac1 b43f
000004d0: fe26 43c4 d59e e1bf 45c4 0b1c 3b6e c13f
000004e0: 7bbc 9f16 fdb4 aa3f 55d1 965c 9314 a53f
000004f0: 6fa9 ad95 75c7 e9bf cdf1 10cc d899 c5bf
00000500: 8569 4d32 3bab a7bf 65ba c142 b104 c63f
00000510: 8a25 3d9d 21b1 c9bf 9a83 9d63 785d a33f
00000520: 5083 b9ce 3aee e1bf 7f0b 2cd3 afc8 c23f
00000530: 2f95 a2fa 74ba b33f c728 8d7c 9e2a e2bf
00000540: 2f4b d231 e439 dfbf bda2 9b6b 214a cebf
00000550: 5e43 8350 0dcf cc3f 6d29 5ac5 05e0 dcbf
00000560: 6ca9 1000 3669 e8bf 5cb1 99e2 f3b3 893f
00000570: 11ea f308 4f2e c93f 0e64 1f90 2fce c63f
00000580: ddc3 0edb a81f ddbf fe71 79d4 a553 cfbf
00000590: 75ce 1d64 f198 98bf 8925 873c 79d6 c6bf
000005a0: e8fc 9de8 c260 debf 57b7 2c5a c2e8 81bf
000005b0: 3e82 d63e 1fdf debf 90b3 8d84 60c1 b73f
000005c0: 6fa8 8778 b13c a73f bf88 52ce 8875 e5bf
000005d0: 17e3 716f 56da cdbf 9602 eccf 73a1 c33f
000005e0: 7168 fd3b d954 ddbf 36ae c625 8c5c e4bf
000005f0: e042 f898 1eef e4bf f829 f680 7bcd c63f
0.03695918216698788 -0.41165202734577294 0.06108355567876994 -0.07333513886505519 0.3855145268615422 0.039656924247471935 -0.4236151515980438 0.3580440634980311
-0.48237830899541256 0.3523062926536432 -0.15316038770183615 0.2917716647837903 -0.9605001207393772 -0.3702891486961122 0.35829582494932843 0.08294591078819355
-0.2880947597944566 0.3098997204662971 -0.21059983556539016 0.1051580191995387 -0.15611829270006 -0.18979650765552944 0.36482704042890113 0.45703862197291717
0.3140460355038319 -0.5185954756425208 0.502300904793474 -0.308899170995084 -0.46590874620793576 -0.407260968311953 0.0892483582231134 -0.11982897014255271
-0.23120289311944733 0.05179648595422742 -0.08613513067781321 -0.22275918415504153 -0.04070888620409187 -0.30389028998301426 -0.897056637303521 0.10496761227023182
0.16016995707580592 -0.01806243914301197 -0.75900793598742 0.05715344454338197 0.2055307983369032 0.37720035424776777 -0.9472401602981936 -0.5947735900256655
0.016831159883154822 0.4045055595501165 0.48391791380629295 -0.04414077001605622 0.18190866534184366 -0.4655617809649304 -0.013391152602553249 0.07851382696391229
0.3315868071949002 0.032347138373645855 -0.18411136501767283 -0.2544146796764581 0.17501442435389253 0.039097485595339335 0.022594188848783572 -0.6091179356356171
0.014730199822413484 0.06877350904848056 -0.05824986847682867 0.06039085157114444 -0.19420101796784855 0.032866102793353134 -0.0030524834520662945 -0.0731804492947611
0.060416469382076024 -0.20301501314622394 0.15658182119182557 -0.2660562800440482 -0.17977437503026197 0.046608016068121864 -0.3405055229437978 0.18718176372564638
0.12526695816889172 -0.2874203019477179 0.1566550240898965 -0.13546080867615404 0.08663229704113101 -0.18053511738933276 -0.2273323248666675 -0.35778120837703165
-0.1891555233785976 0.05964387444025991 -0.526285574186621 0.09926789516412216 0.06453815255759057 0.03839976972848955 0.06658911542924223 -0.0011201982571058284
0.04423318976524934 -0.0807282184342469 0.054603296111239194 0.048036321247030014 -0.0423453676108011 0.10919004167473946 -0.06619271000383137 0.12623739888755753
0.04501532630130755 0.09109937199107808 -0.16093102838006368 0.031039906920335574 -0.14170704451135913 -0.23062806491675222 -0.059024132598930995 -0.03481706376428085
0.08402227825672397 -0.272604078182879 -0.19820043573196044 0.09006501672815201 -0.08133050913729663 -0.016068049777016858 0.12411655501737316 -0.07268426437836249
-0.25536326486539646 -0.02489293182209452 0.20519875338661708 0.11863113606975481 -0.06113459848781442 0.037482618320483656 0.005603608423752675 -0.20708687583169097
-0.5718741073820371 0.0850108236669381 -0.5857998932119105 -0.21488965509238167 -0.592048317147761 -0.5892430334771515 0.018886341853960372 -0.017719993086586117
-0.10467127529703435 0.06021930697491558 -0.06695289838648771 -0.5064657601801736 0.12915608514322913 0.09232481626968636 0.05293700765190636 -0.41044992248837125
0.1659714911314129 -0.030557040654100136 0.004396201914169786 0.031177658204199824 -0.26427525668505847 0.14294221760370232 0.1065705521230318 0.012876364688281123
0.03167865536587076 0.08107822413473789 -0.5506390412567439 0.136176480001753 0.052162083636965804 0.04117260461080955 -0.8055980609326933 -0.1687575336853925
-0.0462282656578337 0.17201820144278482 -0.20071811845472737 0.03782249656683874 -0.5603307759848608 0.14674947558532023 0.07706385725994801 -0.5677025253910636
-0.4879084097421353 -0.2366372847966626 0.22506872588430843 -0.4511732508914495 -0.7628431321402735 0.012550263741297023 0.19672573029659238 0.17816729104268386
-0.455057348178398 -0.24474022745825147 -0.024020930991766016 -0.17842021422829316 -0.4746558448459397 -0.008744734169876684 -0.4823682893420801 0.09279444919748259
0.04538492771446633 -0.6705974607214314 -0.23322563592571363 0.15336463596760969 -0.4583037458265898 -0.6362972963156099 -0.654189394730647 0.17814582631065412

linear3.bias f8 [3]
00000000: 323a 472d bb06 cebf 9cd3 07ff 9ef5 cc3f
00000010: 1560 f0f5 5456 d0bf
-0.23458041869021568 0.2262457604662388 -0.25526927964665563
