runs/testrun-statedict-hyptuned-15r-40bs-50ep/0/LocalModel-0-Round6.pt (torch, 167767 bytes, 6 tensors)

linear.weight f8 [128, 95]
0	0x3fb5cda291c5d1f1	0.08516899165062576
1	0xbfa675ced5ea2f19	-0.04386755334152621
2	0xbfb9bff109f5151d	-0.10058504574870537
3	0x3f85d5ac670488db	0.010661456006861794
4	0x3f8ff1b7e135c7ec	0.015597759781233088
5	0xbf75523af7a0b378	-0.005205374089240482
6	0x3faeacfe7e2d4abd	0.05991359033818842
7	0x3f93c16a21f90e18	0.019292505572833546
8	0x3fb2314c4dfb11e7	0.07106472877337176
9	0xbf71ce130e455fde	-0.004346918522365654
10	0xbf7764ace1537415	-0.005711245835496666
11	0x3facc213c39d2f2c	0.05616819155565475
12	0xbfb52099d17607fa	-0.08252869952960387
13	0x3fb109eab6a4db4b	0.0665575691135533
14	0xbfb1464758750ce4	-0.06747861775970737
15	0x3fb3c6275d454610	0.07724233653177515
16	0x3f7fd7544ba12a15	0.007773713377967191
17	0x3f9f697c96f16e2e	0.030675837242922714
18	0xbf9f7368c512c833	-0.030713688877490774
19	0xbfad360e7de01649	-0.05705304419101915
20	0xbfb30b0a4a87c4e7	-0.0743872100790842
21	0xbfaa448dc4b10eed	-0.05130427385350154
22	0x3fa50698e07b872a	0.04106595745339654
23	0x3faadfab396e14ca	0.05248770786332953
24	0x3fb959f121a49d02	0.09902865477907954
25	0x3fad33d72692252d	0.057036136110648485
26	0x3fb9e762a789dbc7	0.10118691053672456
27	0xbf7c5ea5437064dc	-0.006926198540008612
28	0xbfa27c52b4ded15f	-0.03610475976839455
29	0x3f940e67ff076b7b	0.019586205425962327
30	0x3f740eb7daccfca5	0.004896848852523982
31	0xbfa4d8d0e1eefc18	-0.04071667440393173
32	0x3faa1947ac41c011	0.05097412088150589
33	0xbfa41d285747c8f8	-0.03928495469507881
34	0x3fa6be0e7a1fe917	0.04441876641063141
35	0xbfb6d33254889584	-0.0891601044064228
36	0x3fa875336a0454f4	0.04776917142059203
37	0x3fb35074951fd6f9	0.07544640198451792
38	0xbf83ac9cde91389f	-0.009606576482976968
39	0xbfaa142c018add96	-0.05093514937237413
40	0xbfac89d09975f417	-0.05573894379902116
41	0xbf9a62c35c76456a	-0.0257673764404606
42	0xbfb3e56afcc14530	-0.07771938963675917
43	0x3f97c25fe17d92da	0.02320241750512051
44	0x3f88a755c1bce535	0.012037916159544618
45	0x3fb24bed1464e31b	0.07147104022886845
46	0xbfa40b8daef85237	-0.0391506458364898
47	0xbf95cb50f8cec47a	-0.021283402620330773
48	0x3fb374e6de889340	0.07600253041216565
49	0xbfb35df9cc7d9d11	-0.07565270655105773
50	0xbfb1ad24dd6f132c	-0.06904821783161869
51	0x3fb354f5a1804946	0.07551512902162924
52	0xbfb8d2534eb73dde	-0.09695931121608889
53	0xbf80ca427cfa14bb	-0.008198279799453414
54	0x3f922cde68794402	0.017749285818641887
55	0x3f8844cde5ec5804	0.011849983767699974
56	0x3fa6fe96cdec4f90	0.044911110531898335
57	0xbfb846d545c33ff4	-0.09483082726660524
58	0xbfb278e26f0cfa1f	-0.07215705119322323
59	0xbf9caeba2bc1d870	-0.02801028148720558
60	0xbfb856ca6e1acd70	-0.09507432163336715
61	0x3fb31c3064289b9d	0.07464888043669622
62	0x3f95b481213c3bcb	0.021196382192154844
63	0xbfae2a11b3b3d180	-0.05891471212990762
64	0xbfa8c25f6d42a260	-0.04835794647926117
65	0x3fac3dda49cde9af	0.05515939856464357
66	0x3fb28551d440e4ac	0.07234679634065583
67	0x3facfa1bea6c2607	0.05659568058588254
68	0xbfb43f6d836819f2	-0.07909283121271196
69	0xbf9192f8edf398fb	-0.017162217639360638
70	0xbfaddaaaa680758f	-0.05830891878597832
71	0xbf903486ac566a5d	-0.01582537104477876
72	0x3fb6850c6d0a3532	0.0879676595888739
73	0xbfb16f3abb686b41	-0.06810347628963333
74	0x3fb472d8aab5508c	0.0798774163025106
75	0x3fb86693ae14cb3e	0.09531519889860093
76	0x3fa8551a1f126cd5	0.047524277012792084
77	0x3f9745eacd16c104	0.022727650420791626
78	0x3fa934b57a0bb383	0.04923026194396753
79	0x3fb1a546c3cc7002	0.06892816810835714
80	0xbf7719b976282df9	-0.005639767131025313
81	0x3fb228c49bc1bb6f	0.07093457033782412
82	0xbfb67c40afe95959	-0.08783344549860796
83	0x3facbf5c39d71914	0.05614746290261699
84	0x3fb67a39ebb34c48	0.08780252460864901
85	0x3fb6258f06bc07e7	0.08651060022751232
86	0xbfaf5f083fbb4358	-0.06127191331837051
87	0xbfb1ea03503ce77b	-0.06997700413640288
88	0x3f89bfa9b0cf0eb1	0.012572599132801928
89	0xbfaefbf2ed6c9d82	-0.06051596782918535
90	0x3f9a3738878378b6	0.025601275702563618
91	0xbfb141c6cce2a104	-0.06740992071229718
92	0x3f9f175e03d11972	0.030362576468428278
93	0x3f97cdb082c56cf5	0.02324558065570855
94	0x3fba1cc94329c897	0.1020017422650049
95	0xbf55c737d18d5619	-0.0013292355635788954
96	0xbfba1794104e892c	-0.10192227743258248
97	0x3fa1b3ed6eccdb4b	0.03457586267034304
98	0x3fa663f2cfc4a2c8	0.04373129640800283
99	0x3fb48a18fbd72099	0.08023220203824834
100	0x3f9e38579d173b02	0.029511803591783632
101	0xbfa36468e94b54e5	-0.03787544105368016
102	0x3fb50c4f63ebb131	0.08221908750028174
103	0xbfb4aa540a3ef81d	-0.08072400331636272
104	0x3fae340551e2c27a	0.05899063705999637
105	0xbfb364e5a48137e5	-0.07575831667165252
106	0x3fb9ee58252a3e16	0.1012930956587684
107	0x3f82602290890edd	0.008972425495023579
108	0x3f5e24e12168900f	0.0018398474254661711
109	0x3fb4b3e72c79f7b7	0.08087010227060785
110	0xbf8b6f1e42d6e091	-0.013395534910941616
111	0x3f937e1fa41b693a	0.0190358108437547
112	0xbf8865d5c5823249	-0.011912984933837427
113	0x3fb6c3b5e5940238	0.08892380576072234
114	0x3fb60b72f3de8050	0.08611219838940198
115	0xbf91888ea9c69abc	-0.01712248717526664
116	0xbf989a107312153d	-0.024025208495477946
117	0x3fafbb878d0fe513	0.061977611512654594
118	0x3fb13b451d8948f0	0.06731063815212557
119	0x3fb716cd05dc3e65	0.09019166367601768
120	0xbf9014996ea40b65	-0.015703580263117262
121	0xbf8258b5c8bfd3b3	-0.008958263577349834
122	0x3fb0f2ca464d5b18	0.0662046834598694
123	0xbfb6f264ba8f88c3	-0.08963613085464588
124	0x3fb21e13eb69d7b3	0.07077145097159025
125	0x3fa04f4c56e9542c	0.031854997262293544
126	0xbfa2e7721ce89751	-0.036922040966870136
127	0xbf995ded551276a4	-0.024772365872755345
128	0xbfa49acdbbe36884	-0.040243558106980465
129	0x3f9ea76a02180767	0.029935509088324787
130	0x3fa7958ae83b9c36	0.046062794541107996
131	0x3fb872b3125dc609	0.09550017546077795
132	0xbfb714e891ee33ee	-0.09016278803592545
133	0xbfa29caa9f22cd8b	-0.036351520467543606
134	0xbfb2309aeee12d76	-0.07105415660878642
135	0xbfb4f9b10a89a120	-0.08193499095216739
136	0xbfb7105d645ebdff	-0.09009345722619598
137	0xbfb772b7eb5516f5	-0.09159421439570876
138	0x3fb1edbc81a5f4c0	0.07003381886711946
139	0x3f88416991040a4c	0.011843514192610226
140	0xbfb90e9cfbdcc9ad	-0.09787923001275685
141	0x3f9e134dd296934d	0.029370513895304474
142	0xbfb14c7a06963cf3	-0.0675731912690372
143	0x3fb951b302fa61f3	0.09890288183886024
144	0xbfb2784335cd5b6a	-0.07214756072549525
145	0x3fa813e4ecc87aeb	0.04702678099078191
146	0xbfb549d0af98e446	-0.0831575802520926
147	0xbfb46d655b66d9c6	-0.07979424935806553
148	0x3fb7c3aebe177c94	0.09282962933456168
149	0xbf6f0002429affea	-0.0037841838974088564
150	0xbfb211475c108266	-0.07057615277927595
151	0xbf9a97acac605e29	-0.025969217320463898
152	0xbfb050e00dde084f	-0.0637340577941654
153	0xbfb5ce76341bc052	-0.08518160602739158
154	0xbf95722517e539d7	-0.020943240722141567
155	0xbfb73ae4f272ca86	-0.09074240607405146
156	0xbfb357aac2ac3ecc	-0.07555644276385037
157	0xbfa08e09de47bfbe	-0.0323336681211681
158	0x3f825959112295c2	0.008959480128690415
159	0xbfa87fb8e350ff25	-0.047849443195899156
160	0x3fb0e642ed300980	0.06601351061548222
161	0x3fa2cb04692e3a4d	0.036705148543764034
162	0x3f9fa56fc40efc1a	0.030904527989829324
163	0xbf8bc3681d60b52d	-0.013556302448785995
164	0x3f7e0b68ffb53db1	0.007335100318712249
165	0xbfa1ba4d9fb0871d	-0.034624505751948066
166	0x3fb0d1add2627bde	0.06569944750161436
167	0x3fb6559a506f1a39	0.08724369491310648
168	0x3fb1011b97c1158e	0.06642315344750768
169	0xbf97651e010833fb	-0.02284666901873676
170	0xbfb4841356007221	-0.08014031266834155
171	0x3fb1ba6a409df3f9	0.06925071790278982
172	0x3fa34269cc76b130	0.037616068085613796
173	0xbfbe5f7bed09b6bc	-0.11864447152194207
174	0xbfba0904e2e5a189	-0.10170012034871524
175	0xbfaf10760615ceb3	-0.060672462694950545
176	0x3fa0ec8260ab6c6d	0.033054422665110696
177	0x3fa2806051b4b961	0.03613568303477411
178	0x3fb90c7ec46e7c9b	0.09784691138928496
179	0x3fbaf1dce8f14f79	0.10525303542209298
180	0x3fb016e3b8ae37eb	0.06284926661302818
181	0x3fbc602091d13468	0.11084178504934672
182	0x3fa03b403dcd7174	0.031702048820735934
183	0xbf742f878c55bf32	-0.004928140149203663
184	0xbf6b0c84c70ea0b8	-0.0033018678008894485
185	0xbf9c237a1ea9df5f	-0.027479084130816896
186	0x3f9a4b8994a41193	0.02567877740604414
187	0xbfc1d9592200dba7	-0.1394454399139395
188	0xbfac5dc6834823fb	-0.055402949834451896
189	0x3f9856504c5efa0b	0.023766760503116695
190	0x3fb0bb487b876959	0.06535771385043655
191	0x3fb76c26e5992693	0.0914940176527586
192	0xbf74b195fcabb8d4	-0.005052171599102279
193	0x3f9209edeecc7cec	0.017616002750512047
194	0xbfb85447b9b86a5f	-0.09503601345242306
195	0x3fa87f68f048a028	0.04784706051970061
196	0xbfa44d189f6f10a1	-0.03965069719518622
197	0xbfaf33d2f888a41a	-0.06094226154193212
198	0xbf92c7288126517a	-0.018337853319807952
199	0xbfb1236c01834cb3	-0.06694674527107018
200	0x3f9a8d4cd516b639	0.0259296422060997
201	0xbfb62e8c774182c4	-0.08664777671357188
202	0x3fa1ff302c6d9397	0.03515005628904715
203	0x3fae17fc3f28aa7e	0.05877674361211847
204	0xbf78463e9752829a	-0.005926365372176301
205	0xbfa659d16b9b28d4	-0.04365400732565808
206	0x3fb35aea2a4ea7cc	0.0756059983529262
207	0xbf9a09ddc8ce9615	-0.025428262120518925
208	0x3fa2ea42e7f743ac	0.036943522277972235
209	0xbfb45a4e779c3d45	-0.07950296802686292
210	0x3fadd4a31a1a3771	0.05826291745789448
211	0x3fb9ef38d7031fe2	0.10130648850747506
212	0x3f87fdc980443c20	0.011714529253849248
213	0x3faebc4b1556ba55	0.0600303138302151
214	0xbfb4cd6de34b991e	-0.08125960158540521
215	0xbfac28f5ce6f18da	-0.05500000138231238
216	0x3fa751bcca0f699f	0.04554548231654398
217	0x3f93d2577bb8c285	0.01935707752835693
218	0x3fb3acab9449b232	0.07685348863896804
219	0xbf9ca9bf1263f379	-0.027991281030142787
220	0xbfb11630b277c4e5	-0.06674484593510817
221	0xbf9fa3ee9d89eb16	-0.030898788800622766
222	0xbfaf1344f7126aa7	-0.06069388881697551
223	0x3fb28f54fe202f91	0.07249957279435494
224	0xbf9771c6b81471bc	-0.022894959435790105
225	0xbf73f2e1c576e28c	-0.004870302123372593
226	0x3fb0baccc2f77cd2	0.06535033950739269
227	0x3f9534206a7f4ee4	0.020706659793929286
228	0x3f7a82c19f92e6cb	0.0064723552142653224
229	0x3f9a2dac02dd713c	0.025564849543443943
230	0xbfabcf98c3ef9062	-0.05431821243090053
231	0x3f99d21f0ae6aa13	0.02521561149630187
232	0xbf826f01ea01f9da	-0.009000792459343755
233	0xbfb3d8abe3747468	-0.07752489379022764
234	0x3f813be5a5d0f07f	0.008415025828178322
235	0xbfb7343e09eda5e9	-0.09064090483084154
236	0xbfaf91f18c46ff8e	-0.06166033589715801
237	0x3fb97fe9ad0c1b5b	0.09960804438388264
238	0xbfb1e81f734bcd49	-0.06994816365095348
239	0x3facdaed512f5905	0.05635778060939071
240	0xbfb1a4bc95766064	-0.0689199318788965
241	0xbfa55956be861abf	-0.041697226292901395
242	0xbfb8652538400b18	-0.09529335616393231
243	0xbfb986319da839a6	-0.09970388506937997
244	0xbfa99778706bed13	-0.04998375294050041
245	0x3f9ca1e2bea01324	0.027961295018047796
246	0x3fb3cd5c6858fb4c	0.0773523096804471
247	0xbf815349a532b71e	-0.0084596398868047
248	0x3fb3b7ec3300826a	0.07702518696943064
249	0xbfb90f695d7e6d4f	-0.09789141209187345
250	0x3fae4708ea8e5b7d	0.0591357027362198
251	0xbfa25ab1668ef837	-0.03584818245825299
252	0xbfb6764b2372f20a	-0.08774251571134797
253	0xbfb89e9a50ba1084	-0.09617008658284659
254	0xbfabbe44fa9402e6	-0.05418601568999808
255	0x3fa8356d3e7df87b	0.04728261363833127

linear.bias f8 [128]
0	0xbfb3dd6bb053bd6c	-0.07759736113415777
1	0xbfa34e00b30e20e2	-0.03770448861820498
2	0xbf803d979ddb98f3	-0.00792997789853842
3	0x3fa58fbcb8d84af4	0.042112252773355424
4	0xbfa7343fa84f343c	-0.04532050065572732
5	0x3faa0630ead67db9	0.05082848421738668
6	0xbfa1aa0e81c31960	-0.03450055440912325
7	0xbfab37b187ae2e7d	-0.05315928250555844
8	0xbfaee588e0000000	-0.060344960540533066
9	0x3fa593a1d0b6d762	0.042141968467531724
10	0x3fb6c658ce6032b7	0.0889640334937195
11	0xbfa3cd9a40000000	-0.03867799788713455
12	0x3f8f3ea7ce9436ad	0.015256224624433068
13	0x3fb2c56880000000	0.07332471013069153
14	0x3fb4fcd21959db1e	0.08198273772164241
15	0x3fb5450bca6920f3	0.08308480922380905
16	0x3fb4bc80589104ff	0.08100130235927237
17	0x3f8133b6dc009ef6	0.008399418438855371
18	0xbfa1a74ec0000000	-0.03447958081960678
19	0x3fb4ff9d2a173275	0.08202535894015191
20	0x3fab54f080b94975	0.05338241168341799
21	0xbf95d8baa5dee074	-0.021334568380297417
22	0x3f98be201b96eff3	0.024162770923552967
23	0x3fad6db7bf602a2a	0.05747770510796031
24	0xbfb16510899e5a8d	-0.06794837341144895
25	0xbfba2c4760000000	-0.10223814100027084
26	0x3f937d6a68632586	0.01903311025742973
27	0x3fabf32500000000	0.054589420557022095
28	0x3fa7fe79d662a7a7	0.04686337224968833
29	0xbfa8f35f60000000	-0.048731785267591476
30	0xbf92ca52ce1d1fc2	-0.018349927740274337
31	0xbfa1ab52c0000000	-0.03451021760702133
32	0xbf9dee0b39612875	-0.029228377701919734
33	0xbfa811f777f0a749	-0.04701207484352083
34	0xbfb00bafc0000000	-0.06267832219600677
35	0xbf96ae4480000000	-0.02214915305376053
36	0xbf809acad9af800a	-0.00810774304221697
37	0xbfb3f1b876fc9a93	-0.07790711312245895
38	0x3fb64cdd910db8dd	0.08711037436816889
39	0x3fb48c0b3773a01b	0.08026189903068863
40	0x3fa5e0b8410cd050	0.04273010057514226
41	0x3fb082ace291c3d5	0.0644939473293243
42	0x3faa6b9d3e335bb4	0.051602281420563584
43	0xbfb7e37de4265840	-0.0933149988180455
44	0x3fa27e66badf0a22	0.036120615302497563
45	0x3fb09933c7c58872	0.06483768107639934
46	0xbf915ec7991b92f0	-0.01696311828608804
47	0xbf9dda4246a49635	-0.029152904092504
48	0xbf91cad400000000	-0.017375290393829346
49	0xbf6ade4cbd98e612	-0.003279828914654067
50	0x3fa0baf77d250126	0.03267644312518518
51	0xbfb217d5d6d63b40	-0.07067619795837476
52	0xbfb02992f6522176	-0.06313436998073549
53	0x3fa393af216856a0	0.03823611529166482
54	0xbfb7c1a02010f0ef	-0.09279824049821504
55	0x3fa3123d80000000	0.03724853694438934
56	0xbfb464655c4d08d6	-0.07965692046585401
57	0xbfb83d1c7d3f913d	-0.09468248422451082
58	0xbfa9a261c6b4e21a	-0.05006700087182399
59	0xbf9070c03527ae55	-0.01605511021072766
60	0xbf9bc37bafb0123e	-0.027112896535998347
61	0x3fb9261600000000	0.09823739528656006
62	0x3fae9a1b91dfbfd8	0.059769498402488075
63	0x3f9717a61d11cffb	0.022551150821939796
64	0x3f9c7c2200000000	0.02781727910041809
65	0x3f7161ea00000000	0.004243768751621246
66	0x3fa9485fa67087b1	0.049380292002992994
67	0x3f962dcb9eacc0b5	0.02165907054876533
68	0xbf9e08a514adff48	-0.029329852473437584
69	0x3fa17eb300000000	0.0341697633266449
70	0xbf89b13202537b2f	-0.012545004554736032
71	0x3faddb25aa80e523	0.058312584937491495
72	0x3fb1c96e5ea66ee1	0.06947984514993834
73	0x3f942af600000000	0.019695132970809937
74	0x3f6c4d17ba368172	0.003454729406897333
75	0x3fb1f1d8ea4084ea	0.07009654730838447
76	0xbfb074934d291ee5	-0.06427879937939059
77	0xbf8fbcdf00000000	-0.015496961772441864
78	0xbfb99a53c0000000	-0.10001109540462494
79	0x3fa59f17f38645dc	0.04222941253386711
80	0x3fb96161f174e57b	0.0991421904081075
81	0xbfa96cc6d0aa9ecf	-0.049658024761183854
82	0x3fad9f4500000000	0.0578557550907135
83	0x3fa5a393d3ac2bbc	0.04226362189191188
84	0xbfaaa806eb1227da	-0.0520631944610412
85	0x3fb90a9740000000	0.09781785309314728
86	0x3f979d83bbed612e	0.023061807961625984
87	0xbf60fa1800000000	-0.002072378993034363
88	0x3f75f220ba7496d5	0.005357864232143424
89	0x3fb065af251772e5	0.06405157714420857
90	0xbf87b94a4ecff1b1	-0.011583881883773768
91	0xbfb2bea440000000	-0.07322145998477936
92	0xbf93e472848aeaa0	-0.019426144923935795
93	0xbf902e4a80000000	-0.01580158621072769
94	0x3fa41bc3d6f22977	0.03927433012821074
95	0x3fb34db080000000	0.07540419697761536
96	0x3f757baafcdb856b	0.005244892044829678
97	0xbf9ea2c95b517033	-0.029917856405845277
98	0xbf67f14c00000000	-0.0029226765036582947
99	0xbfa8c4371a4245a4	-0.04837200351279172
100	0xbfb38e3afb0c76b8	-0.07638901356809924
101	0x3fb229eadd129d98	0.07095210931094298
102	0xbf909c5937ff8ecf	-0.01622142223631223
103	0x3f84cb5700000000	0.01015346497297287
104	0xbfa07b68d0265ef7	-0.0321915392007081
105	0xbfb93da73533d56d	-0.09859700249565657
106	0x3fb54dd20119c434	0.0832186939894804
107	0x3fb1f2361d235a57	0.0701021023881848
108	0x3f7e7da1381f5ab8	0.007444028627978376
109	0xbfb36ae63c16437a	-0.07584990469901057
110	0xbfba439080000000	-0.10259345173835754
111	0xbfa2bd2200000000	-0.03659921884536743
112	0xbfadd1d45612a210	-0.05824149656956845
113	0xbfa77780ad99a589	-0.045833607856205445
114	0x3fa6dd3480000000	0.044656410813331604
115	0x3fb55d9840000000	0.08345939218997955
116	0xbfafbff60d63d7d1	-0.06201142228557866
117	0x3fb26c8078a9f105	0.07196810670751937
118	0xbfb772423fa7873e	-0.09158720068037682
119	0x3faedb7800000000	0.06026816368103027
120	0x3fa5f54f19abcfa8	0.04288718403213859
121	0x3fb0cdadc048e760	0.06563840813114785
122	0x3fb019fa52425f0f	0.0628963900402335
123	0x3fa3f5b2e5113215	0.03898390814046963
124	0x3fb75838c0000000	0.091189906001091
125	0x3f7e535600000000	0.0074036940932273865
126	0x3f9d12a25c0bf06a	0.0283913963967141
127	0x3fade5dc21471c71	0.05839431673262475

linear2.weight f8 [64, 128]
0	0xbfa33e087932f5bb	-0.037582649988944415
1	0xbfaa810ef88bfc47	-0.05176588806170251
2	0x3f9879c2c7402b58	0.023901980792327165
3	0xbf899fa16364939d	-0.012511502118806745
4	0xbf8c078481691981	-0.013686213683411054
5	0x3fa5ac0e22b9df6e	0.04232830213453452
6	0xbfb01d6e8753d4e8	-0.06294909290211914
7	0xbfa835f2ab300f79	-0.04728659000104946
8	0x3fb4b0c060000000	0.08082201331853867
9	0xbfb12dbf24a11455	-0.06710428852336865
10	0xbf900f47159b6d02	-0.015683279699129755
11	0xbfb661b360000000	-0.08742829412221909
12	0xbfb602f58ba3bcba	-0.08598265322847257
13	0xbf8ebe6b00000000	-0.015011630952358246
14	0x3fa2fb50e4047b81	0.03707363875786652
15	0xbf962dd6c97e82a5	-0.02165923695395357
16	0x3f91bac879b58f14	0.017314083508053704
17	0xbfbab6ce13d2cee3	-0.10435188278170986
18	0xbfb4968f80000000	-0.08042237162590027
19	0x3f94bb31b1edf6ef	0.020245338902433237
20	0xbfa2cb6adfdfcc27	-0.03670820219840492
21	0x3fb2c3d2e1ddf6d1	0.07330053343136035
22	0xbf9973347c94b7b6	-0.02485353479749338
23	0x3f935b13f997b133	0.018902122601432935
24	0x3f51084ff04bf1a0	0.0010395794535603478
25	0x3fac7b5940000000	0.05562857538461685
26	0x3fb5cf6c2a3f4ab1	0.0851962664740238
27	0x3f9c599100000000	0.027685418725013733
28	0xbfa62797999030b2	-0.04327081441451365
29	0xbfa43f6d40000000	-0.039546407759189606
30	0xbfa91b9a8be382fd	-0.04903872449518152
31	0xbfabef4d00000000	-0.0545600950717926
32	0xbfb33e3bb82b8d30	-0.07516835447636505
33	0x3fa5df31f71bc453	0.04271846906147716
34	0xbf9f700780000000	-0.030700795352458954
35	0xbf930ae100000000	-0.018596187233924866
36	0x3faaed06124e364f	0.052589597448883134
37	0x3fa1cb916932ed70	0.0347562256733579
38	0x3fa1dec5b1ded9c3	0.034902742350300574
39	0xbfb3697eb726ec10	-0.07582847568021145
40	0x3faf3bbec8e89791	0.0610026951074324
41	0x3fa53d0a252aabff	0.04148132041640195
42	0xbfa5656c7d161c5c	-0.04178942706044417
43	0x3fa1518a46f59ca8	0.03382522693828466
44	0xbf9925d9c43be4a7	-0.02455845127312686
45	0xbf9df1109642d211	-0.029239901705937103
46	0x3fb008dd96e28667	0.0626352780696152
47	0xbfb47311bd806f33	-0.07988081814295071
48	0x3f8392e000000000	0.009557485580444336
49	0x3f9492adc8bc597f	0.020090785386025708
50	0xbfa4ea54508539aa	-0.04085029108920264
51	0xbfb8110d67f15eb2	-0.09401019847552552
52	0x3fb16d19e0d87f50	0.06807100047489922
53	0x3fa00e1fa9e9f339	0.03135775517600909
54	0x3fb37d6a6ec6dd27	0.07613244251739514
55	0xbfb0f0f980000000	-0.06617698073387146
56	0x3f976493ff841adc	0.02284461257024871
57	0x3f83240c965bcca5	0.009346102083759364
58	0x3f8d9371531d1260	0.014441380833553896
59	0xbfa836b80e549597	-0.047292472600285844
60	0x3fa3934cd8c958c6	0.03823318620986664
61	0x3f85827800000000	0.010502755641937256
62	0xbfb24d7e4a1c146e	-0.07149495419806026
63	0x3fab344780d2c212	0.0531332344775174
64	0x3fa1d51080000000	0.03482867777347565
65	0x3f8ef0df00000000	0.015107862651348114
66	0x3fbb0cc2052318f1	0.10566341996591057
67	0xbfb4694ca7d21149	-0.07973174187833822
68	0x3fb440223fc788e7	0.07910360390772873
69	0x3fa4b2e2c0000000	0.04042728990316391
70	0xbfad2e0aa02017e6	-0.05699189381270724
71	0xbfac685f97fd121d	-0.05548380594567368
72	0x3fb44592a9b9100d	0.07918659824014203
73	0x3fb3cf0ba0000000	0.07737801223993301
74	0xbfb556a10e47481d	-0.08335310553164317
75	0x3fb20cd7d91be213	0.07050847101698592
76	0x3f97aab3c7b57232	0.02311211496759053
77	0x3f9a209c80000000	0.025515027344226837
78	0xbf9c41d7c0000000	-0.027594920247793198
79	0x3f9c2faa25c37139	0.02752557616700921
80	0xbfb075af8bb7d84e	-0.06429574166381366
81	0xbfa9c3622ea255e8	-0.05031878299011422
82	0x3f97a93200000000	0.023106366395950317
83	0xbf670139a68e90a4	-0.0028082014072926143
84	0xbfabea059117408a	-0.05451981922271994
85	0x3fb1527420000000	0.06766439229249954
86	0x3fa604e65212e9d7	0.043006131666931395
87	0x3fa175c340000000	0.03410158306360245
88	0x3fb49c2fa9e83b5f	0.08050821207164692
89	0xbfb68adb3ad0d8e5	-0.0880562800019536
90	0xbf8f413499d0a64c	-0.015261088317930625
91	0x3f8165af00000000	0.008494727313518524
92	0x3fb0ba75ed5a6cbb	0.06534516377216708
93	0x3fa7a3ebc0000000	0.04617249220609665
94	0xbf70779fa4b44da5	-0.004020331961572953
95	0xbfabd516a0000000	-0.05436011031270027
96	0xbfb49ded39cc607f	-0.0805347696408507
97	0x3fae34f0900b9886	0.05899764784207755
98	0x3f8548ad00000000	0.010392524302005768
99	0xbf7f038b094214d2	-0.007571738348024231
100	0x3fa9693b23c61ff8	0.04963097392743515
101	0x3fac3b871f526bf7	0.05514166123722213
102	0x3fa6d391929dcf27	0.04458289065124026
103	0xbfae51d4c0000000	-0.05921807140111923
104	0xbfb82a67dd8dab2b	-0.09439706000345598
105	0x3f58995c283a21c3	0.0015014076206246597
106	0x3fae3942d2b7f5e3	0.05903061697243197
107	0x3fb21982de1751f1	0.07070177003999568
108	0x3fa4a985b5f1d378	0.04035585256580182
109	0xbfb1c5ff5356efd8	-0.06942745003374229
110	0xbfabd53940000000	-0.054361142218112946
111	0x3faa2720c0000000	0.05107977241277695
112	0xbfb5368deb060a84	-0.08286368358498392
113	0xbfb115ee6bc0ad00	-0.06674089556388552
114	0x3fae67b140000000	0.05938486009836197
115	0x3fb3257320000000	0.07479018718004227
116	0x3f602487c3dfd5fb	0.0019705440199639913
117	0x3f9fa1fc05d60c44	0.03089135919209364
118	0x3f9aeb78de39f05f	0.02628887993203965
119	0xbf91e24d00000000	-0.017464831471443176
120	0x3fa5f545e3df0fbf	0.042886909548115686
121	0x3f944171df9eb935	0.01978090216987845
122	0x3fa81f05ed80494c	0.047111687890849824
123	0x3fa1677ad1d257d3	0.03399261294650526
124	0xbfa2ab0d40000000	-0.03646127134561539
125	0x3fa3a80a40000000	0.038391418755054474
126	0xbf8bc6ee3e4ca963	-0.013563023830631854
127	0xbf98078695726c9e	-0.023466208335417897
128	0xbfb153b774d90312	-0.06768366434790732
129	0x3f95a2f3c8123c35	0.02112942608487974
130	0x3fb22eae485aeea5	0.07102479235157462
131	0x3f70f61843749efd	0.00414094427041056
132	0xbf283e6eb757f04c	-0.00018496610179841372
133	0xbfb0727ea306a3a1	-0.06424705009579991
134	0x3fb03a01286ee0d4	0.06338507878433869
135	0x3fad6d20b1ea1370	0.05747320339018003
136	0x3fab5d49c0000000	0.05344610661268234
137	0xbfaf27d86082f6c4	-0.06085086992378089
138	0x3faa9ba403d3f151	0.05196869417884165
139	0x3fa1598140000000	0.03388599306344986
140	0x3fa2c5d80fa7afbb	0.03666567984677679
141	0x3f9090c400000000	0.016177237033843994
142	0x3f9250a2fc43c8e9	0.017885729453106434
143	0xbfa47b68dee51498	-0.04000404091724724
144	0x3f7168980157a309	0.00425013901756511
145	0xbf9f8ade4b286c70	-0.03080317815520711
146	0x3fa71916c0000000	0.04511328786611557
147	0x3fb12403973cab0b	0.06695578043278887
148	0x3fba928426cf8fa5	0.10379816005257554
149	0xbfb50ab2ff3dbf8b	-0.08219450694536883
150	0x3fbfcf185a499d96	0.12425377086912301
151	0xbfab49554460c598	-0.05329386195843283
152	0x3fb73a7017cbda31	0.09073544102634724
153	0xbfb401fee0000000	-0.07815545052289963
154	0x3fad956ec93ee13d	0.05778070646869302
155	0x3fb1969c60000000	0.06870438903570175
156	0x3fbb8fb5b9e2ed3a	0.10766158855669952
157	0x3f84861900000000	0.010021395981311798
158	0xbf2425efe9345de6	-0.00015371850586441623
159	0x3f97612780000000	0.022831551730632782
160	0xbfa4f697a6815294	-0.04094385058912056
161	0x3fa43c46ca0abe69	0.03952237335522286
162	0x3fb01ff360000000	0.06298752874135971
163	0x3fb475cea0000000	0.07992259413003922
164	0x3fc08520da56f5e4	0.1290627542602315
165	0x3fc19180b3370f1b	0.13725289107070968
166	0x3fa3b6de1769fcbb	0.03850454364600738
167	0x3fa87bb91166962c	0.04781893098269693
168	0x3f8536899631a1b2	0.010357928176930684
169	0xbfb435b347daf845	-0.07894440178185487
170	0xbfa4607f39df91ed	-0.03979871350728446
171	0xbfb1623deb3e8a69	-0.06790530198353796
172	0xbfa7cd8b9e8ef7da	-0.046490061860353385
173	0xbfa40e612f51cbd2	-0.039172207857425825
174	0xbfa9900a66ca7612	-0.0499270678021554
175	0xbfaafea94ef8e7ef	-0.05272416199700546
176	0x3fb0793be0000000	0.06434988230466843
177	0x3fabe199ea4ee42c	0.05445557580191748
178	0x3f944d7b2d357099	0.01982681716377552
179	0x3fb53256feec2f66	0.08279937480636831
180	0x3f93f3a78cf977f7	0.01948415563526137
181	0xbf6c293cf797b411	-0.003437632633668482
182	0xbfb28e2d14164358	-0.0724819349327509
183	0xbfa11ef620000000	-0.03343934193253517
184	0x3fb3b4684b1ab5c9	0.07697154840089761
185	0xbfa2e7346525b498	-0.036920201632576866
186	0xbf6f39593641677c	-0.003811525575696471
187	0xbf8624f2e4541905	-0.010812661736519855
188	0xbfb3272b086e1b55	-0.07481640773594951
189	0xbf96b9fe00000000	-0.022193878889083862
190	0x3fa3e3e1c1a75ceb	0.03884797562539596
191	0x3fad7e2d33c95a49	0.057603275844190956
192	0x3fa1b84980000000	0.034609124064445496
193	0x3fb56236e0000000	0.08352988213300705
194	0x3fb338512335b117	0.0750780783616317
195	0x3f9b148f8f6680f8	0.026445620658365393
196	0x3fa52cb2c6f71461	0.04135664633535253
197	0x3fa6ec2340000000	0.044770337641239166
198	0xbfb0142f2465b85b	-0.06280798567397154
199	0x3fa60649887ddd43	0.04301671782644203
200	0xbf916847c6313f13	-0.016999360534383955
201	0xbfa2d5a5e0000000	-0.03678625449538231
202	0x3fb27698d6d7fd9f	0.072122147037581
203	0xbfadc8e370ddfd95	-0.05817328217289767
204	0x3fbba7380ff5bb63	0.10802030934949651
205	0x3faf17a340000000	0.06072721630334854
206	0xbfad705a40000000	-0.05749780684709549
207	0x3fa198fce865f0d7	0.03437033020870366
208	0x3f984a13e0860ff6	0.023720083788717226
209	0xbfa0cd4a335122dc	-0.03281623722484081
210	0xbfb17241a0000000	-0.06814966350793839
211	0xbf97db2e5042b126	-0.023297046326363667
212	0xbf7652317979b795	-0.005449479350870497
213	0x3faa2e6c40000000	0.05113542824983597
214	0x3fb004117093ba3c	0.06256207464660063
215	0x3f9fc08780000000	0.031007878482341766
216	0x3fb7e06267ac41e7	0.0932675841434115
217	0x3f8539336de6c4c9	0.010363008300233638
218	0xbfb5758c02fdac43	-0.0838248736669565
219	0x3f853b1b00000000	0.010366640985012054
220	0x3f862065c97e0ca1	0.010803981029090361
221	0x3fb3393560000000	0.07509168237447739
222	0x3f91abc17d247da8	0.01725675894078696
223	0x3fa0e33c00000000	0.03298366069793701
224	0x3f8c10918d9832bc	0.013703477033254578
225	0x3fb500780abbe1cc	0.08203840505655718
226	0x3f9f59a000000000	0.03061532974243164
227	0xbfb4dd7bd7efaa22	-0.08150457403068193
228	0x3fb0dc1c3a8b3f39	0.06585861615462542
229	0x3fba71dd5273d255	0.10329993498800978
230	0x3f95eedd5fba623d	0.021419009177949134
231	0x3f96262d00000000	0.021630004048347473
232	0xbf7ba8c31bc459d9	-0.0067527409958274215
233	0xbf6bf9ccdccfee7d	-0.0034150124761234677
234	0x3fb06bf4524a2345	0.06414725312255339
235	0x3fb13a7a75b953c3	0.067298558942027
236	0x3faa5fc4d248e20d	0.05151190821601768
237	0x3fc1fe598dbf0579	0.1405746404762274
238	0x3fa4b052c0000000	0.04040773957967758
239	0x3f82ab9800000000	0.00911635160446167
240	0xbfaa2b9c25a2237b	-0.051113967508235235
241	0xbfb89c60e72a2a76	-0.09613614696187675
242	0xbf92cc8400000000	-0.018358290195465088
243	0x3f9e2c0a00000000	0.02946487069129944
244	0x3f6ce2837db16970	0.0035259788688055058
245	0xbf996bb34fbca1b8	-0.024824907056570672
246	0x3f9caf5f84596a0a	0.02801274533553947
247	0x3faa9e6040000000	0.051989562809467316
248	0x3fbd15882833420b	0.11360980016184656
249	0x3fb66048937f0bb0	0.0874066696260758
250	0x3faa77c89199e086	0.05169512536389313
251	0xbf925815cee1e434	-0.01791414332589998
252	0xbfaa9ca5e0000000	-0.05197637900710106
253	0xbfb29f7280000000	-0.07274547219276428
254	0xbf902290138295bb	-0.015756846609880287
255	0xbfa7a90c064767fb	-0.0462116010346136

linear2.bias f8 [64]
0	0x3faa7502caf70590	0.05167397239302851
1	0xbfb2fbf81df92220	-0.07415724498526588
2	0xbfa5025795405cb8	-0.041033493966261714
3	0x3f6e6258b9dd2833	0.003709004681614858
4	0x3fab22a0544b6ac0	0.05299855259882724
5	0xbfaacccce14d2aa7	-0.05234375238668081
6	0x3fa5d3cb261ca015	0.04263148155433797
7	0x3f915ce91f89b07d	0.0169559884547401
8	0x3fa92944eb428037	0.04914298412154532
9	0xbf9fdf2df66a3f1a	-0.031124799885730338
10	0x3f9412cbbeb40432	0.019602950586890162
11	0x3f556e89d018dadf	0.0013080926731966964
12	0x3fa1198a03e730c7	0.03339797303815
13	0xbfb32c39decbe3dc	-0.07489358605734203
14	0xbf93736b00033523	-0.018994972110523933
15	0xbfaf9ed11a952e63	-0.06175855111595465
16	0xbf9a4f763a1d0473	-0.02569374780364737
17	0xbf9a086531d8dcaf	-0.025422650496889684
18	0x3fb1f4c92e578054	0.07014138585464141
19	0x3fad1208ffdbdcea	0.05677822230603076
20	0xbfabd94dd16e0cba	-0.05439227277295218
21	0xbfb6b27f31293eab	-0.08866114568922494
22	0xbfa67df3e9e967f4	-0.043929693511657236
23	0xbf8b425188e38728	-0.013310086240781852
24	0x3fafe9e47c96f3e8	0.06233133335943092
25	0xbf73e2dfd0a98b8a	-0.004855036046680259
26	0xbfb2dc07f97e0c5f	-0.07366990891573398
27	0xbfaf547bd95b0437	-0.06119143512979302
28	0x3f6ea436163b7cf0	0.00374041141354519
29	0x3fa19c990ac0d3d9	0.034397871554041344
30	0xbfadf4fee8b20ef5	-0.058509794144837736
31	0xbfaebff66190814d	-0.06005830708477564
32	0xbf925ef2eba36315	-0.017940326339927887
33	0x3fa8cbc35a8647b5	0.04842958908115184
34	0xbfa4d9b103371326	-0.040723353998634956
35	0xbf8269c5b27e48a7	-0.008990807065661533
36	0x3f8e35299c76c78b	0.01474983700504475
37	0xbfb6611c772c34ca	-0.08741929921616812
38	0x3fb182d0e71f8fdc	0.06840234415682239
39	0xbfb1d955aed580fe	-0.06972251432808105
40	0xbfa904960fee93e0	-0.04886311478120553
41	0xbf9f9d2ac8a62bfa	-0.03087298249878854
42	0x3fa3b2a54fe0b0f8	0.03847233390874466
43	0x3faba073ce864b8d	0.05395852943470123
44	0x3fa620789ae6ffba	0.04321648493669224
45	0x3fa2b87f8c09f0d2	0.0365638597913588
46	0xbfb6aaefeffe09af	-0.08854579552829621
47	0x3f91d4f8bd1dbba0	0.017413984816296968
48	0x3f9b26f2ff760b86	0.026515766946896523
49	0x3f88db69afc4a9e4	0.012137246777077011
50	0xbfb49e39574fdbc1	-0.080539306465524
51	0x3f9e9df83d29a5f0	0.029899481518816218
52	0xbfb57445121113ae	-0.08380538645822241
53	0x3fb6f44b0b9e7622	0.08966511758486509
54	0xbf94837fe2a998da	-0.02003288098276177
55	0x3fb708fee23552b0	0.0899810125604954
56	0xbfa5beedff20bfc0	-0.04247230281214298
57	0xbfb0fe392d00b11e	-0.06637914036463541
58	0xbfa96437b5ef093f	-0.049592724760730615
59	0x3fa80992f7cb959e	0.04694804453701383
60	0x3fb10d3f854034d8	0.06660840037530436
61	0x3fa3ff22fefcd358	0.03905591356889343
62	0xbf9c7873104e810b	-0.027803228254584627
63	0xbfadab2c2a3a399e	-0.05794656768295002

linear3.weight f8 [3, 64]
0	0x3fc1ccdc5ed1c440	0.1390643561349254
1	0x3fc3a374470a3c47	0.15342572659253248
2	0xbfa9c1248d2c1be3	-0.050301687462756005
3	0xbfc295d7953f600a	-0.14519781863668896
4	0x3fc33808254c3662	0.15014745541741364
5	0xbfc0d6aa99289a7b	-0.13155109861800782
6	0x3fba7d68873a42de	0.10347607900099429
7	0x3fb4b161c111e576	0.08083163226719656
8	0x3fc3d0cf067eeeb5	0.15480983559779352
9	0xbfc0c57fb9165404	-0.13102718865835083
10	0x3fc36420b37b160b	0.15149315608702837
11	0x3fac8f31614a0b90	0.05577997505772381
12	0x3fc6334c2fa8521e	0.17344047858263506
13	0x3fc2a4c9ac14276d	0.14565392401010105
14	0x3fb4922e1ea38b09	0.08035553215044557
15	0xbfa269ad01ae4470	-0.03596249242321725
16	0x3fcc682f22ba0ab6	0.2219294471325008
17	0xbfb39f342e344eca	-0.07664800766024907
18	0xbfbab6301561ed8f	-0.1043424656108327
19	0xbfaaa277dac71cde	-0.052020783859512795
20	0x3fc150097968703a	0.13525503566859404
21	0xbfb067beaaade212	-0.06408301989529999
22	0xbf818400d08a455c	-0.00855255733884757
23	0xbfbd513915255924	-0.11452061430222621
24	0x3fc2bc840477f37a	0.1463780423945556
25	0x3fbd44e21a1104ca	0.1143323243750444
26	0xbfb9aa604625fb73	-0.10025598251921312
27	0xbfb42c9e91d36392	-0.07880583820532497
28	0xbfa98336238e71f8	-0.04982918914831552
29	0xbfc82631fdacb21d	-0.18866562735037543
30	0x3fb10713f828fd17	0.0665142517909668
31	0xbfb3ecf6a5fca749	-0.07783452560820793
32	0xbfb1e1aaddf444bd	-0.06984966200640748
33	0xbfb6eee6acf7579b	-0.08958284113700048
34	0xbfd1a76973d7e2b5	-0.2758430129320389
35	0x3fab04d5c77c318e	0.05277126369591932
36	0x3fc4f4a9c4bff313	0.16371652705120052
37	0xbfa0b960c4c6343d	-0.032664321918766316
38	0xbfa042da5f420b15	-0.0317600480348316
39	0x3f7213a97fd902b8	0.004413282496501018
40	0xbfce173823b013fa	-0.23508359663551898
41	0xbf8c6ed4b9899496	-0.01388326827254564
42	0x3fc2c969eb6673f7	0.14677165979529125
43	0xbfb22e38a40faf5d	-0.07101778035547342
44	0xbf9dbfb3972f9c0c	-0.029051595785770032
45	0xbfb58d2dc0791b30	-0.08418546628045642
46	0x3fa638612d907571	0.043398892223403325
47	0x3fbabc0356ed885a	0.10443135139715434
48	0x3fc5ebfa3fb5443c	0.1712639628481457
49	0x3f7dd97799a0670a	0.0072874709967665294
50	0x3fc0fda86fe484ee	0.13274102653034653
51	0x3fbb53346f10fb27	0.10673835479336145
52	0xbfb9310943be761d	-0.09840448287874222
53	0xbfc18bef8cd84a69	-0.1370829999655883
54	0xbfb3039adddc4fc6	-0.0742737571384274
55	0x3fc1351a2a1c3128	0.13443305069120837
56	0xbfd1b67457f62147	-0.27676113691315546
57	0xbfc795580be9a32f	-0.18424511510536365
58	0x3fb311e54921a6c7	0.07449181590495889
59	0xbfbb03c14d217de7	-0.10552604802204933
60	0xbfa5f527a12fbe51	-0.04288600771530738
61	0xbfc3dbd6c6ccbb61	-0.155146452970679
62	0x3fac1f67bc041714	0.05492710275761517
63	0x3fac3d3263ebb8a2	0.0551543948148361
64	0xbfa4f99dc93ac8a4	-0.04096692162910756
65	0x3fc2815838219862	0.14457228413374695
66	0xbf37875c8f5f2072	-0.0003590203262970943
67	0x3fc29e6886085dae	0.14545923752369333
68	0xbfb18ca3ba7364d4	-0.06855223943729821
69	0x3fb5f54f3b0cae29	0.08577437583579041
70	0xbfb6eee70787fb82	-0.08958286222330794
71	0xbfc2ac467518a003	-0.14588242261493187
72	0x3fb14498dfc5556c	0.06745295966296333
73	0x3fa5ebf2c50f9d2f	0.0428157678177804
74	0xbfc0c3470cc35730	-0.130959397537191
75	0x3fa42eaabf39ffca	0.03941854080494485
76	0x3f99af02efd1e381	0.025081678283160883
77	0xbfc080b2d6cd3ee9	-0.12892756927839535
78	0x3fb0180861d75934	0.06286671055508891
79	0xbfaaa0fb48f3fc93	-0.05200944200077475
80	0xbf9942860c59fc24	-0.02466782999408336
81	0x3fb8b7db704a1fe7	0.09655543796009135
82	0xbfb01ee1e8e9011b	-0.06297122894557498
83	0xbfb9683bc5740110	-0.09924672670968371
84	0xbfb7ac109e5d1739	-0.09246925226497361
85	0xbfb8475b5c5c061a	-0.09483881955022647
86	0xbfac2e25bc613cea	-0.055039576764665046
87	0xbfa4d95deb66b9f0	-0.040720877633578456
88	0xbfbf4e28d954d719	-0.12228637033407742
89	0xbfbf91e3fc324f03	-0.12331986338750416
90	0x3fc33d5fbcde6203	0.1503104850969664
91	0xbfab27ed66a36a11	-0.05303899648579969
92	0xbf827233d15cfe78	-0.00900688631702383
93	0x3fb680a6a389d039	0.08790055744776816
94	0xbfa4a9a5e6c3c06c	-0.04035681192351678
95	0xbfc3aaf02faabf59	-0.1536541207074105
96	0xbfa34f13dc65e388	-0.03771268906979858
97	0xbf8db9ac08bf90d2	-0.014514297501542126
98	0x3fb724699cc302fe	0.09039936139289392
99	0x3fbbdeca1a9b5269	0.10886824750498082
100	0x3fc388fb1b385190	0.15261782483197495
101	0xbfb8fbbf3058a14d	-0.09759135179831908
102	0xbf8c17981c9f048c	-0.013716877339790899
103	0x3fc3f06240675b25	0.1557734312507019
104	0x3fb927a1597d5b5e	0.09826095995718506
105	0x3fafa970be360441	0.06183960267936373
106	0x3fc423ca7e632fe3	0.15734225436460667
107	0x3fa4dbe2672d9300	0.04074008473870627
108	0xbfc0639c2c70b5f7	-0.12803985757766131
109	0xbfb1130a77648a65	-0.066696790836923
110	0xbfb32dd4db846901	-0.07491808280284219
111	0x3fb3bcc69d901e4b	0.07709924074890144
112	0xbf62bccb67d3eb49	-0.0022872898831542182
113	0x3fb58e784a3965da	0.08420516788591872
114	0x3f9b1049ffa9c6a6	0.02642932532257327
115	0x3f947b6921b1623f	0.02000202434678244
116	0x3fa7facf1639e52f	0.046835395301011544
117	0x3fb77344515d33b9	0.09160258280208113
118	0xbfbeb8c845476478	-0.12000705424670055
119	0x3fc182e34fc3f09e	0.13680688280863235
120	0x3faca43910469c7a	0.05594042133025652
121	0x3fab18aa2edaf524	0.05292255231823109
122	0x3f9d5f94f9b6a2ad	0.028684928647325126
123	0x3fb72689416935cc	0.09043176505038913
124	0x3fc073f1e3a3ecf2	0.12853835692644783
125	0x3f71d7dcfc5e51ef	0.004356253839337117
126	0x3fb5e91d757b7988	0.08558830373974591
127	0xbfa57f16691bc03b	-0.04198522599278972
128	0xbfad9ea4b20c4893	-0.05785097764432225
129	0xbfca50887f2bd484	-0.20558267793208895
130	0x3fa7da0c464ada13	0.04658544881879236
131	0x3fc44f5d4f3702b7	0.15867201202310863
132	0x3fb00cf8efdaf7db	0.06269794326632853
133	0x3f917b2cdd1219b0	0.017071438782773007
134	0xbfb5d4b6bfb2473f	-0.08527700595939523
135	0x3fc3b2f7948fad28	0.1538991427799854
136	0xbfb1f930acc332c7	-0.07020858972391429
137	0xbfb4f9b8f05b26d1	-0.08193546169345757
138	0xbfb66e1d0d6f7d8a	-0.08761769845977177
139	0xbfb7f9c910420588	-0.09365517279549895
140	0xbfbc86c81b451cfe	-0.11143160501261559
141	0xbfbf4a87aa8dd123	-0.12223098672786085
142	0xbfadae7780f5c8da	-0.057971701137732715
143	0x3fc864d752a89051	0.19057742630059463
144	0x3f70aa97da269640	0.004068940327135062
145	0xbfb96a6bc215d0f0	-0.09928010452660252
146	0x3fad7068fc95dd76	0.05749824603384017
147	0x3fb8457272d78f9f	0.09480967811356188
148	0xbfb6dca75473c963	-0.08930440723250892
149	0x3f889904384f3f76	0.012010605781966648
150	0xbfb0e5eac7be18bd	-0.06600825668837991
151	0x3fc54379056c5b2c	0.16612160458381575
152	0x3f8e47e883277db4	0.014785591604719574
153	0xbfb1c579dddeb5ae	-0.06941949526545585
154	0x3fc0c78e46349bc7	0.13108995845797564
155	0xbfa63440f5b5ce8d	-0.04336741446868784
156	0xbfa4973f681a4dd5	-0.04021642823968433
157	0x3fbac85d97cf94b0	0.10461983639068495
158	0x3fc3fcec5d9c71a5	0.15615610667090354
159	0x3fa6895f0aa44b1f	0.04401680951027331
160	0xbfae3c2d67b19270	-0.059052866847911
161	0xbfb155dd91f0b656	-0.06771645367617771
162	0x3fbcaa32f29c880f	0.11197203086024408
163	0x3fb5a79f01a694e8	0.08458894529629257
164	0xbfc6579adff84483	-0.17454849182152907
165	0x3f9154c74aeeed80	0.01692496676308286
166	0x3fc2b4ff399a72ef	0.14614858925496985
167	0x3fc531aa5399dc75	0.1655781658371073
168	0x3fba73b3ede2cca9	0.10332798536073774
169	0x3fa70dbaf02c60c1	0.04502662832072835
170	0xbfbab061539347be	-0.10425384798443724
171	0x3f90d83fc1e39706	0.01644992466835673
172	0x3f8495b7f56a968b	0.01005119054509442
173	0x3fc13acbdbeed31b	0.1346068214312702
174	0x3fc2f608225e1742	0.14813329389670044
175	0xbfd0202e4d1f69b0	-0.25196416408075617
176	0xbfb88894e42be949	-0.09583406992525058
177	0x3fa68a867859272d	0.044025613966893175
178	0xbf9e56617ecdec5c	-0.02962639175846636
179	0xbfa2d4c36efaa77f	-0.03677950601316037
180	0x3fa1454e714306ad	0.03373189098921379
181	0x3fbc8300c8536121	0.11137394800914936
182	0x3fbef1616323b4a0	0.12087067289731346
183	0xbfcf15d299e021db	-0.2428534747453018
184	0x3fb29c1fd7b53615	0.0726947690611371
185	0x3f97f83c01972f8b	0.023407876584129943
186	0x3fb227e17870b0b1	0.07092103186068034
187	0x3f735154bb847e19	0.004716235147753455
188	0xbfc59d22db57fd7e	-0.1688579150213449
189	0xbf9a202908b1bb1f	-0.025513306766181573
190	0xbfc93e6f49bec26d	-0.19721785641515358
191	0xbfc79bbcbeb3fe13	-0.18444022475885954

linear3.bias f8 [3]
0	0x3fc22a435d62ac6c	0.14191476878963571
1	0x3fb83fdde90eab8e	0.09472453060031524
2	0xbfc6ed3811ea0257	-0.17911435007774187
