runs/testrun-statedict-hyptuned-15r-40bs-50ep/0/LocalModel-0-Round8.pt (torch, 167767 bytes, 6 tensors)

linear.weight f8 [128, 95]
000000 bb 36 bf 41 d1 c7 b5 3f 42 2d 86 e2 ec 73 a6 bf
       0.08508022170209532 -0.04385319009005652
000010 9d 3b 24 32 ba be b9 bf 24 52 d5 96 de d7 85 3f
       -0.100566518060289 0.010665644624773547
000020 8d cd e6 70 96 20 90 3f b9 83 b0 36 00 64 75 bf
       0.01574931205841561 -0.005222321352477737
000030 fe 14 29 e6 b0 c1 ae 3f 82 18 2a 25 57 e4 93 3f
       0.060071495147477436 0.01942573704084128
000040 7d e7 c7 88 72 30 b2 3f 68 bc 34 8c 6f 35 71 bf
       0.07105174865128379 -0.004201350911258485
000050 40 ba c7 48 ac c6 78 bf 3b bb f2 28 0c bd ac 3f
       -0.0060488443236708656 0.05612981796126922
000060 ec 55 00 69 c4 2c b5 bf fc 00 85 34 ea 1b b1 3f
       -0.08271434367664882 0.0668321970197247
000070 64 6c 54 c9 c3 4a b1 bf 31 19 60 5a 97 cb b3 3f
       -0.06754707017209821 0.0773253055232075
000080 47 e5 8b c8 a5 2c 81 3f 74 d8 c8 08 9a 61 9f 3f
       0.008385939772312624 0.03064575842491775
000090 69 43 7e 72 fe 2c 9f bf c4 95 08 0f 28 35 ad bf
       -0.030445075739013037 -0.0570461767531856
0000a0 13 f8 7f f5 28 09 b3 bf 22 25 d1 09 e8 45 aa bf
       -0.07435852044724837 -0.05131459350429625
0000b0 69 b1 74 b6 79 19 a5 3f e3 eb c0 17 6e de aa 3f
       0.04120998718494457 0.05247825660668306
0000c0 79 a6 75 7f 8e 63 b9 3f 44 4a 2f 34 fd 56 ad 3f
       0.09917536365323966 0.05730429899235337
0000d0 b3 1f d0 6e dc e6 b9 3f ec 44 a4 75 5e 23 7b bf
       0.1011789103068839 -0.00662552736527398
0000e0 13 1f 35 87 91 c5 9f bf bd 95 cb 28 a1 8a 8f 3f
       -0.03102710139981386 0.015401133592102373
0000f0 9e 38 75 1d 0a f8 85 3f 80 25 a6 05 51 e8 a6 bf
       0.010727004074081056 -0.044741184176994686
000100 a8 ab cb a1 9b d3 ab 3f e7 3c d7 66 81 c9 a6 bf
       0.05434881544154929 -0.044506114772610954
000110 78 a4 7a 9a b7 f9 a5 3f 93 98 0e 17 22 1a b6 bf
       0.04292081604700909 -0.08633626044192715
000120 49 03 6d f8 4b e4 a8 3f 26 68 0a b9 42 22 b4 3f
       0.04861676604787719 0.07864777581781421
000130 4f 4d 93 66 fd 4c 27 bf 67 47 24 41 06 79 a8 bf
       -0.00017777055044252774 -0.047798343135709236
000140 4c 85 b2 1a 78 8c ac bf 3c fa cc 67 9a cd 9a bf
       -0.0557591946210417 -0.026174938760272534
000150 33 e3 2c b8 5f f2 b3 bf 64 e3 25 33 ae 23 97 3f
       -0.07791708227604204 0.0225970476835501
000160 be ff b4 12 1b e4 88 3f cb 0f a3 9f 65 f5 b1 3f
       0.012153827198403518 0.0701507105578109
000170 ed 8d ee 6f d8 f5 a3 bf 0b 0a ca 86 f7 ce 95 bf
       -0.038985026992374695 -0.021297328569298595
000180 81 2f 90 57 e8 81 b3 3f 89 2e a5 68 e0 57 b3 bf
       0.0762009824540524 -0.07555964045348608
000190 11 06 14 ff 15 a6 b1 bf 33 50 67 20 f7 76 b3 3f
       -0.06894052007194086 0.076034017001178
0001a0 a4 0f 7c 37 36 fa b8 bf ba 34 30 b7 9f ad 80 bf
       -0.09756792883496118 -0.00814366128727283
0001b0 7a 96 f7 ad 20 24 92 3f 92 2c fb d9 90 7d 87 3f
       0.01771594106494099 0.011469966556793918
0001c0 dc 17 27 f7 c6 e3 a6 3f c7 63 29 b9 4a 4b b8 bf
       0.044706552190788534 -0.09489886303471372
0001d0 c3 b5 44 44 9e 8c b2 bf e7 64 a3 88 28 d0 9c bf
       -0.07245816389759967 -0.028137811031091167
0001e0 1f a2 e3 59 93 49 b8 bf c8 23 18 c3 4e 1f b3 3f
       -0.09487267441330303 0.07469646704716049
0001f0 f1 82 5b ef 75 ef 95 3f af b8 a1 46 43 da ad bf
       0.021421282514782317 -0.05830583798602739
000200 26 74 c8 f4 9a 9c a9 bf a0 15 04 02 25 8e ab 3f
       -0.05002292860101702 0.05381885194405389
000210 b0 c5 92 f6 01 a0 b2 3f 72 43 07 a5 a3 19 ac 3f
       0.07275402326447167 0.054883111853661584
000220 bd d5 d4 5a 05 a6 b4 bf 22 d2 dc 0e dc 11 91 bf
       -0.08065827815592903 -0.01666969147409437
000230 d4 42 c2 61 d0 27 ae bf 19 e3 77 f1 d3 2b 90 bf
       -0.058897506650401305 -0.015792190182739228
000240 9c 00 dc 84 09 75 b6 3f 70 b3 1c d0 2a 82 b1 bf
       0.08772334569585144 -0.06839244442808279
000250 86 29 f5 85 85 65 b4 3f 17 e9 9c e8 15 35 b8 3f
       0.07967409630251696 0.09456002167727139
000260 8b 02 15 af a3 00 a8 3f 9f c6 ba d6 ce 9e 96 3f
       0.046879878160784726 0.022090179306082033
000270 9c 1d d5 05 4f 94 a9 3f e1 2b c9 45 c8 89 b1 3f
       0.04995963045308402 0.06850864127879631
000280 c6 6f e9 bc f0 07 77 bf 73 54 f8 3a f2 1c b2 3f
       -0.005622806913915873 0.07075418414781769
000290 47 67 06 94 ab 83 b6 bf a3 1a 3c c5 9b d2 ac 3f
       -0.08794662822620324 0.05629431517268315
0002a0 c6 db 5c bf 29 7b b6 3f 7a e3 06 ec 7a 32 b6 3f
       0.08781681940023053 0.08670776617408463
0002b0 40 8e dc 91 91 5c af bf 41 d5 9f 68 31 e3 b1 bf
       -0.061253117614139985 -0.06987294010453572
0002c0 a6 d9 a5 4e 9b 95 89 3f 1a 24 35 fd 98 34 af bf
       0.012492383325235345 -0.06094816294587009
0002d0 ca b4 1e 41 74 c0 9e 3f ee 66 1e a0 c1 2f b2 bf
       0.03003102920017823 -0.07104120406293266
0002e0 b4 ff dc d0 2a 4f 9d 3f 6e e0 b3 ff f2 26 98 3f
       0.028622311590197305 0.023586079460955416
0002f0 bc 39 05 32 7c 1a ba 3f 43 ee 27 47 aa 0d 55 bf
       0.10196663113786192 -0.0012849963064799498
000300 7f 7d 97 e2 f5 20 ba bf a3 24 ac d7 b2 b5 a1 3f
       -0.10206543714547499 0.03458937533111708
000310 94 ee 25 b9 26 67 a6 3f aa 0a 04 c6 9a 85 b4 3f
       0.04375573167905347 0.08016364416475122
000320 d4 5e a0 e5 52 1e 9e 3f ff d8 09 73 d8 67 a3 bf
       0.029412551179205007 -0.03790165333059469
000330 41 9a f4 76 60 09 b5 3f 2e 40 7c e0 e9 af b4 bf
       0.08217432884394162 -0.0808092282352397
000340 b2 88 0c 08 da 33 ae 3f 6e 34 09 9d 88 60 b3 bf
       0.05898934696439663 -0.07569173654447223
000350 44 92 d6 2b 87 00 ba 3f f2 3c 69 37 38 8c 82 3f
       0.10157055683391386 0.009056510153782036
000360 b3 fd 47 7c 4b b4 57 3f 89 11 a8 4b ae a8 b4 3f
       0.0014467942393138033 0.0806988653858466
000370 6a 08 99 c6 3b bd 8c bf eb 51 e9 2b a2 05 93 3f
       -0.014032809255813034 0.018576177530421772
000380 07 05 74 01 15 51 89 bf 7e b7 3f 80 6f 94 b6 3f
       -0.012361682993744084 0.08820244675709252
000390 a0 ee f2 d3 bb ff b5 3f ac 1b ab a3 a5 89 91 bf
       0.0859334366277218 -0.017126644243741815
0003a0 87 9e c7 a1 97 87 98 bf 6c 39 e6 2c 8b b6 af 3f
       -0.023954743623021215 0.06193957255446744
0003b0 d3 07 9a 86 95 35 b1 3f b0 08 d6 6d 9e 18 b7 3f
       0.06722387825178026 0.0902194040445774
0003c0 c6 e5 7e 61 88 1f 90 bf ee 7d d2 b7 6b aa 82 bf
       -0.01574528784815301 -0.00911411432963313
0003d0 d4 a0 67 9a 22 f4 b0 3f 00 2d 16 fc 96 0a b9 bf
       0.06622520703934082 -0.09781783728083226
0003e0 8f 64 66 da 8c 04 b4 3f a0 a7 4d 02 2a 67 a0 3f
       0.07819443065672459 0.032037079602402985
0003f0 12 a5 d0 d7 73 f0 9e bf 2c 18 19 f5 72 44 a1 bf
       -0.030214128539374725 -0.033725349826042667
000400 e7 da 55 ea 0f 0b a5 bf ba ae 48 dd f4 83 98 3f
       -0.041100022654907246 0.02394087410554733
000410 ac c9 d4 8a c8 97 a4 3f 74 08 24 2f 0d df b8 3f
       0.04022051520077538 0.09715349579713167
000420 84 c9 9e 45 e4 a2 b8 bf ad c6 45 0c 08 76 a8 bf
       -0.09623552989686429 -0.04777550840198095
000430 7c 8a 7e 01 06 06 b4 bf 41 50 05 f4 5f 02 b5 bf
       -0.07821691071016262 -0.0820674868348883
000440 8d 19 d9 32 57 da b6 bf 99 8c 49 97 e4 de b7 bf
       -0.08926911345870377 -0.0932448262552036
000450 14 4f af f0 e1 e9 b1 3f 29 1e 42 41 07 a8 8a 3f
       0.06997501493543395 0.013015801123642383
000460 e9 d2 9f 54 b3 84 b9 bf 0c da 3b c8 65 ed 9d 3f
       -0.09968109909079782 0.029225912424374598
000470 f1 87 8a 6c 9f 4d b1 bf 2d 8b 7b 26 1c 53 b9 3f
       -0.06759067916803453 0.09892440738216797
000480 1b 55 c3 65 03 7c b2 bf 1d 21 93 41 0b fc a7 3f
       -0.07220479235123316 0.046844817881323865
000490 8d e9 2e 93 d7 91 b5 bf cd 9d aa 8f 6a b3 b4 bf
       -0.08425662368146032 -0.08086267478449045
0004a0 56 7b 58 92 4f 96 b7 3f ce 02 73 05 64 1a 6f bf
       0.09213731120005994 -0.0037967637577768004
0004b0 75 08 e7 8c 05 47 b2 bf 50 7c f8 70 6a f0 99 bf
       -0.07139620485307481 -0.025331175942593653
0004c0 22 6f 25 6b d7 6a b0 bf c8 ee b2 05 57 fa b5 bf
       -0.06413027158617671 -0.08585113419661206
0004d0 e5 f4 2d 2a 0f dd 95 bf c6 58 e0 a3 97 47 b7 bf
       -0.021351086568292117 -0.0909361624802357
0004e0 e0 60 f2 1c fe 5f b3 bf 4c a4 e9 2a 36 80 a0 bf
       -0.07568348128041036 -0.032228176821100435
0004f0 a5 c5 56 16 34 d2 85 3f f4 2b b8 0c 7a 08 aa bf
       0.010654837543230775 -0.05084592252031675
000500 6c 8c 06 de 54 92 b2 3f 93 62 56 8d a0 c2 a3 3f
       0.07254534168764487 0.038594262364488284
000510 c9 2a 59 da 3a b5 9c 3f 9d 16 4a c8 4e 34 7d bf
       0.028035087181971705 -0.007129962676690885
000520 df 1e 0c 3f 1d 4e 79 3f fa 59 77 fb 40 22 a2 bf
       0.006178011172557978 -0.035417586037215856
000530 10 b7 b8 da e9 82 b0 3f 62 85 8d ac 4c 30 b6 3f
       0.06449758138543538 0.08667449200358626
000540 14 eb 6e fe 64 eb b0 3f 0a 68 5e 0c fa fe 98 bf
       0.06609183513402811 -0.024410159115724674
000550 20 f2 66 a7 9f e8 b4 bf ff 30 c2 fb 62 80 b1 3f
       -0.08167455517736544 0.06836527487229559
000560 ef a1 4e bd 15 96 a1 3f a8 70 f7 98 67 9b bf bf
       0.03434818206671141 -0.12346503719840263
000570 02 4c 03 16 4a 6d ba bf 3c ba cf 92 3a 9e b1 bf
       -0.10323012387679856 -0.06882062992347299
000580 d7 33 61 a5 d6 35 a0 3f 4c 67 a4 15 cd 3c a2 3f
       0.0316607548598779 0.035620125667448294
000590 a5 c6 87 c7 82 0b b9 3f 23 d6 ac 58 c8 c4 bb 3f
       0.0978318917402939 0.10847141423149557
0005a0 00 54 a1 f3 ce 82 b0 3f 72 e7 88 fc e3 72 bd 3f
       0.06449597785952221 0.11503434100532475
0005b0 21 58 27 39 73 0b a6 3f 0d f4 d0 1d d8 ab 3d 3f
       0.043056107260483374 0.0004527475956058187
0005c0 8b cf 12 b3 f6 5d 8c 3f 5a 8a b6 4d 40 67 a2 bf
       0.013851096477402588 -0.03594399403234112
0005d0 b7 0b 32 3e 4b 73 97 3f a7 60 25 f5 e0 56 c2 bf
       0.02290074889289048 -0.14327632875461413
0005e0 9e 1c 8b 6b 33 5c ad bf e4 cf fb 3d a3 68 95 3f
       -0.057344061735016924 0.02090697351282235
0005f0 cf 1f c3 99 ab 0b b2 3f bf e0 76 f9 1a 67 b7 3f
       0.07049057487449704 0.09141701307715076
000600 1b 8b 74 46 72 ba 74 bf 61 d4 ec e4 dd 06 92 3f
       -0.005060621631204377 0.017604319665413096
000610 ff 62 b0 c6 9c 5e b8 bf 79 d0 99 57 45 7b a8 3f
       -0.09519367075735018 0.047815482085668166
000620 07 33 fe ca e3 3a a4 bf a9 09 0a 13 ef 43 af bf
       -0.039511793641485986 -0.06106516940510016
000630 56 93 d4 0c d8 cd 92 bf e7 c4 f4 b6 76 1b b1 bf
       -0.018363357337097007 -0.06682531325056439
000640 a2 1a 6b 84 94 7e 9a 3f d5 0f 7f 44 24 1c b6 bf
       0.025873489935089318 -0.08636690780900776
000650 fc 96 a0 63 0f c5 a1 3f fa c6 cc e4 64 d4 ad 3f
       0.034706574355636705 0.05826106350867906
000660 49 50 2b 08 0e 67 78 bf f6 f3 c8 27 d9 6e a6 bf
       -0.005957655727531438 -0.04381445513397601
000670 05 9d 4b 91 cc 3c b3 3f 34 95 0e 70 b2 5b 9a bf
       0.07514647052049746 -0.025740421380438153
000680 2f 75 96 f4 5b 0f a3 3f fe bd a8 f1 94 62 b4 bf
       0.03722655640306482 -0.07962923908120698
000690 f2 64 98 8d 49 d4 ad 3f a7 6c 7c a4 d9 f7 b9 3f
       0.05826024869402059 0.10143814340374267
0006a0 06 3d 91 b6 09 d1 87 3f 1b 8e 34 70 97 b9 ae 3f
       0.01162917698289202 0.06000970120137713
0006b0 11 d8 b3 63 9d c5 b4 bf 77 e6 15 6a 0c 3c ac bf
       -0.08114036258834313 -0.05514563364972685
0006c0 e3 4d 4d db 40 4f a7 3f bf fd c2 03 49 03 94 3f
       0.04552653004671094 0.019543782095522873
0006d0 12 17 94 67 ec 1e b4 3f f6 e0 12 ab 82 4c a0 bf
       0.07859685448428547 -0.031833728201890496
0006e0 68 0b 1a 90 fc ca b0 bf 29 c5 ef d0 9b 2d a0 bf
       -0.06559732931240847 -0.031597966437298126
0006f0 09 59 43 73 1e e0 ae bf 2b 93 49 ef 08 e8 b1 3f
       -0.06030364186305987 0.069946821613098
000700 9f fd e2 60 7a 48 9c bf 03 fd e3 37 db c2 65 bf
       -0.02762023178433781 -0.0026563912971365746
000710 57 fd 9a 6b 5d b4 b3 3f 5c 1e 2b d0 f8 e1 9f 3f
       0.07697090031705521 0.031135451989739202
000720 b9 54 89 8d 03 56 89 3f 9f 3d d8 8e 67 3a 9a 3f
       0.012371089703416481 0.02561342057566451
000730 fe ed a1 bc ab 13 ac bf 08 a8 9c 70 57 cf 9a 3f
       -0.05483757665293963 0.026181570289885797
000740 78 a4 da e8 f8 1e 86 bf 14 17 a9 4a d5 99 b3 bf
       -0.010801262479917847 -0.07656605789915388
000750 b4 84 18 85 6d 24 80 3f d9 c9 4d 98 91 9e b7 bf
       0.007881980537663182 -0.09226331680637347
000760 60 aa 58 7b d3 9d af bf b5 b2 4f 76 1f 80 b9 3f
       -0.06175099259083505 0.09961125029048896
000770 4e 10 c2 09 26 e1 b1 bf 0f 1a 52 64 03 dc ac 3f
       -0.06984174478753966 0.05636606788270992
000780 32 5f 77 9a a1 a8 b1 bf 86 55 de 99 72 be a5 bf
       -0.06897935887479603 -0.04246862533833977
000790 41 c5 1e 71 68 95 b8 bf 1d eb 4b a6 c6 8b b9 bf
       -0.0960297847912175 -0.09978906211828727
0007a0 73 a3 ce 0e 75 83 aa bf ef f5 be 93 97 98 9c 3f
       -0.051784189279095914 0.027925842659660857
0007b0 e1 86 ef 53 6f ba b3 3f e0 6f 31 a7 c4 07 85 bf
       0.07706352042398691 -0.010268722870186708
0007c0 a0 4c f1 97 31 b9 b3 3f ee 7a 1b ba e7 4b b9 bf
       0.07704458198104414 -0.09881447118412343
0007d0 98 70 6a 59 ff 95 ae 3f a7 5a 76 f9 82 6a a2 bf
       0.05973813978673198 -0.035968869163459254
0007e0 e1 7a e4 98 ff 51 b6 bf f0 6a 34 77 ca 43 b9 bf
       -0.0871886966965394 -0.09869065675995237
0007f0 66 1a dc 3e 5b 3e ac bf 59 f8 cc e5 57 22 a9 3f
       -0.055163241790116044 0.04909014396842854

linear.bias f8 [128]
000000 85 30 8d be fb dc b3 bf c4 5a 3f 04 e3 4e a3 bf
       -0.07759068872582205 -0.03771123339509111
000010 e6 4c 26 e5 31 45 80 bf 94 bb fe 2c d8 8f a5 3f
       -0.007944478803244736 0.042113070957717685
000020 4f 9f 6b 2b c3 38 a7 bf 19 05 69 8f e3 12 aa 3f
       -0.045354937601415395 0.050925360923893055
000030 94 53 28 3b f7 a9 a1 bf ef 0f ee be bb 37 ab bf
       -0.03449986073625336 -0.05315958696067457
000040 00 00 00 e0 88 e5 ae bf 55 1d 47 76 dc 93 a5 3f
       -0.060344960540533066 0.042143716276366185
000050 03 1e 34 fa f6 c5 b6 3f 00 00 00 40 9a cd a3 bf
       0.08895820244298851 -0.03867799788713455
000060 6f 18 8e b4 04 3e 8f 3f 00 00 00 80 68 c5 b2 3f
       0.015255009422400627 0.07332471013069153
000070 99 02 f4 35 ac 02 b5 3f 6c 90 2c 1d 23 40 b5 3f
       0.08207203213897642 0.08300990545518666
000080 9f ce cc 7d a7 bb b4 3f 5f b8 61 93 39 6b 81 3f
       0.08098837682046643 0.00850529652617754
000090 00 00 00 c0 4e a7 a1 bf df 64 e9 65 69 fb b4 3f
       -0.03447958081960678 0.08196123827055456
0000a0 06 01 20 19 43 57 ab 3f c2 e6 b9 14 5a c7 95 bf
       0.053400132004755504 -0.021268279566789124
0000b0 2b c9 74 bd 07 c7 98 3f ce 7f b5 67 ce 6f ad 3f
       0.024196740091789664 0.05749363914469506
0000c0 c7 6c 64 2b 1c 69 b1 bf 00 00 00 60 47 2c ba bf
       -0.06801010188466981 -0.10223814100027084
0000d0 0e aa 2a 76 d1 75 93 3f 00 00 00 00 25 f3 ab 3f
       0.01900412830097236 0.054589420557022095
0000e0 0e 7c 5e 5b ea ef a7 3f 00 00 00 60 5f f3 a8 bf
       0.04675228467316837 -0.048731785267591476
0000f0 27 3c 17 75 11 db 92 bf 00 00 00 c0 52 ab a1 bf
       -0.018413803836491518 -0.03451021760702133
000100 4f fb 69 8a bd e9 9d bf ab 36 ef c8 c9 13 a8 bf
       -0.02921196133911091 -0.04702597215473977
000110 00 00 00 c0 af 0b b0 bf 00 00 00 80 44 ae 96 bf
       -0.06267832219600677 -0.02214915305376053
000120 36 23 f5 37 c7 a4 80 bf df 2d 15 a5 a6 f5 b3 bf
       -0.008126789469899625 -0.07796708612766377
000130 10 88 d4 c2 e5 4d b6 3f a3 41 0f 2d 30 8d b4 3f
       0.0871261215839072 0.08027936077201629
000140 23 73 af e8 ed e2 a5 3f 7a 48 73 15 bf 84 b0 3f
       0.04274695840260836 0.064525549637695
000150 7f 1b ec 21 dc 65 aa 3f 8a 38 97 2e 50 e3 b7 bf
       0.05155837930765638 -0.0933122743365137
000160 48 82 ad 5c ad 85 a2 3f c7 82 f2 c6 55 99 b0 3f
       0.03617612606354165 0.06483970744239818
000170 db fd a0 dd 7c 5f 91 bf 6e 04 90 f1 7d da 9d bf
       -0.01696581938472073 -0.029153793209847505
000180 00 00 00 00 d4 ca 91 bf 86 14 d4 de 43 e8 6a bf
       -0.017375290393829346 -0.0032845807642183948
000190 25 54 e0 fe ea bc a0 3f a3 59 0c b5 1b 18 b2 bf
       0.03269132958681834 -0.07068036241648783
0001a0 7c f4 be 9a d1 29 b0 bf dc d2 cc 76 09 92 a3 3f
       -0.06313810375191226 0.038223548652614986
0001b0 85 2c 41 f7 34 c1 b7 bf 00 00 00 80 3d 12 a3 3f
       -0.09279185329903512 0.03724853694438934
0001c0 60 63 a1 23 0d 60 b4 bf 0d 75 6c d8 b8 3e b8 bf
       -0.0795906269062363 -0.09470706256657398
0001d0 6b 85 7a 20 58 a2 a9 bf 83 25 d6 ea 06 71 90 bf
       -0.05006671329943909 -0.016056163867266725
0001e0 94 77 76 3a 93 c3 9b bf 00 00 00 00 16 26 b9 3f
       -0.027113247340473004 0.09823739528656006
0001f0 3e 7a 6d 94 06 9f ae 3f 6a 1d 69 21 f3 05 97 3f
       0.059807019823655314 0.0224836339132514
000200 00 00 00 00 22 7c 9c 3f 00 00 00 00 ea 61 71 3f
       0.02781727910041809 0.004243768751621246
000210 04 82 af ca a1 43 a9 3f 61 ad 75 f6 b2 2d 96 3f
       0.04934411620320492 0.021658703129486926
000220 47 f1 b1 e8 dd f8 9d bf 00 00 00 00 b3 7e a1 3f
       -0.02926966412313561 0.0341697633266449
000230 8f 6e 35 15 5e cd 89 bf ed 93 65 7e ca e1 ad 3f
       -0.012598738691557613 0.058363273553176366
000240 16 34 06 7f f9 cb b1 3f 00 00 00 00 f6 2a 94 3f
       0.06951865531137033 0.019695132970809937
000250 e3 8f 64 2e e7 c0 6b 3f 50 fe 28 08 dd f3 b1 3f
       0.003387881780456668 0.0701273102686113
000260 82 bf cf 4d 61 76 b0 bf 00 00 00 00 df bc 8f bf
       -0.06430633687682355 -0.015496961772441864
000270 00 00 00 c0 53 9a b9 bf b1 ad 01 19 c0 92 a5 3f
       -0.10001109540462494 0.04213524155860727
000280 7a 3c df 33 61 61 b9 3f a4 36 bf 47 c5 6a a9 bf
       0.09914214626700071 -0.04964272023026453
000290 00 00 00 00 45 9f ad 3f e4 be 59 de ff 9b a5 3f
       0.0578557550907135 0.04220580662956566
0002a0 22 db 05 2b 6b 9c aa bf 00 00 00 40 97 0a b9 3f
       -0.05197462940389232 0.09781785309314728
0002b0 64 58 d6 8e c3 89 97 3f 00 00 00 00 18 fa 60 bf
       0.022986465066047748 -0.002072378993034363
0002c0 a2 1b c8 bf 00 d9 75 3f 14 3d 33 4c f0 66 b0 3f
       0.005333903242450784 0.06407071934085123
0002d0 96 f3 99 fa 57 b4 87 bf 00 00 00 40 a4 be b2 bf
       -0.011574446997878057 -0.07322145998477936
0002e0 38 c8 c2 e6 ac e5 93 bf 00 00 00 80 4a 2e 90 bf
       -0.0194308296056038 -0.01580158621072769
0002f0 0f a9 c3 e7 54 1b a4 3f 00 00 00 80 b0 4d b3 3f
       0.0392710240283397 0.07540419697761536
000300 c5 22 f1 53 79 9b 75 3f 81 8b c5 3d 5c b4 9e bf
       0.005275224625685031 -0.029984895010226168
000310 00 00 00 00 4c f1 67 bf 58 39 8e 94 39 c5 a8 bf
       -0.0029226765036582947 -0.048379706749175966
000320 9a 4d ca 1b 85 8e b3 bf 07 06 90 ae b9 27 b2 3f
       -0.07639343193505113 0.0709186602762416
000330 35 86 cd 2e d7 9e 90 bf 00 00 00 00 57 cb 84 3f
       -0.016230928641908633 0.01015346497297287
000340 0f ef 1a 9e 22 81 a0 bf 12 76 53 f4 f8 3d b9 bf
       -0.032235223579361365 -0.09860187497130138
000350 b7 21 7f ac 57 48 b5 3f 88 d0 5d ef 6c eb b1 3f
       0.08313510857909177 0.06999855846317093
000360 b8 5a 1f 38 a1 7d 7e 3f 50 81 a4 54 e1 69 b3 bf
       0.007444028627978376 -0.07583435360402757
000370 00 00 00 80 90 43 ba bf 00 00 00 00 22 bd a2 bf
       -0.10259345173835754 -0.03659921884536743
000380 0e 7a 4c 3d bf ca ad bf 30 45 a0 31 60 71 a7 bf
       -0.05818746207500079 -0.045786863382213716
000390 00 00 00 80 34 dd a6 3f 00 00 00 40 98 5d b5 3f
       0.044656410813331604 0.08345939218997955
0003a0 31 27 03 8a cc be af bf 20 14 b1 93 b7 6b b2 3f
       -0.06200255570145286 0.07195613246683807
0003b0 f1 f9 8d 25 27 6f b7 bf 00 00 00 00 78 db ae 3f
       -0.09153980891094428 0.06026816368103027
0003c0 b1 eb 3a 8d d2 f0 a5 3f b0 54 79 b0 93 cb b0 3f
       0.04285295461655581 0.0656063371510125
0003d0 7f 6f da a9 28 19 b0 3f 10 c9 d4 2c 23 ff a3 3f
       0.06288389345939825 0.03905591890579008
0003e0 00 00 00 c0 38 58 b7 3f 00 00 00 00 56 53 7e 3f
       0.091189906001091 0.0074036940932273865
0003f0 19 7f f3 30 1a 18 9d 3f 5c 31 f3 36 13 f0 ad 3f
       0.028412255513898452 0.05847225232864403

linear2.weight f8 [64, 128]
000000 f0 ba 22 37 a1 54 a3 bf 2f 80 c3 95 80 75 aa bf
       -0.0377550487331656 -0.05167772129220826
000010 86 37 35 67 f8 2f 97 3f d4 14 0c a3 fd b8 8c bf
       0.022643929766949643 -0.014024716890626378
000020 68 41 f7 61 04 e7 8e bf ff bb dd ec cb 8c a5 3f
       -0.015089067687683325 0.042089817680668766
000030 d9 82 31 2d ef 1f b0 bf b3 55 6f b7 f2 35 a8 bf
       -0.06298727849344789 -0.047286591426807155
000040 00 00 00 60 c0 b0 b4 3f bc d0 73 91 ca 2d b1 bf
       0.08082201331853867 -0.06710496951183392
000050 02 6d 9b 15 47 0f 90 bf 00 00 00 60 b3 61 b6 bf
       -0.015683279699129755 -0.08742829412221909
000060 12 6d 95 bb f5 02 b6 bf 00 00 00 00 6b be 8e bf
       -0.08598266439132754 -0.015011630952358246
000070 ca d4 de 01 1e c1 a2 3f 80 05 18 20 fd 1e 8e bf
       0.036629617431950104 -0.014707543889928898
000080 ec 98 db 2b 1c 31 8d 3f da 09 fd 90 7f 3d bb bf
       0.014253826225694564 -0.10640713968044882
000090 00 00 00 80 8f 96 b4 bf c0 31 62 62 6b 7c 93 3f
       -0.08042237162590027 0.01902931011186282
0000a0 85 93 ed d6 95 36 a4 bf 2d 95 ee 2c e8 85 b2 3f
       -0.03947895287163931 0.07235575768443843
0000b0 be 7a c8 5e ef 6f 9b bf 87 c8 b3 7a ff 59 93 3f
       -0.026794185791113583 0.01889800249495768
0000c0 46 30 69 87 8a 5c 66 3f 00 00 00 40 59 7b ac 3f
       0.002729673923829198 0.05562857538461685
0000d0 21 a6 e6 eb 0c 3d b7 3f 00 00 00 00 91 59 9c 3f
       0.09077530631352505 0.027685418725013733
0000e0 b8 55 08 15 c3 e7 a2 bf 00 00 00 40 6d 3f a4 bf
       -0.036924454038096355 -0.039546407759189606
0000f0 db 38 39 d7 e9 8a a9 bf 00 00 00 00 4d ef ab bf
       -0.04988795044174462 -0.0545600950717926
000100 e6 ce bc 3f e4 5b b3 bf 9c 37 dc fc 96 7c a8 3f
       -0.0756209045037469 0.047825544707037454
000110 00 00 00 80 07 70 9f bf 00 00 00 00 e1 0a 93 bf
       -0.030700795352458954 -0.018596187233924866
000120 38 b9 df 57 5c a9 a9 3f 36 57 64 9c 70 42 a1 3f
       0.05012024471931159 0.03371002110558978
000130 99 e3 1e df d9 c5 a1 3f 83 63 5e f0 3b 6a b3 bf
       0.03471260880127786 -0.07583975427986726
000140 c8 32 6c a1 7e e2 ae 3f 89 56 d0 7d 2f a7 a4 3f
       0.06032176704875308 0.040338024242527366
000150 e1 64 61 39 08 3b a6 bf a8 9c f5 46 8a 51 a1 3f
       -0.043419129375885886 0.03382522693828466
000160 e0 40 89 23 0a 67 99 bf 02 00 7b 73 ad 35 a1 bf
       -0.02480712739844726 -0.03361265215562527
000170 65 8f 4a 10 e2 f6 af 3f df dc b5 85 12 73 b4 bf
       0.06243044327609829 -0.0798808647576723
000180 00 00 00 00 e0 92 83 3f 0c 39 95 f6 b2 66 94 3f
       0.009557485580444336 0.019923015880800185
000190 35 9c da a7 10 5a a5 bf c1 54 5f 0c 4c 2a b8 bf
       -0.04170276688574185 -0.09439540197429876
0001a0 43 0d 3f 4b cd 6c b1 3f c5 e3 b4 cb 1e 0e a0 3f
       0.06806643569057251 0.031357729307678585
0001b0 e0 ba 42 6b ec 42 b3 3f 00 00 00 80 f9 f0 b0 bf
       0.07523992174786143 -0.06617698073387146
0001c0 a7 90 f1 ca e5 ce 91 3f 2c 81 30 f1 0a 2f 8b 3f
       0.01739081431550518 0.013273320661085629
0001d0 60 48 01 53 71 93 8d 3f ed 07 38 2c b8 36 a8 bf
       0.014441380830394646 -0.04729247607976093
0001e0 91 86 8e 3d 0d 93 a3 3f 00 00 00 00 78 82 85 3f
       0.03823129059243258 0.010502755641937256
0001f0 f6 24 04 17 e5 aa b2 bf 82 50 87 d7 80 37 ae 3f
       -0.07292014896315266 0.05901720648731247
000200 00 00 00 80 10 d5 a1 3f 00 00 00 00 df f0 8e 3f
       0.03482867777347565 0.015107862651348114
000210 4c 7f 05 87 d2 65 bc 3f 49 11 d2 a7 4c 69 b4 bf
       0.11092868610785195 -0.07973174187833822
000220 31 32 3e ce 81 9f b3 3f 00 00 00 c0 e2 b2 a4 3f
       0.0766526344797931 0.04042728990316391
000230 49 66 7c 8f 80 2f ab bf b2 ce 05 e2 3d bf ac bf
       -0.05309678794419576 -0.056146558609638034
000240 e2 53 81 8f 75 12 b4 3f 00 00 00 a0 0b cf b3 3f
       0.07840666535896859 0.07737801223993301
000250 76 53 cf e6 e7 8c b5 bf db 1f 1b 8e 25 cf b1 3f
       -0.08418130288130307 0.06956705779441512
000260 32 a6 99 42 7a 71 98 3f 00 00 00 80 9c 20 9a 3f
       0.023870382609322678 0.025515027344226837
000270 00 00 00 c0 d7 41 9c bf 35 2a 98 87 22 56 9d 3f
       -0.027594920247793198 0.02864889099695685
000280 a9 1e b9 8b af 75 b0 bf 1c 27 9d 63 a8 0c aa bf
       -0.06429574166497311 -0.0508778211211178
000290 00 00 00 00 32 a9 97 3f 3c f6 1a 34 a8 08 69 3f
       0.023106366395950317 0.0030558858132667937
0002a0 72 39 84 15 f5 b7 ac bf 00 00 00 20 74 52 b1 3f
       -0.05609098327305419 0.06766439229249954
0002b0 65 10 97 52 4a e7 a4 3f 00 00 00 40 c3 75 a1 3f
       0.0408271051233278 0.03410158306360245
0002c0 49 57 1c 3c 21 c8 b3 3f eb e1 3f 87 3e 94 b6 bf
       0.07727248876139216 -0.08819952775946376
0002d0 2b e3 ef 02 7a 3d 90 bf 00 00 00 00 af 65 81 3f
       -0.01585951464582817 0.008494727313518524
0002e0 72 61 b4 5e 74 ba b0 3f 00 00 00 c0 eb a3 a7 3f
       0.06534507095455469 0.04617249220609665
0002f0 a5 4d b4 a4 9f 77 70 bf 00 00 00 a0 16 d5 ab bf
       -0.004020331961572953 -0.05436011031270027
000300 bd b1 5b 41 67 c4 b4 bf ae 61 03 4d 83 c6 b0 3f
       -0.08112187715204917 0.06552906637387565
000310 00 00 00 00 ad 48 85 3f 74 d3 68 c7 61 b4 7f bf
       0.010392524302005768 -0.007740385006901874
000320 8e 60 5b f3 38 69 a9 3f c9 b4 c2 d5 52 e5 ac 3f
       0.04963090868631169 0.056437100023097715
000330 96 95 f8 9d 45 b1 a5 3f 00 00 00 c0 d4 51 ae bf
       0.04236810258252459 -0.05921807140111923
000340 91 a5 a3 6c 31 6d b8 bf 9b 4b 32 48 af 1a 55 3f
       -0.09541615392995186 0.0012881004084064121
000350 f0 91 f3 bf a6 9c b0 3f 60 35 99 2e 8c f5 b3 3f
       0.06489031015696134 0.07796550882013298
000360 78 d3 f1 b5 85 a9 a4 3f 57 6a 50 87 bb 78 b1 bf
       0.04035585256580182 -0.06824848226134726
000370 00 00 00 40 39 d5 ab bf 00 00 00 c0 20 27 aa 3f
       -0.054361142218112946 0.05107977241277695
000380 7e a3 52 40 2f 6f b5 bf fb 57 a7 f4 ea 03 b1 bf
       -0.08372779198056254 -0.06646603081694018
000390 00 00 00 40 b1 67 ae 3f 00 00 00 20 73 25 b3 3f
       0.05938486009836197 0.07479018718004227
0003a0 4a f5 95 fa 8d 31 55 3f de 25 fb a3 bf 07 a3 3f
       0.0012935530197347327 0.03716849209520111
0003b0 b0 b5 f4 0b b9 dc 95 3f 00 00 00 00 4d e2 91 bf
       0.02134980330918318 -0.017464831471443176
0003c0 10 e8 05 36 64 00 a5 3f 07 ec 57 ba 30 86 94 3f
       0.04101861152135211 0.02004314553594713
0003d0 6c 50 a5 01 b4 d5 a6 3f c8 cb cf dd 5e 20 a1 3f
       0.04459917564477753 0.03345009286558526
0003e0 00 00 00 40 0d ab a2 bf 00 00 00 40 0a a8 a3 3f
       -0.03646127134561539 0.038391418755054474
0003f0 04 f3 b0 2a 7c 6c 90 bf fc f6 a8 78 30 2f 98 bf
       -0.016038837533630904 -0.023617513050559133
000400 11 f0 ba 58 7a c7 b1 bf 74 29 3e c3 5a 85 9f 3f
       -0.06945004144921564 0.030782144705463435
000410 0c 7d dc 42 4a 8b b3 3f 23 92 a0 68 9a 72 7f 3f
       0.07634414799075645 0.007677653464302855
000420 a7 73 03 05 b8 32 5a bf 06 75 f8 cc 21 bd b0 bf
       -0.001599006373047754 -0.06538592580951183
000430 78 8c d3 3a f3 46 b0 3f 9c 6c 0e 94 0f 69 ad 3f
       0.06358261285963518 0.05744217569664409
000440 00 00 00 c0 49 5d ab 3f 94 b8 9e 2a 67 43 af bf
       0.05344610661268234 -0.06106111903442116
000450 13 2a 07 94 be 98 aa 3f 00 00 00 40 81 59 a1 3f
       0.05194659764272926 0.03388599306344986
000460 30 99 9f e9 c5 c4 a2 3f 00 00 00 00 c4 90 90 3f
       0.036657509582982306 0.016177237033843994
000470 e5 fc 8f 34 71 70 81 3f 18 8a ff 72 b0 db a3 bf
       0.008515247742251162 -0.03878547099863655
000480 32 87 fb 6d 17 f5 85 3f 14 40 71 e7 a6 3a a0 bf
       0.010721381229305747 -0.031697479011768476
000490 00 00 00 c0 16 19 a7 3f 54 72 25 97 74 48 b2 3f
       0.04511328786611557 0.07141808214277862
0004a0 3a 9e b1 b4 94 76 bc 3f d1 53 bf be 96 c9 b5 bf
       0.11118440066786031 -0.08510725171011237
0004b0 06 7b 55 0a 8b d3 c0 3f 9e 15 66 79 45 29 ac bf
       0.13145578388772367 -0.05500237566870257
0004c0 84 11 74 db a3 43 b9 3f 00 00 00 e0 fe 01 b4 bf
       0.09868835551976046 -0.07815545052289963
0004d0 a8 ad 85 48 27 0d ad 3f 00 00 00 60 9c 96 b1 3f
       0.056740977862172415 0.06870438903570175
0004e0 e0 6d 6f ee 35 d9 bb 3f 00 00 00 00 19 86 84 3f
       0.10878312178777305 0.010021395981311798
0004f0 3b 89 9a f0 fe 8b 78 3f 00 00 00 80 27 61 97 3f
       0.005992885454960291 0.022831551730632782
000500 18 13 aa 9f a4 28 a6 bf 8c 06 c9 4e 52 3f a4 3f
       -0.04327883194949872 0.03954560481771549
000510 00 00 00 60 f3 1f b0 3f 00 00 00 a0 ce 75 b4 3f
       0.06298752874135971 0.07992259413003922
000520 d6 3f 31 b6 65 5c c1 3f 4b d8 91 0d ba f2 c2 3f
       0.13563224216568298 0.1480324331529935
000530 ed d3 47 d3 3e 29 a1 3f ed 95 01 25 92 bc a8 3f
       0.03351780251606571 0.04831368161903158
000540 22 a2 5e 28 35 2a 78 3f ce 22 88 b9 97 07 b3 bf
       0.005899627349130772 -0.07433460502228259
000550 6f 26 81 94 a3 d5 9e bf be 42 61 45 52 62 b1 bf
       -0.030111843050951877 -0.0679065150627691
000560 68 ab 2f 7d b7 f6 a8 bf 5a 79 b3 0d b4 4c 9d bf
       -0.04875729945327728 -0.028612912498709654
000570 a7 e5 e4 64 a9 48 aa bf 2f a6 04 72 ba ff aa bf
       -0.051335614744356044 -0.05273230211089374
000580 00 00 00 e0 3b 79 b0 3f e4 3c a9 f5 a2 39 ab 3f
       0.06434988230466843 0.05317410706322237
000590 df cb 7b 52 a5 40 8b 3f 3e 34 83 5e ac ac b6 3f
       0.013306895808886608 0.08857228572306128
0005a0 18 18 5c 53 76 98 91 3f a8 af 31 2d 97 23 6d bf
       0.017183159673571508 -0.0035570099512849014
0005b0 77 ee 77 71 b4 1d b3 bf 00 00 00 20 f6 1e a1 bf
       -0.07467201013781187 -0.03343934193253517
0005c0 61 a7 4a ab 9e a8 b3 3f 4e 61 ff a8 1b 4b a2 bf
       0.07679168397831183 -0.03572927892645571
0005d0 7c 67 41 36 59 39 6f bf b3 6e 8f ce f1 44 86 bf
       -0.003811525575696471 -0.01087368880865056
0005e0 38 d7 79 18 2c 27 b3 bf 00 00 00 00 fe b9 96 bf
       -0.07481647107655653 -0.022193878889083862
0005f0 f3 9f ee 1d 8d 55 a0 3f 71 15 95 46 6a 0a ae 3f
       0.031902704147171244 0.058673211208353566
000600 00 00 00 80 49 b8 a1 3f 00 00 00 e0 36 62 b5 3f
       0.034609124064445496 0.08352988213300705
000610 91 b2 ff 70 f2 8f b3 3f 64 59 88 76 8f 14 9b 3f
       0.07641520746956078 0.026445619210869423
000620 9c 56 aa 6f 31 f2 a1 3f 00 00 00 40 23 ec a6 3f
       0.03505091178992112 0.044770337641239166
000630 b5 b6 a8 f4 8c 98 af bf af 13 15 c4 89 83 a1 3f
       -0.06171074377594491 0.0342066814287486
000640 c7 76 80 c4 f6 55 98 bf 00 00 00 e0 a5 d5 a2 bf
       -0.023765426391142676 -0.03678625449538231
000650 ed 0e b4 3f 86 d6 b3 3f f3 64 3e b0 1b 19 b0 bf
       0.07749213271386753 -0.06288312008691203
000660 95 54 7e 50 88 c5 bd 3f 00 00 00 40 a3 17 af 3f
       0.11629535641835027 0.06072721630334854
000670 00 00 00 40 5a 70 ad bf b9 b9 52 bb 4d 38 a1 3f
       -0.05749780684709549 0.03363268767985823
000680 ca 43 51 80 0f 4a 98 3f d1 00 98 a7 60 b8 9a bf
       0.02372001858413223 -0.026093969563590506
000690 00 00 00 a0 41 72 b1 bf e0 92 54 94 eb e4 96 bf
       -0.06814966350793839 -0.02235763638340671
0006a0 4c 6a 28 e0 d5 b0 82 bf 00 00 00 40 6c 2e aa 3f
       -0.009126349356894846 0.05113542824983597
0006b0 b5 da 26 fe 9d cf b0 3f 00 00 00 80 87 c0 9f 3f
       0.06566798643948853 0.031007878482341766
0006c0 cc 92 48 a1 34 4b b9 3f be 02 7f 16 86 db 8f 3f
       0.0988037961729546 0.015555427133109642
0006d0 20 ff cd 64 1f d3 b4 bf 00 00 00 00 1b 3b 85 3f
       -0.0813464757065927 0.010366640985012054
0006e0 f7 55 16 cd 08 1f 86 3f 00 00 00 60 35 39 b3 3f
       0.010801380881086493 0.07509168237447739
0006f0 46 a6 5b 21 a0 ab 91 3f 00 00 00 00 3c e3 a0 3f
       0.017256261859904386 0.03298366069793701
000700 69 66 99 b9 67 ec 8d 3f ba 92 82 a6 e2 4a b5 3f
       0.014611063338793433 0.08317390980898667
000710 00 00 00 00 a0 59 9f 3f ed 6e 20 71 e2 75 b4 bf
       0.03061532974243164 -0.07992377530939239
000720 73 e0 f4 f5 a9 da b0 3f dc 65 25 40 1b d1 bc 3f
       0.06583654646681385 0.11256571117464581
000730 d5 49 61 93 c3 93 9d 3f 00 00 00 00 2d 26 96 3f
       0.028883987303126652 0.021630004048347473
000740 81 1d 81 63 a5 a1 69 3f 5a 5a f6 6e 60 88 74 bf
       0.003128836655409806 -0.005012871449614121
000750 22 72 8b 61 7d d0 b1 3f 75 7c bc 01 5d 95 b1 3f
       0.0695875514169946 0.06868535320653442
000760 0d e2 48 d2 c4 5f aa 3f 52 82 19 e5 4c 1d c3 3f
       0.05151190821601768 0.14933167635446637
000770 00 00 00 c0 52 b0 a4 3f 00 00 00 00 98 ab 82 3f
       0.04040773957967758 0.00911635160446167
000780 d8 5f c9 60 ac 51 a3 bf d2 bc e0 9c 8b bf b7 bf
       -0.0377324932239273 -0.09276650028253933
000790 00 00 00 00 84 cc 92 bf 00 00 00 00 0a 2c 9e 3f
       -0.018358290195465088 0.02946487069129944
0007a0 51 cc 34 ee 45 d3 5d bf 19 2a a8 da de cb a0 bf
       -0.0018203909792873405 -0.03280540866042631
0007b0 e3 85 75 e4 16 f4 95 3f 00 00 00 40 60 9e aa 3f
       0.021438939756427088 0.051989562809467316
0007c0 25 41 af e1 fd 3b be 3f 4b 0b e6 80 07 07 b7 3f
       0.11810290107610351 0.08995100876749722
0007d0 af 97 12 c6 d6 bc a9 3f b6 4a e8 28 a8 19 97 bf
       0.050268851927554585 -0.022558810707844677
0007e0 00 00 00 e0 a5 9c aa bf 00 00 00 80 72 9f b2 bf
       -0.05197637900710106 -0.07274547219276428
0007f0 e1 22 c3 e3 1c a6 7a bf 47 c7 70 3d 9d 66 a8 bf
       -0.006506073809028763 -0.04765788435942269

linear2.bias f8 [64]
000000 61 f4 b2 95 39 db aa 3f 77 1c ec a3 42 4f b2 bf
       0.05245380356198193 -0.07152191640862947
000010 f5 ff be 89 09 08 a5 bf 0f e9 fb 11 7a 7b 6a 3f
       -0.04107694441290725 0.0032327064690181938
000020 04 ff 38 37 23 40 ac 3f 62 ad cd 4d d7 48 aa bf
       0.05517683076004512 -0.05133698296307433
000030 af 04 d2 b2 44 38 a6 3f e5 ab f2 69 62 f7 91 3f
       0.04339804346910491 0.01754525920538787
000040 3d 69 a2 75 22 e1 a9 3f 66 d1 db 2f 35 d4 9f bf
       0.0505457657429411 -0.031082945867596655
000050 2b 57 bd 0b d8 da 94 3f ad 95 ad 80 06 10 55 3f
       0.020366073338059437 0.0012855590345791465
000060 93 9c 27 e2 97 0e a2 3f cf 0b 22 ba ff 13 b3 bf
       0.03526758800199405 -0.07452390951406972
000070 8b c6 a7 e6 65 9f 92 bf 90 0b 84 dc b8 fd ae bf
       -0.01818618030842471 -0.06052949611514358
000080 19 9a b2 86 c3 26 99 bf 41 e7 e4 b4 71 5f 98 bf
       -0.024561934562962493 -0.023801590600874837
000090 bc ea 9b 65 ce fc b1 3f e1 08 4c 32 37 f1 ac 3f
       0.07026376705827436 0.056527829065105235
0000a0 20 0e 22 42 6a 8e aa bf f1 57 55 7b 55 b0 b6 bf
       -0.05186779076850834 -0.08862814198559456
0000b0 f6 61 25 6b af 9e a6 bf 84 c7 6d cb 1b d9 88 bf
       -0.04417942221579445 -0.01213285173955448
0000c0 2d ff 3c b2 4e f3 af 3f 34 e8 9f 98 4a 9a 75 bf
       0.0624031632019054 -0.0052740968621894264
0000d0 08 07 82 43 7c 53 b2 bf e8 b6 6e 4c 4d 59 af bf
       -0.07158638618605206 -0.06122819479001668
0000e0 ed 75 e6 6c 2d 08 71 3f 67 04 e7 a9 d6 06 a2 3f
       0.004158189242301697 0.035208423843422314
0000f0 fa 80 b5 34 2d c4 ad bf c4 d0 6f cc 99 ef ae bf
       -0.05813733356876756 -0.06042175884786752
000100 da dc 4a 3c 42 40 92 bf c7 46 df 75 4c 3b a9 3f
       -0.017823252611120256 0.049280537975972254
000110 c5 61 21 01 48 2d a4 bf cd f9 4a cc 98 a7 81 bf
       -0.03940796865271382 -0.008620446905635593
000120 d3 a2 c0 9f e5 0a 8e 3f 6d 1f 74 a5 c0 63 b6 bf
       0.014669221818694044 -0.08745960273165361
000130 4c e9 4a 99 be 7f b1 3f 1a 34 db 19 0c 91 b1 bf
       0.06835547678466475 -0.06861949568993034
000140 cd 3a b5 1d 4d d7 a8 bf 99 4b df f6 f6 4d 9f bf
       -0.04851761806150066 -0.03057084924496287
000150 e0 f7 1f 66 91 2c a5 3f 48 16 20 28 2d 46 ac 3f
       0.041355651585021524 0.055222903392899314
000160 2a de a0 77 57 92 a5 3f ca 83 78 87 c7 c0 a2 3f
       0.042132123330187746 0.036627040183027385
000170 c1 03 9c a1 21 5d b6 bf 0b 1e 3b 2a 60 df 93 3f
       -0.08735857196371823 0.019406797959872473
000180 87 e3 21 e8 94 47 9b 3f 9a 3a d8 85 f3 60 8a 3f
       0.026640249889598813 0.012880232355226885
000190 89 02 24 39 ec 45 b4 bf 68 72 16 2e 1a 9c 9e 3f
       -0.079191936445577 0.029892357886284776
0001a0 a9 dc a3 aa 46 62 b5 bf 62 6a ba 13 e8 4a b7 3f
       -0.08353082338350028 0.09098673326153908
0001b0 56 a7 2e a0 34 6b 93 bf aa 92 a1 39 37 85 b7 3f
       -0.018963644291637514 0.09187646061907154
0001c0 26 fa 38 ca 9a 68 a4 bf 3b 0f 8e 60 17 f5 b0 bf
       -0.03986057013070292 -0.06623979670808648
0001d0 96 cb 2b 43 1b 57 a9 bf 4f 97 52 c7 19 86 a8 3f
       -0.04949269480666556 0.0478981071294543
0001e0 76 81 fb 83 50 b9 b0 3f 19 0f 20 d0 f2 05 a4 3f
       0.06532767507770196 0.039107883363639746
0001f0 df 18 3a c9 42 30 9a bf a4 d9 07 d2 70 35 ad bf
       -0.0255747256583384 -0.057048345221051094

linear3.weight f8 [3, 64]
000000 27 ee 3f 24 63 54 c3 3f fa 9b ce a2 bd cf c5 3f
       0.15101279516226038 0.17040224504054874
000010 50 f7 5d 23 86 5f aa bf 3c 2e 94 54 37 98 c4 bf
       -0.051510040108935784 -0.16089526777101237
000020 04 66 1d d1 a0 f5 c4 3f d4 fc 06 60 fd 54 c2 bf
       0.16374597750363773 -0.14321868122895032
000030 66 b1 f6 c3 22 ed bd 3f b6 fa 55 d3 78 eb b3 3f
       0.11689965519207632 0.07781176719252411
000040 45 22 6d 95 7a 3e c4 3f 67 f5 c9 f0 67 ff c0 bf
       0.15815670295912035 -0.13279437310476824
000050 73 38 6f 78 26 7f c4 3f 36 a1 d8 f0 f1 97 ac 3f
       0.16013031845654133 0.05584674897210322
000060 4a 59 64 73 f5 5b c7 3f 22 b8 3c 84 30 5d c4 3f
       0.18249385961889636 0.15909391838926107
000070 1c e5 d1 89 e7 e8 b5 3f 78 4f da 85 bf e4 a2 bf
       0.08558508982413965 -0.03690145977921494
000080 f1 00 d9 45 22 7a ce 3f f2 73 c6 ff 27 a0 b5 bf
       0.23810223017245094 -0.08447504038345224
000090 90 f9 47 a5 41 ef ba bf 10 fb b8 3a 32 e4 ab bf
       -0.10521326337036485 -0.05447537390545254
0000a0 a0 a1 68 cb b6 1d c3 3f 23 26 97 be 45 5b b0 bf
       0.14934430057588788 -0.06389270690046848
0000b0 9c 8d c7 93 bc d4 85 bf 87 42 11 01 e5 e6 bd bf
       -0.010659669170258117 -0.11680442119655697
0000c0 aa 81 34 0f 04 f0 c4 3f f6 3d 96 7e 2b 26 bd 3f
       0.16357470266758628 0.11386367645740578
0000d0 b3 a7 6d cf 40 e4 bc bf 8e 8d f0 f1 d2 94 b4 bf
       -0.11285786689918957 -0.08039587408761958
0000e0 a0 9f a0 7b 17 6b aa bf d7 34 b2 0e b3 d1 c9 bf
       -0.05159829506038638 -0.20171201913436818
0000f0 75 80 c7 8c 2a 85 b0 3f 20 4d 7b 27 4f 42 b4 bf
       0.064531955118129 -0.07913679803759921
000100 d9 bd 46 fb d6 62 b2 bf b6 a1 af 25 a9 de b7 bf
       -0.0718206752269376 -0.09324128313131194
000110 4f c1 8f 69 99 90 d2 bf b1 46 93 2d 68 64 a9 3f
       -0.2900756388544509 0.049594169200316236
000120 bd cc 39 0f 44 97 c6 3f 57 52 05 a3 c2 6b 9f bf
       0.1764912676186209 -0.03068451042175221
000130 73 70 0c 61 f8 9a a0 bf 0f 80 ae 48 5b 3f 77 bf
       -0.032432329031707584 -0.00567565591600784
000140 e2 a0 ca 7d 7b f7 cf bf ae 5c 74 89 b5 18 92 bf
       -0.24974006311572966 -0.017672382845458294
000150 d3 ef 42 a7 b3 99 c3 3f 07 c6 27 cb 61 62 b4 bf
       0.15312810580314692 -0.0796261902794627
000160 5f aa 1a f7 c1 b1 9e bf 34 ce 0c f1 b4 77 b6 bf
       -0.02997496672348132 -0.08776408085832871
000170 03 13 42 dc 2a b1 a5 3f 59 5e 6a 01 8b 13 be 3f
       0.04236730517098943 0.11748570236738355
000180 f1 86 86 a2 0f 6a c8 3f f8 6f c7 09 a7 0a 51 3f
       0.1907367271024252 0.0010401374084869613
000190 a2 54 29 11 2d 01 c2 3f 60 ea 87 a2 48 0b bd 3f
       0.1406608899875766 0.11345342605629005
0001a0 8a 8a c4 76 51 3c ba bf a4 4a 1a 7b 6c b8 c3 bf
       -0.10248288297274591 -0.1540656663024339
0001b0 9f 20 6a d5 a9 2b b3 bf d0 7b d7 90 ea a7 c2 3f
       -0.07488500080410397 0.14574939796781772
0001c0 a0 e7 0d 18 6f 89 d2 bf fa 17 c4 7f 7c 4e c9 bf
       -0.2896383032708574 -0.19770771254133007
0001d0 69 8b 4e 1d f1 09 b4 3f 41 5d 59 b1 b3 71 bb bf
       0.0782767006444779 -0.10720370368777755
0001e0 e9 44 01 26 fb 5c a4 bf 0b d8 7b 04 03 21 c5 bf
       -0.0397718891041537 -0.16506993979390958
0001f0 6d a5 90 f1 b0 19 b0 3f 27 05 59 71 b5 fd b1 3f
       0.06289201638778304 0.07027753846434291
000200 3a 58 99 3c 08 69 ab bf 37 12 89 13 ea a4 c3 3f
       -0.05353570689901273 0.15347028688315031
000210 59 ed fb 9e 09 4e 33 3f b4 7d 13 c2 5c 2a c3 3f
       0.00029456839455096123 0.14973029590963238
000220 45 af fe 09 18 38 b4 bf 75 9c ff 6d af 8d b8 3f
       -0.07898092502608474 0.09591194568166535
000230 a6 b4 91 70 7f 7a ba bf b9 ee be 02 15 e9 c3 bf
       -0.10343166826506209 -0.15555060037683235
000240 1d b7 68 4a d3 21 b3 3f 27 3b 34 d2 7b b1 a5 3f
       0.07473488394381574 0.04236971798865446
000250 57 fe 73 be b1 9a c1 bf 97 03 0b 8d d4 e8 a3 3f
       -0.13753339576213605 0.03888572904316517
000260 05 94 27 9f ca 9e 96 3f 95 6a 09 fd c8 1a c2 bf
       0.022090116466547034 -0.14144241671859406
000270 5d a7 4d ae 54 bb ad 3f c0 16 43 0c 83 35 b0 bf
       0.05806984546400316 -0.06331652688376277
000280 f3 7e 7f 0a 7a 5e a4 bf c6 a5 1c 2e c8 6c bd 3f
       -0.03978330019140044 0.11494113088396948
000290 e4 39 fa 53 11 d0 b0 bf ea a9 5b 21 15 c7 bb bf
       -0.06567486095648395 -0.1085065084877567
0002a0 ba cb 85 39 52 00 bb bf 5c 6b 80 79 3f 6c ba bf
       -0.10547365097390485 -0.10321423260067547
0002b0 15 0f 9f 5e 9f aa ab bf e2 e5 bd d8 7e d0 a9 bf
       -0.054036121654944015 -0.05041881938718597
0002c0 60 27 01 57 56 26 c1 bf 97 94 e7 fa 06 a6 bf bf
       -0.13398246048228213 -0.12362712503052574
0002d0 d7 5a ca 33 b3 3e c4 3f c8 19 f6 fb 28 0b af bf
       0.15816345242338656 -0.06063201976489868
0002e0 1c da de 07 e3 fe 6a bf 9d 30 60 08 57 b6 b8 3f
       -0.003295367640898007 0.09653228716359981
0002f0 05 9f 4f 5f c8 17 ac bf cd 18 59 30 d4 72 c4 bf
       -0.05486894763435938 -0.15975429878944283
000300 d4 a6 49 f5 a9 70 a0 bf a0 45 60 f5 76 f9 76 bf
       -0.03210955733523027 -0.005609001809732034
000310 01 fc c9 26 5f f0 b8 3f 74 59 7d 72 69 c1 bc 3f
       0.09741778084752185 0.11232623143346193
000320 64 c8 14 d2 18 98 c4 3f 13 da df c3 49 7b b9 bf
       0.1608916307246232 -0.09953747779932369
000330 54 5b 01 53 9a 78 95 bf eb b8 dc 91 a3 0c c4 3f
       -0.020967875782243198 0.15663570997407503
000340 ef 48 6c 9f f9 cc ba 3f cf b9 1c a3 61 97 af 3f
       0.10469017164385595 0.0617018233882508
000350 cc 35 e0 e9 ac d6 c6 3f db 0d 39 64 c8 4a aa 3f
       0.17842637462346855 0.05135179732726743
000360 40 6a 7f 37 08 e3 c0 bf 7d d8 14 1d cc 8a b2 bf
       -0.13192846975182881 -0.07243037900920686
000370 4a f2 ca 25 13 54 b6 bf ae 9f 41 7a 7e 58 b6 3f
       -0.08722037956881326 0.08728781208776468
000380 02 67 de e2 a6 14 92 bf e4 28 57 e8 d1 c0 b7 3f
       -0.01765690574357049 0.0927859489667387
000390 2f 16 bb ff 84 69 99 3f 00 69 db 9b 59 0e 95 3f
       0.024816587551660326 0.020562553537140538
0003a0 e8 79 54 d2 80 30 a9 3f 7b 27 83 34 81 be ba 3f
       0.049198175120398535 0.10446937114752856
0003b0 a4 79 ca 51 41 a4 bf bf 86 cf 5d f5 5b ca c3 3f
       -0.12360008475159262 0.15461301308425507
0003c0 52 6d 5e 64 33 7b af 3f be 29 12 c5 bf fe ad 3f
       0.06148682213025815 0.05858420639659155
0003d0 0d c7 47 07 bf b8 96 3f 41 65 c7 ac ec 0b b7 3f
       0.022189125842436975 0.09002570360407437
0003e0 a7 e6 5f 6a 38 28 c2 3f db 6e 00 1c c5 5c 7d 3f
       0.14185242837975418 0.007168550451776413
0003f0 86 0f 07 d5 78 8a ba 3f d9 4f 23 b6 f8 84 a9 bf
       0.10367541504734676 -0.049842617257723716
000400 e3 60 66 54 55 4d ad bf 08 ae 57 b6 63 a0 cd bf
       -0.05723063140175257 -0.23145719912950846
000410 7d ff 1f 10 c3 22 a8 3f d9 b0 80 d2 c8 c5 c5 3f
       0.047140212744124256 0.1700984027714927
000420 17 c6 87 cf 77 7a ae 3f 1e 72 39 48 42 0c 93 3f
       0.059528106768891025 0.018601451547839536
000430 93 fc 64 93 d8 b8 b5 bf 4b f1 13 99 ba 52 c5 3f
       -0.0848517761087229 0.1665871856165587
000440 93 fb 42 35 c2 b1 b4 bf 16 33 86 07 ad 68 b4 bf
       -0.08083738136609346 -0.07972222741791443
000450 24 74 f6 33 53 f5 b6 bf 3a d2 f1 3e 3e db b7 bf
       -0.08968086260434 -0.09318913494809858
000460 93 97 92 8e 0c 14 be bf 3c 9b 66 0e 29 87 bf bf
       -0.11749342423226343 -0.12315613366682227
000470 f0 71 f1 41 2e e7 ad bf 4c 1f 98 a7 1e f6 c9 3f
       -0.05840439372034101 0.20282347853958027
000480 ad ab b7 31 d7 ab 68 3f 9d 31 56 ae 64 1e bc bf
       0.003011627484501975 -0.10983876472727734
000490 b2 66 84 f2 ea 44 af 3f 96 27 b8 fe 28 45 bb 3f
       0.06107267580428068 0.10652404993757467
0004a0 cd 77 4b 5d c0 23 b7 bf 96 45 5e e0 2e ae 94 3f
       -0.09038927343087196 0.020195705837584642
0004b0 b2 86 37 7e 96 9d b0 bf bb 1a b8 36 17 cc c6 3f
       -0.06490459996669065 0.17810335323175316
0004c0 8a 59 ca 7c 06 04 83 3f 04 a9 ae 43 a0 92 b1 bf
       0.009285021479894313 -0.06864358570479473
0004d0 eb 78 ec 13 2b 63 c1 3f c1 ca 28 a0 9c 80 a1 bf
       0.13583887551153082 -0.03418435530729403
0004e0 32 72 e1 d3 fc 9b a6 bf 97 39 04 55 af e9 bb 3f
       -0.04415884100373936 0.10903449845884548
0004f0 b6 27 70 b1 69 19 c6 3f 33 fd 5a 10 a0 53 aa 3f
       0.17265053905458466 0.051419260021697964
000500 6c 6e 14 8a 1f 0c b0 bf f1 59 fa 2a b9 ad b2 bf
       -0.06268498536194905 -0.07296330737367619
000510 4d 09 75 3f fd 82 be 3f 38 03 b9 76 36 95 b5 3f
       0.11918623732802765 0.08430805586341428
000520 f5 94 4e e1 52 09 c9 bf 73 ba 84 b2 f2 4b 91 3f
       -0.19559703828159739 0.016891281267073354
000530 67 47 a3 82 a0 b8 c3 3f c5 ba 68 28 01 60 c6 3f
       0.1540718686942981 0.17480482552624302
000540 0b f9 28 5c e2 8e bc 3f 96 74 9d a1 6f 10 a9 3f
       0.11155524015427802 0.04895352218475428
000550 c0 25 23 d1 5c db c0 bf 50 f8 59 c8 30 96 8d 3f
       -0.13169441425115558 0.01444662200378502
000560 c1 f6 2b 66 95 70 8e 3f c0 d3 10 47 f0 6b c2 3f
       0.014863173656972763 0.143919024181427
000570 63 f4 d4 db f4 aa c4 3f 88 ff ea 2e fe 9c d1 bf
       0.16146717771508454 -0.2752070863898486
000580 36 74 55 4c 7c 95 b9 bf 54 72 03 f7 ac 58 a5 3f
       -0.09993721831911348 0.041692166474352504
000590 c7 dc 82 c4 e0 65 a2 bf 67 89 fd 12 64 8e a6 bf
       -0.03593351744478351 -0.04405510646644722
0005a0 fa 9a 34 1b 2d 26 a2 3f d4 6d b1 c1 bd 90 bd 3f
       0.03544751126383079 0.11548982600054752
0005b0 3c 4d 9a b3 74 02 c0 3f cd a5 1a d3 0d 68 d1 bf
       0.12507494706788147 -0.2719759522975352
0005c0 f2 66 08 ae 8d 7c b4 3f a1 6c fc 73 34 f5 9f 3f
       0.08002553461883702 0.031208819941735858
0005d0 e0 82 df 20 8b d9 b2 3f 3c 7e 1f 49 44 da 7b 3f
       0.07363194992604916 0.006799952259796845
0005e0 89 95 df 80 74 b7 c7 bf 0d 5d 21 23 01 d8 92 bf
       -0.18528610508580481 -0.018402116555390303
0005f0 52 da 4b 83 1b 94 cc bf c7 ae 23 4b d2 89 c8 bf
       -0.22326988135292197 -0.1917059771434337

linear3.bias f8 [3]
000000 8f 4f 76 3b 0f d5 c2 3f dc 23 c9 c4 99 73 b8 3f
       0.14712705996919026 0.09551392607058012
000010 9f e1 da dd e1 b1 c7 bf
       -0.18511603672756125
