runs/testrun-statedict-hyptuned-15r-40bs-50ep/0/LocalModel-0-Round1.pt (torch, 167767 bytes, 6 tensors)

linear.weight f8 [128, 95]
000000 f1 d3 cb 2c af db b5 3f 4e 3c 6f 02 2a 78 a6 bf
       0.0853833660474519 -0.043885529324705005
000010 fb 2d c0 59 a8 c1 b9 bf c0 d7 62 6a f9 c9 85 3f
       -0.10061123076609839 0.010639141616007097
000020 d1 bc 97 d1 a9 4b 8f 3f 29 35 85 d2 02 41 75 bf
       0.015281035145532947 -0.00518895246962118
000030 09 c5 46 1a a7 86 ae 3f 43 53 e4 ae 8f 79 93 3f
       0.05962106891400693 0.019018406915239493
000040 5b 12 1c e6 05 32 b2 3f 04 ad 6d 24 99 e6 72 bf
       0.07107579105292798 -0.0046144468422924
000050 2a e6 c9 b8 ae 9d 74 bf af 09 41 2a 38 c9 ac 3f
       -0.0050331902572167495 0.05622268214985426
000060 b8 7f ee 5b 80 04 b5 bf 11 5d 60 12 f7 e3 b0 3f
       -0.08209993595528331 0.06597847174304074
000070 fe 94 e9 d3 08 40 b1 bf e8 95 e8 5c 68 b6 b3 3f
       -0.0673833386768656 0.0770020701243862
000080 a9 b7 cf de 1b b1 7a 3f a0 98 d7 db 2d 74 9f 3f
       0.006516560429174514 0.03071662573156486
000090 eb d4 51 4e 65 11 a0 bf 77 00 4c 12 d9 37 ad bf
       -0.03138271885920026 -0.0570667109332143
0000a0 58 37 ca f9 e4 0d b3 bf 4a cd 91 96 8e 44 aa bf
       -0.07443076227556611 -0.05130429828650536
0000b0 02 29 14 19 b6 e0 a4 3f 9f 47 6e fb c3 e0 aa 3f
       0.0407769113172254 0.05249607509826081
0000c0 39 92 bf 5c 17 49 b9 3f 30 c3 04 75 ab ec ac 3f
       0.09877153410304453 0.05649314692926166
0000d0 87 a6 58 38 48 e7 b9 3f d5 0d db 49 ca 81 7e bf
       0.10118533492700453 -0.007447996320198287
0000e0 ad 3a 19 f7 47 48 a8 bf b5 83 04 17 34 cb 9a 3f
       -0.04742646113719693 0.02616578474510663
0000f0 94 0a c7 bd c9 41 74 bf e8 aa 35 d7 cb 7e a0 bf
       -0.004945552875542564 -0.032217378636081595
000100 0c 19 37 be db c8 a6 3f 19 e2 7d 08 66 13 a0 bf
       0.04450117775881965 -0.03139799932154492
000110 dc 81 58 8e 26 46 a7 3f 77 0a af 60 09 44 b8 bf
       0.045457081676662375 -0.09478815660899352
000120 f3 11 05 59 f6 63 a7 3f 9e a2 38 55 f9 38 b2 3f
       0.04568452679317039 0.07118185358616322
000130 65 7f d7 1a d3 ab 99 bf f6 53 34 54 14 89 ac bf
       -0.02506952143983145 -0.055733332899912044
000140 0b c1 15 7e 8b 88 ac bf 83 db ea d7 62 bd 99 bf
       -0.05572925485728505 -0.025136513165047624
000150 40 94 cd d4 b1 ca b3 bf 12 7f b9 41 9d 02 99 3f
       -0.0773116249598198 0.024424035202513635
000160 82 57 a0 28 ee d6 88 3f c7 18 ae a2 81 ec b2 3f
       0.012128697027985916 0.0739213010948304
000170 5d 21 c7 63 87 38 a4 bf a9 e3 78 31 8b c6 95 bf
       -0.03949378102294319 -0.021265196699662123
000180 0a c1 73 ae 2f 5c b3 3f af 9b 3a a4 60 6b b3 bf
       0.07562540062986414 -0.07585720071311529
000190 11 34 09 37 c7 bd b1 bf 64 89 0a 3a ef e6 b2 3f
       -0.06930203527117863 0.0738362805082367
0001a0 5e e9 34 c7 a3 97 b8 bf cf ce 68 00 de e5 81 bf
       -0.09606383908695679 -0.008739218127721852
0001b0 56 8e e2 bf 86 35 91 3f 6f d4 e3 b4 46 44 89 3f
       0.016805749379854205 0.012337257762263769
0001c0 84 fc 93 c8 c4 bf a6 3f 7c 95 45 c4 13 6d b8 bf
       0.04443182896101752 -0.0954143861941556
0001d0 16 32 eb 0c 82 5b b2 bf 16 89 dc e2 ab ff 9c bf
       -0.07170880141638522 -0.028319059106373855
0001e0 fd b4 fd 22 ba 6d b8 bf a4 d6 c6 72 77 15 b3 3f
       -0.09542430261872777 0.07454630424657666
0001f0 e7 9f ad 34 44 42 95 3f e2 42 ff ff bc 6c b0 bf
       0.020760598864768467 -0.06415921449594067
000200 e4 a4 b9 e5 ed df a7 bf 9a 0b cf 6f 19 39 ab 3f
       -0.0466303198744045 0.053170008562594975
000210 f3 71 fe 62 8d 44 b1 3f d7 ad b8 54 ff e9 ad 3f
       0.06745227495998289 0.05842588338085946
000220 29 e2 43 b5 3e a5 b4 bf 78 5e dd 5f 32 e3 92 bf
       -0.0806464378873747 -0.01844481191741784
000230 c5 aa c1 8e 4a 5e ad bf 5f e3 d4 67 ce 4d 90 bf
       -0.057360010076839475 -0.015921807372453297
000240 7b 9f 3a 23 3e 8a b6 3f 29 d3 83 d8 92 4d b1 bf
       0.08804691658099088 -0.06758992944726273
000250 53 eb 95 db 81 79 b4 3f 4a 88 09 01 f2 7d b8 3f
       0.07997905360200024 0.09567177319834844
000260 52 71 79 ed 09 e8 a8 3f 5f 6d 7c 85 fe 9b 97 3f
       0.04864531539780849 0.02305600824102549
000270 01 09 8a a8 b6 f0 a8 3f 89 47 b5 17 85 ec b1 3f
       0.048711498330719756 0.07001525715648262
000280 fe db 8b b9 1e 5b 76 bf 14 fc e8 26 50 2a b2 3f
       -0.005457992571556323 0.07095814657166982
000290 7a 29 01 95 ec 82 b6 bf e2 7f d1 72 eb 90 ac 3f
       -0.08793524396711475 0.05579314972487716
0002a0 82 01 ca 9b 0b 6e b6 3f dd 0b 84 d9 34 f7 b5 3f
       0.08761665872044058 0.08580332098431094
0002b0 b6 38 7e d7 01 90 af bf 04 a1 b0 d0 a1 15 b2 bf
       -0.061645562701515486 -0.07064257950753833
0002c0 58 c6 60 24 5e 88 86 3f e5 1c e2 7c 94 48 af bf
       0.011002288327378526 -0.061100616688287514
0002d0 cf 19 a6 b3 3e df 51 3f 09 b3 44 b8 f2 d1 af bf
       0.0010908233949479156 -0.06214865207070914
0002e0 51 f4 64 7d c8 2e 96 3f 04 cf 7c 6d f4 58 96 3f
       0.021662838605369498 0.02182371061571954
0002f0 15 86 c8 f2 fe c5 b9 3f 72 2b 06 95 1c 14 64 bf
       0.10067742755247651 -0.002450996231521279
000300 91 16 5b c5 f3 fd b9 bf 97 db e0 84 1a ad a1 3f
       -0.10153125351197391 0.03452380058336429
000310 67 0b 8c 1c 26 64 a6 3f 52 21 3a 94 47 ad b4 3f
       0.04373282526468963 0.08076903694939588
000320 43 95 2f b3 75 8e 9e 3f 1b ea 51 4b fa 3f a3 bf
       0.029840315877568867 -0.0375974862044652
000330 23 58 9c 4b 61 27 b5 3f b7 0c ec 49 55 98 b4 bf
       0.08263214202847328 -0.08044941954362882
000340 df 95 24 fe 7f 49 ae 3f d9 39 e9 11 eb 9c b3 bf
       0.05915451028185336 -0.07661313235551094
000350 59 8f de 4b 01 ab b9 3f c3 75 b3 cb 24 dd 80 3f
       0.10026558019904765 0.008234298197232875
000360 62 f3 44 8b a1 d8 6e 3f f3 23 5a b4 d5 d8 b4 3f
       0.0037654071003587067 0.08143363621833526
000370 c9 6f a1 67 07 e1 86 bf b6 85 0d 79 fb 56 96 3f
       -0.011171396112494751 0.021816186202504993
000380 fd 5a 23 bc aa 23 85 bf 55 63 95 79 d8 85 b7 3f
       -0.010321935526389487 0.09188607185695948
000390 31 cc f1 e1 12 29 b6 3f 0a 89 0c 05 8d 89 91 bf
       0.08656423584197694 -0.01712627738300746
0003a0 89 8c 98 8b 20 ba 98 bf e0 26 fe 16 1a e8 af 3f
       -0.02414751865411494 0.06231767206834404
0003b0 fc ba ce af 2e 4c b1 3f d4 5f 72 8a 47 1a b7 3f
       0.06756870071579252 0.09024474268005572
0003c0 7d 85 f8 d1 a1 f1 8e bf 64 43 d5 75 12 58 81 bf
       -0.0151093141749381 -0.008468765469531632
0003d0 9d d4 4f fb 59 00 b1 3f 4f 7f ed 0f 6d df a8 bf
       0.066411613326482 -0.048579605287840104
0003e0 05 83 e8 92 02 80 a6 3f a5 d1 d9 ab 46 71 9f 3f
       0.043945389207015885 0.0307055513753355
0003f0 8f ad 2b a3 2b a4 b1 bf 8e ea d3 b6 16 90 85 3f
       -0.06891129239709513 0.010528733686887361
000400 6a 94 2f 16 79 92 9e bf bc 3c bb 88 d5 1e a7 3f
       -0.029855625132672627 0.04515712064823549
000410 34 a3 38 ae 5b 2f b0 3f 39 a8 79 30 ab 59 b7 3f
       0.06322262767265557 0.09121198590733649
000420 40 18 68 ef 9d 43 b2 bf fe c0 e9 b4 04 f4 7b 3f
       -0.07134425253761467 0.006824510941996429
000430 53 ee b0 5a d9 c4 a7 bf df d5 70 03 18 d9 b4 bf
       -0.04642371398992098 -0.08143758853915227
000440 6e 79 9f df 63 b3 b7 bf 4e 96 19 7a 6f 6e b6 bf
       -0.09258102616829486 -0.08762261134105495
000450 13 1d 8c ac 2c 04 b2 3f 33 39 3d 6f 3a f8 84 3f
       0.07037619793492338 0.010239082832097601
000460 16 4a 41 24 b1 b6 b7 bf cb 69 04 7a 7f 9b 9e 3f
       -0.09263140807278378 0.029890052625981583
000470 b3 67 48 a3 c3 48 b1 bf 30 2a f0 bd 65 56 b9 3f
       -0.06751654373547815 0.09897457015191757
000480 29 3e b3 2e ef 66 b2 bf 26 cc 8f fd e2 68 a8 3f
       -0.07188315286770632 0.04767522187457755
000490 a1 1a 8a 99 2b d8 b3 bf 2c 7f 3a c5 f7 97 b3 bf
       -0.0775172471859187 -0.07653759541653632
0004a0 db d8 5b 48 1b e3 b8 3f 61 e9 d6 f7 66 47 20 3f
       0.09721537128993722 0.00012419826445670814
0004b0 d0 63 84 ca 84 55 b1 bf cc c5 c5 0e a4 80 9a bf
       -0.06771116203562078 -0.025881350900311337
0004c0 29 47 ca a9 75 8c ae bf ba 4e 2b 25 02 41 b5 bf
       -0.05966537187226912 -0.08302319915247383
0004d0 29 ff 3f ef e0 d4 92 bf fb 77 6a e3 0a 2a b7 bf
       -0.01839019260660205 -0.09048526813646156
0004e0 9a ba 62 47 b2 44 b3 bf 63 06 00 da 8d 79 a0 bf
       -0.07526697390378914 -0.03217738424428942
0004f0 38 0c cc bc 4d a0 92 3f 3f c1 bc a6 fc b2 a2 bf
       0.01818963494134726 -0.0365218118225834
000500 44 24 a3 b0 c8 cb ab 3f 40 f6 3a e5 20 63 a7 3f
       0.05428912311760617 0.04567816541883163
000510 b8 b3 08 28 83 79 a5 3f d4 aa b9 6a 26 0c 9a bf
       0.041942690503084135 -0.02543697382354078
000520 0f ea b4 36 4a 74 87 3f 6c 9a a9 a7 e5 90 a0 bf
       0.01145227412654484 -0.03235547706281214
000530 4e c9 8b 22 ad 0d b2 3f e2 39 71 f1 ae 14 b7 3f
       0.07052118390473547 0.09015935320460458
000540 c1 8c bc 12 0d 3e b1 3f 6b cb 4f cb 17 ac 92 bf
       0.06735307414469373 -0.018234607490693316
000550 10 02 50 4d 11 88 b2 bf 4f c6 57 35 aa 61 b2 3f
       -0.07238872659218765 0.071802747748529
000560 42 91 a1 62 cd 7d a8 3f ae c7 70 f9 d2 eb ba bf
       0.04783479527466962 -0.10516089048249341
000570 86 4d 42 f3 ea 57 b9 bf 3e 8b 0a e6 db 1b a3 bf
       -0.09899776877346342 -0.03732192214126549
000580 08 8f b9 e8 f2 d4 a3 3f 37 f9 61 08 af 07 a4 3f
       0.03873404589537982 0.03912112214401236
000590 a4 d1 1e 13 9b b6 b9 3f 66 7e 50 5d 3f 89 b8 3f
       0.10044259278112705 0.09584423092064184
0005a0 83 d5 21 77 4d a0 ae 3f 3a d6 1e 25 09 26 b9 3f
       0.059816761772633086 0.09823662906895772
0005b0 e4 26 04 19 e8 7b 77 bf 1c 25 60 68 c0 2d 90 bf
       -0.005733400947301102 -0.01579952847535991
0005c0 d9 9e 9b a4 6c 1e ad bf 23 42 9d 53 88 16 94 3f
       -0.05687274464963616 0.019617204764758377
0005d0 61 09 2f a3 37 86 a1 3f 83 59 e2 fa c3 67 bc bf
       0.03422712199200607 -0.11095833659269343
0005e0 0b ae e0 f8 5f cb a7 bf 00 7e 2e 93 26 f8 a2 3f
       -0.04647350228364296 0.03704948946619524
0005f0 92 18 9a 9f 1e 3c ab 3f 0e e2 79 30 26 6e b7 3f
       0.05319305132165754 0.09152449306009933
000600 1b 5b d3 c8 e1 95 74 bf ae 72 0b a8 ea 50 92 3f
       -0.005025751085858922 0.01788679743445936
000610 e5 db 91 eb fc 2e b8 bf df 8c c7 35 ab 8f a8 3f
       -0.09446697951521761 0.04797110587585406
000620 05 90 46 fc 77 2b a4 bf b2 05 12 23 c0 f9 ae bf
       -0.03939413980995713 -0.06049919536691152
000630 0c 7e f8 12 cd ae 92 bf ef 4e e0 fa 67 18 b1 bf
       -0.01824493816650201 -0.06677865862758002
000640 7b 7d 97 32 73 ef 99 3f df fa f1 bf 7b 6a b6 bf
       0.025327491724849587 -0.08756230770266481
000650 ed 69 8d 7c 4d 19 a2 3f 95 82 48 fd 95 ee ae 3f
       0.03534929414191255 0.06041401593052346
000660 ac c9 89 bc d9 fd 77 bf f0 21 fb 94 6a 18 a5 bf
       -0.005857325108637939 -0.041201906858592596
000670 f0 61 fe 71 ad ed b3 3f 2b 87 5a 6f 07 08 99 bf
       0.07784542115258097 -0.024444690867887402
000680 fd 73 77 6e 8c 11 a4 3f 4e 78 93 14 88 57 b4 bf
       0.0391963848921719 -0.07946062567086296
000690 be 9d 30 e9 73 d7 ad 3f 1a 56 b7 37 e9 e6 b9 3f
       0.0582843992381714 0.10117967233903649
0006a0 5e 13 1c ee 43 ab 88 3f 28 d8 ae 6e 04 c4 ae 3f
       0.012045412735014412 0.06008924342260996
0006b0 94 12 a8 a5 b1 c9 b4 bf 76 e3 97 ba 6e db ab bf
       -0.08120260519360506 -0.05440851238012716
0006c0 b9 0f 5b 71 a0 5d a7 3f c7 d6 5b 7d a3 15 94 3f
       0.045636190259329586 0.0196137948286921
0006d0 6c e1 00 fa 71 44 b7 3f f6 d3 52 39 e0 82 8d bf
       0.09088814118957139 -0.014409782170654122
0006e0 38 c1 02 d7 47 2c b2 bf 1e 10 71 58 da 8b 9f bf
       -0.07098816870962288 -0.030806934021043834
0006f0 bb a5 95 a3 7a 9d a9 bf 66 55 8c 67 cc 90 b9 3f
       -0.05002959486848676 0.09986569908172313
000700 25 af a9 5a 81 b0 8b bf f5 e4 50 82 bf f7 43 bf
       -0.0135202508729076 -0.0006093678572433302
000710 e0 37 29 82 71 a5 a4 3f b4 4b 6e cd ed 2d 72 bf
       0.04032473291282179 -0.004438332477451224
000720 69 c9 19 13 e9 fb 67 bf 23 72 bf 17 7b 91 93 3f
       -0.0029277374495048536 0.019109652828648415
000730 a2 5e 8a f1 bc e2 aa bf 20 ea 0c d0 fa 52 97 3f
       -0.05251112411968718 0.02277748007620961
000740 cd 21 c4 fa 0d 91 71 bf 96 95 3a b2 20 2f b4 bf
       -0.004288725478780409 -0.07884411193170701
000750 61 f1 07 17 fd 6d 85 3f c4 0d cb 28 06 b6 b5 bf
       0.010463692918158686 -0.08480871673514573
000760 40 e3 88 85 97 77 af bf f5 e2 23 66 43 7e b9 3f
       -0.06145928864538641 0.09958287471443923
000770 75 be 25 e0 ab d1 b1 bf 7d ea f5 45 ff f3 ac 3f
       -0.06960558149671121 0.056549050607789454
000780 86 89 39 ad 49 95 b1 bf ba 2f ac 50 12 09 a4 bf
       -0.06868420104141224 -0.0391317103841113
000790 5d 0a e4 49 7d 14 b8 bf 9e 16 72 9c 6e 21 b8 bf
       -0.09406264356588552 -0.09426013297533095
0007a0 9d 9a ee eb f2 d6 a6 bf fe 45 04 dc 38 2e 9d 3f
       -0.04460868005781047 0.028496635845902667
0007b0 c2 a6 55 93 c8 48 b5 3f 24 f2 ef 26 21 53 6a bf
       0.08314183804545919 -0.003213467359726845
0007c0 a8 d0 9a 35 4d be b3 3f 72 03 ab c5 73 af b7 bf
       0.0771225219603503 -0.0925209386432593
0007d0 4e 57 5d 6c 37 68 ad 3f a0 96 21 6c 81 48 a2 bf
       0.05743573377428267 -0.035709423493966996
0007e0 d6 04 ec e1 07 92 b6 bf 79 87 1e e9 a2 77 b6 bf
       -0.08816575303719118 -0.08776300612819722
0007f0 8e 87 d2 17 ac 46 a9 bf c9 7f c3 04 30 5a b0 3f
       -0.04936731138992832 0.06387615314770224

linear.bias f8 [128]
000000 76 d2 be 42 c8 de b3 bf 64 73 7c aa df 41 a3 bf
       -0.07761813764120426 -0.03761195140962206
000010 72 7c 53 47 ba 84 7f bf 6b c7 a2 4f bf 77 a5 3f
       -0.007694938326692756 0.04192922446362853
000020 66 48 b4 f3 34 32 a7 bf b5 97 2f f4 a6 fe a9 3f
       -0.04530492281823299 0.050770966823434995
000030 94 21 d0 16 01 a6 a1 bf 5f 53 ed 98 be 35 ab bf
       -0.034469636950294064 -0.05314441315446205
000040 00 00 00 e0 88 e5 ae bf 16 5a d3 b4 8a 94 a5 3f
       -0.060344960540533066 0.04214890916198415
000050 68 6f 77 fb 9a c6 b6 3f 00 00 00 40 9a cd a3 bf
       0.08896797789878763 -0.03867799788713455
000060 32 8d eb af d2 3e 8f 3f 00 00 00 80 68 c5 b2 3f
       0.015256544107109169 0.07332471013069153
000070 9e fc 81 9a d0 f5 b4 3f 8f 83 56 7f 28 5e b5 3f
       0.0818758370605672 0.0834679900058417
000080 73 0f 82 0d 3c bf b4 3f fd f1 7d aa dc ba 80 3f
       0.08104300813471159 0.008168910935403945
000090 00 00 00 c0 4e a7 a1 bf 88 10 ed 3c bf 0a b5 3f
       -0.03447958081960678 0.0821952365632247
0000a0 10 9a c1 f6 a2 65 ab 3f e7 39 32 21 9c d3 95 bf
       0.053509800550092135 -0.021315040136466037
0000b0 33 3e 1c 06 25 d2 98 3f 04 48 db dc 61 6b ad 3f
       0.024239138124413095 0.057459886751203754
0000c0 7c 07 61 b5 79 5d b1 bf 00 00 00 60 47 2c ba bf
       -0.0678325717754244 -0.10223814100027084
0000d0 ca 25 cf de 70 ba 93 3f 00 00 00 00 25 f3 ab 3f
       0.019265903090660598 0.054589420557022095
0000e0 4f c9 cd cb 7d 25 a8 3f 00 00 00 60 5f f3 a8 bf
       0.047161036613845846 -0.048731785267591476
0000f0 d8 a4 38 62 79 d6 92 bf 00 00 00 c0 52 ab a1 bf
       -0.01839627897257831 -0.03451021760702133
000100 99 77 76 be e3 ef 9d bf 84 81 3c 98 45 fe a7 bf
       -0.02923541879646727 -0.046861815293826076
000110 00 00 00 c0 af 0b b0 bf 00 00 00 80 44 ae 96 bf
       -0.06267832219600677 -0.02214915305376053
000120 97 aa 9f a9 85 88 80 bf 7a fc 23 c9 8b e9 b3 bf
       -0.008072895277981202 -0.07778237972887495
000130 7c d4 20 f9 fd 4a b6 3f 19 73 5d 46 f8 8e b4 3f
       0.08708178837044217 0.08030654638191627
000140 02 a0 ee af 20 e0 a5 3f 4f 32 8f e3 45 82 b0 3f
       0.042725583530511826 0.06448780828140709
000150 ad fd 22 8e d4 82 aa 3f 15 53 a3 19 77 e3 b7 bf
       0.05177940592829642 -0.09331459403922467
000160 e9 f5 ce aa 52 7b a2 3f a4 6f c7 c4 fa 97 b0 3f
       0.03609712920249903 0.06481902412582358
000170 ed 73 9f 38 54 64 91 bf 88 ce fa b3 c1 d3 9d bf
       -0.01698428721998717 -0.029128100023355447
000180 00 00 00 00 d4 ca 91 bf 0b 86 a5 53 f4 c1 6a bf
       -0.017375290393829346 -0.0032663127905585613
000190 6d bd 0e e8 11 bf a0 3f e8 8e 8c a9 3a 18 b2 bf
       0.032707748010006955 -0.07068220748311271
0001a0 e4 48 77 7d 27 2a b0 bf e5 9c 57 0a 03 98 a3 3f
       -0.06314322293409053 0.0382691335797121
0001b0 ca d3 49 1e fa c1 b7 bf 00 00 00 80 3d 12 a3 3f
       -0.0928036045023212 0.03724853694438934
0001c0 ed f8 54 25 8c 6f b4 bf d3 31 7a 87 fa 32 b8 bf
       -0.07982707892822179 -0.0945278721575911
0001d0 35 b8 40 ac 81 a2 a9 bf 3e cc b7 59 d8 6f 90 bf
       -0.050067951466516915 -0.016051655269574854
0001e0 2b c8 c3 d1 bf c3 9b bf 00 00 00 00 16 26 b9 3f
       -0.027113911798501682 0.09823739528656006
0001f0 b5 81 85 8e 22 91 ae 3f c9 3b ef eb 17 66 97 3f
       0.059701042077679935 0.02285039308099693
000200 00 00 00 00 22 7c 9c 3f 00 00 00 00 ea 61 71 3f
       0.02781727910041809 0.004243768751621246
000210 31 d0 a5 8e 1f 5b a9 3f 59 35 66 70 9a 2e 96 3f
       0.0495233403807166 0.021662152395540122
000220 37 8a 64 4e 25 1c 9e bf 00 00 00 00 b3 7e a1 3f
       -0.02940424242945935 0.0341697633266449
000230 e8 d2 bb c3 b5 47 89 bf d8 1e f3 58 f0 cb ad 3f
       -0.01234380725461777 0.05819655500232351
000240 d1 37 a5 db e1 c7 b1 3f 00 00 00 00 f6 2a 94 3f
       0.06945621120868785 0.019695132970809937
000250 5c 32 f4 29 91 ac 6c 3f 03 44 cf fc 67 f0 b1 3f
       0.0035002551300123263 0.0700745575152411
000260 5c ff c6 ea cc 6b b0 bf 00 00 00 00 df bc 8f bf
       -0.06414490444057946 -0.015496961772441864
000270 00 00 00 c0 53 9a b9 bf fc 77 bc 38 42 b1 a5 3f
       -0.10001109540462494 0.0423680013902725
000280 28 94 ae 7b 6a 61 b9 3f 19 90 5e 7f 4e 67 a9 bf
       0.0991426994283563 -0.04961629204561308
000290 00 00 00 00 45 9f ad 3f d7 5b 44 b8 49 b9 a5 3f
       0.0578557550907135 0.04242926000932073
0002a0 93 77 f5 29 9c ba aa bf 00 00 00 40 97 0a b9 3f
       -0.05220497142975868 0.09781785309314728
0002b0 97 35 f5 3d c2 e0 97 3f 00 00 00 00 18 fa 60 bf
       0.02331832411919307 -0.002072378993034363
0002c0 55 35 02 47 5b b5 75 3f 9a 45 ec 7e dc 61 b0 3f
       0.005299908210998201 0.06399324511246221
0002d0 9d 1a 88 7b 10 cc 87 bf 00 00 00 40 a4 be b2 bf
       -0.011619690675627676 -0.07322145998477936
0002e0 a5 e1 fa 38 a7 df 93 bf 00 00 00 80 4a 2e 90 bf
       -0.01940785680082659 -0.01580158621072769
0002f0 ed e1 63 d8 09 1c a4 3f 00 00 00 80 b0 4d b3 3f
       0.039276416458907316 0.07540419697761536
000300 77 5d 1b c9 c3 e8 75 3f 14 33 ac 59 39 6c 9e bf
       0.005348934924504937 -0.02970971689051101
000310 00 00 00 00 4c f1 67 bf cd d8 e6 07 7f b9 a8 bf
       -0.0029226765036582947 -0.048290223803108746
000320 66 ab c8 2b 4a 8d b3 bf 34 62 90 dc da 2f b2 3f
       -0.07637466019575143 0.07104270825255626
000330 39 3e c0 95 ce 65 90 bf 00 00 00 00 57 cb 84 3f
       -0.016013362779686544 0.01015346497297287
000340 19 b0 ee b4 d8 7a a0 bf d7 4e 2a 4b 48 3b b9 bf
       -0.03218724449774885 -0.09856082758988848
000350 7d 42 c0 68 97 5c b5 3f 6d 1b 6d ee d6 07 b2 3f
       0.08344408328435722 0.07043212243034498
000360 9e 99 db f6 6e 81 7e 3f 83 61 15 24 73 74 b3 bf
       0.007447656111003202 -0.07599563246674816
000370 00 00 00 80 90 43 ba bf 00 00 00 00 22 bd a2 bf
       -0.10259345173835754 -0.03659921884536743
000380 17 55 a1 f0 0b d7 ad bf 13 95 24 59 9b 85 a7 bf
       -0.05828130066280773 -0.0459412142102257
000390 00 00 00 80 34 dd a6 3f 00 00 00 40 98 5d b5 3f
       0.044656410813331604 0.08345939218997955
0003a0 68 2e 13 1d 26 c5 af bf 75 5b be 1c 6e 75 b2 3f
       -0.06205100159567395 0.07210434152362473
0003b0 30 19 b2 b3 22 79 b7 bf 00 00 00 00 78 db ae 3f
       -0.09169213187314962 0.06026816368103027
0003c0 2f 4f c6 dc 2a 04 a6 3f 15 99 4f 3f a5 d1 b0 3f
       0.04300054497721672 0.06569893642117493
0003d0 b1 e5 78 ac bc 1e b0 3f b1 6f f8 65 7e f1 a3 3f
       0.06296900950191887 0.03895182604557535
0003e0 00 00 00 c0 38 58 b7 3f 00 00 00 00 56 53 7e 3f
       0.091189906001091 0.0074036940932273865
0003f0 0e 96 c7 5d 02 14 9d 3f 59 80 0f 21 1f de ad 3f
       0.02839664170632799 0.05833527830668634

linear2.weight f8 [64, 128]
000000 7a d0 a8 a5 18 0d a3 bf 8f b2 8e bb 34 f2 ac bf
       -0.03720929166993954 -0.05653538503188315
000010 a8 71 50 c9 73 a2 99 3f d3 c1 f4 00 0d 41 49 bf
       0.025033768808599227 -0.0007706941122816398
000020 54 c1 cc 34 7f 39 82 bf bd 35 31 46 4f 70 a6 3f
       -0.008898729132483275 0.043825604742419234
000030 53 e9 d0 8d 15 91 ae bf d3 3b ac c5 d8 35 a8 bf
       -0.059700654565363685 -0.047285818223933206
000040 00 00 00 60 c0 b0 b4 3f 60 e6 9c ba f2 2b b1 bf
       0.08082201331853867 -0.0670768457029225
000050 f7 4f 39 eb 46 0f 90 bf 00 00 00 60 b3 61 b6 bf
       -0.01568327723209958 -0.08742829412221909
000060 b6 cd b8 9c f0 02 b6 bf 00 00 00 00 6b be 8e bf
       -0.08598235918252936 -0.015011630952358246
000070 56 92 02 a1 14 1d a5 3f e2 c3 22 51 19 90 a8 bf
       0.04123749223189026 -0.04797438731601013
000080 06 7b c9 d3 95 71 a2 3f 5b 5c 50 be 7e 4d b7 bf
       0.03602283678332267 -0.09102623125396418
000090 00 00 00 80 8f 96 b4 bf b2 77 db 3b fc f2 95 3f
       -0.08042237162590027 0.02143472781505524
0000a0 01 8c 87 f9 45 5a 9d bf 9a 95 ab 8b 69 38 b3 3f
       -0.028664677958555988 0.07507953319471597
0000b0 30 d2 74 ad 4f a4 91 bf 42 a1 ac 08 78 64 93 3f
       -0.017228360139784182 0.018937945870818547
0000c0 a3 46 1a b5 23 72 70 3f 00 00 00 40 59 7b ac 3f
       0.004015101892621028 0.05562857538461685
0000d0 54 f0 13 9d a7 2d b4 3f 00 00 00 00 91 59 9c 3f
       0.07882163605603526 0.027685418725013733
0000e0 6c 48 dc 1f 08 a5 af bf 00 00 00 40 6d 3f a4 bf
       -0.06180596722528339 -0.039546407759189606
0000f0 b5 76 1d ec cf 57 a2 bf 00 00 00 00 4d ef ab bf
       -0.03582620389236749 -0.0545600950717926
000100 9a 70 6a 78 40 b3 b2 bf 9e e2 59 70 a4 a3 99 3f
       -0.07304766597593684 0.025038308484428222
000110 00 00 00 80 07 70 9f bf 00 00 00 00 e1 0a 93 bf
       -0.030700795352458954 -0.018596187233924866
000120 88 6d 5e 62 a5 0e b0 3f c3 7c 18 74 ea ab a2 3f
       0.06272348071654765 0.03646786372359536
000130 35 df dd 9d 30 f5 a1 3f 6e 3a 51 5d a0 4c b3 bf
       0.035073775549732046 -0.07538797643904058
000140 69 64 5f 04 a7 94 b0 3f 29 1f 78 f7 7f cf a8 3f
       0.06476825577500879 0.04845809837212151
000150 41 d3 6d b7 1b a0 a0 bf 13 19 03 5f 8a 51 a1 3f
       -0.032471529141651086 0.03382522973838511
000160 e6 49 06 36 24 c8 95 bf bb b8 4c ed bb 0f 95 bf
       -0.021271291539571545 -0.020567833288787734
000170 cd eb c4 46 54 14 b0 3f 39 45 c5 66 0e 73 b4 bf
       0.06281019904865488 -0.07988061913535639
000180 00 00 00 00 e0 92 83 3f d8 3d c1 e0 c6 19 96 3f
       0.009557485580444336 0.0215827059440111
000190 08 a8 2e 8d b3 c4 a2 bf 70 cf 6b eb 85 af b7 bf
       -0.03665696237960964 -0.09252202031694678
0001a0 a2 8d 5d 1e e7 6f b1 3f 71 e7 64 05 20 0e a0 3f
       0.06811375132888611 0.03135776582571637
0001b0 1b dc 74 77 b4 3c b4 3f 00 00 00 80 f9 f0 b0 bf
       0.07905128399293952 -0.06617698073387146
0001c0 36 11 bf 66 36 a5 a0 3f 67 f3 e2 fa 04 9b 80 bf
       0.03251047138431533 -0.008108176142167257
0001d0 42 d6 31 67 71 93 8d 3f e8 ab 11 cf b7 36 a8 bf
       0.014441381417991232 -0.04729246523569214
0001e0 a2 25 f0 21 cd 94 a3 3f 00 00 00 00 78 82 85 3f
       0.03824463881762631 0.010502755641937256
0001f0 c8 c0 61 a9 b5 97 b0 bf 59 63 8f 92 55 7f a1 3f
       -0.0648149050264265 0.03417460836471404
000200 00 00 00 80 10 d5 a1 3f 00 00 00 00 df f0 8e 3f
       0.03482867777347565 0.015107862651348114
000210 92 d2 f2 5d 59 3e b6 3f 49 11 d2 a7 4c 69 b4 bf
       0.08688887160935568 -0.07973174187833822
000220 6f 38 a5 6a 55 35 b5 3f 00 00 00 c0 e2 b2 a4 3f
       0.08284505704543375 0.04042728990316391
000230 07 74 ad a2 21 b1 b1 bf e0 b3 4d d0 d7 f0 a9 bf
       -0.06910906049365916 -0.05066561143653536
000240 b9 55 c4 95 79 fe b4 3f 00 00 00 a0 0b cf b3 3f
       0.08200797945422424 0.07737801223993301
000250 d7 01 09 99 40 9c b4 bf 9e a5 d1 fd b3 c9 b2 3f
       -0.08050922142229609 0.07339024492980292
000260 db 81 3b 82 7a 3b 98 3f 00 00 00 80 9c 20 9a 3f
       0.023664392660863825 0.025515027344226837
000270 00 00 00 c0 d7 41 9c bf c9 3d 61 e6 14 08 96 3f
       -0.027594920247793198 0.02151520401122101
000280 ff 60 15 c3 aa 75 b0 bf f3 cf 8b 5a 11 2b a6 bf
       -0.06429545653134382 -0.04329733114528258
000290 00 00 00 00 32 a9 97 3f 8e d2 8e b4 10 12 91 bf
       0.023106366395950317 -0.016670475979213388
0002a0 7e 45 89 8c 18 f1 a4 bf 00 00 00 20 74 52 b1 3f
       -0.04090191569833744 0.06766439229249954
0002b0 93 4a 6e 4a d8 c8 aa 3f 00 00 00 40 c3 75 a1 3f
       0.052313574872774236 0.03410158306360245
0002c0 55 dd b9 50 aa d1 b5 3f 5b d4 fd b4 d0 1a b4 bf
       0.08523048849916866 -0.07853416842211074
0002d0 56 d6 46 ce ef 73 8b bf 00 00 00 00 af 65 81 3f
       -0.01340472553497844 0.008494727313518524
0002e0 4f cb ee 67 cf ba b0 3f 00 00 00 c0 eb a3 a7 3f
       0.06535049712583184 0.04617249220609665
0002f0 5a d0 45 97 9f 77 70 bf 00 00 00 a0 16 d5 ab bf
       -0.004020331766117458 -0.05436011031270027
000300 a9 c0 2f f2 91 73 b2 bf d9 17 5a 48 20 cf a4 3f
       -0.07207595980412641 0.04064274676515795
000310 00 00 00 00 ad 48 85 3f 62 f5 77 63 ab 9e 7b bf
       0.010392524302005768 -0.006743115889091685
000320 98 29 3d 9f 76 69 a9 3f 54 4c 8d 63 53 39 b0 3f
       0.04963274663767264 0.0633747213408225
000330 76 2c 96 3c 1f 66 ac 3f 00 00 00 c0 d4 51 ae bf
       0.05546662916739191 -0.05921807140111923
000340 94 d9 31 20 3a 3f b7 bf bb 24 8c c7 9e 3f 65 3f
       -0.0908085182762533 0.002593813053299058
000350 de 45 c4 c9 01 71 a9 3f 75 86 15 2e e5 9a a7 3f
       0.049690299873087915 0.046103631854532624
000360 7f ce 5e af ac a9 a4 3f 24 00 45 28 23 1b b2 bf
       0.040357014091026315 -0.07072658284323602
000370 00 00 00 40 39 d5 ab bf 00 00 00 c0 20 27 aa 3f
       -0.054361142218112946 0.05107977241277695
000380 8e 6e 55 e8 a2 38 b4 bf 37 0f b8 5f d4 ed b0 bf
       -0.07898920223436276 -0.06612899147881711
000390 00 00 00 40 b1 67 ae 3f 00 00 00 20 73 25 b3 3f
       0.05938486009836197 0.07479018718004227
0003a0 9d c5 93 6a c4 82 71 3f f0 15 03 56 b9 02 90 3f
       0.004275099993934187 0.015635391115912556
0003b0 71 c8 f7 38 67 74 a4 3f 00 00 00 00 4d e2 91 bf
       0.039950586036767606 -0.017464831471443176
0003c0 ee 1d 84 cb 4d ce a7 3f 26 58 f4 5e 32 63 94 3f
       0.0464958487446515 0.01990965561443416
0003d0 9d 56 94 10 d9 81 ad 3f 92 fd d1 10 52 ab a2 3f
       0.05763128592859099 0.03646332221341732
0003e0 00 00 00 40 0d ab a2 bf 00 00 00 40 0a a8 a3 3f
       -0.03646127134561539 0.038391418755054474
0003f0 eb 69 2e 46 b3 58 55 bf 67 10 1f 06 87 75 92 bf
       -0.0013028860782698891 -0.018026456593148412
000400 a3 e3 25 0e df a4 b0 bf ef 0c 81 7f 0c 3a 80 bf
       -0.06501573653612396 -0.007923219338528102
000410 b6 ba b8 fa 2d c5 aa 3f 64 d0 16 9d 79 40 76 bf
       0.05228561101499933 -0.005432581952323632
000420 9c 49 71 c1 fd 3f 7c bf 62 a6 6d b1 eb 20 ab bf
       -0.006896964295338395 -0.05298553982613609
000430 63 ad f8 8d 15 5f b1 3f bf bc 22 c6 09 6f ad 3f
       0.06785711971376922 0.05748777907990065
000440 00 00 00 c0 49 5d ab 3f a4 c7 75 37 b3 f1 ae bf
       0.05344610661268234 -0.06043777515414142
000450 fd 24 fc ea 06 a4 aa 3f 00 00 00 40 81 59 a1 3f
       0.05203267687290667 0.03388599306344986
000460 db 2c 83 48 a0 c6 a2 3f 00 00 00 00 c4 90 90 3f
       0.036671646930324285 0.016177237033843994
000470 dd 7c 05 4e 5d ba a9 3f 7f 0f 1b 90 10 21 a7 bf
       0.0502499730816852 -0.0451741386328015
000480 71 30 d4 b0 e4 f3 84 bf ae 70 80 c6 60 26 95 bf
       -0.010230814596546818 -0.02065421306188913
000490 00 00 00 c0 16 19 a7 3f 63 36 7c 2f 29 63 a8 3f
       0.04511328786611557 0.04763153748181705
0004a0 ef b7 b6 d2 7c 65 b3 3f f7 31 bc 0c 52 1c b4 bf
       0.07576732773188131 -0.07855713663975182
0004b0 48 dc 61 17 cf c2 b8 3f c6 9e cc a3 fa 62 aa bf
       0.09672254868370189 -0.05153640031340738
0004c0 c6 8c 28 ec 7c 33 b4 3f 00 00 00 e0 fe 01 b4 bf
       0.07891064420305147 -0.07815545052289963
0004d0 0d 88 c8 c6 2d e4 ac 3f 00 00 00 60 9c 96 b1 3f
       0.05642836619905731 0.06870438903570175
0004e0 84 a9 5a bd e0 6c ba 3f 00 00 00 00 19 86 84 3f
       0.1032238447466281 0.010021395981311798
0004f0 be 18 88 ca aa 5d a0 bf 00 00 00 80 27 61 97 3f
       -0.03196462366399676 0.022831551730632782
000500 c2 6f 86 df b5 79 97 bf 0c 91 3c 46 72 d6 a1 3f
       -0.02292522599019243 0.03483922107105472
000510 00 00 00 60 f3 1f b0 3f 00 00 00 a0 ce 75 b4 3f
       0.06298752874135971 0.07992259413003922
000520 3f 1f 9b 43 a7 c9 bc 3f ef f9 29 ab 64 fa b7 3f
       0.1124519863179758 0.09366444758231983
000530 04 e6 08 85 af 41 a6 3f 1f 13 61 08 03 a8 a8 3f
       0.04346989153823347 0.0481568286636842
000540 fd c0 a4 6c de 00 a1 3f 3b 18 18 0d ec 67 b7 bf
       0.03320975376334621 -0.09142947501831682
000550 c2 a0 77 c4 98 de b2 bf 8d f6 b2 ff 32 62 b1 bf
       -0.07370905682148801 -0.06790465109494388
000560 cb 21 ed 8f 63 db a0 bf d2 bc 42 20 49 68 b2 bf
       -0.032923804587486304 -0.07190377271284668
000570 56 84 4e 49 49 5c a8 bf 81 8e 96 38 d2 ef aa bf
       -0.047579088400433164 -0.05261094036839343
000580 00 00 00 e0 3b 79 b0 3f d8 ea bc 48 fb a9 b0 3f
       0.06434988230466843 0.0650937130530268
000590 c1 0a f7 0c 4e 6c aa 3f bf 17 1a b3 f7 84 b3 3f
       0.0516075506998468 0.07624767420392596
0005a0 9a aa 12 0c f1 27 97 3f b1 0e 2d b4 7c 13 6b bf
       0.022613302575943274 -0.0033051906224573426
0005b0 e3 07 c5 ba bb 1f b1 bf 00 00 00 20 f6 1e a1 bf
       -0.0668904620152087 -0.03343934193253517
0005c0 84 dd 7f 8d a9 ac b0 3f 55 d9 74 b0 d3 31 a4 bf
       0.0651346178491306 -0.03944264916428845
0005d0 5f 0e 0a 4e 53 39 6f bf 75 54 ed 03 f2 f3 85 bf
       -0.003811514572875471 -0.010719195122570671
0005e0 b4 95 16 93 27 27 b3 bf 00 00 00 00 fe b9 96 bf
       -0.0748162016012291 -0.022193878889083862
0005f0 60 b1 5c 1a fb c6 a7 3f f0 f0 5b 58 0d 58 ac 3f
       0.04643997856905702 0.05535928443529936
000600 00 00 00 80 49 b8 a1 3f 00 00 00 e0 36 62 b5 3f
       0.034609124064445496 0.08352988213300705
000610 25 7b d2 f1 8d 87 b1 3f c5 f7 8f 4b bb 14 9b 3f
       0.06847464708196734 0.026446272360764817
000620 11 4e 8b 27 1c c3 a8 3f 00 00 00 40 23 ec a6 3f
       0.04836357100216671 0.044770337641239166
000630 b4 87 3e 1c 29 8f b0 bf bb e5 82 b6 10 de a9 3f
       -0.0646844572025021 0.050522348670209515
000640 3a ce c1 f4 1f b1 6a 3f 00 00 00 e0 a5 d5 a2 bf
       0.003258287824843523 -0.03678625449538231
000650 40 a0 2c e0 72 81 aa 3f 74 5c 50 90 db 28 a0 bf
       0.05176886545660908 -0.031561719290203266
000660 03 5f b1 a1 1d 39 b2 3f 00 00 00 40 a3 17 af 3f
       0.07118401715831273 0.06072721630334854
000670 00 00 00 40 5a 70 ad bf 70 03 b8 c7 c3 49 99 3f
       -0.05749780684709549 0.024695452751987756
000680 a9 39 d6 9a 38 4a 98 3f ff fa f4 00 38 3d af bf
       0.023720631075372065 -0.06101393710786417
000690 00 00 00 a0 41 72 b1 bf a5 dd 85 2c a3 ac 9b bf
       -0.06814966350793839 -0.027025746910536736
0006a0 28 8e b3 69 c6 0d 69 3f 00 00 00 40 6c 2e aa 3f
       0.0030583262683750063 0.05113542824983597
0006b0 79 38 c6 9d 93 26 aa 3f 00 00 00 80 87 c0 9f 3f
       0.05107556630092431 0.031007878482341766
0006c0 31 21 22 b7 13 76 b4 3f 6d d3 70 bf 87 bc 93 bf
       0.07992671223667426 -0.01927387338601554
0006d0 8a e4 54 fd e3 11 b5 bf 00 00 00 00 1b 3b 85 3f
       -0.08230423865178885 0.010366640985012054
0006e0 f4 70 87 b9 11 50 86 3f 00 00 00 60 35 39 b3 3f
       0.010894907450101667 0.07509168237447739
0006f0 fb 48 08 43 5c ad 91 3f 00 00 00 00 3c e3 a0 3f
       0.01726287993558005 0.03298366069793701
000700 3f 79 10 0f bd 9e 90 bf 41 ae 70 b2 01 83 b3 3f
       -0.016230539364294968 0.07621775251816933
000710 00 00 00 00 a0 59 9f 3f 0b d3 b0 80 57 62 b6 bf
       0.03061532974243164 -0.08743807689536369
000720 4a 54 fd 65 3a e0 b0 3f a0 95 12 a7 3d df ad 3f
       0.0659214495656936 0.058343817371944384
000730 b0 25 7a 28 df ef 8a 3f 00 00 00 00 2d 26 96 3f
       0.01315283148075505 0.021630004048347473
000740 fb 23 68 8b 01 1a a3 bf 53 80 c6 5e b2 0b 75 3f
       -0.03730778528922226 0.005138108023317117
000750 58 a3 69 4d 33 af ac 3f 29 28 e6 de 4f 39 af 3f
       0.05602417297342893 0.06098413082061455
000760 58 04 47 74 c6 5f aa 3f 50 6a dc bf 47 f1 b9 3f
       0.051511956876773624 0.10133789476496102
000770 00 00 00 c0 52 b0 a4 3f 00 00 00 00 98 ab 82 3f
       0.04040773957967758 0.00911635160446167
000780 34 f4 57 1a 78 d1 b0 bf 8f 4f 07 da 92 a7 b8 bf
       -0.0656962456050259 -0.09630697081530414
000790 00 00 00 00 84 cc 92 bf 00 00 00 00 0a 2c 9e 3f
       -0.018358290195465088 0.02946487069129944
0007a0 65 a0 b0 c1 5a 99 8b 3f 57 80 f2 66 01 44 87 bf
       0.013476094280193427 -0.011360178903771763
0007b0 0f c8 6f 82 0e 9b a4 3f 00 00 00 40 60 9e aa 3f
       0.04024548856968135 0.051989562809467316
0007c0 13 82 0f 42 d5 21 ba 3f 35 8b b0 30 cf 08 b7 3f
       0.10207875120932668 0.08997816981040503
0007d0 37 f3 8a c7 b8 8a ad 3f 23 d9 5e 03 a4 5f 7a 3f
       0.05769898830246805 0.006438866306714783
0007e0 00 00 00 e0 a5 9c aa bf 00 00 00 80 72 9f b2 bf
       -0.05197637900710106 -0.07274547219276428
0007f0 be c4 13 03 c2 cf a9 bf 8f b8 43 ad d5 b8 a9 bf
       -0.05041319167674761 -0.05023830165906517

linear2.bias f8 [64]
000000 53 5c b9 3c 2f 76 a9 3f 8b b8 fd 58 ee d8 b4 bf
       0.04972980133305129 -0.08143510506281097
000010 95 46 14 79 e6 4d a5 bf 77 67 3c 00 1f e0 6d 3f
       -0.04160995700852969 0.0036469083296539156
000020 41 d6 04 2d 1a 70 a8 3f 0f 21 7a 50 4c 44 ab bf
       0.04773027228877114 -0.05325544817339011
000030 41 38 46 62 02 88 a4 3f c9 5c bd ca c4 1b 93 3f
       0.040100168701528556 0.018660616754769408
000040 c4 74 6d cb 83 37 a6 3f 5b 80 93 5a 53 26 a0 bf
       0.04339229448553675 -0.03154240112940051
000050 9a 2d b0 56 55 6b 90 3f 4c a6 93 3e 40 48 60 3f
       0.01603444425204046 0.001987576939986002
000060 ee 44 cd 7c cb 7d 9a 3f b6 ed 99 c4 c7 7e b3 bf
       0.025870494358348255 -0.07615326452098867
000070 97 8e e7 d0 08 72 95 bf b3 59 ba 24 c8 48 af bf
       -0.020942819357414235 -0.06110215614642147
000080 51 4b 3f 2f 3a 9d 9f bf 7b ba 64 88 6c b5 9d bf
       -0.030873211988203867 -0.02901238996963194
000090 a9 d1 00 90 2c 0c b2 3f 1c 92 61 83 f3 fe ad 3f
       0.07049826160147767 0.058585748470054905
0000a0 b0 88 ad 64 5f de af bf b1 ce b0 e5 18 58 b6 bf
       -0.06224344352701061 -0.08728175742799739
0000b0 c9 39 a8 ea d8 55 a6 bf 89 ed 1a c7 78 a1 87 bf
       -0.0436237131544775 -0.011538451744278049
0000c0 d5 bd a2 e9 57 3e ac 3f c1 f8 cf 86 b0 b5 68 bf
       0.055163142461761495 -0.0030163238320702617
0000d0 4c a4 82 b1 e7 1a b3 bf c6 fb 68 84 1a 40 af bf
       -0.07462928851841005 -0.061035946524945525
0000e0 64 4a c4 7e 9e f7 68 3f 68 f9 4d 5b 03 91 a1 3f
       0.003047761498359324 0.03430948724325128
0000f0 e0 b8 6d 2f 54 44 ac bf 42 2c e7 85 46 01 ad bf
       -0.05520880774462156 -0.05665035614546145
000100 22 39 a4 86 60 4c 92 bf 57 d6 73 81 60 10 a8 3f
       -0.0178694803408287 0.046999946405702424
000110 3e 4d d7 e9 b4 ad a5 bf f5 a4 0f 57 26 18 84 bf
       -0.04234090189461391 -0.009811687023061991
000120 94 dd 62 dc 38 5a 82 3f 7d 60 fe b9 6e 93 b6 bf
       0.008961147523548964 -0.08818714180813632
000130 05 ab b2 ef 46 9c b1 3f 55 db 21 d4 01 ec b1 bf
       0.06879084922790575 -0.07000743321428378
000140 57 7a b2 96 3f b3 a8 bf ee c8 bc 89 04 1c a0 bf
       -0.048242556710864797 -0.031463758290913066
000150 87 6c 32 bf 56 b7 9f 3f a4 47 89 09 26 63 aa 3f
       0.030972819728600356 0.051537693657010025
000160 35 35 61 5f ff fb a6 3f bf d4 33 6b 36 78 a3 3f
       0.044891338723213194 0.0380265241491684
000170 21 15 ca 8a 3b 74 b6 bf b3 95 c5 92 de 98 7d 3f
       -0.08771106851971357 0.007225865771351025
000180 c1 93 e1 ba e6 1d 99 3f 2d 3f ee 7a 0e 1b 87 3f
       0.02452812686569295 0.011282075048967133
000190 ec e3 84 10 ea f0 b5 bf 71 87 33 5c 0c 63 9d 3f
       -0.08570731070803078 0.02869815171005236
0001a0 a1 d4 16 06 64 cb b5 bf 77 7d c9 43 0e f3 b5 3f
       -0.0851347460619132 0.08573998599012166
0001b0 74 e1 d6 3b 54 d4 94 bf 3f 70 a5 02 35 9f b5 3f
       -0.020341221000962986 0.08446055712323729
0001c0 47 6f 30 e6 2f bb a7 bf 16 50 46 54 be 5c b0 bf
       -0.04634999928404553 -0.06391515309798054
0001d0 52 0e e9 17 6d 58 a9 bf 0e fd 22 89 0e b7 a7 3f
       -0.04950276295542423 0.04631848739654219
0001e0 3e 47 53 85 b2 29 b1 3f 26 02 e8 d2 38 bf a5 3f
       0.06704250102054929 0.042474532838245246
0001f0 24 80 b5 cb a6 1c a2 bf 94 a9 f5 cc 0b 7b af bf
       -0.03537484394723858 -0.06148564221333

linear3.weight f8 [3, 64]
000000 eb ef a3 0d 93 78 ba 3f f5 c0 31 54 4d 0d bd 3f
       0.10340231974618035 0.11348422341848503
000010 6f 24 25 9f 93 eb a5 bf 8c 68 2f 36 88 06 b3 bf
       -0.04281293218316128 -0.07431842158203689
000020 d2 c1 e5 5f b0 ba bb 3f 67 38 67 90 0e 88 bc bf
       0.10831739751097949 -0.11145106339901788
000030 1b 94 53 f5 60 bb ac 3f 06 a0 38 3f 58 1e b8 3f
       0.056117086360053935 0.094213023600446
000040 61 59 59 6b 9e 2f bd 3f 9e 3c 4b d9 ea 28 c0 bf
       0.11400785561395345 -0.12624869928410914
000050 0b b4 21 03 eb 31 c0 3f 4d aa 15 65 28 c7 ac 3f
       0.12652337696945923 0.05620695337241397
000060 e6 98 86 5f 9c dc c0 3f 41 11 89 66 17 25 b5 3f
       0.1317325083193232 0.08259721997553006
000070 4f 4c e5 97 69 54 ae 3f fc 38 dc 33 7c b7 9c bf
       0.059237766067462 -0.02804369036226094
000080 2b 3b 9a 85 74 0e c4 3f 5b 96 e8 0f d0 f3 b0 bf
       0.15669113658483388 -0.06622028721229738
000090 4c 0b b4 a8 f4 e1 b8 bf ab d5 ef 2e d0 60 a3 bf
       -0.09719781035168501 -0.03784800122222561
0000a0 97 8e 96 32 7c 73 b8 3f 95 d1 f5 90 cc 44 ac bf
       0.09551216349660262 -0.055212395377483826
0000b0 85 18 68 ee 48 51 64 bf d8 e3 25 1d 40 b4 b9 bf
       -0.00248016590490169 -0.10040665351506506
0000c0 51 85 9b fe 11 ec ba 3f fe f9 58 fc c9 e8 bd 3f
       0.10516464677813998 0.11683332835034574
0000d0 e1 e4 c5 b2 23 4e a5 bf ca 68 72 40 8f 91 b3 bf
       -0.04161178166664015 -0.07643981288348126
0000e0 32 9a 29 89 b9 03 a7 bf 65 3e ef d1 cc c9 c0 bf
       -0.04495029258105311 -0.13115844965658421
0000f0 ba 16 32 f7 48 f7 b3 3f 47 8b c1 93 c8 ed b1 bf
       0.07799201998758579 -0.07003453833889949
000100 80 52 12 ec 54 80 b0 bf c0 a1 80 15 ba ec b4 bf
       -0.06445818675485704 -0.08173716568911171
000110 88 51 a0 53 b1 26 cb bf ee 8a 52 d0 88 f4 ad 3f
       -0.21211830695450495 0.05850627463339274
000120 52 66 cf 3a 1f 6f bd 3f b9 36 6e 34 b1 50 a4 bf
       0.11497683702273179 -0.03967813267727877
000130 2a b8 4f 2b 26 1d 9a bf 5b 61 59 66 82 7f a3 3f
       -0.025501819985884 0.03808219432238743
000140 8d 4d 23 cf 63 d1 c4 bf 94 6d ac 52 29 28 81 bf
       -0.16264007200389266 -0.00837738307523387
000150 ca 26 5f c8 b1 b4 bc 3f 47 d5 fe 9e 60 ea a9 bf
       0.11213217870604378 -0.05061628285276725
000160 c6 f3 2f d8 7b 6b 97 bf 7f 0e 31 16 b4 c6 b2 bf
       -0.022870955534006553 -0.07334447423732547
000170 3a 51 b0 44 80 30 ab 3f 91 f4 b2 bd 1f 91 b3 3f
       0.05310440863118733 0.07643316632580112
000180 64 fb b7 a9 2f 89 bd 3f cb bd 91 59 f7 f5 9a 3f
       0.11537454503557637 0.02632891163051258
000190 76 20 08 de 99 7b b9 3f 35 6f 7b b4 1b 3d b1 3f
       0.09954225226113231 0.06733868748000023
0001a0 0c e9 23 60 99 e6 b5 bf 6e dd 89 e8 e5 33 b7 bf
       -0.08554991337942769 -0.09063565184793784
0001b0 66 ca 0b 85 9f a9 b2 bf b0 93 a5 2a f6 23 b7 3f
       -0.0729007434672809 0.0903924802892806
0001c0 76 e5 80 93 a7 1b cc bf 5e f7 1d 89 1f 19 be bf
       -0.21959395124740028 -0.11757084939560289
0001d0 5f 93 9e 58 c4 29 b0 3f d6 d0 71 e3 5e 5b ba bf
       0.06313731349525885 -0.10295670559736733
0001e0 ff f4 24 3f 00 ff a9 bf 9f ca 43 08 a0 17 c0 bf
       -0.05077362795644013 -0.12572098163180542
0001f0 8b 3f ae 3e 79 7d 9e 3f 01 28 65 94 fa b8 8f 3f
       0.029775518847202014 0.015489537862453774
000200 61 6b 88 3f 65 d8 8d bf 67 a4 ba fe f2 ef b9 3f
       -0.014572897912378204 0.10131758421870672
000210 f9 5c 72 46 9e 51 94 3f e5 dc 99 fc e8 36 ba 3f
       0.019842598962523692 0.10240036170022256
000220 d2 05 d0 9f be 3b a5 bf a8 27 04 90 5d 7b b4 3f
       -0.04147144032323137 0.08000740781804316
000230 e1 1d 97 c9 64 bb aa bf 84 98 9f c5 f3 50 bd bf
       -0.05221095047778213 -0.11451648306646872
000240 d8 6c 24 86 70 6d b1 3f d6 3f 55 08 8d 49 a8 3f
       0.0680761649604621 0.04743614889832741
000250 7f 13 64 3c df 66 bd bf ba 5b a1 af 16 9b a6 3f
       -0.11485095238101727 0.04415198224949486
000260 b8 41 0c 91 c9 39 a7 3f 6e 87 2d ae d4 09 b3 bf
       0.04536275764087655 -0.07436875584019528
000270 e0 06 88 ae a3 77 b4 3f 2d cc 18 a2 d6 55 84 bf
       0.07995055209178359 -0.009929348775676495
000280 97 e0 45 a1 f5 47 9f 3f 56 be 5f aa 35 ca b2 3f
       0.030547941177673534 0.07339797410508572
000290 6a a1 a9 18 07 53 ac bf 1f 63 ca 94 31 85 b2 bf
       -0.05532095123345722 -0.07234487421591183
0002a0 2a 68 2f bd 33 7c ad bf 1e 93 9d 99 cf e5 b3 bf
       -0.057588211864370756 -0.07772538662318282
0002b0 cc 41 f6 96 fa 2b ae bf a5 8d cc 09 a7 6f 97 bf
       -0.058929282119723675 -0.02288685796078273
0002c0 06 a3 f8 fc 50 9a b8 bf d5 ac f5 df a5 d0 be bf
       -0.0961046807866631 -0.1203712150360617
0002d0 8c 59 5c d9 61 22 bf 3f f7 02 1f 65 41 7a a3 bf
       0.12161838108690953 -0.03804211005581764
0002e0 82 01 8e 56 5f 3c 91 bf e3 d1 83 d6 b0 16 ae 3f
       -0.016831864984398155 0.05876686686125134
0002f0 00 d1 49 d9 c2 e7 83 bf 5a 85 54 3b a6 ce c0 bf
       -0.009719393020738654 -0.131306437463574
000300 f3 fc 10 25 9c 2d ae bf 92 45 32 12 48 e1 a8 bf
       -0.058941726231290924 -0.048593761655079906
000310 e8 86 06 ff 4e 5a aa 3f f0 76 6f b7 ff c8 ba 3f
       0.05147024977783393 0.10462949970630198
000320 4a 88 ed d6 2b 72 bb 3f 47 72 21 70 1f a5 b6 bf
       0.10721086499464252 -0.08845707404675195
000330 73 e1 aa 6c de 02 8a 3f 70 5b 82 d0 1e b1 c2 3f
       0.012700784388798713 0.1460302847014776
000340 15 a4 fd ee c2 92 ae 3f ef e0 74 a6 17 c1 b2 3f
       0.059713451074294856 0.07325885595207969
000350 96 10 1a 67 ae 1d bd 3f 97 c9 e7 f2 20 28 8e 3f
       0.1137341500962655 0.014724976933369755
000360 4d 89 61 00 70 31 bd bf e4 7e 4f 45 51 c2 ac bf
       -0.11403560647298612 -0.05617002459598355
000370 e3 6b 76 f4 09 b8 a5 bf 36 f3 9d 86 a7 59 a0 3f
       -0.04241973027384185 0.03193400877260048
000380 92 2a 45 42 51 c4 9b 3f 0d b0 1b 29 89 aa ab 3f
       0.027116079015551416 0.05403545977409872
000390 6e 70 c8 42 54 f6 a0 3f 86 6f 28 bf 13 87 a0 3f
       0.03312934222432849 0.032280556759558585
0003a0 7c dd 96 a5 61 4e a8 3f 37 6d 2d 0d 0a d9 b2 3f
       0.047473002875842746 0.07362425634112389
0003b0 c0 b0 a3 5d 3e e2 bd bf 44 af 71 92 d7 eb b7 3f
       -0.11673345361822651 0.09344241452498375
0003c0 7e df 33 a9 bd 33 92 3f cb 39 b0 32 2a 59 72 3f
       0.017775500728901765 0.004479565463965727
0003d0 45 e1 5f 07 77 7a a4 3f cf 96 9c 6a 4a 3d b8 3f
       0.039996833467685046 0.09468522169899106
0003e0 73 5e b8 4d bf 3b b7 3f 14 61 8f fa d1 58 3b 3f
       0.09075542113748174 0.00041728140291531876
0003f0 c3 4d 5a bb 22 e3 9e 3f a5 cb 4b e4 7a 7e a8 bf
       0.030163328824142754 -0.04783996617142997
000400 f1 c4 65 cb dd df a8 bf 60 65 ec 52 b8 54 bf bf
       -0.04858296497230608 -0.12238647484300236
000410 c5 eb d7 f7 3a 59 93 3f d1 c5 ca dc bd bf c0 3f
       0.01889507425037686 0.13085149079192473
000420 0a 41 02 70 94 d3 b3 3f d6 1b 62 0c c8 6e 66 3f
       0.0774472020586964 0.0027383715815320992
000430 0d 3b de 55 33 46 b3 bf 5b f8 66 86 5f f1 bb 3f
       -0.07528992506398087 0.10915181189827321
000440 47 18 f7 c5 22 c0 9e bf ff 26 94 d1 af 61 b7 bf
       -0.03002981503757265 -0.09133433214824647
000450 6a 54 df 89 60 29 b4 bf fe 82 5b 8a fa 4b b9 bf
       -0.07875636449837634 -0.09881559255473957
000460 87 52 93 87 8c 0a b7 bf d8 89 5b b8 9c 1d bd bf
       -0.09000471410701937 -0.11373309613148963
000470 4e 5a f5 74 bb 9d ab bf e0 13 9d 30 7a fe c1 3f
       -0.053937776591443595 0.14057853101453954
000480 16 8c d0 63 fe db 8c 3f d5 27 77 1a 2a 28 b6 bf
       0.014091479703045844 -0.08655036111954868
000490 12 b8 11 6a 35 dd a5 3f f7 9b 84 d8 28 83 ab 3f
       0.04270331306257459 0.05373504298250247
0004a0 68 da fe 53 07 9e b5 bf 74 21 3c ef 1c 9e 8c bf
       -0.08444257546111944 -0.013973451662892634
0004b0 53 9e 11 2d f6 74 b1 bf aa 83 cc ef 99 2c c1 3f
       -0.0681909427672676 0.1341736241238583
0004c0 01 76 74 f9 6c 88 9e 3f 33 4d 63 dc 9f 2a b3 bf
       0.029817297673721658 -0.07486914759220013
0004d0 fc 98 06 c0 2b e4 b9 3f 7a 2b fc 99 0b 18 af bf
       0.1011378616154594 -0.060730326220514066
0004e0 ef 64 8f 4b 19 15 a3 bf e0 93 9c 78 e1 84 b3 3f
       -0.037270346139573245 0.07624634928340823
0004f0 80 23 f7 23 c9 31 bd 3f bd b0 54 53 6c 67 8c 3f
       0.1140409195715062 0.013869138997130265
000500 de 5d ca 02 51 20 a6 bf 19 77 cc 42 37 3d a5 bf
       -0.043215304937969753 -0.04148266497052883
000510 a6 5f bd e7 31 51 b6 3f 90 43 67 e0 8f 45 b5 3f
       0.08717643649776949 0.08309268215749754
000520 a1 ee bc 11 37 95 b4 bf a4 6c c4 52 d2 51 8e 3f
       -0.08040184195572887 0.01480449977002813
000530 d6 91 3e fd 8b 0c bd 3f 1f 4c e7 75 aa 21 c2 3f
       0.11347269947743341 0.14165240056044667
000540 40 c9 c7 26 4b c6 b1 3f 4d b3 82 0f a3 c6 9c 3f
       0.06943196961200204 0.02810148985070109
000550 15 dd e4 bd 62 a1 9a bf f1 c5 89 c4 d2 97 96 3f
       -0.026006262626848093 0.022063534970987623
000560 0d ce 93 4c fa c0 84 bf 00 ce d8 38 3c fd bc 3f
       -0.010133700811343816 0.11323906314719778
000570 4c 0d e3 d7 30 1e bb 3f 19 f7 80 60 f1 e2 c6 bf
       0.10592942495991514 -0.1788007470331017
000580 0d 46 49 ba ca c0 b1 bf fb 70 1b 2a 21 3d ac 3f
       -0.06934802101138633 0.05515388144496743
000590 6f 14 8b ed 1f 9f 69 bf 1c 38 7d a0 c4 c7 83 bf
       -0.003127634391008764 -0.00965837111257533
0005a0 e3 e8 61 35 b8 b9 94 3f 33 70 5c db 41 39 b5 3f
       0.020239713915068413 0.08290492635245598
0005b0 4f 7b af 22 dc c0 bd 3f 84 a1 8b fe bb e5 c3 bf
       0.11622405859769212 -0.15544843605972514
0005c0 0e a6 69 79 95 7d ab 3f ff 3d 2f 5f 0e 34 75 3f
       0.0536925039967394 0.005176597728634657
0005d0 14 7c b1 23 ac 2a b2 3f 88 c0 58 e5 c8 41 61 bf
       0.07096362945002027 -0.0021065639255298287
0005e0 f2 e3 25 ee 34 89 bf bf 64 f4 e5 82 a5 1c aa bf
       -0.12318735899124514 -0.050999805668632076
0005f0 78 23 82 3e 34 dc bd bf 86 5f 33 b0 26 c8 c1 bf
       -0.11664129758913855 -0.1389206276278367

linear3.bias f8 [3]
000000 8e ca 27 4c 85 3e be 3f d4 34 c4 6b dc 49 b5 3f
       0.11814149007094896 0.0831582797147406
000010 b6 ff f5 9b 36 67 c2 bf
       -0.14377482047347961
