runs/testrun-load-pretrained-15r-20bs-30ep/1/LocalModel-1-Round7.pt (torch, 167767 bytes, 6 tensors)

linear.weight f8 [128, 95]
-0.07767377679687745 0.08139903508467698 -0.04304721627764205 0.01591493997007121 0.10017495250502285 0.09651469747967334 -0.0002030291910638003 -0.009412064877802858
0.08010836738986439 -0.04570159367881038 0.05685684599526636 -0.07793114388854785 -0.0698429617184675 -0.010985882169803644 0.023646181941463767 0.023658767249369918
-0.055744434413591996 0.0003558985085778212 0.08388595004480275 0.09085626614126384 -0.031552560083171866 -0.05774631496676653 0.088870155062481 -0.054936974536627055
0.011535329055037968 0.01634772319948645 -0.061945662464963226 0.02450549972172145 2.104322800688711e-05 0.03883746884365426 -0.057300304361708194 0.04990875017690086
0.06292253147213496 -0.09249902796368803 -0.026400706587107216 0.023834864940212905 -0.07956343956848509 -0.09620061496704689 0.05784959210260159 -0.08573554871998837
0.07929992478423983 -0.08334327065621455 -0.08719621868172023 -0.008437183679715757 -0.06505823641657887 0.05997422132348757 -0.03075733980277802 0.021208950905253716
-0.10011364419760363 0.03337250923001614 -0.09807894268989276 0.07564813174493949 0.046620092696030624 0.04443987936513694 -0.0815261367722652 0.08956889405133336
-0.052440656881041506 0.008272720601517064 0.0701108902560597 0.09352175699277353 -0.0014179635940339437 -0.05993977560949476 -0.003304576855725564 0.03687709071558306
-0.04024741552893916 0.0733038200609739 -0.08506608617996113 0.04896216339595674 0.033416636138272345 0.052984050093769 0.03759899480336446 0.05054020969692897
-0.01024726318129069 0.06713652979805484 -0.06766051197299444 0.0650326170958847 -0.0429059100775783 0.10049899666273455 -0.10274449639157633 -0.02285038021201272
-0.024447389397329215 0.0689577764394631 0.0054884623213394355 -0.01348045125071879 -0.017241878054501537 -0.05134299737800336 -0.0010837781305094532 0.07697638898702999
0.024321652649978907 -0.015843913184836637 0.013294065274485617 0.07658084988746967 0.055804563736294624 0.04566093239259327 0.02867645719680074 -0.0625510814771274
0.01187994971910535 0.07285109739301171 -0.034571278757982264 -0.09675653932438388 0.07834767544968436 -0.09811615357104028 -0.07690044321675377 -0.09105133603158777
-0.08183753936269186 0.09382124293664139 0.07385293370544349 -0.06757375922823126 -0.07786451100873144 -0.0071808831861635905 0.025993352535554987 0.09407575559232409
0.09105936591059335 0.0491932418678511 0.016472030397553825 -0.01416017053606012 0.03539729931106902 -0.03511305565386849 -0.019681668845612368 0.08850536976716239
-0.08794320196580863 0.10061106232028395 0.019510700774436097 -0.0894655345854092 -0.029234325487966926 -0.06923707802695368 -0.08817334767315992 -0.008033862667438357
-0.07414523919134924 -0.07665676982128904 0.08443297521797169 -0.0007031929352539142 -0.02623926961565857 -0.02886970334474824 -0.08583345150911827 0.021854482719851468
0.036731509514351036 0.03576384231953687 0.004740105314217416 0.06648183894898803 -0.0007295214502753285 0.017481386247716845 0.0076865311851575455 0.05308121695977941
-0.06016542418046198 0.030167654343864748 0.07603572704700051 -0.08339854545441472 -0.029893434614002797 -0.04550612517600351 0.06543870812822937 0.05508660775522294
-0.03348384855301702 -0.03447675238004504 0.06620319581914583 0.0706258699219217 0.05273133655233453 0.08709378008212978 0.07899344511429128 -0.07251077434141107
-0.051979169315127145 0.0009417528747694226 0.06191182453868841 -0.0524090438660889 0.008779117399632101 -0.0862792486998964 -0.09820413353581023 0.07655363220560622
0.007467877825297601 -0.08349117356311775 -0.05159077670775751 -0.04177794094876756 0.007957386038307422 -0.028769562031146136 -0.05696078285254106 -0.0799390536090773
-0.017801185069265573 -0.07533750340401428 0.03584291187692005 -0.05039112762974316 -0.03994568966737858 -0.04511521904350702 -0.013890050506666253 0.03334254601094245
0.0019562747664776145 0.09915753792393034 -0.10257649157823191 0.09504344223129542 0.0273522747527477 -0.020508867757973958 -0.07678886502981186 0.08214327692985535
0.06848134100437164 -0.026313312351703644 0.08078187704086304 0.031196370720863342 0.03392195701599121 0.02975645661354065 0.006555058062076569 -0.05918541178107262
-0.07547368109226227 0.06276574730873108 -0.09928613901138306 0.0513530969619751 0.08303895592689514 -0.04186059907078743 0.007965922355651855 -0.052911803126335144
-0.0862942487001419 -0.018631786108016968 -0.06637520343065262 -0.0745135173201561 0.034697532653808594 -0.017332173883914948 0.10206423699855804 -0.03341997414827347
-0.06161715090274811 0.02812059223651886 -0.05999066308140755 -0.0585753507912159 -0.03842607140541077 -0.07205244898796082 0.0028657764196395874 -0.06406636536121368
0.061439335346221924 -0.008525103330612183 0.07358814775943756 0.032777607440948486 0.05089184641838074 0.044711366295814514 -0.09293922781944275 0.08427774906158447
0.06045198440551758 0.009179800748825073 0.09615109860897064 0.07762311398983002 -0.0138922780752182 0.05665142834186554 -0.04363004118204117 -0.06568238884210587
0.0527389794588089 0.05310872197151184 -0.04296475648880005 0.03464764356613159 -0.0291537344455719 0.06873640418052673 -0.02762194722890854 0.04011961817741394
-0.06395456194877625 -0.00884196162223816 -0.007826738059520721 0.03209438920021057 0.07008685171604156 -0.05268140509724617 -0.07215557992458344 -0.10036734491586685
00000000: c671 19bb 6de2 b3bf 5359 9d31 91d6 b43f
00000010: bc4f 31e4 480a a6bf 21cd c18a 014c 903f
00000020: 612e e3d0 10a5 b93f 102f 42ed 2fb5 b83f
00000030: 7588 b478 879c 2abf f135 b4f6 a146 83bf
00000040: c14e 1362 fb81 b43f 087e 7304 3366 a7bf
00000050: e8ed 342c 571c ad3f ca57 57a2 4bf3 b3bf
00000060: e1c4 6f74 3ae1 b1bf ef9b 1825 c47f 86bf
00000070: cb95 7468 b436 983f ea1c 66fe 003a 983f
00000080: ff14 7bd5 888a acbf a74c 7d74 fc52 373f
00000090: 1b4c 09b4 8c79 b53f 67a1 b633 5b42 b73f
000000a0: c018 533b a827 a0bf a159 7ecc ec90 adbf
000000b0: 3a74 95c9 31c0 b63f 01b6 f3f9 b220 acbf
000000c0: 86e4 51a8 d59f 873f ccfe 0522 75bd 903f
000000d0: 5d07 d584 57b7 afbf 21fa 813f f817 993f
000000e0: 3a7d 129e bf10 f63e d2f8 1535 81e2 a33f
000000f0: a19a 912a 7756 adbf 3c8a 96c3 a38d a93f
00000100: b5b6 dae6 b01b b03f 680d 042c 04ae b7bf
00000110: 771b 886d c908 9bbf 3cf0 b0b5 2a68 983f
00000120: 0767 e702 455e b4bf 4f78 237f 9aa0 b8bf
00000130: 77d1 5534 769e ad3f 0a62 dbd1 c3f2 b5bf
00000140: ae08 86f7 ff4c b43f e463 cf0d fc55 b5bf
00000150: 78a6 92cb 7d52 b6bf 283c cc9f 8347 81bf
00000160: e4a0 be15 a8a7 b0bf c9f8 5fee f0b4 ae3f
00000170: b472 4222 da7e 9fbf f206 159a ccb7 953f
00000180: 624b b63b 0ca1 b9bf e4ed 7497 3316 a13f
00000190: 5483 479b b31b b9bf 7b17 d90b ad5d b33f
000001a0: b08f eeba 96de a73f 91dc 05e9 d2c0 a63f
000001b0: 1ac3 349b e5de b4bf 467a b0ae fced b63f
000001c0: 52d5 9174 80d9 aabf 3dae 75c3 49f1 803f
000001d0: c343 be8c c9f2 b13f 8f98 bfb7 0af1 b73f
000001e0: cbd0 d9d0 5e3b 57bf f8d8 f11f 6db0 aebf
000001f0: a1fd b730 3312 6bbf fbaa 30d5 8de1 a23f
00000200: 7d00 e42a 4f9b a4bf bf70 d505 0ac4 b23f
00000210: 3743 241a e4c6 b5bf 84d8 0d95 9111 a93f
00000220: 5961 b63e fc1b a13f b887 b9b4 b920 ab3f
00000230: 2dfa 15ea 2c40 a33f 8105 9007 68e0 a93f
00000240: 14ae e561 84fc 84bf c07d d90f dc2f b13f
00000250: ac95 2706 3352 b1bf 28a1 9943 faa5 b03f
00000260: b537 2d71 c3f7 a5bf 817f f25f 4dba b93f
00000270: 0787 d89b 764d babf a9d7 d80e 1766 97bf
00000280: 5186 bc87 bc08 99bf 80c4 9c82 37a7 b13f
00000290: 4ac5 cee2 117b 763f a4a9 0e8a a39b 8bbf
000002a0: 2a7b 76d9 daa7 91bf 89f9 3b1d a149 aabf
000002b0: aa2a 1be8 b1c1 51bf aa72 4381 b9b4 b33f
000002c0: e985 dd7a c6e7 983f 31ce e003 6339 90bf
000002d0: 3dae ad3c eb39 8b3f c53d c475 cd9a b33f
000002e0: b20b 6e70 6a92 ac3f 0f80 a9a6 de60 a73f
000002f0: 7336 4d77 5c5d 9d3f c810 4601 5903 b0bf
00000300: 8b67 2cdc 8354 883f b4db c798 5ea6 b23f
00000310: 4ff9 4a9f 53b3 a1bf a086 125c 09c5 b8bf
00000320: f125 c6df 970e b43f b603 cce6 231e b9bf
00000330: e4f2 a958 bfaf b3bf 4845 83ee 234f b7bf
00000340: 16db 2513 4ef3 b4bf ef3b 1542 ab04 b83f
00000350: 5481 fa9e 06e8 b23f dff9 f38d 834c b1bf
00000360: 4d31 4db8 edee b3bf 6835 0ea7 b369 7dbf
00000370: d8e4 365c 009e 9a3f ca92 9d45 5915 b83f
00000380: 5e9b 94a6 aa4f b73f 1d66 034a db2f a93f
00000390: b9c2 6c3f 0bde 903f 8483 ddea 0100 8dbf
000003a0: 8bc6 d045 981f a23f 3459 64a3 56fa a1bf
000003b0: 5726 1770 6e27 94bf 089c abb4 49a8 b63f
000003c0: 8042 5918 7283 b6bf 490c 4886 a5c1 b93f
000003d0: ea33 fef6 9cfa 933f 72da 2999 36e7 b6bf
000003e0: e9d4 905f 9aef 9dbf a9de cb69 85b9 b1bf
000003f0: 4393 a24c 8792 b6bf 906e 56cb 0e74 80bf
00000400: 0c1f 7bb1 2efb b2bf 7341 662f c79f b3bf
00000410: fae1 4343 669d b53f bfd8 7054 cf0a 47bf
00000420: 7a10 7b93 77de 9abf 3cfa d7fe 0490 9dbf
00000430: 496c 225b 2ef9 b5bf 8106 3682 0561 963f
00000440: 6596 31f0 78ce a23f 6e8e 486a a34f a23f
00000450: 76d6 dd54 5c6a 733f fd57 102c f404 b13f
00000460: 0716 a562 abe7 47bf 5308 e4f8 a3e6 913f
00000470: 387f f580 e97b 7f3f 608e bf15 762d ab3f
00000480: 8dfc 68a2 00ce aebf cd39 3703 45e4 9e3f
00000490: 4494 fed0 1377 b33f f8bb 4269 9b59 b5bf
000004a0: d207 2170 629c 9ebf 9217 cc2e 944c a7bf
000004b0: c7a0 4d57 97c0 b03f d734 83d5 4f34 ac3f
000004c0: 3277 f584 cb24 a1bf 77a0 e3d7 efa6 a1bf
000004d0: 1215 ef50 b1f2 b03f bbf2 9079 8914 b23f
000004e0: 40ec ee0b 9aff aa3f 7a44 2329 c74b b63f
000004f0: 9f3f 5d17 ea38 b43f 506c 67ec 1090 b2bf
00000500: 513d 9080 039d aabf 5275 26e6 fedb 4e3f
00000510: 153b 421b e8b2 af3f 3ec6 d6b2 5bd5 aabf
00000520: 7c0c f430 c9fa 813f 3c50 7d97 6516 b6bf
00000530: 564a def5 e723 b9bf 238d b6d2 0499 b33f
00000540: aa9a 7b30 a396 7e3f e84f f573 ad5f b5bf
00000550: 6659 7835 1b6a aabf 056b 2314 eb63 a5bf
00000560: 3f92 5e46 f64b 803f 8712 2da0 c475 9dbf
00000570: 752f 03b7 f629 adbf ea96 ecc4 e276 b4bf
00000580: 6b66 cf4e 793a 92bf e353 4891 5149 b3bf
00000590: 550c 9c8c 005a a23f 4d4b 5baa ddcc a9bf
000005a0: f5a0 79ed c273 a4bf 91fe af8c 5719 a7bf
000005b0: c1cd 5305 6372 8cbf 0160 5d31 4612 a13f
000005c0: c7bd 9b04 9b06 603f 4800 896e 6362 b93f
000005d0: a1bb aaf4 7342 babf 752a 155c c454 b83f
000005e0: 7e14 2316 3c02 9c3f 93a6 31d1 4600 95bf
000005f0: 0000 0060 6fa8 b3bf 0000 0080 5707 b53f
00000600: 0000 0040 fe87 b13f 0000 0080 e0f1 9abf
00000610: 0000 0000 1fae b43f 0000 0000 f1f1 9f3f
00000620: 0000 0000 385e a13f 0000 0000 7a78 9e3f
00000630: 0000 0000 7ad9 7a3f 0000 00e0 8c4d aebf
00000640: 0000 0040 3e52 b3bf 0000 0080 6a11 b03f
00000650: 0000 0000 d16a b9bf 0000 0000 f44a aa3f
00000660: 0000 0080 0a42 b53f 0000 00a0 c06e a5bf
00000670: 0000 0000 7050 803f 0000 0080 4117 abbf
00000680: 0000 0040 6117 b6bf 0000 0000 3614 93bf
00000690: 0000 0020 f7fd b0bf 0000 0060 5113 b3bf
000006a0: 0000 0000 e0c3 a13f 0000 0080 86bf 91bf
000006b0: 0000 00c0 e120 ba3f 0000 0040 6c1c a1bf
000006c0: 0000 0080 488c afbf 0000 0000 a5cb 9c3f
000006d0: 0000 00a0 18b7 aebf 0000 00a0 96fd adbf
000006e0: 0000 0000 95ac a3bf 0000 0080 0772 b2bf
000006f0: 0000 0000 f879 673f 0000 0040 a766 b0bf
00000700: 0000 0000 fa74 af3f 0000 0000 9c75 81bf
00000710: 0000 0040 acd6 b23f 0000 0000 3ac8 a03f
00000720: 0000 0000 7f0e aa3f 0000 0080 68e4 a63f
00000730: 0000 0080 ddca b7bf 0000 0000 3a93 b53f
00000740: 0000 0000 90f3 ae3f 0000 0000 dccc 823f
00000750: 0000 00c0 5b9d b83f 0000 00c0 1bdf b33f
00000760: 0000 0000 8e73 8cbf 0000 0080 6a01 ad3f
00000770: 0000 0040 ad56 a6bf 0000 00a0 8fd0 b0bf
00000780: 0000 0080 9a00 ab3f 0000 0000 1131 ab3f
00000790: 0000 0000 7aff a5bf 0000 0000 56bd a13f
000007a0: 0000 0000 7ada 9dbf 0000 0080 b598 b13f
000007b0: 0000 0080 ed48 9cbf 0000 0000 8f8a a43f
000007c0: 0000 0080 535f b0bf 0000 0000 bc1b 82bf
000007d0: 0000 0000 7707 80bf 0000 0000 ad6e a03f
000007e0: 0000 0040 36f1 b13f 0000 00a0 0ef9 aabf
000007f0: 0000 00c0 c978 b2bf 0000 00a0 acb1 b9bf

linear.bias f8 [128]
0.06754946098294479 -0.06508104532810244 -0.01189488172531128 0.03158060477422532 -0.0003210529685020447 -0.028567830305159914 -0.05850199600662061 0.06525936241463667
-0.08746273070573807 0.021537128650088656 -0.020572266774914506 0.09516419337059388 0.04298774507811283 -0.059130819630221085 0.02583900830574867 -0.07330609429684587
-0.0984501859001767 -0.03219677637225273 0.08979006111621857 -0.09050650105483722 -0.07623274564509558 -0.04838043555761639 0.00970196889453924 -0.058174599463619615
-0.042251867937504836 0.0952860563993454 -0.06668167567569612 -0.044339265870133114 -0.014043915354843502 -0.09598547220230103 0.0664355246732691 0.02569116109986519
-0.04392509859642654 -0.0490088189197164 -0.015032702385402098 -0.027565188705921173 -0.0950511172413826 0.005298824383011676 0.00783427751471457 0.02597537965047057
0.09763363078886364 -0.06011870503425598 -0.0861493025675483 -0.014034636186885241 0.05825533101729087 -0.0033586479319469226 0.00197216908184835 0.06706131657313334
0.047334315173506857 -0.08255107700824738 0.0929283511732437 -0.025876176846642375 -0.017494874070241046 -0.024337293999234746 -0.0526420958340168 -0.0780564397573471
-0.045003058523009995 -0.03111457493252885 0.03596705198287964 0.06069948032395925 0.08501239077982678 -0.05610772382971194 0.0066841398103048245 0.04385922678476368
-0.007424960722243569 0.028105985846815788 -0.01524804432132801 -0.03559194744308569 0.03114713728427887 -0.08637017136202689 -0.09902966022491455 0.034744992852211
-0.037825047969818115 -0.005982346832752228 -0.08158351706381468 -0.04967590048909187 -0.08011970823278419 0.0897903076624367 0.049323818221642696 0.0955848184435205
0.056745126843452454 -0.019457400531273497 0.09762869775295258 0.018582025430729135 0.033666893726822494 -0.04121221633286094 -0.07539103925228119 -0.05677579224966145
-0.05844764336018692 0.006213058834943736 -0.01656966770135175 0.06420998738660753 -0.06743059116476803 -0.07697953279457381 0.07263055076958858 -0.014030583202838898
0.06719738884172902 -0.06181875633558961 0.01741133819488933 -0.004247101048860159 0.07754004973482545 0.007190174206108994 0.0154671718699122 -0.0368325490857051
0.09900151624050259 0.021329394679457284 0.02362056076526642 -0.0335008390580026 0.09383637721520437 -0.049237520190398086 0.06372862775931658 -0.07319608451334726
0.09067513591466436 0.08712004036772925 0.039257056579319216 -0.0011489385504833683 0.07144392524455279 0.011732392013072968 0.09518281759761694 -0.0978007149511043
-0.057934496430293324 -0.03291192858954492 -0.08504533767700195 -0.04054395924248857 -0.02890605371421692 -0.021441149551997923 0.09565745623345749 0.05915506184101105
00000000: c0bf c8e5 eb4a b13f c810 46c1 26a9 b0bf
00000010: 0000 0000 585c 88bf 02eb 6241 552b a03f
00000020: 0000 0000 600a 35bf 706b 83a3 e240 9dbf
00000030: dac4 323f f9f3 adbf 1e24 546b d6b4 b03f
00000040: 0000 0020 f563 b6bf 6db8 ce3c d40d 963f
00000050: dae9 0274 e510 95bf 47e4 463a ae5c b83f
00000060: da82 7a5e 7d02 a63f f6b4 fe10 6546 aebf
00000070: 377c 897e 8a75 9a3f d839 9a2d 30c4 b2bf
00000080: fef3 b908 0834 b9bf 1364 1c8b 187c a0bf
00000090: 0000 0040 7bfc b63f 451d 1b1e 6f2b b7bf
000000a0: a412 6e3d fd83 b3bf efee f808 52c5 a8bf
000000b0: 88ef de38 a0de 833f 25ec 4ea4 0fc9 adbf
000000c0: c615 f96d 09a2 a5bf 0000 00c0 aa64 b83f
000000d0: 1504 45e0 0c12 b1bf 9b86 aee1 a2b3 a6bf
000000e0: fe37 4169 0ec3 8cbf 0000 0000 8192 b8bf
000000f0: a2a8 c325 eb01 b13f 1079 e1a2 c84e 9a3f
00000100: dcf4 e3bb 597d a6bf dd97 f314 af17 a9bf
00000110: 3a2a ed28 77c9 8ebf 0000 0080 0c3a 9cbf
00000120: 0000 0020 4555 b8bf 15a1 ea56 38b4 753f
00000130: cc38 b5ed 6a0b 803f 9b5a 6638 4a99 9a3f
00000140: 2e58 3a83 84fe b83f 0000 0000 e1c7 aebf
00000150: eacf 1975 e10d b6bf 6db0 78fb 30be 8cbf
00000160: 02e7 128b a4d3 ad3f b201 d960 9883 6bbf
00000170: afd7 ad36 f027 603f a320 8231 ee2a b13f
00000180: 632b 4c0f 343c a83f 0000 0040 1122 b5bf
00000190: 6f08 2905 27ca b73f ea15 35d5 487f 9abf
000001a0: d5d3 ea1f 2dea 91bf f40b 3327 e0eb 98bf
000001b0: 0000 00a0 e7f3 aabf 0000 00c0 81fb b3bf
000001c0: 0e11 2711 a40a a7bf 137e 0ec7 7fdc 9fbf
000001d0: 0000 0000 466a a23f b44e c095 0014 af3f
000001e0: ee74 273e 5fc3 b53f 2da0 cdcd 26ba acbf
000001f0: 1bc5 311e d460 7b3f 7939 5671 b774 a63f
00000200: b530 9eb7 a269 7ebf 01ba 22c8 d0c7 9c3f
00000210: d126 81dd 5d3a 8fbf e0ba 8994 1b39 a2bf
00000220: 0000 0000 09e5 9f3f e38d 5905 5b1c b6bf
00000230: 0000 0000 025a b9bf 0000 0080 18ca a13f
00000240: 0000 0000 ce5d a3bf 0000 0000 f280 78bf
00000250: a586 ae49 a8e2 b4bf 0000 00a0 1e6f a9bf
00000260: 7cf7 9fa6 b982 b4bf 026f e862 7ffc b63f
00000270: 0403 5ab4 f840 a93f 3782 3525 3f78 b83f
00000280: 0000 0080 b20d ad3f 74b8 c90b a4ec 93bf
00000290: 0000 00c0 31fe b83f 34dd 129e 2a07 933f
000002a0: fc7a 077f c93c a13f 1acd b082 c419 a5bf
000002b0: 0000 00c0 d34c b3bf 0065 d575 b711 adbf
000002c0: af42 8579 d9ec adbf 943b 1148 dd72 793f
000002d0: 2c15 8893 a3f7 90bf dfec e6d3 1070 b03f
000002e0: d978 cd97 2143 b1bf d865 d03f eeb4 b3bf
000002f0: 10f0 3e70 ea97 b23f 0000 0000 11bc 8cbf
00000300: 92aa 731b d933 b13f 9b43 7b41 b5a6 afbf
00000310: 51af 8120 47d4 913f 74fb b881 6865 71bf
00000320: 1ac5 bd29 aad9 b33f 6ba1 15b1 7173 7d3f
00000330: 003a beaa 40ad 8f3f e0b9 8043 b7db a2bf
00000340: 19e3 81d2 2958 b93f 84f2 5d72 5fd7 953f
00000350: 0000 0000 fd2f 983f 6f0d 49a0 0527 a1bf
00000360: fb7d 502b a905 b83f 8365 e805 a935 a9bf
00000370: b393 0bf4 8450 b03f a119 2e85 fabc b2bf
00000380: b857 5057 7c36 b73f 00a2 34bc 7f4d b63f
00000390: 9071 4a3c 8019 a43f fbd1 f65f ffd2 52bf
000003a0: 5858 6c2a 264a b23f 0000 0000 2707 883f
000003b0: d90f b9b0 e65d b83f 978b 3db8 7709 b9bf
000003c0: cbe8 f41e 97a9 adbf dc79 e111 d5d9 a0bf
000003d0: 0000 0000 88c5 b5bf 8362 fe85 2dc2 a4bf
000003e0: b798 6f6d 8c99 9dbf 3b39 7530 abf4 95bf
000003f0: 0b29 24ce 017d b83f 0000 0080 9249 ae3f

linear2.weight f8 [64, 128]
0.05838426166902769 -0.050616403840412466 -0.07980796694755554 -0.019766375412652245 0.012645073235034943 -0.036263284601343995 0.06972210069801223 -3.840253915428873e-05
-0.02128402143716812 0.06514564538464655 0.0054917679187919555 0.029492124743559722 -0.03600282239281928 -0.0656299498618869 -0.07993624953090589 0.07045863186324589
0.010051057985010884 -0.0381708099320138 0.033761732280254364 0.02030839737445139 -0.044867878450297334 0.08288722015277486 -0.06125673336057817 -0.0658618132373134
-0.023795777294395196 0.06412609666585922 -0.053203750676041626 0.02042494114182554 0.02240465548763278 -0.010331541299819946 0.06153859320213151 -0.07050046732131468
0.0009393625979289325 -0.033578854185576 0.00416975997293137 -0.01091136783361435 0.02793172001838684 0.04139628854089639 0.019826553761959076 -0.09236987162969917
-0.01789934023323025 -0.06621591001749039 -0.021466815165210342 -0.009184137842240798 0.01532804966877248 0.07842452771839431 -0.048027535822257154 0.004109594660247663
0.07733683713172203 0.054075874388217926 -0.040629804134368896 0.0002985257892258215 0.03982750793483092 0.01196729692454777 0.08742479234933853 0.04201667755842209
0.024730665181276115 0.012442410867006504 -0.041871629655361176 0.07045927181871879 0.0064946062249349795 -0.05033580154620863 0.0611121754166102 -0.0628672125127919
-0.03534899856441721 -0.06471532763569103 -0.034381804748290404 -0.06496893500769714 -0.032105445861816406 -0.012975804377238788 -0.06390675902366638 0.04647260159254074
-0.025155968964099884 -0.057003673166036606 -0.08314365723793544 -0.01077357679605484 0.01654951764132537 0.030450810514901935 -0.08978764263013791 0.052754435488981836
-0.07438834011554718 -0.03770778416467723 -0.06292207539081573 -0.019743370027475973 0.0024840328153241395 -0.033229571655445926 -0.001781851053237915 -0.03789508227690743
-0.017987973004529034 0.02327587435182684 0.05859605872253745 -0.004448377158563043 -0.001875292002494953 -0.03907573906254267 -0.05761305563279308 0.08714691549539566
0.03166628652936568 0.06217162271170008 -0.04693202612872357 -0.08087413463552436 0.06596945397043613 -0.08569609257008157 -0.0879509187773801 0.0027781075279716878
-0.08344757745674637 -0.07624633365902922 0.05557020753622055 -0.07119508729784109 0.027468913804167265 -0.014775722533463586 -0.06581894624922344 0.08159378297671924
-0.037252192495524104 -0.08000485338949234 -0.0609032825065912 -0.033319415123704496 -0.06727224733274113 0.00560973584651947 0.06790874071747338 0.005425747673642898
0.007217639137887303 -0.03997179942138028 -0.01024780422449112 -0.0652403383544868 0.025527022332866287 -0.04811771969570532 -0.03102708920721338 0.005564071238040924
0.020924691355641328 0.015163958023526746 -0.08217309415340424 0.024729389526644815 -0.009131655097007751 0.04635510136928383 -0.011273947967850697 -0.06190521337583119
0.013390041887760162 -0.07679637260893017 0.06616937436467522 0.04214966722034487 0.04511730820192721 0.03386431534137179 0.008003873578062533 -0.06158287543540752
-0.04913230873265746 0.012057533521346309 0.019219204783439636 0.0007133443368332837 0.07565775650256995 0.05216507204923879 -0.09263195102586373 0.008273305866212206
-0.030606718194008425 -0.007650382816791534 0.043512400858413465 0.041402414557456586 0.08231168847929536 -0.08683203160762787 -0.03531920974520253 -0.018492061303351334
0.06643816958613506 -0.0013109476501584779 -0.07683917878348594 0.012824788689613342 -0.07124398648738861 0.08924417066979738 -0.07236564474116117 0.07627155107367917
0.07712327140749609 0.034773439168930054 -0.030099374177207903 -0.04193020412896099 0.05939599213216444 0.00895947038820702 0.010665109088203593 0.06872481722290025
-0.06517814922275497 -0.059433504939079285 -0.02828627102499987 0.0045101236645765635 0.011463214409107546 -0.08400778526730854 -0.04425780475139618 0.012031197547912598
-0.027115968117636075 -0.06272985433078819 -0.02699265256524086 0.017319040410463036 -0.07605313526339369 0.004616199894362225 -0.04510392216581003 -0.03728454163919869
0.07977320436435974 -0.08167959254141031 0.018011992161986776 -0.0230234605837266 0.023402750492095947 -0.014768316803127509 0.010933749377727509 -0.03474554419517517
-0.08632754534482956 0.017101630568504333 -0.03608909501549324 -0.00850774347782135 0.05990728492326376 0.010228118590481824 -0.03810211453765832 0.05378411394594047
0.008723720908164978 0.08735697171656935 0.03519096225500107 -0.05172446274207805 0.06735580368222606 0.06129038662455249 0.003091752529144287 0.022202529773752606
0.06763144662605172 -0.015546063130807586 -0.03384983072996277 0.049630686321799254 -0.008556342247631762 0.04005600198381905 -0.048513864300328426 -0.0796065479516983
-0.04907756452277232 0.06876780027262024 0.014841334299358007 0.08355629287473014 0.020528602646304524 0.004483194896263523 0.062331233508890624 0.06986723029273538
0.009926668836705545 -0.05472957722245566 -0.07709164917469025 -0.060727965876047944 0.04287399729328741 -0.07378048386193034 0.07700225685856922 0.06415163159910522
-0.01838494978083606 -0.07631643350057425 0.051271734439603235 0.025261587115236094 -0.037391525591245124 -0.027879782021045685 -0.06021432739043917 0.02748258441953733
-0.039650630456056095 0.01223387897683566 -0.03702879697084427 -0.0496069469559254 0.03064877893046906 -0.03857825113654946 0.030033341416033147 -0.034904595464468
00000000: d46c f0bc 8ae4 ad3f 847a 45ae 64ea a9bf
00000010: 0000 0080 4b6e b4bf 7fc9 d4ff a23d 94bf
00000020: 0000 0000 a9e5 893f 620e d1ea 1991 a2bf
00000030: 016f 4ebe 4ed9 b13f f5aa b032 4d22 04bf
00000040: 0000 0080 7acb 95bf 0b64 6790 62ad b03f
00000050: b224 bc39 897e 763f f074 0dfd 2e33 9e3f
00000060: 6251 7b41 f66e a2bf 2380 4bd8 1fcd b0bf
00000070: ec08 80b9 b376 b4bf d2d3 92af 9309 b23f
00000080: 22c3 af2a a695 843f ecc0 a3d8 1f8b a3bf
00000090: 0000 00c0 3749 a13f cfd1 3a7a b9cb 943f
000000a0: f97b 2b2d ecf8 a6bf 5201 d0cb 1838 b53f
000000b0: 360f e3e4 0a5d afbf 5dd6 e8dd 51dc b0bf
000000c0: 619f 0c95 eb5d 98bf 0000 0060 916a b03f
000000d0: bb34 5ba2 853d abbf 744f e898 46ea 943f
000000e0: d5de 63fa 3ef1 963f 0000 0000 b428 85bf
000000f0: 0071 7d8a fc81 af3f 6a6d 7f91 510c b2bf
00000100: 2c74 8fd1 f1c7 4e3f 09df 2061 3f31 a1bf
00000110: 215e 746b 4f14 713f 0000 0000 b358 86bf
00000120: 0000 0000 229a 9c3f d0f8 eaf2 e431 a53f
00000130: 0000 0080 694d 943f dc07 c949 8da5 b7bf
00000140: 5fd2 af63 3454 92bf 0000 00a0 86f3 b0bf
00000150: 27de 5594 65fb 95bf 7721 651d 22cf 82bf
00000160: 198c 4f00 5064 8f3f 3c37 c13d a113 b43f
00000170: 0f00 54af 1097 a8bf 2837 a6ea 38d5 703f
00000180: 41bf 41d2 58cc b33f 0000 0040 d5af ab3f
00000190: 0000 0000 6ecd a4bf 49de 7180 6e90 333f
000001a0: 0060 1f68 4564 a43f b6b4 4c67 4f82 883f
000001b0: 0000 00a0 7861 b63f 0000 00c0 3583 a53f
000001c0: e7ca a5d8 fe52 993f 8db8 0e1e 687b 893f
000001d0: 0000 00c0 3270 a5bf a74f 296c 9e09 b23f
000001e0: 4747 6295 169a 7a3f 8ef6 ea3a 9dc5 a9bf
000001f0: c37f 9a55 184a af3f f6ad bbcd 1018 b0bf
00000200: b1a0 8f91 4319 a2bf 9bc6 be07 2f91 b0bf
00000210: ba56 f1ed 7d9a a1bf ad2f 1ddb cda1 b0bf
00000220: 0000 0000 2070 a0bf 872a 84fb 0e93 8abf
00000230: 0000 0080 315c b0bf 0000 00c0 41cb a73f
00000240: 0000 0080 7cc2 99bf 0000 00e0 952f adbf
00000250: a5ee b418 e748 b5bf 0000 0000 7510 86bf
00000260: 99e2 2254 5bf2 903f 7c5a 314d 7f2e 9f3f
00000270: c66e aeac 52fc b6bf efc9 491e a102 ab3f
00000280: 0000 0040 1d0b b3bf ef75 9547 6f4e a3bf
00000290: 0000 0040 a91b b0bf a7c6 5222 9b37 94bf
000002a0: c23b 87f6 6459 643f 6f5b 0a67 7703 a1bf
000002b0: 0000 0000 a031 5dbf d3f9 1df6 fb66 a3bf
000002c0: e066 1a6f 706b 92bf 76f2 817c a1d5 973f
000002d0: ec8c c677 4d00 ae3f f22b a926 7638 72bf
000002e0: 91fc 8d74 8bb9 5ebf bd69 ae3a bc01 a4bf
000002f0: 52ec 875b 757f adbf 0000 00a0 424f b63f
00000300: 540c 0f42 9036 a03f f16e 927c f5d4 af3f
00000310: bb3c b77a 7907 a8bf ad14 5ad3 2ab4 b4bf
00000320: 3487 56c7 5fe3 b03f eec5 fbda 2df0 b5bf
00000330: dc4f cd8f f383 b6bf edf0 461f 1dc2 663f
00000340: 596e 1b08 d25c b5bf 2864 8135 e184 b3bf
00000350: 0000 00c0 b273 ac3f f180 945b d739 b2bf
00000360: fe3b c899 cf20 9c3f 39ae 72e8 bb42 8ebf
00000370: 16fc 98ad 82d9 b0bf 5e22 7185 54e3 b43f
00000380: 0bf5 f128 b812 a3bf ce42 d4b4 327b b4bf
00000390: 8672 2b0d b72e afbf ce6a 8e0c 3e0f a1bf
000003a0: cdf8 3806 c138 b1bf 0000 0000 3cfa 763f
000003b0: cc7c 7e9c 7762 b13f 7ec8 080d 4f39 763f
000003c0: f72b d340 3e90 7d3f 0ee0 8d06 2f77 a4bf
000003d0: 0000 0000 cdfc 84bf 7dcc 9c3f 97b3 b0bf
000003e0: bcef 5578 c123 9a3f 0ffd e6c0 e2a2 a8bf
000003f0: 547f bdb5 90c5 9fbf 0000 0000 5aca 763f
00000400: 3b9b 3444 486d 953f 73cc 4ffe 470e 8f3f
00000410: 0000 00c0 4b09 b5bf 5c64 113d a952 993f
00000420: 0000 0000 9eb3 82bf 8786 c418 dbbb a73f
00000430: 61bf 8cae cb16 87bf 8d5c cd45 0ab2 afbf
00000440: 0000 0000 3d6c 8b3f 7b89 ce54 eda8 b3bf
00000450: a39f e4e2 79f0 b03f f250 7f24 a494 a53f
00000460: e7f1 6ba6 9d19 a73f df05 c9dd a956 a13f
00000470: 7ea1 12ba 5564 803f 1f39 fa67 ca87 afbf
00000480: 0a13 5eb6 de27 a9bf 4027 28c1 9eb1 883f
00000490: 0000 0000 33ae 933f d769 7a4c f75f 473f
000004a0: 5c05 de85 4e5e b33f 5dd2 e35c 61b5 aa3f
000004b0: 9f83 3840 bab6 b7bf b761 0051 98f1 803f
000004c0: 8880 b916 5e57 9fbf 0000 0000 0256 7fbf
000004d0: 518d 50e5 4147 a63f 09da ff80 b232 a53f
000004e0: 6fdc 18fa 6012 b53f 0000 00c0 9f3a b6bf
000004f0: 506b 8d05 5c15 a2bf 5c53 223a 95ef 92bf
00000500: fb1b 9485 1702 b13f cb4f 3052 837a 55bf
00000510: a333 ed7f bbab b3bf 0000 0000 e243 8a3f
00000520: 0000 00c0 0b3d b2bf 07ab 62ba b4d8 b63f
00000530: f269 840d 8e86 b2bf 7405 7a49 8886 b33f
00000540: 90aa 74c8 59be b33f 0000 0000 d3cd a13f
00000550: a97b e2ce 5ed2 9ebf b2a0 e52e e077 a5bf
00000560: 9636 71c7 2669 ae3f 1063 74c2 5759 823f
00000570: b2d5 efb5 96d7 853f f05b 651a f397 b13f
00000580: 9e56 53e3 83af b0bf 0000 0080 116e aebf
00000590: 91a4 e983 13f7 9cbf de8d 3e1a 3579 723f
000005a0: 6c06 f497 067a 873f 761d 55c2 8881 b5bf
000005b0: 0000 0080 f5a8 a6bf 0000 0000 d0a3 883f
000005c0: 05fa 0ed1 49c4 9bbf 7365 d550 100f b0bf
000005d0: 0000 0040 f6a3 9bbf f9e7 a420 15bc 913f
000005e0: 1cec b6e0 3778 b3bf 71d5 3fb9 6fe8 723f
000005f0: 3d39 3f7d dc17 a7bf df31 f99d f516 a3bf
00000600: 8f90 d747 046c b43f 5749 b72a f4e8 b4bf
00000610: fc0e 1655 bc71 923f 9bcc fd48 7693 97bf
00000620: 0000 0000 e4f6 973f 3ebf 7ded d93e 8ebf
00000630: 0000 0000 6f64 863f 0000 0000 2bca a1bf
00000640: 0000 00e0 8f19 b6bf 0000 0000 1783 913f
00000650: 39e5 aa15 457a a2bf 0000 0000 826c 81bf
00000660: 9a3c 13eb 2aac ae3f 980d c4d6 7af2 843f
00000670: 3f04 b2cf 1e82 a3bf ba61 e264 9789 ab3f
00000680: 0000 0000 bedd 813f cbaa 99c8 065d b63f
00000690: 0000 00c0 8c04 a23f 3ac3 c2f7 a07b aabf
000006a0: 19ce 02de 3a3e b13f 072a 391c 7461 af3f
000006b0: 0000 0000 e053 693f a522 118d 42bc 963f
000006c0: e2a7 7063 4b50 b13f a0b3 d345 9dd6 8fbf
000006d0: d6af ebd7 c354 a1bf a3a4 427d 3169 a93f
000006e0: 6b04 04d1 fc85 81bf eada 0e65 3882 a43f
000006f0: bd1d 2529 cfd6 a8bf 0000 0040 1861 b4bf
00000700: 1d6e 2fcd b120 a9bf d352 303d c49a b13f
00000710: d7d6 8e2b 2265 8e3f 6b9f 45f9 f163 b53f
00000720: 826b fe33 7305 953f b671 6077 f85c 723f
00000730: e64a e122 e1e9 af3f bb5d 2b9d d1e2 b13f
00000740: b450 18f0 6e54 843f 83b5 96e0 8305 acbf
00000750: 0000 0040 47bc b3bf 37cc c766 bc17 afbf
00000760: 9b69 72a0 94f3 a53f c621 451d 47e3 b2bf
00000770: b9fd ec7e 6bb6 b33f ba04 b4c7 3d6c b03f
00000780: a46d 3018 81d3 92bf 7746 084a 7989 b3bf
00000790: 852c 41ed 4940 aa3f 261d 056a 2cde 993f
000007a0: 3db7 1f67 fb24 a3bf 0000 0080 848c 9cbf
000007b0: 5dff c88d 69d4 aebf a177 2a05 6524 9c3f
000007c0: 6f2a 2662 164d a4bf 69ae de70 130e 893f
000007d0: 0000 0040 70f5 a2bf b303 a9ed 1466 a9bf
000007e0: 4bbf acbc 6462 9f3f 32cc ef4d 87c0 a3bf
000007f0: 7194 af6c 0fc1 9e3f 0000 00e0 03df a1bf

linear2.bias f8 [64]
-0.035984263870491626 0.00468387241304218 0.022551715905231584 -0.018774100167770157 -0.07126672004934992 -0.0790470808159224 0.026191157511813532 -0.05551354531579424
-0.06547916889375137 -0.03932962268058866 0.04142694662845364 -0.07887946971281741 -0.03996214858994223 -0.03481825588614076 -0.0458802851513676 -0.07855898038315767
0.04460831820940506 0.01114746119451003 -0.07902854100879368 -0.012209199018919268 -0.027000290361697155 0.0487719180043402 0.021535758862112866 -0.017832192040899805
0.04014409163802351 -0.07845860613388031 -0.026024256083025638 0.08855762529754581 -0.0663768871387369 -0.013130917223644668 -0.035126586361268954 -0.012369317225638997
0.01157431962302149 0.07539622917221121 -0.007361342204330214 0.061713484590646774 0.027565427994316508 -0.08177206151493296 0.038959117603495984 0.002777228445467987
0.013586117505383102 0.023240218838404558 0.055334589271548426 -0.03469300065588552 0.04207113226472364 0.07259102885701066 0.014395931846609263 0.07770249715334124
-0.08172230692912447 -0.05572356591155604 0.07417429599949406 0.026430753327860303 -0.03722663789473456 -0.05067879877136735 -0.052742387673577515 0.02556649151764463
0.028826342512607184 -0.027181560960128408 -0.05496743205921088 0.061636416760895485 0.008361504638597276 -0.04146075702880294 0.07042540729542801 0.0578621994004701
00000000: 7621 fd88 876c a2bf b58b 526d 652f 733f
00000010: 9069 2009 cc17 973f 83fa ed88 8439 93bf
00000020: 9cb7 e727 893e b2bf 1adb f2f2 6d3c b4bf
00000030: 599b d4d3 dad1 9a3f 4392 3b7b 456c acbf
00000040: c7c9 f728 3ec3 b0bf 2ab3 5a26 0323 a4bf
00000050: 287b e2a9 e935 a53f 2d0c bee6 7131 b4bf
00000060: 871b 8b32 eb75 a4bf 4362 abcc b2d3 a1bf
00000070: e736 83e8 9e7d a7bf 3082 8dfb 701c b4bf
00000080: a48b adc7 e6d6 a63f 385d 1cea 7ad4 863f
00000090: 5357 15e7 363b b4bf 8510 f9f3 2201 89bf
000000a0: a00e 58d0 f6a5 9bbf 5d6b 9501 a2f8 a83f
000000b0: 177e 0750 780d 963f dfd0 8626 9a42 92bf
000000c0: 3706 6d31 c48d a43f 7e4c 6ffb dc15 b4bf
000000d0: 2807 1e43 1aa6 9abf b5e1 7668 b6ab b63f
000000e0: d09d 785f 13fe b0bf 7a17 56e0 61e4 8abf
000000f0: 0d96 48a7 1cfc a1bf 9feb a9a7 1555 89bf
00000100: 4ddd 08e2 46b4 873f 6f4f 89d2 2a4d b33f
00000110: 4230 5b40 ed26 7ebf 75fb 13ec e898 af3f
00000120: 047e f18e 1c3a 9c3f 16e2 ee89 03ef b4bf
00000130: 7bdf f90f 73f2 a33f bc08 192b 45c0 663f
00000140: 8eff ebd2 09d3 8b3f e389 73af 48cc 973f
00000150: 9e8d 84b6 d054 ac3f 4d2c 6fee 47c3 a1bf
00000160: 0888 5df2 588a a53f a281 ec5e 5395 b23f
00000170: 4424 d043 9d7b 8d3f 8a54 1794 4fe4 b33f
00000180: 6440 9dcb c0eb b4bf e2cb 699a cc87 acbf
00000190: e58a 852f 16fd b23f 4a72 9bd4 a910 9b3f
000001a0: de88 98b0 5e0f a3bf 4bad a54e 92f2 a9bf
000001b0: 3e89 57dc 0c01 abbf d358 c433 1a2e 9a3f
000001c0: 0076 6b19 a784 9d3f ae0d 83ad 7bd5 9bbf
000001d0: e62d 14f6 b024 acbf b01a 76f4 ce8e af3f
000001e0: afb9 be27 d61f 813f f320 0327 583a a5bf
000001f0: 102f 2445 6607 b23f 4f05 333c 1da0 ad3f

linear3.weight f8 [3, 64]
-0.056461250022296884 0.08361524536880073 0.12124096951570432 -0.006688665703077792 -0.047127570773067576 -0.04684857413202439 0.04737223451752575 0.021157020126004202
-0.20884448952372633 0.20239166606896747 0.08425702815964621 0.13046113112344396 0.020136192347344362 0.1389525848680175 -0.1420362155893281 0.0932224712119758
0.03144837100970564 -0.19700478651711892 0.041333015621816196 -0.1271304887712843 0.1057905044858829 0.0936541708986436 -0.07032023071724999 0.12426403744693226
-0.10682980488590929 -0.03223571622133812 -0.03817851714846083 -0.05468576850552497 -0.031110187937818386 0.12442680186039178 -0.16048513427820668 0.00408059009828213
-0.13293400547741344 0.11405335306600396 0.11890514846979876 0.06946214332389138 0.08187704336737639 0.05957161679198355 -0.07205346263847182 -0.07188415401573925
0.10952433185173989 -0.0692729283560803 0.09501503346537384 -0.07905610347006906 0.05595556103929046 -0.14742989759322242 0.014619569701978719 -0.14032273609546358
-0.1096551276347472 0.06963016429606081 0.13109776231157344 -0.0002531907678602335 -0.013106062772550425 0.10737101985606289 0.17430644082850116 0.12567503463316404
-0.09844671875449217 -0.08285916985360783 0.04617362197113017 0.00423609391450294 0.14822372552747853 0.012548219110901801 0.14329714981362288 0.12242656586547544
0.06899868653750925 0.07371469684442118 0.07625806235952952 -0.10755701059158394 -0.001960099915688911 0.012552510132180023 0.026617959241391095 0.03205698507500676
0.01505425346601544 0.15488333591902073 -0.08946685905326836 0.059703540926442346 -0.12705907712685488 0.12376594960089454 -0.0627967623727022 -0.029804693208010574
-0.005473539289502219 0.020940587160454903 -0.045062463564432234 0.09126582747040227 0.08605457092937499 -0.0011732260689454725 0.1488702014755019 0.0760556266721848
0.1077601170922056 -0.05671183738888335 0.09224374538232383 -0.11936235104706476 -0.13353557280538605 0.028926518177482208 0.024189468009753034 -0.03748537340763622
-0.06042229067143861 0.10146324846253396 0.018314448177035147 -0.06884842045854696 -0.0740703943051019 0.09219535003233463 0.12756580080985888 -0.11608099238030375
0.011618900514444107 -0.12288843489485643 0.09477507842645996 0.0862010047625979 -0.02493743604475508 0.08719256812950148 0.1573016208467309 0.10151859637450553
-0.015985840141153583 -0.20304511534350503 -0.02136241847647538 -0.13195657222784227 0.05809261198333268 0.05179350993607373 0.005982670190509324 0.05315884731123188
-0.09492237508441818 -0.022647675624665586 -0.01706945199020789 0.09441875650305305 0.10949807846194831 -0.09687389227529845 -0.012619618065452387 -0.14952304753825887
-0.07112594130647157 0.030941461099461255 -0.08829737708340282 -0.0451615966402517 0.08404911780846905 -0.012609960217760787 0.10750816985516562 0.04971105697855467
0.024856069626283468 -0.1432742702813693 0.041339514149772244 -0.10512994399965482 -0.028663734597625896 0.013015279174543886 0.1437340000386362 -0.03772009967640483
0.022698246697574694 0.027924856690991744 0.024131089669109665 0.06733698662589394 -0.03004913143980889 -0.09815679712843495 0.13812499784202123 -0.07670186602913648
0.10522900230690964 0.20795877692641418 0.10260808395333251 0.10342698670194331 0.13049976476866476 0.07971253844543995 0.019322325757132983 0.03179815501059469
-0.0768845024437155 -0.2798393115657701 -0.030485335730123544 0.0749629252507687 0.05622647180831576 -0.12213508391835788 0.1190643764635082 0.1304717726444026
0.017553527573009705 0.06940443504544579 0.050849068053159176 0.09308495805958333 0.09559741419861738 0.07168703899836654 -0.11619443886356712 0.1014301886434979
-0.06247082919923545 0.09979840823128223 -0.16717207827303984 -0.03125414245797889 -0.12633754630112223 0.07751943493717169 -0.16575949537837048 -0.13942004236576794
0.0940177771484654 -0.015642679568074996 -0.1862481353444241 -0.10639104157108241 -0.22980020185948985 0.04842853742983875 -0.05256418445622306 0.002404885045547711
00000000: 1591 ac2c 7de8 acbf f956 4e08 cf67 b53f
00000010: 3a5a 01ef a509 bf3f f672 2d07 9365 7bbf
00000020: faa5 6bde 1a21 a8bf 03c6 854b 89fc a7bf
00000030: 9780 fb6b 2c41 a83f a787 1696 2faa 953f
00000040: db23 3a8e 6abb cabf bee4 5f59 f8e7 c93f
00000050: 8161 675c de91 b53f 9d84 c949 f3b2 c03f
00000060: 2d28 64fe 949e 943f 57f5 d9c3 32c9 c13f
00000070: ece1 6622 3e2e c2bf b094 1b89 6ddd b73f
00000080: ee91 ff39 001a a03f e78c 9fed 7337 c9bf
00000090: ca77 aedc 9929 a53f c86f ccd5 cf45 c0bf
000000a0: 7084 fe24 1615 bb3f 81c7 2441 b8f9 b73f
000000b0: e681 2db3 8100 b2bf 584b e798 c4cf bf3f
000000c0: 3e19 39b6 3259 bbbf ed18 de25 3381 a0bf
000000d0: c9f4 1f75 228c a3bf ef61 93e6 c5ff abbf
000000e0: 3fb6 0f5f 59db 9fbf 2f7b bc54 6fda bf3f
000000f0: 5d0a 9ce1 c68a c4bf 23fb 5310 cfb6 703f
00000100: 95a0 0643 fb03 c1bf b1e9 6abd 9932 bd3f
00000110: b3f9 005c 9170 be3f 93dc e261 45c8 b13f
00000120: a459 8ed7 e4f5 b43f 6367 c8c3 2b80 ae3f
00000130: fa85 9881 1872 b2bf 6a25 99fa ff66 b2bf
00000140: a562 6b5f c909 bc3f a59a c9e1 debb b1bf
00000150: 4db4 5cbd e752 b83f e600 f452 053d b4bf
00000160: f2db 6211 35a6 ac3f 57c9 4e9e fbde c2bf
00000170: 2d42 036e ddf0 8d3f 1227 356d 18f6 c1bf
00000180: 7baa 07c3 5b12 bcbf de78 774e 48d3 b13f
00000190: a07e dabc cfc7 c03f f5cf 4e11 d697 30bf
000001a0: 3640 e6f7 59d7 8abf afe8 d1ca aa7c bb3f
000001b0: da97 6b67 ac4f c63f 5e28 d699 1e16 c03f
000001c0: 2ff5 72dd cd33 b9bf 8ee8 b130 4236 b5bf
000001d0: ff94 9ba8 11a4 a73f de8d 35cd dd59 713f
000001e0: d8de d0ba fef8 c23f 588a a275 e1b2 893f
000001f0: 719e 079e 8f57 c23f 4bc6 8df0 5857 bf3f
00000200: 4543 25de e5a9 b13f 856c 2e64 f7de b23f
00000210: 53f8 e3fb a585 b33f df45 f232 db88 bbbf
00000220: 0ae3 1ca1 a00e 60bf 2add 0064 21b5 893f
00000230: ff4e b601 bd41 9b3f c0d2 02ed c569 a03f
00000240: 11f8 6ab2 c3d4 8e3f 89d9 3b97 37d3 c33f
00000250: 41aa b5d1 4ce7 b6bf 1d0c 7867 7691 ae3f
00000260: 76bb 75ca 7843 c0bf 04ec e411 20af bf3f
00000270: f378 afd8 7213 b0bf 1804 621a 1f85 9ebf
00000280: f757 de03 6c6b 76bf 0682 0d04 7371 953f
00000290: b2a6 925e 6d12 a7bf 3a4e 3a80 325d b73f
000002a0: 521f d01f ac07 b63f ba30 34e6 dd38 53bf
000002b0: c8d5 57c3 2d0e c33f 90db 3bad 6178 b33f
000002c0: 2362 b9c2 2a96 bb3f e73c c37d 5509 adbf
000002d0: 4879 ad3d 499d b73f b3ed 1ef2 878e bebf
000002e0: 13a0 0693 b117 c1bf b0dc 3cc6 e99e 9d3f
000002f0: 93c1 09b8 1fc5 983f 4c71 ba69 4831 a3bf
00000300: 5737 c4a4 abef aebf 407b e4d5 7ef9 b93f
00000310: f0cd dbcf 05c1 923f f52e 40d2 0ca0 b1bf
00000320: aa69 2401 47f6 b2bf 2b6e 3b4d 1d9a b73f
00000330: 9b7f 487f 1354 c03f d6eb f5e1 7bb7 bdbf
00000340: acd4 cc6d a6cb 873f ae16 eed0 9d75 bfbf
00000350: 6a46 51f6 2d43 b83f 6473 56e0 4411 b63f
00000360: a383 0801 3389 99bf b709 928c 4052 b63f
00000370: 037f 92a2 7522 c43f 6e44 5d6b 1ffd b93f
00000380: e6dd 6b92 975e 90bf c5a6 01e1 61fd c9bf
00000390: c834 e1a2 07e0 95bf f3fc 1af5 f3e3 c0bf
000003a0: 7c1b 3799 50be ad3f f716 a4ce ad84 aa3f
000003b0: 5ed2 f9cc 4881 783f a0bc 63ed a237 ab3f
000003c0: c36e a530 d54c b8bf f3ac 8dc8 f330 97bf
000003d0: b5fd 3b88 a77a 91bf f541 4fdf d32b b83f
000003e0: 7c0a f8e9 1008 bc3f 3b9c 2837 bacc b8bf
000003f0: ad74 0877 50d8 89bf dd68 963b 9223 c3bf
00000400: 92fa ce47 4f35 b2bf 1af2 0c4e 1eaf 9f3f
00000410: d252 e52a a89a b6bf c6c5 35b9 6b1f a7bf
00000420: 02ba 3e34 3e84 b53f 21c4 e935 40d3 89bf
00000430: feab 94c9 a785 bb3f 8ae9 f147 ba73 a93f
00000440: 55a2 9b98 de73 993f 54be 9bb0 cf56 c2bf
00000450: f491 9cea 732a a53f 690f 4fc7 cbe9 babf
00000460: b24c b6aa 065a 9dbf 694b 3933 c1a7 8a3f
00000470: 479e be2e e065 c23f 5827 0685 0c50 a3bf
00000480: 3f72 f88c 353e 973f 3be5 ee68 5598 9c3f
00000490: 945d c803 d2b5 983f 4091 5e2b ff3c b13f
000004a0: 988e 3a13 33c5 9ebf d0f6 8bc9 cd20 b9bf
000004b0: 2beb 3e76 14ae c13f 0c27 23c6 bba2 b3bf
000004c0: f5b6 7fb3 49f0 ba3f 7855 e8a8 649e ca3f
000004d0: 4e81 e2fc 8544 ba3f d29e 68e5 307a ba3f
000004e0: 0097 e85e 37b4 c03f 7b4d b479 0a68 b43f
000004f0: dc92 d654 3bc9 933f f1f1 af07 d947 a03f
00000500: 32a3 90e7 b3ae b3bf 49d9 d324 e3e8 d1bf
00000510: 37b4 df3f 8c37 9fbf c452 5d30 c530 b33f
00000520: 1220 2c53 b7c9 ac3f cda1 1faf 3e44 bfbf
00000530: c086 07c3 007b be3f 9d88 478e 4cb3 c03f
00000540: 0f0b 6c4b 8df9 913f 17b1 b732 7dc4 b13f
00000550: 150b a498 e308 aa3f 9c8d 9d72 6ad4 b73f
00000560: c3b2 9077 1279 b83f 1c89 0bf0 145a b23f
00000570: 4c66 e532 ebbe bdbf 040a 0d2f 54f7 b93f
00000580: 56bc ba30 2dfc afbf b5d4 8b73 638c b93f
00000590: ed57 7e08 e565 c5bf 446e 71ff 8a00 a0bf
000005a0: e762 cf26 d42b c0bf 9d0b dc4d 50d8 b33f
000005b0: 7666 d36d 9b37 c5bf 9a17 2f15 84d8 c1bf
000005c0: f263 188e 8c11 b83f a8b0 aa74 a204 90bf
000005d0: 7165 1f99 fad6 c7bf db9a 227c 713c bbbf
000005e0: fae3 cccf 176a cdbf fd95 e810 a0cb a83f
000005f0: 065c 5c5a b1e9 aabf 196b e1d3 68b3 633f

linear3.bias f8 [3]
-0.141012696126589 -0.03182388036134854 0.11494775572053419
00000000: 3a9d 173b b40c c2bf 9182 c43a 384b a0bf
00000010: 897b 9153 376d bd3f
