runs/testrun-load-pretrained-15r-20bs-30ep/1/LocalModel-1-Round5.pt (torch, 167767 bytes, 6 tensors)

linear.weight f8 [128, 95]
0	0xbfb3e3b1a8d00b88	-0.07769308444407674
1	0x3fb4d691cc135856	0.08139907104791297
2	0xbfa60a2d7c7ffdaa	-0.043046399543523364
3	0x3f9046e9bfe61c73	0.015895511949136364
4	0x3fb9a407636a9bfc	0.10015913178595776
5	0x3fb8b4d639f7f45d	0.09650935092209197
6	0xbf2d49f2a5c9b7ad	-0.000223456258840069
7	0xbf834ae43aa85020	-0.009420187988361362
8	0x3fb481bd9f20d2ba	0.08010468611684987
9	0xbfa76827940ca673	-0.04571651155704339
10	0x3fad271424845faf	0.05693877168431471
11	0xbfb3f1d09b765730	-0.07790855212655567
12	0xbfb1de4e118432fc	-0.06979835441252286
13	0xbf86a3b153de1278	-0.0110544065207787
14	0x3f983227033bd58e	0.023628816196795514
15	0x3f982a30d85cc426	0.023598445134840905
16	0xbfac9e41197be460	-0.055894884453615346
17	0x3f34b49c454cb868	0.00031594100191768013
18	0x3fb572ac479b6400	0.08378102062432902
19	0x3fb7425d81498fbb	0.09085640341214589
20	0xbfa027c5aef29e73	-0.031553437810825445
21	0xbfad93a4ae8122c4	-0.057767053891955494
22	0x3fb6c0085eb390c6	0.0888676863865526
23	0xbfac20f6a61ce4ae	-0.05493899133438994
24	0x3f879a6bb51e7b7f	0.011525002922835757
25	0x3f90bc106a1740b5	0.016342407679815724
26	0xbfafb7eb28a62a44	-0.06195006247715587
27	0x3f991248536b2715	0.024483804789986758
28	0xbf4b359baee8cb8a	-0.0008303651973789888
29	0x3fa364b42fb82038	0.037877684426405656
30	0xbfad7ae88966e9b9	-0.05757834126730494
31	0x3fa909e6e92750e2	0.04890367122757923
32	0x3fafbc51ba3b5140	0.061983636840212686
33	0xbfb812e2a90c81d3	-0.09403816821259818
34	0xbf9bfc7f43a44127	-0.02733038759566955
35	0x3f970342d27e7b3e	0.022473377320803005
36	0xbfb4a56b38692a05	-0.08064909102646574
37	0xbfb8bc34a0c5f9f3	-0.09662178921823976
38	0x3fad4c1cef9853ee	0.05722132134193446
39	0xbfb60e1bf023a814	-0.08615278828406786
40	0x3fb44d742bb31643	0.07930685107120276
41	0xbfb553d44cc9c604	-0.08331038355552073
42	0xbfb651ab5f21c6a4	-0.08718367645794928
43	0xbf819a2135fead2b	-0.008594760380069197
44	0xbfb0aba0ec2d1ece	-0.06511884466192017
45	0x3faeb547526122e0	0.05997679596527461
46	0xbf9f83024daa0d84	-0.030773197164774682
47	0x3f95b7743d5d3aaf	0.02120763420617305
48	0xbfb9a4040bd85903	-0.10015893258273327
49	0x3fa1129ff504b728	0.03334522119472033
50	0xbfb91e0a4826b723	-0.09811462651734053
51	0x3fb3522929fb6d0e	0.07547242426828779
52	0x3fa7d5e804c654dc	0.0465538507298022
53	0x3fa6a7578fe95410	0.04424546844226296
54	0xbfb4e5cdd307d552	-0.0816315307818816
55	0x3fb6ec2b8321d98b	0.08954116775007585
56	0xbfaaf30b8fbd4839	-0.05263553743010658
57	0x3f80bf9a92bf9c61	0.008177955249221993
58	0x3fb1f14176a5c157	0.07008752009074236
59	0x3fb7e8ec2c6eb3f8	0.09339786610389911
60	0xbf57be2330d96420	-0.0014491408977817047
61	0xbfaeb09254fc57de	-0.05994088447020805
62	0xbf6b39aba6b8250e	-0.003323397880880769
63	0x3fa2ad379c7ed6cf	0.03647779260010752
64	0xbfa4ab0192010dcb	-0.04036717326428237
65	0x3fb287fb9c14db5e	0.07238743362982578
66	0xbfb5df0424fd2ef7	-0.08543420699168879
67	0x3fa9020462fb4a2e	0.048843514521326944
68	0x3fa0a656f2953922	0.03251907073227957
69	0x3fab0d8ff89605d0	0.05283784780022993
70	0x3fa336ad26740811	0.03752652258300782
71	0x3fa9cc0e5f96fcbd	0.05038494984500506
72	0xbf851c1fe5cc2d3e	-0.010307549667706636
73	0x3fb12e7c8efe1fec	0.06711557856590361
74	0xbfb15694d2e79cb3	-0.06772737645188691
75	0x3fb09a90065231e8	0.06485843805621239
76	0xbfa5fb6768af6ce8	-0.042933684853517395
77	0x3fb9b03310899acc	0.10034484056232457
78	0xbfba5ba086b798b6	-0.10296061791413788
79	0xbf97b147b57f96fc	-0.02313720746305757
80	0xbf9938bbecb3c181	-0.02463048584189798
81	0x3fb19c815a7f92b4	0.06879433116371098
82	0x3f7635b72649f768	0.005422320774071433
83	0xbf8bd1f833242f8a	-0.01358407884665504
84	0xbf91ac693feacaf7	-0.0172592587720812
85	0xbfaa4823d119c54b	-0.05133163383005498
86	0xbf528e5c376445bd	-0.0011325741339230776
87	0x3fb3b62780825643	0.0769982041113844
88	0x3f9901b4f17c3914	0.02442057346257183
89	0xbf90583401dd0012	-0.015961468328214386
90	0x3f8561668e73d4c7	0.010439683172516102
91	0x3fb38b2a1b28219a	0.07634223139769461
92	0x3faa37b4957bc541	0.051206248519415805
93	0x3fa738de3bb8d91d	0.04535574416188324
94	0x3f9ceaf8d14d0676	0.028240096831046967
95	0xbfb0036994627fd8	-0.06255206940340885
96	0x3f8854828e5f9999	0.011879940004246236
97	0x3fb2a6547beab1fb	0.07285049462615938
98	0xbfa1b38eae1e200e	-0.03457303882083816
99	0xbfb8c4ed18c4deed	-0.09675485472405017
100	0x3fb40eafd12c8414	0.07834910256180222
101	0xbfb91ddd8aea34b5	-0.0981119598529457
102	0xbfb3afdf1dc6562f	-0.07690233685419721
103	0xbfb74f17d2155c24	-0.09105061415662924
104	0xbfb4f32bdf39c030	-0.08183550071567036
105	0x3fb80308dbd8c7d1	0.09379630439141741
106	0x3fb2e79f6435bbce	0.07384678074389159
107	0xbfb14da69258c84c	-0.06759110520286632
108	0xbfb3edaac25021ed	-0.07784526103944929
109	0xbf7d6540343dea48	-0.007176638409755194
110	0x3f9a9f34abc7e5e9	0.025997946724578034
111	0x3fb8183ea1d7164e	0.0941199441068303
112	0x3fb7505918866597	0.09106976364855367
113	0x3fa932bb7a958380	0.04921518203150921
114	0x3f90de17e7236422	0.016472218973692894
115	0xbf8d003c4ade8f26	-0.014160605463821318
116	0x3fa21f64ea3871aa	0.03539576872956059
117	0xbfa1faf10c8c4abf	-0.0351176574532892
118	0xbf9427735b1dd5ef	-0.01968174213057766
119	0x3fb6a848442e1610	0.08850528397132273
120	0xbfb6841eb4552e9c	-0.08795349028258176
121	0x3fb9c1a8af05ab49	0.1006112506199034
122	0x3f93fa7947c89f28	0.019510169035270725
123	0xbfb6efeb7430775a	-0.08959838472989415
124	0xbf9dd3b75e054cda	-0.0291279460082706
125	0xbfb1b540516dda6c	-0.06917192447677117
126	0xbfb68f8ac6fd27e3	-0.08812777860762781
127	0xbf80cbe540960932	-0.008201399835119891
128	0xbfb304ed397f8d9b	-0.07429392484441737
129	0xbfb3a309ac37ede2	-0.07670650915672853
130	0x3fb59fe9e39b63ac	0.08447133833705206
131	0xbf484501e56f4c85	-0.0007406481989796909
132	0xbf9add8ea4e1e7fe	-0.02623579865801417
133	0xbf9d99e7b9079f6f	-0.028907414120026894
134	0xbfb5ffd2a6524f83	-0.08593479691108823
135	0x3f96606cc218cc44	0.021852206560833545
136	0x3fa2cd41b8df6a46	0.036722234551878105
137	0x3fa24fb9c248d183	0.035764508215296885
138	0x3f73c2d833a7a386	0.004824490106764117
139	0x3fb10673bf0a5381	0.06650470174856872
140	0xbf4763dca166cc40	-0.0007138087556114517
141	0x3f91e7bdfb008945	0.01748558849806982
142	0x3f7f7cb953b0d1c1	0.007687305386799571
143	0x3fab2e6ec02a3b14	0.05308862777484627
144	0xbfaece00c7d99b46	-0.06016542853904254
145	0x3f9ee4440b84d457	0.030167639926009873
146	0x3fb3791f0420a3d9	0.07606691218155905
147	0xbfb5581805abd699	-0.08337545526941383
148	0xbf9e93669ec5c129	-0.029859164658263247
149	0xbfa74da10ef0a1c7	-0.04551413829205191
150	0x3fb0c0925fd2134b	0.06543841208811078
151	0x3fac3aabc1c8f4f6	0.05513512363948252
152	0xbfa1238a61986320	-0.03347427789066715
153	0xbfa1a64dde31c9db	-0.034471925137853986
154	0x3fb0f389f5c7f7c1	0.06621610880389907
155	0x3fb214cbd337e1b2	0.07062982470222925
156	0x3fab007996da0a53	0.05273799864246045
157	0x3fb64b8807c8e1e9	0.087090017223893
158	0x3fb43320e9d61116	0.07890516003505285
159	0xbfb29149ae742678	-0.07252941617130115
160	0xbfaa74fefdd93775	-0.05167385910736658
161	0x3f4bd63b4f17b284	0.0008495130152233609
162	0x3fafaf970c3da8bd	0.06188652061867248
163	0xbfaaacd8ed6afb3e	-0.05209997080009153
164	0x3f821db674ad9c03	0.008845735011801642
165	0xbfb61487b0df5d7a	-0.08625076358963737
166	0xbfb92051a061be26	-0.09814939656802632
167	0x3fb39bbccbfb9233	0.07659511547132851
168	0x3f7ea13dfaaac360	0.007477991205335183
169	0xbfb55ec9aa0e76af	-0.08347759629983885
170	0xbfaa61f7498ecfce	-0.05152867100642276
171	0xbfa5629e9a7dee34	-0.04176803241622587
172	0x3f804eaf8b5d9df9	0.0079625811010393
173	0xbf9d67ce7d7096ec	-0.02871630325912282
174	0xbfad23237051025e	-0.056908709965232104
175	0xbfb4776c1a05f3cb	-0.07994723925908358
176	0xbf9242fb1234698b	-0.017833636270645974
177	0xbfb34e65ef74aded	-0.07541501136864044
178	0x3fa25325a822908c	0.03579061200551434
179	0xbfa9cf8ea44fed7f	-0.0504116607262075
180	0xbfa478ecfaf3b91d	-0.039985089906496386
181	0xbfa717d7c3087c4e	-0.04510378127837865
182	0xbf8c8cde72e26697	-0.013940561181061724
183	0x3fa0ffbcead146b1	0.033201125778430714
184	0x3f607bc65c585403	0.00201214544609707
185	0x3fb991e03028dee3	0.09988213706753472
186	0xbfba3ad33bc5664e	-0.1024601002622145
187	0x3fb8d1659b850d05	0.09694514319294363
188	0x3f9c121151835e8d	0.02741267261521201
189	0xbf94e910a4f28c45	-0.02042032248267513
190	0xbfb3a86f60000000	-0.07678886502981186
191	0x3fb5075780000000	0.08214327692985535
192	0x3fb187fe40000000	0.06848134100437164
193	0xbf9af1e080000000	-0.026313312351703644
194	0x3fb4ae1f00000000	0.08078187704086304
195	0x3f9ff1f100000000	0.031196370720863342
196	0x3fa15e3800000000	0.03392195701599121
197	0x3f9e787a00000000	0.02975645661354065
198	0x3f7ad97a00000000	0.006555058062076569
199	0xbfae4d8ce0000000	-0.05918541178107262
200	0xbfb3523e40000000	-0.07547368109226227
201	0x3fb0116a80000000	0.06276574730873108
202	0xbfb96ad100000000	-0.09928613901138306
203	0x3faa4af400000000	0.0513530969619751
204	0x3fb5420a80000000	0.08303895592689514
205	0xbfa56ec0a0000000	-0.04186059907078743
206	0x3f80507000000000	0.007965922355651855
207	0xbfab174180000000	-0.052911803126335144
208	0xbfb6176140000000	-0.0862942487001419
209	0xbf93143600000000	-0.018631786108016968
210	0xbfb0fdf720000000	-0.06637520343065262
211	0xbfb3135160000000	-0.0745135173201561
212	0x3fa1c3e000000000	0.034697532653808594
213	0xbf91bf8680000000	-0.017332173883914948
214	0x3fba20e1c0000000	0.10206423699855804
215	0xbfa11c6c40000000	-0.03341997414827347
216	0xbfaf8c4880000000	-0.06161715090274811
217	0x3f9ccba500000000	0.02812059223651886
218	0xbfaeb718a0000000	-0.05999066308140755
219	0xbfadfd96a0000000	-0.0585753507912159
220	0xbfa3ac9500000000	-0.03842607140541077
221	0xbfb2720780000000	-0.07205244898796082
222	0x3f6779f800000000	0.0028657764196395874
223	0xbfb066a740000000	-0.06406636536121368
224	0x3faf74fa00000000	0.061439335346221924
225	0xbf81759c00000000	-0.008525103330612183
226	0x3fb2d6ac40000000	0.07358814775943756
227	0x3fa0c83a00000000	0.032777607440948486
228	0x3faa0e7f00000000	0.05089184641838074
229	0x3fa6e46880000000	0.044711366295814514
230	0xbfb7cadd80000000	-0.09293922781944275
231	0x3fb5933a00000000	0.08427774906158447
232	0x3faef39000000000	0.06045198440551758
233	0x3f82ccdc00000000	0.009179800748825073
234	0x3fb89d5bc0000000	0.09615109860897064
235	0x3fb3df1bc0000000	0.07762311398983002
236	0xbf8c738e00000000	-0.0138922780752182
237	0x3fad016a80000000	0.05665142834186554
238	0xbfa656ad40000000	-0.04363004118204117
239	0xbfb0d08fa0000000	-0.06568238884210587
240	0x3fab009a80000000	0.0527389794588089
241	0x3fab311100000000	0.05310872197151184
242	0xbfa5ff7a00000000	-0.04296475648880005
243	0x3fa1bd5600000000	0.03464764356613159
244	0xbf9dda7a00000000	-0.0291537344455719
245	0x3fb198b580000000	0.06873640418052673
246	0xbf9c48ed80000000	-0.02762194722890854
247	0x3fa48a8f00000000	0.04011961817741394
248	0xbfb05f5380000000	-0.06395456194877625
249	0xbf821bbc00000000	-0.00884196162223816
250	0xbf80077700000000	-0.007826738059520721
251	0x3fa06ead00000000	0.03209438920021057
252	0x3fb1f13640000000	0.07008685171604156
253	0xbfaaf90ea0000000	-0.05268140509724617
254	0xbfb278c9c0000000	-0.07215557992458344
255	0xbfb9b1aca0000000	-0.10036734491586685

linear.bias f8 [128]
0	0x3fb149b626b1851a	0.06753099865592951
1	0xbfb0a93754627fd8	-0.06508203325438389
2	0xbf885c5800000000	-0.01189488172531128
3	0x3fa028e6a68b341e	0.031562049703645054
4	0xbf350a6000000000	-0.0003210529685020447
5	0xbf9d411ef99136a3	-0.028568729383826718
6	0xbfadf4599b4b9dc8	-0.058504867751078715
7	0x3fb0b5c1ae7aae83	0.06527338514086449
8	0xbfb663f520000000	-0.08746273070573807
9	0x3f960df1cd17e12b	0.021537569182300913
10	0xbf95090c7b80b99f	-0.02054233077813594
11	0x3fb85c25c1727d7c	0.09515605900604912
12	0x3fa602c3ac6fd330	0.042989840316215555
13	0xbfae46f10ecc0580	-0.05913499169947567
14	0x3f9a6f15ae7052eb	0.025814379474541942
15	0xbfb2c7e76eba092b	-0.07336279347695
16	0xbfb9340808b9f3fe	-0.0984501859001767
17	0xbfa079c02b2a1c22	-0.03217888380918789
18	0x3fb6fc7b40000000	0.08979006111621857
19	0xbfb72cf11825c15e	-0.0905295070604146
20	0xbfb3871565e1428e	-0.07627996194174555
21	0xbfa8be76b224d61f	-0.04832812237365779
22	0x3f83ec5cb5a99b26	0.009728168767833955
23	0xbfadca09e9f9290e	-0.05818205815428899
24	0xbfa5a18f3ca9208a	-0.0422482263134621
25	0x3fb864aac0000000	0.0952860563993454
26	0xbfb110f6bf6fc243	-0.06666509793991175
27	0xbfa6b1cf28879bf8	-0.044325326631046325
28	0xbf8cba9cde97d7f9	-0.01402781061458923
29	0xbfb8928100000000	-0.09598547220230103
30	0x3fb10175079acc2b	0.06642848430310326
31	0x3f9a5212a7d908f7	0.025703708166710162
32	0xbfa67d5073633726	-0.04392482193507723
33	0xbfa9113d68095554	-0.04895965476013467
34	0xbf8ebc88bb5c6d08	-0.015008037774853836
35	0xbf9c3a0c80000000	-0.027565188705921173
36	0xbfb8554520000000	-0.0950511172413826
37	0x3f75c15ddf6d696c	0.0053113619713606
38	0x3f800b6aedb538cc	0.00783427751471457
39	0x3f9a98033f537d4a	0.025970507373924513
40	0x3fb8fa8232e8ee94	0.09757245772282835
41	0xbfaec7e100000000	-0.06011870503425598
42	0xbfb60e32a1f5fb5c	-0.08615414098856661
43	0xbf8cb73d22d0d1cd	-0.014021375298491368
44	0x3fadcc54145b55e5	0.05819952724929659
45	0xbf6b760ab86df87f	-0.003352185190521217
46	0x3f5fc1b90d7f37aa	0.0019382769732944984
47	0x3fb12c90848d8f74	0.06708625064999102
48	0x3fa83ae3dd06cf02	0.047324295740876834
49	0xbfb5221140000000	-0.08255107700824738
50	0x3fb7ca270529086f	0.0929283511732437
51	0xbf9a804395b1bfb5	-0.025879913341156875
52	0xbf91ea2d1fead3d5	-0.017494874070241046
53	0xbf98e389138c436c	-0.024305478876218187
54	0xbfaaf3e7a0000000	-0.0526420958340168
55	0xbfb3fb81c0000000	-0.0780564397573471
56	0xbfa716dcbfc72222	-0.04509630051649462
57	0xbf9fde6bf3bb4d08	-0.03112190890426539
58	0x3fa26a4600000000	0.03596705198287964
59	0x3faf106c693ac4c7	0.060672176213651556
60	0x3fb5c2eb89c00bba	0.08500549424211004
61	0xbfacb841bfd29e8f	-0.05609326807581027
62	0x3f7b57fd13ba63cc	0.006675709326054279
63	0x3fa670c4b72a3b4f	0.043829104765896625
64	0xbf7e61a2f712f565	-0.0074173322511204886
65	0x3f9cd1906000de3e	0.028143173083860377
66	0xbf8f3e7d26bfb834	-0.015255906815550536
67	0xbfa23a5c9c45e943	-0.035601514889054296
68	0x3f9fe50900000000	0.03114713728427887
69	0xbfb61b83a98f8fcd	-0.08635733499210048
70	0xbfb95a0200000000	-0.09902966022491455
71	0x3fa1ca1880000000	0.034744992852211
72	0xbfa35dce00000000	-0.037825047969818115
73	0xbf7880f200000000	-0.005982346832752228
74	0xbfb4e623b2872d49	-0.08163664921373938
75	0xbfa96f1ea0000000	-0.04967590048909187
76	0xbfb4843b960bd9df	-0.08014271176566677
77	0x3fb6fad08c786f31	0.08976462773756279
78	0x3fa944a6aeb59632	0.049351891352483426
79	0x3fb8792cb4831769	0.09559897810967545
80	0x3fad0db280000000	0.056745126843452454
81	0xbf93ef5597a94f58	-0.019467675573039273
82	0x3fb8fe31c0000000	0.09762869775295258
83	0x3f92fbdc8c6c533e	0.01853890044283734
84	0x3fa13dec811a8b93	0.033675566444137627
85	0xbfa519990e280fd2	-0.04121092126663907
86	0xbfb34cd3c0000000	-0.07539103925228119
87	0xbfad10b2197eeeda	-0.05676800309399051
88	0xbfadee71259aca3d	-0.05845979293862456
89	0x3f7940bcd3d31529	0.006165254218278884
90	0xbf90f5e5940f7271	-0.01656302181423758
91	0x3fb07023951354da	0.0642111052469149
92	0xbfb143f1fc0dec32	-0.06744301227256314
93	0xbfb3b58020983403	-0.07698822780385232
94	0x3fb29818a064671d	0.0726333037931934
95	0xbf8cbc1100000000	-0.014030583202838898
96	0x3fb133d91b73aa92	0.06719738884172902
97	0xbfafa86a8d98da62	-0.061831788811492996
98	0x3f91dc59b60d4859	0.017442132698598154
99	0xbf718dc9a00d4ea8	-0.004285609816026138
100	0x3fb3d8741f6f8918	0.07752156989548487
101	0x3f7d997a7064dfd0	0.007226446416375112
102	0x3f8facd7d60318cd	0.01546639081824388
103	0xbfa2db7c0e76ae55	-0.03683078457410419
104	0x3fb9593b0056bcbc	0.09901779897949131
105	0x3f95d28cddc99b7e	0.021310997998081664
106	0x3f982ffd00000000	0.02362056076526642
107	0xbfa127d80d783aa2	-0.03350711025642751
108	0x3fb808b3b8993e83	0.093882782524128
109	0xbfa92de72646d9fe	-0.049178336546379584
110	0x3fb050313cddce63	0.06372363792416418
111	0xbfb2be83c2513805	-0.07321952337335354
112	0x3fb736032d22e770	0.09066791393243334
113	0x3fb64dd12a6f7b60	0.08712489400884982
114	0x3fa41cba21832769	0.03928167018018664
115	0xbf53f3dcf1dc8ddf	-0.001217809454325251
116	0x3fb24a0a0e3f13d4	0.07144224975407037
117	0x3f88072700000000	0.011732392013072968
118	0x3fb85dc9205ca515	0.09518105545125295
119	0xbfb9070eda322d2b	-0.09776394679117988
120	0xbfada84dae0e48b6	-0.057924678322835474
121	0xbfa0db43eb1b5f12	-0.03292286152799141
122	0xbfb5c58800000000	-0.08504533767700195
123	0xbfa4c200c307ecba	-0.040542625243654
124	0xbf9d9168d3c07be3	-0.028875005649862017
125	0xbf95f4010166fa7d	-0.021438613615595948
126	0x3fb87bf63278796d	0.09564150554840518
127	0x3fae499280000000	0.05915506184101105

linear2.weight f8 [64, 128]
0	0x3fae0a330338b48c	0.058671564238786805
1	0xbfaa1a9e4c6054fc	-0.05098433191612092
2	0xbfb46e4b80000000	-0.07980796694755554
3	0xbf931f26c2adda5f	-0.018673520691175557
4	0x3f89e5a900000000	0.012645073235034943
5	0xbfa2a15f8413cb99	-0.036387429115982424
6	0x3fb1ddba9987a56d	0.0697895645931987
7	0x3f308eca91cc5767	0.00025265164895082185
8	0xbf95cb7a80000000	-0.02128402143716812
9	0x3fb005c91167c581	0.06258827853141292
10	0x3f792103b1f896cd	0.0061350006431319494
11	0x3f9e265280c0cd20	0.029443062885730176
12	0xbfa2b5f31754c3ef	-0.03654441509059569
13	0xbfb13672d439de35	-0.06723706895160649
14	0xbfb46bc9c77b31da	-0.0797697174086304
15	0x3fb235392ddaec9d	0.07112462396155413
16	0x3f8495a62aafc322	0.010051057985010884
17	0xbfa588186b2460a5	-0.04205395038496932
18	0x3fa14937c0000000	0.033761732280254364
19	0x3f964b2d8404302b	0.021771155531539115
20	0xbfa77b182b96b5f8	-0.04586101085747524
21	0x3fb532176eaaaeff	0.08279558612656145
22	0xbfaf74d43ccd5cb4	-0.06143820993627838
23	0xbfb0e8c219ee08b0	-0.06605160840084312
24	0xbf9a2c2468ec09c9	-0.025559014228756092
25	0x3fb06a9160000000	0.06412609666585922
26	0xbfab57b4c0a32e8f	-0.05340351916819685
27	0x3f8f34272285372a	0.015236192456224613
28	0x3f971d32406f5111	0.022572312529363595
29	0xbf8528b400000000	-0.010331541299819946
30	0x3faf831fc7e3f1b5	0.06154727282589382
31	0xbfb2187364b4f324	-0.07068558891928639
32	0x3f66808846a6c114	0.002746835865046768
33	0xbfa1432f535608cb	-0.033715704844341575
34	0x3f70a461bf21981c	0.004063016722374992
35	0xbf8658b300000000	-0.01091136783361435
36	0x3f9c9a2200000000	0.02793172001838684
37	0x3fa53180fa9a9a32	0.04139330920343233
38	0x3f944d6980000000	0.019826553761959076
39	0xbfb7e7d74b4c1e2b	-0.09338136280359126
40	0xbf9452ae61331c22	-0.019846653635593133
41	0xbfb0f386a0000000	-0.06621591001749039
42	0xbf95e13a34bacd3c	-0.021366986721387024
43	0xbf83069fc6e7e28b	-0.009289978273032481
44	0x3f9047f3b49927c3	0.015899475000231932
45	0x3fb38c70b19a0224	0.07636169754005856
46	0xbfa8ab287919fe08	-0.04818083265581313
47	0x3f67edab68cf9137	0.002920946868913667
48	0x3fb3c50dd20604b7	0.07722555520560347
49	0x3fabafd540000000	0.054075874388217926
50	0xbfa4cd6e00000000	-0.040629804134368896
51	0x3f398ab5d24080f3	0.00038973750111105583
52	0x3fa46445681f6000	0.03982750793483092
53	0x3f88d944790cb358	0.012133154815808275
54	0x3fb66178a0000000	0.08742479234933853
55	0x3fa58335c0000000	0.04201667755842209
56	0x3f99052545bf6742	0.024433691389140984
57	0x3f8b0aaf3c85b2a4	0.013203972849362096
58	0xbfa57032c0000000	-0.041871629655361176
59	0x3fb1f6ce19dd3f94	0.07017219668818903
60	0x3f79ba6d04360de1	0.006281305165774382
61	0xbfaaa8d850b69399	-0.05206943497913769
62	0x3fae1a1741f14f1b	0.05879280738795797
63	0xbfb04edff1ca9496	-0.06370353367909085
64	0xbfa218f8faa8e3db	-0.03534677562533491
65	0xbfb09a519c4d8045	-0.06485471788391901
66	0xbfa19d7438038a21	-0.03440440353167085
67	0xbfb104bfa2df52e9	-0.06647870756507825
68	0xbfa0702000000000	-0.032105445861816406
69	0xbf8b601b8b1bb6e1	-0.01336690443300931
70	0xbfb05c3180000000	-0.06390675902366638
71	0x3fa7cb41c0000000	0.04647260159254074
72	0xbf99c27c80000000	-0.025155968964099884
73	0xbfad2f95e0000000	-0.057003673166036606
74	0xbfb53a991e82e14c	-0.08292538638022967
75	0xbf86107500000000	-0.01077357679605484
76	0x3f90d8a94a2fad3f	0.016451497223824104
77	0x3f9e9a94290b60c3	0.02988654613986409
78	0xbfb6f5b8d5f25797	-0.08968692038828717
79	0x3fab0359cebdd7ac	0.05275993965817291
80	0xbfb30b1d40000000	-0.07438834011554718
81	0xbfa3522ee665700b	-0.037736383080044865
82	0xbfb01ba940000000	-0.06292207539081573
83	0xbf940455e2693695	-0.019547788566618058
84	0x3f6406cf47d5d60d	0.0024446533631656887
85	0xbfa150ef96a752a3	-0.03382061685593853
86	0xbf5d31a000000000	-0.001781851053237915
87	0xbfa3948284059bb1	-0.03824241506190818
88	0xbf925b2a25d47047	-0.017925890501928412
89	0x3f972ab076356b04	0.02262378427017621
90	0x3fac48030b7edf4a	0.05523690715148051
91	0xbf7237fa5fe5c7d7	-0.004447916055470422
92	0xbf5ab9d915ea7f31	-0.0016312236763624361
93	0xbfa4bb0fbac5d798	-0.040489665555397625
94	0xbfad629eb1162032	-0.05739303504657335
95	0x3fb64f42a0000000	0.08714691549539566
96	0x3fa03690420f0c54	0.03166628652936568
97	0x3faea0096b404354	0.059814733831564354
98	0xbfa7e758500c7c2f	-0.046686897059992176
99	0xbfb4b744ef4dfb7f	-0.08092146723173065
100	0x3fb0da3db64ee364	0.06583009434588188
101	0xbfb5eeee637e0c4d	-0.0856770508672053
102	0xbfb683f38fcd4fdc	-0.0879509187773801
103	0x3f6690a7aa165f62	0.002754523725069833
104	0xbfb5d681d284807e	-0.08530436887349599
105	0xbfb384dd29796431	-0.07624609243920656
106	0x3fac73b2c0000000	0.05557020753622055
107	0xbfb25c2a74c10549	-0.07171883917273648
108	0x3f97ee9014da489d	0.023370982430215837
109	0xbf8e9bb5d1eefa84	-0.014945431203043265
110	0xbfb0e03fdaeb00ec	-0.0659217748134357
111	0x3fb3faa221060f73	0.07804311090700171
112	0xbfa314679c3ebaa1	-0.03726505071914699
113	0xbfb4ee9275d491e1	-0.08176532150952866
114	0xbfaf1e1b3219e0bd	-0.06077656733117596
115	0xbfa1a88adbb5a716	-0.03448900157930106
116	0xbfb138c10638f8cd	-0.06727224733274113
117	0x3f76fa3c00000000	0.00560973584651947
118	0x3fb16560b8ec2037	0.06795315279680457
119	0x3f7708ffeb179bf9	0.005623817139599468
120	0x3f74e632fe08d185	0.005102347553976099
121	0xbfa42e3e870adb1d	-0.03941531561343068
122	0xbf84fccd00000000	-0.01024780422449112
123	0xbfb0b2784296e121	-0.06522323251454455
124	0x3f9a24a2dd34accc	0.02553038096554587
125	0xbfa8db774bfc2824	-0.04854939272452466
126	0xbf9fc6fe85c18cbf	-0.031032540239164016
127	0x3f76ca5a00000000	0.005564071238040924
128	0x3f94bf76c726379c	0.02026162710676936
129	0x3f8e54dd4d33c5ed	0.01481030361034904
130	0xbfb5094bc0000000	-0.08217309415340424
131	0x3f9a1da88b4ddd40	0.02550376272435284
132	0xbf82b39e00000000	-0.009131655097007751
133	0x3fa7a3937ee61555	0.046169862022945075
134	0xbf89c4774cd5dc58	-0.012581760437326547
135	0xbfaf1cdd88a0867e	-0.06076710026560493
136	0x3f8b6c3d00000000	0.013390041887760162
137	0xbfb461e98070208f	-0.07961902032559663
138	0x3fb0ee43abe6eadd	0.0661356253321332
139	0x3fa546438e3ec3f6	0.04155169593230561
140	0x3fa7c14404b9f05e	0.04639637525267014
141	0x3fa008924f8d9314	0.03131539555650967
142	0x3f80f72cf63d7f21	0.008283950104384598
143	0xbfaf2fc2c11d451b	-0.060911260674979505
144	0xbfa927deb65e130a	-0.04913230873265746
145	0x3f82432cbe041f29	0.008917188214141074
146	0x3f93ae3300000000	0.019219204783439636
147	0xbf605ed788cf3984	-0.0019983491569980933
148	0x3fb369feda663786	0.07583611328138148
149	0x3fab542a3fc91279	0.05337650326376759
150	0xbfb8145fafd705da	-0.09406087916342845
151	0x3f80e56cda062234	0.00825009384495088
152	0xbfa028598e1937f1	-0.03155784473038626
153	0xbf7f560200000000	-0.007650382816791534
154	0x3fa4f913a8d9ddcc	0.04096280513925485
155	0x3fa433f91e67e482	0.03945902343907283
156	0x3fb4eea043cdd755	0.08176614432690361
157	0xbfb63a9fc0000000	-0.08683203160762787
158	0xbfa20ffed2d68a79	-0.03527828525263472
159	0xbf92d1d2f88af790	-0.018378540439463686
160	0x3fb0fee7d78ba5a0	0.06638955128041468
161	0xbf61583ad9eb48ea	-0.0021172666014105295
162	0xbfb3c3288bf0271e	-0.07719663063485568
163	0x3f8a43e200000000	0.012824788689613342
164	0xbfb23d0bc0000000	-0.07124398648738861
165	0x3fb6d8177dc0037a	0.08923479862279562
166	0xbfb2868e0d8469f2	-0.07236564474116117
167	0x3fb2d08b15fc26fc	0.07349461828939846
168	0x3fb39452d089424b	0.07648198691573176
169	0x3fa1cdd300000000	0.034773439168930054
170	0xbf9fd2224ca42c86	-0.031075035026372898
171	0xbfa5ac7452ec911f	-0.042331347582406524
172	0x3fae46688bd54f08	0.05913092333744713
173	0x3f826e3277f82c41	0.008999246870209034
174	0x3f86642ea156d33b	0.010933269785576285
175	0x3fb1031942b8e58f	0.06645353201829195
176	0xbfb0e3180f9c0ed2	-0.06596517926305559
177	0xbfae6e1180000000	-0.059433504939079285
178	0xbf9cf71383e9a491	-0.02828627102499987
179	0x3f72e93aea6db6bb	0.0046169568439446374
180	0x3f877a0697f4066c	0.011463214409107546
181	0xbfb56f05adee1517	-0.0837253141053974
182	0xbfa6a8f580000000	-0.04425780475139618
183	0x3f88a3d000000000	0.012031197547912598
184	0xbf9beac26be53f1d	-0.0272627237657722
185	0xbfafc5dee0717939	-0.06205650796686019
186	0xbf9ba3f640000000	-0.02699265256524086
187	0x3f906f7c22c32c06	0.01605028116390985
188	0xbfb39ea8a0a859e4	-0.07663968965821472
189	0x3f71c80e0bf0b6de	0.004341177816099521
190	0xbfa77f377c80e44f	-0.0458924617273132
191	0xbfa44a9b16258ae8	-0.03963169713349207
192	0x3fb4929b4d30b71b	0.08036203989533101
193	0xbfb4f6860e4bde84	-0.08188665246040655
194	0x3f9277f10229a582	0.018035665280341735
195	0xbf965eee62c4eb6b	-0.02184650876845799
196	0x3f97f6e400000000	0.023402750492095947
197	0xbf91a294b8ba0232	-0.017221759581391
198	0x3f86646f00000000	0.010933749377727509
199	0xbfa1ca2b00000000	-0.03474554419517517
200	0xbfb6198fe0000000	-0.08632754534482956
201	0x3f91831700000000	0.017101630568504333
202	0xbfa302ff6aa7d13e	-0.03713224579760997
203	0xbf816c8200000000	-0.00850774347782135
204	0x3faed61e023075cc	0.0602273347542269
205	0x3f86427f25f030ab	0.010869019837649615
206	0xbfa36564ef0b8e68	-0.03788295190841212
207	0x3fabbc52594ea970	0.05417115535904571
208	0x3f81ddbe00000000	0.008723720908164978
209	0x3fb6b9dacecaa861	0.08877341793655226
210	0x3fa2048cc0000000	0.03519096225500107
211	0xbfaa0e1e621660e3	-0.05088896701198722
212	0x3fb139bd1673024e	0.06728727148129929
213	0x3faf20409869f95b	0.060792940716953146
214	0x3f6953e000000000	0.003091752529144287
215	0x3f947256d684247a	0.01996741947462908
216	0x3fb1560452620759	0.06771876345922347
217	0xbf8fe0a8989814c7	-0.015565220982362139
218	0xbfa1a2d60126de48	-0.03444546474514404
219	0x3fa969b27d05ca40	0.04963453079371449
220	0xbf8200476a8e8348	-0.008789594592430242
221	0x3fa340e4d8f300de	0.037604476435719056
222	0xbfa917ba96d54a1c	-0.049009161865473966
223	0xbfb4611840000000	-0.0796065479516983
224	0xbfa920b1cd2f6e1d	-0.04907756452277232
225	0x3fb156ecd3c3631f	0.06773262186051142
226	0x3f8fc7ff6f575c48	0.01551818426643882
227	0x3fb5a8765e51db2f	0.08460178187111177
228	0x3f95d7a73a2bf72f	0.02133046429206969
229	0x3f71c5af268a45bd	0.004338916951966918
230	0x3fafe9cd5ee9cb8d	0.06233064445122869
231	0x3fb1e504af616f0f	0.06990079194786979
232	0x3f7cc9e0cf462a14	0.0070284635188593465
233	0xbfac1f1713d04561	-0.05492469899048547
234	0xbfb3bc4740000000	-0.07709164917469025
235	0xbfaf815155899ec5	-0.06153349084052943
236	0x3fa47f91c0278615	0.04003577681193008
237	0xbfb2e2587fb717c2	-0.07376626127287891
238	0x3fb37f005c29fafc	0.07615663766953767
239	0x3fafef8eb9ab8bbe	0.06237455383759237
240	0xbf92d3eb2dd1f219	-0.018386530563008294
241	0xbfb46e865037304b	-0.07981147249592017
242	0x3faa2c88ae5731c1	0.051121016771137125
243	0x3f9579d2f5287d73	0.020972534383074625
244	0xbfa324f9076b2d5c	-0.03739145484504533
245	0xbf9c8c8480000000	-0.027879782021045685
246	0xbfaf2a77fa9f0895	-0.060870885222827166
247	0x3f9d79c2e739387c	0.02878479515339237
248	0xbfa43e5649557a5b	-0.03953809399785221
249	0x3f8930393b682972	0.012299010396436858
250	0xbfa2f57040000000	-0.03702879697084427
251	0xbfa9972ac6b946fa	-0.049981438406247095
252	0x3f9f1e475cd96164	0.030388941804944905
253	0xbfa38b718f63240d	-0.03817324519474861
254	0x3f9ec7aa11a3216e	0.030058533979884165
255	0xbfa1df03e0000000	-0.034904595464468

linear2.bias f8 [64]
0	0xbfa27ab4a91c395d	-0.0360924202378665
1	0x3f72c68bc5418eb6	0.004583879450453734
2	0x3f976184f649b7cf	0.02283294442388933
3	0xbf92fe2f8c829ba4	-0.018547766638814203
4	0xbfb22d7f417d41d2	-0.07100673054561149
5	0xbfb4451d37a114e5	-0.07917959793219927
6	0x3f9a6fcb24245514	0.025817083435943536
7	0xbfac72895c203fff	-0.05556134461960482
8	0xbfb0a3e1a8b68fba	-0.06500063294384875
9	0xbfa40050bdb4ecba	-0.039064906270561875
10	0x3fa4584ada936802	0.03973611753617946
11	0xbfb4495fda57f74f	-0.07924460487990113
12	0xbfa46e75c6775efc	-0.03990524337467424
13	0xbfa1eea901fb32f6	-0.03502395772156845
14	0xbfa81107eeedc0ca	-0.04700493613825214
15	0xbfb41a44614ad714	-0.07852580428410888
16	0x3fa6af3e3842ae1f	0.044305748336537436
17	0x3f8645168c570258	0.010873962552865254
18	0xbfb444e58c6a891a	-0.0791762798130872
19	0xbf89ddfca422a97f	-0.012630437621130806
20	0xbf9c2c681c13d651	-0.027513148034776617
21	0x3fa92383959c699e	0.04909907532983769
22	0x3f95d46b6955cc83	0.021318128875873043
23	0xbf91e82a7e259cb3	-0.01748720545711242
24	0x3fa49ee26602b550	0.040274691536391516
25	0xbfb3ff0b536c24f6	-0.07811041628533019
26	0xbf9ab91c88618401	-0.026096769165068427
27	0x3fb6cdf74cfcb6bd	0.08908029203004282
28	0xbfb0f70fdb1b93fe	-0.06626986598310222
29	0xbf8ba56a6fba21f3	-0.013499099287643345
30	0xbfa1db666e209c9f	-0.034877015059742826
31	0xbf89d59b844ae7ba	-0.01261445519900294
32	0x3f87cbb7b6b1255c	0.011619029295746479
33	0x3fb363ddf3146e01	0.07574259934010998
34	0xbf7e5c812fad9ea0	-0.007412438043367026
35	0x3faf83dd176a86e8	0.061552914722836694
36	0x3f9c27763a985461	0.027494284941060324
37	0xbfb4c1e6d3dae392	-0.08108370468370499
38	0x3fa3f78a8fab3e7d	0.03899796489497207
39	0x3f68381612df9cc7	0.002956431496375342
40	0x3f8bdc3521b1e71e	0.013603606310641999
41	0x3f97d0477fe0eef7	0.023255459957211646
42	0x3fac64742e139bd8	0.05545390188654381
43	0xbfa1cdf0711dab9a	-0.03477431660470316
44	0x3fa55f0b54881440	0.04174075514678366
45	0x3fb2677d9e48d367	0.07189164270751079
46	0x3f8d6f5ce2e817f7	0.014372564005508777
47	0x3fb3c82376fad174	0.07727262167720089
48	0xbfb4e409751e950e	-0.08160456761705268
49	0xbfac41cde89813dc	-0.055189547198132266
50	0x3fb2e7de92c48991	0.0738505466766013
51	0x3f9bf94080f6b2e6	0.027318008300130446
52	0xbfa3154e2e751517	-0.0372719222746502
53	0xbfaa0b057bc057c2	-0.050865336758007654
54	0xbfaaa234d8d706b6	-0.052018786878318776
55	0x3f9a039f8f7c2d86	0.025404446728356976
56	0x3f9d5c9b05e305f9	0.02867357467107998
57	0xbf9bb3d9ab85e14b	-0.027053261846476755
58	0xbfac1d97af90b272	-0.05491327303056871
59	0x3fafbba28cc3f391	0.06197841614082401
60	0x3f819f11c7d69ee6	0.008604182158549144
61	0xbfa5270909883e08	-0.041313440717313965
62	0x3fb23186f5993f87	0.07106822486934848
63	0x3fad6246e09bd2fe	0.057390417974522365

linear3.weight f8 [3, 64]
0	0xbfacf5da113fe600	-0.056563200574554884
1	0x3fb42ca2dff1c2ab	0.07880609481231697
2	0x3fbfed92c3cf034e	0.12471883087620236
3	0xbf71f2d58a71ac44	-0.004381975311029743
4	0xbfa828e51b1f7285	-0.04718700367059107
5	0xbfa9edf76b5bde5e	-0.05064366517575246
6	0x3fa9080c5fcef6c5	0.04888952893769053
7	0x3f94e309c4d21ac6	0.02039733184622141
8	0xbfcb20e555b5c0d4	-0.21194140133912376
9	0x3fca08ce56ea3fa6	0.20339373821161394
10	0x3fb3561cc992b909	0.07553272172183169
11	0x3fc072d5dcc51f7e	0.1285044982889722
12	0x3f8fdb208ae106e4	0.01555467056107624
13	0x3fc2017a1c680dd8	0.1406700743392395
14	0xbfc17a71ccb41cd3	-0.13654921050349475
15	0x3fb8031ebb880d55	0.09379760816959977
16	0x3f9a4c908553e884	0.025682695520096846
17	0xbfc9112c0bf80a2a	-0.195836549610321
18	0x3fa3a8dd3a22c6a2	0.0383977063624006
19	0xbfbf5c6968b0af46	-0.12250384145653212
20	0x3fbb4f4d9f6e4920	0.10667882101396176
21	0x3fb807982b72ba4c	0.09386588154550529
22	0xbfb2132b96cebdb6	-0.07060501510453929
23	0x3fc0996643fc7cac	0.1296813804592366
24	0xbfbb9b0ebe3bc5f7	-0.10783474106190015
25	0xbfa27bc663bbf098	-0.03610057799775851
26	0xbfa17444dbacf5c1	-0.034090186897155934
27	0xbfab63681297ec37	-0.053492786664684315
28	0xbfa29dc4b54b26e8	-0.03635992730194265
29	0x3fbfa0560211092b	0.12354028273060595
30	0xbfc528db56edeef8	-0.1653093504390808
31	0x3f78d8b1bd7ffea9	0.006066030786314216
32	0xbfc1446d01a1f503	-0.13490068988532053
33	0x3fbd7dae6724cebd	0.115198993856036
34	0x3fbd7d788f9d9129	0.11519578462827397
35	0x3fb13123a77523e7	0.06715605581588556
36	0x3fb517a8f620453e	0.08239227303444793
37	0x3fae33c97132f232	0.058988852565992636
38	0xbfb370b51b32744a	-0.0759385291480196
39	0xbfb2ce4875fcc085	-0.07346012955236077
40	0x3fbbe459fb925603	0.10895311729321837
41	0xbfb274e694923fa3	-0.07209626319149591
42	0x3fb8c1a44e0de960	0.09670473962424841
43	0xbfb41d84670cab1d	-0.078575396689001
44	0x3faca54a4108d61d	0.05594856304052718
45	0xbfc2ca7d76a9f82b	-0.1468045071996483
46	0x3f9313aaa31faa13	0.018629709440498198
47	0xbfc213e5c4e9a135	-0.14123222460626442
48	0xbfbc1a661a1f676a	-0.10977781427155056
49	0x3fb24383c03e3b87	0.07134269183573681
50	0x3fc10a7f721a7666	0.1331328684945447
51	0x3f8118c175b3a38a	0.00834799900481344
52	0xbf90380226b57f02	-0.015838655102355943
53	0x3fbb306823da91cd	0.106207379105917
54	0x3fc68d6b796e7a7f	0.17619079045558192
55	0x3fbe4acf352b8ff1	0.11832900093173727
56	0xbfb9bcfcd5f8510e	-0.10053997253300315
57	0xbfb622a2a56c8765	-0.08646599329634126
58	0x3fa72ece372906f3	0.04527897284834905
59	0x3f735b8f49513fe1	0.004725990021213961
60	0x3fc3a6cc155fa3e4	0.1535277466166739
61	0x3f8b9146c9a2094c	0.013460686710690915
62	0x3fc266dd420d0053	0.14376416897903485
63	0x3fbec2b785626312	0.12015864378407695
64	0x3fb19e3b8c094b7d	0.0688206879506605
65	0x3fb3ed6a50e192ed	0.07784141993176848
66	0x3fb2da1d3795ab14	0.07364065749213139
67	0xbfbae5974565ecb3	-0.10506577915468789
68	0xbf76f37f2ba878b8	-0.0056033103560634775
69	0x3f8860ca1059b889	0.011903360961891945
70	0x3f9b1c4c4b8afeb5	0.026475135908866593
71	0x3fa514684dff0ce8	0.0411713214121166
72	0x3f987e5102886504	0.023919358996953313
73	0x3fc3cc37eab9dc07	0.15466975175124295
74	0xbfb50736b46fe34b	-0.08214132218553265
75	0x3faf617ec885368a	0.061290704705794744
76	0xbfc01dd12d51c4b9	-0.12590994561063498
77	0x3fbf058566fb4132	0.12117799534030807
78	0xbfb1e213235116b3	-0.06985587703919797
79	0xbf9f070a82119192	-0.030300296963461877
80	0xbf6b2e3533bfb007	-0.0033179320434921808
81	0x3f94d7448000963c	0.02035243064178459
82	0xbfa8ba252e56c9da	-0.04829517546331248
83	0x3fb560d291ceacd2	0.08350864467381605
84	0x3fb6ae75bb15413f	0.08859954659897527
85	0xbf509711b8fef0a5	-0.0010125802109391205
86	0x3fc3a3a358828ed2	0.15343133756424848
87	0x3fb23d7b81a4f612	0.07125064768930425
88	0x3fbbaa7aa4beb419	0.10807005426495699
89	0xbfaa393b251a0d55	-0.051217888144516145
90	0x3fb6caf4b839d3f6	0.08903436181738286
91	0xbfbfe6b1b7876783	-0.12461386423765757
92	0xbfc0d3801812f3c6	-0.13145447898378232
93	0x3fa118d091b7787b	0.03339244631546109
94	0x3f98b907a0d6a152	0.024143332664295976
95	0xbfa5084da3eafed4	-0.041078974017634856
96	0xbfac4cb0aef69d66	-0.055272599561528676
97	0x3fb8d3499c8fdf5e	0.09697399208368782
98	0x3f94ac5470c2348f	0.02018863619064298
99	0xbfb19a7f7b5d4f19	-0.06876370202854466
100	0xbfb2211def4760f5	-0.0708178242852034
101	0x3fb83e916f0fa022	0.0947047134537802
102	0x3fc10c120cd65ffc	0.1331808626825931
103	0xbfbd2d106734ff1e	-0.11396887321188529
104	0x3f859217daaa6637	0.010532556877751549
105	0xbfbf04edd3f441e7	-0.12116896080647842
106	0x3fb8323cd71bb9f3	0.09451656581561689
107	0x3fb76a544f62338a	0.09146620691372057
108	0xbf9961aa10c2c59d	-0.024786622307777163
109	0x3fb565f3150cf2dd	0.0835868765252132
110	0x3fc3ee8a5f6bf390	0.15571717890989278
111	0x3fba63578c7131f1	0.1030783384205234
112	0xbf8568a08923bc30	-0.010453466591995392
113	0xbfca7339a198b88e	-0.20664139166314438
114	0xbf9a386d7a3ffc2e	-0.025605879389328283
115	0xbfc1f76a1c0e9b0f	-0.14036299104665104
116	0x3fade4eab091781a	0.05838712125181207
117	0x3fadea6d6a563e03	0.0584291641526953
118	0x3f77353b89bbbcd6	0.005666000910181176
119	0x3fae5ee1038c9f50	0.05931761902166832
120	0xbfb70736f84651b8	-0.08995383798020995
121	0xbf968db74770df40	-0.02202497838535966
122	0xbf8f30785a9896b8	-0.015229168190738704
123	0x3fb852ba218bce93	0.09501231497761813
124	0x3fba0b63a4fb70e9	0.10173628595243013
125	0xbfb87bc47a95a9cb	-0.09563854210651994
126	0xbf808a24e336d07e	-0.008075988945030806
127	0xbfc2cb4e41754826	-0.14682939716527804
128	0xbfb222f68369585d	-0.07084599216736494
129	0x3fa031019e5954d2	0.03162388856859767
130	0xbfb6d30c3b64ae90	-0.08915783357650242
131	0xbfa9944b43e5f0c0	-0.04995951846919544
132	0x3fb676e6404a40dc	0.08775176114636757
133	0xbf80b93062ea3e46	-0.008165720003744725
134	0x3fbb2b93fd35c4f9	0.10613369876752533
135	0x3fa52caacf97e5d7	0.041356408921227654
136	0x3f938bc5ab25a1fd	0.01908787591074378
137	0xbfc270a601a41ba2	-0.14406275825623732
138	0x3fa5e1cad5ba54dd	0.04273828371985087
139	0xbfbad1951dccda70	-0.10476047494453566
140	0xbf99d63edae25de9	-0.025231344327577707
141	0x3f8c702101a51b17	0.013885743963908887
142	0x3fc29963fe5ca825	0.14530610961929927
143	0xbfa35a79360751f6	-0.03779963287857761
144	0x3f9af09121240d96	0.026308314941173437
145	0x3f9c0044dfbfbb19	0.027344776302864113
146	0x3f9f06bae8680588	0.030299110827404913
147	0x3fb20a28d6e20274	0.07046752210772828
148	0xbfa1249bb50714c3	-0.033482423637488455
149	0xbfb93934e48ebea0	-0.09852915363330306
150	0x3fc121f3d2e4d01e	0.13384864614056452
151	0xbfb3cadd899def73	-0.0773142300585599
152	0x3fbb1dd5d97d11e6	0.10592400131014976
153	0x3fca6902e2357f91	0.20632968945846789
154	0x3fba0aebb59ca6f5	0.10172913726696804
155	0x3fbb842bc0d35dc0	0.10748551805169537
156	0x3fc11c0be565bd8d	0.13366841031118462
157	0x3fb37d75f5133a86	0.07613312943724723
158	0x3f98c5f71698d747	0.02419267726346355
159	0x3fa11aa1ec3aff0a	0.03340631493256126
160	0xbfb47f4de540c770	-0.08006750914571881
161	0xbfd1b21b00ed2b7b	-0.2764956959769546
162	0xbf9d5677af3878ac	-0.02865015990220658
163	0x3fb3c25993e82b3b	0.07718429432877098
164	0x3faadbdcf24e3763	0.052458672121345605
165	0xbfbfc281a7a91935	-0.12406168311381267
166	0x3fbe09a04185b40e	0.11733438110032088
167	0x3fc0a1bb0e98dfeb	0.12993562901260644
168	0x3f93ac1224617495	0.019211085768223574
169	0x3fb20cd4e8868171	0.07050829579248387
170	0x3fa94d4cb5acb98d	0.049417874505127114
171	0x3fb65bda17aa7798	0.08733904912739232
172	0x3fb86fa5a3ac4640	0.09545359846040302
173	0x3fb31d661846fda3	0.07466734020908077
174	0xbfbe5de3a79fd168	-0.11862013666524762
175	0x3fb9ccb6bd621086	0.10077993510827996
176	0xbfb1609e14bc2123	-0.06788051611159011
177	0x3fba07d782f335ac	0.10168215701124578
178	0xbfc51d8802d27701	-0.16496372354315983
179	0xbfa01a126d327c98	-0.03144891341184425
180	0xbfbfb7e00e9b5c44	-0.12389946323979567
181	0x3fb271b326fa4f22	0.07204742147069657
182	0xbfc56afa15bc5870	-0.16732717572512312
183	0xbfc1b19c9b78efd3	-0.13823278037477724
184	0x3fb7551d4e3ea29d	0.09114249382276758
185	0xbf89ecba45ba049e	-0.012658553364646882
186	0xbfc7f5f72820b834	-0.18719377002111204
187	0xbfbb8372d620e27a	-0.10747449615235807
188	0xbfcd198e87dd5c5d	-0.22734243043916794
189	0x3fa7b21b42c2d15c	0.04628071966127109
190	0xbfad7a72cf664ccb	-0.05757483274205696
191	0x3f603697b105a78b	0.00197915675396571

linear3.bias f8 [3]
0	0xbfc20ec0f304b0dd	-0.1410752474415692
1	0xbf9dccba40b5a0db	-0.029101286124757358
2	0x3fbcbee33636c9d9	0.11228771279892359
