runs/testrun-cnn-final-20r-40bs-100ep/0/LocalModel-0-Round9.pt (torch, 144143 bytes, 8 tensors)

conv1.weight f8 [6, 1, 5]
000000 f9 c0 73 44 fe d2 d2 3f 0b 9e ed 9a fb 72 66 bf
       0.29412800488263674 -0.0027403749622185772
000010 50 d2 63 30 1a 32 d5 bf f8 11 f8 30 5b 76 d6 bf
       -0.33118300176218884 -0.3509738901341559
000020 15 06 60 85 4a 19 b2 3f d6 20 2b 03 97 2c dd bf
       0.07069841152408458 -0.4558465510313118
000030 6c 03 26 5d 0a fe da 3f f9 ba f1 65 f7 59 db bf
       0.4217554006245823 -0.42736611323827806
000040 04 2f d6 4e be 85 df bf 98 a5 7d 55 16 60 b0 3f
       -0.4925380487336357 0.06396617495706491
000050 63 73 ea f2 67 91 e2 bf 3b 89 8a 22 7a 79 d4 3f
       -0.5802497620057746 0.31991437314185917
000060 08 03 b5 d0 4a 84 7a 3f 9f 37 21 c4 91 c4 d1 bf
       0.006473819968335411 -0.2776226439790381
000070 12 56 a2 80 9a 9c a4 bf e7 76 68 ee 7d 2b d5 bf
       -0.04025729007950586 -0.33077953607594995
000080 98 cf 5b a8 ab e7 ce 3f 3e 5f 0a 97 72 05 c5 bf
       0.24144502373348753 -0.1642287480833548
000090 09 19 b4 d4 04 c7 d3 bf fe 5a 8c 16 b4 43 c3 3f
       -0.3090221478636442 0.15050364590634752
0000a0 05 3b ca d1 35 6c c7 3f b6 18 ed b6 59 4c db 3f
       0.18298981422091046 0.42653506149180076
0000b0 89 16 ea 3c 01 2b e8 bf 6b 02 15 52 ae 32 dd bf
       -0.7552496137365817 -0.4562183190901467
0000c0 40 fe 56 21 24 ce 81 3f 1e ef 56 0a 04 55 f3 bf
       0.008693964259577247 -1.2082558063402256
0000d0 36 56 ca d1 f5 4a 8e 3f b6 b9 5c c5 ff 6c f3 bf
       0.014791412796777963 -1.214111109682205
0000e0 98 eb 23 82 2b 90 79 3f da dd ab 53 d8 55 fa bf
       0.0062410068078361455 -1.6459582584774268

conv1.bias f8 [6]
000000 a9 2f f2 f4 2d d1 d0 3f ee f2 1a 78 1b 9b e6 3f
       0.26276730461608594 0.7064339967542688
000010 d1 93 5c 4b a8 ec 80 bf 22 3d 66 fd 02 5f ae bf
       -0.00826388816819615 -0.05931863158468277
000020 a5 fb 6c 1e 6b bd c9 3f 0e 16 64 86 40 a4 d7 3f
       0.20109309182768445 0.3694001495753988

conv2.weight f8 [8, 6, 3]
000000 00 00 00 60 54 79 c7 bf 00 00 00 40 ea 84 bb 3f
       -0.18339018523693085 0.10749687254428864
000010 00 00 00 80 7d a6 ca bf 00 00 00 60 c2 f9 ca 3f
       -0.20820587873458862 0.21074704825878143
000020 00 00 00 00 78 25 ba bf 00 00 00 00 d2 42 8b 3f
       -0.10213422775268555 0.013311043381690979
000030 00 00 00 80 78 a6 ad bf 00 00 00 20 06 a3 be bf
       -0.05791069567203522 -0.11967504769563675
000040 00 00 00 c0 a5 de cb bf 00 00 00 40 0c 9d c8 bf
       -0.21773216128349304 -0.192292720079422
000050 00 00 00 e0 69 db cd 3f 00 00 00 00 32 a3 a9 bf
       0.2332584708929062 -0.050073206424713135
000060 00 00 00 c0 52 ad b8 bf 00 00 00 40 bf 51 c7 bf
       -0.09639470279216766 -0.1821822226047516
000070 00 00 00 40 32 b6 b6 bf 00 00 00 00 b9 e8 c3 bf
       -0.08871759474277496 -0.1555396318435669
000080 00 00 00 20 e3 18 c7 3f 00 00 00 80 55 68 a3 bf
       0.18044699728488922 -0.03790538012981415
000090 00 00 00 a0 ec 45 c9 3f 00 00 00 e0 c8 e8 c7 3f
       0.19744642078876495 0.1867915242910385
0000a0 00 00 00 20 5d 9c c3 3f 00 00 00 00 9b 8c c9 bf
       0.15320934355258942 -0.19960343837738037
0000b0 00 00 00 00 1e 05 c6 bf 00 00 00 40 1b e3 b7 3f
       -0.17203116416931152 0.09330911934375763
0000c0 00 00 00 80 a0 1a a3 3f 00 00 00 20 33 57 ca 3f
       0.037312522530555725 0.20578612387180328
0000d0 00 00 00 e0 aa 5b c6 bf 00 00 00 e0 fe c2 c3 bf
       -0.174672469496727 -0.15438829362392426
0000e0 00 00 00 60 48 83 c2 3f 00 00 00 00 61 a8 cb bf
       0.14463143050670624 -0.21607601642608643
0000f0 00 00 00 a0 47 f5 c8 3f 00 00 00 80 27 73 a7 3f
       0.19498534500598907 0.045800432562828064
000100 00 00 00 00 ed 15 95 3f 00 00 00 00 b0 e0 c5 bf
       0.020591452717781067 -0.17091941833496094
000110 00 00 00 00 f5 59 c2 bf 00 00 00 00 08 3e 83 3f
       -0.14337027072906494 0.00939565896987915
000120 00 00 00 40 d7 2b b5 3f 00 00 00 40 45 4a c3 bf
       0.0827002078294754 -0.1507040560245514
000130 00 00 00 e0 d1 49 cd 3f 00 00 00 00 71 a4 c1 bf
       0.22881530225276947 -0.13783085346221924
000140 00 00 00 80 d7 4a a4 bf 00 00 00 80 a9 99 aa 3f
       -0.03963349759578705 0.051953598856925964
000150 00 00 00 00 4e ff 8f bf 00 00 00 00 3d 31 ab bf
       -0.015623673796653748 -0.0531100332736969
000160 00 00 00 80 10 c7 a5 3f 00 00 00 c0 95 17 cd bf
       0.04253436625003815 -0.22728225588798523
000170 00 00 00 80 a5 0c b2 bf 00 00 00 00 f5 c7 b7 bf
       -0.07050547003746033 -0.09289485216140747
000180 00 00 00 00 46 5b 93 bf 00 00 00 20 1b ee cc 3f
       -0.018902868032455444 0.22601641714572906
000190 00 00 00 e0 cf ed cd 3f 00 00 00 40 17 ef ba 3f
       0.23381994664669037 0.10521073639392853
0001a0 00 00 00 a0 43 60 ca bf 00 00 00 80 01 b1 be bf
       -0.20606274902820587 -0.11988839507102966
0001b0 00 00 00 c0 a0 4e bc 3f 00 00 00 a0 65 99 c0 bf
       0.11057476699352264 -0.1296813040971756
0001c0 00 00 00 c0 4c f8 c8 bf 00 00 00 a0 fd 61 c6 3f
       -0.19507750868797302 0.17486543953418732
0001d0 00 00 00 20 12 92 cd bf 00 00 00 40 d4 f4 bb 3f
       -0.2310202270746231 0.10920454561710358
0001e0 00 00 00 00 63 c4 ca bf 00 00 00 40 b2 81 b9 bf
       -0.20911824703216553 -0.09963525831699371
0001f0 00 00 00 c0 f1 31 c3 bf 00 00 00 60 6d 69 c2 3f
       -0.1499616801738739 0.14384238421916962
000200 00 00 00 40 a9 90 b1 3f 00 00 00 60 9e 92 c8 3f
       0.06861360371112823 0.1919744461774826
000210 00 00 00 c0 70 88 c2 bf 00 00 00 40 ae 81 c7 bf
       -0.14478883147239685 -0.18364503979682922
000220 00 00 00 80 c6 97 bb bf 00 00 00 c0 6d bf c0 bf
       -0.10778465867042542 -0.1308419406414032
000230 00 00 00 00 e4 75 b7 bf 00 00 00 80 b2 ec a5 3f
       -0.09164261817932129 0.042821481823921204
000240 00 00 00 00 24 1e a3 bf 00 00 00 60 a3 84 bc bf
       -0.03733932971954346 -0.11139889806509018
000250 00 00 00 60 ac 6c c4 3f 00 00 00 80 df 8f c3 bf
       0.15956644713878632 -0.1528281569480896
000260 00 00 00 00 dd 88 b9 bf 00 00 00 80 1c 19 a3 3f
       -0.09974461793899536 0.0373009592294693
000270 00 00 00 80 e6 f1 aa bf 00 00 00 80 58 4f bd bf
       -0.052626803517341614 -0.11449196934700012
000280 00 00 00 00 57 70 c5 bf 00 00 00 00 18 b9 cc bf
       -0.16749083995819092 -0.22439861297607422
000290 00 00 00 e0 be 90 c4 3f 00 00 00 a0 67 6b c8 3f
       0.160667285323143 0.1907777339220047
0002a0 00 00 00 80 b6 d1 a8 3f 00 00 00 20 2e 5f c0 bf
       0.048474982380867004 -0.12790466845035553
0002b0 00 00 00 80 fd 0f bf bf 00 00 00 60 d1 43 ca 3f
       -0.12133774161338806 0.2051946371793747
0002c0 00 00 00 e0 ad c8 cc 3f 00 00 00 80 a3 33 a2 bf
       0.22487424314022064 -0.03555022180080414
0002d0 00 00 00 e0 90 48 c6 3f 00 00 00 60 5b 96 c5 3f
       0.17408953607082367 0.1686510294675827
0002e0 00 00 00 c0 ad 54 bb 3f 00 00 00 60 1c 7a c7 3f
       0.10676084458827972 0.183414027094841
0002f0 00 00 00 80 61 06 c5 bf 00 00 00 a0 71 f1 c2 3f
       -0.1642572283744812 0.1479932814836502
000300 00 00 00 20 55 c3 c5 3f 00 00 00 80 73 78 c3 bf
       0.170023575425148 -0.15211337804794312
000310 00 00 00 80 3b 49 a1 3f 00 00 00 80 86 eb af bf
       0.03376184403896332 -0.062343791127204895
000320 00 00 00 00 7c cf 71 bf 00 00 00 c0 b3 e0 b1 bf
       -0.004348263144493103 -0.06983493268489838
000330 00 00 00 80 17 77 a7 3f 00 00 00 40 ac 41 cb bf
       0.04583047330379486 -0.21294167637825012
000340 00 00 00 20 fc 1a cd bf 00 00 00 e0 40 94 c8 3f
       -0.227386012673378 0.1920243352651596
000350 00 00 00 40 bd c5 c6 bf 00 00 00 40 d8 e4 b1 3f
       -0.17790952324867249 0.06989814341068268
000360 00 00 00 80 b5 61 a1 3f 00 00 00 20 99 a0 cc bf
       0.03394858539104462 -0.22365106642246246
000370 00 00 00 c0 92 0e bb bf 00 00 00 60 4a 0c c9 3f
       -0.10569112002849579 0.19568757712841034
000380 00 00 00 c0 da ff bb bf 00 00 00 40 c8 1f c0 bf
       -0.10937277972698212 -0.12596991658210754
000390 00 00 00 20 b5 68 cb 3f 00 00 00 c0 51 94 bf 3f
       0.21413291990756989 0.12335692346096039
0003a0 00 00 00 80 29 e4 ad bf 00 00 00 20 38 4b c0 3f
       -0.05838136374950409 0.12729550898075104
0003b0 00 00 00 40 07 1c cd bf 00 00 00 80 78 2e ad 3f
       -0.22741785645484924 0.05699516832828522
0003c0 00 00 00 00 c2 71 84 3f 00 00 00 20 f9 45 c7 3f
       0.009982600808143616 0.18182291090488434
0003d0 00 00 00 00 19 f9 c3 bf 00 00 00 e0 2d 57 c3 3f
       -0.15603935718536377 0.15109799802303314
0003e0 00 00 00 00 57 ea 96 3f 00 00 00 60 d0 ca ca 3f
       0.022378310561180115 0.20931439101696014
0003f0 00 00 00 40 5c cd cb bf 00 00 00 a0 ae cc c9 bf
       -0.21720460057258606 -0.2015589028596878
000400 00 00 00 80 20 84 a9 3f 00 00 00 40 d8 c6 b5 3f
       0.0498361736536026 0.08506537973880768
000410 00 00 00 c0 13 c5 b2 3f 00 00 00 80 92 82 b1 bf
       0.07331965863704681 -0.0683986246585846
000420 00 00 00 40 07 ff bf 3f 00 00 00 00 61 d8 c0 bf
       0.12498517334461212 -0.13160336017608643
000430 00 00 00 e0 0e 85 c2 3f 00 00 00 80 ab df a7 3f
       0.14468561112880707 0.04662834107875824
000440 00 00 00 80 a0 2b a2 3f 00 00 00 a0 cd 2a be bf
       0.035489097237586975 -0.11784062534570694
000450 00 00 00 c0 72 83 b5 3f 00 00 00 80 41 a3 ab 3f
       0.08403699100017548 0.053979918360710144
000460 00 00 00 a0 61 21 c1 3f 00 00 00 60 21 68 c3 bf
       0.1338312178850174 -0.15161530673503876
000470 00 00 00 a0 e9 1b c4 3f 00 00 00 60 e6 02 cc bf
       0.1571018248796463 -0.21883849799633026

conv2.bias f8 [8]
000000 00 00 00 40 f1 51 bd bf 00 00 00 a0 43 ef bc bf
       -0.11453159153461456 -0.11302588135004044
000010 00 00 00 40 08 02 be bf 00 00 00 40 0d 46 bf 3f
       -0.1172185093164444 0.12216265499591827
000020 00 00 00 00 cd e2 cb bf 00 00 00 00 9b a7 9a 3f
       -0.2178589105606079 0.02602998912334442
000030 00 00 00 40 f7 e9 bd 3f 00 00 00 40 0c 9c b5 3f
       0.11685128509998322 0.0844123512506485

fc1.weight f8 [64, 270]
000000 9a 71 2b d0 b9 89 fc bf 9a df 1a 9b b8 01 b7 bf
       -1.783624470866107 -0.08987001215689219
000010 53 2a c3 e0 44 e8 c0 bf 4b 81 c6 0d c4 71 a3 bf
       -0.13208828901982148 -0.03797733944088807
000020 7f 78 0e 21 ee 6d b7 3f d4 4f fd ad 5f 7b cf bf
       0.0915211516098413 -0.24595256801205656
000030 e5 e4 10 0e 6f 47 dd 3f 84 0f 4a 50 06 17 aa bf
       0.45748497365600677 -0.05095691423505769
000040 ff 3d c7 52 2b 2a 9f bf d7 b6 db 15 67 5a bd 3f
       -0.030434300353418205 0.1146606853833093
000050 9c 65 06 2c c0 a7 90 bf a1 d4 8e 1b 8f 21 d5 bf
       -0.016264918028900163 -0.33017327967838567
000060 b8 3d b7 f5 78 98 62 3f 96 97 76 4f 98 31 bd bf
       0.002269970178282423 -0.11403800907154812
000070 f6 e7 91 ec c8 cc 9c 3f 94 1b 77 82 9f a3 b2 bf
       0.02812494224460945 -0.07280919013201831
000080 66 78 4c 54 55 f2 af 3f 42 37 0c 13 4c ef b6 3f
       0.06239573148762716 0.08958888497383291
000090 2a 40 62 43 33 cf d0 bf d5 08 04 2a 18 08 a1 bf
       -0.26264649944733043 -0.0332648803032655
0000a0 7b 5f bc 8b 5a 70 c0 3f 3a 4f 20 3b da 86 c3 bf
       0.12842876265562694 -0.15255287062665862
0000b0 58 56 04 15 52 a9 b8 bf 46 c2 b6 27 78 3c ec 3f
       -0.09633362782582233 0.8823815131818911
0000c0 79 0a 35 db f3 eb ac 3f c4 33 05 33 f0 35 bf 3f
       0.05648767519825965 0.1219167828141528
0000d0 45 3d 3d 00 ad ee c7 3f 3e f5 4b 5d 3c 5d dd bf
       0.18697130691223598 -0.45881566153532904
0000e0 e8 da c3 e3 ea 05 cf 3f dd 07 87 da 5e 0e ad 3f
       0.24236808892575046 0.05675026338168696
0000f0 c0 2c bb 21 d5 fe bc bf 83 47 f6 5e f2 a0 d2 bf
       -0.11326343606485789 -0.2910734107364236
000100 b3 26 53 fd 46 e7 b6 bf 3b 64 f2 b6 d8 50 ba bf
       -0.08946651158035017 -0.10279612032390244
000110 06 6e 70 2b 86 17 98 bf 89 10 53 be 0e c9 b1 3f
       -0.023527237321202342 0.06947414537995845
000120 1b db 86 b9 84 bc e5 bf 10 38 ad 53 93 4e a0 bf
       -0.6792625068254411 -0.03184948345607108
000130 0a 43 79 c3 ce 06 ce bf e0 97 74 38 ae 23 df 3f
       -0.23458275360692254 0.48655276787974167
000140 35 3a 02 d0 8e 13 ca 3f 1d 61 0e 32 32 4a b4 bf
       0.20372185856509054 -0.0792571422774739
000150 79 5a 45 64 44 d2 c1 bf 1d 5c 5d 32 0f bc a7 3f
       -0.1392293443302213 0.046356654069932036
000160 72 16 1a bd 3a ca c9 3f 12 ee ff f2 de 2d eb 3f
       0.20148405297748045 0.8493494745338828
000170 86 f0 0d 5d 31 3c b6 bf 0e 87 e2 41 43 27 91 bf
       -0.0868559696372718 -0.016751337906163725
000180 6e 8a b2 12 d5 04 b1 bf e6 cd 6d 29 cd 89 a7 3f
       -0.0664799852989206 0.04597321634983213
000190 8f 75 5c 89 72 ab a6 bf d1 36 b9 98 6c 6c e6 3f
       -0.04427678992054062 0.7007353766327588
0001a0 e1 78 e3 da dd 98 9f bf 5e cf 0b d2 25 b6 97 3f
       -0.030856577381990106 0.023155775971602004
0001b0 57 85 a8 fb 62 37 b5 bf a6 e5 3c 66 bd 1e b6 bf
       -0.08287638324738587 -0.08640655275384876
0001c0 7c 6b 11 6e 9e 69 c1 bf d7 da 2c d8 6d 76 5f 3f
       -0.13603573202530217 0.0019203255366854655
0001d0 41 a4 30 76 a4 7d d4 3f 41 2d fa 7b ab 39 d2 3f
       0.32016860525124363 0.28476988894609084
0001e0 8d 77 f0 37 7b 70 c1 bf 88 d3 4d 6b 65 96 b4 3f
       -0.13624515754139246 0.08041986341215879
0001f0 39 14 2d 49 04 92 b0 3f ae a1 bc de 35 59 c5 bf
       0.0647280386593402 -0.16678498626539578
000200 26 88 d6 05 8f e5 b4 3f 18 8f 7b c8 67 4f 90 bf
       0.08162778751878416 -0.01592790757321358
000210 6a 36 11 c5 cc 60 ab 3f 43 5a 07 89 12 50 c7 bf
       0.053472899490412854 -0.18213111582618255
000220 ed 27 f3 6f 54 19 dc 3f 75 68 32 12 1d 2d 9b bf
       0.43904601032829654 -0.026539282069827103
000230 28 b0 98 1b ec 03 b4 3f 1c ae 9e 56 47 17 c1 3f
       0.0781848494886509 0.13352290849194126
000240 42 7c 40 2c f7 5d b8 3f ed 46 a7 6d 8e c1 d0 bf
       0.09518380003326946 -0.26181374271719343
000250 45 70 35 6a 76 34 88 bf 62 7e d3 0b 44 0b e5 bf
       -0.011818814388497976 -0.6576252203921735
000260 b2 8f 77 ac 5f 37 d0 3f ef 03 f1 41 80 e7 c6 3f
       0.253379743981209 0.17893985004232557
000270 1e f7 e8 d4 15 06 aa 3f 1c f0 93 07 87 26 00 c0
       0.05082767700194622 -2.018812236025054
000280 40 34 22 4c 41 74 c4 3f d8 3a a3 fe b5 eb 03 bf
       0.15979782311879553 -3.799580720597267e-05
000290 0c a1 93 bc 3b 0e ba bf 29 70 ae 2d df 2b c0 bf
       -0.10177968362734563 -0.12633886080300386
0002a0 b8 57 f6 b7 70 cc 8e 3f a3 f3 52 59 d3 fc bd 3f
       0.015038376440127496 0.11713906222116903
0002b0 62 79 90 42 e0 5e c0 bf e3 1d 2e 8f c5 4c b6 bf
       -0.1278953862210513 -0.08710894342049573
0002c0 3f 73 c2 c6 49 cf 9c bf 2f 3b 82 17 72 47 a8 3f
       -0.02813449168808124 0.047420087213245636
0002d0 59 d1 95 f9 75 1a ab 3f 79 9f 12 d2 b6 1b c1 bf
       0.05293625518507623 -0.1336582685228185
0002e0 59 70 02 61 1f df f3 3f 9c 96 a9 c9 c2 e9 d9 3f
       1.2419732846674576 0.4048926324233919
0002f0 e1 31 d7 b2 c6 95 cb 3f 5e 8b ec b3 fe 14 d1 bf
       0.21550830585910233 -0.2669064290113762
000300 2c 1a 40 c6 b0 53 d4 3f 2d c6 3e 9e fa 65 ad 3f
       0.3176080642737442 0.05741866285042039
000310 14 11 a6 7a 1c c0 db 3f 21 90 98 6f b8 06 bc 3f
       0.4336005399457161 0.10947754597197036
000320 de 92 04 9e 65 19 b8 bf 8f 9e 68 e6 14 4e e8 3f
       -0.09413752658708627 0.7595314502877545
000330 e8 de 3b a0 e9 2e ce bf 2a 9f 89 da a2 46 9a bf
       -0.23580665897292552 -0.025660080517268792
000340 1e 41 d0 93 a3 bf a1 3f 49 fa 01 30 4c 14 ab bf
       0.03466521434177337 -0.052889233455961256
000350 24 f9 fd 51 15 ea 66 3f c0 ee 49 78 09 7f a2 bf
       0.0027971664821385845 -0.03612546532982952
000360 e7 36 35 9f a2 b7 93 3f 41 08 f5 21 ed e5 c9 3f
       0.01925520035484043 0.20232929380478207
000370 a5 00 47 29 23 e2 b1 bf 54 2e 05 e7 46 4c cf 3f
       -0.06985683210132494 0.24451528816495005
000380 ce 87 f2 c0 87 02 d2 bf ee a5 94 1d 90 93 e0 bf
       -0.2814044365169338 -0.5180130555865483
000390 00 2d b0 24 63 eb d0 3f 81 37 33 ef c3 87 b7 bf
       0.2643668993266175 -0.09191536512227395
0003a0 22 9d a6 08 7a 7a fe 3f 1a c9 df 2b c9 5f e5 3f
       1.9049015367434738 0.6679426056782944
0003b0 ee ff e6 f0 28 de d0 bf 49 7c d6 d4 e3 3c de 3f
       -0.2635595657884541 0.47246642861313554
0003c0 fa c6 9e 92 c4 81 d1 3f 62 d9 89 b5 e1 62 b9 bf
       0.2735454017484781 -0.09916506464091904
0003d0 39 b0 6f bf c4 6c d5 3f aa 3e fc eb 09 94 c4 3f
       0.3347637052054356 0.16076778433533906
0003e0 f9 de 73 5f be 80 b3 bf 92 48 0b a2 6c fc e3 3f
       -0.07618322210680252 0.6245635189936982
0003f0 b4 fe e6 8a c5 c2 cb bf a7 01 ad a3 e4 b4 cc 3f
       -0.2168814590677265 0.22427041999800432
000400 f1 c7 22 93 fe ee b3 3f c9 84 d4 f7 9d 29 a5 3f
       0.07786551563438572 0.04133313799162292
000410 77 05 01 34 c2 f3 cf 3f 62 b7 0c 67 49 c3 e7 3f
       0.2496264223027926 0.7425887119950227
000420 fd 77 1f 4d 6c c7 d0 3f 1f f3 83 bd 70 ed 93 bf
       0.2621718171266137 -0.019460450713256635
000430 98 d7 c3 06 0b 23 ab 3f 00 00 00 c0 2f 9b a1 bf
       0.05300173242169065 -0.03438710421323776
000440 e2 7c c5 30 f3 18 c0 bf 1a f5 17 fa 3d 8b f2 3f
       -0.1257614124433309 1.1589946526795019
000450 95 b1 d4 a4 21 60 ee 3f 52 19 3e ad 5e c2 91 3f
       0.9492347926475754 0.017343024562728467
000460 5d b8 b5 fd e8 09 b1 bf 70 3a 22 a7 f3 0f db 3f
       -0.06655746645057677 0.42284861871386337
000470 4d fb 23 60 0d 7b ad bf ee 20 af ec 7f 69 d1 3f
       -0.05757943914976824 0.27206419099503776
000480 87 be 38 87 9d 6c 96 3f 47 83 cb c5 28 fe 70 3f
       0.021898709657931306 0.004148635166274789
000490 46 a4 4e f7 3a 10 f1 3f f9 62 ee 98 a8 7b 8e 3f
       1.0664624844014425 0.01488429753025987
0004a0 6d e5 66 13 fe a8 8a 3f 55 d5 29 27 2f 4e b0 bf
       0.01301764008245484 -0.06369299608362174
0004b0 c2 f0 05 be 74 bd be bf b8 80 81 1d 21 01 63 3f
       -0.12007836951483156 0.0023198744566315897
0004c0 83 bd 1b 9d fd 81 c3 3f 56 66 06 ca d3 f3 bd bf
       0.15240450068766273 -0.11700175935984566
0004d0 a4 57 32 95 d8 1e dd 3f 8b 4a de cb 6d d2 c3 3f
       0.45500769205079394 0.15485928015239767
0004e0 9e 1e d0 4a 2c d5 d1 3f 9d 53 3e 6a dc f0 dd bf
       0.2786360483737357 -0.46782598853433816
0004f0 9c 86 58 f9 2c 76 fa 3f 91 60 72 8d 28 bf e9 3f
       1.6538514843054264 0.8045847666389979
000500 75 65 8a b2 0f c5 c8 3f 61 3b cc 55 d5 25 f7 3f
       0.19351383416941884 1.446736655376036
000510 cc 54 90 8a 5f 68 e1 3f 30 a1 c1 dc c2 86 c6 bf
       0.5439908701252079 -0.17598758486861632
000520 a3 3a 94 d1 36 ae c3 3f a7 38 89 3e 15 5a c5 3f
       0.15375409348822186 0.16681161454693447
000530 f6 c8 c6 f7 9c 8e 93 bf 71 45 fd 90 67 f2 d3 3f
       -0.019098713515355713 0.31167019995799367
000540 0b 91 fc 13 a0 a1 c9 3f 00 00 00 80 50 0b 87 bf
       0.2002449128714335 -0.01125204935669899
000550 a6 f4 f0 0a a0 11 e9 3f 95 9c fd 2c e4 4b b4 bf
       0.7834015096374471 -0.07928300951390306
000560 2c 81 c1 79 89 fd b8 bf e7 d1 fe 4b d3 8a d7 3f
       -0.097618667817646 0.36784822865891303
000570 6b 02 0f b3 01 9c 62 bf 01 36 79 c6 9f 64 d6 3f
       -0.0022716553871478438 0.3498916090219098
000580 1c ee f0 8f ed ca c2 3f 32 aa 3c 2f a9 c0 97 3f
       0.14681787041068695 0.023195880420795408
000590 30 d7 8e 9a b7 d2 b8 3f 18 bb 83 d5 21 7d c2 3f
       0.09696528933895077 0.14444373059765137
0005a0 7f db 7f 16 2e 39 e1 bf b0 dc 4c c6 7d a5 c1 bf
       -0.5382299842302557 -0.137862893892565
0005b0 17 8e 19 d1 7b 73 c3 bf 4b 7a 5b 39 b3 a1 a0 3f
       -0.15196178159668314 0.032483673812511236
0005c0 aa ec 46 90 f3 01 7c 3f 5f 25 b6 1c 82 bf fa bf
       0.006837798519366315 -1.671754943994834
0005d0 47 0f cd 9b f0 59 fd 3f bf 6a 69 0f 17 71 c7 bf
       1.8344579778649448 -0.18313873531845634
0005e0 13 b3 24 31 58 87 b4 bf b0 d1 93 04 2c 19 e6 3f
       -0.08019019317425728 0.690572747173567
0005f0 53 9d 27 17 48 3f b3 bf 55 f7 48 6f 04 06 f0 bf
       -0.07518435063649535 -1.0014690730162858
000600 1d ec 29 9d d8 57 ba bf fc 82 bd e0 d4 8d a6 3f
       -0.10290292584424816 0.044050838884464455
000610 46 16 37 4c 3e a0 7d bf db 49 ae cf 91 33 9b 3f
       -0.007232898092700396 0.02656390981753441
000620 e1 8b 07 16 97 de a7 3f e6 3a 4c 78 d7 ec b8 3f
       0.04662010330118683 0.0973639172263848
000630 55 d1 e2 00 12 97 e5 bf a4 6c 8b 7f 15 3f 73 3f
       -0.6746912019066637 0.004698833444048454
000640 40 88 71 a9 2e 2a c5 3f 65 35 69 63 13 b0 bf bf
       0.1653498008118408 -0.1237804525091711
000650 6a d4 a5 6b 58 9b d5 bf 9c 0b b0 eb 79 3f 81 3f
       -0.3376065303085115 0.008421852593533612
000660 a3 3f 36 86 b2 5c 01 c0 40 63 ae 08 0e b9 ed 3f
       -2.170262383013282 0.9288396997027135
000670 e2 8c fe 6c 7d 31 ce 3f 22 d5 0f 77 5c 28 ac bf
       0.23588531324376222 -0.054995431455532776
000680 01 e3 05 ef 86 6e d7 3f 87 4e 7e 71 3f 82 be 3f
       0.36612103788461076 0.1191749240954839
000690 90 58 30 fc 01 bf b7 3f 63 1b 06 0e c2 02 b8 3f
       0.09275829703287486 0.0937920841443947
0006a0 6e bb 36 73 62 7f cc 3f de 05 ff 54 87 65 a0 3f
       0.2226374685828562 0.03202460205603662
0006b0 ce 54 3f 55 82 c0 c1 3f 84 39 55 9b 71 58 b8 3f
       0.13868741190404993 0.09509954492862077
0006c0 da 8f 90 2c d9 9a e8 bf 16 d8 d9 9e da 7c b7 3f
       -0.768902384796543 0.09174887064168077
0006d0 06 d7 c3 3a 06 94 a5 bf 29 7c c1 b0 f3 6e e9 3f
       -0.042144961045705684 0.7947939350377783
0006e0 47 88 b1 78 81 50 d2 3f 90 16 3f 65 10 8d a5 bf
       0.2861636809012719 -0.04209185825270112
0006f0 ad 90 6e 84 1b 5a a1 bf d1 45 ea 42 8d fc a5 3f
       -0.03389059058761865 0.042942442339277805
000700 0c d4 80 d1 33 14 c4 3f 12 4c ce 49 65 93 d9 3f
       0.15686652879381346 0.39962131698229186
000710 76 ac f4 7d ba a6 dd bf cf 2f 5f ad 4c d2 01 c0
       -0.46330129909865236 -2.227685312716836
000720 3e 3e 29 62 c4 f0 c4 bf 2f 29 07 d5 3d a9 cc 3f
       -0.16359762948057893 0.22391484166866735
000730 7a 53 52 0c 5d 83 d5 3f 00 00 00 e0 10 bc a6 bf
       0.3361427898719779 -0.04440357908606529
000740 da db f3 ff 3a f4 8e bf ed 4a 0e 45 85 b6 72 3f
       -0.015114270149281173 0.004568596444090228
000750 60 52 c8 29 23 85 fb bf 67 43 b8 ee 1e 60 c2 bf
       -1.720004237378042 -0.14355837494124588
000760 17 6f 5b af 15 1f e6 bf 63 e1 b8 67 85 1f e0 bf
       -0.6912945198959929 -0.5038477922271735
000770 dc 08 f0 1f 61 c5 ce bf d0 32 b0 1a dd 61 a4 bf
       -0.24039854106383174 -0.03980914068970309
000780 00 00 00 40 56 f6 97 bf 00 00 00 00 3e d9 7b bf
       -0.02340063825249672 -0.006798975169658661
000790 00 00 00 00 04 db 8b 3f 00 00 00 80 ae fc 91 3f
       0.013601332902908325 0.017565466463565826
0007a0 9a f8 dc 66 31 c3 8e bf 5c ef f4 d0 de b8 b8 3f
       -0.015020738555559899 0.0965708980701811
0007b0 32 ad 20 94 68 9c b4 3f 33 37 8e 12 9a b4 d1 3f
       0.08051160446546105 0.2766480618673654
0007c0 00 00 00 80 11 36 9f 3f 00 00 00 00 6f 0c 8d bf
       0.030479691922664642 -0.014183871448040009
0007d0 00 00 00 00 f5 f1 84 3f 00 00 00 a0 9f a3 a1 bf
       0.010227121412754059 -0.034451473504304886
0007e0 00 00 00 00 03 4d 9f 3f 76 45 3b 1b 9a 04 77 3f
       0.030567213892936707 0.0056196231632424844
0007f0 81 75 40 e4 d5 3a e6 bf 00 00 00 00 08 47 9c 3f
       -0.6946820695917922 0.027614712715148926

fc1.bias f8 [64]
000000 d9 8a c1 8c 13 81 c4 bf 93 b9 fe 82 93 06 c3 3f
       -0.16018909809925821 0.1486381902336232
000010 fa 19 1e 17 42 62 ac bf e0 69 ac 04 96 7d ba bf
       -0.055437150308581054 -0.10347879041766062
000020 87 ae cd 64 72 e1 a5 3f c7 43 fc 77 ef e4 b4 bf
       0.04273564796934886 -0.08161827735263137
000030 6a 10 eb 05 b8 f3 b4 3f d1 2e f4 f0 c2 45 b9 bf
       0.08184385437476896 -0.09872072584783644
000040 ad 09 95 7a 78 c0 cf bf 2e dd b9 98 13 80 c0 bf
       -0.24806123719652132 -0.12890858609510175
000050 7f ad df 0f a6 77 c9 3f 7d cf cf 2a a3 b3 bb 3f
       0.19896388793072714 0.10820979876717547
000060 4b 79 dc ca 09 d5 c7 3f 5d 17 a7 7b 07 dd bc 3f
       0.1861889114888505 0.11274763840546372
000070 50 9f df 65 76 eb 89 bf 0a 9c 56 bc 81 a0 ba bf
       -0.012656140312131164 -0.10401163910010794
000080 0f 3d 61 a9 19 45 c5 3f 55 df 03 18 9c 91 bb 3f
       0.16617127199649714 0.10769057833010483
000090 d2 82 e2 84 0c e1 cf bf 0a ad 48 98 95 a7 a4 bf
       -0.24905544746891067 -0.04034106716093262
0000a0 e1 76 06 9e 43 97 d3 bf be f6 04 8e fc 57 d4 3f
       -0.30610742981103384 0.3178702723415475
0000b0 9a a7 6a 99 bf f9 bd 3f 6f b0 0a fe 79 2e b6 3f
       0.11709210868380496 0.08664667560759808
0000c0 76 a0 e8 56 90 e6 b6 bf ca 41 7e 54 de bd bc bf
       -0.08945562478823085 -0.11227216303655677
0000d0 5d f1 06 09 e0 a0 9f bf 76 e0 44 eb 5e a5 d0 3f
       -0.030887127448054986 0.2600934312390629
0000e0 26 c7 19 54 9e 3b aa 3f 3c b5 87 3d 5e 76 c2 bf
       0.05123610283489048 -0.14423730854415762
0000f0 35 86 02 d7 f2 47 b6 3f 24 37 45 71 85 64 85 bf
       0.08703534840835732 -0.010445635337102362
000100 61 51 cb 28 3c 5f d1 bf ad 86 52 bc 22 5d cb bf
       -0.27143768295106524 -0.2137797755759058
000110 b7 4b 7f 5a 7a 41 c8 bf f6 1d 45 d6 b0 ff b0 bf
       -0.1894982282525157 -0.06640153151703729
000120 0e d6 23 e9 20 ab d4 bf d9 e2 dd c4 51 14 bd bf
       -0.3229448582418123 -0.11359129959408722
000130 c8 15 12 99 b4 f8 d0 bf c8 f5 b5 15 a0 77 b6 bf
       -0.26517977665238535 -0.08776283769653681
000140 81 fc e3 09 81 04 c4 bf b7 e5 e8 9a 80 8b bb bf
       -0.15638745291650838 -0.10759738714195675
000150 8f 65 d2 9a 68 af a6 3f ec 17 76 b3 30 f0 c8 3f
       0.04430701150813398 0.1948300243640796
000160 2f 78 84 21 27 8c cb bf 63 ff 3b b2 cd 27 c4 3f
       -0.21521462570757552 0.15746470644807706
000170 aa 30 88 b4 37 2e 94 3f 82 be d5 4e 00 8d b1 3f
       0.01970755614642942 0.0685577576130019
000180 cc c8 a4 89 46 2c aa bf 54 c5 db 60 e3 b8 98 3f
       -0.05111904554577648 0.02414279249837155
000190 1f 2f 2c 64 65 32 c8 3f 24 cb be 8d 74 91 cf 3f
       0.1890379656909937 0.2466264431110058
0001a0 a2 97 90 36 db 67 d2 3f 49 e7 10 a0 dc 69 b4 3f
       0.28758888558001605 0.07974032314168968
0001b0 68 66 8e cb a4 66 c2 bf 11 dd 86 14 ed 4b a2 bf
       -0.1437574380805018 -0.03573552012988491
0001c0 fb 7d ea 5e ea 69 a1 bf 25 95 f9 83 8e a1 82 3f
       -0.03401119621889489 0.009097207453303622
0001d0 a3 4a ea 54 f0 54 ae 3f 10 ae 8b 64 af 42 c4 bf
       0.05924178158342854 -0.15828506860212643
0001e0 87 24 3b f0 f4 ea c5 3f 94 88 25 3b e2 ba be 3f
       0.17123281221418926 0.12003911918648874
0001f0 99 7a 4b e9 71 e8 b8 3f 67 cf 12 f9 2c 04 ad 3f
       0.09729682870554725 0.056672482876279066

fc2.weight f8 [3, 64]
000000 5a a6 0f ab b6 7b cf bf f0 ec 95 a4 41 25 cd 3f
       -0.2459629378566202 0.22769947563560988
000010 38 b4 5b e3 5a 28 7b bf 62 40 e3 b9 4c f8 cc bf
       -0.006630282432280636 -0.22632750584171207
000020 94 e4 31 7a 77 c1 cc 3f fc cd 39 e8 d4 7d cd bf
       0.22465413538501322 -0.23040257777357442
000030 60 d8 6e 8b b6 01 da 3f 74 e0 9a df 07 02 ae bf
       0.4063545571947369 -0.05860924343636578
000040 65 12 f2 73 5f 55 d8 bf 24 f0 3c 9c 33 29 d1 3f
       -0.380210746029013 0.26813974626179715
000050 49 da de 6f ba af cb 3f 03 a7 65 b3 bc 29 c5 bf
       0.216300301193501 -0.1653362155878356
000060 f0 12 43 c4 13 00 ce 3f 9c b8 da 33 b7 cf d3 bf
       0.23437735636812063 -0.30955295623687973
000070 cc 93 24 03 74 a9 d4 bf b7 b7 c1 13 52 f6 d9 bf
       -0.32284260088846106 -0.4056592171608559
000080 5b 93 71 15 14 d0 cb 3f 3a 92 c7 ef a3 d0 e3 bf
       0.21728755042127088 -0.6192187960810493
000090 8d 7a 5e 98 38 6a e3 bf 29 28 5c bb 39 63 d7 bf
       -0.6067164398153452 -0.365431244820345
0000a0 e2 33 69 89 23 b8 e0 bf dc 5d 71 27 7d 66 dd 3f
       -0.5224778827483727 0.45938042499389353
0000b0 91 e8 86 6b 4f 20 c7 3f c1 22 9b e4 7b c7 d9 bf
       0.18067353010502932 -0.4028005344849071
0000c0 fe 60 24 d5 47 a3 b1 bf b1 0d 95 74 86 24 d9 bf
       -0.06889771417298005 -0.3928543222902717
0000d0 92 70 dc 6c 4d e0 ad bf 03 34 19 43 8b 9d d0 3f
       -0.05835191682692299 0.2596157222040462
0000e0 71 47 a8 0f e0 b9 bf 3f d6 1b 92 38 fd 11 d0 3f
       0.12392998106250076 0.25109797024236735
0000f0 99 41 52 a2 24 af d0 bf f3 2b 03 24 7a a3 b8 bf
       -0.2606898865861012 -0.09624446276863789
000100 5d 26 7f ab 8c 1a e2 bf 85 0e e8 16 5b 8c e0 bf
       -0.5657409047646059 -0.5171332785980246
000110 4e 45 8f a1 95 1e d2 3f 84 81 bc aa bb 2f e6 bf
       0.2831167295199365 -0.6933267912573204
000120 2d 87 07 8b 6a 99 ea bf 13 41 c4 7f f5 a8 cd bf
       -0.8312275615137189 -0.23171871889690773
000130 93 72 e4 4d 0c 5c cc 3f 2a 30 ac b8 19 7e de bf
       0.22155908397043741 -0.4764465621417481
000140 b0 e4 db 65 4b e6 e5 bf 04 45 a0 ce 8a f7 c8 3f
       -0.6843621243889597 0.19505438889658688
000150 35 de 4f 9d 45 70 b3 bf 94 81 2b 3f 66 fd cc 3f
       -0.07593188372254008 0.22648313602895753
000160 fe f6 ad c6 61 48 cb 3f bc 94 49 61 f4 81 e7 3f
       0.21314642144346146 0.7346135997910532
000170 6e 3d 81 a0 dd aa e4 3f 95 20 18 22 ad ce ca 3f
       0.6458576331005312 0.2094322601772133
000180 1c 6a 05 38 5d 01 82 bf ef 41 44 38 6a 09 d1 bf
       -0.008791664383058388 -0.2661996411780185
000190 22 ae f8 38 bf 8a c5 3f 2c e6 f5 7c b6 e3 c1 3f
       0.16829672128493295 0.13976174451436074
0001a0 c1 ee 7f 1e 2d 65 e4 3f 42 e3 2d 70 e4 56 c8 3f
       0.637350616044806 0.19015174367430104
0001b0 18 d7 7c ce 21 04 d6 3f 4f 18 50 63 29 f4 cd bf
       0.34400220074472676 -0.2340137228895309
0001c0 ed 3c 0f bb 8d 96 d2 bf df c4 50 74 dc 70 9a bf
       -0.29043906466991026 -0.025821156119666063
0001d0 e8 92 b9 29 b9 fe e8 3f d9 f5 e0 90 cb 18 dd bf
       0.7810941519679462 -0.4546383776504093
0001e0 ae 62 f0 54 58 8c c5 3f 51 bd 5d 10 9c c4 c7 3f
       0.16834549090778722 0.1856875495827617
0001f0 58 48 0d d6 f3 47 df bf 97 d4 e4 64 65 23 cb 3f
       -0.48876663115982444 0.21201770235498849
000200 cd 94 43 e5 c7 16 c3 3f da 67 5c a2 70 ef cd 3f
       0.14913271612673498 0.23386962821751817
000210 26 78 b1 ad 03 c9 a1 3f bd 03 d5 55 bc dd c2 3f
       0.0347367429283028 0.14739183608074127
000220 8d 13 d2 b9 54 7b cc 3f 88 d9 e6 76 42 a8 c6 3f
       0.2225137622191621 0.17700987630605547
000230 24 9c 11 f6 4d ac cf bf 7c 2f de ca 34 17 b5 3f
       -0.24744581713750435 0.08238534882383236
000240 32 ec 85 2b 90 34 de bf 81 f3 4b ba 1f 3a 7c bf
       -0.47195820093446905 -0.0068913688053243724
000250 03 a4 ea 6c a8 75 c6 3f f9 65 83 8e 56 ec cd 3f
       0.17546563451949745 0.23377496679931634
000260 e6 5c 2f 3e a8 77 c9 3f bf 59 2d 5a d0 37 cf 3f
       0.19896414791467193 0.24389080432110963
000270 4e f7 7f cb 8e 29 b9 3f 7c 96 bc cc 44 7c bd bf
       0.0982903715921257 -0.11517744062856566
000280 05 92 a2 ff 25 f3 cb 3f 7f 33 0f f9 2e fc bd 3f
       0.21835780126743046 0.11712926464606531
000290 38 37 78 76 43 72 cf bf fd 6b 90 bd d6 53 c2 3f
       -0.24567454609535289 0.14318355804502395
0002a0 ac a8 fe 14 5b 29 c3 3f 3a c9 e8 7e e3 b6 a5 3f
       0.14969957852492166 0.04241095470605889
0002b0 ca 47 c1 e6 6a 8a c4 bf 84 2c 53 92 f8 79 cb 3f
       -0.1604741694196135 0.21465975899477396
0002c0 dc 1e 77 a2 68 19 ba bf 42 bc 3d ff e5 23 b0 3f
       -0.10195020643652292 0.0630477665088032
0002d0 b4 f6 dc 21 7f 1f b1 3f bd af 81 f0 20 db d1 3f
       0.06688685013520052 0.2789995526024958
0002e0 6a 46 aa b9 74 06 d1 3f 86 f5 e1 c6 7d e6 c7 bf
       0.2660190404068091 -0.1867215367418959
0002f0 f8 6b 7f 85 14 1f df 3f eb 13 94 ff f0 7b c7 bf
       0.4862719825447921 -0.1834698913518474
000300 1b e7 b5 bf 5b a4 c3 bf aa db 44 6e f5 99 c8 3f
       -0.15345332013003418 0.19219844707705863
000310 8b 65 3a 71 0c 1e b0 bf cb f7 95 9c d6 58 cc 3f
       -0.06295850529058648 0.22146113057891478
000320 1d 06 c2 77 d7 10 cc bf 9a 7d df 27 63 8d a1 3f
       -0.219263967013874 0.034281824700651956
000330 03 6b 83 1e 7e e5 c3 bf 6d 9b e8 50 2f 43 d9 3f
       -0.155441059969995 0.39472563649399356
000340 58 82 72 09 e5 0d c8 3f d8 ad 3c cd 8a cb d4 bf
       0.18792403184217465 -0.324923229624543
000350 f2 01 f8 59 b7 bc d5 3f 58 06 de 76 df 7f cf bf
       0.3396433237649311 -0.24608987144533745
000360 9d 75 84 12 0f fc cb bf ac 8a 08 42 7f fc d5 bf
       -0.21862972644968873 -0.3435362000329103
000370 b5 b9 52 8f 41 9b d3 bf 99 85 ea e4 97 90 cc 3f
       -0.3063510799064731 0.22316263845008846
000380 88 6c 2a 95 f6 63 a3 3f d8 51 9b 30 6c d0 ce 3f
       0.037872033795076254 0.24073555348753817
000390 0a 6c ac 6d c3 6b d0 3f b5 67 14 f2 7b c0 cb 3f
       0.2565773554831031 0.21681165046976295
0003a0 08 07 07 5d a2 2b d9 bf fd c8 84 f6 da 9c c6 3f
       -0.39328822216712966 0.17666184460683346
0003b0 49 60 16 27 62 8c 8b bf bd 3f f4 48 ea dc d5 3f
       -0.013451353853085506 0.34160859226630774
0003c0 9b 8d 83 18 4a 4e c8 3f 16 da 56 8c e0 59 d0 bf
       0.18988920399634143 -0.25548566536909456
0003d0 bc 86 8c c6 1e e9 c4 bf 8a 78 de 20 20 90 ac bf
       -0.16336426443836227 -0.05578709031327474
0003e0 62 df 65 7d 37 1f c4 3f 9a 5d ac 83 f2 40 c9 3f
       0.15720265982576637 0.19729453496323118
0003f0 1a d4 b5 26 42 d7 be 3f ea a3 aa 13 a6 cb c9 3f
       0.12047208256792921 0.20152736625939777
000400 3f c4 85 d7 55 c1 c4 3f a1 f9 63 0b 87 7c d8 bf
       0.1621501257282336 -0.3826005564914344
000410 6a 8a 0e fe c2 2f 8f 3f b3 84 bc 94 9e 84 c3 3f
       0.01522781694240401 0.15248472464103244
000420 c4 13 3e 48 2d 1b e2 bf c0 a5 7b 66 32 2d c9 3f
       -0.565817490671741 0.19669179920246727
000430 5b 0a 3d 1f 0b f2 c3 3f 99 54 5a aa 2c 06 6c 3f
       0.1558240797549669 0.0034209129688159254
000440 40 af b8 20 bc bd e1 3f 2a 59 26 1b a8 a7 e0 bf
       0.5544109953966441 -0.5204659014005177
000450 08 f4 23 66 64 ea d0 bf cb 84 87 53 89 da 9d 3f
       -0.2643061635461099 0.029153962825039053
000460 1e 2f 60 a1 3f f6 d7 bf 91 4b 86 6a 75 50 c2 3f
       -0.37440481910083345 0.1430804033412554
000470 21 79 83 2f f8 2c d6 3f 3a af 1e 88 92 bb da 3f
       0.34649471893307476 0.41769851010279846
000480 5b 6e 71 d1 42 03 c4 bf f1 5f 66 ef 95 8d 93 bf
       -0.15634951807702432 -0.019094794022379295
000490 9a 49 fd 5b 4f 99 d4 3f 13 64 b1 16 41 7a c3 3f
       0.3218572996458079 0.15216840370229132
0004a0 16 5f f2 26 bc 73 c3 3f 5f 1c b2 bf 4f 60 d4 bf
       0.15196945096681053 -0.3183783885983242
0004b0 19 d1 c0 6e 9c 51 d6 3f 9b 33 43 a3 8b 74 cc 3f
       0.34873114410153644 0.22230668517877636
0004c0 dc 34 23 2f f1 96 b2 bf 84 e4 25 de 1f 2d da 3f
       -0.07261569405382623 0.40900417989866633
0004d0 0c 6f 43 8c c4 04 b9 bf 96 80 b0 21 25 2e a4 bf
       -0.09772900032424675 -0.03941455875633541
0004e0 d7 0f 61 40 1e 13 e1 bf e8 90 73 93 3d 60 a1 bf
       -0.5335837609677537 -0.03393738198227131
0004f0 38 81 77 05 d9 94 d6 bf d0 88 26 8f bc 2b de 3f
       -0.3528349450480337 0.4714194677309367
000500 f8 b9 31 99 e5 24 d2 3f 36 5d 43 3d 0d e8 c8 3f
       0.2835020061528719 0.19458165637363728
000510 51 c9 d1 47 76 59 cd bf 82 f7 56 0a 95 31 b0 3f
       -0.22929266459284262 0.06325656416353634
000520 fe b0 a7 73 47 23 dd 3f 2d bb 92 25 0a ab d3 3f
       0.45527826590001996 0.3073144308972811
000530 98 73 81 d6 16 6f cf bf d3 ab 3a 79 44 b7 62 3f
       -0.24557767366323158 0.0022846543668797264
000540 79 be 01 6e 94 8e c9 3f 4d d1 85 88 12 7d ae bf
       0.1996636902945175 -0.05954797665154619
000550 9e 6c aa 44 76 b4 dd bf b5 ff e4 ec 48 f4 dd 3f
       -0.464139525467269 0.4680349648879159
000560 20 71 dd 59 5b 29 cb bf 43 fb ec 5a cc 50 df bf
       -0.21219961059512915 -0.4893065345713021
000570 c4 c0 7d 23 19 14 c3 3f d0 6f 67 6b cf f6 e4 bf
       0.14905084832162718 -0.6551282022223806
000580 35 2c 89 91 63 90 76 bf f3 a3 4c d5 e1 07 bd bf
       -0.00550879377312712 -0.11340152223114312
000590 2c 3d 6b 2b 1b a2 dc bf bd 85 dc b5 c3 99 da bf
       -0.4473941730511395 -0.4156350399008167
0005a0 ac 5e 97 a2 d7 53 bc 3f de 8e db 02 99 26 e1 bf
       0.11065433234704852 -0.5359616332829906
0005b0 35 b6 85 e6 49 c2 de bf 37 ce 0d a3 f6 e1 cd bf
       -0.4806084395594071 -0.23345835649125643
0005c0 2e d4 9b 42 c8 d4 cd 3f 72 d9 95 8e 46 c2 da 3f
       0.2330560994375061 0.41810764240599163
0005d0 0a be 5e 5a 20 64 c0 bf ac 29 a8 55 97 f1 d0 3f
       -0.1280556145916168 0.2647455536358858
0005e0 00 4d 78 86 a5 98 bf 3f 0f 5d 05 79 21 7e c9 bf
       0.12342295201260711 -0.1991617051050771
0005f0 1b 07 4c a1 62 f8 d0 3f 06 31 6d e8 54 1b db bf
       0.26516023399027383 -0.4235431928434682

fc2.bias f8 [3]
000000 ce 45 9f 4a 7a 04 de 3f c8 e4 3f a7 5b 1e dd 3f
       0.4690232971889515 0.45497790654151204
000010 a8 94 4d 4e cb 9e d0 3f
       0.25969202658445534
